Vehicles/GenDisV_0_1_0/GenDisV_0_1_0_actor_target.pth (torch, 176449 bytes, 6 tensors)

weight f4 [200, 13]
00000000: 1095 7dbe 5b7c 533e 750d 373f a92d 3cbe
00000010: 8696 fdbe 7808 343e d3a2 ea3d 0cd9 783e
00000020: f817 643e 21dc 343e 3d01 d3be c00f c3be
00000030: 8eba d1be cc84 0f3e 04a3 37bf 7429 28be
00000040: 7143 d0be 9982 0dbf 825c a8be 291c 593e
00000050: 8985 19be 52ae 24be 1f3a 6dbe 7965 7e3d
00000060: 41a4 3c3e 305d 413d 6ef1 cdbf f672 69be
00000070: 7450 55be c400 7e3e cf9d 813e 40b1 09be
00000080: fc76 08bd 5eb6 fe3d 3c00 4bbe e5dd 923d
00000090: fc9e 033e dff2 55be f1f6 8a3d cfbb 98bf
000000a0: 8f23 983e fec1 923d 09c1 ce3e 6495 023e
000000b0: b54b bdbe f212 3f3e c9ad 85be dba6 373d
000000c0: 037e c0bd c8b4 94bd e9f2 b5bc d9d5 fc3e
000000d0: 2d82 c53d 0995 a63e 1612 abbe 9909 a4bd
000000e0: 78f2 f43e 36a8 43be f0c3 55be bdca 14bf
000000f0: 26c4 ebbe 2ee7 13bf 4323 4a3e 8646 b5bd
00000100: 6560 bd3a c16b f23c ed7d e0bd 0709 85be
00000110: bbc3 b5be 4c25 833e 6803 123e b38c f73d
00000120: b479 893d 68f6 633e 17d4 a63e e06c cabd
00000130: f360 3bbd 5710 a73b c2ac d0be f01f c9bd
00000140: ad89 953e d05c b6be f18d 583d 7eac 9dbe
00000150: 88ea ca3c 114d c2be 4f20 25bc e596 9b3d
00000160: 0e18 1dbe 7a2e 673d 8cd0 78be 5d16 1bbf
00000170: d349 953e 5359 d2be ae0b 3f3e 255f 033d
00000180: 7e1d 55bd b57b d73e 742f 75be d65e b03e
00000190: af7f 4f3d 2e03 3f3e 6c5f f3bd c215 cc3d
000001a0: c0a4 fc3e b9d4 823f b22e bbbd 6138 26be
000001b0: a101 19bc 3d49 40be a523 8dbd 5559 243e
000001c0: ecf3 01be cf62 bcbd 02b2 ffbd 3b52 a23d
000001d0: 38bf f13c 31f8 713e 0f70 dcbe 5635 c4be
000001e0: 9beb 6e3e 3729 353e 9250 773d 70a5 70be
000001f0: bdda 7a3e 38cd 24be 8f8a 92be 8ebc 10be
00000200: 1c39 a63e 926c 35bd 87f6 50be 1dd1 dabe
00000210: 7086 d5bd e642 d23e 1140 d73d f3ca 80be
00000220: bce4 a3be 1b4d 82be e6c6 d2be d8c2 8bbe
00000230: 8fe3 5cbe b4ee bcbe fbfb c8bc 0495 84be
00000240: e138 c6ba 899b 083f 1e1f 383d 7734 873d
00000250: 1d16 e4bd 957a 0a3e 6950 87bd d402 5fbe
00000260: 8c3e 8d3e e44c 33bf 9128 6bbe 7684 b13e
00000270: ddbb 3e3d a3b7 433e 38b7 b7bc aecd ddbd
00000280: 583a c8bd c79f 373e 4339 8ebe c817 e5bd
00000290: 9a39 ef3d 4601 513d 92b3 403d bcc3 e83e
000002a0: 14ac 1bbf 7e3a 0bbf ec67 9ebe 6eb2 cf3e
000002b0: 9d13 cd3d f480 30be 398d 8dbd 1351 1ebd
000002c0: b79d bbbe 2124 06bf ea76 babd d3f5 8ebe
000002d0: 546a c9bd e11c 1ebc 2f87 22be 8fac e2bd
000002e0: 172b f3be 204f cfbd 0e0d b43d 211a 79be
000002f0: 60de 82be 5968 0b3e 1303 7e3e 5f56 dbbe
00000300: 8ea3 e33e c2d2 b63e f751 26bc 0672 b93d
00000310: b783 3f3f 6d66 1d3e 3083 02be fd3a 253d
00000320: 7c69 4ebc 9a9e 003c 3009 7dbe 83d6 2cbf
00000330: 6787 9bbd 8f22 32be e5f0 a53e b453 fc3d
00000340: d770 533e ab1a 0cbf 5c2c 48bd 7562 183e
00000350: f316 413d ddd4 093e 7a83 9dbe 28d9 eebe
00000360: a7e0 ddbe f1a5 04bf 586f 803c 9f27 3e3e
00000370: 963d 2a3e f3ff 023e a65d 2fbf b44f 97be
00000380: 8290 babe b331 0ebf 713d c4be ffdf 563e
00000390: 7522 ad3d 1e8d 843e 29c4 953e f144 9abe
000003a0: bd9f f0be 713b ca3e 8d36 9d3e e641 26be
000003b0: e516 f4be 4473 8fbe 1d14 07be 2366 d3bc
000003c0: 95e1 48bf 286b 8cbe 038c ef3e d3b5 b43d
000003d0: e6a4 80bd 3056 1c3e 2581 4f3b 8aff d3bf
000003e0: fae9 673e bd1e 0c3e 3a37 58be 39e0 d93c
000003f0: eeb1 a03d cf70 bb3d d43b fabd b735 20be
-0.24763894 0.20652907 0.7150491 -0.18376793 -0.49528903 0.17581356 0.114568375 0.24301547
0.22274768 0.17662098 -0.41211882 -0.38097954 -0.40962642 0.14015502 -0.7173312 -0.16422063
-0.40676454 -0.552774 -0.32883078 0.21202148 -0.14992346 -0.16082123 -0.23166703 0.06210849
0.18422033 0.04720801 -1.6089303 -0.2279776 -0.20831472 0.2480498 0.2531571 -0.13446522
-0.033316597 0.124371275 -0.19824308 0.07171229 0.12853616 -0.20893429 0.067853816 -1.1932315
0.2971463 0.07165907 0.4038165 0.127523 -0.36971822 0.18659571 -0.2610915 0.04483686
-0.09399035 -0.07261044 -0.022210555 0.49381903 0.0964397 0.3253558 -0.33412236 -0.08009643
0.4784124 -0.19107136 -0.20875525 -0.58121854 -0.46048087 -0.5777463 0.19740014 -0.08851342
0.0014448283 0.029592397 -0.109615184 -0.2598345 -0.35500893 0.25614393 0.14259112 0.12087383
0.06712666 0.22261965 0.32583687 -0.098840475 -0.045746755 0.0050983834 -0.40756804 -0.09820545
0.292066 -0.35617685 0.05286974 -0.30795664 0.024770036 -0.37949422 -0.010078504 0.0759714
-0.15341207 0.056440808 -0.24298304 -0.60581 0.29157886 -0.41083774 0.18656799 0.03207316
-0.05203008 0.42086568 -0.23943883 0.34447354 0.050658878 0.18653557 -0.11883435 0.099650875
0.49344444 1.0221168 -0.09139766 -0.16232444 -0.009338767 -0.18777938 -0.06891564 0.16049702
-0.12690705 -0.09198534 -0.12485124 0.079258405 0.029510126 0.23629834 -0.43054244 -0.38321942
0.23332064 0.17691503 0.060379572 -0.2350061 0.24497505 -0.1609391 -0.28621337 -0.14134428
0.32465446 -0.044292994 -0.20406543 -0.42737666 -0.104260325 0.41066664 0.105102666 -0.25154838
-0.32010448 -0.25449452 -0.41167372 -0.2729709 -0.21571182 -0.36900866 -0.024534216 -0.2589494
-0.0015123152 0.5336233 0.04495155 0.06601804 -0.1113703 0.13523324 -0.06607134 -0.21778423
0.27586782 -0.700392 -0.22964694 0.34671372 0.04656588 0.1911302 -0.022426233 -0.10830246
-0.09776753 0.17932044 -0.27778062 -0.111861765 0.116809085 0.051026605 0.04704625 0.45461833
-0.60809445 -0.54386127 -0.3093866 0.4056582 0.100135066 -0.17236692 -0.06911702 -0.038651537
-0.36643764 -0.5239888 -0.09104712 -0.27921924 -0.098347336 -0.00965044 -0.15871881 -0.11068069
-0.47493812 -0.10122514 0.087915525 -0.24326374 -0.25560284 0.13614024 0.2480586 -0.42839333
0.4446072 0.3570767 -0.010151378 0.09054951 0.74810356 0.15371104 -0.12745357 0.04033946
-0.012598392 0.007850314 -0.24710536 -0.6751482 -0.07594185 -0.17395996 0.3241035 0.123206526
0.20648514 -0.5472819 -0.04887043 0.14881308 0.047141027 0.13460107 -0.3076437 -0.46650052
-0.4333546 -0.51815706 0.015678093 0.18569802 0.16625056 0.1279295 -0.6850227 -0.29552996
-0.36438376 -0.55544585 -0.38328126 0.20983885 0.08453838 0.25888914 0.2925122 -0.30130723
-0.4699687 0.39498475 0.3070568 -0.16236076 -0.47673717 -0.28017628 -0.13191266 -0.025805539
-0.7846921 -0.27425504 0.46786508 0.08823743 -0.06281452 0.15267253 0.003166267 -1.6562359
0.22647849 0.136836 -0.21114817 0.026596176 0.078464374 0.09152376 -0.122184426 -0.1564549

bias f4 [200]
00000000: 86c5 473e 198a 0a3a 2d71 993d 6086 263d
00000010: cdd3 e23e d7ba 9abe 6e84 19be fafe 26be
00000020: 30f3 f6bd 4717 07be 9ea3 643e 4cf5 883e
00000030: 88a9 f1bc 7fe2 12be df31 c7bd fa49 193d
00000040: f638 c8bd 039a efbd 286d d43c 2535 8bbe
00000050: d31f eebd 26b2 21bd d845 e7bc c609 62be
00000060: 6886 b43e 714e 7a3e 8afe 9d3d 619d 03bd
00000070: a5d1 9a3d 5df6 5a3d fe3e 8f3d 9557 05be
00000080: 128b 463e 8f33 e0bd 920f 8cbd 323a 65be
00000090: 4a2d 0dbe 0ec7 013d bf3f 8fbd ccff 2abe
000000a0: 0e44 de3e e126 b23c b926 383e d494 e73e
000000b0: 9334 0e3d 03eb 94bd 1c06 c83d b9a9 4ebe
000000c0: 7581 293e ddab a3be 672e d33d 8fa2 6abe
000000d0: 40b3 b8be c9a1 913d 4295 7c3d 75e2 4fbe
000000e0: 7ccd 72be 905b 61be eadc 553e da80 5fbe
000000f0: 5c76 633e 56bf 79be 8ab9 8f3d e11e 03bd
00000100: ff84 76be d52c 89be e90b 6f3e 1696 9ebd
00000110: 125e a6bd 9128 33be 1046 54be 3b2c ddbe
00000120: a4ec 1c3e 8bfa eabd 080b dc3d 2ee6 90be
00000130: 3658 253e f111 dabd 47cc 6abe 7906 21bd
00000140: c0e4 5abe 74bd 26bd 988c a9be b77c 7ebe
00000150: 1360 1fbe 5d9b b6bc 8511 06be 5170 b0be
00000160: 919e 53be 9892 6bbd c43d 303e 06ca 93be
00000170: 1afe 7d3e 360f 18b8 d914 81be d73b 90be
00000180: 6bce bd3d 01ae 9fbe 583b 9bbe f70e 4cbd
00000190: e353 4dbe 2c81 31be ab7c aabd da47 dc3e
000001a0: fecf e1bc cddf 0ebe 46fd e4bd 8dda 6b3e
000001b0: e62a 94be 6bc3 5d3e ee65 123d 6eb6 293e
000001c0: 75cb aabe 45c8 823e 84de 723e a1af a03e
000001d0: 0ca3 71bc 0c8e 1c3d 29d1 14be c108 873c
000001e0: e665 963e a9f8 333e 46c6 9dbe 005a b1bd
000001f0: 84bb 0e3e 773f bbbd 4f9e 463e 565d 13be
00000200: 1ad7 bbbd f352 47bd 6ea6 693e b88a ca3d
00000210: 57e9 bebd 4163 ef39 30f5 81be 656b 1c3e
00000220: 4ddf c3be 13ea 323e c1c0 69bc 8c73 0fbe
00000230: 7294 62be 6615 37be b6fa 923d 8e9f 153e
00000240: 8e75 dc3d 9dce 273d 59f6 063c 2e80 5d3e
00000250: 8bf1 23bd bf3d eaba af02 333e 1f93 a8bd
00000260: e9d8 8c3e db81 853e 8c5c d9bc bda5 9a3c
00000270: bdd7 4ebe 6bab 923c f97f b4bc 0748 d43d
00000280: 2e82 343e ebdb 67be 8ea5 0f3e e7f9 92be
00000290: 945d a1be dca3 9dbe dead 8a3c c1c6 c73d
000002a0: 44f5 863e ecc2 78be bfdb 5fbd 18f8 c2bc
000002b0: ea34 48be 8b61 8fbe 097b cebe aebb 053d
000002c0: b488 a8be b746 153d 86e3 3bbe fd56 5abb
000002d0: 485d 0fbe 9267 b0be 5649 2dbd c579 1ebe
000002e0: 36c0 72bb d3c0 a33e 282b 3f3e 299e 4bbe
000002f0: 22f5 bfbd 95b4 543d ff1a 2fbe c03c cdbe
00000300: 10e1 12be f32a 863e 0309 efbc 6caa 433e
00000310: a6ab 98be 5d10 ecbc 9d1b 093e 5239 d83d
0.19508943 0.00052848604 0.0749229 0.040655494 0.44302216 -0.30220672 -0.14991924 -0.16308203
-0.12058103 -0.13192473 0.2232804 0.26749647 -0.029499784 -0.14344214 -0.09726309 0.037424065
-0.097764894 -0.11699297 0.025930956 -0.27188984 -0.11627164 -0.039476536 -0.028231546 -0.22074041
0.35258794 0.24443986 0.07714565 -0.03213251 0.07559518 0.053457607 0.06994437 -0.13021691
0.19388989 -0.10947334 -0.06838907 -0.22385481 -0.13786808 0.031683974 -0.069945805 -0.16699141
0.43411297 0.021747055 0.17983522 0.45230734 0.034718107 -0.072713874 0.0976679 -0.20181932
0.1655329 -0.3196706 0.10311585 -0.22913574 -0.36074257 0.07110936 0.06166578 -0.2030123
-0.23711199 -0.22007585 0.20885053 -0.21826497 0.2221312 -0.24389395 0.07017811 -0.03201187
-0.24074171 -0.26792017 0.23344387 -0.0774347 -0.08123411 -0.17495944 -0.20729852 -0.43197808
0.15324646 -0.114735685 0.107442915 -0.28300613 0.16146931 -0.10647953 -0.22929488 -0.039312813
-0.21376324 -0.04070802 -0.33115077 -0.24852262 -0.15563993 -0.02229088 -0.1309262 -0.3446069
-0.20665957 -0.05751285 0.17211062 -0.2886507 0.24803963 -3.625379e-05 -0.25211218 -0.28170654
0.09267887 -0.31187442 -0.30318713 -0.04981896 -0.20051531 -0.17334431 -0.0832456 0.43023568
-0.027564999 -0.1395256 -0.111811206 0.2303259 -0.2893898 0.21656577 0.03574174 0.16573498
-0.3335835 0.2554342 0.23717695 0.31383994 -0.014748346 0.038221404 -0.14532913 0.016483666
0.29374617 0.17575325 -0.30815333 -0.08659744 0.13938719 -0.09142964 0.19396327 -0.14391074
-0.09171887 -0.04866309 0.22817394 0.0988974 -0.0932185 0.00045659582 -0.25382376 0.15275343
-0.38256302 0.17472105 -0.0142671475 -0.14008921 -0.2212694 -0.17879257 0.071767256 0.14611647
0.10764609 0.040968526 0.008237445 0.21630928 -0.040025275 -0.0017871185 0.17481492 -0.08231186
0.2750924 0.26075634 -0.026533388 0.018877858 -0.20199485 0.017904004 -0.022033678 0.103653006
0.17627785 -0.22642486 0.14027998 -0.28706285 -0.31516707 -0.30789077 0.01692861 0.09754706
0.26358998 -0.24293107 -0.054652926 -0.023799941 -0.19551435 -0.28004107 -0.40328243 0.03264969
-0.32916796 0.036444392 -0.18348512 -0.003331601 -0.14000428 -0.34454018 -0.042306267 -0.15476139
-0.0037040836 0.3198305 0.18668807 -0.19884552 -0.09372927 0.05193003 -0.17100142 -0.4008541
-0.14343667 0.26204643 -0.029179102 0.1910798 -0.29818457 -0.028816396 0.1338944 0.10557808

weight f4 [200, 200]
00000000: f4eb 0b3d e765 383d fb50 f43c 9e00 9dbd
00000010: 3d86 01be 2526 01bd de59 8abd a1d4 4d3d
00000020: 6204 5ebd 90ee bebc 8b41 7b3c 0b59 75bd
00000030: 82a8 d8bd 062d 90ba 0ebe 12be 2f9f a0bc
00000040: 97c5 2dbd 772b a9bc 8561 813d 45eb 9b3c
00000050: 7228 0f3d 8971 c13c f0c3 36bc 5cf1 78bd
00000060: 04ce f1bc 68ed 49bd 7281 58bd a6fd a63c
00000070: 836a f3bc 3d32 0fbe 09df 4ebd 2eb5 143d
00000080: 073c 34bc 200c cb3b 4a8a 59bd 4b97 743c
00000090: 619c 4dbd 5435 79bd fbff 743c 283e 483c
000000a0: 8e82 9ebd 9f02 25be 89cf 42bd eb50 e1bd
000000b0: 322b 5dbd 01d8 ce3c 1cb0 06bd b01c bcbd
000000c0: 5d07 86bd 5d6a 82bc 6338 7fbd 4ce6 84bc
000000d0: c8ad 38bd 799b c0bd 0a24 50bd e45c fbbb
000000e0: c152 c63c 5551 85bd 576c a6bc 43b3 623c
000000f0: b593 08be b403 073d 0efc 90bd 00c3 c53b
00000100: 2fc6 26bd 82b4 4dbc 6a28 6e3c 7dac 84bd
00000110: ae98 1f3d 3773 353c a8a2 b1bd ff7f b33c
00000120: 5820 bb3d 96c8 203c 9eb5 9cbc eab9 5a3c
00000130: 7d75 09be aa53 d3bd a385 6f3d 16e0 1a3d
00000140: 3588 8cbd 9403 fabd 2a0a d9ba bb7f e7bc
00000150: 43c8 f33c 3b0a ecbd 8bcd ec3a ef0d 333d
00000160: 590c cfbd 4d08 413d 221a ea38 56a0 95bc
00000170: 0523 813d ecf9 fbbd 5b4f 61bd c63a 2e3c
00000180: eefb 9cbd cf9c a3bb 7ac5 6b3c d6ea 93bd
00000190: 4d52 8cbd ef9f a3bd f534 84bc 3d55 85bd
000001a0: 70bf bdbc 02f9 d5bd 3320 e3bd b34d eabd
000001b0: 5533 46bd 059f 963b 9520 0abd f674 a33c
000001c0: 63bd edbd abeb f4bc d049 35bc c71f 26be
000001d0: 0b6e e5bc 3631 5bbd fbdc 7e3c 3046 b3bd
000001e0: a478 2d3c 7554 85bc 2eb2 a1bd 477c 3a3d
000001f0: 2c10 f1bd fd02 813d 80cb b5bd 2751 30bc
00000200: 1c47 0b39 df7a abbc a59f 0c3d 5e29 91bc
00000210: bd2e 1a3c 2ee9 1cbb d1de 4abd 4c2f 7dbd
00000220: a548 8ebd 745c f3bc ce3d 5e3d 0480 febd
00000230: 54a5 f7bc 2af8 dbbd afc6 28bd 55f7 133d
00000240: 2b54 eebd 97c8 4d3b 5eb3 93bd bdb1 00be
00000250: 082b 3abd b6f6 9dbc 7683 12bd 8e63 9fbd
00000260: ad6b 01be c776 243d d1e4 c93b 3172 cdbd
00000270: a51c 8dbd 3593 86bd a370 66bd e785 22bd
00000280: aab2 d8bd fe89 90bd 233d e0bd a4f6 71bb
00000290: 2854 43bd 8066 31bd adc0 103d 48e7 bdbd
000002a0: dae7 eb3c 4269 ee3c 0c14 8d3c 9784 a3bd
000002b0: 9581 17bd d5e5 98bd 3977 45bd 72b8 d3bd
000002c0: 51f1 c9bd 5790 00be 6bf2 76bc e07c b3bd
000002d0: 06f5 13bc 8671 283d 0549 83bc c759 ad3c
000002e0: 332e 69bd 07af a4bc 5252 57bd a2df 603d
000002f0: e0f9 33bd b685 1bbc 9465 8b3c 9994 ca3c
00000300: 43ea 653d e9d2 c3bc 5e4f 2c3d e2f5 55bc
00000310: 0686 96bd c9ec 533c 66f6 223d b803 b9bc
00000320: 911e 443e 0b93 773e a529 b3be cb93 9abe
00000330: fb2b 1a3e a3c7 19be 0c24 823c 921a a8be
00000340: fa50 95be 4615 a13e dbd2 573e ec7e f83c
00000350: 1901 19bf 52d1 243f 0e9f ae3d d6bf a03c
00000360: 94dd 313f 94f4 823e 67d4 cc3e 7129 563b
00000370: 14ca 8d3d 8432 8cbc 1d65 cebd 2f92 48be
00000380: 32d4 0ebf 676d a93b df9e 033e 49cf 1e3e
00000390: 7bd0 013f eef3 063e 778d 85be dc33 893e
000003a0: 80c9 c4be ad85 483f b145 d63d 1451 81bd
000003b0: 17e2 c83e 951e b03e 5101 8bbe 0cab 053e
000003c0: 20b9 803e d877 8c3d e350 91be ebf9 41be
000003d0: f604 58bc 0de5 843d dfdf 743c cf98 b4be
000003e0: b042 973c 3089 bbbc 0290 013d feff 233f
000003f0: e1b7 573c f614 c2be 6444 1c3f bfbb 473e
0.03416057 0.045019057 0.02982377 -0.07666133 -0.12648864 -0.031530518 -0.06755422 0.050251607
-0.0542034 -0.023307115 0.015335451 -0.05989937 -0.10579015 -0.0010999746 -0.14330313 -0.019607155
-0.042424764 -0.020650608 0.063174285 0.019033084 0.03495068 0.023613708 -0.011155114 -0.060777053
-0.029517181 -0.049298674 -0.052857824 0.02038462 -0.029713875 -0.13984008 -0.05050567 0.0363056
-0.01100064 0.006196514 -0.0531104 0.014928649 -0.050197963 -0.060841873 0.014953609 0.01222185
-0.07739745 -0.16114281 -0.047561202 -0.11001762 -0.053996272 0.025249483 -0.032882795 -0.09185159
-0.06544373 -0.015919859 -0.062309634 -0.016223095 -0.045087606 -0.09404654 -0.05081562 -0.0076709855
0.024209382 -0.065096535 -0.020315332 0.013836685 -0.13337596 0.032962516 -0.070793256 0.0060352087
-0.040716346 -0.012555243 0.014536003 -0.06478212 0.038963966 0.011074833 -0.08673602 0.02191162
0.091370285 0.009813448 -0.01912957 0.013349989 -0.13423724 -0.10318692 0.058477055 0.03781136
-0.06861917 -0.12207714 -0.0016558815 -0.028259149 0.029758578 -0.11525389 0.0018066628 0.04371446
-0.10109777 0.047127057 0.00011162857 -0.01826493 0.063055076 -0.12303528 -0.05500732 0.01063413
-0.07665239 -0.0049930583 0.014390344 -0.07222526 -0.06851635 -0.07989489 -0.016138533 -0.065103985
-0.023162574 -0.10447885 -0.11090126 -0.11440601 -0.048388798 0.0045965933 -0.03372248 0.019953232
-0.11608388 -0.029897531 -0.011064962 -0.1622306 -0.028006574 -0.053513728 0.015555616 -0.087536216
0.010587845 -0.016275624 -0.07895313 0.045528676 -0.11770663 0.06299398 -0.08876705 -0.010761536
0.00013282563 -0.020932613 0.034331936 -0.01771992 0.009410557 -0.0023942697 -0.0495289 -0.061812684
-0.069474496 -0.029707171 0.05425816 -0.12426761 -0.030230202 -0.10740693 -0.041205104 0.036124546
-0.116371475 0.0031400078 -0.07211946 -0.12567802 -0.045451194 -0.01928268 -0.035769902 -0.077826604
-0.12638731 0.040152337 0.0061613102 -0.10031546 -0.06890229 -0.06571046 -0.056259762 -0.03967848
-0.105809525 -0.0705757 -0.10949161 -0.003692069 -0.04768768 -0.043310642 0.03534 -0.09272629
0.028797079 0.029102925 0.017221473 -0.07984274 -0.036988813 -0.07465712 -0.048209403 -0.103379145
-0.098604806 -0.12555061 -0.015072445 -0.087640524 -0.009030586 0.04112389 -0.01602603 0.021160973
-0.056928825 -0.02010299 -0.05256874 0.054900773 -0.04393947 -0.009492328 0.01701621 0.02472906
0.056131613 -0.02390428 0.042067878 -0.013059111 -0.07349782 0.012934872 0.039785765 -0.022584781
0.19152285 0.24177186 -0.3499271 -0.30190882 0.1505584 -0.15017562 0.01588633 -0.32832772
-0.29163343 0.31461543 0.21076529 0.030333959 -0.597673 0.643819 0.08526431 0.019622725
0.69478726 0.25577223 0.400058 0.003267851 0.06923309 -0.017113931 -0.100778796 -0.19587015
-0.55792534 0.0051705125 0.12853573 0.1550876 0.5070874 0.1317899 -0.26084492 0.26797378
-0.38434982 0.78328973 0.10462511 -0.063142926 0.39234993 0.34398332 -0.27149442 0.1305353
0.2514124 0.06858796 -0.28382024 -0.18942992 -0.0131847765 0.064890005 0.014945953 -0.35272834
0.018464416 -0.022892565 0.031631477 0.6406249 0.013166399 -0.37906617 0.61041856 0.19505213

bias f4 [200]
00000000: 7470 f8bc c21d 46be 7723 50bd 4679 95bc
00000010: 6c0d ffbc 9e16 91bd 0cfe b53d 082f 4a3d
00000020: b092 b9bd dfdf 2fbc 81a6 cb3d 9a3d 653c
00000030: 9bd4 69be e52d 87bb 14f6 8e3c 60e8 023e
00000040: 7e78 ae3c 4a60 e03b 9744 863d 3169 c2bd
00000050: 18dd 0fbd c16c cabd 44d2 bdbd 0abc d8bd
00000060: e0d4 b5bb f57d bfbd 71e7 c7bc 3db3 06be
00000070: 2732 b13c 691c 34be 9d03 9039 5812 ce3b
00000080: a53f 83bc 3737 a6b9 244a 7bbd f79b 97be
00000090: 8904 cfbd b77b be3c d52a 01bd 838d 69bd
000000a0: 6ffe 26bd 1603 91bd f6e0 91bd 6569 143d
000000b0: d6ec 1bbc 3f6f 8cbd 6604 85bd bfc7 26bd
000000c0: 1803 b9bd 7bf8 65be de79 e5bd 2246 52bd
000000d0: d36d 75be ee95 14be b09a 4f3e 3d37 023e
000000e0: 447b 9abd a64f 91bd 4ef7 1dba 8948 ccbb
000000f0: f9c1 253e cac7 e0bd 63bc 69bd 944e a1be
00000100: 2291 3cbe e734 23bd a006 b5bd 5785 a6bd
00000110: aef3 14bd 85a1 053e 89c2 753d 880f b0bd
00000120: 48e1 01be 7ba7 cb3d f040 37bd ffc1 c7bd
00000130: 2553 86bd db3f 6ebd 40ab b1bb db56 e6bc
00000140: 8338 ccbd c366 fd3c 4abc 53be 9046 21be
00000150: f0c1 c73a 3df7 03bd 6534 88bd 948d fcbc
00000160: 9a51 67be c562 9f3c 3f98 b03b 8ecc 9abd
00000170: 7bbb 5cbe 1e52 1ebd 1d8d 5dbd ab10 fabd
00000180: 8b7b 223e 1551 04bd 8278 1ebe d497 86bc
00000190: 38ec bebd 34bc 3e3e 1cb9 f8bc b7d5 afbd
000001a0: c028 34bb 80c9 abbc 175b acbc e1c7 4cbc
000001b0: 8923 cebd 378a 8ebd 5fb5 cabd 9fc6 aebb
000001c0: c983 49bd 3eb0 643d 17e2 a2bd e28d 8e3d
000001d0: 4bac 7d3a 123d cdbd f10a c0bd 88c5 f5bd
000001e0: 89b3 9dbc 5ba0 9cbd d024 b7bd 6035 9dbc
000001f0: 540b 39bd 1334 623c 86ca 15bc a59e 88bd
00000200: b5de 9dbe e85e ce3c b690 123a 982c babd
00000210: 7efb 14be 158b 8bbd 2db7 a6be ff19 2ebe
00000220: 20a5 bebd 1603 11bd 6f75 a8bd 41f5 f33c
00000230: 3e09 1abe 2aed c8bd be67 9dbd 9c9e 72bd
00000240: 42ba d4bd da9e dabd ad88 38be d8e3 203d
00000250: c780 cbbd 7ec5 1dbd 2031 b0bd 88d4 bdbd
00000260: ee27 1ebe e06a d0bd f5b3 4bbe 3427 7fbd
00000270: 143d 7fbd 0360 8dbd befa 74be 0934 c5bd
00000280: db1c f83b 6198 0fbe caff d4bd 5a06 233d
00000290: 5a3b 5cbd 919d 22bd 2f68 a5bd 1dc5 8fbd
000002a0: 9f94 2ebd 0f00 a1bd cab2 1cbe eaa6 22be
000002b0: 1df5 e0bc cd35 dfbc 80ad cbbd 6580 0cbe
000002c0: c7f6 94bd 1a3c 5fbe c48d c53c 1a37 0b3c
000002d0: e150 fbbd 2755 a7bd 3832 c43c fdc4 82be
000002e0: 0902 45bd ebcc e8bd 5524 193d a66e 90bd
000002f0: 62fd 66bc 5d24 03be a43d d33d 9479 77bc
00000300: 1e4a 97bd 17d2 2dbd 9f85 a4bd 8076 3fbe
00000310: 6e6a 15be 4430 843c 65e8 03bd 3a62 ee3b
-0.03032706 -0.19347289 -0.050815072 -0.018246304 -0.03113433 -0.07084392 0.08886346 0.04936126
-0.090611815 -0.010734527 0.099438675 0.013991738 -0.22835009 -0.004125344 0.017451324 0.12783957
0.02129769 0.006847416 0.06556051 -0.0949272 -0.03512296 -0.098840244 -0.092686206 -0.105827406
-0.0055490583 -0.09350196 -0.024402352 -0.13154311 0.02163036 -0.17588963 0.00027468512 0.006288808
-0.016021559 -0.00031703126 -0.061350003 -0.2961118 -0.10108287 0.023252351 -0.03153499 -0.05701972
-0.04076999 -0.07080667 -0.07122986 0.036233325 -0.009516915 -0.06857156 -0.064949796 -0.040717836
-0.09033793 -0.22458069 -0.11204885 -0.051336415 -0.23967676 -0.14510319 0.20273852 0.12716384
-0.07543042 -0.0709527 -0.0006025926 -0.006234233 0.16187276 -0.10975607 -0.057064425 -0.31505263
-0.18414739 -0.039845373 -0.08839154 -0.08130901 -0.036365204 0.13049896 0.059999976 -0.08596712
-0.12683594 0.09944054 -0.044739664 -0.09753799 -0.06558827 -0.058166366 -0.005422026 -0.028117588
-0.09971716 0.03093279 -0.20677295 -0.15749574 0.0015240293 -0.032218207 -0.066506185 -0.030829228
-0.22589722 0.019456277 0.005389243 -0.07558547 -0.21555893 -0.03865253 -0.054089654 -0.122102104
0.1586744 -0.03230389 -0.15475658 -0.01642982 -0.09322399 0.18626481 -0.030361705 -0.08585685
-0.002749011 -0.020970106 -0.021039529 -0.012498827 -0.100653715 -0.06959956 -0.09897875 -0.005333736
-0.049197946 0.05583214 -0.079532795 0.06960656 0.0009676858 -0.10021414 -0.09377087 -0.12000567
-0.019250648 -0.07647773 -0.08942568 -0.01919049 -0.04517682 0.013806361 -0.009142524 -0.06670884
-0.30833974 0.02519174 0.00055910216 -0.09090537 -0.14549062 -0.06813637 -0.32561627 -0.17002104
-0.09308839 -0.035403334 -0.08225524 0.029780032 -0.15042588 -0.098108605 -0.07685803 -0.059233293
-0.10387088 -0.1067483 -0.18020888 0.03927979 -0.09936672 -0.03851842 -0.0860312 -0.09269053
-0.1544492 -0.10176635 -0.19892867 -0.062293246 -0.062314108 -0.069030784 -0.23923776 -0.096290655
0.007571799 -0.14022972 -0.104003504 0.03980098 -0.05376754 -0.03970105 -0.08076512 -0.07020018
-0.042622205 -0.07861339 -0.15302578 -0.15883985 -0.02746063 -0.027247334 -0.09945202 -0.13720854
-0.072736315 -0.2180027 0.02411545 0.008497024 -0.12271286 -0.081705384 0.023949727 -0.25540915
-0.048097644 -0.1136721 0.037388165 -0.070523545 -0.014098497 -0.1280684 0.103144914 -0.01510467
-0.073871836 -0.042436685 -0.08033299 -0.18697548 -0.14591381 0.016136296 -0.03220405 0.007274893

weight f4 [2, 200]
00000000: ec09 71bd 5792 cdbe 4c32 01bd 9898 413d
00000010: 2b00 e33c 43f8 6b3c 4a2c 183c 7467 063d
00000020: 31e5 57bd 7f3d 3c3d 2abf 363e 8b66 f9bc
00000030: d5aa 0dbe 407a ce3c 05d6 11bd b523 a1be
00000040: 4ca1 83bc f047 3a3b f840 51bc 1a17 e1bc
00000050: b47f 703f b4d8 89bc 52e3 2d3f 1159 59bc
00000060: 2a24 dd3c 9a8b 94bf 4733 a93c 5f7d b53c
00000070: c1e1 5c3c bf7c b33e c275 6e3c 0427 783d
00000080: 9a5c e43b 9c98 0c3d 249a 0f3d ca93 44bd
00000090: 9fa4 bcbc ba8d ed3b 8cd2 003d 18a8 b4bc
000000a0: 7d09 1b3d 9acb 5ebd 0fda 37bd 7622 1e3c
000000b0: 8f05 373c d8f9 95bf ce5b dfbe 7d42 1e3d
000000c0: e6bb 2cbe 1854 f5be 1e82 61bf de25 1c3c
000000d0: 8c2d bd3f 8f3a 2a3d dbd9 8f3e 7829 413e
000000e0: c4af 1dbe b87e cabb 3cc1 30be 3f31 a43b
000000f0: b4d4 693e 3a46 04bf e42a fb3b 34e0 f4bd
00000100: 61f7 503f b1e4 55bd ed0b 12bd 1c61 0f3b
00000110: 1663 1abd 766b df3e f574 133f e539 05bd
00000120: 2061 0ebe 362a d8bd 21b9 5cbd 0071 abbe
00000130: 9347 773d 0c1a 0c3e 3fdd 313d 886e ce3c
00000140: a412 b53f 6df5 1b3d 43e9 90be f4d7 2dbf
00000150: 482c 3fbd 106b 3d3c c268 ecbb aff7 3d3d
00000160: 1c38 b23f 74cd 8ebc 7fe5 a0bc e5a1 95bb
00000170: 100c 753d 21ec c7bb ce64 90be 904d 39bd
00000180: 245f 203c c86f babb 46c8 143d ecb6 a4be
00000190: 89b5 d73c 571b 14bf b332 623c ecbd 053d
000001a0: 6d3c 8c3d 61c7 abbc cc4e 7e3d 0a0c ed3c
000001b0: fb1d 70bc 9ae0 abbe fa9a 75be 1194 cb3c
000001c0: ad1a 2ebe ad07 dd3e 1c68 f93b 1a6f 07bf
000001d0: 22b4 e13c d9de 473c 4f77 233c 9902 03bd
000001e0: 82af c23c b2ea 173f 2258 68bc 8a79 45be
000001f0: 9c9c 44bd f281 a63e a66d a5bc 94b0 72bc
00000200: 5fcd 8c3e 29df 5b3d b803 e3bb c984 dcbc
00000210: 0080 b33c 26b0 1c3d 33ff 5c3f 2d78 753f
00000220: 45ca 143d f94f d73b 4549 84be fcc2 8abf
00000230: 1749 af3c 28ee 4c3d 1167 5f3c 5824 b2bb
00000240: 2427 853c 5902 403d 3d54 5abf 20ec 273d
00000250: 98ea ecbe 0c25 86bc 620d 50bc 4f1c aeba
00000260: 4945 583c 860d 7dbf c77f fd3f a93f cebc
00000270: c12d 483c e047 eabe 74d0 973f ce13 a53c
00000280: 9e81 2d3d e048 a13d 7d41 1a3c d3d5 4abf
00000290: 0133 c4bc e590 bc3e b4ad 0cbd c5e1 8ebc
000002a0: 813f 443c 1bcd fd3c 5d86 18bf 5fd4 533e
000002b0: 0975 a7be 9971 a13f 8763 adbf 0eb5 a03c
000002c0: ca1b 0c3f 8523 1c3c ec26 f23e a837 00c0
000002d0: e197 513f 53ec 67bd 8956 523d fb12 f6bd
000002e0: 692c cc3c 00f7 c2be 461a 293d 36c6 a3bc
000002f0: 8792 e33c 538b ebbd b459 943e 1421 8c3c
00000300: a5ee 1cbe 1f73 a5bc c1f4 dd3c 545f 0b3c
00000310: 4e84 253d eb29 74bc c71b af3c c211 553d
00000320: ff51 2a3c 0546 ef3e c78b adbe 58f5 3dbd
00000330: 5bf5 6fbc 3585 19bd 5c45 6c3e 2067 403a
00000340: 6740 b8bd 35a1 8cbc e728 923d 4ca1 833c
00000350: e7ce 33bf fab9 56bd e678 00bd 62c3 393e
00000360: 5ec6 2d3c 936e 643d b209 8c3e 18af b73b
00000370: d535 5c3e 50d9 34bd a37d aabe 5076 b8bc
00000380: 22a4 ec3c fa45 b73d 805d 3fbc 1974 5ebe
00000390: 01a5 caba d346 803d db51 6bbd 2225 643c
000003a0: dfda b4bc f267 d63b 941a 0bbd 305e 29bf
000003b0: 14ab 8e3c 3528 1c3d 8be3 e03c f4c3 013d
000003c0: 2f68 3e3d 2f3f 303c a313 e9ba 15c3 8a3c
000003d0: 5f39 383c 9af8 9b3d 68b2 70be 4683 243d
000003e0: eddd 10bf 37e1 09bd b4f2 603f c1ce 5b3c
000003f0: c1db 36be ce2b a1be 76b1 9dbd 2f73 193f
-0.058847353 -0.4015071 -0.031542107 0.047264665 0.027710041 0.014402452 0.009287903 0.032813504
-0.05270881 0.045957085 0.17846361 -0.030444404 -0.13834698 0.025204778 -0.035604496 -0.31472555
-0.016068123 0.0028424226 -0.012771837 -0.027476836 0.9394486 -0.016826965 0.6792499 -0.013265864
0.026994783 -1.1605103 0.020654334 0.022154508 0.013481558 0.3505611 0.014554443 0.060584083
0.006969047 0.034325227 0.03505911 -0.047992505 -0.023027716 0.007249561 0.031450793 -0.02205281
0.037850846 -0.05439339 -0.04488569 0.009651771 0.011170759 -1.1716871 -0.4362473 0.038637627
-0.16868553 -0.4791572 -0.8808917 0.009530513 1.4779525 0.041559752 0.28095898 0.18863475
-0.1539908 -0.006179657 -0.17261213 0.0050107534 0.22835046 -0.5166966 0.007665025 -0.11956826
0.8162747 -0.05222005 -0.035655905 0.002187795 -0.037692152 0.43636674 0.5760034 -0.032525916
-0.13904238 -0.10554926 -0.05388749 -0.3348465 0.060370993 0.13681811 0.043423887 0.02519919
1.4146314 0.038075853 -0.28302965 -0.67907643 -0.04667309 0.01156117 -0.0072146365 0.046378788
1.3923373 -0.017431952 -0.019640682 -0.0045664185 0.059825957 -0.006101147 -0.28201908 -0.045239985
0.009788308 -0.005689595 0.036323808 -0.32170808 0.02633168 -0.5785422 0.013806033 0.032651827
0.06847463 -0.020969095 0.062086865 0.028936405 -0.014655585 -0.33569795 -0.239849 0.024850877
-0.17002364 0.4316992 0.0076112878 -0.529039 0.027551714 0.012199127 0.009977176 -0.0319849
0.02376533 0.5934249 -0.014181169 -0.19284645 -0.048000917 0.32521015 -0.020193886 -0.014812607
0.27500436 0.05367962 -0.0069279335 -0.026918786 0.021911621 0.038253926 0.86326903 0.958865
0.03632571 0.006570813 -0.2583715 -1.0840755 0.021397157 0.05003181 0.013635413 -0.0054364614
0.016254015 0.04687724 -0.8528479 0.04099667 -0.4627273 -0.016375087 -0.012698503 -0.0013283583
0.013200113 -0.9884876 1.980462 -0.02517684 0.01221794 -0.4575796 1.186049 0.020151045
0.04235994 0.07875228 0.009415028 -0.7923252 -0.023950102 0.36829296 -0.034345344 -0.01744164
0.011978031 0.030981591 -0.5958002 0.20686482 -0.32706478 1.2612792 -1.3545998 0.019617584
0.547299 0.009529953 0.4729532 -2.003397 0.81872374 -0.05662186 0.051352058 -0.12015339
0.02492352 -0.3807907 0.041284822 -0.019991975 0.02777983 -0.11501183 0.28974688 0.017105617
-0.1532541 -0.020196496 0.027094247 0.008506615 0.04040938 -0.014902572 0.02137555 0.05201889
0.010395526 0.46733108 -0.33895704 -0.046376556 -0.0146459 -0.03748055 0.23073334 0.00073395856
-0.08996659 -0.017166713 0.07136708 0.016068123 -0.7023758 -0.052423455 -0.031365298 0.18140939
0.010606376 0.055769514 0.27351147 0.0056055896 0.2150491 -0.044152558 -0.33298978 -0.022517353
0.028886858 0.08948894 -0.011680007 -0.21723975 -0.0015460552 0.06263509 -0.05745111 0.013924869
-0.022077022 0.006543153 -0.033960894 -0.66159344 0.01741556 0.038124282 0.027452251 0.031681016
0.046486076 0.010757252 -0.0017782341 0.016938725 0.011244147 0.07615776 -0.23505557 0.040164255
-0.5658863 -0.033662047 0.87870336 0.013415993 -0.17857267 -0.31478733 -0.076998636 0.5994138

bias f4 [2]
00000000: 9911 05be 8e94 ee3d
-0.12994994 0.11649428
