Vehicles/GenDisV_0_1_0/GenDisV_0_1_0_actor.pth (torch, 176449 bytes, 6 tensors)

weight f4 [200, 13]
0	0xbe8154ef	-0.25260112
1	0x3e59af4d	0.21258278
2	0x3f39bad6	0.72550714
3	0xbe39277d	-0.1808147
4	0xbefcc31b	-0.49367604
5	0x3e30504e	0.17218134
6	0x3de6a7dc	0.112624854
7	0x3e78e149	0.2430469
8	0x3e605f03	0.21911244
9	0x3e3983fc	0.18116754
10	0xbed03b34	-0.40670168
11	0xbec588d3	-0.3858095
12	0xbed6975b	-0.4191235
13	0x3e09ccc0	0.13457012
14	0xbf37dc8d	-0.7182091
15	0xbe238bf8	-0.15971363
16	0xbed3e090	-0.41382265
17	0xbf0e156c	-0.5550144
18	0xbeaaa723	-0.3333064
19	0x3e523b11	0.20530345
20	0xbe1db1fd	-0.15399928
21	0xbe31884b	-0.17337148
22	0xbe7a14f5	-0.24422057
23	0x3d4d4cf8	0.05012223
24	0x3e349d5a	0.1763815
25	0x3d34d871	0.044151727
26	0xbfcf541e	-1.6197546
27	0xbe651d51	-0.22374465
28	0xbe4910e6	-0.19635352
29	0x3e7b5d0d	0.24547215
30	0x3e7d9964	0.24765545
31	0xbe0bb62f	-0.13643716
32	0xbd0b56d8	-0.034018368
33	0x3e037a8f	0.12839721
34	0xbe43f993	-0.19138174
35	0x3d9cc124	0.07654026
36	0x3e07e408	0.13270581
37	0xbe520083	-0.20508008
38	0x3d89908a	0.06717022
39	0xbf9b0c91	-1.211321
40	0x3e931291	0.28725103
41	0x3da438c4	0.0801864
42	0x3ecbdbec	0.39816225
43	0x3df9d6a9	0.12199146
44	0xbebe24e7	-0.3713753
45	0x3e3f59cd	0.186866
46	0xbe845739	-0.25847796
47	0x3d520b87	0.051280525
48	0xbdc4eab2	-0.09615077
49	0xbd9526e4	-0.072828084
50	0xbcb6034e	-0.022218373
51	0x3ef996d6	0.4874789
52	0x3dbaf861	0.09129406
53	0x3eac46cd	0.33647767
54	0xbeac69a7	-0.33674356
55	0xbda42089	-0.08014018
56	0x3ef3fa60	0.47651958
57	0xbe439527	-0.19099866
58	0xbe556bf9	-0.2084197
59	0xbf155559	-0.58333355
60	0xbeef11a4	-0.46693146
61	0xbf140103	-0.57814044
62	0x3e49ae6a	0.1969544
63	0xbdb66c0e	-0.089073285
64	0x3b8e5c8d	0.004344529
65	0x3d02b564	0.03191127
66	0xbddb86e9	-0.107190914
67	0xbe88406b	-0.26611647
68	0xbeb371e7	-0.35047838
69	0x3e8325b6	0.2561471
70	0x3e115ab3	0.14194755
71	0x3df41122	0.1191733
72	0x3d89e84a	0.06733759
73	0x3e637d33	0.22215728
74	0x3ea567a3	0.3230563
75	0xbdd2871b	-0.102796756
76	0xbd3d763b	-0.04625533
77	0x3b8d9d6a	0.0043217437
78	0xbed0ad02	-0.40756994
79	0xbdc91fb4	-0.098205
80	0x3e95899a	0.29206544
81	0xbeb65d39	-0.35617998
82	0x3d588dd5	0.052869637
83	0xbe9dacc4	-0.30795872
84	0x3ccaea3e	0.024769899
85	0xbec24d97	-0.3794982
86	0xbc2520b3	-0.010078597
87	0x3d9b968e	0.075970754
88	0xbe1d1891	-0.15341403
89	0x3d672dfd	0.056440342
90	0xbe78d07f	-0.24298285
91	0xbf1a6dd2	-0.6032382
92	0x3e934b8c	0.28768575
93	0xbed3fe9b	-0.41405186
94	0x3e4378b4	0.19089013
95	0x3d1bc5ad	0.038030315
96	0xbd462e81	-0.048384193
97	0x3ed8896e	0.4229235
98	0xbe70d637	-0.23519216
99	0x3eb0f9d6	0.3456561
100	0x3d5a6de4	0.053327456
101	0x3e42aeeb	0.19012038
102	0xbdee1d6e	-0.11626707
103	0x3dcb9391	0.099402554
104	0x3efad1b6	0.48988122
105	0x3f830107	1.0234689
106	0xbdb8a761	-0.090163
107	0xbe2b672d	-0.16738577
108	0xbc544bac	-0.012957495
109	0xbe40e85d	-0.1883864
110	0xbd97c06d	-0.07409749
111	0x3e21b958	0.1579336
112	0xbe021000	-0.12701416
113	0xbdc04500	-0.09388161
114	0xbdfcc192	-0.12341608
115	0x3da83da9	0.08214886
116	0x3d004165	0.031312365
117	0x3e6fa4d8	0.23402727
118	0xbedb6130	-0.42847586
119	0xbebd7f16	-0.3701102
120	0x3e6bbf34	0.23022157
121	0x3e3054a2	0.17219785
122	0x3d694418	0.056949705
123	0xbe746364	-0.2386604
124	0x3e79a101	0.24377824
125	0xbe220983	-0.15823941
126	0xbe923f4b	-0.28563914
127	0xbe0eb082	-0.1393452
128	0x3ea7bab8	0.32759643
129	0xbd3f14f0	-0.046650827
130	0xbe560e23	-0.2090383
131	0xbed7e959	-0.42170218
132	0xbdde3872	-0.1085061
133	0x3ed132cf	0.40859076
134	0x3dc577da	0.096420005
135	0xbe846a16	-0.25862187
136	0xbea87042	-0.32898146
137	0xbe86efe9	-0.26354912
138	0xbed7d771	-0.42156556
139	0xbe8bfa80	-0.27339554
140	0xbe61f5bc	-0.22066396
141	0xbebfe7c8	-0.37481523
142	0xbc884b69	-0.01663752
143	0xbe86b812	-0.2631231
144	0xbbb47cc3	-0.005508037
145	0x3f079ffc	0.5297849
146	0x3d23d53e	0.039998285
147	0x3d8c2e56	0.068447754
148	0xbde09511	-0.10965932
149	0x3e0e1730	0.13876033
150	0xbd83ac75	-0.06429378
151	0xbe61011e	-0.21973082
152	0x3e8c2b7f	0.27376935
153	0xbf362eb0	-0.7116499
154	0xbe6e0e9a	-0.23247758
155	0x3eb22797	0.3479583
156	0x3d365836	0.04451772
157	0x3e3a1646	0.18172559
158	0xbcb55089	-0.022133129
159	0xbde78e73	-0.11306467
160	0xbdbd0269	-0.09228975
161	0x3e3d054b	0.1845905
162	0xbe8b6ad1	-0.27229932
163	0xbde428ac	-0.1114057
164	0x3df1abf2	0.11800374
165	0x3d5abf6d	0.053405214
166	0x3d425bc5	0.0474508
167	0x3ee93051	0.45544675
168	0xbf1d3cf0	-0.6142111
169	0xbf0c52bf	-0.5481376
170	0xbe970e86	-0.29503268
171	0x3ecaf5fc	0.39640796
172	0x3dc4af6b	0.09603771
173	0xbe33ed42	-0.17570975
174	0xbd91fe5b	-0.071285926
175	0xbd27dfa7	-0.040984776
176	0xbebd984a	-0.3703025
177	0xbf079c59	-0.5297294
178	0xbdd01436	-0.10160105
179	0xbe91a07b	-0.2844275
180	0xbde0aeb7	-0.10970824
181	0xbcac4968	-0.021031097
182	0xbe252da4	-0.16130692
183	0xbdedb220	-0.1160624
184	0xbef787df	-0.4834585
185	0xbdcb6d1b	-0.099329196
186	0x3db93573	0.09043398
187	0xbe77b795	-0.24191125
188	0xbe848c38	-0.25888228
189	0x3e04cb96	0.12968287
190	0x3e7a3eab	0.24437968
191	0xbede26f0	-0.43389082
192	0x3ee1047f	0.43948743
193	0x3eb37e14	0.35057127
194	0xbc9e3d37	-0.019316299
195	0x3db30d5c	0.087427825
196	0x3f3e9065	0.7443908
197	0x3e1a9a8d	0.15098019
198	0xbe0e964c	-0.13924521
199	0x3d062f92	0.03276021
200	0xbc849b32	-0.016187284
201	0x3be98fc9	0.007127736
202	0xbe81eec2	-0.2537747
203	0xbf2e200d	-0.68017656
204	0xbd96cd12	-0.07363333
205	0xbe3167b8	-0.17324722
206	0x3ea5a5af	0.3235297
207	0x3dfb134a	0.122595385
208	0x3e55c997	0.20877682
209	0xbf0cdea2	-0.5502721
210	0xbd57a755	-0.052649815
211	0x3e1b8aca	0.15189663
212	0x3d473c1e	0.048641317
213	0x3e0d3f1c	0.13793606
214	0xbe99a7a8	-0.30010724
215	0xbeee6845	-0.46563926
216	0xbee07c37	-0.43844768
217	0xbf03fde4	-0.5155928
218	0x3ca8feb0	0.020629257
219	0x3e47aa1e	0.19498488
220	0x3e36332c	0.17792958
221	0x3e059656	0.1304563
222	0xbf2ecf10	-0.682847
223	0xbe9c4082	-0.30517966
224	0xbeb803b7	-0.35940334
225	0xbf0e04fd	-0.5547636
226	0xbec207b9	-0.37896517
227	0x3e5c5573	0.21516971
228	0x3db26b17	0.08711832
229	0x3e85eb27	0.2615597
230	0x3e9744a3	0.29544553
231	0xbe98fbd0	-0.29879618
232	0xbeedbbba	-0.46432287
233	0x3ed379bd	0.41303816
234	0x3e991439	0.2989824
235	0xbe2b5c49	-0.16734423
236	0xbef14048	-0.47119355
237	0xbe922d1e	-0.28550047
238	0xbe0ebdc5	-0.13939579
239	0xbd1b5932	-0.03792686
240	0xbf4c78ae	-0.7987164
241	0xbe901438	-0.28140426
242	0x3eecdd7f	0.46262738
243	0x3da3bc3a	0.07994886
244	0xbd8da56d	-0.06916318
245	0x3e147ecb	0.14501493
246	0x3bb3b5df	0.005484327
247	0xbfd40010	-1.6562519
248	0x3e67e9ba	0.22647753
249	0x3e0c1f4f	0.13683818
250	0xbe583785	-0.21114929
251	0x3cd9df8f	0.026595859
252	0x3da0b1d0	0.07846415
253	0x3dbb705e	0.09152292
254	0xbdfa3bcb	-0.12218436
255	0xbe20360a	-0.15645614

bias f4 [200]
0	0x3e439cb0	0.1910274
1	0xbad978a8	-0.0016591744
2	0x3d91fdeb	0.07128509
3	0x3d0ec2f7	0.0348539
4	0x3ee30841	0.44342235
5	0xbe9b159d	-0.30289927
6	0xbe19848b	-0.14991967
7	0xbe2527c2	-0.16128448
8	0xbdfc0575	-0.12305728
9	0xbe0d617e	-0.13806722
10	0x3e651bbd	0.22373863
11	0x3e8909db	0.26765332
12	0xbcfede1c	-0.03111177
13	0xbe1e02b2	-0.15430716
14	0xbdcd5042	-0.100250736
15	0x3d0b9669	0.03407899
16	0xbdb70f24	-0.08938435
17	0xbdde5650	-0.108563066
18	0x3c9e24e9	0.01930471
19	0xbe8b35e0	-0.2718954
20	0xbdee207c	-0.1162729
21	0xbd2a6811	-0.04160315
22	0xbd0ea2da	-0.034823276
23	0xbe6061b4	-0.21912271
24	0x3eb611b6	0.35560387
25	0x3e7b29c4	0.24527651
26	0x3d9bd48e	0.07608901
27	0xbcdfdd86	-0.02732731
28	0x3d9dea31	0.07710684
29	0x3d52781c	0.051384076
30	0x3d8e5421	0.0694964
31	0xbe0557df	-0.13021801
32	0x3e41044d	0.18849297
33	0xbde6ce84	-0.112698585
34	0xbd8a3d57	-0.06749981
35	0xbe6521fb	-0.22376244
36	0xbe0ae2bc	-0.13563055
37	0x3d1e6095	0.038666327
38	0xbd8781f9	-0.06616587
39	0xbe257512	-0.1615794
40	0x3edca997	0.43098137
41	0x3cebcf61	0.02878541
42	0x3e39dcd1	0.18150641
43	0x3ee9f033	0.4569107
44	0x3d0c08d1	0.034188095
45	0xbd93a22c	-0.07208666
46	0x3dc72482	0.0972376
47	0xbe503134	-0.2033127
48	0x3e2d1ed5	0.16906293
49	0xbea05896	-0.31317586
50	0x3dcf9499	0.10135765
51	0xbe6b8889	-0.23001303
52	0xbeb8b3cf	-0.36074683
53	0x3d8ff0ae	0.07028328
54	0x3d997940	0.0749383
55	0xbe4c5544	-0.19954401
56	0xbe72ce2c	-0.23711461
57	0xbe657cd8	-0.22410905
58	0x3e544a1c	0.20731395
59	0xbe5f8150	-0.21826673
60	0x3e64245d	0.22279496
61	0xbe7ccf25	-0.24688394
62	0x3d8cb0ba	0.068696454
63	0xbd056b40	-0.032572985
64	0xbe7a02b6	-0.24415097
65	0xbe892d08	-0.2679217
66	0x3e692fad	0.22772093
67	0xbd9e966c	-0.077435344
68	0xbdb31b31	-0.08745421
69	0xbe340d6e	-0.17583248
70	0xbe5af2a9	-0.2138163
71	0xbee19b65	-0.4406387
72	0x3e19e110	0.15027261
73	0xbdd98e28	-0.10622817
74	0x3ddaa821	0.10676599
75	0xbe90e6bc	-0.28301036
76	0x3e2766b6	0.16347775
77	0xbddb8406	-0.10718541
78	0xbe6a187a	-0.228609
79	0xbd236e23	-0.039899956
80	0xbe57417a	-0.21021071
81	0xbd2ef2c0	-0.042711973
82	0xbeaa1b70	-0.33224058
83	0xbe8270dc	-0.2547673
84	0xbe1e096a	-0.15433279
85	0xbcc5310d	-0.02407124
86	0xbe06121d	-0.13092847
87	0xbeb44d0b	-0.3521503
88	0xbe577efc	-0.21044534
89	0xbd767dc2	-0.060178526
90	0x3e2b1d43	0.16710381
91	0xbe93ca0e	-0.28865093
92	0x3e819d0c	0.2531513
93	0xbb856322	-0.0040706554
94	0xbe802158	-0.2502544
95	0xbe92bc7e	-0.28659433
96	0x3db28cd5	0.08718268
97	0xbe9f8a63	-0.31160268
98	0xbe9ae39a	-0.3025177
99	0xbd391f13	-0.04519565
100	0xbe4ad7f6	-0.19808945
101	0xbe288540	-0.16457081
102	0xbdb0c2fc	-0.0863094
103	0x3edf5454	0.43619025
104	0xbcc23bf5	-0.02371023
105	0xbe0a0219	-0.13477363
106	0xbdeed6a7	-0.116620354
107	0x3e6b47c6	0.22976598
108	0xbe942b9a	-0.28939515
109	0x3e5e6e4d	0.21721764
110	0x3d0d653b	0.03452037
111	0x3e28bba2	0.16477826
112	0xbead15a5	-0.33805576
113	0x3e828a66	0.25496215
114	0x3e742fc2	0.23846343
115	0x3ea1f13c	0.3162936
116	0xbc71a392	-0.014748471
117	0x3d17e14e	0.0370801
118	0xbe18e7e7	-0.14932214
119	0x3c758ee3	0.01498768
120	0x3e94c30e	0.29055065
121	0x3e330e0c	0.17485827
122	0xbe9dc691	-0.30815557
123	0xbdb15a7f	-0.08659839
124	0x3e08ab12	0.13346508
125	0xbdb12da6	-0.08651285
126	0x3e452025	0.19250543
127	0xbe11cf44	-0.14239222
128	0xbdafb8fb	-0.08580204
129	0xbd490674	-0.04907842
130	0x3e67266f	0.22573255
131	0x3dc2a436	0.09503977
132	0xbdc8f3d5	-0.09812132
133	0x3bda99d5	0.0066711702
134	0xbe8346c5	-0.2563993
135	0x3e232069	0.15930332
136	0xbec2fada	-0.3808201
137	0x3e33dc13	0.1756442
138	0xbc5fe3b4	-0.0136651285
139	0xbe0d5ec0	-0.13805676
140	0xbe60d23a	-0.21955195
141	0xbe34ddc2	-0.17662719
142	0x3d9a11a6	0.075228974
143	0x3e182a72	0.14859942
144	0x3dd62560	0.104563475
145	0x3d2d438e	0.042300753
146	0x3c2ef16c	0.010677677
147	0x3e5c16c8	0.21493065
148	0xbd26c8c0	-0.040718794
149	0xbb36027c	-0.0027772477
150	0x3e349b99	0.17637481
151	0xbda705e0	-0.081554174
152	0x3e8b6bf1	0.2723079
153	0x3e81bf33	0.25341186
154	0xbcf2c23a	-0.02963363
155	0x3c5fc13c	0.0136569105
156	0xbe4f7204	-0.20258337
157	0x3c99d19a	0.018776704
158	0xbc91c934	-0.017796136
159	0x3ddda6da	0.1082284
160	0x3e33b077	0.17547785
161	0xbe67dbf8	-0.22642505
162	0x3e09f7c0	0.13473415
163	0xbe926ca5	-0.28598514
164	0xbea15f38	-0.3151796
165	0xbea089c0	-0.31355095
166	0x3c8bbfe7	0.01705928
167	0x3dc63c47	0.09679466
168	0x3e8799dd	0.26484576
169	0xbe7daa2d	-0.24771948
170	0xbd611929	-0.054955635
171	0xbca74f85	-0.02042366
172	0xbe4b0155	-0.19824727
173	0xbe8e600f	-0.27807662
174	0xbece7b31	-0.40328363
175	0x3d0848a4	0.0332724
176	0xbea95537	-0.33072826
177	0x3d1334c1	0.035938982
178	0xbe3be405	-0.18348701
179	0xbb6d481f	-0.0036206318
180	0xbe108602	-0.1411362
181	0xbeaf493e	-0.34235567
182	0xbd1e9f4c	-0.038726136
183	0xbe207a07	-0.1567155
184	0xbb5b8b85	-0.0033499908
185	0x3ea34101	0.31885532
186	0x3e31dabb	0.17368595
187	0xbe4af089	-0.1981832
188	0xbdc00fed	-0.093780376
189	0x3d525373	0.051349115
190	0xbe2f1b4e	-0.1710026
191	0xbecd5269	-0.40101936
192	0xbe1251fc	-0.14289087
193	0x3e862297	0.26198265
194	0xbcf47f89	-0.02984597
195	0x3e4302b2	0.19043997
196	0xbe98c935	-0.2984101
197	0xbc6674c9	-0.01406593
198	0x3e10777f	0.14108084
199	0x3de3feb0	0.11132562

weight f4 [200, 200]
0	0x3d0beb64	0.034160033
1	0x3d38656b	0.045018595
2	0x3cf450c8	0.029823676
3	0xbd9d00f7	-0.076662
4	0xbe01863b	-0.12648861
5	0xbd0126cd	-0.031531144
6	0xbd8a59de	-0.06755422
7	0x3d4dd499	0.050251577
8	0xbd5e04ec	-0.054203913
9	0xbcbeeeba	-0.023307193
10	0x3c7b40f8	0.015335314
11	0xbd75587b	-0.059898835
12	0xbdd8a933	-0.10579147
13	0xba902cfd	-0.0010999736
14	0xbe12be13	-0.1433032
15	0xbca09fe0	-0.019607484
16	0xbd2dc58d	-0.042424727
17	0xbca92b7d	-0.02065062
18	0x3d81617d	0.063174225
19	0x3c9beac3	0.019032842
20	0x3d0f2872	0.03495068
21	0x3cc171a8	0.023613766
22	0xbc36c40c	-0.01115514
23	0xbd78f18c	-0.060777232
24	0xbcf1ce0a	-0.029517192
25	0xbd49ece3	-0.04929818
26	0xbd588215	-0.05285843
27	0x3ca6fd58	0.020384476
28	0xbcf36a03	-0.029713636
29	0xbe0f32a2	-0.13984159
30	0xbd4edf44	-0.05050589
31	0x3d14b585	0.036305923
32	0xbc343c07	-0.01100064
33	0x3bcb0c02	0.0061965
34	0xbd598a88	-0.05311063
35	0x3c7496dc	0.014928546
36	0xbd4d9caa	-0.050198235
37	0xbd79354f	-0.060841855
38	0x3c74ff8c	0.014953505
39	0x3c483dfd	0.01222181
40	0xbd9e834a	-0.07739885
41	0xbe250311	-0.16114451
42	0xbd42d00c	-0.04756169
43	0xbde1512b	-0.1100181
44	0xbd5d2bc4	-0.053996816
45	0x3cced8aa	0.025249798
46	0xbd06af63	-0.032882106
47	0xbdbc1cea	-0.091852024
48	0xbd8607d6	-0.06544463
49	0xbc826a9b	-0.015919974
50	0xbd7f37ba	-0.062309004
51	0xbc84e5ff	-0.016222952
52	0xbd38ade7	-0.04508772
53	0xbdc09bc8	-0.09404713
54	0xbd5024ba	-0.050816275
55	0xbbfb5d1e	-0.0076710125
56	0x3cc652d8	0.024209425
57	0xbd855212	-0.06509794
58	0xbca66c96	-0.02031545
59	0x3c62b343	0.013836685
60	0xbe08942d	-0.13337775
61	0x3d0702f3	0.032961797
62	0xbd90fc23	-0.07079341
63	0x3bc5c2da	0.006035191
64	0xbd26c67e	-0.04071664
65	0xbc4db482	-0.012555243
66	0x3c6e2814	0.014535923
67	0xbd84ac84	-0.06478217
68	0x3d1f9935	0.03896447
69	0x3c3572fa	0.011074776
70	0xbdb1a2cb	-0.086736284
71	0x3cb37f5a	0.021911312
72	0x3dbb2058	0.091370285
73	0x3c20c7f2	0.009813296
74	0xbc9cb5ad	-0.019129599
75	0x3c5ab9ea	0.013349989
76	0xbe09757e	-0.13423726
77	0xbdd353d8	-0.10318726
78	0x3d6f85d8	0.058477253
79	0x3d1ae0cc	0.03781204
80	0xbd8c8891	-0.068619855
81	0xbdfa03bb	-0.12207743
82	0xbad90ad3	-0.0016559012
83	0xbce7802e	-0.028259363
84	0x3cf3c778	0.0297582
85	0xbdec0ada	-0.11525507
86	0x3aeccdc9	0.00180667
87	0x3d330d69	0.04371396
88	0xbdcf0d0a	-0.10109909
89	0x3d41084d	0.047127057
90	0x38ea19ac	0.00011162771
91	0xbc95a0e4	-0.018265195
92	0x3d812379	0.06305594
93	0xbdfbfa9d	-0.1230366
94	0xbd614f52	-0.055007286
95	0x3c2e3a21	0.010633976
96	0xbd9cfca4	-0.07665375
97	0xbba39d4d	-0.004993117
98	0x3c6bc4c8	0.014390178
99	0xbd93eb7c	-0.072226495
100	0xbd8c525c	-0.06851646
101	0xbda3a00a	-0.079895094
102	0xbc84359d	-0.016138846
103	0xbd8555c8	-0.06510502
104	0xbcbdc025	-0.02316291
105	0xbdd5f926	-0.10447912
106	0xbde3206a	-0.11090167
107	0xbdea4dab	-0.11440595
108	0xbd463355	-0.048388798
109	0x3b969ef2	0.0045965845
110	0xbd0a20d7	-0.033722725
111	0x3ca374df	0.01995319
112	0xbdedbdf1	-0.11608494
113	0xbcf4eaf3	-0.029897189
114	0xbc3549e3	-0.011064979
115	0xbe261fbd	-0.16223045
116	0xbce56e66	-0.028006744
117	0xbd5b3136	-0.053513728
118	0x3c7edc41	0.015555442
119	0xbdb346a2	-0.087537065
120	0x3c2d78a4	0.010587845
121	0xbc855499	-0.01627569
122	0xbda1b183	-0.07895186
123	0x3d3a7c36	0.045528613
124	0xbdf110df	-0.11770796
125	0x3d81036e	0.06299482
126	0xbdb5cc03	-0.08876803
127	0xbc30508c	-0.010761391
128	0x390b467f	0.00013282335
129	0xbcab7b45	-0.020932803
130	0x3d0ca00b	0.034332316
131	0xbc9129ad	-0.017720068
132	0x3c1a2e8d	0.009410513
133	0xbb1ce9a4	-0.0023942972
134	0xbd4adef5	-0.049529035
135	0xbd7d2fd8	-0.061813205
136	0xbd8e4962	-0.069475904
137	0xbcf35c7c	-0.029707186
138	0x3d5e3dce	0.05425816
139	0xbdfe8067	-0.124268346
140	0xbcf7a569	-0.03023024
141	0xbddbf83f	-0.107407086
142	0xbd28c745	-0.041205663
143	0x3d13f718	0.03612432
144	0xbdee5469	-0.11637194
145	0x3b4dc897	0.0031400078
146	0xbd93b387	-0.072119765
147	0xbe00b255	-0.12568028
148	0xbd3a2b6e	-0.045451574
149	0xbc9df6df	-0.019282756
150	0xbd1283df	-0.035770293
151	0xbd9f6405	-0.07782749
152	0xbe016c5e	-0.12638995
153	0x3d247772	0.040152974
154	0x3bc9e4c6	0.006161305
155	0xbdcd727f	-0.10031604
156	0xbd8d1d1c	-0.06890318
157	0xbd86935f	-0.065710776
158	0xbd667129	-0.05626026
159	0xbd22867f	-0.039679047
160	0xbdd8b309	-0.10581023
161	0xbd908a82	-0.07057668
162	0xbde03dbc	-0.10949275
163	0xbb71f6ca	-0.003692078
164	0xbd435428	-0.04768768
165	0xbd3166bb	-0.043310862
166	0x3d10bff1	0.0353393
167	0xbdbde744	-0.09272626
168	0x3cebe760	0.028796852
169	0x3cee68cb	0.029102704
170	0x3c8d139a	0.01722126
171	0xbda384c1	-0.07984305
172	0xbd178155	-0.036988575
173	0xbd98e5a4	-0.074656755
174	0xbd4577ed	-0.048210073
175	0xbdd3b8cf	-0.10337984
176	0xbdc9f173	-0.09860506
177	0xbe00908c	-0.1255514
178	0xbc76f226	-0.015072381
179	0xbdb37d94	-0.087641865
180	0xbc13f506	-0.009030586
181	0x3d287162	0.041123755
182	0xbc83498e	-0.016026285
183	0x3cad59fe	0.021161076
184	0xbd692e75	-0.05692907
185	0xbca4af01	-0.02010298
186	0xbd5752d3	-0.05256922
187	0x3d60dede	0.054900043
188	0xbd33fa88	-0.043940097
189	0xbc1b8617	-0.009492419
190	0x3c8b6551	0.017016085
191	0x3cca94cf	0.02472916
192	0x3d65eacc	0.056132123
193	0xbcc3d352	-0.023904476
194	0x3d2c4ebd	0.04206728
195	0xbc55f635	-0.013059189
196	0xbd968670	-0.07349861
197	0x3c53ec14	0.012934703
198	0x3d22f62c	0.03978555
199	0xbcb90474	-0.022585131
200	0x3e4aa115	0.1978801
201	0x3e7961e5	0.2435375
202	0xbeb45436	-0.35220498
203	0xbe98de7b	-0.2985724
204	0x3e12aa1b	0.14322703
205	0xbe1c50e4	-0.15265232
206	0x3c8223bc	0.01588618
207	0xbeaae1e6	-0.33375472
208	0xbe973389	-0.29531506
209	0x3e9fc5d8	0.3120563
210	0x3e571fc3	0.2100821
211	0x3cc341a3	0.023835009
212	0xbf18e3bf	-0.5972251
213	0x3f20cf19	0.62816006
214	0x3d9d7331	0.07687987
215	0x3c74f658	0.014951311
216	0x3f322fcb	0.69604176
217	0x3e853060	0.2601347
218	0x3ece4cdc	0.40293014
219	0x3b5628ee	0.0032678205
220	0x3d8dc9f9	0.06923289
221	0xbc6dca78	-0.014513604
222	0xbdda6fff	-0.10665893
223	0xbe51c0b9	-0.20483674
224	0xbf0ef511	-0.5584269
225	0x3c07564f	0.008260324
226	0x3e048640	0.12941837
227	0x3e1ea3f0	0.15492225
228	0x3f01b9bb	0.5067403
229	0x3e08a155	0.13342793
230	0xbe8808db	-0.26569256
231	0x3e893369	0.26797035
232	0xbec46b85	-0.3836328
233	0x3f474160	0.7783413
234	0x3dd1a40e	0.10236369
235	0xbd834e78	-0.06411451
236	0x3ec504a0	0.3848009
237	0x3eb0e627	0.34550592
238	0xbe8cccc0	-0.27499962
239	0x3e080ffe	0.1328735
240	0x3e801a3d	0.25020018
241	0x3d8853ac	0.06656584
242	0xbe93060e	-0.28715557
243	0xbe48441e	-0.19557235
244	0xbc8f4060	-0.017486751
245	0x3d86775d	0.065657355
246	0x3c24b4c6	0.010052865
247	0xbeb6364f	-0.3558831
248	0x3c8e08b5	0.017338136
249	0xbcdd996a	-0.027050693
250	0x3cb86e60	0.022513568
251	0x3f23f284	0.64041924
252	0x3c57b79f	0.013166337
253	0xbec2df69	-0.38061073
254	0x3f1e1ab0	0.6175947
255	0x3e4da889	0.20083822

bias f4 [200]
0	0xbcf87111	-0.030327352
1	0xbe4c5e44	-0.19957834
2	0xbd508aff	-0.050913807
3	0xbc95799b	-0.018246463
4	0xbcff0dc7	-0.0311345
5	0xbd9116a6	-0.07084398
6	0x3dad0423	0.08448055
7	0x3d4a2e95	0.04936083
8	0xbdb992b3	-0.09061184
9	0xbc2fe080	-0.010734677
10	0x3dc946bb	0.09827944
11	0x3c653cf7	0.013991586
12	0xbe69d4fa	-0.2283515
13	0xbb872e51	-0.0041253944
14	0x3c8ef56d	0.017451013
15	0x3e0917a2	0.13387921
16	0x3cae7832	0.021297548
17	0x3be05fae	0.0068473434
18	0x3d8b7185	0.068087615
19	0xbdc269bc	-0.094928235
20	0xbd0c8b19	-0.03431234
21	0xbdca6d47	-0.09884124
22	0xbdcc5e67	-0.09978943
23	0xbdd8bc16	-0.105827495
24	0xbbb5d555	-0.005549113
25	0xbdbd64f9	-0.09247775
26	0xbcc7e798	-0.024402425
27	0xbe06b3bd	-0.13154502
28	0x3cb13206	0.021630298
29	0xbe32717e	-0.17426106
30	0x39900341	0.00027468245
31	0x3bce1203	0.0062887683
32	0xbc83400e	-0.016021755
33	0xb9a6378d	-0.00031703376
34	0xbd7b4acd	-0.061350632
35	0xbe92ce58	-0.28673053
36	0xbdcf04e1	-0.101083525
37	0x3cbe7b22	0.023252074
38	0xbd012b6e	-0.03153556
39	0xbd698d98	-0.0570198
40	0xbd26fe6f	-0.04076999
41	0xbd910341	-0.07080699
42	0xbd91e17a	-0.07123084
43	0x3d1468d2	0.036232777
44	0xbc1bed05	-0.009516959
45	0xbd8db804	-0.06919864
46	0xbd7354d8	-0.059407085
47	0xbd26c838	-0.040718287
48	0xbdb25b31	-0.087088
49	0xbe61aa44	-0.22037607
50	0xbdd38dc7	-0.10329776
51	0xbd524672	-0.051336713
52	0xbe7210b8	-0.2363919
53	0xbe149675	-0.1451052
54	0x3e505085	0.20343216
55	0x3e05dd70	0.13072753
56	0xbd9c9434	-0.07645455
57	0xbd914ff8	-0.07095331
58	0x3b916b97	0.0044378745
59	0xbbcc48d6	-0.0062342687
60	0x3e2b285d	0.16714616
61	0xbdee512c	-0.11636576
62	0xbd69bc92	-0.0570646
63	0xbea1b9c2	-0.31587034
64	0xbe3aada4	-0.18230301
65	0xbd23355a	-0.039845802
66	0xbdb506f3	-0.08839216
67	0xbda685e8	-0.08131009
68	0xbd14f3f7	-0.036365476
69	0x3e05c665	0.13063963
70	0x3d6a3697	0.057180967
71	0xbdb0102d	-0.08596835
72	0xbdfd0dee	-0.123561725
73	0x3dceb19e	0.100924715
74	0xbd374111	-0.044739787
75	0xbdc34c87	-0.09536081
76	0xbd865397	-0.06558912
77	0xbd6e3fcf	-0.05816632
78	0xbbb1ab9c	-0.0054220688
79	0xbce65789	-0.028117912
80	0xbdd90c13	-0.10598006
81	0x3cfd663e	0.030932542
82	0xbe569bd4	-0.20957881
83	0xbe256a3b	-0.16153805
84	0x3ac7c149	0.0015240099
85	0xbd03f7a5	-0.032218594
86	0xbd883490	-0.066506505
87	0xbcfc8e35	-0.030829528
88	0xbe646d1d	-0.22307248
89	0x3c9f628f	0.019456176
90	0x3bb097c5	0.005389186
91	0xbd9acd19	-0.075586505
92	0xbe64770a	-0.22311035
93	0xbd1e52be	-0.038653128
94	0xbd5246b2	-0.05133695
95	0xbdfd47f9	-0.12367243
96	0x3e21d820	0.15805101
97	0xbd0451ca	-0.032304563
98	0xbe23f017	-0.16009556
99	0xbca5f7b8	-0.020259723
100	0xbdbeec8a	-0.0932246
101	0x3e3db8fa	0.18527594
102	0xbcf8b95c	-0.030361824
103	0xbdafd5c0	-0.085856915
104	0xbb342961	-0.0027490484
105	0xbcabce18	-0.020972297
106	0xbcac5b69	-0.021039682
107	0xbc4cc854	-0.012498934
108	0xbdce23e9	-0.10065443
109	0xbd929c4e	-0.07158719
110	0xbdd054bd	-0.101724125
111	0xbbaec6ba	-0.0053337486
112	0xbd5bbc9f	-0.05364668
113	0x3d4ff94c	0.050774857
114	0xbda2e23e	-0.079533085
115	0x3d8484dc	0.064706534
116	0x3a7dab94	0.0009676751
117	0xbdcd3dcc	-0.100215524
118	0xbdc00b6d	-0.09377179
119	0xbdf0e1f7	-0.117618494
120	0xbcba4ae1	-0.022740783
121	0xbda51167	-0.0805996
122	0xbdb724f2	-0.08942594
123	0xbcb6533e	-0.02225649
124	0xbd288725	-0.04114451
125	0x3c25b089	0.01011289
126	0xbc15cb32	-0.009142684
127	0xbd889f45	-0.06671003
128	0xbe9c7ac9	-0.30562428
129	0x3cce5e67	0.025191499
130	0x3a10c1dc	0.00055220514
131	0xbdba2d35	-0.09090654
132	0xbe14fc00	-0.14549255
133	0xbd8b8b67	-0.06813698
134	0xbea13532	-0.31485897
135	0xbe2bf398	-0.16792142
136	0xbdbea5ab	-0.093089424
137	0xbd1103a0	-0.035403848
138	0xbda875cd	-0.08225594
139	0x3cd4dafe	0.02598333
140	0xbe1a097a	-0.15042678
141	0xbdc8ede5	-0.09811
142	0xbd9d67e4	-0.07685831
143	0xbd729f53	-0.059233975
144	0xbdd4bad5	-0.10387198
145	0xbdda9f66	-0.10674934
146	0xbe301aa4	-0.17197663
147	0x3d270869	0.040779505
148	0xbdd0fdb3	-0.10204639
149	0xbd1dc58c	-0.038518474
150	0xbdb03125	-0.086031236
151	0xbdbdd4c6	-0.09269099
152	0xbe1e2852	-0.15445068
153	0xbdc92410	-0.098213315
154	0xbe4bff17	-0.19921528
155	0xbd7f278f	-0.062293585
156	0xbd7f3d87	-0.062314536
157	0xbd8498ba	-0.06474443
158	0xbe749021	-0.23883106
159	0xbdc5343a	-0.09629102
160	0x3bf81c9e	0.007571771
161	0xbe148406	-0.14503488
162	0xbdd5002a	-0.10400422
163	0x3d26a1d8	0.04068169
164	0xbd5c3b85	-0.0537677
165	0xbd1f7942	-0.038934
166	0xbda5688e	-0.08076583
167	0xbd8fc5cf	-0.07020151
168	0xbd2e94d1	-0.04262239
169	0xbda1002f	-0.07861363
170	0xbe15d93d	-0.14633651
171	0xbe1e9967	-0.15488206
172	0xbcd3b549	-0.02584328
173	0xbcf774f0	-0.030207127
174	0xbdd41adf	-0.10356688
175	0xbe0c8119	-0.13721122
176	0xbd8ebace	-0.06969224
177	0xbe5f3ca0	-0.2180047
178	0x3ccb6ee7	0.024833156
179	0x3c3fedb2	0.011714386
180	0xbdfc721a	-0.12326451
181	0xbda7556e	-0.08170591
182	0x3cc43223	0.023949688
183	0xbe82c505	-0.2554094
184	0xbd450275	-0.048098046
185	0xbde8a2e4	-0.11359194
186	0x3d192386	0.037387393
187	0xbd906f2a	-0.07052453
188	0xbd37e7c6	-0.04489877
189	0xbe060d55	-0.13091023
190	0x3dcf40a3	0.1011975
191	0xbc7779a7	-0.015104688
192	0xbd974a60	-0.07387233
193	0xbd2dd26f	-0.042437013
194	0xbda485b1	-0.08033312
195	0xbe3f7739	-0.18697824
196	0xbe156b20	-0.14591646
197	0x3c842f7b	0.016135922
198	0xbd03e8f3	-0.03220458
199	0x3bee61ba	0.0072748335

weight f4 [2, 200]
0	0xbd710a75	-0.058847863
1	0xbecc2f43	-0.39879808
2	0xbd0ebd71	-0.034848634
3	0x3d419827	0.047264244
4	0x3ce3007b	0.02771019
5	0x3c6bf894	0.014402527
6	0x3c1d548f	0.00960268
7	0x3d066706	0.032813095
8	0xbd57e4de	-0.0527085
9	0x3d3c3cb3	0.045956325
10	0x3e34c5f6	0.17653641
11	0xbcf96640	-0.030444264
12	0xbe0dab24	-0.13834816
13	0x3cce79bc	0.025204532
14	0xbd11d586	-0.035604022
15	0xbea26034	-0.31714022
16	0xbc83a08d	-0.016067768
17	0x3b3a4803	0.002842427
18	0xbc1e9f05	-0.009681468
19	0xbce11696	-0.02747659
20	0x3f71f963	0.9452116
21	0xbc89d7f3	-0.016826605
22	0x3f2a3297	0.66483444
23	0xbc59585e	-0.013265697
24	0x3cdd2471	0.026994916
25	0xbf9585ae	-1.1681421
26	0x3ca933bf	0.020654557
27	0x3cb57cdc	0.022154264
28	0x3c5ce10f	0.0134813925
29	0x3eb00dd1	0.3438554
30	0x3c6e7513	0.01455428
31	0x3d78273e	0.0605843
32	0x3be45c62	0.0069690207
33	0x3d0c985f	0.034325
34	0x3d0f9973	0.03505845
35	0xbd4ee219	-0.050508592
36	0xbcbca3e6	-0.023027372
37	0x3bed8d66	0.007249522
38	0x3d00d1e6	0.031450175
39	0xbcb4a80e	-0.022052791
40	0x3d1b08b1	0.037850086
41	0xbd5ecbfb	-0.05439375
42	0xbd37d96b	-0.04488508
43	0x3c1e22bd	0.009651837
44	0x3c370579	0.011170738
45	0xbf974325	-1.1817366
46	0xbee0f88d	-0.4393963
47	0x3d1e420d	0.03863721
48	0xbe0e7ffc	-0.1391601
49	0xbf0046d2	-0.50108063
50	0xbf636634	-0.88827825
51	0x3c1c2692	0.00953068
52	0x3fbf1fe9	1.4931613
53	0x3d2a3ae0	0.041560054
54	0x3e8f5ebb	0.2800196
55	0x3e3ed41a	0.18635598
56	0xbe1a6e0a	-0.15081039
57	0xbbca7e85	-0.006179633
58	0xbe322757	-0.1739782
59	0x3ba431bb	0.005010811
60	0x3e6ce44a	0.2313396
61	0xbf059040	-0.52173233
62	0x3bfb2ade	0.0076650223
63	0xbdef3792	-0.11680521
64	0x3f5065d9	0.8140541
65	0xbd55e43e	-0.05221962
66	0xbd120be3	-0.035655867
67	0x3b0f60e1	0.0021877813
68	0xbd1a63cd	-0.037692834
69	0x3ee22700	0.4417038
70	0x3f14433f	0.5791511
71	0xbd053a39	-0.03252623
72	0xbe19c282	-0.15015605
73	0xbddc24b8	-0.10749191
74	0xbd5cb8ab	-0.05388705
75	0xbeaf6c34	-0.3426224
76	0x3d7746cd	0.060370255
77	0x3e0c19f3	0.13681774
78	0x3d31dc9f	0.04342329
79	0x3cce6e3a	0.025199044
80	0x3fb556fa	1.4167168
81	0x3d1bf4d0	0.03807527
82	0xbe87664d	-0.26445237
83	0xbf2dd702	-0.679062
84	0xbd3f2cdc	-0.04667364
85	0x3c3d6b4f	0.011561229
86	0xbbec688c	-0.0072146114
87	0x3d3df776	0.046378575
88	0x3fb1252a	1.3839467
89	0xbc8ecd2e	-0.017431822
90	0xbca0e615	-0.019640962
91	0xbb95a195	-0.004566381
92	0x3d7ab8dd	0.061211456
93	0xbbc7ec2f	-0.0061011533
94	0xbe91c06c	-0.2846712
95	0xbd4ba2df	-0.049715873
96	0x3c3785a2	0.011201294
97	0xbbba7071	-0.0056896736
98	0x3d1cd5e2	0.038289912
99	0xbea2dad1	-0.3180757
100	0x3cd7b530	0.026331514
101	0xbf13536b	-0.5754916
102	0x3c6232e6	0.01380608
103	0x3d05bd55	0.032651264
104	0x3d8c3c6c	0.06847462
105	0xbcabcc03	-0.020971304
106	0x3d7e4ecd	0.06208687
107	0x3ced0ba0	0.028936207
108	0xbc701d56	-0.014655432
109	0xbeabd3e7	-0.33560106
110	0xbe7b3eb4	-0.24535638
111	0x3ccb947f	0.024851082
112	0xbe2f30db	-0.1710848
113	0x3edde9c2	0.43342406
114	0x3bf9682a	0.0076112943
115	0xbf076c23	-0.5289938
116	0x3ce1b39d	0.027551467
117	0x3c47dee8	0.012199141
118	0x3c237745	0.009977167
119	0xbd0c20b3	-0.034210872
120	0x3c8e375a	0.017360378
121	0x3f187b7e	0.59563434
122	0xbc685758	-0.014180981
123	0xbe4d1275	-0.20026572
124	0xbd2cbb5c	-0.042170867
125	0x3ea716c0	0.32634544
126	0xbca56d41	-0.020193698
127	0xbc72b0e7	-0.014812685
128	0x3e970522	0.29496104
129	0x3d5bdeba	0.053679205
130	0xbbe28d21	-0.0069137965
131	0xbcdc8474	-0.026918627
132	0x3cb38019	0.021911668
133	0x3d1cb01e	0.038253896
134	0x3f5a015d	0.8515833
135	0x3f76024c	0.96097255
136	0x3d14c9fa	0.036325432
137	0x3bd74f66	0.0065707443
138	0xbe8449c6	-0.25837535
139	0xbf896663	-1.0734371
140	0x3caf49af	0.02139744
141	0x3d4cee12	0.05003173
142	0x3c5f667b	0.013635273
143	0xbbb224bf	-0.0054365094
144	0x3c852716	0.01625399
145	0x3d400265	0.046877284
146	0xbf609bbc	-0.8773763
147	0x3d248f85	0.040175933
148	0xbef03515	-0.46915498
149	0xbc8624ad	-0.01637491
150	0xbc500ddb	-0.012698616
151	0xbaae1cf3	-0.0013283774
152	0x3c584518	0.013200067
153	0xbf82d023	-1.0219768
154	0x3fff46f6	1.994353
155	0xbcce4001	-0.025177004
156	0x3c482e16	0.012218019
157	0xbeec6a0d	-0.4617466
158	0x3f963832	1.17359
159	0x3ca513a6	0.02015097
160	0x3d2d80d6	0.042359196
161	0x3d9c4769	0.07630808
162	0x3c1a4116	0.009414932
163	0xbf4b227b	-0.7934949
164	0xbcc4331b	-0.02395015
165	0x3ebac713	0.36480007
166	0xbd0cad41	-0.034344915
167	0xbc8ee1eb	-0.01744171
168	0x3c443fcb	0.0119781
169	0x3cfdcc73	0.030981278
170	0xbf1b8c7e	-0.6076125
171	0x3e5aae98	0.21355665
172	0xbeaac679	-0.33354548
173	0x3fa2cc79	1.271865
174	0xbfad5b1f	-1.3543433
175	0x3ca0b4de	0.019617494
176	0x3f0e9a2d	0.55704004
177	0x3c1c22f3	0.009529817
178	0x3ef4d9c1	0.47822383
179	0xc001856f	-2.0237691
180	0x3f535a8c	0.8256004
181	0xbd67ecc0	-0.056622267
182	0x3d52562a	0.051351704
183	0xbdf6125d	-0.12015221
184	0x3ccc2cb9	0.02492367
185	0xbec392d8	-0.3819797
186	0x3d2919ec	0.041284487
187	0xbca3c5d8	-0.0199918
188	0x3bf941de	0.007606729
189	0xbde8f733	-0.113752745
190	0x3e9351e8	0.28773427
191	0x3c8c20c9	0.017105477
192	0xbe1cee33	-0.15325241
193	0xbca573b2	-0.02019677
194	0x3cddf471	0.027094098
195	0x3c0b5f02	0.008506538
196	0x3d25839e	0.040408723
197	0xbc742974	-0.014902461
198	0x3caf1bce	0.021375563
199	0x3d551264	0.05201949
200	0x3c2a520a	0.010395536
201	0x3eee8408	0.46585107
202	0xbeae93b7	-0.34097072
203	0xbd3df577	-0.04637667
204	0xbc6ff60f	-0.014646067
205	0xbd198475	-0.037479836
206	0x3e6d642b	0.23182742
207	0x3a4066b4	0.00073395227
208	0xbdb83fb4	-0.089965254
209	0xbc8ca1e2	-0.017167035
210	0x3d9628e3	0.07332017
211	0x3c83a080	0.016067743
212	0xbf33ceb1	-0.7023726
213	0xbd56b9f2	-0.052423425
214	0xbd00785e	-0.03136479
215	0x3e322e37	0.17400442
216	0x3c2dc634	0.010606337
217	0x3d646f47	0.055770185
218	0x3e90a8ae	0.28253692
219	0x3bb7af2d	0.0056055994
220	0x3e5fc37d	0.21851917
221	0xbd34d9a3	-0.044152867
222	0xbeab25b8	-0.33427215
223	0xbcb876a4	-0.02251751
224	0x3ceca3bd	0.02888667
225	0x3dc0b3f6	0.09409325
226	0xbc3f5de2	-0.011680098
227	0xbe5e73c2	-0.21723846
228	0xbacaa597	-0.0015460727
229	0x3d95b1f6	0.07309334
230	0xbd6b5220	-0.057451367
231	0x3c64245b	0.013924683
232	0xbcb4dac9	-0.022076981
233	0x3bd66878	0.0065432154
234	0xbd0b1a5a	-0.033960678
235	0xbf2a0a3e	-0.6642188
236	0x3c8eaae3	0.01741547
237	0x3d1c2812	0.03812415
238	0x3ce0e404	0.027452476
239	0x3d01c36d	0.031680513
240	0x3d3e67d6	0.046485744
241	0x3c303ea3	0.010757121
242	0xbae913a2	-0.001778234
243	0x3c8ac360	0.016938865
244	0x3c383921	0.011244089
245	0x3da19dc3	0.07891419
246	0xbe6bec2d	-0.23039313
247	0x3d2482ad	0.040163685
248	0xbf141b51	-0.5785418
249	0xbcf996df	-0.030467449
250	0x3f627e9b	0.88474435
251	0x3c5bce04	0.013415817
252	0xbe392830	-0.18081737
253	0xbea12b55	-0.31478372
254	0xbd92ce2a	-0.07168229
255	0x3f195511	0.59895426

bias f4 [2]
0	0xbe0738ff	-0.13205336
1	0x3df68836	0.12037699
