Vehicles/Mod_02_01/Mod_02_01_critic_target.pth (torch, 353434 bytes, 10 tensors)

weight f4 [200, 15]
00000000: 219b b83e 44e6 08bf 36cb 883e 0c7e 26bf
00000010: 2198 933e b95a fe3d cdc5 acbc 2407 2fbf
00000020: 8f86 18be a728 c63e a6ba 72be 540f c43c
00000030: e276 fcbe ceaf 4fbf fa30 2dbd 955f 613e
00000040: e6f4 3bbf 5591 9cbf d0dc bfbe a6ad b03d
00000050: 70bd f9be e106 90be 38cf a43d 2ab2 68be
00000060: b7c8 03bc 7225 8bbe ab3d 953d 491a b73e
00000070: 6ef9 b83e 4410 70be fdba abbd 4b85 7ebf
00000080: 93c7 1a3f bd9f a43e 13b7 8c3e 4ac8 e6be
00000090: 2cf6 9a3d 0150 913e e856 c7be 8787 70bd
000000a0: d735 d2be b25b aa3c 86f7 a1be 596e 153d
000000b0: 21df 2c3d 66d5 d3be 783b 0f3f 5dbe 7abe
000000c0: 716b a4bc fa47 e0bc 4d6e 463e 11c3 dd3e
000000d0: 1a08 8e3e d3c1 613e bda3 a23b a4ca bdbd
000000e0: 9c8d 56bd 16ee 30bf d2bd 9cbe 2cc9 793e
000000f0: 533e ddbe b5d5 173f fe74 ca3d a7c1 08bf
00000100: 652f ffbe 446f febe 510b afbd f839 11bf
00000110: 1252 083f 6d46 b73e eb52 11bf df7e 1d3e
00000120: d409 ec3d e670 213f 76e9 7abd 9cdf 0f3e
00000130: 5228 873f 388a 98be d567 9cbe 3700 12be
00000140: 4918 31be 5a2a 23bf bcb8 f2be 2edb 59bd
00000150: 6330 1e3f 95f8 13be 2ae2 b7be 3029 afbe
00000160: 32bf e83e 1060 f7bd e342 febe a5b4 18be
00000170: dd14 7a3d 8ee6 133e eb5a 64bd 4eee 153d
00000180: 1684 49be fc99 adbe 2bdc 153e 0dcb d0bf
00000190: 468b c0bf dee9 8fbf c39e d73e 32bf 053f
000001a0: 30d1 8ebd 2c40 f63e 4d3a a43e e0c9 153e
000001b0: 309b d93c a435 8dbe f286 073e 0fb3 c0bd
000001c0: 8c43 8c3d a98f 1dbe f181 ea3d fb58 003f
000001d0: 826b 2cbf fcd4 2cbf 5582 003f 8c67 d73e
000001e0: 31fa ddbe 9c39 b23e 8342 1c3f 0e88 1a3f
000001f0: 16b9 2abe 7ff2 8ebe 75a1 4dbe b362 5a3c
00000200: 2c85 9dbe e622 85be 8084 ba3e fb15 d33d
00000210: cdf1 0dbf 617c 4dbe 3984 7a3e 2736 13be
00000220: 13fe 9d3c 506a dd3e 711d ffbd 543e f53d
00000230: 5522 373c fa26 efbd 3121 ee3d d97d 9b3e
00000240: 4a1c 1dbf 10be ad3e 9d6b 193e 3434 62bf
00000250: 8b48 c3be 1539 b13e 27f9 ae3d ae73 d63d
00000260: 3e70 d2bd 3ce4 ea3e 1cc6 c5be 0f84 02bf
00000270: b73e a9bf fb93 b3be b5f3 ca3e 7c93 8f3e
00000280: 15a5 d63c fbac de3e 3736 25be 4b33 acbe
00000290: 937a 5e3f aa22 833c dd89 e43e e916 00be
000002a0: 7fdd ccbe 0107 113f 2f7b 65be 2939 a9bc
000002b0: f151 b3be 8fec d4be 4e91 7b3e 981b 82be
000002c0: 90ee fabe 71e1 a0bd 2691 f23d 92bc 27bf
000002d0: 234b 66be 1703 aabd b172 4fbe 84ac 813d
000002e0: c672 14be 4d72 0fbe 7aed dcbb 99a2 d03d
000002f0: 2014 39be 0461 ffbd 9bf9 67be 891b 47be
00000300: a6ae af3d f69a 253c ca34 61be 92f1 babc
00000310: 8e78 02bd 7dee 56bd d27c 833d c179 083e
00000320: 6254 bb3e 0c16 e4bd c27f 22bf c6b4 853e
00000330: e236 cb3c 9aa2 36bf deef 8cbd 8e01 033f
00000340: 114a e43d 6c48 f73b a602 58be 9441 00bf
00000350: ac03 f5be 4d20 6c3e 4968 58be 555d 31bf
00000360: a40d 59be 22fb 8d3c e256 dd3e dcc5 cabe
00000370: 5d60 623e b174 debe 9c26 4a3e 46b9 493e
00000380: 1829 06bf 7565 7c3f e15d 4cbd 962f 9abf
00000390: 1ca3 dabd 878d b33d bac5 9fbb db26 56bd
000003a0: 266a 2f3e baae 953d 5a22 0dbf 4c3a aa3e
000003b0: 872a 063c 0d2f ee3d 5ff7 2dbe e911 e13d
000003c0: b90c 9a3e 09e4 b3bd 9018 d73e 2bba 7bbd
000003d0: 51a2 30bf 560c aa3d 93ac 71be 3cf7 c63d
000003e0: dc42 163f 719a 1ebf 8b70 5d3e c26e 993e
000003f0: 6b83 423e fcbf 9cbe f9eb d6be 0120 a73e
0.36055854 -0.5347636 0.26717538 -0.6503608 0.28827003 0.12419648 -0.021090413 -0.6837027
-0.1489508 0.3870289 -0.23704013 0.02393309 -0.4930945 -0.8112763 -0.042283036 0.22009118
-0.7342056 -1.2231852 -0.37473154 0.08626871 -0.48777342 -0.28130248 0.08047336 -0.22724214
-0.00804346 -0.27177006 0.07287153 0.3576224 0.361278 -0.23443705 -0.083852746 -0.9942214
0.60460776 0.3215312 0.27483425 -0.45074683 0.07566485 0.2838135 -0.38933492 -0.058723
-0.41056702 0.020795677 -0.31634158 0.03648219 0.04220498 -0.41373748 0.5595012 -0.2448668
-0.020070763 -0.027378071 0.19378014 0.43312886 0.27740556 0.22046594 0.004963367 -0.09267166
-0.052381143 -0.6911329 -0.3061357 0.24393147 -0.43211612 0.59310466 0.09885596 -0.5342049
-0.49840847 -0.49694264 -0.0854708 -0.5672908 0.5325023 0.35795918 -0.5676715 0.15380429
0.11525312 0.63062894 -0.061257802 0.14050144 1.055918 -0.29792953 -0.30547968 -0.14257894
-0.1729442 -0.637365 -0.47406566 -0.05318754 0.6179258 -0.14450295 -0.35914737 -0.3421111
0.4545837 -0.12078869 -0.49660406 -0.1491266 0.061055053 0.14443418 -0.05575077 0.03660422
-0.19679293 -0.33906543 0.14634769 -1.6311966 -1.5042503 -1.1243246 0.42113313 0.52244866
-0.06973493 0.48095834 0.3207573 0.1462779 0.026563257 -0.27579987 0.13235071 -0.09409153
0.06848821 -0.15386833 0.114505656 0.50135773 -0.67351544 -0.6751249 0.5019887 0.42071187
-0.43354943 0.34809577 0.6103899 0.6036385 -0.16672167 -0.27919385 -0.20081122 0.013329196
-0.30765665 -0.26003188 0.36429214 0.10306927 -0.55447084 -0.20066978 0.24464501 -0.14376126
0.019286191 0.43245173 -0.124567874 0.11974779 0.011177619 -0.11677356 0.116274245 0.30369452
-0.6137129 0.3393407 0.14982457 -0.88360906 -0.38141283 0.34613863 0.08543616 0.10471283
-0.10275315 0.45877254 -0.38627708 -0.50982755 -1.3222264 -0.35073838 0.3963906 0.2804221
0.026201764 0.4349135 -0.16133963 -0.33632883 0.86905783 0.01600774 0.4463643 -0.1250874
-0.40012738 0.5665131 -0.22410272 -0.020657139 -0.35023454 -0.4158673 0.24567148 -0.25411677
-0.49010134 -0.078554995 0.11844091 -0.6552211 -0.224896 -0.083013706 -0.20258595 0.06331733
-0.14496908 -0.14008446 -0.0067421766 0.10187263 -0.18074083 -0.12469676 -0.2265381 -0.19444098
0.085782334 0.010107746 -0.21992794 -0.022820268 -0.03185325 -0.052473534 0.06420292 0.13327695
0.36587816 -0.111370176 -0.6347619 0.26114482 0.024806444 -0.7134186 -0.068816885 0.5117425
0.111469395 0.007546475 -0.2109476 -0.50100064 -0.47854364 0.23059197 -0.21133532 -0.6928304
-0.2119661 0.017331664 0.4323035 -0.3960408 0.22107072 -0.43448403 0.19741291 0.19699582
-0.52406454 0.9859231 -0.049894217 -1.2045772 -0.10675642 0.087672286 -0.0048758658 -0.05228315
0.17130336 0.07308717 -0.5513054 0.33247602 0.00818885 0.11630068 -0.16988896 0.10989744
0.30087832 -0.08783729 0.42010927 -0.06145684 -0.68997675 0.08303134 -0.23600988 0.09715125
0.5869577 -0.6195441 0.21624963 0.29967314 0.18995444 -0.30615222 -0.41976908 0.32641605

bias f4 [200]
00000000: 0612 2e3e 09c9 a7be 09cd 06be 1046 60be
00000010: 5ac8 1cbe c453 4dbd e033 983e f4fe 253e
00000020: ee48 b33e 3066 393e 3ae5 a3be d268 553e
00000030: d5e9 8fbe ac4e 803e 0e71 83be a297 523d
00000040: ba7b a0be 9ccb 26be e2d2 69be 7dcb 07be
00000050: 1244 50be 2b81 2c3e b68c d83e acee eb3d
00000060: 6525 6dbe ee7e a4bd 59c6 943e 9111 98bd
00000070: af9f a2be 701c 0bbf dc72 29bf 2eee c33d
00000080: 5bc6 72be 4fec b83e bf8f 7ebe 7560 03bf
00000090: f47a 5d3e c5cd 89be 5a17 23be dcd0 bc3e
000000a0: 51bc 3ebf 8ebf 1fbe 31e6 42be ff76 a8bd
000000b0: eb3c fe3e 2856 0d3d b318 a83d b662 1dbf
000000c0: b76d 6f3e 26ba b7be fd2f 63be 9a64 c0be
000000d0: 24b6 903e 825e 9c3c 0813 96be 924e 673c
000000e0: ca9e 7e3e d1fa 973e 6293 933e e393 46be
000000f0: a026 d83e 85be c4be 84e2 443e 348a d73d
00000100: 1238 07be df2f 8ebe 1219 eabe 29fd b63d
00000110: 5acb c93e 1157 993d d0f3 3abe d184 803e
00000120: 6392 3fbe c9fd 173d ecf6 c3be 6fc7 2bbe
00000130: 57cd 3fbd 1fca 39be a04a 8abe ef64 60be
00000140: 6c4c 18bf 7b13 3abe 6e6d ad3d 6d1e 203c
00000150: a4ca 8d3d ce77 d03e f638 28bd 2308 14bf
00000160: eebb 703d 64e7 b4be 2b1b 92be a5db ca3d
00000170: edb7 a2be 585f 643e 2dd2 1abf fef7 a43e
00000180: 43da dd3d ba98 cbbd e0c5 02be 670a 3abe
00000190: 04a6 92bd 866a 59be 935c 3c3e 4809 163e
000001a0: d615 063d 025a b83e 8e50 84be 5289 e73d
000001b0: 8dea 16bf 6f6c b73d 84a0 5abe cbf4 0c3e
000001c0: 27ae 8d3e 7e2c 39be 3db4 c5bc fa01 a93e
000001d0: 37c2 9dbe 005a 383e 1c79 84bc e93c b23d
000001e0: caf3 a53e ee6c a13e 38c5 c6bc 8167 52bc
000001f0: bc01 e8be cc25 a03e c6a0 1cbe 0b9b cabd
00000200: 61bb d8be 15fe 65bb 9881 a83e ebdf 80be
00000210: 5e31 a2be 71f9 36be 79c3 5f3d 0d15 3f3e
00000220: eba5 40ba 4239 523e 7305 1bbf 92d8 45be
00000230: 9dbc 853e b8e6 a63e 8af2 1e3d 3953 4bbd
00000240: 1ca4 533d 7422 28bf c144 ba3d c850 df3e
00000250: 4158 bd3d 4288 54be b392 03be 637e 6bbd
00000260: 2608 9fbe ae31 82be 9742 aebd cfe0 63be
00000270: 4b36 b9bd cc70 113f 8c56 42be a9f5 93bb
00000280: e456 a23e b30d a93e ac81 7ebd 7449 723e
00000290: 5f03 cd3e f45f a2be 99f1 8d3d 45e5 2dbd
000002a0: a30a e93e d048 3abe 0cdb 70be 665a 69be
000002b0: d096 9bbe bbe6 91be ef5d 923d 5048 b4be
000002c0: 3f9f 9f3e 993c c93d bb1c babe 4220 3fbe
000002d0: 13f5 b03d f49e c33d bd7e 023f 7022 d2be
000002e0: 258f 953c 2b80 3d3e 814a fdbb dff3 5f3e
000002f0: 8fe1 b7bd d497 8b3e ff64 0ebf c45f 7fbf
00000300: 3e46 f5be 969b 273e 3906 6f3e c271 a83e
00000310: f6c6 e0be 854d 50bd ae0d f6bd 5541 bebe
0.16999063 -0.32770565 -0.13164152 -0.21901727 -0.15310803 -0.050128713 0.29727077 0.16210538
0.35016578 0.18105388 -0.32010823 0.20840767 -0.28108087 0.25060022 -0.2567219 0.05141414
-0.31344396 -0.16288608 -0.22834352 -0.13261218 -0.20338467 0.16846149 0.42294854 0.115201324
-0.23158796 -0.080320224 0.29057577 -0.074252255 -0.31762454 -0.5434027 -0.66190886 0.095669135
-0.23708479 0.3611779 -0.24859522 -0.51319057 0.21628934 -0.26914802 -0.15926877 0.36878097
-0.745061 -0.15600416 -0.19033124 -0.08225822 0.49655852 0.034505993 0.08207836 -0.61478746
0.23381697 -0.35884207 -0.22186275 -0.37576753 0.28263962 0.019088034 -0.29311395 0.014117854
0.2486526 0.29683545 0.28823382 -0.19392352 0.4221697 -0.38426605 0.19227034 0.10524407
-0.13204983 -0.27770898 -0.45722252 0.08935005 0.39412957 0.0748731 -0.1825707 0.2510133
-0.18708186 0.037107263 -0.38274324 -0.16775297 -0.046826687 -0.1814351 -0.2701006 -0.21913503
-0.5949161 -0.18171494 0.08468138 0.009772879 0.06923416 0.40716404 -0.041069947 -0.57824916
0.058772974 -0.35332787 -0.28536353 0.09905175 -0.3178095 0.22301996 -0.6047695 0.32220453
0.10832646 -0.0994124 -0.12770796 -0.1816803 -0.07160571 -0.21232042 0.1839469 0.14651978
0.032735668 0.3600617 -0.25842708 0.11305489 -0.58951646 0.08956229 -0.21350294 0.13765256
0.2767193 -0.18083379 -0.024133796 0.3300932 -0.30812237 0.18003082 -0.01617103 0.08703024
0.3241256 0.3152842 -0.024263963 -0.01284206 -0.45313823 0.31278837 -0.15295705 -0.09892853
-0.4233046 -0.0035094072 0.32911372 -0.25170836 -0.3167829 -0.17868592 0.054629777 0.18660374
-0.00073489425 0.20529655 -0.6055519 -0.19320896 0.26120463 0.325979 0.038805522 -0.049639914
0.05167018 -0.6567757 0.09095145 0.4361632 0.09245349 -0.20755103 -0.1284893 -0.05749358
-0.31060904 -0.25428528 -0.08508795 -0.22253726 -0.09043559 0.5681274 -0.18978328 -0.004515369
0.31706917 0.33018264 -0.062135383 0.23660833 0.40041634 -0.3171383 0.06930847 -0.042454977
0.45515928 -0.18191838 -0.2352106 -0.2278839 -0.30388498 -0.28496346 0.07146823 -0.3521142
0.31176183 0.09826011 -0.36350045 -0.18664649 0.08640494 0.09551802 0.5097464 -0.410419
0.018256733 0.18505923 -0.007729829 0.21870373 -0.08978569 0.27264273 -0.5562286 -0.997555
-0.47905153 0.16367945 0.23342218 0.3289929 -0.43901795 -0.05085518 -0.12014328 -0.3715922

weight f4 [200, 200]
00000000: 82fe 69bf a4a7 fabd 3a44 dabe bb10 ea3e
00000010: 081f babf 9497 98bd 49b1 c6bc c082 9d3e
00000020: b7e2 e7bb ec98 3ebf ad9c 0f3d 6644 37bf
00000030: 0560 27bc d3a5 9cbf a696 9a3d 3e5a 9cbf
00000040: a923 bebe 3ca2 74bc cbc4 7bbf c887 c73e
00000050: ebd4 5bbd d9b8 45bd d9ba a73d 0b4a 8ebe
00000060: 8e5d 00bd de7a 42bf d2ec ccbf 058a 0dbf
00000070: 1f8f 073d 02d4 4e3e 661a 05bf 6803 5e3b
00000080: acb0 923e adf4 17bf db7b 5dbd 3404 76bf
00000090: 49ca 5b3e bccd 733d 447d 73bc 23a9 e73e
000000a0: d659 aebf 6c1d 9f3e f704 9a3c 1223 623b
000000b0: 1de1 3dbd 3fa1 a2be e01b bd3e 1b1d babf
000000c0: b415 0dbe c2b5 233e e46a 81bc f761 de3e
000000d0: 2272 983e b807 91bf f5c6 31be 9674 15be
000000e0: ede1 f2bc 7c01 40bf 14ff 78bf fa10 d5be
000000f0: 4f1d a33e fb1e 83bf fd4e 1e3d 08bb 81be
00000100: b6f2 9dbf ce7f 8cbe 7f21 85bf 9bfa 6bbd
00000110: 6676 ad3e e4b5 b33d 06ca 343d 7acc d5be
00000120: d4c4 82bd 8e50 72bf cee8 093e 4372 80bb
00000130: 59bb 11bf 5743 b9bf 78a9 83bf 9a81 1abf
00000140: 2d87 3dbf 6fd0 b63c d6e8 eebe ba20 883f
00000150: b1af 49be 9516 95be 33f8 e9bd 3e7f 84bd
00000160: 4028 32bf 4230 52bc b221 7fbd 488d b3bd
00000170: de4a 5ebf 84de 173e 91f8 92be c616 8d3e
00000180: 8f69 cd3c 95d7 d5bf 3923 64bf d21f 9c3e
00000190: 5747 37be 4066 8abd 827d 0dbf 4dcc 74be
000001a0: 5483 b9be e233 d4bd 063a b3bf 7fe7 28bf
000001b0: a992 a23e e97f 18bf 197b ecbd f019 b13d
000001c0: 57c1 c23e 032f fabc 281a 5cbf d460 2c3f
000001d0: 7869 76be 6804 8ebf 966e 84bf 4192 cabd
000001e0: 9405 173e b8ea 383e 24c2 803d 055c 84bf
000001f0: d50e b23e dabb 44bf 1dc0 ccbe 1eb6 00bf
00000200: 8f21 aabd 1fb7 ba3e 7268 6b3e 78d7 ac3e
00000210: b5b0 3c3d ba56 2dc0 34aa 7ebe 03a4 78bf
00000220: c8a0 b6be b962 803d 3199 2ebe 6d42 1e3c
00000230: 7ba0 f6be 3892 92bd d2f7 1dc0 23b4 fa3b
00000240: 8157 40be 5dda 973d ad09 bc3c b636 83bf
00000250: 437c 1ebd 036c 94bc 30f1 2ebf ae33 23bd
00000260: 09f7 97bc ca48 783d 0cdf 0c3c 5630 17bd
00000270: 77ad 24bd 48fd ca3c f567 51bf 99b1 57bf
00000280: 132a 65bf e30a 03bf c997 5dbe 7d61 84be
00000290: 68ef 36be 6e93 a3bc 680b d2bf 8ca6 d43c
000002a0: 4712 0a3e ed87 18bf 78f1 b83b 4aa1 df3e
000002b0: f15f 6abe 32fe 04c0 5373 773c 6875 8ebe
000002c0: c7cd a2bd 8f10 313d a00f d8be 3cc9 ed3d
000002d0: 6981 3bbe d019 dfbf 807a 41bf 18af 37bd
000002e0: 550e 42bf 322e b3be b5c5 a1bf 6aa8 e1bd
000002f0: ea9a 883e 6808 b9be 2b9d d53e 223f 7cbe
00000300: c9b6 4abe 927e abbf 9e56 6bbf afc5 113f
00000310: 7e9a 513e ada5 08bd cd1a 783d 0766 dc3d
00000320: 3221 adbe 4cb7 18bf 49bc 063f bb9d 85bf
00000330: df11 a53d eb14 c7bc 1d67 76bf bfc1 28bd
00000340: 1071 1bbf c87e d73e d734 63be 455c e6be
00000350: 0445 733d d63a 0dbf 5d4e c43e dda7 5a3e
00000360: 6efd a03b 79d9 413f 2748 ab3d 622d df3d
00000370: e844 ca3c e1eb 873e ed6b 4d3e 1457 6bbd
00000380: 9bfc d1bd da35 023e 22ab 47be c028 e53d
00000390: 0437 063d 2b74 e0bc d976 463e 9bb6 e73d
000003a0: 6fae a03e bef9 593c c977 373d aa3b f7be
000003b0: 19f5 a03d 8c3d 57bc bd15 9abf 1870 a8bf
000003c0: f322 41bd 87b3 92be e9c6 5e3c c83b b2ba
000003d0: ad09 163e 638c 50bf 16e5 523e 0f05 62be
000003e0: 895c 353e aac9 fcbd daa7 f4bd a5bb 883e
000003f0: dee0 7dbf 60a4 8b3e 02e9 22bf 592c cbbf
-0.91403973 -0.12239006 -0.42630178 0.4571589 -1.454072 -0.07450786 -0.024254458 0.30763817
-0.007076587 -0.7445209 0.035061527 -0.7158874 -0.010215764 -1.2238106 0.07548265 -1.221504
-0.37136582 -0.014931258 -0.9834716 0.3897078 -0.05366985 -0.048271988 0.08189935 -0.27790865
-0.03133922 -0.7596873 -1.6009772 -0.55288726 0.033095475 0.20198062 -0.51993406 0.0033876542
0.28650415 -0.5935772 -0.054073196 -0.96100163 0.21463884 0.059522375 -0.014861409 0.4524623
-1.3621166 0.31077135 0.018801196 0.0034505767 -0.046357263 -0.31763646 0.3693533 -1.4540132
-0.1377781 0.15987304 -0.01579804 0.43434116 0.29774576 -1.133048 -0.17361052 -0.14595255
-0.029648745 -0.75002265 -0.9726422 -0.41614515 0.31858298 -1.024383 0.038649548 -0.25338006
-1.2339694 -0.27441257 -1.0400847 -0.057612043 0.33879393 0.08774927 0.044137977 -0.41757566
-0.06385198 -0.94654167 0.13467714 -0.003919871 -0.56926495 -1.4473675 -1.0286093 -0.60354006
-0.74034387 0.022316186 -0.46662015 1.0634987 -0.19695927 -0.2911879 -0.11424293 -0.06469582
-0.69592667 -0.012828888 -0.062287994 -0.08767182 -0.8683299 0.14830977 -0.28705266 0.27556437
0.025074748 -1.6706415 -0.89116246 0.30493027 -0.17898308 -0.06757784 -0.55269635 -0.2390606
-0.36233008 -0.10361458 -1.4002082 -0.65978235 0.31752518 -0.59570175 -0.115469165 0.08647525
0.38038132 -0.030539995 -0.8597741 0.6733525 -0.2406367 -1.1095095 -1.0346248 -0.09891177
0.14748222 0.18058288 0.062870294 -1.0340582 0.3477694 -0.7684914 -0.3999032 -0.5027789
-0.08307182 0.36467835 0.22989061 0.3375814 0.04606696 -2.7084184 -0.24869615 -0.9712526
-0.3566954 0.0626883 -0.17050625 0.009659392 -0.48169312 -0.07156795 -2.4682508 0.0076508685
-0.1878338 0.07414696 0.022953833 -1.0251071 -0.038692724 -0.01811791 -0.6833677 -0.039844207
-0.018550413 0.060616292 0.0085981 -0.03691133 -0.04020449 0.024778977 -0.8179925 -0.8425537
-0.89517325 -0.51188487 -0.21639933 -0.25855628 -0.17864764 -0.01996776 -1.6409731 0.025958322
0.13483535 -0.59582406 0.0056440197 0.4367774 -0.22888161 -2.0780149 0.015103179 -0.2782395
-0.07949405 0.043228682 -0.4219942 0.11610648 -0.18311085 -1.7429752 -0.75577545 -0.044844717
-0.7580312 -0.34996182 -1.263846 -0.110184506 0.2668069 -0.36139226 0.41721472 -0.24633458
-0.1979629 -1.3398001 -0.9192904 0.56942266 0.2046909 -0.033361126 0.060572434 0.10761648
-0.3381439 -0.5965469 0.5263105 -1.043876 0.08060049 -0.024301967 -0.9625109 -0.041200396
-0.60719395 0.42088914 -0.22188126 -0.4499227 0.05939199 -0.551679 0.38341036 0.21353097
0.0049130237 0.7572246 0.08363371 0.10897328 0.02469106 0.2654715 0.20060702 -0.05745609
-0.10253259 0.12715855 -0.19498876 0.11189413 0.03276731 -0.027399143 0.19381274 0.11314126
0.31383082 0.013304172 0.04479197 -0.48287708 0.07859249 -0.0131372325 -1.2037884 -1.3159208
-0.04715247 -0.28652593 0.013597229 -0.0013598138 0.14652129 -0.81464213 0.20595202 -0.22072242
0.1771108 -0.12343152 -0.11946078 0.2670566 -0.99171245 0.27273846 -0.6363679 -1.5872909

bias f4 [200]
00000000: c319 ca3d af85 0a3f bd72 dbbc ce7c 7d3d
00000010: 3d7a 03be 5475 7fbc ea03 d9bc efd5 b33b
00000020: ef7a a5bd f705 29bd 8db7 223e d3e5 0fbe
00000030: 6a2d d0bd a595 163d 47ca ee3e feb6 95bd
00000040: bdf2 0abe 3660 9bbd 6cf0 e9bd 62b4 8f3d
00000050: e44f 8d3d 7d43 943e 27c6 0a3e 3e79 18bd
00000060: 3e5c ba3e efbe 073f 2e89 13bd 807a b6bd
00000070: f933 2b3e 6c83 873d 42df d2bd 16ba 063f
00000080: 1a25 96be 1661 92bd e54c 273e 2009 8dbe
00000090: 37d2 ff3e 5e75 86bd 20f4 b4be c9c6 ebbd
000000a0: e8c7 30bd d67a 01bf 7954 10bd 8b9a e8bd
000000b0: ad17 8fbd 6684 1cbd eb06 423e e658 d93e
000000c0: fd06 3d3f 8dd3 04bd 0e5c 1abe 2fa2 833d
000000d0: f211 dcbc eef2 91bd dfdc 2f3f e32e 723b
000000e0: 0129 cebd 7138 c7bd d08f af3e 7db2 03bd
000000f0: 2175 c6bd 8b40 15be 68c5 dcbd 07e1 24bd
00000100: a9c5 593e e063 a73e d615 11bd 637a fcbd
00000110: c3b5 edbc aeec e63d fd8f 8fbd 85dc 4e3d
00000120: 8da3 c0be 447f 7bbd 6395 e3bd 0bec 163e
00000130: 58fa b8bd d417 f33e 5221 dbbd e449 7abd
00000140: 874d 343e dfef 24bd e6a2 99bd 76c9 97bd
00000150: 7540 e93d 9693 14bb 9322 c7be ca75 16be
00000160: c446 7abc ee5d 95bd 071b acbd 5916 45bd
00000170: 6fbb c03e 3650 a63c 54be 29be b731 a9bd
00000180: d790 8cbe fe3b 1dbd ef58 72be 1e30 13bd
00000190: b010 bebd 386d 27bf 3b2a a53e aac8 653c
000001a0: 7748 a0bd 1447 75bd 1f67 183e f6a4 893e
000001b0: a703 003f c224 80bc 79cd c93d 26e7 17bc
000001c0: b66f 6fbc c1ea 163f 48c0 143f a07d a9bd
000001d0: beb4 8cbd c319 f53d e1a6 b73e a687 fdbc
000001e0: 548a 953d 16c6 96bd e13b 183d 8c99 a8bd
000001f0: 5a4b 02be 690c c9bd 4a5b e53b 55ee 08bd
00000200: 8c5f f03c 396f 0ebf 712c bdbe 4dd4 4fbd
00000210: 9e26 9fbd f560 85bd 3a03 d0bd 712d 183f
00000220: caba a93d 13e0 da3e cba7 ebbd a103 bd3d
00000230: 369c 91bc 4e74 97bd b75b a2bd b8f2 bd3d
00000240: 56ed 97bd 43d7 64bd b895 f1bd 2758 183e
00000250: 2d17 0dbc f118 b4bd 744b 7abd d6bd 073f
00000260: 4c2d f5bd 62f0 d8bd 90fa bcbd 289e f5bd
00000270: a108 1f3c f2b4 5ebd 365f cdbc bf1f a9bd
00000280: b528 85bd 0a54 37bd 83e5 dbbe 639b 833e
00000290: 5cd2 a5be 48ee 893c 39d4 c1bd 73e2 ec3e
000002a0: 2392 233f cb7b 6abd 7d1b 4e3e b17c c5bc
000002b0: 0e6a 9fbd d739 723b 9dbb 82bd cb88 debc
000002c0: 37f5 75be 38d1 023f b83f 2b3e 3766 3b3f
000002d0: b14c 7fbe 6c73 ccbe 1f27 e0bd 6c93 063f
000002e0: 3274 d5bd 4459 79bd 4373 d3bb b6d0 9bbd
000002f0: bbea efbc fe56 1f3f 6adf dcbb 48d3 b8bd
00000300: 77c5 1f3d 82cf 063e 06b9 b83d cc24 853b
00000310: 1eb9 343c 00d0 853e 4693 203e 40de b5bd
0.09868195 0.54110235 -0.02678811 0.0618866 -0.12839599 -0.015591938 -0.026491124 0.0054881494
-0.08080088 -0.041265454 0.15890332 -0.14052515 -0.10164912 0.036763806 0.466387 -0.073102936
-0.1356916 -0.0758671 -0.1142281 0.07016827 0.069000036 0.2895774 0.13552152 -0.037225
0.363985 0.53025717 -0.036019497 -0.08910084 0.16719045 0.066168636 -0.10296489 0.52627695
-0.2932518 -0.07147424 0.16337927 -0.27546024 0.4996507 -0.06565355 -0.35342503 -0.11512525
-0.043159395 -0.5057806 -0.03523681 -0.11357602 -0.06986938 -0.038212202 0.18947951 0.42450637
0.7383879 -0.032428313 -0.15074179 0.064274184 -0.026864026 -0.07126413 0.686964 0.0036954216
-0.100664146 -0.09727562 0.34289408 -0.03215264 -0.09690309 -0.14575402 -0.1077984 -0.040253665
0.21266808 0.32693386 -0.035421215 -0.12328031 -0.029017335 0.11275612 -0.070098855 0.050503273
-0.3762478 -0.061400667 -0.11112478 0.14738481 -0.09032124 0.47479117 -0.10699715 -0.061105624
0.176077 -0.04026782 -0.075017735 -0.074114725 0.11389247 -0.0022670976 -0.38893566 -0.1469337
-0.015275661 -0.07293306 -0.084035926 -0.048117016 0.37643 0.02030192 -0.1657651 -0.082614355
-0.27454254 -0.03838729 -0.23666738 -0.03593456 -0.09280527 -0.6540103 0.32258782 0.014024893
-0.078263216 -0.05988224 0.14883088 0.26883668 0.50005573 -0.015642527 0.09853644 -0.009271419
-0.014614036 0.58951956 0.581059 -0.08275914 -0.06870411 0.11967804 0.35869506 -0.030948471
0.073017746 -0.07362001 0.03716648 -0.08232412 -0.12724057 -0.0981682 0.006999408 -0.033430416
0.029342435 -0.5563846 -0.3694797 -0.050739575 -0.077710375 -0.06512634 -0.101568654 0.5944434
0.0828758 0.4274908 -0.11506613 0.09229208 -0.017774682 -0.0739523 -0.079276495 0.092748106
-0.07418315 -0.055869352 -0.11796135 0.14877377 -0.008611483 -0.0879382 -0.061107114 0.5302404
-0.1197153 -0.105927244 -0.092274785 -0.119930565 0.009706647 -0.05437178 -0.025069814 -0.08258008
-0.06501905 -0.04475788 -0.4294854 0.25704488 -0.32387054 0.016837254 -0.094643064 0.46266517
0.6389486 -0.057246964 0.20127673 -0.024107309 -0.077839 0.0036960745 -0.06383441 -0.027164837
-0.24019323 0.5110049 0.16723526 0.7320284 -0.24931599 -0.3993181 -0.10944962 0.525687
-0.10422553 -0.060876146 -0.0064529493 -0.07608168 -0.029286733 0.62242115 -0.0067405 -0.09024674
0.039006677 0.13165095 0.090196654 0.0040632244 0.0110304635 0.26135254 0.1568118 -0.088802814

weight f4 [1, 200]
00000000: 802c 00c0 bd71 363e 9845 b0ba 9630 a3be
00000010: 0fc2 15bf 2335 72bc 8673 173c 0001 c4bd
00000020: d6db a2bd 7d61 843c 5877 a93e cd56 d5bf
00000030: d3c0 68bc 46fa 25bc e333 ab3d 7afd d1bb
00000040: 15ce 9d3c 903d 4f3d c4fa 48bf 086d 81bf
00000050: 181a 173f 1fca 7f3e f979 4e3e 17b6 a13d
00000060: 5803 59be b44a 383e 865b 1b3c d38b f5ba
00000070: 4e4f a3bf f514 8ebe 4aaf 57bc 9db0 a23d
00000080: fcdf 07bf c465 f93b 25b7 a43e bda0 9dbe
00000090: 1974 9a3d d9a5 91bf d37c bdbf ac10 2bbf
000000a0: 60a8 cbbc d970 8abf b0cf afbf 1eca a33c
000000b0: 2085 bb3c 57d0 263a b86c da3e 9fd0 623e
000000c0: 4d87 9a3d f980 533c ceb0 28be aeb7 45be
000000d0: 371e 3fbb d309 e1bc 2d07 1e3e 8f06 3bbc
000000e0: 8215 64bc 7634 9bbc 51b4 f73d 9bd3 7e3c
000000f0: 06fa 243c 3cfc 0ebf 689a 9abf d43e 063c
00000100: 310b 67bf cb3e 353e 93dd f7b8 1f45 41be
00000110: 6bf9 44be 0b5c e03e cd87 1a3c f6fb c43e
00000120: 53b0 bebf e304 79bd c5b0 123c 5bd3 eebe
00000130: 2876 47bc 6c81 223e bc7c 8dbd db49 e43c
00000140: 65be abbe 38c1 c1bc 1292 dc3b aa73 56bb
00000150: 53ac ddbe 9102 c4bc 289d bbbf 31d7 87bf
00000160: 5cc4 f3bc 981d 30bc 88f0 c9ba 353f 143a
00000170: 092d 323e 27ad a9bc 8680 dc3e 823c d1bc
00000180: 7823 613f d94e c63c 1416 97be 3339 e33c
00000190: 8ec5 17bc 8be3 8bbf 1d79 893e 6bb0 683c
000001a0: bba9 603c ac5d 7b3c 4059 bb3e 0a88 433e
000001b0: 4883 013e e093 30bf daaf 77bf 3761 38bd
000001c0: d50e e9be 2b94 fa3c 694d d23d 89cf 90be
000001d0: 5414 83be a01e 31bc a200 d23d 7e46 cd3e
000001e0: 65f4 0fbf 1f60 bd3c bb89 d2be 47d4 993e
000001f0: b848 7bbf 5026 3d3c fd22 9d3b 4bab 793c
00000200: ef0e 95bf 28bb 07c0 0286 79bf d5ae 12bf
00000210: ba81 efbc c047 4c3c cb63 ee3c 0d5a fe3d
00000220: 636b 90bf c1be b63d cce4 febc 35ee c5be
00000230: 8da7 1c3c 7e76 a6bc 50f1 c93d f00f 0bbf
00000240: 0bbf 18bf f27b db3c 0f6e a8bf 08a2 6cbf
00000250: 64a5 0abd 68fd d1bf 54ca 75bc 17a2 a23d
00000260: 9336 e5bc 9a0c 50bc 9faa 3b3c ffdd 96bf
00000270: e81f 8d3e adae 93bd 4be1 66be b3d8 f03c
00000280: 5c6f fd3c 51c4 8bbe b276 b1bf cd56 ff3d
00000290: d276 53bf 2cc7 c9be 6725 9abe 2b92 413d
000002a0: 9cb2 5a3d 8237 efba 2038 8abe 6ba8 613c
000002b0: 5263 ac3e cb29 3cbf 5118 503b cbb2 a1bf
000002c0: b550 cfbf 925d 6d3d 0cc3 dabe 43f0 983d
000002d0: 8df9 9bbf daaf 29bf 067a 1ebf 6f65 583d
000002e0: d4a1 82bc e5f4 833c dd1f 8ebe 91dd c53b
000002f0: dc3d a0be b8c0 b93d 3eea 9a3c 16e9 a5bc
00000300: 15f2 e2bf 8b5f 54bf 4170 49bf 7f7d a9ba
00000310: f494 babe 604d fd3d 1edc 843e ba6d d1bb
-2.002716 0.17816825 -0.0013448475 -0.31873006 -0.58499235 -0.014783177 0.0092438515 -0.09570503
-0.07952087 0.016159767 0.33098865 -1.6667114 -0.014206129 -0.010130471 0.08359506 -0.0064083906
0.019263307 0.05059582 -0.7850764 -1.0111399 0.5902419 0.24979447 0.20163716 0.07896059
-0.21192682 0.17997247 0.00948227 -0.0018733687 -1.2758577 -0.27750364 -0.013164351 0.079438426
-0.5307615 0.0076110084 0.32170978 -0.30786696 0.07541675 -1.1378738 -1.4803718 -0.66822314
-0.02486056 -1.0815688 -1.3735256 0.019993838 0.022890627 0.00063634425 0.4266107 0.22149895
0.07545338 0.012909167 -0.16473696 -0.1930835 -0.0029162297 -0.027470505 0.15432425 -0.011415138
-0.0139211435 -0.018945914 0.120949395 0.01555338 0.010069376 -0.5585363 -1.2078371 0.00819369
-0.9025145 0.17699735 -0.00011819149 -0.18874024 -0.1923577 0.43820223 0.0094317915 0.3847348
-1.489756 -0.060795676 0.008953278 -0.46645626 -0.012174167 0.15869683 -0.06908557 0.027867248
-0.33543697 -0.023651704 0.00673128 -0.003272275 -0.43295535 -0.023927005 -1.4657335 -1.0612546
-0.029756717 -0.010749243 -0.0015406767 0.00056551705 0.17399992 -0.020712448 0.43066806 -0.025541548
0.87944746 0.02420752 -0.29509032 0.027737236 -0.009263409 -1.0928816 0.26850215 0.014202218
0.013712342 0.015342157 0.3659153 0.19094864 0.12647736 -0.6897564 -0.96752703 -0.045014586
-0.45519128 0.03058823 0.10268671 -0.28283337 -0.25601447 -0.010810524 0.10254027 0.40092844
-0.5623229 0.023117123 -0.41120705 0.30044767 -0.98157835 0.011544779 0.0047954307 0.015238593
-1.1645182 -2.120798 -0.97470105 -0.5729802 -0.029236663 0.012468278 0.02910032 0.124195196
-1.1282772 0.08923102 -0.031114958 -0.386583 0.009561432 -0.020320173 0.0986048 -0.54321194
-0.5966651 0.0267925 -1.3158587 -0.9243474 -0.033849135 -1.6405458 -0.015001852 0.079410724
-0.027980125 -0.012698317 0.011454253 -1.1786498 0.27563405 -0.07211051 -0.2254688 0.029400205
0.03093689 -0.27298215 -1.3864348 0.12467728 -0.8260318 -0.3940977 -0.3010666 0.047258537
0.05339299 -0.0018250796 -0.26995945 0.013773064 0.33669525 -0.7350127 0.0031752775 -1.2632688
-1.6196505 0.057950564 -0.42726934 0.07467701 -1.2185532 -0.66283953 -0.61904943 0.05283111
-0.015946306 0.016107986 -0.27758685 0.0060383757 -0.31297195 0.09069961 0.018910524 -0.020252746
-1.7730128 -0.82958287 -0.7868691 -0.0012931078 -0.36441767 0.12368274 0.25949186 -0.0063912543

weight f4 [200, 15]
00000000: 16fc a63d 9745 3abe d2ec e93b 5583 9ebd
00000010: 8bc6 e9bc e045 38bd 5127 41be 68bd 38ba
00000020: 328e 59bd 5cb5 023e 215e 4ebe 1552 88be
00000030: 1280 5fbe 64ba 7abe a1b1 d73d 0d0b 3d3e
00000040: 0185 113f 5c00 e83e 74ea 96bd 3e2a 32be
00000050: 0fdc 583d 2743 afbe 7c0c 6d3d 1e24 5d3e
00000060: 548b 33c0 9dca f1bf b8f8 0a3f 9f64 e0bc
00000070: 83d3 2f3e d531 16bd e95d 443e d57f 9fbb
00000080: 795e 02be f7ae e03c fba6 46bd a582 28bd
00000090: fed6 263e 794b 2ebe d0a3 dfbd 2ee2 e6bc
000000a0: 3fb3 c63a bc16 62bd 2926 f53d 479e 0bbe
000000b0: b501 a13d 4db5 9d3e 71ed 2abf a5ce a93e
000000c0: 6aa8 f43d 5bef 463d dee2 ccbe 1587 94be
000000d0: 0130 303c 04f4 84bd 5682 18bf 4631 4abe
000000e0: 0e38 5fbd 4c3e d8be 45fa 863e 28e4 8a3e
000000f0: f757 acbe 7fe8 2c3e 3ca9 77bd ff62 bcbd
00000100: 6350 62be 47e0 a1bd 517f 43be 90b2 483a
00000110: 8379 64bd 3dbf 84be 8f1b abbc 418a 43bd
00000120: 08b2 b0be 139b 67be 9081 cc3d a262 483e
00000130: 0fa3 e1bc b646 803e 8a09 d7be cb57 debd
00000140: 1730 6cbe 85a1 e93e 52c1 a43e 6b92 5c3d
00000150: cced d2bd 2e52 16bf 268c a4be 1459 bf3d
00000160: 3ae3 e23e 819a 9b3d 8a3e 963e af0e 62be
00000170: 35b0 a33e 4bb1 b33e e747 3ebe d010 e7be
00000180: 2756 5ebe e41e 963e 194e 073f b791 ea3e
00000190: 3b50 9abd 7cf4 4bbf 3e35 6dbd 3444 733e
000001a0: 5a0e 3c3f 8135 cd3e 2562 443d b6e7 843d
000001b0: 93fb abba 6721 ed3e edb6 ddbe ffd4 cbbe
000001c0: 1a76 97bd 9c29 743e 4d5b 70bf 17c0 343e
000001d0: dd01 963e 069e 913e 8aa6 34be 8825 373d
000001e0: dc35 08be 5c11 3dbe 55b9 f33c e945 44be
000001f0: 3b4c ca3e 27b0 f13c b5bc 1f3d daf6 103e
00000200: 7661 0f3f e535 7ebf ffed 13bf e054 91bc
00000210: 3be6 39be 0316 3c3e 505c 133f 6c74 86bf
00000220: b6fc f3bd 6eb2 2d3f 0e81 ae3d 4667 26be
00000230: 1889 27be 9ea5 77be 9d99 16bf df2e 99bd
00000240: af3b 87be d024 48bd ce1d 8ebe 2c28 243d
00000250: 9434 863e 46aa 21bf 0b1c b63e ab45 a93e
00000260: 4968 d53e 7079 01bd 275d c73e 08a5 dcbc
00000270: cf79 bb3d 5ba7 4bbf 0162 21be 6431 cabe
00000280: 3352 5d3e e8b6 d83b 7f5c 94bc 24f8 48bf
00000290: e591 18bd 5bc8 973e 1fc6 d03e ccc2 0dbe
000002a0: ba34 2bbd 985f e2bd 61f5 f5bd 2a62 9cbe
000002b0: b6e5 593e 5e86 02bf 0d3f bbbf 4579 6dbf
000002c0: 7043 d83e 6ea1 933e c304 913e c767 0fbf
000002d0: 70b3 8d3e 18cf 023f da41 7cbd 5f91 bd3e
000002e0: 6485 b33e 046b b0bd 35a0 13be 2218 3fbe
000002f0: 6e72 b5be f296 0abf e32d 09bf f7a1 0b3f
00000300: ed9b 933d 7085 59bc 3c10 703e bd90 503f
00000310: 0cd0 413e 5eeb 37be c796 aebd 7a40 4e3e
00000320: c409 4d3e 37b5 80be 2e23 0cbf dace b7bf
00000330: f92e 67bf 7b1a 04bf 1e97 f1bd 4a20 713e
00000340: a9ab be3e 2adc c4be 092a ef3e ba04 90be
00000350: e3d7 8d3e 794a 4e3e 8722 bf3e 013f 243e
00000360: 38da 82be f554 9e3c d9b1 d73e 398a 43bf
00000370: 8ae1 b7be 3a09 283e 91db b4bf fa2a 79bf
00000380: 1495 1f3f 8034 21bf b67a 20be 549d 88bd
00000390: 56cd e5bd ac2b 51be aee5 b03e ffe5 72be
000003a0: 524b 923e 1f20 84be fdd2 34be 603b d63e
000003b0: 056b 30bf 38c6 0f3f 4313 203f 152f 783e
000003c0: 1d66 cd3d 5266 e63e c4c7 44bc bbb5 32be
000003d0: 1914 bb3e bc23 d6be ca60 66bf 06c3 5fbf
000003e0: 79c6 a2bb 45bf 353e 743d 57bd ea09 233f
000003f0: 4f42 b13d d9a7 81bd ece2 0fbf 1d9d 2e3f
0.0815355 -0.18190609 0.007138827 -0.07739893 -0.028537055 -0.044988513 -0.18862654 -0.00070472667
-0.053114124 0.12764496 -0.20153095 -0.26625124 -0.21826199 -0.24485165 0.10531927 0.18461247
0.5684357 0.45312774 -0.07368937 -0.17398927 0.05294424 -0.3423092 0.057873234 0.21595809
-2.805379 -1.8889958 0.54285765 -0.02739173 0.17170529 -0.036668617 0.19176449 -0.0048675337
-0.12731351 0.02742718 -0.04849909 -0.041140217 0.1629295 -0.17020978 -0.10919917 -0.028184023
0.0015159621 -0.055197462 0.11970169 -0.13634597 0.07861654 0.30802384 -0.66768557 0.3316547
0.11946185 0.04856811 -0.40016836 -0.2900931 0.0107536325 -0.06491855 -0.59573877 -0.19745359
-0.054496817 -0.4223503 0.26362815 0.27127194 -0.33660862 0.16885565 -0.06046413 -0.091985695
-0.22100978 -0.07904106 -0.19091536 0.00076560024 -0.055779945 -0.25927153 -0.020887164 -0.04773927
-0.34510827 -0.2261775 0.099856496 0.19568875 -0.027543573 0.25053948 -0.41999465 -0.10856589
-0.2306522 0.45631042 0.32178742 0.053850573 -0.102992624 -0.58719146 -0.32138175 0.09343162
0.44313985 0.07597829 0.2934459 -0.22075914 0.31970373 0.350962 -0.18582116 -0.45130014
-0.21712552 0.29320443 0.5285354 0.45814297 -0.07534834 -0.7966993 -0.057912104 0.23756486
0.734594 0.40079883 0.04794516 0.06489508 -0.001312124 0.46314546 -0.43303624 -0.3981094
-0.07395573 0.23843998 -0.93889314 0.17651401 0.29298297 0.28440875 -0.17641655 0.044713527
-0.13301796 -0.18463653 0.02975146 -0.19167294 0.39511284 0.029502941 0.038998324 0.14156666
0.5600809 -0.99300987 -0.5778503 -0.017740667 -0.18154232 0.18367772 0.5756273 -1.0504279
-0.11913435 0.6785039 0.08520709 -0.16250333 -0.16360891 -0.24184272 -0.58828145 -0.07479643
-0.26412722 -0.048863232 -0.27757114 0.040077373 0.2621199 -0.6315044 0.3556827 0.33060965
0.41681126 -0.031609952 0.38938257 -0.026934162 0.091540925 -0.7955224 -0.15760042 -0.39490807
0.21613388 0.006613601 -0.018110512 -0.7850363 -0.03724851 0.29645047 0.40776154 -0.1384384
-0.04179833 -0.11053389 -0.12009693 -0.30543643 0.21279034 -0.5098628 -1.4628617 -0.9276317
0.4223895 0.288341 0.28323945 -0.56017727 0.27675962 0.5109725 -0.06158624 0.37024972
0.35062706 -0.086141616 -0.14416583 -0.1866155 -0.35438865 -0.54136574 -0.5358564 0.54544014
0.07207475 -0.013276443 0.23443693 0.81470853 0.1892702 -0.17960879 -0.08524852 0.20141783
0.20023257 -0.25138256 -0.5474118 -1.4360001 -0.9030605 -0.51602906 -0.117964014 0.23547474
0.3724034 -0.38449222 0.46711758 -0.28128606 0.2770377 0.20145597 0.3733103 0.16039659
-0.25557113 0.01932762 0.42127874 -0.76382786 -0.3591426 0.1640977 -1.4129506 -0.973312
0.6233685 -0.62970734 -0.1567181 -0.06670633 -0.11220805 -0.20426816 0.34550232 -0.23720549
0.2857309 -0.25805756 -0.1765861 0.41842175 -0.689133 0.5616183 0.6252939 0.2423671
0.10029242 0.4499994 -0.012010518 -0.17452137 0.3653877 -0.41824138 -0.8999144 -0.8740696
-0.0049675074 0.17748745 -0.05254884 0.63687 0.086552255 -0.063308425 -0.5620563 0.68208486

bias f4 [200]
00000000: 9cc4 74be 25c0 71bd 41f2 29be b8a8 823e
00000010: 14b1 8d3c 1eec debd 01d2 77be 1645 863e
00000020: 7858 193c ca67 d53e 20bd e13e f637 e93c
00000030: ea78 8d3e ea72 b83e c46e f838 898f a5be
00000040: 25b8 18be dcfd cabe 85c1 993e a64d f1be
00000050: d33d f6be 14fd 21be 5967 44be f3b0 1f3e
00000060: f114 313f 6963 ebbe 6fe4 55be 8907 42be
00000070: fe84 28be 2dd3 36bc bc2f 943e a881 a2be
00000080: f0b5 eabc 0aa2 3d3e 4684 e9be f204 dabe
00000090: 4e08 c1be 79ee 3bbe da9c 233e 8a71 dabc
000000a0: 4954 363e 206a 8cbd 80e2 04bf 9b9a 603e
000000b0: 079c 66be 30b2 83be c03d 3dbe f4cd 77be
000000c0: 5def 5dbe c58b f9be 7fa1 833e 6b00 e3bd
000000d0: f125 5fbd a106 2cbe 4faa 32bf 3a96 03be
000000e0: 8279 bcbd 96c3 0a3f 0686 96be a0df 913e
000000f0: 97c0 3bbd f5d1 13bf 7ad6 f8be 1a31 08bf
00000100: a0f7 95be 2ea5 533e f77a c53e 4b8c 61be
00000110: e6f4 323e 6031 31be 7a35 51be 5163 4dbe
00000120: e933 ddbd 5b2e 4f3e 5ad7 99be 9aef e0bd
00000130: 9dd1 f7bd 71a3 183f f09a f93d 7e7e b1bd
00000140: 719a 8cbd 3a9c 6c3d 0431 bd3d 853f 47be
00000150: b017 92be 32f5 0ebf ca97 613d 38d0 fcbd
00000160: e18e 49be 7c40 4bbc 09bf 17be 735a b2bc
00000170: 55a3 e73c b7ab 88bd 2705 483e da22 b1be
00000180: 598e 4abe b256 74be 14a2 96bc 86db 9b3d
00000190: 2d11 78be 0f77 95be 7942 ca3e b2a8 11bf
000001a0: 2b51 c73e 6e39 1a3f caa5 f8bd 7623 b0bd
000001b0: 0364 0abf 06e3 d5be 754a 373d 3a74 9f3c
000001c0: fbe1 59bd 6099 b7bd 6b28 e43d 3c76 b7be
000001d0: 1e4d 0dbf c113 62bd b22c c7be f2cd 41be
000001e0: 1a29 8e3e 35c8 36be 3363 8bbe c6fa 22bf
000001f0: fdd0 b03e ef4c 083e f95f e73e 6122 303e
00000200: 164a 35bd e90b 96be cf75 083e 88fe dcbe
00000210: afe9 7c3d 4e64 0bbe 952d 5a3c a52c 82be
00000220: fc34 b63e bb55 c2be 4e76 1fbe f190 f1bd
00000230: 1c40 953c a6ff bd3e 5da3 85be 8e99 21bf
00000240: dc28 093e 3058 f7bd 44fd 093f 051d 91bd
00000250: 2d8e 913e 4996 583e dd3a b1be 5b7d 9abe
00000260: 628b 5a3d 71c9 a6be 8e36 6a3e 80dd e13e
00000270: e692 84bd 04ed 77be b71d 1e3d 1572 9c3e
00000280: 8e8b 17be c33b 563e c174 9e3e c3a6 233e
00000290: 9e50 ad3e 71e1 a43e 012e 10be 8ac1 55be
000002a0: ce8c 9abe 11bf 97be 68d0 8c3e d38c 80be
000002b0: c7f9 c33e 9d3d 22be 8f71 2abd 8f26 6c3d
000002c0: de51 9dbd 4904 53be 6706 52bf cdc0 84be
000002d0: ec26 10bf 4549 c43b 183a bcbc c015 19be
000002e0: 91f8 9b3c 38f4 c63d 5d49 333e 5190 b23e
000002f0: 91d6 e3be 0f72 f23e 2092 b73d 7eef 96be
00000300: 5202 7dbe 1a58 3f3e 7f9d aabe 53cd 193d
00000310: aeaa 793e da2d 16bf a50d a03e b23d b53d
-0.23903126 -0.059021134 -0.16596319 0.25519347 0.017296351 -0.108848795 -0.24201204 0.26224583
0.0093594715 0.41680747 0.44089603 0.028469067 0.27631313 0.36025172 0.00011846193 -0.3233607
-0.14913996 -0.39646804 0.30030456 -0.47129554 -0.48094043 -0.15819198 -0.19180049 0.15594845
0.6917258 -0.4597428 -0.20887922 -0.18948187 -0.16456982 -0.011158747 0.28942668 -0.31739545
-0.028651208 0.18518844 -0.4560873 -0.42581898 -0.37701648 -0.18352689 0.15977803 -0.026665468
0.1780559 -0.06856179 -0.5190811 0.21933977 -0.22520457 -0.25721884 -0.18480587 -0.24199659
-0.21673341 -0.48739448 0.2570915 -0.11084064 -0.054479543 -0.16799404 -0.6979112 -0.12850276
-0.09202863 0.5420469 -0.29399127 0.28490925 -0.045837965 -0.57742244 -0.48601133 -0.53199923
-0.29290485 0.2066848 0.38570377 -0.22026174 0.17476234 -0.17303991 -0.20430556 -0.20057417
-0.10800917 0.20232527 -0.30047113 -0.109832 -0.121005274 0.5962439 0.12187755 -0.086667046
-0.06865395 0.057766177 0.092378646 -0.19457825 -0.28533697 -0.5584289 0.055076398 -0.12344402
-0.1968341 -0.012405511 -0.14818968 -0.021771645 0.028276125 -0.06673377 0.19533215 -0.34596902
-0.19780864 -0.23861197 -0.018387832 0.0761023 -0.24225302 -0.29192397 0.3950384 -0.56898034
0.38929114 0.6024388 -0.12140997 -0.08600514 -0.54058856 -0.41774768 0.044748742 0.0194646
-0.053194027 -0.08964801 0.111405216 -0.35832393 -0.55195796 -0.05519462 -0.38901287 -0.18926218
0.27765733 -0.1784981 -0.2722412 -0.636639 0.34534445 0.13310598 0.4519041 0.17200615
-0.044260107 -0.29305962 0.1332619 -0.43162942 0.061746296 -0.13612482 0.013316532 -0.25424686
0.355873 -0.37956032 -0.15572473 -0.117952235 0.018219046 0.37109107 -0.261012 -0.6312493
0.13394493 -0.12077367 0.5390208 -0.07085613 0.28428784 0.21151079 -0.34615222 -0.30173764
0.053355582 -0.32575563 0.22872373 0.44114304 -0.06473331 -0.24211508 0.038602557 0.30555788
-0.1479933 0.20921235 0.3094845 0.15981583 0.3385057 0.32203248 -0.14080049 -0.2087461
-0.3018555 -0.2963796 0.2750275 -0.2510744 0.38276502 -0.15843816 -0.041612204 0.05765396
-0.076816306 -0.20607103 -0.8204102 -0.25928345 -0.5630939 0.0059901797 -0.02297692 -0.14949703
0.019039424 0.0971455 0.17508455 0.3487573 -0.4449964 0.47352645 0.08963418 -0.29479593
-0.24707916 0.18685952 -0.33323285 0.037549328 0.24381515 -0.58663714 0.3126041 0.08849658

weight f4 [200, 200]
00000000: c7ae 233d 0351 78bf 72a7 353c 0106 013e
00000010: 08d1 48bd 1c1a 483e 5821 a8bd 81f2 96bf
00000020: 103d 0cbf c92c 27be 3230 ca3d 8bbd 1cbf
00000030: 70f8 d13d 0494 afbf c9dd c9be a759 34be
00000040: 257d 8ebf 1650 9dbd 4214 2cbf 12c5 debe
00000050: 673f 743e c965 933d 9648 143d 4308 923d
00000060: 54b0 a8bd 3e59 9a3e 129c 263d 0034 c8bd
00000070: 7009 29bd 4ca2 96be 3b86 a6be cb03 a93e
00000080: 4104 2a3c 832f 863e 3f6a ea3e a4f5 c8bd
00000090: f23d 863d 7595 b03e 1440 b93d 7dde 9dbd
000000a0: 5b6d 5d3e 6dbc c83e 4299 98be 8e6c 2b3e
000000b0: aaa5 933e b414 223d 81cf 5e3d 97ef 3fbc
000000c0: e494 e9bc da94 9b3e cf22 48be 1475 c7be
000000d0: 879a 8a3e 46a5 71bf 7273 4fbe c33c 8e3e
000000e0: 15b9 22bf 3c2c 9b3d 8716 333e 38ed 753d
000000f0: d559 40bf e523 22be 0b07 b93d 5beb 113e
00000100: 159e 1fbe 0b1c 673c 4700 05bf 8d57 88bc
00000110: e0ec 9cbe 9d90 853d 6a2e 6d3a 6c39 c03d
00000120: b89f 0a3d 4f8f 993c da93 143f c124 56be
00000130: 5260 873e 3afe b8bf f07d 9a3e 585a 7f3b
00000140: e7cc 5d3f 04f1 a63d 1eb3 48bf 68db 1dbe
00000150: 6b2e 01be 7a6c e73d 66ad 6fbe 93c9 afbe
00000160: dd4d 8dbd ee36 a43e 8dd3 31bf 7a67 903c
00000170: 9470 2c3e 3568 8ebe c8e1 d83e 4be8 603f
00000180: 3c95 f2bc d86c a9be 569f 86be ee01 23be
00000190: 135d e6bd 155c f73d 4731 9cbf 2fae 3b3e
000001a0: eb0b bd3e 703d 2cbf 9ca4 e23d bbef d63e
000001b0: 7c19 da3e 03fb 63be fdb3 d73e ef00 d7be
000001c0: c638 22bf 6e60 6fbf 2d7d 80be e07b 943e
000001d0: 1f27 b5bd e4ca 8a3d 4f60 293e f45f 813d
000001e0: e35e 48bd 8a88 b5bd 9417 9d3d c896 6abe
000001f0: ece7 0dbf 3b92 80bc c2a9 92be a380 263e
00000200: 0534 623e 9b14 713d 6257 043e f5bd 29bd
00000210: cb33 1e3e 0a1d 7cbf 944b 65bf 6269 263c
00000220: e91e ca3e 33b8 babd 7a7f 7e3c 0d42 44be
00000230: 7b98 8d3e 5c4e 00be 1d76 18bd f389 27be
00000240: a7d2 2e3e a886 d23e be23 2d3d 727d 8e3e
00000250: 48b9 583e 7a61 9337 ed2f d5be 53fe 3a3e
00000260: 7697 48be 2d08 c23e 1eac 463d afea 6b3f
00000270: 9888 a03b 4392 f4bc 3f0a 4cbe 98b4 8c3e
00000280: af96 f1bd e1e0 073e dddb dfbd 9d4f 2abe
00000290: f8ef 73bb 048c f1be 77da 46be 194d 58bc
000002a0: 27b5 43bf 936e 4ebc a8c8 683e e899 1d3d
000002b0: 7f34 c5bd f8a6 983c 10e9 a7be 982a 0cbe
000002c0: 8838 be3d 5a4e 83be 09fc 23be ee4e 24bd
000002d0: 1609 3ebe 9c01 fabd 9e5a 6bbe cf0c 9ebe
000002e0: 63cd 7e3e a5db 22be 21e4 adbf 75e8 b7be
000002f0: d1a9 f6bd e700 15be e925 97be 0d2e 91bd
00000300: f4a7 043f 5315 f03c 710e 18bd 7c1b fe3e
00000310: 7bc4 01be b416 a73e b8c9 ff3d c4d8 c83d
00000320: 3404 70bd c653 09bf bddc 683d 3c67 043e
00000330: 55fe 963c e2e0 e23e 15b0 c93d 58e1 10be
00000340: 7a2b 14b9 b52c 613c eab4 66bf 23b8 4cbe
00000350: beaa e9be e0bb b6be 374a 763f 06a4 823c
00000360: d313 443f 439b bb3c 9b38 48be 24c8 09be
00000370: 4485 843e e903 aa3e 15e7 fb3b 5c50 76bd
00000380: 8a0a 9fbd 05f3 193e 9842 6a3e 6552 9c3d
00000390: d888 8dbe 32a3 97bf 09ce 75bd 077f ebbd
000003a0: 771b 8fbe dc23 343d 7203 5a3e fdd3 babb
000003b0: 6800 aabe b07d aabe 042c e03c a09b 4abd
000003c0: 3fb9 a43e b570 463f 2769 04be 1109 7b3f
000003d0: aeb1 57be 0e48 06be 086c c43d 3333 e43c
000003e0: 7455 49bf 7a10 9cbe b63a 463e d5d9 2a3f
000003f0: 0037 b53e 3925 e23d e769 8cbe 194c adbd
0.039961603 -0.96998614 0.011087285 0.12599947 -0.049027473 0.1954121 -0.08209485 -1.1792756
-0.54780674 -0.16325678 0.09872474 -0.6122672 0.10252464 -1.3717046 -0.3942702 -0.17612325
-1.1131941 -0.07681291 -0.6721841 -0.43509728 0.23852311 0.07197148 0.036202036 0.07130482
-0.08236757 0.3014621 0.040676184 -0.09775543 -0.041268766 -0.29420698 -0.32524285 0.33010706
0.010376991 0.26208124 0.45784184 -0.09812477 0.06554784 0.34489027 0.09045425 -0.07708452
0.21623747 0.39206257 -0.29804426 0.16740629 0.2883733 0.039570525 0.05439711 -0.0117148375
-0.02851338 0.30387002 -0.19544528 -0.3895651 0.2707102 -0.9439281 -0.20258883 0.27780733
-0.6356366 0.075767964 0.17489062 0.060040683 -0.7513707 -0.15834005 0.090345465 0.14249937
-0.15587647 0.014105807 -0.5195355 -0.01664331 -0.3064947 0.065217234 0.0009047749 0.09385952
0.033843726 0.018745093 0.58038104 -0.20912458 0.26440674 -1.4452584 0.30174208 0.0038963761
0.8664078 0.08151439 -0.7839831 -0.15415728 -0.12615363 0.11299987 -0.2340599 -0.34333476
-0.06899617 0.32073158 -0.69463426 0.017627466 0.1683982 -0.2781388 0.42359757 0.8785445
-0.029612176 -0.33090854 -0.2629344 -0.15918705 -0.11248221 0.1207811 -1.2202538 0.18328165
0.36923155 -0.67281246 0.11066553 0.41979775 0.42597568 -0.22263722 0.42129508 -0.419929
-0.6336788 -0.93506515 -0.25095502 0.2900076 -0.088453524 0.067769796 0.16540645 0.0631713
-0.048918616 -0.088639334 0.07670513 -0.22909081 -0.5543201 -0.015694728 -0.2864514 0.16260009
0.22090156 0.05885754 0.12923959 -0.041440923 0.15449445 -0.9848181 -0.8956845 0.010156961
0.39476708 -0.091171645 0.0155333225 -0.19165821 0.27655396 -0.12529892 -0.037222017 -0.16361217
0.17072545 0.4111836 0.042270415 0.27830082 0.21164429 1.7569157e-05 -0.41638127 0.1826108
-0.19589028 0.37896863 0.048503987 0.92154974 0.0048990957 -0.0298549 -0.19925784 0.27481532
-0.11796319 0.13269378 -0.109306075 -0.16631933 -0.003722189 -0.47177136 -0.19419275 -0.013201975
-0.7644829 -0.012599605 0.22732794 0.038476855 -0.096291535 0.018634304 -0.32795 -0.13688123
0.09288126 -0.25645715 -0.16014113 -0.040114336 -0.18558154 -0.12207338 -0.22983786 -0.30869147
0.24883036 -0.159041 -1.3585244 -0.35919538 -0.12044109 -0.14551125 -0.2952111 -0.070888616
0.51818776 0.029307043 -0.037123147 0.49630344 -0.12672608 0.3263451 0.12489647 0.0980697
-0.05859776 -0.53643453 0.056851137 0.12930006 0.018431822 0.44312197 0.09848038 -0.14148462
-0.00014130576 0.013743569 -0.901198 -0.19992118 -0.45638078 -0.35690212 0.9620699 0.015947353
0.7659275 0.022901183 -0.19552843 -0.13455254 0.25882924 0.33206108 0.0076874592 -0.06013523
-0.07765682 0.15034111 0.22876966 0.07632903 -0.27643466 -1.1846678 -0.060010944 -0.11498838
-0.27950642 0.04397951 0.21290377 -0.0057015405 -0.33203435 -0.33299017 0.027364738 -0.04946482
0.32172582 0.7751573 -0.12930737 0.9806071 -0.21063873 -0.13113424 0.09590918 0.027856445
-0.78646016 -0.3048132 0.19358334 0.66738635 0.35393524 0.11042256 -0.27424547 -0.0846178

bias f4 [200]
00000000: 596f 153e d5a4 863e ac36 03bf 92db ae3d
00000010: 27a7 2abd 2b45 64bd 527b 8dbe 8840 67be
00000020: 42cf 0e3d a557 3cbe dab1 0c3f 8c9c f0bc
00000030: c602 96bd ec55 84be 9448 fbbd d78c 59be
00000040: 6974 c0be e33e c23e 0215 7f3e 8de8 8dbd
00000050: 5e17 94bd 8ebf 98bc 2ede f93e 5f42 d0bd
00000060: 0f61 98be 2049 3bbe 9fb6 a43e 097f 0bbe
00000070: f8a8 493f 6e6c eabe 15ab 30be 3b52 e0bd
00000080: b3f4 7c3a c767 133f 01da 2cbe d6de 3d3e
00000090: b3ac c2bd 9c5f f0bc 0920 c0bc 5616 93bd
000000a0: 17de 003f 6ff0 20bd 7766 223f 5ecf 1fbd
000000b0: a23b 5abd 864f 1dbd f0f6 babd 0282 d4bc
000000c0: 5225 52bd d8dc 053e 7979 cebd 3d1b 6cbe
000000d0: fff2 c5be 1441 713e a626 62bc 2310 e53e
000000e0: ee08 9fbd e7fd 21bf c87d e43d 0d8b 8ebc
000000f0: 9e22 c23e 0c9c bebd e336 f93c db88 e6bc
00000100: c2bf 853d 38da ae3d 708f 2dbe a486 0c3a
00000110: 4cfa 8c3e 2647 64be 16b8 2f3e 446d c83e
00000120: 0f34 29bd 7d77 8f3e 5bda 67bd 425c 53bd
00000130: f21d b3be 8dad 82bd aa3c 5bbd 70c7 0b3e
00000140: 8a24 52be 0474 99bd 2bf2 26bf 1873 b4bd
00000150: ddc4 8ebc 2cb4 77bd 614c da3e e2ff 2539
00000160: 269d 9bbd 8ee3 c5bd e4b3 79bc c594 86bd
00000170: c838 bfbd 05f0 043f d510 c6be 7587 89bd
00000180: 4265 5ebd e70b aebd c20d 833e 9892 a3be
00000190: fcf0 123e 2f46 ddbd 6855 7abe 6195 71bd
000001a0: 234b 343e 3b55 b0be f49a 113e 4ac1 54bc
000001b0: ddf9 01be 5ad7 32be cea9 a53e 0dc5 dabc
000001c0: 103c fe3e 88cb 163f ac60 9c3e 4d07 2c3e
000001d0: e326 713d f2c3 cabd 16e6 19bd 5d84 80be
000001e0: 42b4 4dbe da8c 71be 2a14 b7bd 72ad d9bd
000001f0: ebae e2bd 03e3 efbd 9655 3b3c 728d 56bd
00000200: c85a b1bd aeed 95bc 19fe 913d c33b 67bd
00000210: 4f77 b33d 2f13 afbd 8f40 f53e e618 3f3f
00000220: fd9f 84bd f350 64be 082b 243d c9d6 d83d
00000230: 4332 d43e 73d9 5bbe b0ce 583e 9e3b f83c
00000240: 15a3 07bd c7ae e93e 7f1d 243e 018c 42be
00000250: 5edf 94bd d12a a63e 0de7 87bd e0ac 08be
00000260: 6bf3 61bd 0a65 5abd e1fc d83b 7dd5 05be
00000270: 185c 3abe 4101 c5bd 9bba 89be 6d5b 313e
00000280: 78f6 35bd 6199 da3c 5bb2 133f 1358 1abe
00000290: fe3f 94bd 5336 e4bb da08 da3e f361 443f
000002a0: 0c14 a13e 1be4 febd 17f0 a8bd d935 c6bc
000002b0: 0916 c83e e113 27be 45d5 8ebc efa3 3a3f
000002c0: 6fec a9bd e762 30be 8be0 edbd de94 cb3d
000002d0: 210d 0abe d09c bcbd 1e0f 78bc c4c9 f9bd
000002e0: c0ac 37bd b801 0e3e 9835 f1bd 1049 f43e
000002f0: 4991 c3bd 1db0 cabe ad4f aa3e 7163 c4bd
00000300: e86b b7bb b396 e2bd 0bd4 6dbd 1760 27bd
00000310: a108 a5bd 5cc1 203d 9704 a73e af43 993c
0.14593257 0.26297632 -0.512553 0.085379735 -0.041663315 -0.055730026 -0.27633148 -0.2258321
0.034865625 -0.18392809 0.5495888 -0.029371522 -0.07324748 -0.25846803 -0.122697026 -0.21245132
-0.37588814 0.37938604 0.24910358 -0.06929121 -0.072310194 -0.018646028 0.48802322 -0.10168909
-0.2976155 -0.18289614 0.3217058 -0.13622679 0.7877345 -0.4578585 -0.17252763 -0.10953184
0.00096495 0.57580227 -0.16880037 0.18542036 -0.09505596 -0.029342465 -0.023452776 -0.071819946
0.5033888 -0.039291795 0.634376 -0.03901612 -0.053279527 -0.038405918 -0.09129131 -0.025940899
-0.051305123 0.13072526 -0.10081763 -0.23057266 -0.38661954 0.23559982 -0.01380316 0.44738874
-0.07765375 -0.6327805 0.11156803 -0.017400289 0.37917036 -0.09307107 0.03042168 -0.02814143
0.065307155 0.08537716 -0.16949248 0.0005360639 0.2753471 -0.22292766 0.17160067 0.39145863
-0.041309413 0.2802085 -0.056604724 -0.051601656 -0.34983784 -0.063807584 -0.05352465 0.13650298
-0.20521751 -0.07492831 -0.6521327 -0.08811015 -0.017427856 -0.06047456 0.42636397 0.0001583095
-0.07598333 -0.09662543 -0.015240643 -0.06571344 -0.09337002 0.5192874 -0.38684717 -0.067152895
-0.054295786 -0.08498364 0.25596434 -0.3194778 0.1434974 -0.10804402 -0.24446642 -0.05898035
0.17606787 -0.34440026 0.14219266 -0.012985537 -0.12692972 -0.17464963 0.32356113 -0.02670529
0.496552 0.58904314 0.30542505 0.1679966 0.058874976 -0.09900655 -0.037572943 -0.25100985
-0.20088294 -0.23588887 -0.08939393 -0.10628785 -0.11068519 -0.11713221 0.0114339795 -0.052380987
-0.08659893 -0.018301811 0.071285434 -0.056453478 0.08762991 -0.08548581 0.47900817 0.74647367
-0.06475828 -0.22296505 0.0400801 0.10587842 0.41444597 -0.21469669 0.21172595 0.030301865
-0.03311451 0.45641157 0.16026877 -0.1899872 -0.072691664 0.3245454 -0.06635866 -0.13347197
-0.055163782 -0.053319015 0.0066219424 -0.1306972 -0.18199193 -0.0961938 -0.2690018 0.17320032
-0.044424504 0.026684465 0.57694024 -0.1507266 -0.07238768 -0.0069644838 0.42584878 0.7671196
0.31460607 -0.124458514 -0.082489185 -0.024195598 0.3907931 -0.16316177 -0.01743568 0.7290639
-0.08297049 -0.17225228 -0.11615094 0.099405035 -0.13481571 -0.09209597 -0.015140323 -0.12196687
-0.04484248 0.13867843 -0.117778 0.47711992 -0.09549195 -0.3958749 0.33263913 -0.095892794
-0.00559758 -0.110639 -0.058063548 -0.040863123 -0.080582865 0.039246902 0.3262069 0.018709032
