Vehicles/Mod_02_01/Mod_02_01_actor.pth (torch, 176455 bytes, 5 tensors)

weight f4 [200, 14]
000000 bb 39 68 3d 35 1c ed 3c 56 c4 42 3e 11 38 17 3e
       0.05669568 0.028944114 0.19020209 0.14767481
000010 cb c5 e5 3d fc 24 d3 be 0d 8a 4a be 5d 32 e4 bb
       0.11219367 -0.41239154 -0.19779225 -0.0069640116
000020 01 a4 c6 be 94 80 1b bd 79 87 93 be 76 6f 69 bd
       -0.38797 -0.03796442 -0.28814295 -0.056991063
000030 07 99 19 be d5 8f 03 bc e4 26 62 be 21 aa 5f 3e
       -0.14999782 -0.008029898 -0.22085148 0.21842243
000040 a7 72 00 3f 85 c4 46 3e 74 d2 2b bc 19 31 17 bf
       0.50174946 0.19410904 -0.010487188 -0.5905929
000050 e3 42 11 bf 39 a6 5d be 1a 87 09 3d ea ed 1b 3f
       -0.56742686 -0.2164544 0.03357611 0.60909903
000060 09 f6 91 3c eb ee 45 bc 3c 48 e6 3d 45 82 0c 3e
       0.017817514 -0.012080888 0.11244246 0.13721569
000070 63 e7 70 be 59 50 b1 3e 12 62 12 bd 5c 6d cf 3e
       -0.23525767 0.34631613 -0.03573806 0.40513122
000080 c7 f2 0f 3e 11 19 70 be d4 d0 95 be 1a a5 0e 3e
       0.14057456 -0.23447062 -0.29260886 0.13930169
000090 83 f8 07 bf d7 09 fe be a7 9f fa 3c 75 14 b5 3d
       -0.53113574 -0.49616882 0.030593706 0.088417925
0000a0 df 86 89 3e 9f 4c 8b 3e 43 68 20 be 62 d9 03 3f
       0.2686071 0.27206895 -0.15664773 0.51503575
0000b0 79 07 66 bd ef 22 29 bf 78 2c 16 be 07 5f 8a bd
       -0.05615947 -0.6606893 -0.14665401 -0.06756406
0000c0 1a 84 60 3e 9d d9 95 be 26 b9 00 bf 66 51 6b be
       0.21925393 -0.29267588 -0.50282514 -0.2298027
0000d0 65 4d 01 3c f7 9b 27 3e f1 d2 a9 3e df 55 17 3e
       0.007891987 0.1636809 0.33168748 0.14778851
0000e0 c8 b2 c8 be 58 1e 9b 3e 2b f6 7e bd f4 0b e3 be
       -0.391989 0.30296588 -0.062246483 -0.44345057
0000f0 84 d8 55 3e 9e 0a eb bc 06 78 97 bd c0 79 cc bd
       0.20883375 -0.028691586 -0.073959395 -0.099841595
000100 75 e5 70 be 2e 6b aa be fe 8c dc be ff c4 52 3e
       -0.23525031 -0.33284897 -0.43076319 0.2058296
000110 44 e7 39 3d ed a1 0e 3e 79 0b 84 3e 99 c7 85 be
       0.045386568 0.13928957 0.25790003 -0.26128843
000120 68 81 08 bd 71 2a bd be 94 63 fc 3d 26 6d 40 bd
       -0.033326536 -0.36946443 0.123236805 -0.046979092
000130 84 2a 8c 3e 8c 8f fe 3e 7f a2 64 3e 0e 57 5b 3e
       0.27376187 0.49718893 0.22327612 0.21419927
000140 7c 3a 1d bf cd a5 0f bf 83 7c 6b bd e4 7a c5 be
       -0.61417365 -0.56112367 -0.05749179 -0.3857032
000150 cf 3b 90 bd 60 93 3c bf 99 ad a7 be 2d ff f2 be
       -0.070426576 -0.73662376 -0.32749632 -0.4746031
000160 da e9 49 be 78 78 8c bd 50 7f 21 be c5 78 4b 3e
       -0.19718114 -0.06858915 -0.15771222 0.19870289
000170 8f b3 dc 3c 31 e1 b9 3d 76 0f ba be ed bf a1 be
       0.026941089 0.09076155 -0.3633992 -0.3159174
000180 f5 cd 16 bf 7b 15 a2 be e8 90 2a 3c 33 08 fc 3d
       -0.58908015 -0.31657013 0.010410525 0.123062514
000190 91 57 20 be 1d e0 bb bc 25 e2 17 be fb 14 e1 3d
       -0.15658404 -0.022934014 -0.14832361 0.1099033
0001a0 69 0d 8c 3d 7d 15 5d be a6 90 16 3e e1 f6 03 3d
       0.06838495 -0.21590228 0.14703616 0.032217864
0001b0 f8 57 a8 3d 0a 9f 1b be ea 5a 5f 3d 96 a9 ad bd
       0.08219904 -0.15197387 0.05453006 -0.084796116
0001c0 88 76 bc bd ec 81 22 bc 25 e9 25 3e 07 f2 61 3e
       -0.092022955 -0.009918671 0.16202219 0.22064982
0001d0 6e b8 c2 bd 38 9a 85 3e d2 f4 43 3d ea bb c7 be
       -0.095078334 0.26094222 0.0478409 -0.39010555
0001e0 ed 2a e4 be 6e 27 3d be 39 cc c6 bd 48 ad ec be
       -0.44564 -0.18472072 -0.09706921 -0.46225953
0001f0 19 78 01 be 00 5c 9e be 85 47 c2 3e 1f 40 8b 3e
       -0.1264347 -0.30929565 0.3794519 0.27197358
000200 3d 1a 32 bd d0 27 1e 3e eb 4d d9 3b ca f8 50 3c
       -0.043482054 0.15444875 0.006631603 0.012754628
000210 8b 75 c3 be b4 25 1c bf 63 bc 9f be 84 a2 13 bd
       -0.38175616 -0.6099503 -0.31198415 -0.03604366
000220 c0 fc 3f 3e c4 cb 48 3e ec be d6 3e a3 f8 ba 3e
       0.1874876 0.1960898 0.41942537 0.3651782
000230 4a e0 93 be b5 c5 d7 bc 86 f6 ec 3d 0b 4b bc be
       -0.28882056 -0.026339391 0.11570458 -0.36776003
000240 de 50 09 be 20 73 b3 3e 4d 9d ab 3e dc 20 14 3f
       -0.13409755 0.3504877 0.33518448 0.5786264
000250 ec 85 d1 be 06 d8 c5 bb b7 5b 82 bd 2b dd 8b be
       -0.40922487 -0.006037715 -0.063651495 -0.27317175
000260 9d 63 f0 bd cb 69 11 bf a6 48 c2 bc c6 08 50 bd
       -0.1173775 -0.5680205 -0.023716282 -0.050789617
000270 d1 96 ef be e5 e7 96 be 0d 19 81 bd b9 28 28 bb
       -0.4679475 -0.29473796 -0.06303606 -0.0025659038
000280 4b 97 a7 bc 4b c0 da be a6 c6 fb 3d c7 0c 91 bc
       -0.020457884 -0.42724833 0.122937486 -0.017706288
000290 dc 32 94 be 70 a3 b1 be f0 5c 39 be 41 cb f6 b9
       -0.28945053 -0.34695005 -0.18101859 -0.00047072212
0002a0 3f d7 b0 3e d3 e8 2c bf 7f 29 74 3e 8d 09 57 3e
       0.3453922 -0.6754276 0.23843955 0.20999737
0002b0 98 19 ff 3e ab 2a 33 be 26 8f 47 3e 45 7c 22 bd
       0.49824214 -0.17496745 0.194882 -0.039669294
0002c0 bd d0 48 3e 80 cb aa be 6f e7 9a bd 6b c1 3e 3e
       0.19610877 -0.33358383 -0.07563674 0.1862847
0002d0 c0 79 27 be d5 01 e4 be 42 9c 7c bd f7 b3 3c 3e
       -0.16355038 -0.44532648 -0.061672457 0.18428026
0002e0 1d d3 36 be 7a 08 cb bd cf 95 11 3d c8 b6 9e bc
       -0.17853971 -0.09913726 0.03554326 -0.019374266
0002f0 9a 63 1e be 8e d9 27 be 8e 47 e2 3c 6b 5a 52 3c
       -0.15467682 -0.16391584 0.02762201 0.01283894
000300 21 b9 06 bc bd 6f 3d be d2 c4 06 be 42 ac 44 bc
       -0.008222849 -0.18499656 -0.13161018 -0.01200396
000310 67 ed bf bd 2a 65 0b be fa 2a ee 3d d1 d7 4f bf
       -0.09371453 -0.1361281 0.11629291 -0.81188685
000320 2d 4f 13 3d 86 82 09 3e 4e 15 60 3e 8b 9c b7 3e
       0.03596418 0.13428697 0.21883127 0.3586162
000330 9e 33 4b 3e 50 5c 27 bf b7 64 b9 be 48 aa dd bd
       0.19843909 -0.6537523 -0.36209652 -0.10823494
000340 13 d2 b9 be 3f a9 9a 3e 15 8e 16 be 34 e7 97 3e
       -0.36293086 0.3020725 -0.14702637 0.2966858
000350 f8 77 df 3d b5 14 a0 3e 5c 28 92 3e a4 ee 11 3e
       0.10911554 0.31265798 0.28546417 0.1425119
000360 eb 62 34 3e ca 6a 2a bc aa 00 15 3e ed 24 f5 bd
       0.17615859 -0.010401437 0.14551035 -0.11969934
000370 79 50 d4 be 1b 5e 24 bf 1f 86 6f 3e 92 1a 99 3c
       -0.41467646 -0.64206094 0.23391007 0.018689428
000380 40 72 09 3f 99 67 a4 bd e0 87 d6 bc dd eb 08 3e
       0.53689957 -0.08027572 -0.026187837 0.13371225
000390 4b 54 e3 be fe e0 02 3f 7b 67 ac 3d a2 4f ad 3d
       -0.44400248 0.5112456 0.08418175 0.084624544
0003a0 89 f5 c1 bc 26 35 01 3d a4 67 1f bf ca 2a 0a bf
       -0.02367665 0.031544827 -0.6226752 -0.5397154
0003b0 28 bd 4f 3c 9b c4 6e 3e d3 b2 b3 be 74 ac 2f be
       0.012679376 0.23317187 -0.3509737 -0.1715563
0003c0 70 fb 2d 3e d9 45 50 bd da fb ef bd c6 fe 0c bd
       0.16990447 -0.050847862 -0.11717959 -0.03442266
0003d0 18 2d a9 3d 04 ea a1 be e4 55 85 be e5 45 8c be
       0.08260554 -0.31623852 -0.26042092 -0.27397075
0003e0 07 fd 08 bd cf 81 ec 3d a7 01 2e be 3a 66 bc be
       -0.03344443 0.115481965 -0.16992818 -0.36796743
0003f0 4b 12 0f 3f a6 2a 4e 3c 66 b8 bd 3e 62 8c 51 be
       0.5588729 0.01258341 0.37054747 -0.20463708

bias f4 [200]
000000 2b b4 21 3e 69 3f 50 3d 93 4f d3 bd 0f 2b 77 bd
       0.15791385 0.050841723 -0.10317912 -0.0603438
000010 e7 f6 e3 3d c9 d5 6f 3e 15 08 84 be 0b c4 60 be
       0.11131077 0.23421396 -0.25787416 -0.21949784
000020 6a 17 23 be 2a fe 05 bd 5c da 9f bd ca ac 07 be
       -0.159269 -0.032713093 -0.078053206 -0.13249508
000030 3d 4a b5 bc 61 1f 67 be db 1c b8 bd f7 0a 09 be
       -0.022130126 -0.22570564 -0.08989879 -0.13383089
000040 f0 64 3f 3d 73 02 03 be b0 37 a8 3e 81 c8 01 be
       0.04672712 -0.12793903 0.32854986 -0.12674142
000050 81 2b 40 be 18 90 11 be bd df 62 be dd db 2d 3b
       -0.18766595 -0.14215124 -0.22155662 0.0026528754
000060 1e 1b 20 bd e3 08 66 bb ca ab 54 be 78 9d e8 3e
       -0.03908836 -0.0035100512 -0.20768657 0.4543264
000070 d9 de 45 be 8c a2 18 bd 3e 4c 7a 3e 9a 41 d8 3d
       -0.19323291 -0.03726439 0.24443147 0.105593875
000080 4e 2b cd bd 59 01 2d 3e fa d9 ec 3d 4a 24 a8 be
       -0.10018025 0.16895045 0.11565013 -0.32840186
000090 e7 8f 55 be 8d 1b 16 3e 8f 43 79 bd 77 64 44 3e
       -0.20855676 0.14658947 -0.060855445 0.1917895
0000a0 c2 38 de be a6 39 2f be 4f 7e 36 be 91 2c aa bd
       -0.43402678 -0.17111835 -0.1782162 -0.083092816
0000b0 14 af 87 be 35 51 43 bd d7 c6 94 3e 51 b5 7a be
       -0.26500762 -0.047684867 0.29057953 -0.24483229
0000c0 55 8d ba 3d 98 28 cd 3d 7e d3 4e 3e 4e ed 2d be
       0.09108988 0.10017508 0.20197865 -0.16985056
0000d0 c7 f4 54 3e d2 ca 0d be 1e ac a1 be 10 31 8f 3d
       0.207965 -0.13846901 -0.31576627 0.0699178
0000e0 f5 de aa bd 56 3d 1f bd c3 c2 14 3e 39 4a 2d 3e
       -0.08343307 -0.038876854 0.1452742 0.16922845
0000f0 c9 27 36 be cb b8 80 be e9 8a c1 bd d4 c7 1b be
       -0.17788614 -0.25140986 -0.09450323 -0.15212947
000100 67 3e e8 3d 0e 47 58 be 73 f9 86 3d c8 95 77 be
       0.11340027 -0.21120855 0.065905474 -0.24178231
000110 69 18 80 be 7a ee 4a 3e e4 e2 9c be 1f 89 31 be
       -0.25018623 0.19817534 -0.30641854 -0.17337464
000120 94 60 a2 bc 54 2a 23 3e 4e 85 8f bc f1 07 ab 3d
       -0.019821443 0.15934116 -0.01751962 0.08351124
000130 56 41 8f 3d d8 e0 b8 3d d7 8f 07 be 09 2f 88 bc
       0.06994884 0.090272605 -0.13238464 -0.01662399
000140 03 f1 89 be d0 46 85 bd 5a c0 59 be aa 44 22 3d
       -0.2694169 -0.06507647 -0.21264783 0.039616264
000150 2d 03 94 bd ca d1 f1 3d 3c 65 be bd 0d 00 c4 bc
       -0.07227168 0.11807592 -0.09296653 -0.023925805
000160 18 0e ad be 57 0a e8 bc fb c2 f5 3d ca 9d 2c be
       -0.33799815 -0.028325243 0.1200008 -0.16857067
000170 5d a5 5b 3e f5 1d f7 bc c6 d4 e4 bd c8 89 43 be
       0.214498 -0.030165652 -0.11173396 -0.19095528
000180 92 9e 98 3e fa fb 1f bd 38 75 c6 3d fa 94 bd 3d
       0.2980848 -0.039058663 0.096903265 0.09256931
000190 ea 43 30 3e 54 7d f9 bc f7 e7 10 3c 66 da 49 3d
       0.17213407 -0.030455269 0.008844367 0.049280547
0001a0 e0 39 98 3c 47 97 25 3e 42 a4 06 3e df 1c 88 be
       0.018582284 0.16170989 0.13148597 -0.26584527
0001b0 1a 0e 77 be f1 97 1a 3e 4f 83 4f 3d e9 7f 39 3e
       -0.24126473 0.15097024 0.050662335 0.181152
0001c0 56 d6 a6 bd fb 18 93 3b e4 6a 0f be de 9f ff bc
       -0.0814635 0.004489062 -0.1400562 -0.03120416
0001d0 9d 4a 92 3c 9c 93 d7 bc 5b d9 a5 3d be df 51 be
       0.017857844 -0.026315503 0.08098098 -0.20495507
0001e0 ae dc ed bd 04 5f 01 be be 3e fa bd f0 6c 55 be
       -0.11614357 -0.12633902 -0.122189984 -0.20842338
0001f0 b1 3c ae 3d b9 4f aa bd 4d ab 4b be c8 2f 34 3b
       0.0850767 -0.08315987 -0.19889565 0.00274943
000200 38 07 e9 3c 85 4a 7c be 08 23 12 3d f7 f8 86 be
       0.028445825 -0.24637802 0.03567794 -0.2636182
000210 e5 e2 02 3e 61 d5 88 3c 19 45 75 bc 70 78 e4 bb
       0.12781866 0.01670331 -0.014970087 -0.006972365
000220 3f 07 96 bd 6f 64 ac be 98 72 93 be f7 33 2b 3e
       -0.07325601 -0.33670375 -0.28798366 0.16719042
000230 9d af 1f be ce 42 6c 3e 7c 87 04 be a7 5d 10 be
       -0.15594335 0.23072359 -0.12942308 -0.14098226
000240 b5 6e 39 be 59 bd 61 be 0c 1b 33 be 5c aa 9a 3e
       -0.18108638 -0.22044887 -0.17490786 0.302081
000250 b8 96 65 3e 57 d5 bd bd ed 87 01 bc de e9 95 be
       0.22420776 -0.09269207 -0.007905942 -0.2927999
000260 0e 96 d2 bd 7e 79 1c 3e f1 ef 2f be 4e d4 27 bd
       -0.10282527 0.1528072 -0.17181374 -0.040973954
000270 44 73 25 3e 32 5d 18 be 51 b6 96 3e 08 fe fd be
       0.16157252 -0.14879301 0.2943597 -0.49607873
000280 8c a2 0e 3c 66 52 95 be 28 9c 5a 3e 6a 0f 92 be
       0.008705746 -0.29164428 0.21348631 -0.28527385
000290 3c 80 a4 be c1 7a e2 3d fa 33 3c be 35 12 d4 bd
       -0.32129085 0.1105857 -0.18379202 -0.10355035
0002a0 12 1b 83 be c5 15 02 be 4b b1 9f 3e be 54 a3 3e
       -0.2560659 -0.12703617 0.3118995 0.3190059
0002b0 b1 47 cc bd e6 36 39 be 4f c8 7e be ef a5 29 be
       -0.099746116 -0.18087348 -0.24881099 -0.16567205
0002c0 07 5e c3 bc b5 4c 38 be e8 2f 20 3d 44 f7 1b be
       -0.023848547 -0.17998011 0.039108187 -0.15231043
0002d0 4c 28 8b be d7 5c 94 be 2b 05 ba 3e 43 85 47 bd
       -0.27179182 -0.2897708 0.36332068 -0.048711073
0002e0 0d de 7a be c7 43 2c 3e c1 2b a3 be 70 97 09 3d
       -0.24498768 0.1682273 -0.3186932 0.033591688
0002f0 7c 2a 51 be 53 dc 6c 3b a1 f6 24 bd f0 41 1b bd
       -0.20426363 0.0036142066 -0.040274266 -0.03790468
000300 ef 41 86 3e a2 91 8a be da a5 0e be 9a ad 59 3e
       0.26222178 -0.27064234 -0.13930455 0.2125763
000310 b4 a1 a8 be 13 68 03 bd 7a 76 1a be eb 08 41 bd
       -0.3293587 -0.032081675 -0.15084258 -0.047127645

weight f4 [200, 200]
000000 e7 eb 04 3e 91 9a b3 3e 76 ee 2e bd a9 49 b4 be
       0.12980615 0.35078862 -0.042707883 -0.35212448
000010 ec 1f 72 3d 67 47 fe be aa f6 2a be fb 2a 86 3d
       0.059112474 -0.4966385 -0.16695657 0.065511666
000020 cd db 06 be 9e 8c 1a bf db 53 2b bf df f4 c3 bd
       -0.13169785 -0.60370815 -0.6692483 -0.0956819
000030 3f 9f 75 bd d4 88 e1 bc bf 4e 8e bf 56 03 44 3e
       -0.059966322 -0.027531065 -1.1117781 0.19141898
000040 65 ce 14 3e 16 94 c3 3d 31 ad 64 bd 8e 8f 39 3e
       0.14531858 0.095497295 -0.05582923 0.18121168
000050 e7 7a bb 3c 77 8d a5 bd c4 fa 3c be 4a 90 6a bf
       0.022885753 -0.08083623 -0.18455034 -0.9162642
000060 0b 54 81 3e 6e 40 3d 3c 45 87 b5 be 5e 65 f7 bd
       0.25259432 0.011551006 -0.35454765 -0.12079881
000070 c8 da cd 3c 4a aa f1 be 4c 05 36 be 36 a8 70 3a
       0.025128737 -0.47200233 -0.17775458 0.0009180339
000080 06 da 98 bf 91 0b 8a be 8a 60 0d be c3 ca 1e 3e
       -1.1941535 -0.2696195 -0.13806358 0.15507035
000090 a0 ff 05 bf 05 29 51 3d 4d 1a 85 3e 93 09 3c bf
       -0.5234318 0.05106451 0.25996628 -0.7345211
0000a0 d7 5b fa bd dc 55 4d 3e e8 1e ce bd 31 b3 53 3e
       -0.12224548 0.20052284 -0.10064489 0.20673825
0000b0 17 97 27 3e d3 8b 20 3d 3e e4 2d 3c d6 47 55 bc
       0.1636623 0.039195847 0.010613499 -0.013017615
0000c0 d9 fc 74 be 83 00 a0 3d d5 fa cc be 8f 54 7b bf
       -0.23924579 0.078125976 -0.4003512 -0.981759
0000d0 2f 19 17 be 3b cc 54 bb f2 b7 3c 3d 1a b5 aa 3c
       -0.147557 -0.0032470364 0.04607386 0.02083831
0000e0 93 d9 9b 3d 9a 40 b7 be 17 ff 80 be ad 55 ee be
       0.07609858 -0.35791475 -0.25194618 -0.4654974
0000f0 e7 26 c4 3e af fe c2 3c a0 4b db bd 10 2d 97 be
       0.3831093 0.023803083 -0.10707784 -0.29526567
000100 ea 23 28 bf 9a 7a 28 3c 36 68 9e bd 31 65 df bc
       -0.656798 0.010283137 -0.077347204 -0.027269932
000110 32 48 0c 3d f0 6d 0a 3e 1b d2 93 3e 5e 8f de 3d
       0.03424854 0.135185 0.28871235 0.10867189
000120 1a fc 0d 3d be fc 80 3f 4b 42 8b be 0d e2 7e be
       0.03466425 1.0077131 -0.27199015 -0.24890919
000130 5e 87 bd 3c 91 47 55 be 9d 26 f7 3d 34 57 0b be
       0.023135837 -0.20828082 0.12067912 -0.13607484
000140 a8 3b 33 3d 6b 13 c3 3d 16 d1 93 be 3c 0f fe 3e
       0.043758065 0.09525188 -0.28870457 0.49620998
000150 1b 9b 88 bd af 02 bc 3e 8e 70 c5 3d e2 9c 8c be
       -0.06670209 0.36720797 0.09640609 -0.27463442
000160 b4 c0 cf 3e 94 29 81 bd 0b 93 d5 be ed 50 c5 be
       0.40576708 -0.063067585 -0.41713747 -0.38538304
000170 6f 24 27 be 2b 64 a1 3e 01 0f 18 bc 4a 78 b6 be
       -0.16322492 0.31521735 -0.009280921 -0.35638648
000180 7f fc 3c 3d 28 be 14 bf 4b 5c 9e 3c 32 d9 08 be
       0.046139237 -0.58102655 0.019331118 -0.13364103
000190 17 50 de 3e 8c 07 55 bf 62 96 c9 bd 32 27 15 be
       0.4342048 -0.8321464 -0.09843136 -0.14565733
0001a0 ed a2 8c bd 30 48 30 bf ca 08 81 3e 58 b6 d7 be
       -0.06867013 -0.6886015 0.25202018 -0.42131305
0001b0 1f b1 ab 3d df 8e 08 be 12 90 c6 bd 2c 9a b4 ba
       0.083833925 -0.13335751 -0.09695448 -0.0013778857
0001c0 f3 bd 4c 3e cd 0c 85 bd b4 97 85 bd dc 22 f9 be
       0.19994335 -0.06496582 -0.06523076 -0.48659408
0001d0 13 2d 03 3d d7 d5 4f bc 92 58 bd bd 6e 0b 15 bd
       0.032025408 -0.012685261 -0.09245409 -0.036387853
0001e0 73 4a 65 3e 5f de 4c bf f6 55 bd be 2f 31 de be
       0.22391681 -0.8002681 -0.36979645 -0.433969
0001f0 31 1d ec 3d 1b cd 87 3d de d8 0f 3d d0 10 b0 3e
       0.11529005 0.06630918 0.03511893 0.34387827
000200 fb 25 a9 be 2d 64 75 bf 73 66 d0 3c 6d a3 ae be
       -0.3303679 -0.9585598 0.025439477 -0.3410906
000210 b6 97 26 be 16 60 c8 be 15 73 a1 3e 19 b9 23 3d
       -0.1626881 -0.39135808 0.31533113 0.039971445
000220 16 a9 99 bf 0e d2 52 bc f1 9c 11 3d 5e b2 97 be
       -1.2004726 -0.012867464 0.03555006 -0.2962827
000230 49 ae 8d bd af bd 88 be 75 a5 c4 b9 8a d1 fa be
       -0.06918008 -0.26707217 -0.00037507308 -0.4898799
000240 e0 59 c6 be a0 80 bf 3b 4f 8b 37 be 08 e5 2f bd
       -0.38740444 0.0058441907 -0.17924236 -0.04294303
000250 b7 ac 0e be d6 6f 4b 3e dd 7c 06 bf b2 8a 8a be
       -0.13933073 0.19866881 -0.52534276 -0.2705894
000260 6b a1 8f 3e 05 0a 9a be 98 be 83 3d 55 2f 22 bd
       0.2805284 -0.3008577 0.06432837 -0.03959592
000270 28 5f 3c bd 77 64 40 bf 09 0a 39 bf f4 b9 73 be
       -0.045989186 -0.751533 -0.7228094 -0.23801404
000280 ee 2a df bd 91 e7 79 be 9d 72 ec be d7 50 fb bd
       -0.1089686 -0.24404742 -0.46181193 -0.12271278
000290 6a 8b ed bd 2c 4c 8e 3d 48 a9 a9 bd ed a0 02 3f
       -0.11598857 0.069481224 -0.08284241 0.51026803
0002a0 6a 63 17 bf c5 dc df 3d 84 93 9b 3d 4e dc 26 bd
       -0.5913607 0.1093078 0.07596496 -0.040737443
0002b0 9a e1 6d 3d 76 af d9 3d 1c c7 05 3f 23 0c 34 be
       0.05807648 0.1062917 0.5225694 -0.17582755
0002c0 30 d1 48 3f d8 1e 57 be 17 25 33 bd 3d df 4b bd
       0.78444195 -0.2100786 -0.043736544 -0.049773443
0002d0 35 e8 05 3c 13 0e aa bc 45 e5 b4 3d a2 a8 3f bf
       0.008173038 -0.020758664 0.08832792 -0.7486669
0002e0 00 75 38 3d 1b 7d 0b be cb 15 d1 3d 4f 6c 23 be
       0.045033455 -0.13621943 0.10209235 -0.15959285
0002f0 69 f6 f2 3d 7d 12 33 bf 03 8b 34 3d 6b d9 c0 be
       0.11863405 -0.69950086 0.044077884 -0.37665877
000300 19 cb 43 be e4 25 42 be d1 68 bb 3d 1d d4 cb bc
       -0.19120444 -0.18959767 0.091508515 -0.024881417
000310 74 7e 07 bf f9 c1 93 3c 47 1d c8 be da 3f dd be
       -0.5292733 0.01803683 -0.39084837 -0.43212777
000320 a5 22 19 bc 3a c5 86 bd 08 42 c1 bd b3 0b de bc
       -0.009346639 -0.06580587 -0.094364226 -0.027105188
000330 a5 2d a6 bb 60 d1 63 3c b6 1d 34 3c 21 54 40 3a
       -0.005071359 0.013904899 0.010993412 0.0007336755
000340 0b d4 ae bb 1a 59 73 bc 32 5b 5b 3c 37 b6 64 bd
       -0.005335336 -0.014852786 0.013388442 -0.055837836
000350 0d bd 6e bd be ba b9 bc 0c a5 94 bd b7 ea 02 bc
       -0.05828576 -0.022672053 -0.07258043 -0.007990531
000360 a3 ee e1 bd 3a 44 fa bc cb 49 c3 bd 20 b2 a4 bc
       -0.110318445 -0.030550111 -0.09535559 -0.020104468
000370 7a ca 39 3d eb cb 80 bb 5e c0 b2 3b b4 04 72 bc
       0.045359112 -0.003930559 0.005455061 -0.014771629
000380 13 6d c2 3c dc 89 2a bd 26 2e a0 3c 50 28 a5 bd
       0.023733651 -0.04163538 0.019553255 -0.080643296
000390 6d 8f 3a bd 3e 2e 32 bd 3d 4a 44 3c 5f c5 ad bd
       -0.045546938 -0.04350113 0.01198059 -0.08484911
0003a0 8b 8e be 3c 08 3b b3 bd 69 11 bd 3c ad d9 60 bd
       0.02326133 -0.08751494 0.02307959 -0.05489509
0003b0 5f 0e aa bd 3d 76 5a bd 8e b1 e5 bc 69 20 97 bd
       -0.08303522 -0.053335417 -0.028038766 -0.073792286
0003c0 df 54 0a 3b 37 52 57 bc 2e 12 04 bd 73 bc cb 3c
       0.0021107716 -0.01314216 -0.0322439 0.024870133
0003d0 d1 a1 c7 3c 43 1c b1 bd ca 80 20 bd c5 15 66 3d
       0.024369152 -0.086479686 -0.039185323 0.056173105
0003e0 13 6f 9a 3c 3e db 20 bd b1 82 09 3d 77 f5 55 bd
       0.018851792 -0.039271586 0.033571903 -0.052236047
0003f0 82 9e 8f bc b6 4e 81 3b 29 fb b6 3b 64 4d 47 3d
       -0.017531637 0.0039461507 0.00558414 0.04865779

bias f4 [200]
000000 d7 d3 9a bc 28 ac ca bd f3 50 50 be c7 e2 82 be
       -0.018899841 -0.098961174 -0.2034338 -0.25563642
000010 32 35 c0 bd c6 a9 63 3c 6b 6a 67 3b a0 83 89 bd
       -0.09385146 0.013895458 0.0035311233 -0.067145586
000020 2d 60 1a 3e 61 26 c7 bd 4b 26 53 be b0 3e 10 be
       0.1507575 -0.09724117 -0.20620076 -0.14086413
000030 08 af 07 be 05 7e 1a be 17 a5 ad bc 78 01 e1 bd
       -0.13250363 -0.15087135 -0.021196885 -0.10986608
000040 75 e4 8f 3e 49 b9 ba bc 2b 1c 96 be d0 c9 54 3e
       0.28103986 -0.022793429 -0.29318365 0.2078011
000050 33 5c 62 bd 58 3b 04 bd b2 2f 88 bd 10 49 ca bd
       -0.05526371 -0.032283157 -0.06649722 -0.09877217
000060 cc 10 8e be a6 cb 8e bd 7e 33 c1 bd d9 2f 5f be
       -0.2774719 -0.069724366 -0.094336495 -0.21795596
000070 5d 96 d5 bb 1d b2 34 3d 7e f5 88 be fe de 68 3c
       -0.006518169 0.044115175 -0.26749796 0.014213322
000080 80 76 36 be a7 dc 64 be c4 71 02 3e c9 29 b9 bd
       -0.17818642 -0.22349797 0.1273871 -0.09041173
000090 98 21 80 bd 31 b9 9b bc 2d 8a 3e be 4e b6 02 3e
       -0.062564075 -0.019009205 -0.18607397 0.12764856
0000a0 bf b8 38 3c 7f f7 33 bd e5 cf 3c bd b5 cb 58 be
       0.011274516 -0.043937203 -0.0460967 -0.21171458
0000b0 d9 e7 03 be 72 66 a9 bd d8 02 08 be 2e 57 bc bd
       -0.12881412 -0.08271493 -0.13282335 -0.09196316
0000c0 4e fa 93 be 6e cc ae bc b7 e3 5c bd 3b 47 85 bd
       -0.28901905 -0.021337714 -0.053928103 -0.06507727
0000d0 f6 4b 40 bd e8 c9 47 be d5 dd 60 bd 38 cf ed 3d
       -0.046947442 -0.19510615 -0.054899056 0.116117895
0000e0 6c a5 82 3d 74 ed 10 bd c0 cf 81 bd 36 2a a6 3d
       0.06379208 -0.035382703 -0.06338453 0.0811352
0000f0 ff a0 1c bd d4 e4 b8 be fc 17 2f bd 97 84 19 bd
       -0.038239475 -0.36112082 -0.042747483 -0.037479963
000100 6e 73 65 bd 4d 31 66 be 64 5f 03 be 7f 8a f2 3d
       -0.056018285 -0.22479744 -0.12829357 0.11842822
000110 de dd 91 bc 47 5d 50 be 0c 19 ce bd 8e 18 68 3d
       -0.01780599 -0.20348082 -0.10063371 0.056664042
000120 db 4d 75 bd ec 0e 2a 3e 56 92 1a bc 9a 04 8d 3d
       -0.059888702 0.16607255 -0.009434303 0.06885643
000130 06 73 ab 3d 91 47 d7 3d b2 9f 42 3e bf ef ff 3b
       0.08371548 0.10511697 0.19006231 0.0078105624
000140 68 87 c4 bd 4e 6d ab bd a1 f3 d7 bd e8 f4 20 be
       -0.09596139 -0.083704576 -0.105445154 -0.15718424
000150 af 76 95 bd 34 23 a3 bd 65 95 96 bd c1 a7 0a be
       -0.07298028 -0.07965699 -0.073527135 -0.13540556
000160 a6 22 ed bc 75 81 55 3d 01 f4 49 be e7 a9 a1 bd
       -0.028947186 0.052125413 -0.19721986 -0.078937344
000170 c5 84 38 bd ab c9 9f be d6 75 ec bd 33 6c 64 bd
       -0.045048494 -0.31208548 -0.11545913 -0.05576725
000180 6d 7f 71 3d ce a7 af bd 51 c4 26 bd 27 2c e6 3d
       0.058959413 -0.08576928 -0.040714566 0.1123889
000190 a4 e7 f9 bd a1 57 bc bd fb 12 fb bd 8d 15 32 3e
       -0.12202385 -0.091964014 -0.122594796 0.17391033
0001a0 72 54 b9 bd ba a5 fe 3c 34 8b 37 3c af 7d 02 bd
       -0.0904931 0.031084884 0.011202622 -0.031858142
0001b0 80 86 7c be 2c 32 3a 3e e6 3e a9 3d 7b f7 7f be
       -0.24660683 0.18183202 0.0826395 -0.2499675
0001c0 e7 01 d3 bc 2a 76 02 be f7 60 07 bd 2b 8b d2 3d
       -0.025757743 -0.12740389 -0.033051457 0.102804504
0001d0 7c 01 f4 3c 9d d1 6b bc e6 8c 76 be 33 a3 f6 be
       0.029785864 -0.014393237 -0.24077186 -0.48171386
0001e0 57 b1 ca be bf 8b d0 bd 4e 91 5d be cb de 21 3b
       -0.39588425 -0.101829045 -0.2163746 0.0024699445
0001f0 48 31 e1 bd 05 ff b7 bd 3f 93 c6 be b7 ef 1f 3e
       -0.10995728 -0.08984188 -0.38784215 0.15618788
000200 8a fb 80 bd b3 09 53 3e 21 03 87 bd 87 c2 0f 3a
       -0.06297977 0.20609169 -0.06592394 0.0005484004
000210 f6 b5 0a be ca 06 a5 bd 23 b0 40 bd 64 a4 75 3d
       -0.13545975 -0.080579355 -0.047042977 0.05997123
000220 62 c7 bd bd b1 d5 80 3d 40 9f 15 be 3e e0 b6 bd
       -0.09266545 0.062907584 -0.1461153 -0.089294896
000230 e5 a9 6e be 3e 80 a8 bd 27 a5 0a 3e 32 c9 f8 bb
       -0.23306997 -0.08227585 0.13539563 -0.0075923437
000240 f6 41 cb bd f9 a8 9f bd 30 49 22 3e 67 82 61 bd
       -0.099246904 -0.07795901 0.15848231 -0.055056002
000250 43 ae 58 be 4e 27 78 bd 2b d6 20 be ad 6b 9a bd
       -0.21160226 -0.06058436 -0.15706699 -0.07540069
000260 9c 25 33 bd 64 f9 d7 bd 30 62 25 bd aa 48 b7 bd
       -0.04373704 -0.10545614 -0.040376842 -0.089494064
000270 2e 98 02 be a2 ad 3c 3c 37 39 ee bd e1 05 b5 bc
       -0.12753364 0.011516007 -0.116320066 -0.02209753
000280 23 ab 28 bc 65 54 16 bd fc c9 99 bd 04 88 26 be
       -0.010294708 -0.03670158 -0.075092286 -0.16262823
000290 fa aa f2 bd 79 e1 6a bd c8 9e 49 3d e3 94 9b bd
       -0.118490174 -0.057343934 0.04922369 -0.07596757
0002a0 42 05 2a 3e 93 46 86 bd 81 f1 27 3c ce 42 65 be
       0.16603568 -0.0655643 0.01025045 -0.22388765
0002b0 ea b2 49 bb 97 d6 6c bd a5 03 9f bd 81 46 2c bd
       -0.0030776807 -0.057821836 -0.07764367 -0.042059425
0002c0 71 34 7c bd 04 06 0d bd bd 6b a4 3a 99 aa 0e be
       -0.06157345 -0.034429565 0.0012544316 -0.13932265
0002d0 8d 5d f2 bd e8 4e 4a be fe 8d 64 bd ee 45 38 bb
       -0.1183425 -0.19756663 -0.055799477 -0.0028117853
0002e0 cc ec c3 bd c3 99 d1 bd d3 60 d0 bd 70 ed 3e 3e
       -0.0956665 -0.10234406 -0.10174718 0.18645263
0002f0 f4 7f 0a be b9 13 e9 bd f0 d1 bb bd 48 a4 2d 3e
       -0.13525373 -0.11380715 -0.09170902 0.169572
000300 03 ca 92 bd 09 db 26 be 95 0b 4f bd 2b e5 ca 3c
       -0.07167437 -0.16294493 -0.050548155 0.024767479
000310 74 6d 8b bd 0f 87 cc bd f3 a4 b6 bd 19 8a 3f bc
       -0.06807986 -0.09986698 -0.0891818 -0.01169064

weight f4 [1, 200]
000000 bb b1 bf bf d0 37 38 3c ab 2b 3f 3e e9 7f 1d be
       -1.4976114 0.0112437755 0.18669002 -0.15380825
000010 3e d9 05 bc d7 c8 5a 3e 09 5d af 3e 27 f5 d6 bc
       -0.00816947 0.21365677 0.34250668 -0.026239945
000020 20 83 f8 3d 3a 5a bc 3c c1 95 b5 bf 7b af 9a bc
       0.12134385 0.022992242 -1.4186326 -0.018882504
000030 ba 70 9e bf 94 22 8d be 3e 77 26 bc f5 3f fd bb
       -1.2378151 -0.27565444 -0.0101602655 -0.0077285715
000040 8a ff 5e 3e 56 16 76 bc 64 0b 43 bf 1b f3 a0 be
       0.21777168 -0.015019974 -0.76189256 -0.31435475
000050 17 e1 ac 3c 88 f4 d5 bb 71 83 ee 3c b7 8e 9d 3c
       0.021103425 -0.0065293945 0.02911541 0.01923309
000060 28 34 b1 be b9 95 5d 3c 2d f4 74 3e ab 57 ea bd
       -0.34610105 0.013524466 0.2392127 -0.114425026
000070 ae bb 57 3f 25 3b b4 be 65 3c 42 3f cf 85 20 c0
       0.8427075 -0.35201374 0.75873405 -2.508167
000080 b7 c8 78 be fa b1 08 3b 7d c2 5c bf 79 9c 60 3c
       -0.24295317 0.0020858035 -0.86234266 0.013709181
000090 c7 98 42 3d 44 7e 72 3b 8c 8f 8d bc e1 57 8a be
       0.04750898 0.003700153 -0.017280363 -0.2702017
0000a0 ba ce 59 c0 6c 7f 28 3c 88 4e 14 3d 81 86 97 3e
       -3.4032426 0.010284286 0.036207706 0.29594806
0000b0 70 aa de bb 65 86 6d 3e 52 3f dc bf 1a 33 3e bc
       -0.00679522 0.23195799 -1.7206824 -0.011608863
0000c0 a2 f8 5e 3e be fa 1e c0 b5 36 18 bc d1 7c 02 3d
       0.21774533 -2.484054 -0.009290387 0.031857315
0000d0 1f d8 1d bd b8 0c a6 3e 0a 90 90 3f f5 64 00 3e
       -0.038536187 0.3243158 1.1293957 0.12538512
0000e0 c8 88 8b be 46 d1 9d 3c 63 e8 b6 3c 08 78 b4 3e
       -0.27252793 0.019264828 0.022327607 0.35247827
0000f0 08 84 b0 3f 26 fc 59 3e 54 01 dd 3e 48 bf c6 bc
       1.3790293 0.21287593 0.43165076 -0.024261132
000100 1f 7a 44 3c 66 ca 51 be 60 62 0d bc 69 93 94 3e
       0.011992007 -0.20487365 -0.008629411 0.29018715
000110 ae 08 ca be 7c 5c a6 3f 89 34 d1 b9 0f 4c 16 3f
       -0.39459747 1.2996974 -0.00039902728 0.58709806
000120 82 00 79 3d 74 f3 81 be 8e c7 21 be ff 75 46 3f
       0.0607915 -0.25381052 -0.1579878 0.775238
000130 37 a4 79 be 2f cc fb bd 94 c1 58 be 17 8c 62 3c
       -0.24379049 -0.12294804 -0.21167594 0.013827345
000140 ec c1 6e 3b 74 3a b2 3f ca 34 0a bc 80 b1 cd be
       0.0036431504 1.3924088 -0.008435437 -0.40174484
000150 ca 9e ef bf 1b 4f ae bc 71 10 e5 3e 89 bc c1 be
       -1.8720334 -0.021277955 0.44739106 -0.37839153
000160 91 1f bc 3c b3 a4 04 be 27 27 75 bf dc 39 95 3b
       0.02296427 -0.12953453 -0.95762867 0.0045540165
000170 a5 c8 da b9 75 8e a4 3b a8 aa 0d 3b 09 5b f2 bc
       -0.00041729692 0.005021865 0.0021616612 -0.029584425
000180 2d 69 1e be 2e d3 02 3d a9 f5 84 bd 75 03 9b 3f
       -0.15469809 0.031939678 -0.064921685 1.211043
000190 2b c1 eb 3a 73 28 cf 3d 38 ee 0b bd 7a 0d e2 3e
       0.0017986646 0.10115137 -0.03416273 0.44150907
0001a0 e0 0b 49 bc 1c d6 b7 be ea 5a 3b 3c c0 fe bb bf
       -0.012270898 -0.3590554 0.01143525 -1.4687119
0001b0 4a aa 95 bf 6d 34 87 be 5d e2 34 be 47 62 96 be
       -1.1692593 -0.26407185 -0.17664476 -0.29371855
0001c0 f1 97 2c bd 6c a7 07 be df 5f a9 bf 7f a1 87 be
       -0.04213709 -0.1324746 -1.3232383 -0.264904
0001d0 0e 61 49 bf 26 9b bd 3d a1 87 ce bf b9 ac c4 3f
       -0.7866372 0.09258108 -1.6135141 1.5365211
0001e0 6a b2 0a bf 30 49 ba bc ba eb 25 3f 9c 21 ce 3e
       -0.5417849 -0.022739977 0.64812815 0.40260017
0001f0 20 2d 95 bf 3e d2 af bc 1d 0f 03 bf 3a a1 56 bf
       -1.1654396 -0.021462556 -0.51194936 -0.8383976
000200 24 f8 8b be c7 fa 19 be 22 03 94 3d cf 0a cc 3e
       -0.27337754 -0.1503707 0.0722716 0.39851996
000210 66 7f 95 bc a9 4f 93 be ab d2 1b bc e7 e6 de be
       -0.018249225 -0.28771713 -0.009510676 -0.4353554
000220 f0 0f 42 bf a8 02 9e bf 6b 2a 9a 39 8b 64 34 bd
       -0.7580557 -1.2344561 0.00029404773 -0.044041198
000230 8f 32 ee 3a 4e 97 26 3d e1 92 96 3f 58 ef 64 3c
       0.0018173027 0.04067164 1.1763574 0.01397308
000240 1b 38 fe 3c 5c 34 75 bc 72 c8 88 3e 35 1d ae be
       0.031032613 -0.014966097 0.26715428 -0.34006658
000250 7a 51 83 bb cb 40 b5 bc ff 30 1e 3e 7e 74 76 3c
       -0.0040075155 -0.022125622 0.15448378 0.015042422
000260 16 e3 8d 3c 06 d5 de be c8 a5 27 3b 13 6d c4 3e
       0.017320197 -0.435219 0.002558099 0.38364467
000270 1a 33 78 3e 41 f7 d6 3f 0a be 3a bf ef d7 80 3e
       0.24238244 1.6794206 -0.72946227 0.25164744
000280 98 f0 ed 3c f2 36 a3 3c fa 0c a7 bc 84 29 67 3e
       0.029045388 0.01992366 -0.02039193 0.2257443
000290 09 b5 a7 bb 4e 2d 2e c0 08 92 27 3f 76 55 8b 3c
       -0.0051180166 -2.7215152 0.654572 0.017008524
0002a0 ea 30 64 be 2d dc 99 bc 6d 49 db bf 25 52 ce 3f
       -0.22284284 -0.018781746 -1.7131783 1.6118819
0002b0 2d e6 d8 bc 1e 06 43 3c f3 59 d9 be d2 5a f9 3c
       -0.026476944 0.011903314 -0.42451438 0.030438814
0002c0 0e 27 42 bc cd bd fb 3b fa 8c 36 c0 c7 07 11 3d
       -0.011850132 0.007682538 -2.8523545 0.035407808
0002d0 87 04 92 bc 54 e6 bf be 19 d1 08 3d 64 68 bc 3c
       -0.017824424 -0.37480414 0.033402536 0.022998996
0002e0 5d f4 0b c0 24 5f f3 bb 01 82 15 3d 2c 6b 8c be
       -2.1867898 -0.007427113 0.036500935 -0.27425516
0002f0 3d 95 41 bd c3 74 20 bf 97 93 e0 3b de 0c e1 3e
       -0.047261465 -0.62678164 0.0068535316 0.4395513
000300 d9 3f 70 bc ad 58 a9 3e 01 1a 14 bc 8a ae dc 3d
       -0.01466366 0.33075467 -0.009039403 0.10775478
000310 40 e8 12 3d bf 95 c4 3c 52 86 dc 3e b0 85 61 c0
       0.035866022 0.023997186 0.43071228 -3.5237846
