Vehicles/GenDisV_0_09_0/GenDisV_0_09_0_critic_target.pth (torch, 353438 bytes, 10 tensors)

weight f4 [200, 15]
000000 ab 03 ef 3d 6e a0 2a 3e 32 5b 6f bd 93 4e 9e bd
       0.116706215 0.16662762 -0.05843658 -0.077298306
000010 bd d8 55 3d e0 95 de 3e 1b c3 3a 3e 7a 18 a6 bf
       0.05220865 0.4347372 0.1823849 -1.297622
000020 ce 28 c1 bf 42 9a 9f 3e 02 ba 58 be 4e 44 1d 3f
       -1.5090578 0.31172377 -0.21164706 0.6143235
000030 93 fc 7e 3e 30 7e 99 3e 33 fc 02 bf 72 03 dc be
       0.24901037 0.29979086 -0.51166075 -0.4297138
000040 65 3b 84 bd 65 cb 65 3e 09 2e c4 3e ae 39 0d bc
       -0.06456641 0.2244087 0.38316372 -0.008619709
000050 74 0c 5e be e1 5c 82 bf 07 20 d2 bd c2 86 27 bf
       -0.21684438 -1.0184594 -0.10260015 -0.6544
000060 54 2d f1 3e 82 72 4a 3e fc 08 e1 bd d8 a4 c8 3e
       0.47104895 0.19770244 -0.10988042 0.39188266
000070 47 7e 91 bd d1 1e 32 3e 55 cd 9a 3d 11 84 63 3f
       -0.071041636 0.17394568 0.07558695 0.8887339
000080 43 55 99 3e 02 ea 88 be 38 10 a5 bf 50 b7 0a be
       0.29947862 -0.26741034 -1.2895575 -0.1354649
000090 82 9a 17 be d9 00 0a 3f d4 8b 1f bf 98 d9 df 3e
       -0.14805034 0.53907543 -0.62322736 0.43720698
0000a0 91 bf e6 bd f6 b7 71 bd 1c 87 19 be 23 60 2c 3e
       -0.11267007 -0.05901333 -0.14992946 0.16833548
0000b0 10 7a d6 3c 00 2c fa 3e 72 03 d7 3e 18 d0 48 be
       0.02618125 0.48861694 0.41994816 -0.19610631
0000c0 83 1b 1f 3f c6 cc 3b be 98 25 ff be 4d b6 a1 be
       0.62151355 -0.18339834 -0.4983337 -0.31584397
0000d0 47 b2 4e 3e ce e5 6c 3e 44 94 10 bf 1c 5c ad 3e
       0.20185195 0.23134539 -0.56476235 0.33859336
0000e0 5e ec 7d 3e df 99 3f bf 02 e6 d6 3e c8 22 b1 3d
       0.24797198 -0.74844164 0.41972357 0.08649212
0000f0 02 ed b0 3e c6 71 69 be d5 27 8f 3d 27 c1 83 3d
       0.34555823 -0.22797307 0.06990019 0.06433325
000100 1c c6 58 be 3d 39 73 3c f0 3d 8d bd fb 38 99 3d
       -0.21169323 0.01484519 -0.06896579 0.07481571
000110 5d fb 5e bf b0 1d 18 bf 08 e3 4b be 6e 1b ba 3e
       -0.871023 -0.594203 -0.19910824 0.36349052
000120 64 b7 18 3f 59 6e f8 3e 72 44 f0 3e b9 1d 98 be
       0.5965483 0.4852169 0.4692722 -0.29710177
000130 cc 68 94 be e3 b3 04 3f 9f 7e 0f 3f 5e b6 88 3e
       -0.28986204 0.51836985 0.56052583 0.26701635
000140 fc 20 fb bb 4c ca 2f bf 1f 97 0e c0 d5 58 c9 bf
       -0.007663844 -0.68668056 -2.2279737 -1.5730234
000150 fb fd 92 bf f3 6d 86 bf 99 cf ca bf b2 f1 c1 bf
       -1.1483759 -1.0502304 -1.5844604 -1.5151885
000160 17 15 e0 3e bd a5 bb be c0 d3 0e 3e ca 4e a7 be
       0.4376609 -0.36649886 0.13947964 -0.326773
000170 fd 63 5e 3f b3 61 e3 be 3e 88 7d bf b4 93 5f bf
       0.8687132 -0.44410476 -0.99036014 -0.8733475
000180 cf f7 9d be b4 7a 23 bf 15 dc 25 3e a6 c8 b2 3e
       -0.30853125 -0.63859105 0.16197236 0.34918708
000190 4a db 01 bb 23 44 18 3c 05 41 e9 3d 03 dd c9 3c
       -0.0019814544 0.009293589 0.113893546 0.02464152
0001a0 f8 6c 9d 3d 50 ba 1f bf 03 c4 7f bf 7b 72 5f bf
       0.076868 -0.62393665 -0.99908465 -0.8728406
0001b0 a4 b5 29 be 9b ad 13 be cc 2b 76 bd 3e cf d9 3e
       -0.16573197 -0.14421694 -0.06010036 0.42540926
0001c0 e2 57 40 3f bf 5e 64 be 6a 6a dd be 44 08 78 be
       0.751341 -0.22301768 -0.4324525 -0.24221903
0001d0 32 40 64 3e 3e a1 be 3d 38 b8 96 be da 32 b2 be
       0.22290114 0.09308098 -0.29437423 -0.34804422
0001e0 55 ab d1 3d bc fc 01 3d 1c 56 35 bf 71 21 ac 3d
       0.10237757 0.031735167 -0.7083452 0.08404816
0001f0 af 21 4c bd f5 38 29 bf b4 e8 66 be 1f 24 88 be
       -0.04983681 -0.66102535 -0.22549707 -0.26590058
000200 e9 34 95 be c1 5f 37 be 04 df c3 3d 03 3c cb be
       -0.2914193 -0.17907621 0.09564021 -0.39694223
000210 50 cf 95 3e 1e 14 48 3f 5a 4a 48 bc 5a 9e 46 3c
       0.2925973 0.78155696 -0.012224758 0.012122715
000220 93 04 62 bf 7f dc 95 bf 49 8f de be a9 d8 76 bc
       -0.8828823 -1.1707915 -0.43468693 -0.015066304
000230 d7 89 a9 3e 49 9d aa 3e e1 c4 ce 3e ef ef 2b 3d
       0.33112976 0.33323124 0.40384582 0.041976865
000240 a7 54 a7 bc 3c bd 52 be 8e d8 cb 3e da 7e ad bd
       -0.020426108 -0.2058 0.39813656 -0.08471461
000250 4f 24 60 3e 2b 58 19 be 15 88 2b 3f 85 47 c0 be
       0.2188885 -0.1497504 0.6700452 -0.37554565
000260 be e1 34 3d 68 42 b4 be d5 16 a0 bf 46 1e 1f c0
       0.044160597 -0.35206914 -1.2506968 -2.4862227
000270 c9 20 6e bf 25 cd b0 3e 55 38 a2 be b0 98 11 bd
       -0.93018776 0.34531513 -0.31683603 -0.035546005
000280 c0 e1 95 bd 96 8c 05 bf d7 e8 86 bf 34 50 70 3f
       -0.07318449 -0.5216764 -1.0539807 0.9387238
000290 ed de 33 3e 1e 10 b1 be 19 81 15 3f 1f ec 89 3f
       0.17565508 -0.3458261 0.5840011 1.0775183
0002a0 76 e6 91 3e ee 4d e5 bd e5 a9 92 bf 98 4b 92 bf
       0.2849614 -0.111965045 -1.1458098 -1.1429319
0002b0 1e 22 04 be 4d b6 af 3e ca c6 aa 3e b1 b0 a9 3d
       -0.1290364 0.34318772 0.3335479 0.08285654
0002c0 10 67 d2 bd e5 92 3b 3e 2e 58 84 3e 81 88 35 3e
       -0.10273564 0.18317755 0.25848526 0.17727853
0002d0 7f 5a d1 3e de 49 1e 3e 33 5e 14 3c a9 16 d9 3e
       0.40889356 0.15457866 0.009055662 0.424001
0002e0 62 f8 1b be 18 5e d7 3d 50 d3 6b be b9 c0 ea bf
       -0.1523147 0.10515994 -0.23029828 -1.8340064
0002f0 1f 1f 11 be 9c de 11 3f b8 69 5e bc 97 c1 d9 3e
       -0.14172028 0.569803 -0.01357501 0.4253051
000300 95 43 25 be 8e b0 0e be 66 3d 31 3d 8d 81 c4 bd
       -0.16139062 -0.13934538 0.043271445 -0.09595022
000310 3f ee 54 bf 52 64 c1 3e 70 5f e7 3e df 0d 7a 3e
       -0.83176035 0.3777185 0.4519 0.24419354
000320 ae 22 f9 bd ab bb 20 3b 94 db 99 bf d1 52 00 be
       -0.12164818 0.0024525921 -1.2020135 -0.12531592
000330 00 16 20 bd 5e 3a 81 3d 35 80 29 3d b3 99 12 be
       -0.03908348 0.06309961 0.041382033 -0.14316444
000340 50 cf 30 bf c8 e2 00 3e 7a cb 9e bf bf 5e a3 3f
       -0.69066334 0.1258651 -1.2405846 1.2763289
000350 f0 57 bd be 4c 39 b7 be 4f 4e 83 be ff a0 24 3f
       -0.36981153 -0.35785902 -0.25645682 0.6430816
000360 51 62 03 3f fb 43 f6 bc 3b 79 7a be 01 b7 73 be
       0.51321894 -0.030061712 -0.24460308 -0.23800279
000370 4f 87 18 bf 04 8d ec be 03 3c e4 be 1b 36 9c be
       -0.59581465 -0.46201336 -0.44577035 -0.3051003
000380 f9 be 07 bf 59 62 d7 be d6 9e 4a 3f 44 df 79 bc
       -0.53025776 -0.4206722 0.79148614 -0.015250985
000390 3f 81 16 3e b9 28 4a 3e 92 d2 91 3e da d3 8e 3e
       0.14697741 0.19742097 0.28480965 0.27896005
0003a0 72 53 9f be cb f4 a6 be 2f 7b c1 be d1 6e 98 3e
       -0.3111835 -0.32608637 -0.37789294 0.29772046
0003b0 16 d9 9f bd d0 dc 93 bd e1 05 47 3f 13 b4 2b 3f
       -0.07805078 -0.07219851 0.77743345 0.67071646
0003c0 f7 5f 99 3e 11 84 8f be 3b 4e 0f be 35 a7 b0 be
       0.29956028 -0.28030446 -0.13994686 -0.3450257
0003d0 66 ce 25 be 6f 38 6a be 74 3a 52 bd af 8d 95 3e
       -0.16192016 -0.2287309 -0.051325276 0.29209659
0003e0 d2 cf 7a be c0 d0 fd 3e e0 43 b6 3e 19 20 70 be
       -0.2449334 0.49573326 0.3559866 -0.23449744
0003f0 7a 47 ae be a4 d4 1a bf 68 64 23 bc 4d 2e 67 be
       -0.34038907 -0.60480714 -0.009972669 -0.22576256

bias f4 [200]
000000 63 48 97 3e 98 a5 ac 3e 26 cc 94 3d f7 78 ba bc
       0.29547414 0.33720088 0.07265501 -0.022762759
000010 e4 0e ff bb aa fa d4 3d c5 34 e7 3d 64 78 e2 3d
       -0.0077837575 0.10399373 0.11289362 0.11058119
000020 be 94 06 3f 22 be db 3b 8f ac 9c 3d 9f a3 05 bf
       0.5257071 0.006706015 0.076501004 -0.5220279
000030 c2 78 18 bd f3 6a 3f 3f 7d 50 96 be c8 39 af be
       -0.03722454 0.74772567 -0.29358283 -0.3422377
000040 66 8e 89 be 38 84 af bc 27 d7 ae 3e 1d e3 a0 be
       -0.26866454 -0.021425352 0.34148523 -0.31423274
000050 7b f1 7b 3e 3e 35 fd 3d 07 26 85 3e ba af 57 be
       0.24603836 0.12363671 0.26005575 -0.21063128
000060 2a dc 09 3d 9d 69 5d 3e f8 bd ee 3e 29 9d cd bd
       0.03365723 0.2162232 0.4662931 -0.100397415
000070 e8 53 b8 3e 5d 52 98 be bc 76 87 3e b1 67 c9 bd
       0.36001515 -0.29750338 0.26457775 -0.09834231
000080 06 36 23 3f 7d 70 8e be 9a 7d 83 3e b1 fe c0 be
       0.6375431 -0.27820197 0.25681764 -0.37694314
000090 70 f1 ad be f7 e9 b9 3d 83 e7 38 be 74 0a 0d be
       -0.33973265 0.090778284 -0.18057065 -0.13773519
0000a0 26 6e 3c 3e 90 60 83 bd 9c ca 8e bd eb fc ab be
       0.18401393 -0.06414902 -0.069722384 -0.335914
0000b0 85 23 ab be 81 58 82 be 45 a2 bd 3e 48 52 64 3d
       -0.33425537 -0.25458148 0.37037864 0.055742532
0000c0 5b 49 a9 be 42 2b a3 bd ff 1b ec be 13 3a a6 3a
       -0.33063778 -0.07967235 -0.4611511 0.0012682102
0000d0 d6 c7 3a 3f a7 52 88 3e 0d 33 dc 3d f0 16 ff bd
       0.72961175 0.2662556 0.10751925 -0.12455547
0000e0 da 1c 02 3d 2d b1 a1 3d 10 01 03 be 52 18 85 3d
       0.031765796 0.07895122 -0.12793374 0.06498779
0000f0 a4 3a f2 3e ab ff d9 3d 03 ec 3e 3e 20 9c 8b 3e
       0.47310364 0.10644468 0.18644719 0.2726755
000100 8b 74 81 be e2 b5 8e be 23 fe 78 bd 03 a1 20 bd
       -0.25284228 -0.2787314 -0.06078924 -0.039216053
000110 be b3 09 3c 49 8e 21 3e 4c 70 c5 3d 98 9f bb 3e
       0.00840467 0.15776934 0.096405596 0.36645198
000120 3e 09 04 3f fd d9 68 3e 5c 6c 88 3d c6 b1 d1 bd
       0.515766 0.22739406 0.06661293 -0.10238986
000130 61 86 e8 bd a1 6e ca bd 71 18 0f bf 26 21 9b 3d
       -0.11353756 -0.09884382 -0.5589667 0.07574682
000140 c6 a5 02 3f ce 70 ba 3e 03 91 19 3e 20 0c 07 be
       0.510342 0.36414188 0.14996724 -0.13188219
000150 1e e4 74 be 0a 5b b8 be af 2e f6 bd e0 b4 a2 bd
       -0.23915145 -0.36006957 -0.12020623 -0.079446554
000160 b3 43 ec be 22 1c c8 3e 2c 28 d2 3e 6d 4d 96 bd
       -0.461454 0.39083964 0.41046274 -0.073389865
000170 26 e1 a0 3e da 88 ce 3e 72 3b 60 3e 41 5c 84 3e
       0.31421775 0.40338784 0.21897677 0.25851634
000180 53 2d 83 be e1 7f 53 3d 7a 62 59 be 9a 7a e4 be
       -0.25620517 0.051635627 -0.21228972 -0.44624788
000190 e2 56 b5 be 6b 7f de 3d 16 88 b0 bd 0c bf 74 be
       -0.3541785 0.10864147 -0.08619706 -0.23901004
0001a0 5d 05 39 be 54 87 fc be 4c 9d 7c be e9 88 c9 bd
       -0.18068452 -0.49321997 -0.24669379 -0.09840567
0001b0 75 f4 e2 be ff eb 9c 3d 51 b2 73 3e e2 94 2f 3e
       -0.4432713 0.076622 0.23798491 0.17146638
0001c0 17 f9 4e bd fd ed 2f 3e c9 b9 1c bf 25 e4 91 3e
       -0.05053052 0.17180629 -0.61220986 0.28494373
0001d0 6d 47 74 3e 2b e7 2a 3e 5a 09 59 be df 0c 9f 3e
       0.23855372 0.16689746 -0.21194974 0.31064507
0001e0 b8 20 b0 be 8d 23 67 3e da c8 e7 3b 34 e4 07 bf
       -0.34399962 0.22572155 0.007073504 -0.53082585
0001f0 42 af 7f 3e fd ad 72 3c ef 4d 1e be 10 e1 0b bf
       0.249692 0.01481199 -0.15459417 -0.54640293
000200 b0 04 08 3d 35 a5 9c be 5c 41 ff be 14 62 ad 3e
       0.033207595 -0.30594793 -0.49854553 0.3386389
000210 73 c9 19 3f e3 8f 91 3e 2a 13 8e 3e b3 b1 d2 bd
       0.6007301 0.2843009 0.27748996 -0.102878
000220 70 dd 2c 3e cf f3 13 bd 1b ba 68 be c3 f8 38 3e
       0.16881347 -0.036121186 -0.22727244 0.18063645
000230 05 ae 5e 3e 87 5c ce 3d f2 26 ad 3e 94 d8 82 3d
       0.2174607 0.10076242 0.33818775 0.06388965
000240 8e 9e 10 3f f1 4f ce 3d d6 8a c6 3d a5 19 d7 3d
       0.56491935 0.10073841 0.096944496 0.10502938
000250 a7 7b 43 3e 54 0c 57 3d d2 3e 17 3e b4 6f 0a bd
       0.19090138 0.05250199 0.14770058 -0.033797935
000260 66 31 04 3d 50 33 33 3e c0 46 f6 3c c6 8c 24 3e
       0.032273673 0.17500043 0.030063033 0.16069326
000270 f3 5e ff be a3 c9 6b bb e0 44 46 bf 5d 7a 1a bd
       -0.49877128 -0.003597834 -0.77448845 -0.03771435
000280 46 4a 06 bf 6d 17 66 be a9 78 7b 3d d5 ed f2 be
       -0.5245708 -0.22469874 0.061394367 -0.47447076
000290 d0 0b 64 3e a9 ad bb 3b a0 cd d7 3e 88 07 ea bd
       0.22270131 0.005727489 0.42149067 -0.11427218
0002a0 ca 5e 8b 3e 71 83 82 3d 99 b2 b7 bd cc 4c d2 3e
       0.27220756 0.06372727 -0.08969612 0.41074216
0002b0 fe 60 d0 3e e9 f0 25 bf 3c 87 9a 3e 79 23 45 be
       0.40699 -0.64820725 0.301813 -0.19251813
0002c0 42 a4 e9 3e 2c ca 11 bf 77 66 0f 3f 51 1a f8 3d
       0.4563313 -0.56949115 0.56015724 0.121143945
0002d0 22 f4 0e bf d9 ef 0f 3f a1 fa 1a bf 4f f3 03 bb
       -0.5584127 0.56225353 -0.6053868 -0.0020134037
0002e0 82 9b d6 bd b7 bc 81 be ed 28 89 be 7a e5 87 3d
       -0.104788795 -0.2533929 -0.26789036 0.06635566
0002f0 d0 08 09 bf 18 4b 11 be 6d 12 c0 bd e8 9c ba bc
       -0.5352907 -0.14188802 -0.093785144 -0.022779897
000300 13 80 85 3e 46 d7 64 3e 41 bc 74 3e 07 72 2f bf
       0.26074275 0.22347745 0.23899938 -0.68533367
000310 a4 0a 9a 3e 19 c8 11 3e 4f 67 be 3c b6 1c 80 bd
       0.30086243 0.14236487 0.02324262 -0.06255476

weight f4 [200, 200]
000000 7a 9c aa 3f cb d7 21 3f 20 d6 3a 3f c7 81 c8 be
       1.3329003 0.632199 0.7298298 -0.39161512
000010 12 88 ca bf 21 94 83 3e 31 83 7d bf 78 42 6e 3e
       -1.5822775 0.2569895 -0.9902831 0.23267543
000020 15 51 ba 3e d9 54 8b 3e 42 ca 08 bf 8a 97 dc bf
       0.36389986 0.2721317 -0.5343362 -1.7233746
000030 da 25 ee 3e 99 3f e7 bd 9e 0e 3d 3f 33 d1 67 bd
       0.46513253 -0.11291427 0.7385043 -0.056595992
000040 3f 5d be 3e 2d 8b 20 c0 c2 bd dd 3c f3 ab 84 3f
       0.37180516 -2.5084946 0.027068023 1.0364975
000050 b1 be ad bf df 39 88 3f 9a 3f c6 3d d7 38 7e 3f
       -1.3573819 1.0642661 0.096801 0.9930548
000060 7c e0 73 be 71 f5 78 bf 1c 3a 18 bf 5d 59 09 bd
       -0.23816103 -0.97249514 -0.5946367 -0.03353249
000070 2e d1 24 bc 32 de 3c 3f ba e1 cc 3a 7a 49 29 3f
       -0.010059638 0.73776543 0.0015631237 0.6612774
000080 a5 11 dd 3d 4d 5d fd bc 1e 2a f9 3d bd a4 fd 3e
       0.10794381 -0.030928278 0.12166236 0.49539748
000090 b9 f4 07 bf ef 47 0c bf 9a 64 0d be fd c7 22 bf
       -0.5310779 -0.5479726 -0.13807908 -0.6358641
0000a0 78 f8 1d 3e 05 7d f4 3e 76 11 23 bf bd 70 a5 3e
       0.15426815 0.47751632 -0.6369852 0.32312575
0000b0 14 fc a6 bd ff f8 0b 3f 87 f6 8f bf 23 f7 b7 bf
       -0.08153549 0.5467681 -1.1247109 -1.4372295
0000c0 c5 51 9b 3e dc e4 19 3f 06 59 d8 bc 07 5b 6a 3e
       0.30335823 0.60114837 -0.026409637 0.22886287
0000d0 e9 17 8d bf c2 9d 61 bd 2e c2 16 bf bb 1e ee bc
       -1.1022922 -0.05508209 -0.58890045 -0.029067388
0000e0 4c 96 18 bd 8b dc f9 3d 38 0f 37 3f 08 4b 3d bf
       -0.03725271 0.12200268 0.71507597 -0.73942614
0000f0 a0 b2 32 3e 54 12 dd 3e 2e d4 5e 3e 57 d0 d6 3d
       0.17450953 0.43178046 0.21760628 0.104889564
000100 6e 3d 29 3e bf 72 31 3f 0d 3d 9e be bf 79 12 bd
       0.1652734 0.69315714 -0.30905953 -0.035760637
000110 48 04 b5 bf b1 f0 98 be af db 9d be af ce 31 3f
       -1.4141932 -0.29871133 -0.30831668 0.69456
000120 92 bd 9b be 32 53 3e 3e 45 6e 0b c0 ad 30 07 be
       -0.30418068 0.18586424 -2.1786053 -0.13202162
000130 1b a8 bb 3f 53 54 66 be f4 bb 8a 3e 5d 64 7f bd
       1.4660677 -0.22493105 0.27096522 -0.062351573
000140 8d 7a 03 bd b8 df d7 3f 39 87 42 3f d7 e5 38 be
       -0.032099295 1.6865149 0.75987583 -0.18056427
000150 7f d5 d9 bf e8 c5 f7 3e 1f 7d c4 3c ab cd 9b 3f
       -1.7018279 0.48393178 0.023985444 1.217214
000160 27 1e 29 3f 9d 4d 66 3d 1c f5 f7 bf 75 a5 ba 3e
       0.66061634 0.05622636 -1.9371676 0.3645436
000170 37 54 2b bf 70 3f 05 bf f5 6c d3 bf 46 a0 90 bf
       -0.66925377 -0.5204992 -1.6517626 -1.1298912
000180 15 12 6b bc 7d 5f 43 3e 89 1a 0b be 31 3a a4 be
       -0.014347573 0.19079395 -0.13584341 -0.32075647
000190 40 fe 9e 3e 7e 6b a4 3f 82 72 a8 3e 72 d9 af bd
       0.31053352 1.2845304 0.32899863 -0.08586396
0001a0 d0 c7 e5 3e 94 39 8a 3d e8 2a 0b 3e 8d 76 3a 3f
       0.44879007 0.067492634 0.13590586 0.72837144
0001b0 57 a4 b5 3f 30 30 a3 bd e2 53 06 bd 39 8c f5 bc
       1.4190778 -0.079681754 -0.03279484 -0.02997409
0001c0 8e f5 5a 3f 70 ca 72 be cc d5 f0 3d 84 9d 2e c0
       0.85530937 -0.23710036 0.117595285 -2.728364
0001d0 69 6f 45 3e d3 8f 6c be 2e d4 28 3e 75 a4 e5 3d
       0.19280781 -0.2310174 0.1648719 0.11213008
0001e0 71 59 ce bd 0e 60 ad 3e c3 e1 d4 3e 5c 35 de bd
       -0.10075653 0.33862346 0.41578493 -0.10850021
0001f0 19 1d d0 3c c4 09 56 3f 2e a5 8c be 18 90 6c bd
       0.0254045 0.8360865 -0.27469772 -0.057754606
000200 2d 12 b6 be 87 d5 97 3f b7 c7 25 3f 07 3c ff be
       -0.35560742 1.1862038 0.64757866 -0.49850485
000210 90 48 a1 be 21 3a 33 be 8a 1e cc 3c d2 7e 9a be
       -0.31500673 -0.17502643 0.024916906 -0.3017488
000220 bb 7c 14 bf cf 9d 1a bf 26 07 9c bf b0 d8 ce be
       -0.58002824 -0.60397047 -1.2189682 -0.40399694
000230 ab e8 f4 bf 40 e9 0c bf ed 9e 1f bf f3 fb 81 bf
       -1.9133505 -0.5504341 -0.62351876 -1.0155014
000240 c1 64 b1 be d2 ef 5c 3e 95 40 c1 bf 22 0d 9c be
       -0.34647182 0.21575859 -1.5097834 -0.3047877
000250 b9 03 28 c0 03 40 78 3f c4 1c cf be bc a9 df be
       -2.6252272 0.96972674 -0.40451634 -0.43684185
000260 67 6c 0b be f8 bd 3c bd 1d a3 27 3f 34 60 bc bf
       -0.13615571 -0.046079606 0.65483266 -1.4716859
000270 9a 33 54 3d 8b bb d9 bf 95 8e 99 bf 5f be 72 be
       0.051807024 -1.7010359 -1.1996638 -0.23705433
000280 b7 50 7f 3e aa d5 97 be 62 5f f7 3e 82 9d a0 3d
       0.24933134 -0.296552 0.4831496 0.07842542
000290 d9 eb d0 3e 3c a9 af 3e e7 b5 89 3e 18 9d 93 3c
       0.40804937 0.34308803 0.26896593 0.018019244
0002a0 11 8e 8a bf c7 58 84 bf 6b 91 62 3f 0b 38 ac 3e
       -1.0824605 -1.0339593 0.8850314 0.33636507
0002b0 e4 43 b8 3d c4 4e 25 bf fd 28 84 bf 4f c4 99 3e
       0.08997324 -0.6457331 -1.0325009 0.30032584
0002c0 d3 b6 3a 3d fd a1 b8 3e 5b 89 db be 54 5d 7c bf
       0.04558451 0.36061087 -0.4287823 -0.9857991
0002d0 72 a3 76 be 07 88 80 3e 0e 8b 23 3f 35 a3 a2 3e
       -0.24085787 0.2510378 0.63884056 0.31765142
0002e0 8d 22 c5 bc c6 26 d4 3e 27 c4 ba 3a d6 fe 9d bf
       -0.024064327 0.41435832 0.0014249132 -1.2343395
0002f0 5e 91 68 3f 70 59 15 c0 c5 59 e7 bd 34 2d 32 3d
       0.9084681 -2.3335838 -0.11296419 0.04350014
000300 39 89 c2 bf fa 42 88 be 97 97 81 bf 99 e8 55 be
       -1.5198127 -0.266136 -1.0124387 -0.2088951
000310 6e 36 c5 be 79 1b d3 3e d4 2d f4 be 88 93 98 bf
       -0.3851809 0.41231897 -0.47691214 -1.1920023
000320 68 e0 1a bf 1c 80 90 bb bd 3b 9e bb 52 11 8d 3d
       -0.60498667 -0.004409803 -0.0048288987 0.06888069
000330 04 a6 fd 3d ab d3 3d 3f 3a c7 17 3e 6c 3f ba bd
       0.123851806 0.74151105 0.14822093 -0.09094128
000340 c1 8a ca 3d 3b 41 e0 3d a3 27 ab 3c c0 f7 ce 3d
       0.098897465 0.10949942 0.020892924 0.10105848
000350 15 fe 0a 3e d4 54 be 3d 07 fb 79 3f fe 73 8d 3e
       0.13573487 0.092935234 0.9764866 0.27627558
000360 71 38 06 3e e6 d8 c3 3d e1 4c 75 3e ac 9c dd 3d
       0.13107468 0.095628545 0.23955108 0.108208984
000370 82 db 4b be 0c d7 bd 3c 4e 2e cc 3e c4 c6 c1 3e
       -0.19907954 0.023173831 0.39879078 0.3784696
000380 8d a1 ea be ab 71 97 3e 8d 59 cf 3d bb 65 63 3d
       -0.45826378 0.2957891 0.10124502 0.05551694
000390 eb 17 d8 3e 2e f3 9a 3e ed a3 59 3e 0a 46 7b bf
       0.42205748 0.30263656 0.21253939 -0.98153746
0003a0 64 10 79 3e 87 c6 37 bc 8f f9 d7 3e 25 6f 8f 3e
       0.24322659 -0.011216766 0.42182586 0.28014484
0003b0 76 a7 26 3e bd 53 42 be af 0a c2 3e a9 03 92 3e
       0.16274819 -0.18977256 0.37898776 0.28518417
0003c0 16 21 a9 3e ea 86 8f 3d 77 1c d0 3d 9f 3e 27 3e
       0.33033055 0.07008155 0.10161679 0.16332482
0003d0 36 57 6b 3e 8b f2 89 3e fe 7d fe 3e 2a 46 84 3e
       0.22982487 0.26942858 0.497055 0.2583478
0003e0 3f c2 0a 3e 90 0c f0 bc df 50 49 3e c1 2f 07 3c
       0.13550662 -0.029302865 0.19659756 0.0082511315
0003f0 77 1e d1 3e 41 52 43 3e 05 2a e5 3e 6f 4d f5 3c
       0.40843555 0.19074346 0.4475862 0.02994415

bias f4 [200]
000000 9b ce 98 be 9a fc 2b 3f f3 a9 e4 bd 82 0a 06 be
       -0.29845127 0.67182314 -0.11165228 -0.13089946
000010 32 ec b8 be 4b 9f 19 be cc f9 24 3f 6f ad a7 bd
       -0.36117703 -0.15002172 0.6444366 -0.08187377
000020 c1 5f c8 bc e8 ce b3 bc bc 2a 8a 3c f4 21 e8 be
       -0.024459722 -0.021949247 0.01686608 -0.45338404
000030 e4 c0 f1 bd 81 c1 00 3e d1 c4 2d be 27 dc a4 bd
       -0.11804369 0.12573816 -0.16969611 -0.08049803
000040 0a ff 51 bd 86 9a 2e be 6e 4b aa 3e 02 e0 4f bd
       -0.051268615 -0.17051134 0.33260673 -0.05075074
000050 49 10 4c bd 96 eb 3a 3e 52 31 8b 3e be 7b 2e be
       -0.04982022 0.18253931 0.27186066 -0.17039391
000060 e1 3f 34 bd 45 65 11 be 70 48 bf be a4 74 f6 bc
       -0.044006232 -0.14198788 -0.37359953 -0.030084915
000070 f8 b7 35 bc e8 40 3a bd c8 e9 df be f0 bc 33 bd
       -0.011091225 -0.045472056 -0.43733048 -0.043881357
000080 e8 21 3b bd e0 bc 39 bd 64 0e 86 3c 31 76 44 bb
       -0.045686632 -0.04534614 0.016364284 -0.0029977674
000090 3d 93 ca 3e 55 75 18 3d 3a 00 dd bd 1c c8 02 3c
       0.3956546 0.03722127 -0.10791059 0.00798228
0000a0 ee 71 d0 3c be 48 1e bd e2 31 fe 3d 08 64 ad be
       0.02544495 -0.03864359 0.12411858 -0.3386538
0000b0 ad 7c ee 3d 1a c8 8a be e2 dc 55 bd 34 ec ac 3e
       0.11644874 -0.2710579 -0.052212603 0.3377396
0000c0 93 15 73 be 37 f2 3d 3c 3c fa 47 be 80 5b 3f bc
       -0.23738699 0.011593393 -0.1952905 -0.01167953
0000d0 a5 ee 03 be f8 ab 4c 3d e8 e9 08 be 15 9c f9 bd
       -0.12884004 0.04996869 -0.13370478 -0.121879734
0000e0 dc 8b f2 bd 42 ff ae 3e a9 be d6 3c f9 77 ce 3e
       -0.11843082 0.3417912 0.02621396 0.40325907
0000f0 6e 77 97 bd f7 93 22 bd ff 1f aa bd 7f 90 2a bd
       -0.07395826 -0.03969189 -0.08306884 -0.04164171
000100 69 67 0d 3f a1 fa 4f be 0d 54 37 3f 54 c1 03 3c
       0.55235916 -0.20310451 0.71612626 0.0080416985
000110 75 fa c0 be 87 cf a9 bd dd d9 d7 be b9 59 9c be
       -0.37691084 -0.08291536 -0.42158404 -0.30537203
000120 af 72 02 be 7f 74 91 3e cd a2 89 bd e0 12 b4 bc
       -0.12739061 0.28409192 -0.06720505 -0.021981657
000130 62 88 8a be 07 85 c2 bd 2e 60 1e bc e9 a3 4f bd
       -0.27057177 -0.09498029 -0.009666486 -0.050693426
000140 53 da db bd 41 9e 48 bc b2 41 01 be c3 45 83 3e
       -0.107350014 -0.012244762 -0.12622717 0.2563916
000150 61 e2 d2 3c 47 26 a7 bd 01 dc c5 bd 10 a2 38 bd
       0.025742711 -0.08161598 -0.09661103 -0.04507643
000160 81 42 50 3b e2 01 d4 bd 3b 20 6c 3d 35 da 66 be
       0.003177792 -0.103519216 0.057647925 -0.22544177
000170 64 ea 2e 3f f4 bc 24 3f 05 a3 8d bd 7c 31 83 be
       0.683264 0.6435082 -0.06915859 -0.2562369
000180 4b ea cb be b6 bd 1a bd b3 2f ef bd ec 35 0e be
       -0.3982719 -0.03777858 -0.1167902 -0.13887757
000190 cb ac e6 bc 5a 27 57 bd 4a 43 50 bc c7 63 e7 be
       -0.028158566 -0.052527763 -0.012711355 -0.45193312
0001a0 fa ac cd be c7 01 77 bd 55 30 be be f9 a9 22 3f
       -0.40171033 -0.06030443 -0.3714625 0.6354061
0001b0 bd 9f bd be 65 d9 3c 3f d7 db a2 bd fd 90 8b be
       -0.37035933 0.7376922 -0.079520874 -0.27259055
0001c0 d2 cd 51 bd ee ae 14 bd a1 f8 a9 be ba 8d 54 bb
       -0.051221676 -0.03629964 -0.331975 -0.0032433108
0001d0 83 75 30 3f b8 0c ef be 39 5a 4e bd 0c 63 d7 3c
       0.6892931 -0.4668939 -0.05037901 0.026292346
0001e0 d4 d5 c3 bd 41 ca 4e be 73 63 ad bd 32 2f 54 bd
       -0.09562269 -0.20194341 -0.08466234 -0.05180282
0001f0 3e 7f 26 3f 66 e6 94 bc b5 a4 9a 3c 9f 67 a9 bd
       0.65037906 -0.018176269 0.018877367 -0.08271717
000200 36 7a 9f bd 83 62 6c bd c0 f1 e4 3e 45 ec 86 bc
       -0.07786982 -0.057711136 0.4471569 -0.016470084
000210 cd 81 02 be a6 f1 f0 bd b3 28 ec bc cc 09 0e 3d
       -0.12744828 -0.11764841 -0.028828 0.03467731
000220 7e f5 15 be e2 bd 12 3f 46 77 26 3d 72 de 55 bb
       -0.14644429 0.5732099 0.04064109 -0.0032633808
000230 71 7c 24 bd cb 8d 67 bd 9c 7f 0c 3c c1 35 4f bd
       -0.04015774 -0.05653171 0.008575346 -0.050588373
000240 5a 14 92 bd b5 ba 8e bd f4 7a a6 3e 14 cd 2b 3f
       -0.07132788 -0.06969205 0.3251568 0.671098
000250 1b 2b be be 2a 41 d4 bc 9a 79 5b bd 3f 0b bb 3c
       -0.37142262 -0.025909979 -0.053582765 0.022832511
000260 78 9f 37 bd 52 9d 57 be 0e c0 c8 be 1d 1f f6 3e
       -0.044829816 -0.21056107 -0.39209026 0.48070613
000270 10 9b b2 3e 51 c5 48 bc 23 a3 96 bd 6d 86 88 bd
       0.34883928 -0.012254075 -0.073553346 -0.06666265
000280 97 0c 1a 3f 11 ec cd bd e0 f9 4c 3c 4b 70 b9 3e
       0.6017546 -0.10054792 0.012510747 0.36218485
000290 fe 86 23 bf 76 98 b7 bd 26 9c 97 bd 9e cb 90 bd
       -0.63877857 -0.089646265 -0.0740283 -0.07070087
0002a0 6d f2 ba be 29 0b c4 bd 8f 13 a4 bc d6 a7 0c 3e
       -0.3651308 -0.09572441 -0.020028858 0.137359
0002b0 8e cb 56 3c 5a 07 d4 bc 30 d7 b6 be da 1f 44 be
       0.013110055 -0.025882412 -0.3571105 -0.19152775
0002c0 31 65 cb bd 88 e5 a7 3e be 75 b9 be 2d 8d 8a bc
       -0.0993141 0.32792306 -0.36222643 -0.016913021
0002d0 52 eb 83 be c8 70 be bc 04 e2 b2 be 4d 9d 74 3d
       -0.25765473 -0.023247138 -0.3493806 0.059720326
0002e0 11 ed d1 3b 8c f2 87 be 23 be 76 be 77 28 b9 be
       0.0064064343 -0.26552236 -0.24095969 -0.36163685
0002f0 37 ee 4e 3f a2 ff 5d 3b 42 7e 79 3a f0 20 b4 bd
       0.80832237 0.0033874293 0.000951741 -0.08795345
000300 13 29 e1 bd 96 07 a1 be 9e 41 04 3f 66 e6 ad 3c
       -0.109941624 -0.314511 0.51662624 0.021228027
000310 4c 3a 2a be 57 1a 8f be 88 f7 b3 bd ea 5f 52 ba
       -0.16623801 -0.27949783 -0.08787447 -0.00080251566

weight f4 [1, 200]
000000 cc 16 34 c0 cb 10 7b 3e f4 32 fc bb 84 39 85 bf
       -2.8138914 0.24518125 -0.007696504 -1.0408177
000010 82 42 3f c0 7a 72 42 bf a7 6b a9 3e 24 7e 83 bd
       -2.9884343 -0.7595593 0.33089945 -0.06420544
000020 92 68 65 3d dc d0 8c 3c 73 bb f8 bd 83 77 ca bf
       0.05600793 0.017189436 -0.12145128 -1.5817722
000030 77 f1 0c c0 96 4d da bf 0c f2 c8 bf 9d 01 20 3d
       -2.2022378 -1.7054927 -1.5698867 0.03906404
000040 a0 6a 4e 3c c3 a0 b3 bf 44 cc 3c 3f 28 0e 03 c0
       0.012598664 -1.4033436 0.73749185 -2.047739
000050 b8 04 bd bc 2f bc 30 3f b1 48 72 3f cb 13 32 bf
       -0.02307354 0.69037145 0.9464217 -0.6956145
000060 8b 54 b0 bf e7 ed b2 bf 26 6b f2 bf 3c 96 0f 39
       -1.37758 -1.3978852 -1.8938949 0.0001369351
000070 4c 44 06 3d 1b 04 79 3a de 3a 1c c0 52 03 00 3c
       0.032779977 0.0009499208 -2.441093 0.007813292
000080 0a 8c e0 3c 43 ac e7 3c b5 23 0a 3d 27 21 38 3d
       0.027410526 0.028280383 0.03372546 0.04495349
000090 71 64 65 3f c2 07 5f 3c 99 41 c3 bb 62 07 51 bb
       0.89606386 0.013612689 -0.0059587476 -0.003189527
0000a0 f5 bf 98 3f 84 d5 0f bc c9 18 a1 3f 2e a9 e1 bf
       1.1933581 -0.008778933 1.2585689 -1.7629755
0000b0 45 0a 1d 40 a9 c4 96 bf 16 c2 1f bc ec af 59 3f
       2.4537518 -1.1778766 -0.009750864 0.8503406
0000c0 de fa 00 c0 d4 c7 84 3c 9d 96 83 bf ad 4b 92 c0
       -2.0153117 0.016208567 -1.0280339 -4.571738
0000d0 62 25 e5 35 49 db 8e 3c 36 ba d8 bf 71 2b 4e bf
       1.7072709e-06 0.017438548 -1.6931827 -0.80535036
0000e0 bc 58 fa 3c 06 2e 58 3f e4 6c 89 bc 1d 2d 8f 3f
       0.03055989 0.84445226 -0.016775556 1.1185642
0000f0 5d f0 0d bd 27 5b bf bc 2d 08 9c 3c f7 cc a5 3c
       -0.034653056 -0.023358895 0.019046867 0.020239336
000100 c8 20 a0 3e ff f2 3d c0 0a 23 96 3e 24 d1 0a 3d
       0.3127501 -2.9679563 0.29323608 0.03389086
000110 12 29 9a c0 3d 3b 01 bc a9 c6 7f bf 6c 44 52 c0
       -4.8175135 -0.007887659 -0.99912506 -3.2854261
000120 9c 7e 84 bf 38 da 1c 40 19 54 db bc 98 00 b9 bc
       -1.0351138 2.450819 -0.0267735 -0.022583291
000130 2b 32 28 bf 91 ae 95 bf 1f 90 b5 3b 46 80 98 bb
       -0.6570155 -1.1693898 0.005540862 -0.0046539633
000140 23 43 33 c0 dc 33 09 3c 52 66 fb be 54 40 8e 3f
       -2.8009727 0.008374181 -0.49101502 1.1113381
000150 81 3e c0 3c 43 c4 e3 bd dc a4 72 3b 60 ae b1 bc
       0.023467304 -0.11121418 0.0037024533 -0.021689594
000160 b2 4f 59 bc ad dc 1c 3b da cc 50 c0 81 d0 5a c0
       -0.01326363 0.0023935244 -3.2625031 -3.418976
000170 5d ca ac 3e 9c 31 8c 3f d6 4d 10 bb 25 3c 58 bf
       0.3374814 1.095264 -0.002201905 -0.84466773
000180 ec 5c 9f bf 1b 04 f9 3b ce db a5 be a6 fb 84 bf
       -1.2450233 0.0075993664 -0.3239426 -1.0389297
000190 c3 9d f8 3c a3 b4 e3 3c 69 f4 cc 3c 38 80 c5 bf
       0.030348664 0.027796095 0.025018888 -1.5429754
0001a0 89 a7 1d c0 69 bb 49 40 ab 3a fe bf bd 6c d6 3e
       -2.4633505 3.1520636 -1.9861654 0.41879836
0001b0 8a 65 de bf 02 e5 a8 3e 79 30 56 bd 38 7c ee bf
       -1.7374737 0.3298722 -0.05229232 -1.8631659
0001c0 41 0c 58 bc d3 ba e9 3b 91 58 ab bf 37 b1 33 3c
       -0.013186515 0.007132867 -1.3386403 0.010967544
0001d0 76 4d 4d 3f cc 60 f8 bf fd 49 8a 3c f1 83 0d c0
       0.8019632 -1.940454 0.016880983 -2.211178
0001e0 9c 06 b7 bf 2a bb 39 c0 7b a1 8c bf 8c 71 8c 3c
       -1.4298892 -2.9020486 -1.098678 0.017143987
0001f0 0d 42 a8 3e b9 ae db bc 73 0f eb 3c 77 4d b4 3c
       0.32862893 -0.026816713 0.02869389 0.022009594
000200 e9 91 52 bb 1e 43 94 ba 59 03 25 3f 05 04 1b bc
       -0.0032130426 -0.0011311506 0.64458233 -0.009461408
000210 4e 0b 1c 3c d0 75 e0 bf 95 c7 83 bc 3a c8 dd bf
       0.00952418 -1.7535954 -0.016086379 -1.7326729
000220 62 5a d8 3c eb 28 98 3e 8d cc 1a bd 1c b1 0a bd
       0.026410285 0.29718718 -0.03779273 -0.03386031
000230 52 18 70 3c 14 be 8f bd 33 d5 7b 3d 05 cb 17 bc
       0.014654236 -0.070186764 0.06148262 -0.009264712
000240 8d 3c 71 bf 0c bc 0a bd 43 e5 9b 3f dc 9b 14 3f
       -0.9423302 -0.03387074 1.217934 0.5805032
000250 9a fb 91 bf e3 50 7d bd ae 05 92 bc 08 f0 47 3b
       -1.1404908 -0.061844718 -0.017824974 0.003050806
000260 33 33 64 bc 01 ef 5f c0 92 11 a8 bf 40 87 75 3f
       -0.0139282225 -3.4989626 -1.3130362 0.959095
000270 f0 1c fd 3f cc 6e 01 bc 5a 70 49 c0 a6 ac 27 bd
       1.9774456 -0.007899951 -3.1474824 -0.040936135
000280 f0 e7 9b 3e f4 71 fe 3c 59 8a d3 3c eb be 5f 3f
       0.30450392 0.031060196 0.025822805 0.8740069
000290 b5 38 03 c0 1e c6 e4 bf fc d8 87 bd 09 3f 58 3d
       -2.0503361 -1.787296 -0.06633183 0.05279449
0002a0 a6 77 ec bf 0c 02 77 bc ef 4d b9 3c cb b7 44 c0
       -1.8474014 -0.015076172 0.02262017 -3.0737178
0002b0 47 e4 6d bf 5d f7 10 3d 25 30 95 bf a8 26 8f bf
       -0.9292645 0.035392154 -1.1655318 -1.1183672
0002c0 41 a9 42 bc f3 f8 78 3f e7 02 2c c0 41 1b c9 bb
       -0.011881174 0.97254866 -2.6876771 -0.006137282
0002d0 40 43 14 c0 49 53 de bc 42 1d c4 c0 20 29 74 c0
       -2.3166046 -0.027139323 -6.1285715 -3.81501
0002e0 bd 5c 8a 3c 37 1b 35 c0 3d d8 4f bf d9 96 ee bf
       0.016889924 -2.829786 -0.8118933 -1.8639785
0002f0 dd 6d 29 3f 7d 0d 79 c0 7f 72 c1 3f 4d bb 07 3c
       0.66183263 -3.8914483 1.5113066 0.008284402
000300 a0 74 44 3b be 8e 8b bf e2 b7 b8 3e a8 c6 c4 39
       0.002997674 -1.0902936 0.3607779 0.00037532044
000310 52 40 d7 bf fd 98 4b c0 a3 07 eb bc 95 9b 9b bb
       -1.6816504 -3.1812127 -0.028690165 -0.0047487714

weight f4 [200, 15]
000000 4c 58 78 3e 5d 24 39 3f 88 b9 1e be 2a 04 92 3e
       0.24252433 0.7232111 -0.15500462 0.28518802
000010 e2 7a 0e 3e ad 6b 0a 3e c9 e6 3f 3e 65 d3 0a be
       0.13914064 0.13517638 0.18740381 -0.13557203
000020 4d a0 a8 3e ce f5 04 be c5 04 15 be 6c e3 7b bf
       0.329348 -0.12984392 -0.145526 -0.98393893
000030 35 ff 07 c0 26 9c 72 be eb b4 e3 be 2f bc b0 3d
       -2.1249516 -0.23692378 -0.44473967 0.08629643
000040 b0 d6 36 be 77 62 bd 3b eb 45 3f be 50 56 80 be
       -0.17855334 0.00577956 -0.18679015 -0.2506585
000050 0c 58 0a 3d cc 0e 78 be ae 1c a3 3d 52 d1 5f be
       0.033775374 -0.24224395 0.079644546 -0.21857193
000060 67 38 67 be 14 c3 71 be 61 cb 41 bd e5 d5 1d 3d
       -0.2258011 -0.23609573 -0.047313098 0.038534064
000070 de b9 ad bd be da 27 3e 3a 55 08 3f 7b c7 15 bd
       -0.08482717 0.16392037 0.53255045 -0.036567193
000080 50 00 13 bf 75 74 8e 3e 71 1b da 3d 3d 7e 03 bf
       -0.5742235 0.27823225 0.10649765 -0.513645
000090 60 22 00 bf 20 45 86 be 54 20 09 3e fb db 0b bf
       -0.5005245 -0.26224613 0.13391238 -0.5463254
0000a0 00 cd 84 be a8 e3 86 3e db 1c 9f 3e 06 3b f5 3e
       -0.25937653 0.26345563 0.31076702 0.47896594
0000b0 cc 8c 6d bf e7 14 08 be 28 04 40 3f 06 0e 91 3e
       -0.92792964 -0.13289224 0.7500634 0.28331012
0000c0 79 34 4c bf 7e ec ac be 22 02 d3 be 72 5b 95 3e
       -0.79767567 -0.3377418 -0.41212565 0.2917133
0000d0 ea e2 15 bf 20 2d 9c be 6a 04 0e bd 26 8a 6a bd
       -0.5854937 -0.30503178 -0.03467218 -0.057260655
0000e0 2e ff 7f 3e c5 8f 06 be c8 c4 1c 3f 6a f1 ad 3d
       0.24999687 -0.13140781 0.61237764 0.08493312
0000f0 14 d2 3c bf 63 ef cf 3e 16 7d 90 3d 3b 4d a1 be
       -0.73758054 0.40612325 0.07055108 -0.31504235
000100 74 ee b6 3c f7 6f 02 bc 3e 9b 78 be 57 c2 ff be
       0.0223305 -0.007961265 -0.2427797 -0.49952957
000110 07 41 29 3f 2e 9e f4 3e 48 1c 4f 3e 69 6f 8e 3e
       0.6611485 0.47776932 0.20225632 0.27819374
000120 a7 fa 02 be 62 cd 15 3f ef e0 19 be 47 15 f1 3e
       -0.12790929 0.58516514 -0.15027212 0.47086546
000130 89 6c 2d be c7 c2 b5 3e ec 33 4f bf ea 51 34 be
       -0.16935934 0.35500166 -0.809386 -0.17609373
000140 4a b8 5a bd 2b 1b f0 be fe 67 23 3c dc e8 eb be
       -0.053398408 -0.46895728 0.009973524 -0.46076095
000150 b0 24 da be 3a 7d f7 3e 0e 8a cc 3e 4e 6d 0e bf
       -0.42606115 0.48337728 0.39949077 -0.55635536
000160 8f e3 17 be f7 4d 49 3e c0 d5 a5 3e 47 99 4c 3f
       -0.148329 0.19658647 0.3238964 0.7992138
000170 dc fa 07 3d 4e f6 51 3e d9 75 64 be f1 7f db be
       0.033198223 0.20504114 -0.2231058 -0.4287105
000180 03 4c 0b bd cc cb 02 3f 82 32 3f 3e 7a 40 0f be
       -0.034008037 0.5109222 0.18671611 -0.1398944
000190 ba 01 60 be 96 54 13 be f6 28 4f bd 79 a2 06 3f
       -0.21875659 -0.14387736 -0.050576173 0.52591664
0001a0 94 66 a3 3d 15 3c fc 3e 45 0a d5 bd 1b b0 b9 3e
       0.079785496 0.4926459 -0.104023494 0.3626717
0001b0 c2 40 24 bf 53 f2 15 be 22 b6 13 3e 73 1b 9a 3e
       -0.6416131 -0.1464322 0.14424947 0.30099067
0001c0 67 35 20 be c2 9d 9e be df 1f 27 3f 32 b9 0a 3f
       -0.15645371 -0.30979735 0.65283006 0.54188836
0001d0 97 93 4a be 9c 97 ac bc c5 9c 1e be ec 4b 2e be
       -0.19782864 -0.021068387 -0.1548949 -0.1702115
0001e0 4a 5b 4f bc 57 0f 59 bf bb 9f 87 be 35 42 b8 be
       -0.012656042 -0.8478903 -0.26489052 -0.35988012
0001f0 75 96 f6 be e1 de 88 3c 68 44 11 3f c9 f6 11 3f
       -0.48161665 0.01670784 0.56745005 0.5701719
000200 64 f5 1f be 79 60 1d bf e0 42 be bd a5 8c cf 3c
       -0.15620953 -0.6147533 -0.09290099 0.02533562
000210 9f e9 e4 3d ab d5 00 bf f8 aa 31 3e 30 6b 8e be
       0.11177372 -0.5032603 0.17350376 -0.27816153
000220 57 16 67 bf fa b1 00 bf 3f d7 a0 3e 8e d6 c6 bd
       -0.9026846 -0.5027157 0.3141422 -0.09708892
000230 7a cf 56 bf 62 80 05 bf 02 43 b7 be 01 38 f8 3d
       -0.83910334 -0.5214902 -0.3579331 0.12120057
000240 97 4d 3c 3e c8 55 ed 3d 04 db 83 be bb 3a 7c be
       0.18388973 0.11588627 -0.25753033 -0.24631779
000250 44 99 f4 3e 51 b8 a4 3e 11 f7 1c 3f 27 09 d3 3e
       0.47773182 0.32171872 0.61314493 0.4121792
000260 ff b4 80 3f 80 40 44 3e 07 70 a0 bf a4 71 ad bf
       1.0055236 0.1916523 -1.2534188 -1.3550305
000270 72 ac ab bd ae 63 bb 3e 95 63 14 be ad 1b 70 3a
       -0.08382501 0.36599487 -0.14491113 0.00091593975
000280 e0 fb 5e bd 2a db 11 be b1 61 6e 3e 13 c3 e1 3d
       -0.054439425 -0.1424376 0.23279454 0.110235356
000290 98 4b 39 3e 40 b7 56 bf cf b2 de bd fc 1b 3e 3f
       0.18095243 -0.8387337 -0.10873949 0.7426145
0002a0 f1 ab 6d 3e 37 7d bd 3d ad 9f 31 bf d5 56 e7 be
       0.23210122 0.092523985 -0.6938427 -0.45183435
0002b0 ab 11 d4 be 9f e3 9b 3d 01 6a 1b bf c0 e9 6a 3e
       -0.4141973 0.07611775 -0.60708624 0.22940731
0002c0 36 a9 d2 3e 84 24 99 bd 88 b3 05 bb 0a 71 43 be
       0.41144723 -0.07477668 -0.0020401198 -0.1908609
0002d0 e3 93 c6 3e 8c cb e3 3e 18 af 2c bd ae 64 0c be
       0.38784704 0.4449123 -0.04215917 -0.13710281
0002e0 82 9a b9 3d f2 04 0a be c5 10 10 be 18 cb 04 be
       0.09062673 -0.13478449 -0.14068897 -0.12968099
0002f0 75 ef 92 bd ba b4 e1 3e d6 03 b2 3e 15 7e 39 be
       -0.07174579 0.44083196 0.34768552 -0.18114503
000300 2b ce ec be 2c 8d 25 bd 0d 24 e7 3e 8b af 64 be
       -0.46251044 -0.040417835 0.45144692 -0.2233259
000310 1f c8 90 be 6f 05 08 3f 85 b1 8b be a6 fc 79 bf
       -0.2827768 0.5313329 -0.27283874 -0.97651136
000320 44 9f 72 bf ff a6 19 bf 94 a7 b0 3e 31 50 34 3f
       -0.9477427 -0.6002044 0.34502852 0.7043486
000330 87 f7 16 be e2 69 5e 3d cb 29 0f 3e e9 dc 21 be
       -0.14742862 0.054300196 0.13980787 -0.15806927
000340 56 ad 55 3c 06 90 91 bc 42 c5 42 3e 64 b3 0a bf
       0.013041815 -0.017768871 0.1902056 -0.5417998
000350 69 c5 90 be 8e 4c 2c 3e 53 8c eb bd 14 92 d5 3e
       -0.28275612 0.16826078 -0.11501374 0.4171301
000360 e2 a5 a6 be 10 df 19 bf 35 b0 3d 3e e1 86 c7 3e
       -0.32548434 -0.6010599 0.18524249 0.38970092
000370 37 5e 83 be 04 5f db bd 49 07 a3 3e 18 d2 17 3f
       -0.25657818 -0.10711482 0.31841496 0.5930495
000380 92 00 bc be be 47 06 3f 05 da 11 bf 56 b5 08 3f
       -0.36719185 0.5245322 -0.56973296 0.53401697
000390 4e 8f c5 be fc ab 50 bf 2c 21 28 bf 05 f6 90 bf
       -0.38585895 -0.8151243 -0.65675616 -1.1325079
0003a0 e1 bd 4f bf 7b eb e1 bd 33 a3 3a 3e 65 32 b2 be
       -0.8114911 -0.110312425 0.18226318 -0.34804073
0003b0 ec e4 b8 bd 4a 59 53 bd ff 4c ce 3e f2 e1 fc be
       -0.090280384 -0.051598825 0.40293118 -0.49391133
0003c0 9c 8a e9 3e 36 03 5b 3f e8 67 23 be 0d c7 84 be
       0.45613563 0.85551775 -0.15957606 -0.25933114
0003d0 6a c3 ca be 1a 6b 5a 3d fe a7 15 3f a3 56 53 3e
       -0.39602214 0.053324796 0.5845946 0.20638518
0003e0 a8 cf eb 3e bf 05 ec 3d e5 be 25 3d 0e a3 16 be
       0.46056867 0.115245335 0.040465254 -0.14710638
0003f0 2c ec 64 be 2e ec 29 3f 67 cf 27 bd d5 cd 83 be
       -0.22355717 0.66376007 -0.04096928 -0.25742975

bias f4 [200]
000000 7c 9b 80 3e b6 ea 9f be 3b b4 0d 3f c2 16 4a be
       0.25118625 -0.31233758 0.55353135 -0.19735244
000010 ab ae 03 3c d9 5f 42 3e e6 76 06 be 3f 12 c1 be
       0.00803725 0.18981875 -0.13131294 -0.37709233
000020 dd 5b 8e 3e 69 52 d3 3e fb 7d b0 be 75 71 bd 3e
       0.2780446 0.4127381 -0.34471115 0.37000623
000030 e4 da 56 3e f2 86 76 3e cc 44 4f bb cd c2 c7 bd
       0.20981938 0.24074915 -0.00316267 -0.09753952
000040 15 3d 28 bf 87 3a ad be fc 27 7f be 43 2e 63 be
       -0.65718204 -0.33833715 -0.24917597 -0.22185616
000050 a3 9b af 3e 49 e0 bf 3e dd ec 8e be 7f 28 45 be
       0.3429843 0.37475803 -0.27915087 -0.1925373
000060 c5 16 9e bd 76 53 c8 3e 5d f3 ad be e7 ff d8 3c
       -0.07719187 0.39126176 -0.33974734 0.026489211
000070 2d 02 4b 3e e3 fc 2a bf 95 b7 85 be 62 68 81 be
       0.19825049 -0.66792125 -0.26116624 -0.2527495
000080 2b f3 70 3e ec f4 01 bf f2 1c 22 3d 66 0d f7 be
       0.23530261 -0.50764346 0.039578386 -0.4825241
000090 21 4c 47 3d 56 9f 18 3e 0a ea 89 be bf 67 2f 3e
       0.048656587 0.14904532 -0.2693637 0.1712942
0000a0 9b 0c 99 be 17 de 3e bd 25 5b ec be 8f 5e cb bd
       -0.2989243 -0.04659852 -0.46163288 -0.09930145
0000b0 97 18 8e 3e a2 8e 0f 3e d9 85 4f 3e 2c 5f b3 3e
       0.27753136 0.14019254 0.20265903 0.35033548
0000c0 93 e0 d5 bc cf 28 8d 3e 95 84 06 3e e1 65 d0 3e
       -0.026108062 0.27570197 0.13136514 0.40702727
0000d0 43 cb e5 be 97 2a 1a 3e d1 10 4b be 63 26 83 be
       -0.4488164 0.15055309 -0.19830634 -0.25615224
0000e0 fc 30 90 3e b0 00 ff 3e cf ed 8f 3d 85 af cb be
       0.28162372 0.49805212 0.0702778 -0.39782348
0000f0 7e 59 d0 3d c4 71 c5 3c 32 60 31 bb d7 f5 65 be
       0.10173319 0.0241021 -0.0027065394 -0.22457062
000100 a4 05 01 3f 41 df d9 3c 90 ca 31 bd f1 ab 26 3d
       0.5039923 0.026595714 -0.04340607 0.04069132
000110 c2 99 2e 3e cf 97 c0 3e fa f5 66 be 51 16 13 3f
       0.17050841 0.3761582 -0.2255477 0.5745593
000120 d6 29 4b be 2b fc a7 3e 50 02 8d 3e e4 be 64 be
       -0.19840178 0.32809576 0.27540827 -0.22338444
000130 8b 84 39 3e 6d 4f 79 be 79 6c 1d 3d 34 b9 e4 be
       0.18116967 -0.24346705 0.038433526 -0.4467255
000140 62 cd 37 be cd 44 dd 3e f9 13 d2 bd 76 66 9b be
       -0.17949441 0.43216553 -0.10257716 -0.3035161
000150 db 49 8a be c9 3a 96 be 4b 07 0b bd 37 97 3f 3e
       -0.27009472 -0.29341725 -0.033942502 0.18710028
000160 93 bd e4 3d e2 96 da be 47 62 0f bf a4 14 b0 3d
       0.11168971 -0.4269324 -0.56009334 0.08597687
000170 4a 2b 91 3d 74 1c 18 be b9 ef 2f 3e 71 23 b3 be
       0.07088335 -0.14854604 0.1718129 -0.34987977
000180 96 6b 19 bd 56 c3 88 3e 8b 8b 5e 3e fa 65 af bc
       -0.037456118 0.2671153 0.21732919 -0.02141093
000190 d2 b2 29 be 6e 75 59 3e 1c 6a 90 bd d7 fd 87 3c
       -0.16572121 0.21236202 -0.07051489 0.016600532
0001a0 1a d1 6d 3e c2 01 f1 3e 83 e4 4e 3e 7d 70 a4 bd
       0.23224297 0.47071654 0.20204358 -0.08029268
0001b0 58 a3 02 be 78 6b 03 bd 86 af 48 3e d2 44 ce 3e
       -0.12757623 -0.032084912 0.19598207 0.4028688
0001c0 04 86 df 3e d8 45 8c bd 80 b1 a4 3e 12 cc 93 3c
       0.43656933 -0.06849259 0.32166672 0.018041644
0001d0 90 66 20 bd 2b 9f 11 be 6e 65 f2 bd 00 45 80 3e
       -0.03916031 -0.14220874 -0.118357524 0.25052643
0001e0 66 ac ec 3d e8 1c e0 3d b6 09 1c 3e 94 fe 64 be
       0.1155632 0.109430134 0.1523808 -0.22362739
0001f0 d7 3a 99 be c5 e5 3b 3e 74 6d 8d 3e e7 b1 ef 3e
       -0.29927704 0.18349369 0.2762257 0.46815416
000200 8a 8d dc be ae 93 08 be ee a4 41 be 53 0f e6 3e
       -0.43076736 -0.13337585 -0.18910572 0.44933566
000210 34 f2 50 3e a0 83 02 3e 86 e2 91 3e e2 57 8d 3e
       0.20404893 0.12745523 0.28493136 0.27606112
000220 3c ed 15 bf c2 94 70 3e c8 c1 3d bc 65 e5 12 3e
       -0.58565116 0.23494247 -0.011581846 0.1434532
000230 f0 ec 14 bd 56 18 d1 be 3f 8a 37 3e 6c cc db 3e
       -0.036358774 -0.4083888 0.1792383 0.429294
000240 a2 4d 02 bf 55 da 3d 3e 22 41 8d bd f4 90 a7 3e
       -0.5089971 0.18540318 -0.06897189 0.32727778
000250 7d 35 15 bf 18 67 b8 bb 31 a6 33 3e d3 55 ae 3e
       -0.5828474 -0.005627524 0.17543866 0.34049854
000260 41 68 8c 3e ce eb 81 be 8d 5d b9 be f9 5d c8 bd
       0.2742329 -0.25375217 -0.36204186 -0.09783549
000270 ae 2c bd be a7 15 23 3f e2 aa 0f be c5 36 ae 3d
       -0.3694815 0.63704914 -0.1403003 0.0850654
000280 d3 91 fb be 93 ae 4f 3e 1a 82 53 be 47 66 36 3c
       -0.49134693 0.20281439 -0.20655099 0.011132783
000290 66 8b 49 3e 28 ac fe 3d 5e 8a 5c 3d 44 ff 87 3e
       0.19682083 0.1243518 0.053842895 0.2656194
0002a0 c9 75 b7 3e b1 d4 9a 3e b4 17 69 3d c3 cb 39 bd
       0.3583205 0.30240396 0.05690737 -0.045360338
0002b0 cb 07 b4 bc a5 e5 a3 bd 62 04 cf be 88 77 1a 3f
       -0.021976372 -0.080027856 -0.4043303 0.6033864
0002c0 c2 c8 33 3e ac 46 93 be 40 44 25 bf 6e e7 f2 3e
       0.17557052 -0.28764856 -0.64557266 0.47442192
0002d0 b4 97 08 be 0f 73 13 3f 03 92 13 be 88 ca d0 be
       -0.1333912 0.5759744 -0.14411168 -0.4077952
0002e0 48 dd 06 be d4 bf 01 3f 45 cd 10 be 66 05 e2 be
       -0.1317035 0.5068333 -0.14140804 -0.44144744
0002f0 fc c5 bc 3d da 8e c6 be cc d9 b6 bd a0 46 94 3e
       0.0921745 -0.38780862 -0.0892826 0.28960133
000300 0b b7 0b bf 68 d9 ef 3d 61 1f 83 bd d2 ec b0 3e
       -0.54576176 0.11711389 -0.064024694 0.3455568
000310 e2 f1 e9 be fa 5a 8a be 06 6b 13 bd 4f 32 85 be
       -0.45692354 -0.27022535 -0.035990737 -0.26014945

weight f4 [200, 200]
000000 bb f8 4b 3f 6f 80 1b 3d 35 14 11 3d 20 c9 47 bf
       0.7967641 0.03796428 0.03541966 -0.7804127
000010 0c fc 0a bd 37 22 a6 3c 58 a4 51 3b c1 24 2f 3d
       -0.033931777 0.020279987 0.0031988826 0.04275966
000020 82 61 3d 3b 11 23 45 bf 59 76 c3 be ef 21 5e bd
       0.002889723 -0.7700663 -0.3817623 -0.05423158
000030 af bd c7 be 6a f3 88 bf 4c 1f 9c bd 5c 32 93 3e
       -0.39011905 -1.0699284 -0.07623157 0.2874936
000040 6c 54 5a be d8 bf 48 bd d8 bf 48 bd 7e 08 17 3d
       -0.21321267 -0.04901108 -0.04901108 0.036873333
000050 27 a4 92 be c9 4a a9 be 30 14 96 3d 01 ba cf bd
       -0.28640863 -0.3306487 0.07328069 -0.10142899
000060 3a 3e 58 3e e5 44 b5 3c 46 7f 8f 3e a9 6c b6 be
       0.21117488 0.022127578 0.2802679 -0.35629776
000070 28 63 95 be 98 5a 80 3e 11 aa 29 3f 81 73 51 3e
       -0.29177213 0.25069118 0.66275126 0.20454217
000080 d4 e0 49 be d8 72 81 bd 58 92 a8 be 10 e1 0b 3f
       -0.19714671 -0.06320733 -0.3292415 0.54640293
000090 55 36 00 3d 4b b5 69 bf 7b 71 d1 3e 97 0c 86 be
       0.031301815 -0.91292256 0.4090689 -0.2618148
0000a0 b0 a5 31 be 94 07 5c bf 7b 17 d5 be d0 ac 91 be
       -0.17348361 -0.85949063 -0.41619477 -0.28452158
0000b0 01 7f 99 bf b7 e0 95 bc 67 05 50 bf 8b 33 e3 be
       -1.1991884 -0.018295629 -0.81258243 -0.44375262
0000c0 ce ed 02 bc 0f 0e 03 be 60 61 51 3f b8 63 c6 3e
       -0.007991267 -0.12798332 0.8178921 0.38747954
0000d0 5a 92 0e bf b9 b2 53 3d eb ab 6f 3d 01 94 ea be
       -0.55692065 0.051684115 0.058513563 -0.45816043
0000e0 51 af fb bf 14 03 3b 3e ce 9d d3 3e 00 25 59 3f
       -1.9662877 0.18262893 0.41331333 0.8482208
0000f0 df af aa be 0a cd 8b be 2d e7 47 bf 90 5f 94 be
       -0.33337304 -0.2730487 -0.7808712 -0.28979158
000100 72 d5 0d bf fd 2c 19 bf 62 75 be be 36 a3 37 bf
       -0.55403817 -0.5983427 -0.3719893 -0.71733415
000110 23 fc 23 be 65 a3 03 bf ad e8 42 3f 10 e5 53 3e
       -0.16014151 -0.51421195 0.76136285 0.20692849
000120 c4 b4 8c bf ce f2 05 bf ec 0f de bd 1e 45 ae be
       -1.0992665 -0.52323616 -0.108428806 -0.34037107
000130 9f d3 a0 3e b1 51 cd 3e fd 09 0e 3f ed 89 88 3e
       0.31411454 0.40101388 0.5548399 0.2666773
000140 97 ff d7 3d ed f3 58 3f 71 8b b5 bd d9 9e 41 bd
       0.10546797 0.847472 -0.08864487 -0.04727063
000150 b6 b6 90 3e 7e 6b 51 3d f1 55 25 3e c8 70 f6 be
       0.28264397 0.051127903 0.16146065 -0.4813292
000160 1e 58 90 3d bb 3c 88 3e 35 18 01 3f af fa d1 be
       0.07048057 0.26608834 0.5042756 -0.4101157
000170 dc 30 6c be dc e8 e8 3d 9b 41 5e 3e 05 01 90 3d
       -0.23065513 0.113725394 0.21704714 0.070314445
000180 c1 7e 06 3f d7 11 cf 3c 13 d0 b2 bf 4a 14 b9 3e
       0.5253716 0.025277061 -1.3969749 0.36148292
000190 d6 ec e3 3d 53 c9 6b be b7 66 4e bf 71 51 1d bd
       0.11129157 -0.23026018 -0.8062548 -0.038407747
0001a0 27 a7 32 3e 62 56 1a bf 31 3e 0d bf ec b5 fa ba
       0.17446576 -0.6028806 -0.5517302 -0.0019127703
0001b0 90 d2 f2 3e 44 ea 0b 3f 7d 14 9f be 72 6a ab be
       0.4742627 0.54654336 -0.3107032 -0.3347965
0001c0 93 a7 6d bf fb 09 17 3e 77 d8 f6 3e 51 2e f0 bc
       -0.9283382 0.14749901 0.48212025 -0.02931896
0001d0 8a 31 26 bd b3 92 ab 3e 88 ad 1b 3f 1e d3 e2 3e
       -0.040574588 0.3351036 0.6081166 0.44301695
0001e0 96 64 77 3f e7 9b c9 3e 7d 9f 66 3b a3 71 26 bf
       0.96637857 0.39376757 0.0035190277 -0.65017146
0001f0 e7 2f 89 be 98 2d 8d 3c 52 dc 0e bf 0d 72 56 bf
       -0.2679436 0.017233655 -0.5580493 -0.8376778
000200 d2 11 8c 3f 97 01 15 bc 9f 03 70 bf a6 bf c2 bd
       1.0942938 -0.009094617 -0.93755525 -0.0950921
000210 b6 1a 97 3e 50 bb 1b 3e 81 6f 9f 3e 36 6f 89 3e
       0.29512566 0.15208173 0.31139758 0.2684266
000220 a4 ee 12 3e 7a 59 7f 3f c1 72 c9 3f 5b 39 90 3d
       0.14348847 0.99745905 1.5738145 0.0704219
000230 41 e4 90 3e 88 01 eb 3d 83 54 32 3f 64 0a 91 bf
       0.28299144 0.114749014 0.69660205 -1.1331296
000240 8f 05 84 bd 3a d6 f3 3d 98 ed 03 3e 2a 2a a8 3d
       -0.06446373 0.11906095 0.12883604 0.08211167
000250 e0 14 64 3f 0c 24 27 bf 5f e5 36 be 11 c7 ae 3e
       0.8909435 -0.6528938 -0.17860936 0.3413625
000260 5a 9a 11 be 38 27 13 3f 7c cc 07 3f a7 31 89 be
       -0.14219037 0.5748172 0.53046393 -0.26795694
000270 18 3e ce bd 31 db 3c 3e 8b 1c 93 3e d8 b0 9f 3f
       -0.10070437 0.1844299 0.28732714 1.2475843
000280 79 f2 a6 3e a1 61 99 bc 54 3f 20 3e 5b 13 a1 be
       0.32606867 -0.01872331 0.15649158 -0.3146008
000290 9f 47 03 be 21 63 69 3e a8 73 92 3e 1a 3e 0c be
       -0.1282029 0.22791721 0.28603864 -0.13695565
0002a0 82 5a bd be a8 45 c6 be 19 16 a2 be b5 da fd bd
       -0.36983114 -0.38725019 -0.31657484 -0.12395231
0002b0 93 6f d3 3e 5b 92 b8 3e ca 0d 34 3e 57 24 52 be
       0.41296062 0.3604916 0.17583385 -0.20521675
0002c0 8f 3f 1d be 9a 90 a8 3f 61 d5 7b bd 77 9f 05 3f
       -0.15356277 1.3169129 -0.06148279 0.5219645
0002d0 33 a8 6a 3e 0d 49 7e bd 21 36 97 3d 8d ab a7 3e
       0.22915725 -0.062081385 0.07383371 0.3274807
0002e0 f3 47 9d bd 43 f1 ba 3d 59 61 22 3e 65 08 f2 bd
       -0.07679739 0.09128048 0.15857448 -0.118180074
0002f0 8d c4 e6 3e d7 d7 04 3d c3 f2 8a 3e 3e 16 b5 be
       0.4507183 0.032432403 0.27138337 -0.35368532
000300 5c d3 80 be e1 35 70 3f 22 1a 9d 3d d3 20 80 bf
       -0.25161254 0.9383221 0.07671 -1.0010017
000310 9f fc a1 bd 64 2d e3 3d d0 0a 3d 3f f7 3d 9f be
       -0.07909512 0.11092642 0.73844624 -0.31101963
000320 66 27 9f bd 41 75 8d 3c c6 21 ae 3c c7 e3 af bd
       -0.077711865 0.017267825 0.021256339 -0.08588367
000330 56 f1 14 be e6 26 9d bd 5f d3 af bb b3 06 fa 3c
       -0.14545187 -0.07673435 -0.0053657736 0.030520773
000340 c8 ce bf bd d6 48 15 bd 71 69 dc 3b 8c 16 7e bd
       -0.09365612 -0.036446415 0.006726437 -0.06203322
000350 7c 06 f6 bb 90 90 3d bd 53 d5 ef bd 72 fd 6d 3d
       -0.007508097 -0.046280444 -0.1171061 0.058103032
000360 80 28 cc 3c 38 3d 3e bd da 9c eb 3c fc b0 7d bd
       0.024921656 -0.0464451 0.028761316 -0.061936364
000370 70 85 36 bd b8 79 b6 bd 37 b4 26 bd 70 6c 36 bd
       -0.04456085 -0.08909935 -0.04069921 -0.044537008
000380 6a 37 df bc 35 cc 89 bd ad 3a 1e 3c e5 02 0a bd
       -0.027248103 -0.067284025 0.009657544 -0.033694167
000390 3d f9 8b bd cf 53 2b bd 45 32 0c bb 15 f6 8e bd
       -0.06834648 -0.041827973 -0.0021392268 -0.0698053
0003a0 ec d3 f9 bd 7f 11 3b 3d d5 42 16 3e b0 bc b2 bb
       -0.12198624 0.045670982 0.14673932 -0.005454622
0003b0 48 d6 c4 3c e9 25 4b 3d 4e a5 ac 3c 8e a1 9d bd
       0.024027959 0.0495967 0.021074917 -0.0769683
0003c0 8a b4 53 bd 46 77 26 3c c5 67 01 bd 42 8b 80 3b
       -0.051685847 0.010160273 -0.031593103 0.003922851
0003d0 02 c1 ef 3c 40 1c 4d 3c 53 ec e7 bd 56 8e 98 bd
       0.029266838 0.012518942 -0.11324372 -0.074490234
0003e0 5b 38 e9 bd 79 44 42 be 90 2c 3d bd 4e 60 12 bd
       -0.11387702 -0.18971433 -0.046185076 -0.035736375
0003f0 0e fd 94 bd ea cf d0 bd 84 4f 4b 3d 10 d2 c9 3c
       -0.07274829 -0.101959065 0.04963638 0.024636298
