Vehicles/Mod_01_02/Mod_01_02_critic.pth (torch, 353431 bytes, 10 tensors)

weight f4 [200, 15]
0	0x3dfa9e35	0.12237207
1	0xbf7c16ec	-0.98472476
2	0xbc7cea38	-0.0154367015
3	0xbee1e4cc	-0.4411987
4	0xbdaf7808	-0.08567816
5	0x3eb2419b	0.34815678
6	0xbe2a0ac9	-0.16605677
7	0x3e8814a9	0.26578262
8	0xbf2e3edf	-0.68064684
9	0xbf03da25	-0.5150474
10	0x3e17e135	0.14832003
11	0xbaef2ec8	-0.0018248195
12	0xbec5c6bf	-0.38628194
13	0xbd9bb511	-0.07602895
14	0x3ef5c1d8	0.47999454
15	0xbeecf8ba	-0.46283513
16	0x3f2528ee	0.6451558
17	0x3f4f7259	0.81033856
18	0xbbb19cd9	-0.005420309
19	0xbd4ce1be	-0.050019972
20	0xbf310be7	-0.69158787
21	0xbfeeb25c	-1.8648181
22	0xbfa658a2	-1.2995799
23	0xbebf8ae1	-0.37410644
24	0x3e4ede2f	0.20201944
25	0xbe06dc10	-0.13169885
26	0x3e1a06f1	0.1504171
27	0xbe8978ec	-0.2685007
28	0xbb03913b	-0.0020075578
29	0x3d7e2cb4	0.06205435
30	0xbe4a6473	-0.19764881
31	0xbf58038c	-0.8438041
32	0xbda79f51	-0.08184684
33	0x3dcdfa6f	0.10057532
34	0x3e9da6a2	0.30791193
35	0x3e96216a	0.29322368
36	0x3c904d2c	0.017614923
37	0xbec3863f	-0.3818836
38	0xbed7ee50	-0.42174006
39	0xbe379925	-0.17929514
40	0x3f1b0bb1	0.60564715
41	0xbdf795e4	-0.12089136
42	0xbed024b2	-0.40652996
43	0xbd82622c	-0.06366381
44	0xbd1ab012	-0.03776557
45	0x3ef23f79	0.4731405
46	0x3df20bd2	0.11818661
47	0xbf26064c	-0.6485336
48	0xbd4cd616	-0.050008856
49	0xbd3936ee	-0.0452184
50	0x3e2c0a80	0.1680088
51	0x3efe1cae	0.49631256
52	0xbe5bafbd	-0.21453758
53	0xbf610478	-0.87897444
54	0x3f30a6d9	0.6900459
55	0xbd148d46	-0.03626754
56	0xbd09b06c	-0.033615515
57	0xbdaf79c1	-0.085681446
58	0xbe6633e5	-0.22480734
59	0xbe86ad11	-0.26303914
60	0xbeb0b307	-0.34511587
61	0xbd27cdfb	-0.040967923
62	0xbea49a77	-0.32149097
63	0x3ea8fd10	0.3300557
64	0xbeb1da9f	-0.34737107
65	0x3e86ba63	0.26314077
66	0x3e795ac7	0.24351035
67	0xbed4641a	-0.4148262
68	0xbeb90a9e	-0.36140913
69	0x3d78d99c	0.060754403
70	0x3e8a457e	0.27006143
71	0x3ea5da3f	0.3239307
72	0x3e6afad3	0.22947244
73	0x3daccb81	0.08437253
74	0x3e50b36a	0.20380941
75	0xbe91a599	-0.28446653
76	0x3d42b6bf	0.04753756
77	0x3d7939d8	0.06084618
78	0x3c8cc52b	0.01718386
79	0xbe54ac64	-0.20768887
80	0xbda20417	-0.07910936
81	0x3d0c8b9f	0.03431284
82	0x3db372db	0.08762141
83	0x3cb28a39	0.021794425
84	0xbdcf849a	-0.101327136
85	0xbe01eac1	-0.12687208
86	0xbdc2f3ac	-0.09519133
87	0xbbd372d8	-0.0064528994
88	0xbdc835bc	-0.09775874
89	0xbdc603f8	-0.09668726
90	0xbeb1f3b7	-0.34756252
91	0xbef8d5ac	-0.4860052
92	0x3e00d91c	0.1258282
93	0xbf53ee30	-0.8278532
94	0x3e3cc4e7	0.18434487
95	0x3e8d8618	0.27641368
96	0x3ed7d2e8	0.42153096
97	0xbf64129e	-0.8909091
98	0xbf8a6a85	-1.0813757
99	0xbe54c8fc	-0.20779794
100	0x3d2e8e8f	0.042616423
101	0xbe8c0859	-0.2735012
102	0x3dc87c4b	0.09789332
103	0x3da29552	0.07938637
104	0xbf068a4c	-0.52554774
105	0xbf47563f	-0.77865976
106	0x3ed8aac5	0.42317787
107	0xbe7451cf	-0.23859333
108	0x3e807d9e	0.25095838
109	0x3ef1e750	0.4724679
110	0xbeca963e	-0.3956775
111	0xbe6147b2	-0.22000006
112	0xbf1a1260	-0.6018429
113	0x3e344cb0	0.17607379
114	0x3e33a7a1	0.17544414
115	0xbf065c60	-0.52484703
116	0x3d8e119d	0.06936953
117	0x3e4b0f52	0.19830063
118	0x3e63ae36	0.22234425
119	0xbe721f58	-0.23644769
120	0xbe014c7a	-0.1262683
121	0x3d3786de	0.044806354
122	0xbe656eaa	-0.22405496
123	0x3dab8710	0.083753705
124	0x3e38fc51	0.18065001
125	0xbdd26cb7	-0.10274642
126	0xbe10cb3d	-0.14140029
127	0xbdaa6374	-0.083197504
128	0xbdec7669	-0.115460224
129	0x3e509734	0.2037018
130	0xbe79d12c	-0.24396199
131	0xbd60ad9e	-0.054853074
132	0xbd8acdec	-0.06777558
133	0x3b0999c4	0.0020996192
134	0x3d8c03e3	0.06836679
135	0x3d730173	0.059327554
136	0x3e81077c	0.25201023
137	0xbfa66268	-1.2998781
138	0xbf34a0a9	-0.7055765
139	0xbd823184	-0.063571006
140	0xbe840ce1	-0.25791076
141	0xbf3cf990	-0.738183
142	0x3f4fab30	0.81120586
143	0x3eaacdd5	0.33360162
144	0x3d8a8aca	0.06764753
145	0xbe556830	-0.20840526
146	0x3d10988f	0.03530174
147	0xbdb9dc8b	-0.09075268
148	0xbdc697b1	-0.096969016
149	0x3ed29fdb	0.41137585
150	0xbccdcdf3	-0.025122618
151	0xbe382d8c	-0.17986125
152	0xbd8ee64f	-0.06977522
153	0xbf43853d	-0.7637518
154	0xbe18465b	-0.14870588
155	0x3e919a43	0.28438005
156	0x3da03dcf	0.07824289
157	0x3e03b14c	0.12860602
158	0xbd0b33d4	-0.033984974
159	0xbe623c87	-0.22093402
160	0x3c42c7ef	0.011888488
161	0xbf1721a5	-0.5903571
162	0xbe99792b	-0.29975256
163	0x3ee39251	0.44447568
164	0xbed99d6f	-0.42502925
165	0x3f0f8815	0.5606702
166	0xbe92369d	-0.28557292
167	0xbdf3e5e2	-0.11909081
168	0xbf4c1a9f	-0.7972812
169	0x3dd1be15	0.102413334
170	0xbe2a7325	-0.16645487
171	0xbc55a794	-0.013040442
172	0x3eaa44a6	0.332555
173	0xbf31901d	-0.69360524
174	0x3deda5c7	0.11603885
175	0xbe33fd85	-0.17577179
176	0x3d99188f	0.07475387
177	0xbee7d54d	-0.45279923
178	0xbe7bb67c	-0.24581331
179	0xbf142e10	-0.57882786
180	0xbd16dc14	-0.036830977
181	0xbef4fc44	-0.47848713
182	0xbe24bec8	-0.16088402
183	0x3ecaa7c3	0.39581117
184	0xbeb84f0e	-0.35997814
185	0xbf519394	-0.8186581
186	0x3ea0d000	0.3140869
187	0x3d44a346	0.048007272
188	0xbe1fdb01	-0.15610887
189	0xbe25cc72	-0.16191271
190	0xbeb68032	-0.3564468
191	0x3ebd1ede	0.36937612
192	0x3e5bd65d	0.21468492
193	0x3e60f866	0.21969756
194	0x3ee4e470	0.44705534
195	0x3eeddfb3	0.4645973
196	0xbf1c657c	-0.6109235
197	0xbdce8036	-0.10083048
198	0xbe4463ce	-0.19178697
199	0xbea90de1	-0.330184
200	0xbe6d4bad	-0.231734
201	0xbd605899	-0.054771993
202	0x3e535bb3	0.20640449
203	0x3e471563	0.19441752
204	0xbff4aec3	-1.9115833
205	0xbf8e95b6	-1.1139438
206	0xbf355aab	-0.70841473
207	0xbeac2698	-0.33623195
208	0x3d641ef8	0.055693597
209	0xbf432f08	-0.7624364
210	0x3e6eef70	0.23333526
211	0x3e793d68	0.24339831
212	0xbeb8cbcf	-0.36092994
213	0x3d82706e	0.063691005
214	0x3edfb7a4	0.43694794
215	0xbe248e60	-0.16069937
216	0x3cb3045b	0.021852663
217	0xbf287f0a	-0.65818846
218	0xbf283c27	-0.65716785
219	0x3eaebc0d	0.34127846
220	0xbdf0e008	-0.117614806
221	0xbe90e9ba	-0.2830332
222	0x3e4c8be2	0.19975236
223	0x3dcffa78	0.10155195
224	0xbe9cb450	-0.30606318
225	0xbee62d6d	-0.44956532
226	0x3e3c3fc9	0.18383707
227	0xbcbd0c6f	-0.023077218
228	0xbdd77f0f	-0.105222814
229	0xbe2cd500	-0.16878128
230	0x3eb93d62	0.36179644
231	0x3e2a2b87	0.16618167
232	0xbd8b96a8	-0.06815845
233	0x3ad1b2a4	0.0015998674
234	0x3cff8e23	0.031195706
235	0x3e8d0908	0.27545953
236	0xbe7389b9	-0.23783006
237	0x3c72d15f	0.014820426
238	0xbc7a8e0b	-0.015292655
239	0x3f4546ef	0.7706136
240	0xbeaca307	-0.3371813
241	0xbeef56a7	-0.46745798
242	0x3f0fe590	0.5620966
243	0xbe57ac2b	-0.2106177
244	0x3eb63372	0.35586125
245	0x3e49ed51	0.19719435
246	0xbf2802fc	-0.65629554
247	0xbfbd9f95	-1.4814326
248	0xc00408a3	-2.0630271
249	0xbe8258e7	-0.25458452
250	0xbefe7738	-0.49700332
251	0x3c5d8115	0.013519545
252	0x3e65dbeb	0.22447173
253	0xbe9bcc54	-0.30429327
254	0x3f032277	0.51224464
255	0x3e3a964d	0.18221398

bias f4 [200]
0	0xbdc8bbce	-0.09801446
1	0x3e04d253	0.12970857
2	0xbc9beb34	-0.019033052
3	0xbdd6ce3b	-0.10488554
4	0xbe8f5778	-0.2799642
5	0xbe56102c	-0.20904607
6	0xbd6cf307	-0.057848956
7	0x3eb7bbe0	0.35885525
8	0xbe3de1e9	-0.18543209
9	0xbeab15c5	-0.33415046
10	0xbc99eb9d	-0.018789107
11	0x3e9639b7	0.29340908
12	0x3da8767a	0.082257226
13	0xbd491f07	-0.049101856
14	0x3ebe39f4	0.3715359
15	0xbebed2da	-0.37270242
16	0x3dc42386	0.09577088
17	0x3e044497	0.1291679
18	0xbdc4d831	-0.09611548
19	0xbe86495d	-0.26227847
20	0x3dec0749	0.11524827
21	0x3d390d11	0.045178477
22	0x3d53b61d	0.05168735
23	0xbcc07f4f	-0.023498205
24	0xbe4d2056	-0.20031866
25	0x3ca44881	0.020054104
26	0xbe0e06d1	-0.13869788
27	0xbe0d656b	-0.13808219
28	0xbe8f2549	-0.27958134
29	0x3e4cf87f	0.20016669
30	0xbe781e78	-0.24230373
31	0xbe90d782	-0.2828942
32	0x3d8d6515	0.069040455
33	0x3d2d30d5	0.042282898
34	0x3d7ae8c0	0.061257124
35	0xbe472471	-0.19447495
36	0x3e0fd9c7	0.14047919
37	0xbd92739d	-0.07150958
38	0xbc20bbde	-0.009810416
39	0x3d33734f	0.04381114
40	0x3e8f5c4b	0.280001
41	0xbe676a07	-0.2259904
42	0xbe63559b	-0.22200625
43	0xbdaff868	-0.085923016
44	0x3cdbc8ed	0.026829207
45	0x3d977c3d	0.073967434
46	0xbe7e6445	-0.24842937
47	0x3c06c5ac	0.00822584
48	0xbd8cc753	-0.068739556
49	0xbcb0b73f	-0.021571754
50	0xbe3e2dcd	-0.18572159
51	0x3d58c82b	0.05292527
52	0xbe4fc7f0	-0.20291114
53	0xbe7be34a	-0.24598423
54	0xbdff256c	-0.124583095
55	0xbe020f69	-0.12701191
56	0xbe58aeca	-0.21160427
57	0xbe6b6041	-0.22985937
58	0xbdfb7cc6	-0.12279658
59	0x3ebb8b37	0.3662965
60	0xbe461570	-0.19344115
61	0x3bff6115	0.0077935555
62	0xbecea3f6	-0.40359467
63	0x3d810723	0.06300189
64	0xbde0f1e4	-0.10983637
65	0xbe346fbe	-0.17620751
66	0x3eb067e1	0.34454253
67	0xbea79758	-0.32732654
68	0xbee20106	-0.44141406
69	0x3cbfcdd8	0.023413584
70	0x3e38f34e	0.18061563
71	0x3bcd5d91	0.0062672575
72	0xbed04ca4	-0.40683472
73	0x3ec126ac	0.37724817
74	0xbe9bb885	-0.30414215
75	0x3e0b91d7	0.13629852
76	0xbe2254b3	-0.15852623
77	0x3ea45eb1	0.32103494
78	0xbd54aded	-0.05192368
79	0xbed22754	-0.4104563
80	0x3dd83502	0.105569854
81	0xbebddf79	-0.3708456
82	0xbe52c42a	-0.20582643
83	0xbe719bcd	-0.2359459
84	0xbe82679d	-0.25469676
85	0xbe42e4ba	-0.19032565
86	0xbc175660	-0.009236902
87	0x3cbc98f0	0.023022145
88	0xbd1b6e21	-0.037946824
89	0xbeaa9b09	-0.33321407
90	0xbe43c78a	-0.19119087
91	0xbe8a4d51	-0.27012113
92	0xbe80bac5	-0.25142494
93	0x3bf14ae0	0.007363662
94	0x3e6c2604	0.23061377
95	0xbe9824fe	-0.29715723
96	0x3da080fd	0.078371026
97	0xbd4a369a	-0.04936848
98	0xbda05741	-0.07829142
99	0xbea4c1d2	-0.32179123
100	0x3d825e3c	0.0636563
101	0x3d868581	0.065684326
102	0xbe307d0d	-0.17235203
103	0xbed46096	-0.4147994
104	0xbec25432	-0.3795486
105	0xbe2623da	-0.16224614
106	0xbee71a23	-0.45137128
107	0xbc1e115e	-0.009647695
108	0x3e089cfe	0.13341138
109	0xbd121591	-0.0356651
110	0xbd9a78a5	-0.07542542
111	0x3da8e178	0.0824613
112	0x3ce236d0	0.027614027
113	0x3e530e56	0.20610937
114	0xbb486bb5	-0.0030581777
115	0xbe52a50e	-0.20570776
116	0xbebdad23	-0.37046155
117	0x3ea4a14e	0.32154316
118	0xbedacfdc	-0.4273671
119	0xbe36c94c	-0.17850226
120	0xbe7d3a8c	-0.24729365
121	0xbe2538ee	-0.16134998
122	0x3d60b8d0	0.05486375
123	0x3e23c7ec	0.15994233
124	0xbe4ce872	-0.20010546
125	0x3dcf09e7	0.101093106
126	0xbeb39a04	-0.35078442
127	0x3d303302	0.043017395
128	0xbecda29b	-0.4016312
129	0xbd969c2f	-0.073540084
130	0xbe22a556	-0.15883383
131	0xbe8dd2a1	-0.2769976
132	0xbcae957b	-0.021311512
133	0x3da8de9f	0.082455866
134	0xbe53325b	-0.20624678
135	0x3e8c9bcf	0.27462623
136	0x3cd76cd6	0.026297014
137	0xbe36f45b	-0.17866652
138	0xbebff5f8	-0.37492347
139	0x3d047bf6	0.03234478
140	0xbdd20b10	-0.10256016
141	0xbe4c3933	-0.19943695
142	0xbdfee04e	-0.124451265
143	0xbeaaba33	-0.33345184
144	0x3dae5a5c	0.085133284
145	0xbc689995	-0.014196773
146	0xbe82cc31	-0.2554641
147	0x3e9328e1	0.28742126
148	0xbd29f0db	-0.041489463
149	0xbde303b2	-0.11084689
150	0xbdc7535c	-0.097326964
151	0x3d0547a4	0.032539025
152	0x3dac8904	0.08424571
153	0xbed0bdc4	-0.4076978
154	0xbd57b6f7	-0.052664723
155	0xbe1d5586	-0.15364656
156	0xbe0816ea	-0.13289991
157	0xbd982103	-0.074281715
158	0xbe18347c	-0.14863771
159	0xbe198726	-0.14992961
160	0x3c97b8c4	0.01852072
161	0x3e38d20d	0.18048878
162	0x3d0d7808	0.0345383
163	0x3d725ce6	0.059170626
164	0xbeaae22f	-0.3337569
165	0xbea5b796	-0.32366627
166	0xbd9a34fb	-0.075296365
167	0x3d9fa49f	0.07795071
168	0x3c10f35c	0.008847084
169	0xbe484c29	-0.19560303
170	0xbe132130	-0.14368129
171	0x3daeebb9	0.08541054
172	0xbe7f1fec	-0.24914521
173	0xbdeeccc0	-0.11660147
174	0xbda82c56	-0.082115814
175	0x3e4e72aa	0.20160928
176	0xbe446410	-0.19178796
177	0xbd2b78a3	-0.041863095
178	0xbe9d5ccb	-0.30734858
179	0xbe7997b6	-0.2437428
180	0xbe0b365a	-0.13594952
181	0xbe86a5fb	-0.26298508
182	0xbda3696b	-0.07979091
183	0x3e38eb4a	0.18058506
184	0xbe1c79d3	-0.15280847
185	0xbe73bd4b	-0.23802678
186	0xbd28f4c6	-0.04124906
187	0xbe315b2c	-0.17319936
188	0x3a5a4e4c	0.0008327707
189	0x3ec15136	0.37757272
190	0xbda39535	-0.07987443
191	0xbead71f8	-0.33876014
192	0x3d279cb2	0.04092092
193	0xbe842648	-0.25810456
194	0xbd272939	-0.040810797
195	0xbe5fc1d8	-0.2185129
196	0xbdf5a87c	-0.119950265
197	0xbeafe4e5	-0.3435432
198	0x3e3e085e	0.1855788
199	0xbe1d2a62	-0.15348199

weight f4 [200, 200]
0	0xbd58a0c9	-0.05288771
1	0x3b8804e3	0.004150973
2	0xbd85200c	-0.06500253
3	0xbb243a37	-0.0025059113
4	0xbd711708	-0.058859855
5	0x3b663b31	0.0035130496
6	0x3d7ae4d6	0.06125339
7	0xbd26265b	-0.040563922
8	0x3b5e6052	0.0033931923
9	0x3ccc40a2	0.024933163
10	0xbcd3cafc	-0.025853626
11	0xbc6b51e4	-0.014362786
12	0x3d232ded	0.03983872
13	0x3d26e6e5	0.040747542
14	0xbd55a628	-0.052160412
15	0xbd225f24	-0.039641514
16	0x3d7ffd95	0.062497694
17	0x3d497e9a	0.049193002
18	0x3b8ff16e	0.0043927943
19	0xbdd2b53b	-0.10288473
20	0xbc8f6c34	-0.01750765
21	0xbd5c9e6b	-0.053862017
22	0xbd96d13a	-0.073641255
23	0xbd9dfe4e	-0.077145204
24	0x3b07780e	0.0020670923
25	0xbd08b5f4	-0.03337665
26	0x3d79be8e	0.060972743
27	0xbd8b8698	-0.06812781
28	0xbba2aa88	-0.0049641766
29	0xbbdf661a	-0.0068175914
30	0x3bd5082e	0.0065012192
31	0xbd9c0fc3	-0.07620194
32	0xbce49bf9	-0.027906405
33	0xbd3051e6	-0.043046854
34	0xbc86e0ef	-0.016464679
35	0xbd944be0	-0.072410345
36	0xbd996cd4	-0.074914604
37	0xbd8c72fa	-0.068578675
38	0xbd33d5e7	-0.043905165
39	0xbd6c3f92	-0.057677813
40	0xbd9cf76e	-0.07664381
41	0xbdaa7d07	-0.08324628
42	0xbdb2e4dd	-0.087350585
43	0xbd116780	-0.035499096
44	0xbcac8620	-0.02106005
45	0x3cf28075	0.029602269
46	0x3b9e84bb	0.0048376
47	0xbc25d903	-0.01012254
48	0x3d0464cb	0.032322686
49	0x3ca90910	0.020634204
50	0xbcf8dcb1	-0.030378671
51	0xbd248d78	-0.040173978
52	0xbd856135	-0.065126814
53	0xbc84de05	-0.016219148
54	0xbd602e92	-0.054731913
55	0xbcf7149c	-0.030161195
56	0xbd1fb7c2	-0.038993604
57	0xbd229909	-0.039696727
58	0xbd5ab0c0	-0.05339122
59	0x3cb5bbab	0.022184214
60	0x3d304a18	0.04303941
61	0x3d88dc4e	0.06682645
62	0xbd259a4c	-0.040430352
63	0x3d5a409c	0.053284273
64	0xbcdbb115	-0.026817838
65	0xbc3e75f0	-0.011624798
66	0xbd5e64c9	-0.054295335
67	0x3cb07874	0.021541812
68	0xbd0693f2	-0.032855935
69	0xbd05799d	-0.032586683
70	0xbdbcf149	-0.09225709
71	0x3cdcf791	0.026973518
72	0xbc2ecdbc	-0.010669168
73	0x3d4553e4	0.048175707
74	0x3d4d86a9	0.05017725
75	0x3c44bb0d	0.012007487
76	0x3cedcf99	0.029029654
77	0xbcb2f271	-0.02184412
78	0xbdb84005	-0.08996586
79	0x3c89926a	0.016793448
80	0xbda31aac	-0.07964072
81	0xbd133a78	-0.035944432
82	0xbcfd2cf4	-0.030905224
83	0x3d040a3a	0.032236315
84	0xbcad9bf2	-0.021192525
85	0xbd0dd154	-0.03462346
86	0x3c5abd1f	0.013350754
87	0xbc9f2d20	-0.019430697
88	0x3d7e3f2b	0.06207196
89	0xbd428762	-0.047492392
90	0xbd5f12c5	-0.05446126
91	0x3d870d9c	0.06594393
92	0xbd756a6e	-0.059915952
93	0xbd93d8b2	-0.07219066
94	0xbc80ecf4	-0.015737988
95	0x3d3b2a85	0.045694847
96	0x3c9fa552	0.01948801
97	0xbd207f84	-0.03918411
98	0xbd9f3127	-0.07773047
99	0x3ce8f052	0.028434906
100	0xbc9d5e81	-0.019210102
101	0xbbfef183	-0.0077802553
102	0xbd2017fc	-0.039085373
103	0xbd8d644c	-0.06903896
104	0x3c749161	0.014927239
105	0xbcbbd98b	-0.022930881
106	0xbca99476	-0.020700675
107	0xbd90c794	-0.070693165
108	0xbd9a8df6	-0.07546608
109	0xbdaacb7b	-0.08339592
110	0xb9f3f94b	-0.0004653431
111	0xbd498fb4	-0.04920931
112	0x3c5ea942	0.013590159
113	0xbd70d47c	-0.05879639
114	0xbcf7595b	-0.030193975
115	0xbc4b254d	-0.01239903
116	0x3cf4e32a	0.029893477
117	0xbcd0c4dc	-0.025484495
118	0x3c37bda0	0.011214644
119	0xbd966ef8	-0.07345384
120	0xbd3d0448	-0.04614666
121	0x3caafa17	0.020871205
122	0x3ca4e814	0.020130195
123	0x3d397d5f	0.04528558
124	0xbd28374b	-0.041068356
125	0xbd9fc227	-0.078007035
126	0x3d6080a9	0.0548102
127	0xbc74f32d	-0.014950556
128	0xbd070a1b	-0.03296862
129	0x3d2dd9bb	0.042443972
130	0x3d3483d8	0.04407105
131	0x3ca142fb	0.01968526
132	0x3c65ea1f	0.01403287
133	0x3c384012	0.011245744
134	0x3d532b21	0.051554803
135	0xbc398cdb	-0.0113250865
136	0xbd7de680	-0.0619874
137	0xbbc24920	-0.0059291273
138	0xbd41da8f	-0.047327574
139	0xbd1c3abe	-0.03814196
140	0xbd88fbf7	-0.066886835
141	0x3cc5924a	0.024117608
142	0xbcf93f10	-0.030425578
143	0xbdc9a0d6	-0.0984513
144	0x3c94c5ba	0.01816069
145	0x3d63de36	0.05563184
146	0x3c352c2f	0.0110578975
147	0x3ba858b0	0.0051375255
148	0x3c522d15	0.012828131
149	0x3a177834	0.00057781045
150	0x3cfcc82c	0.030857168
151	0xbd3cb017	-0.04606637
152	0xbd3edfad	-0.046600033
153	0xbc8031ca	-0.015648741
154	0x3c423de4	0.011855576
155	0xbd823b0d	-0.06358919
156	0xbd93adfa	-0.07210918
157	0xbca2ec06	-0.019887935
158	0xbd60e1f1	-0.054902975
159	0x3d6145f2	0.054998346
160	0x3d4140e9	0.047181044
161	0xbc8d5400	-0.017251968
162	0xbda2943c	-0.0793843
163	0xba5ca000	-0.0008416176
164	0xbd635cdf	-0.05550849
165	0xbcf6dd44	-0.030134805
166	0x3d236846	0.039894365
167	0xbca3cb2d	-0.019994343
168	0x3cc1f5f5	0.023676852
169	0xbd931ca7	-0.071831994
170	0xbd607a4c	-0.05480413
171	0xbd3db8c8	-0.0463188
172	0xbb23afb0	-0.0024976544
173	0xbd0dbdc7	-0.034604814
174	0xbda19aa3	-0.07890823
175	0xbcda7529	-0.026667194
176	0xbd782a69	-0.06058732
177	0x3bb1472d	0.005410096
178	0xbd2c157d	-0.04201268
179	0xbd4ca47b	-0.04996155
180	0x3d3909d0	0.045175374
181	0xb95ef8e0	-0.00021264283
182	0x3d279660	0.040914893
183	0xbca61386	-0.020272981
184	0xbd8031b0	-0.06259477
185	0x3d3558d3	0.044274163
186	0x3bee7cae	0.0072780466
187	0xbd8e04e3	-0.06934526
188	0xbd2e6995	-0.04258116
189	0x3ced27e3	0.028949684
190	0xbc6948d4	-0.014238555
191	0xbcaf96c9	-0.021434205
192	0x3d1c2ac8	0.038126737
193	0xbd82d2ad	-0.063878395
194	0xbcf2b935	-0.02962933
195	0x3b8f50dd	0.0043736533
196	0x3d0e64eb	0.03476421
197	0x3c7fabb7	0.015604905
198	0xbd53b09b	-0.051682096
199	0x3ce2b595	0.027674476
200	0x3dfb4161	0.122683294
201	0x3d8abe06	0.06774525
202	0x3e22b387	0.15888797
203	0xbd8efc06	-0.069816634
204	0x3e16598e	0.146826
205	0xbd698899	-0.057015035
206	0xbed00567	-0.40629122
207	0x3dfc9bab	0.12334379
208	0xbd675f70	-0.0564875
209	0x3ec3bc4f	0.38229606
210	0xbf94c4fd	-1.1622616
211	0xbedafa23	-0.42768964
212	0xbed46aad	-0.41487637
213	0xbd772012	-0.06033332
214	0x3c289d66	0.010291433
215	0x3c716b19	0.014735007
216	0x3f82d6d2	1.0221808
217	0xbe18cfe4	-0.14923054
218	0x3e5dca5d	0.21659227
219	0xbd48d8c4	-0.04903485
220	0xbf04d0c2	-0.5188104
221	0xbc084a62	-0.0083185155
222	0x3d8cb836	0.06871073
223	0x3e123778	0.14278972
224	0x3d336e72	0.0438065
225	0xbe9bdcfc	-0.30442035
226	0x3d861abd	0.06548069
227	0x3e8b86ef	0.27251384
228	0x3da3025e	0.07959436
229	0xbf08d71e	-0.5345324
230	0x3c602e10	0.013682857
231	0xbf603c46	-0.8759197
232	0xbd2c3bcc	-0.042049214
233	0x3ec26729	0.3796933
234	0x3e8fd77b	0.28094086
235	0x3e553aee	0.20823261
236	0x3dc448ec	0.09584221
237	0xbf8ea109	-1.1142894
238	0xbd2ebd09	-0.042660747
239	0xbcea04bf	-0.028566716
240	0x3da018e4	0.078172475
241	0xbf758aeb	-0.95915097
242	0xbe0a7b8c	-0.13523692
243	0x3ccf5e26	0.025313448
244	0xbde3fa68	-0.111317456
245	0x3e4c465d	0.19948716
246	0xbf2ba3c6	-0.67046773
247	0xbe5d5349	-0.21613802
248	0xbf4198e3	-0.7562391
249	0x3ded9373	0.11600389
250	0xbda66879	-0.08125395
251	0x3ec2c9d3	0.38044605
252	0xbdc6b641	-0.09702731
253	0xbe6b9299	-0.23005141
254	0xbed7b005	-0.4212648
255	0x3d9b888c	0.075944036

bias f4 [200]
0	0xbcd17fb8	-0.025573596
1	0xbe2ca943	-0.16861443
2	0xbe024eb7	-0.1272534
3	0x3cba31f0	0.02272889
4	0xbe0a9ca7	-0.1353632
5	0xbdcbdd61	-0.09954334
6	0x3e790af8	0.2432059
7	0x3e37052b	0.17873065
8	0xbde8fcc9	-0.1137634
9	0xbdf4e9e0	-0.119586706
10	0xbc3651dc	-0.011127915
11	0x3cb40c4a	0.021978516
12	0xbcb1883c	-0.021671407
13	0xbe2dcde1	-0.16973068
14	0xbdb684a8	-0.08912021
15	0xbc9c032a	-0.019044477
16	0xbdb95f31	-0.090513594
17	0xbe1f4ca9	-0.15556587
18	0x3e117ab7	0.14206968
19	0xbd049e65	-0.03237762
20	0xbdd29f21	-0.10284258
21	0xbd9e5f62	-0.077330366
22	0xbd3069ad	-0.04306953
23	0x3e58be1a	0.21166268
24	0x3df8a754	0.1214129
25	0x3e720151	0.23633315
26	0x3e92bdca	0.28660423
27	0xbd95d128	-0.07315284
28	0xbd5b88a5	-0.05359711
29	0x3d87336b	0.06601604
30	0xbdf7d25d	-0.121006705
31	0xbd68a268	-0.056795508
32	0xbe069fa8	-0.13146842
33	0xbdbac4c7	-0.091195635
34	0x3dd6eed9	0.10494775
35	0xbe068872	-0.13137987
36	0xbe065ffa	-0.1312255
37	0xbe9e92ee	-0.30971473
38	0x3dfcec71	0.12349785
39	0xbe11e520	-0.1424756
40	0xbd360085	-0.04443409
41	0x3d584b73	0.05280633
42	0xbe9d62b8	-0.3073938
43	0xbcd8b7cc	-0.026454829
44	0xbd90532d	-0.070471145
45	0x3e80406a	0.25049144
46	0xbcc1e023	-0.023666447
47	0x3e04cc3f	0.12968539
48	0xbcb59b68	-0.02216883
49	0x3ed331ff	0.41249081
50	0x3e1a0008	0.15039074
51	0xbdb11df0	-0.08648288
52	0x3ebc2cac	0.36752832
53	0xbc69f786	-0.014280206
54	0xbdd29bfe	-0.102836594
55	0xbdc2f3ad	-0.09519134
56	0xbde06017	-0.10955828
57	0xbd6ce64e	-0.057836823
58	0xbc2344a1	-0.009965093
59	0xbe3b7345	-0.1830569
60	0xbbe52511	-0.006992944
61	0xbcd21122	-0.025642935
62	0xbdd7005f	-0.10498118
63	0xbd4122fe	-0.04715251
64	0xbd4661ee	-0.048433237
65	0xbdb5b8e9	-0.088731594
66	0x3e99c84a	0.3003562
67	0xbd102806	-0.03519442
68	0xbd1cb5c9	-0.0382593
69	0xbd940190	-0.072268605
70	0xbe8ec11f	-0.27881715
71	0xbe61c655	-0.22048314
72	0xbd8f5ca6	-0.07000093
73	0xbe17ca2a	-0.14823213
74	0xbef2e2e8	-0.4743874
75	0xbe262b4b	-0.16227452
76	0xbe393637	-0.18087088
77	0xbaa7aaf6	-0.0012792039
78	0xbc80c042	-0.015716676
79	0x3ea10727	0.3145077
80	0xbcb8c82a	-0.022556383
81	0x3d7287eb	0.059211653
82	0xbe1a574c	-0.15072364
83	0xbecb8651	-0.39750913
84	0xbe44b44e	-0.19209406
85	0xbb91aacf	-0.004445411
86	0xbda63dac	-0.08117232
87	0x3bb9c093	0.0056687086
88	0xbe7641f0	-0.2404859
89	0xbc8a5524	-0.016886301
90	0xbe0efcf4	-0.13963681
91	0xbc6c6c04	-0.01443005
92	0x3da01973	0.07817354
93	0xbdc4a106	-0.09601025
94	0xbd2971f6	-0.041368447
95	0xbe72d23e	-0.23713014
96	0x3bc57dcd	0.0060269595
97	0xbccde39b	-0.025132945
98	0xbc335f17	-0.010947964
99	0x3d059acf	0.03261834
100	0xbdbf7b04	-0.09349635
101	0xbc4db51b	-0.012555386
102	0x3ea0393b	0.31293663
103	0x3c5d266d	0.013497931
104	0xbd168654	-0.0367492
105	0x3d56a6e6	0.05240526
106	0xbd5ee80c	-0.054420516
107	0xbcc16787	-0.023608936
108	0xbe88855c	-0.26664245
109	0xbdb98177	-0.090578966
110	0x3dd64cd1	0.1046387
111	0xbdbe6193	-0.092959546
112	0xbd5be32b	-0.05368344
113	0xbe1950d9	-0.14972247
114	0x3d7e1db1	0.062040035
115	0xbba8e777	-0.005154546
116	0xbe996a8d	-0.29964104
117	0xbd404057	-0.04693636
118	0xbd3463fe	-0.044040672
119	0xbdbe0511	-0.0927831
120	0x3de0c828	0.10975677
121	0x3e341cad	0.17589064
122	0xbd90cb46	-0.07070021
123	0xbe330478	-0.17482173
124	0xbdac054d	-0.083994485
125	0xbaf61a57	-0.001877616
126	0x3dae2a76	0.085041925
127	0x3ee34186	0.44385928
128	0xbc3c4c21	-0.01149276
129	0xbd99c523	-0.07508304
130	0x3d61aebd	0.055098284
131	0xbd58e313	-0.05295093
132	0x3e56d127	0.20978223
133	0x3e95fbae	0.2929358
134	0xbda98c1d	-0.082786776
135	0xbcbce040	-0.02305615
136	0xbd84b56e	-0.064799175
137	0xbdacd25b	-0.084385596
138	0xbda8ab22	-0.08235766
139	0xbd463438	-0.048389643
140	0xbee31847	-0.4435446
141	0x3ca94ad4	0.020665564
142	0xbe60f5eb	-0.2196881
143	0x3e0a7510	0.13521218
144	0xbca326ac	-0.019915901
145	0x3df63b37	0.12023013
146	0xbdadff62	-0.08495976
147	0xbd0f5394	-0.034991816
148	0x3dfdfd9f	0.1240189
149	0x3e196b41	0.1498232
150	0xbdac36e4	-0.08408907
151	0x3e1bc037	0.15210043
152	0x3eda8ebe	0.4268703
153	0xbe3eee00	-0.18645477
154	0xbe28de07	-0.16490947
155	0xbd5f90fc	-0.054581627
156	0xbd9bafeb	-0.07601913
157	0xbe298f64	-0.16558605
158	0x3d831851	0.06401122
159	0xbe00192d	-0.12509604
160	0xbe028517	-0.12746082
161	0xbd898f4b	-0.06716784
162	0x3d842494	0.06452289
163	0x3d01d840	0.031700373
164	0x3df6150b	0.120157324
165	0xbd05464b	-0.03253774
166	0xbcf537ce	-0.029933836
167	0xbdc7c071	-0.09753502
168	0xbdbeeb52	-0.093222275
169	0xbd67b37d	-0.056567658
170	0xbde8518f	-0.11343681
171	0x3ec0f906	0.3768999
172	0xbcd0e012	-0.02549747
173	0xbd95aeeb	-0.073087536
174	0x3df7b467	0.12094956
175	0x3e65003c	0.2236337
176	0xbd5fa641	-0.05460191
177	0xbd32d147	-0.043656614
178	0xbcb43469	-0.021997647
179	0xbc9a4fad	-0.01883682
180	0x3e0efce7	0.13963662
181	0xbe2d880b	-0.16946428
182	0xbe029f3d	-0.12756057
183	0x3e82bf46	0.25536555
184	0xbb93adc7	-0.0045068
185	0x3e143be8	0.14475977
186	0xbd902485	-0.070382155
187	0xbd9efab0	-0.077626586
188	0x3bf678b6	0.007521714
189	0xbda75bf6	-0.08171837
190	0xbe065d87	-0.13121615
191	0xbd4fa95c	-0.050698623
192	0xbd5a2335	-0.053256232
193	0xbdd1b248	-0.102390826
194	0xbd8e3cb1	-0.0694517
195	0xbda340c0	-0.079713345
196	0x3e7a4f6f	0.24444364
197	0xbcaa431c	-0.020783953
198	0xbe608a4f	-0.2192776
199	0x3c90fbaf	0.017698137

weight f4 [1, 200]
0	0xbd28b1aa	-0.04118506
1	0x3d5d2115	0.053986628
2	0x3e0549f0	0.13016486
3	0x3d193c7b	0.037411194
4	0xbf2be79c	-0.6715028
5	0xbcb33903	-0.021877771
6	0x3dd80fb3	0.105498694
7	0x3e367989	0.178198
8	0xbdec8fa2	-0.11550833
9	0xba8ec999	-0.0010893821
10	0xba7c04ad	-0.0009613734
11	0xbe46b982	-0.19406703
12	0xbcb4e4da	-0.022081781
13	0xbe211298	-0.15729749
14	0xbc051bc8	-0.008124299
15	0xbf0fc23f	-0.5615577
16	0x3cd3e5b4	0.025866367
17	0x3f1b9587	0.60775036
18	0xbeb216c0	-0.34782982
19	0x3c2b1495	0.010441919
20	0xbe79688d	-0.24356289
21	0x3c3ef511	0.011655108
22	0x3e591d3b	0.21202557
23	0x3e7a8a3e	0.24466798
24	0xbe49114c	-0.19635504
25	0x3d3fb2ac	0.046801254
26	0x3d94c2d2	0.072637215
27	0x3d08680d	0.033302356
28	0x3bd63d88	0.006538097
29	0xbde4195d	-0.1113765
30	0xbe093a41	-0.13401128
31	0x3e84e7fa	0.25958234
32	0xbe5f993f	-0.21835802
33	0x3c6476c5	0.0139443325
34	0x3d91849b	0.071053706
35	0x3cc8d3c8	0.024515048
36	0xbd2c82b4	-0.042116836
37	0xbe55c1e1	-0.2087474
38	0xbe59c122	-0.2126508
39	0xbe6b4b37	-0.22977911
40	0xbcbd7d28	-0.023130968
41	0xbda0072d	-0.07813869
42	0xbf815063	-1.0102657
43	0xbc873854	-0.016506352
44	0x3cf66e4a	0.030081887
45	0xbe23aecb	-0.15984647
46	0xba548ff5	-0.00081086095
47	0xbdc483ee	-0.09595476
48	0x3ea2d6e9	0.31804588
49	0x3d7eda98	0.062220186
50	0xbdda7464	-0.10666731
51	0xbc6e6804	-0.014551166
52	0x3e271993	0.1631835
53	0x3ca7462b	0.0204192
54	0x3ccd8306	0.02508689
55	0x3ea2fa1e	0.3183145
56	0x3cdbcae6	0.026830148
57	0xbb1c23d9	-0.0023825078
58	0x3cb23cf9	0.02175759
59	0xbf069451	-0.5257006
60	0xbba6508d	-0.0050755204
61	0x3ceed6e5	0.029155204
62	0xbe465a6a	-0.19370428
63	0x3babb990	0.0052406266
64	0xbeda8dab	-0.4268621
65	0xbc61c8cf	-0.013780787
66	0x3d152d43	0.036420118
67	0x3c26e933	0.010187435
68	0xbb89553d	-0.0041910694
69	0xbedf00df	-0.43555352
70	0x3ecd80b6	0.4013726
71	0xbe0ddb5d	-0.13853212
72	0x3c8eeb5b	0.01744621
73	0xbd90dbfa	-0.07073207
74	0xbfadbf0e	-1.357393
75	0x3ba06295	0.0048945644
76	0x3dc68916	0.09694116
77	0xbc55903d	-0.013034877
78	0x3e21700e	0.15765402
79	0x3e00fcf9	0.12596501
80	0x3ce88ecb	0.028388401
81	0xbec40444	-0.38284504
82	0xbbcc9f8f	-0.006244607
83	0xbf8eafb0	-1.1147366
84	0xbdec3021	-0.11532617
85	0x3a3d0363	0.00072102825
86	0xbcc24d07	-0.02371837
87	0xba2b25c7	-0.00065287616
88	0x3ea7ebff	0.32797238
89	0xbc22ac70	-0.009928808
90	0xbe9d65ea	-0.30741817
91	0x3e1db075	0.15399344
92	0x3d485c21	0.048915986
93	0xbc837bfd	-0.016050333
94	0x3b23bb9d	0.0024983652
95	0xbf48cb27	-0.78434986
96	0xbe91e8cc	-0.28497922
97	0xbcd56222	-0.02604777
98	0xbd406507	-0.046971347
99	0xbdfbe328	-0.12299186
100	0x3c06c5a5	0.008225833
101	0x3e60a78a	0.21938911
102	0x3d99460c	0.074840635
103	0x3df4876b	0.119398914
104	0xbcc37b23	-0.023862427
105	0x3df0ac8b	0.1175166
106	0xbe45e6f4	-0.19326383
107	0xbbae118a	-0.0053121494
108	0x3e977898	0.29584193
109	0xbcda253d	-0.026629085
110	0x3e590044	0.21191508
111	0x3e642637	0.22280203
112	0xbbdde9c7	-0.006772253
113	0x3e13123a	0.14362422
114	0xbd9a8e2b	-0.07546648
115	0x3c8f9ccf	0.017530827
116	0xbe944fe5	-0.28967205
117	0xbdad2068	-0.084534466
118	0xbcc06c79	-0.023489224
119	0xbcd2f6d0	-0.025752455
120	0xbdcaa96a	-0.098955944
121	0x3e7dad8c	0.24773234
122	0xbcdc0c82	-0.026861433
123	0x3ec0e443	0.3767415
124	0xbe97eadd	-0.29671374
125	0xbcec1348	-0.028817788
126	0x3defac84	0.117028266
127	0x3da56970	0.08076751
128	0x3b9f137f	0.004854619
129	0xbe3b02e0	-0.18262815
130	0xbe425679	-0.18978299
131	0xbe0667ba	-0.13125506
132	0xbe1f29d4	-0.155433
133	0x3d853e43	0.06506016
134	0x3cbec9c6	0.023289572
135	0xbbf58d5a	-0.007493657
136	0x3be48c5c	0.00697474
137	0xbbcf5a7b	-0.006327925
138	0xbe9bde8e	-0.30443233
139	0xbd388045	-0.045044202
140	0xbf0c5734	-0.5482056
141	0x3e5c347e	0.21504399
142	0x3e9c704a	0.3055442
143	0xbd870eb3	-0.065946005
144	0xbd1260c9	-0.035736833
145	0xbd99ccf9	-0.075097986
146	0x3db72420	0.08942437
147	0xbe9e214e	-0.30884784
148	0xbe6db87a	-0.23214903
149	0x3dffd507	0.124918036
150	0xbc00715e	-0.007839529
151	0x3df4c581	0.119517334
152	0x3da4ffdb	0.08056613
153	0xbf489f83	-0.78368396
154	0x3e7bcbc0	0.24589443
155	0xbd0b5e07	-0.03402522
156	0xbc2fbd72	-0.01072632
157	0x3d283f30	0.041075885
158	0x3e3857b5	0.18002208
159	0x3e9d6b62	0.3074599
160	0xbd76de8a	-0.060270824
161	0x3ba89164	0.005144285
162	0xbe32b9b4	-0.17453653
163	0xbe2a8967	-0.16653977
164	0xbe64565c	-0.22298568
165	0x3c210254	0.009827215
166	0xbcb71f83	-0.022353893
167	0xbc2df21a	-0.010616804
168	0x3ea4c757	0.32183334
169	0x3b1cfb83	0.0023953624
170	0xbda99845	-0.08280996
171	0x3d5bb053	0.053634953
172	0xbcafcaa6	-0.021458935
173	0x3c6abecd	0.014327717
174	0xbe699ccf	-0.22813724
175	0x3e0c25cf	0.13686298
176	0xbb9bfeaa	-0.004760583
177	0xbeed73bf	-0.4637737
178	0x3c9e56fd	0.019328589
179	0xbe93fc8a	-0.2890361
180	0x3e119ea9	0.1422068
181	0x3e560474	0.20900136
182	0xbc0678dd	-0.008207527
183	0xbe1d2b3b	-0.15348522
184	0xbc175d2e	-0.009238524
185	0x3df248be	0.11830281
186	0x3cd616f5	0.026133994
187	0xbf59afa6	-0.85033643
188	0xbd10c6f7	-0.035345998
189	0xbd25b29c	-0.04045354
190	0x3b0ae564	0.0021193856
191	0x3cb85612	0.022501979
192	0xbc12f6c8	-0.00896997
193	0xbb2adf31	-0.0026072974
194	0x3e531d9e	0.20616767
195	0x3e3ef81e	0.18649337
196	0xbd3c17e1	-0.04592121
197	0xbcd52527	-0.026018692
198	0xbf8a0a69	-1.0784427
199	0xbc27088c	-0.010194909

weight f4 [200, 15]
0	0x3f41afdb	0.7565896
1	0x3a978e32	0.0011562763
2	0xbf2ac899	-0.6671234
3	0xbe1e1037	-0.15435873
4	0xbefdd29b	-0.49574742
5	0xbfa77940	-1.3083878
6	0xbfb67592	-1.425463
7	0xc02947bb	-2.645003
8	0x3db588cd	0.08863983
9	0x3e262077	0.16223322
10	0xbee62d36	-0.44956368
11	0xbd8ab727	-0.06773215
12	0xbcf9e349	-0.030503886
13	0x3e11d751	0.14242293
14	0x3ee40a7a	0.44539243
15	0xbdafc631	-0.08582724
16	0xbd392dee	-0.045209818
17	0xbcdd2095	-0.026993075
18	0xbda04b51	-0.078268655
19	0xbebf364c	-0.37346113
20	0x3d0647f9	0.032783482
21	0xbe8f633c	-0.28005397
22	0x3e8e257e	0.2776298
23	0xbc35a64c	-0.011087012
24	0xbf43515f	-0.7629604
25	0x3f571f4d	0.84032136
26	0xbe3993bd	-0.18122764
27	0x3e6e7d22	0.23289922
28	0xbdb53e4d	-0.088497736
29	0xbcd43806	-0.02590562
30	0xbe51194e	-0.20419809
31	0xbe3b0c96	-0.1826652
32	0x3e381cac	0.17979687
33	0xbd7d5c44	-0.06185557
34	0xbed6e845	-0.41974083
35	0xbea8121d	-0.3282632
36	0xbbdd436e	-0.006752423
37	0x3e1905e5	0.14943655
38	0x3ea6cb1d	0.32576838
39	0xbea2aeee	-0.31774086
40	0x3eba731a	0.3641594
41	0xbf2aa5d7	-0.666593
42	0xbe10b14d	-0.14130135
43	0x3e6a43bd	0.22877403
44	0xbf1ab6f3	-0.6043541
45	0x3e001ae2	0.12510255
46	0xbd8e5c15	-0.06951157
47	0xbf1206a9	-0.5704141
48	0x3f5258d7	0.8216681
49	0xbd2b858f	-0.04187542
50	0x3dd37d4d	0.103266336
51	0xbe80856b	-0.2510179
52	0xbf112798	-0.5670104
53	0xbf55dfe4	-0.83544755
54	0xbe1c96aa	-0.15291849
55	0x3edbb412	0.4291082
56	0x3eee79bd	0.46577254
57	0x3ea58abe	0.32332414
58	0xbe5fb283	-0.2184544
59	0x3d910398	0.070807636
60	0x3eaca825	0.33722034
61	0xbf2a065a	-0.6641594
62	0x3ed41fe8	0.41430593
63	0x3e82e0a7	0.2556202
64	0x3d1ee227	0.038789894
65	0xbd954bcf	-0.0728985
66	0x3e2776ed	0.1635396
67	0x3e610eed	0.2197835
68	0xbf5ce682	-0.86289227
69	0xbd0e6f68	-0.034774214
70	0xbdf71d50	-0.12066138
71	0xbdeb3e83	-0.114865325
72	0x3ddf671f	0.10908341
73	0x3c690ed5	0.014224728
74	0x3f205e95	0.6264432
75	0x3e37123e	0.17878053
76	0x3d36189b	0.04445706
77	0x3dae2fa9	0.08505184
78	0x3d9df5b6	0.07712881
79	0xbdf6e636	-0.12055628
80	0xbe4aef6f	-0.19817899
81	0x3e1a9962	0.15097573
82	0x3dc268df	0.09492659
83	0xbf3c38fd	-0.7352446
84	0x3eb30fa8	0.34972882
85	0x3ecd8d7a	0.40147
86	0x3eda79e6	0.42671126
87	0xbf103e15	-0.5634473
88	0xbd547e39	-0.051878188
89	0xbdcf8794	-0.10133281
90	0xbecf3dd5	-0.40476862
91	0x3e8aa238	0.27076888
92	0xbec2a57d	-0.38016883
93	0x3dd2c7cf	0.10292017
94	0x3d45dcf2	0.048306413
95	0x3db663fe	0.08905791
96	0xbec6231e	-0.38698667
97	0x3e4bb2d0	0.1989243
98	0x3da3e22d	0.08002124
99	0x3e2b567f	0.16732214
100	0x3edefd21	0.43552497
101	0xbd927029	-0.07150299
102	0x3c723c58	0.014784895
103	0x3dc89e88	0.097958624
104	0xbf125dde	-0.5717448
105	0xbf4f118c	-0.8088615
106	0xbefbc476	-0.49173325
107	0xbcf99743	-0.030467635
108	0xbee20739	-0.44146135
109	0xbe1f33b8	-0.15547073
110	0x3e13cebe	0.14434335
111	0xbf0e18b5	-0.5550645
112	0xbfdbd254	-1.7173562
113	0xc0157444	-2.3352213
114	0xbcca63e0	-0.024705827
115	0x3e9f2cd8	0.310889
116	0xbed0ead1	-0.4080415
117	0xbe2fb119	-0.17157401
118	0xbec2e2bd	-0.38063613
119	0x3e81f01a	0.25378495
120	0xbdd7475e	-0.10511659
121	0x3db4d37e	0.088294014
122	0x3e5f2e4c	0.21795005
123	0x3e8c5bd8	0.2741382
124	0xbe11659d	-0.14198919
125	0xbf0289bc	-0.50991416
126	0x3db25066	0.08706741
127	0xbeab259f	-0.3342714
128	0x3d89e988	0.06733996
129	0xbecc7a9d	-0.39937297
130	0xbf5c39aa	-0.8602549
131	0x3ed38c50	0.41317987
132	0x3e182619	0.14858283
133	0xbe8e3005	-0.2777101
134	0x3f2baa5d	0.6705683
135	0xbe196aa8	-0.14982092
136	0xbf07ec0f	-0.5309457
137	0x3e0f63f3	0.14002971
138	0x3e61b414	0.2204135
139	0x3dfe3944	0.12413266
140	0x3eaaaa45	0.3333303
141	0xbd6e9ee9	-0.058257017
142	0xbf3e17cf	-0.7425508
143	0xbea63331	-0.3246093
144	0x3e5b9870	0.21444869
145	0x3e519687	0.20467578
146	0x3e69ad02	0.22819903
147	0xbf1b8fb0	-0.60766125
148	0xbf1faf5f	-0.6237697
149	0xbe594ab3	-0.21219902
150	0xbeeb11c1	-0.45911983
151	0xbe916918	-0.28400493
152	0x3ea06bc9	0.31332234
153	0x3cd932da	0.026513506
154	0x3d93a229	0.07208664
155	0x3e939134	0.2882172
156	0xbe54833b	-0.20753185
157	0xbd4ea9c0	-0.050454855
158	0x3e69372e	0.22774956
159	0x3e1165e1	0.1419902
160	0x3d1e74ee	0.03868573
161	0x3e66fa85	0.22556503
162	0xbe6a82a5	-0.229014
163	0xbc85e991	-0.016346725
164	0x3f0bd433	0.54620665
165	0x3ee52b93	0.44759807
166	0x3ebd5b78	0.36983848
167	0x3dc4407e	0.095826134
168	0xbd6da217	-0.05801591
169	0xbe8318f1	-0.25604966
170	0x3daafa1b	0.08348485
171	0x3eb2fc4a	0.34958106
172	0xbcfcce95	-0.030860225
173	0xbf28f08e	-0.6599206
174	0x3eb58cf7	0.3545911
175	0xbd97b15e	-0.07406877
176	0x3db9246f	0.09040152
177	0xbe933352	-0.28750092
178	0x3ec3f942	0.38276106
179	0xbef96c41	-0.48715404
180	0x3f25f8e8	0.64832926
181	0xbef46342	-0.47731978
182	0xbf0c11c9	-0.5471464
183	0x3ef045a7	0.4692814
184	0xbe86e740	-0.26348305
185	0xbda5a612	-0.08088316
186	0xbe1ea8fa	-0.15494147
187	0xbd94055c	-0.07227585
188	0x3e8d3b09	0.27584103
189	0xbef2bff3	-0.4741207
190	0x3ebb08e3	0.36530218
191	0x3c77fda4	0.015136156
192	0x3dedeb5c	0.11617157
193	0xbc3d11a4	-0.01153985
194	0x3f146cf5	0.57978755
195	0x3cb1a084	0.021682985
196	0xbd3f9c8f	-0.046780165
197	0x3a0b7606	0.0005320016
198	0x3ed11c5e	0.40841955
199	0x3f5aeb97	0.8551573
200	0xbd9600b8	-0.07324356
201	0xbdeacf23	-0.114652894
202	0xbf144878	-0.5792308
203	0xbe918381	-0.28420642
204	0xbe4428c7	-0.1915618
205	0x3dbad9d6	0.0912358
206	0x3f03a9bd	0.51430875
207	0x3b959dd8	0.0045659356
208	0xbe775485	-0.24153335
209	0x3c402a5c	0.011728849
210	0xbddb42a2	-0.107060686
211	0xbddf7855	-0.109116234
212	0x3e9d1897	0.30682823
213	0xbe2f1e1f	-0.17101334
214	0x3b2c74c6	0.002631472
215	0x3e61ac76	0.22038445
216	0xbe8c58a8	-0.2741139
217	0xbed78206	-0.42091388
218	0x3ea34c7d	0.31894293
219	0x3d786d33	0.060651015
220	0xbf13901b	-0.5764176
221	0x3e570201	0.20996858
222	0x3f086460	0.5327816
223	0x3e6b255e	0.22963473
224	0xbd8f67a1	-0.070021875
225	0x3f3027fd	0.6881102
226	0xbd9bec37	-0.07613414
227	0xbf42d2ad	-0.76102716
228	0xbea8d27a	-0.3297308
229	0x3e2e7747	0.17037688
230	0xbe9afc92	-0.3027082
231	0x3ebc6edd	0.36803332
232	0xbe4f3fe1	-0.20239212
233	0xbdc458ab	-0.095872246
234	0xbe9f0a75	-0.31062666
235	0x3e1d35c5	0.15352543
236	0x3eb20c6d	0.34775105
237	0x3e7cce32	0.24688032
238	0x3dbe07fe	0.09278868
239	0xbee9b1f1	-0.4564357
240	0xbe5dd9e6	-0.21665153
241	0x3e4b2141	0.19836904
242	0xbdbd2b28	-0.09236747
243	0xbb979dc9	-0.0046269638
244	0xbdc35ab6	-0.09538786
245	0xbe81cbbe	-0.25350755
246	0x3e118c7c	0.14213747
247	0x3cdec25b	0.027192285
248	0xbe9a4019	-0.30127028
249	0xbe2a02b0	-0.16602588
250	0xbf01271b	-0.50450295
251	0xbf2c92b1	-0.67411333
252	0xbf32da6c	-0.69864535
253	0xbe714ace	-0.23563692
254	0x3df07b56	0.117422745
255	0xbdc2f0c2	-0.09518577

bias f4 [200]
0	0x3e0111f5	0.12604506
1	0x3e553659	0.20821513
2	0xbcd4b0fc	-0.025963299
3	0xbcfb35a3	-0.030665224
4	0xbe140423	-0.14454703
5	0x3d7ddfb0	0.061980903
6	0xbe6c1123	-0.23053412
7	0x3ce2a405	0.027666101
8	0x3d46f21c	0.048570737
9	0x3ea0f59e	0.3143739
10	0xbf02588c	-0.5091636
11	0xbefc4218	-0.49269176
12	0x3c3ec6a3	0.011644038
13	0x3cb93d3c	0.022612207
14	0xbeb68bb3	-0.35653457
15	0xbed3715e	-0.4129743
16	0xbe304079	-0.17212094
17	0x3df3d661	0.11906124
18	0x3e27aebf	0.16375254
19	0xbe59eab0	-0.21280932
20	0x3e4e887d	0.20169254
21	0xbe151455	-0.14558537
22	0xbe9f71b3	-0.31141433
23	0xbd2d5ca4	-0.042324677
24	0xbcf3d15b	-0.029762914
25	0xbe8e5b44	-0.27804005
26	0x3e5b1fc5	0.21398838
27	0xbdbe253a	-0.09284444
28	0x3d87fcb5	0.06639997
29	0xbdc0a757	-0.094069175
30	0xbe82d994	-0.25556624
31	0x3dedca8a	0.11610897
32	0xbea96ca2	-0.33090693
33	0x3e020cc5	0.12700184
34	0xbddcfbbe	-0.107902035
35	0x3dfa61cc	0.122256845
36	0xbcbda012	-0.023147617
37	0xbe5a16a2	-0.21297696
38	0x3e744088	0.23852742
39	0xbdff1f48	-0.12457138
40	0xbe59d3cc	-0.212722
41	0xbe1c814a	-0.15283695
42	0xbe462dd5	-0.19353421
43	0x3e7e0ad2	0.24808815
44	0xbe39d4c6	-0.18147573
45	0xbea531aa	-0.32264453
46	0xbdb81eda	-0.089902595
47	0x3dbae914	0.091264874
48	0xbe335405	-0.1751252
49	0xbdc73412	-0.097267285
50	0xbdf148da	-0.117814735
51	0x3dd7ff54	0.10546747
52	0x3db106da	0.08643885
53	0xbecf9029	-0.40539673
54	0x3e66cfc9	0.22540201
55	0xbded9c28	-0.1160205
56	0xbeb718ea	-0.35761195
57	0xbe474ac8	-0.1946212
58	0x3e03ef8f	0.12884353
59	0xbeb73b06	-0.3578722
60	0xbebb7086	-0.36609286
61	0x3e05427a	0.1301364
62	0x3d792d4b	0.06083421
63	0x3e968a69	0.29402474
64	0xbe307a49	-0.17234148
65	0xbc2436f3	-0.010022867
66	0xbdd9ac0e	-0.1062852
67	0xbd0fd69c	-0.035116777
68	0xbe1b58d8	-0.1517061
69	0xbe813d5f	-0.25242135
70	0xbe15920e	-0.14606497
71	0xbe86505b	-0.2623318
72	0x3e351c54	0.17686588
73	0xbe435f2b	-0.19079272
74	0xbd194ade	-0.037424915
75	0x3e459113	0.19293623
76	0xbde21193	-0.11038508
77	0x3e5fbe3f	0.21849917
78	0xbe883505	-0.2660295
79	0xbe709708	-0.23495114
80	0xbd05a1d2	-0.032625027
81	0xbeaf5ebd	-0.34251967
82	0xbc9a27c0	-0.018817782
83	0x3d1c1b64	0.03811206
84	0xbea2bdf5	-0.3178555
85	0x3cd10c74	0.025518633
86	0x3e840048	0.25781465
87	0x3e1fa35e	0.15589663
88	0xbdbc85f0	-0.09205234
89	0xbe0dcd39	-0.13847817
90	0xbd7ac616	-0.061224066
91	0x3ebabde4	0.36473
92	0xbdcd3360	-0.10019565
93	0xbeb092b4	-0.34486926
94	0x3eaef926	0.3417446
95	0xbe8c6a06	-0.2742464
96	0x3d2a5dfc	0.041593537
97	0x3e245b58	0.1605047
98	0x3e2232d8	0.15839708
99	0x3e81f16c	0.25379503
100	0x3d4a2414	0.049350813
101	0x3e5e0249	0.21680559
102	0x3d993f5d	0.07482789
103	0xbd8180d6	-0.06323402
104	0xbdb271ef	-0.08713137
105	0xbdcf6f9d	-0.101287104
106	0x3e7d2d3f	0.24724291
107	0xbe85e981	-0.26154712
108	0xbdd35295	-0.10318486
109	0x3e348197	0.1762756
110	0x3de5258e	0.111888036
111	0x3e4886b4	0.19582635
112	0xbcb50718	-0.02209811
113	0x3e84a6d5	0.25908533
114	0xbe864f6a	-0.26232463
115	0xbdeb378e	-0.114852056
116	0xbea2e63a	-0.31816274
117	0xbe70a803	-0.23501591
118	0xbe23dfba	-0.16003314
119	0xbe11e0b8	-0.1424588
120	0x3dc04f40	0.09390116
121	0x3c9df350	0.01928106
122	0x3e353ab9	0.17698182
123	0xbe144472	-0.14479235
124	0x3e6bb108	0.23016751
125	0xbeb9e3be	-0.36306566
126	0xbd5339fa	-0.051568963
127	0xbe1cf68c	-0.15328425
128	0xbe93245c	-0.28738678
129	0xbe6153fb	-0.22004692
130	0xbec6664b	-0.38749918
131	0xbe60091c	-0.21878475
132	0xbd18be42	-0.03729082
133	0xbe9bdbf6	-0.30441254
134	0xbe836639	-0.25663927
135	0xbe270545	-0.16310604
136	0xbe6f927d	-0.23395725
137	0xbe5a9b71	-0.21348359
138	0xbd80c449	-0.062874384
139	0xbd2c70c2	-0.04209972
140	0x3e80c177	0.25147602
141	0xbdccc1cf	-0.099979036
142	0xbcf43705	-0.029811392
143	0xbe47225b	-0.194467
144	0x3c215f83	0.009849432
145	0x3d169cac	0.036770508
146	0xbe595d92	-0.212271
147	0x3d73e0ac	0.059540436
148	0x3e2f1f04	0.17101675
149	0xbeadaa1d	-0.3391885
150	0x3d9e0391	0.07715524
151	0xbcf8064b	-0.030276438
152	0xbd69774d	-0.05699854
153	0xbe6d5114	-0.2317546
154	0x3de65d95	0.11248318
155	0xbe08575f	-0.1331458
156	0x3df253ef	0.11832415
157	0x3d9f1c76	0.077691
158	0xbe0da6a9	-0.13833107
159	0xbe594dbc	-0.2122106
160	0xbeaf4de1	-0.34239104
161	0xbe112a83	-0.14176373
162	0xbe21da9e	-0.15806052
163	0xbe125ce4	-0.14293247
164	0x3e29f3d5	0.16596921
165	0xbe3c89a2	-0.18411878
166	0x3cff49b1	0.031163068
167	0xbeaf95d5	-0.34294
168	0x3ef0b2b9	0.47011355
169	0xbe67a9d1	-0.22623374
170	0x3cd8aeba	0.026450504
171	0x3e2ccd0f	0.16875099
172	0xbdad9210	-0.08475125
173	0xbdd07953	-0.10179391
174	0x3cebbc1b	0.02877622
175	0xbd6e57ea	-0.05818931
176	0xbec4acf7	-0.38413212
177	0x3e2cd89d	0.16879506
178	0xbdd99384	-0.106238395
179	0xbe333915	-0.17502244
180	0xbee57d00	-0.4482193
181	0xbea03bc9	-0.31295612
182	0x3e1625ff	0.14662932
183	0xbe1373d6	-0.14399657
184	0x3e18baa1	0.14914943
185	0xbe61e8e4	-0.22061497
186	0xbe08147d	-0.13289066
187	0x3e30b7d0	0.17257619
188	0xbe184102	-0.14868549
189	0xbec1d9ab	-0.3786138
190	0x3df09ab8	0.1174826
191	0x3cb1867f	0.021670578
192	0xbeee277f	-0.46514508
193	0x3e5cbcd7	0.21556412
194	0xbe8fe882	-0.28107077
195	0x3e20033c	0.15626234
196	0x3e2af467	0.16694795
197	0x3eb5f80e	0.35540813
198	0xbe5434b5	-0.20723231
199	0x3e762c19	0.2404026

weight f4 [200, 200]
0	0xbf58cb97	-0.84685653
1	0xbe7c7e7e	-0.24657628
2	0xbdcd0ea0	-0.10012555
3	0xbe2a8213	-0.16651182
4	0xbd807d35	-0.06273881
5	0x3e2c239a	0.16810456
6	0x3df2bb96	0.118521854
7	0xbeb02be8	-0.34408498
8	0xbdff7990	-0.12474358
9	0x3e5026f4	0.2032736
10	0x3e138b5a	0.14408627
11	0x3de9e663	0.11420896
12	0x3e8e4bf2	0.27792317
13	0x3e661804	0.22470099
14	0x3e56c13c	0.2097215
15	0xbec16a2b	-0.37776312
16	0x3b66ae0d	0.0035198957
17	0x3da09a83	0.07841971
18	0x3cbbe2ec	0.022935353
19	0x3e675025	0.22589166
20	0xbea83ef6	-0.32860535
21	0xbd8f5734	-0.069990546
22	0xbf026a7e	-0.50943744
23	0xbe8ebb18	-0.27877116
24	0xbd60e78e	-0.054908328
25	0xbf0800ce	-0.5312623
26	0xbd64e762	-0.055884726
27	0x3f399666	0.72495115
28	0x3d6dc753	0.05805142
29	0xbdb43026	-0.08798246
30	0xbd8a0594	-0.06739345
31	0xbbee3ae2	-0.007270203
32	0xbe15f2a5	-0.14643343
33	0xbda598e8	-0.08085805
34	0xbd8dffec	-0.06933579
35	0x3e506a97	0.20353161
36	0x3d5e1c0c	0.054225966
37	0xbf13d16a	-0.57741416
38	0x3e1c0d52	0.15239456
39	0xbfbd7884	-1.4802403
40	0x3cc6a1d6	0.024247091
41	0x3de17a4d	0.11009655
42	0x3d3e4bf2	0.046459146
43	0xbf660ea0	-0.89866066
44	0x3c872a18	0.016499564
45	0xbf02de48	-0.51120424
46	0xbe9c3f50	-0.30517054
47	0xbf46d951	-0.7767535
48	0xbf1a6814	-0.6031506
49	0xbd8248ed	-0.06361566
50	0xbfee1923	-1.8601421
51	0xbf121872	-0.5706855
52	0xbdcac083	-0.099
53	0x3d848a1c	0.06471655
54	0x3e284b12	0.16434887
55	0x3e224607	0.15847026
56	0xbfb99faf	-1.4501857
57	0xbf12795f	-0.5721645
58	0xbe836757	-0.2566478
59	0x3e1a4794	0.15066367
60	0x3eacc1c4	0.3374158
61	0xbeae0a74	-0.3399235
62	0xbdb80063	-0.08984449
63	0xbe3e8294	-0.18604499
64	0x3e9f0d57	0.31064865
65	0xbea07842	-0.3134175
66	0x3e143ff5	0.14477523
67	0xbc0ef1e8	-0.008724667
68	0x3e2eb9fd	0.17063136
69	0x3e414770	0.18874907
70	0xbd3112d3	-0.043230843
71	0xbe897d71	-0.26853517
72	0x3e204c66	0.15654144
73	0x3eb31a37	0.34980938
74	0x3e0c8363	0.13721995
75	0xbf5d9582	-0.86556256
76	0x3ebf820d	0.37403908
77	0x3e18f555	0.14937337
78	0x3d3da279	0.046297524
79	0xbd899d63	-0.06719472
80	0xbce2bb25	-0.027677128
81	0x3d230264	0.0397972
82	0xbcb0a146	-0.021561276
83	0xbe9f5023	-0.31115827
84	0x3e67b7a6	0.2262865
85	0x3e4bce18	0.19902837
86	0x3ec114d2	0.37711197
87	0xbe35d080	-0.17755318
88	0xbebe3da5	-0.37156406
89	0x3d845b60	0.06462741
90	0xbdbd5b5f	-0.09245943
91	0xbf522200	-0.8208313
92	0xba6c4b93	-0.0009013947
93	0xbe3c58f7	-0.18393312
94	0xbda32ec5	-0.07967905
95	0x38ef61ba	0.00011414611
96	0xbdad2779	-0.084547944
97	0xbe426d62	-0.18987039
98	0xbe79c344	-0.24390894
99	0xbea2f944	-0.318308
100	0x3d8dcef9	0.069242425
101	0xbcf40f42	-0.029792432
102	0xbf67ce23	-0.90548915
103	0x3d1fe6e1	0.039038543
104	0x3e64a434	0.22328264
105	0x3d53c793	0.051704
106	0x3e979604	0.2960664
107	0x3e404128	0.18774855
108	0x3e0d92f1	0.13825585
109	0xbe6fc9b6	-0.2341679
110	0xbeaa97ce	-0.33318943
111	0xbf53b325	-0.8269523
112	0xbf3d8f1b	-0.74046487
113	0xbc73c60e	-0.014878763
114	0xbce729ae	-0.028218117
115	0x3e36e3c7	0.17860328
116	0xbd81990e	-0.06328021
117	0xbd59d451	-0.053180996
118	0xbf6486f5	-0.8926843
119	0x3ed341c0	0.412611
120	0xbf203aad	-0.6258953
121	0xbe50d8cc	-0.20395201
122	0x3ddd30a2	0.108002916
123	0xbea0d45d	-0.3141202
124	0xbfec47c0	-1.8459396
125	0xbd26546d	-0.04060786
126	0xbe1a0f70	-0.15044951
127	0x3ccb220f	0.024796514
128	0xbdf88a44	-0.12135747
129	0x3e266509	0.1624948
130	0xbdf4dbc2	-0.11955978
131	0x3e4675be	0.19380853
132	0x3d430f6c	0.04762213
133	0xbeba43e3	-0.36379918
134	0xbe880344	-0.2656499
135	0xbf1527f6	-0.582641
136	0x3e3d4ea4	0.1848703
137	0x3c465f63	0.012107703
138	0xbda08784	-0.078383476
139	0xbefdfaf5	-0.49605528
140	0x3b23c99b	0.0024991992
141	0x3e2f7c8d	0.17137356
142	0xbea7e5fa	-0.32792646
143	0xbc026d7a	-0.007960672
144	0xbee21d87	-0.44163153
145	0xbdbe51cb	-0.092929445
146	0xbf1685dd	-0.5879801
147	0xbd7944cb	-0.06085662
148	0x3eab8023	0.33496198
149	0x3d313455	0.0432628
150	0x3f14c750	0.58116627
151	0xbea34b51	-0.318934
152	0x3e4d6a3b	0.20060055
153	0x3d7a6d00	0.061139107
154	0xbf0e7a60	-0.5565548
155	0xbf5055bb	-0.81380814
156	0xbe101a2d	-0.14072485
157	0xbdb5e249	-0.08881051
158	0x3d79c0d6	0.06097492
159	0x3d22d170	0.039750516
160	0xbe13577d	-0.14388843
161	0x3ef75109	0.48304012
162	0xbec59205	-0.38587967
163	0xbeb51745	-0.35369316
164	0x3e2a89f8	0.16654193
165	0x3e2da77d	0.16958423
166	0xbdd778df	-0.10521101
167	0xbe23a413	-0.15980558
168	0x3e82e39b	0.25564274
169	0xbcb0e354	-0.021592773
170	0xc002ceb6	-2.0438666
171	0xbf0a36f9	-0.5399013
172	0x3efdb0a4	0.4954883
173	0x3d99c02f	0.07507359
174	0xbea79e41	-0.32737926
175	0xbcc52c51	-0.024068983
176	0x3e8b26e6	0.27178115
177	0x3e1a8471	0.15089585
178	0xbe4e9627	-0.20174466
179	0x3f04d544	0.5188792
180	0xbdbbc98a	-0.091693
181	0xbf043b36	-0.5165285
182	0x3e1c564b	0.15267293
183	0xbf29692b	-0.661761
184	0xbd06abef	-0.032878812
185	0xbd6497b6	-0.055808745
186	0x3de8c0c0	0.11364889
187	0x3e43a22b	0.19104831
188	0x3d4be905	0.04978277
189	0x3c250842	0.01007277
190	0xbf2a7825	-0.66589576
191	0xbe6f4a92	-0.2336829
192	0x3efd60e7	0.49487993
193	0xbf480a3a	-0.78140604
194	0xbe3de345	-0.18543728
195	0xbe17dc35	-0.14830096
196	0x3dd4cfe9	0.10391218
197	0xbeffa6bc	-0.49931896
198	0xbd2389de	-0.039926402
199	0xbeaddec5	-0.33959022
200	0x3de9e09b	0.11419793
201	0xbe5419cd	-0.20712967
202	0xbe94585c	-0.28973663
203	0xbe1cd23a	-0.1531457
204	0x3d43e659	0.0478271
205	0xbf9fecae	-1.2494104
206	0x3dc52502	0.09626199
207	0xbd979eb7	-0.07403319
208	0xbb9038bc	-0.0044012945
209	0xbef3c600	-0.47612
210	0xbcbb371e	-0.02285343
211	0xbf0366bc	-0.51328635
212	0xbe656bfa	-0.22404471
213	0x3e4cd998	0.2000488
214	0x3eb15c10	0.3464055
215	0xbc7c1b56	-0.015387377
216	0x3d2dd765	0.042441744
217	0xbea43fe8	-0.32080007
218	0xbe6bf271	-0.23041703
219	0xbec11437	-0.37710735
220	0xbe8f8a84	-0.28035367
221	0x3eb3fff8	0.35156226
222	0xbdd30aea	-0.10304816
223	0xc00656ec	-2.0990553
224	0xbe8d97db	-0.2765492
225	0xbe33a7dc	-0.17544502
226	0xbd83bfe5	-0.06433085
227	0x3e2e58d1	0.17026068
228	0xbe821c70	-0.2541232
229	0xbe123fe9	-0.14282192
230	0xbc16d239	-0.009205394
231	0x3e1dbc9a	0.15403977
232	0xbe618dba	-0.2202672
233	0xbcb0ea6c	-0.021596156
234	0xbec3380d	-0.381287
235	0xbe45f9f5	-0.19333632
236	0xbf2de992	-0.67934525
237	0xbec2e943	-0.3806859
238	0x3be5288d	0.0069933594
239	0xbf925c8d	-1.1434494
240	0xbd702593	-0.058629584
241	0xbf310f34	-0.69163823
242	0xbd200798	-0.039069742
243	0xbb7f1e3b	-0.003892793
244	0xbf2b2679	-0.6685558
245	0x3d152f2d	0.036421943
246	0xbf7beaba	-0.9840504
247	0xbd004d53	-0.031323742
248	0xbe6767a9	-0.22598137
249	0xbd263c55	-0.04058488
250	0x3d69fb90	0.057124674
251	0x3c14a81c	0.0090732835
252	0xbfa5918c	-1.2935042
253	0xbeb4edda	-0.35337716
254	0x3cf810f6	0.030281525
255	0xbebf87ce	-0.37408298
