Vehicles/Mod_01_02/Mod_01_02_actor_target.pth (torch, 176451 bytes, 5 tensors)

weight f4 [200, 14]
0	0x3e2184d5	0.15773328
1	0x3e4790ff	0.19488905
2	0x3e77e555	0.24208577
3	0x3bc1d384	0.005915107
4	0xbeed56ee	-0.46355385
5	0x3db68403	0.08911898
6	0x3e83dcb0	0.2575431
7	0x3e610d6f	0.21977781
8	0x3dd5ca1e	0.104389414
9	0xbe8fc01f	-0.28076264
10	0xbfea4bd0	-1.8304386
11	0xbfc42ecc	-1.5326781
12	0xbeee537c	-0.4654807
13	0x3eaaced9	0.33360937
14	0xbefe93d7	-0.49722168
15	0xbef04d81	-0.4693413
16	0xbe84797c	-0.25873935
17	0x3e9cb671	0.30607942
18	0xbe157068	-0.14593661
19	0x3e370323	0.1787229
20	0xbebd14d2	-0.36929947
21	0xbec0ba7f	-0.37642285
22	0xbbe1efd7	-0.006895046
23	0x3e8340cc	0.25635374
24	0x3df8a78a	0.121413305
25	0x3ea5faf7	0.32418033
26	0x3e84b985	0.2592279
27	0xbebb18e8	-0.3654244
28	0x3ebd91d1	0.37025312
29	0x3f70d10c	0.9406898
30	0xbf21aa4b	-0.6315047
31	0xbd83a857	-0.06428593
32	0xbdad5fdc	-0.08465549
33	0xbe188df4	-0.14897901
34	0xbf2e0341	-0.67973715
35	0xbe5b304e	-0.21405146
36	0xbdc663bc	-0.096869916
37	0x3e95f6d0	0.29289865
38	0x3e5fc276	0.21851525
39	0x3cf8a21f	0.030350743
40	0x3d149906	0.036278747
41	0xbd4f3f92	-0.050597735
42	0x3e133a3f	0.14377688
43	0xbef64b79	-0.48104456
44	0xbef085f8	-0.4697721
45	0xbd99e657	-0.07514637
46	0xbe4a6e36	-0.19768605
47	0x3dbe23c8	0.092841685
48	0x3e99362d	0.29924145
49	0xbeeb83e8	-0.45999074
50	0xbe926fd3	-0.2860094
51	0xbf14e232	-0.58157647
52	0xbed4de64	-0.4157592
53	0x3ec7435c	0.3891858
54	0xbce0d6fd	-0.027446264
55	0x3e83c8c4	0.2573911
56	0xbed9edb8	-0.42564178
57	0x3d5f7a50	0.054560006
58	0x3ce278cf	0.027645497
59	0x3f2a2278	0.66458845
60	0x3e81b38a	0.2533229
61	0x3e5f43b0	0.21803164
62	0xbd397145	-0.045274038
63	0x3c5a9744	0.013341729
64	0xbf02c4da	-0.5108162
65	0x3ee70a52	0.4512506
66	0x3e5cf26e	0.21576855
67	0x3d2f27e1	0.04276264
68	0x3e59a210	0.21253228
69	0xbedba408	-0.42898583
70	0x3e23d0a8	0.15997565
71	0xbe0cb685	-0.137415
72	0xbf05b373	-0.5222694
73	0x3dfba5af	0.12287461
74	0x3d509ae5	0.05092897
75	0xbe4e0a50	-0.20121121
76	0x3dae62c4	0.08514932
77	0x3e0cbbae	0.13743469
78	0xbe90da90	-0.2829175
79	0xbef8e701	-0.48613742
80	0xbe803d76	-0.2504689
81	0xbec3281e	-0.38116544
82	0x3efba771	0.49151185
83	0x3da9437a	0.08264823
84	0xbe84b3aa	-0.25918323
85	0xbec4f256	-0.38466138
86	0x3e0a1581	0.13484766
87	0xbe7a7d3d	-0.24461837
88	0xbdfc97a8	-0.12333614
89	0xbf8950d2	-1.0727789
90	0xbfda3f10	-1.7050495
91	0xbe0959a3	-0.134131
92	0xbe788b2c	-0.2427184
93	0x3ec5530d	0.38539925
94	0x3e4b61a1	0.19861461
95	0xbeb37827	-0.35052606
96	0xbe65f93d	-0.22458358
97	0x3e69d43e	0.2283487
98	0x3d33d542	0.04390455
99	0xbe4c9c0a	-0.19981399
100	0xb9c887e3	-0.00038248216
101	0xbe192106	-0.14954004
102	0x3e61f475	0.22065909
103	0x3e6dc1b9	0.2321843
104	0xbf04a77a	-0.5181805
105	0x3c42d6a5	0.011891996
106	0xbf3e8213	-0.7441723
107	0xbf4b7395	-0.7947324
108	0xbeb34170	-0.35010862
109	0xbef181db	-0.47169384
110	0xbe52829b	-0.20557635
111	0xbdd96b57	-0.106161766
112	0x3c8bbc8a	0.017057676
113	0x3ebaed2a	0.36509067
114	0x3eb02164	0.34400475
115	0x3ef2cd3b	0.47422203
116	0xbeba4d8a	-0.36387283
117	0x3db8d912	0.09025778
118	0xbdef3956	-0.11680858
119	0x3e659ab4	0.22422296
120	0x3eaf3e03	0.34227
121	0xbedbb123	-0.42908582
122	0xbeb82662	-0.35966784
123	0xbeb5fc98	-0.35544276
124	0xbe1d5b16	-0.15366778
125	0x3d377525	0.044789452
126	0x3dc0da74	0.094166666
127	0xbf0d0d0e	-0.55098045
128	0xbc3491e9	-0.011021116
129	0x3bafcfe6	0.0053653596
130	0xbde407a3	-0.11134269
131	0xbe753484	-0.23945814
132	0xbcfc08b5	-0.03076587
133	0x3e274927	0.16336499
134	0xbf18980b	-0.59607
135	0x3ca4d56d	0.0201213
136	0xbdc9b402	-0.09848787
137	0xbea28865	-0.31744686
138	0x3ee23ea5	0.4418842
139	0x3e2d06b7	0.16897093
140	0x3f24ec66	0.64423215
141	0xbe86cba3	-0.26327237
142	0x3eae9b73	0.34102973
143	0x3dbc031e	0.09180282
144	0x3e5c5c2e	0.21519539
145	0xbeb3672a	-0.35039645
146	0xbe85b397	-0.2611358
147	0x3e393b33	0.18088989
148	0x3ecd6235	0.4011399
149	0x3e5c4885	0.21512039
150	0x3dab9af8	0.08379167
151	0xbe1b25ea	-0.15151182
152	0xbec12cb5	-0.3772942
153	0xbe6d5ee0	-0.23180723
154	0xbec6cb0f	-0.38826796
155	0x3f276218	0.65384054
156	0x3edd4c4f	0.4322228
157	0x3dc2e892	0.095170155
158	0xbeb38d3c	-0.3506869
159	0xbe3a7ff6	-0.18212876
160	0x3e59ec58	0.21281564
161	0xbddad2bf	-0.10684728
162	0xba9183f1	-0.0011101944
163	0xbeaeb4ea	-0.341224
164	0x3db995d1	0.09061778
165	0x3e92369a	0.28557283
166	0x3e841e51	0.2580438
167	0xbe038912	-0.12845257
168	0xbe43bb51	-0.19114424
169	0x3e2efba8	0.17088187
170	0x3f3598cd	0.7093628
171	0xbda4392b	-0.080187164
172	0x3e66f164	0.2255302
173	0xbe17d984	-0.1482907
174	0xbcf1bb0a	-0.029508132
175	0xbe74ec8d	-0.23918362
176	0xbea794aa	-0.3273061
177	0xbebf4685	-0.3735849
178	0xbe960174	-0.29297984
179	0xbd1e85c9	-0.038701806
180	0x3e37b1a5	0.1793886
181	0x3e833336	0.25625008
182	0x3e47ab17	0.1949886
183	0x3dfb063f	0.12257051
184	0xbe19bff9	-0.15014638
185	0x3bc53f00	0.006019473
186	0x3dfb344c	0.12265834
187	0xbe3ba721	-0.18325473
188	0xbc536e6a	-0.012904743
189	0x3e399e86	0.18126878
190	0xbca00cd1	-0.019537361
191	0xbd196510	-0.037449896
192	0xbe7ac53a	-0.24489298
193	0x3e3a1d05	0.18175133
194	0xbe1f84a0	-0.15577936
195	0xbe57b162	-0.2106376
196	0xbc89e6ec	-0.016833745
197	0xbed4c615	-0.41557375
198	0xbc923ada	-0.017850328
199	0xbf30a2c6	-0.6899837
200	0xbe7be4f3	-0.24599056
201	0x3e5709d2	0.2099984
202	0xbe8216fd	-0.25408164
203	0xbf2e3b95	-0.68059665
204	0x3e16dc89	0.14732565
205	0x3d80b5f6	0.06284706
206	0x3d2c3122	0.042039044
207	0xbebcccab	-0.368749
208	0x3e19f6d0	0.15035558
209	0xbea270e9	-0.3172677
210	0x3d94067e	0.07227801
211	0x3e22d00f	0.1589968
212	0x3ef10679	0.4707525
213	0xbf42134b	-0.7581069
214	0xbd52acf8	-0.051434487
215	0x3e3da646	0.1852046
216	0xbeb406d4	-0.3516146
217	0x3e87e2e4	0.2654029
218	0xbeaebffe	-0.34130853
219	0x3ed5fd3e	0.4179477
220	0xbdd285ee	-0.10279451
221	0xbc389299	-0.01126542
222	0xbd9490ef	-0.072542064
223	0xbdeb8e74	-0.1150178
224	0x3e0fb412	0.14033535
225	0x3d0145ef	0.031560834
226	0x3d4fa426	0.050693654
227	0x3efedf4f	0.49779746
228	0xbeac4272	-0.33644444
229	0xbde527e7	-0.111892514
230	0x3e8e6b43	0.2781621
231	0xbf40daeb	-0.7533404
232	0xbe89ebfb	-0.2693785
233	0x3d648c86	0.055798076
234	0x3e5a85d5	0.21340115
235	0x3ce082e1	0.027406158
236	0x3d2895f4	0.04115863
237	0xbdf06543	-0.11738064
238	0x3c491c48	0.012274809
239	0x3f26256f	0.6490087
240	0xbeb372da	-0.35048562
241	0xbe5cf4e7	-0.21577798
242	0xbea6b6b0	-0.32561255
243	0x3e8cc99f	0.27497575
244	0x3e023185	0.12714203
245	0xbd6fd25c	-0.058550224
246	0x3cbc35fa	0.022974957
247	0xbf3cb776	-0.7371744
248	0x3e309e1e	0.17247817
249	0x3cebf2f1	0.028802367
250	0x3e68c241	0.22730352
251	0x3ccf964e	0.025340226
252	0xbdd88ce9	-0.105737515
253	0xbed834bd	-0.42227736
254	0xbe8ffc4d	-0.28122178
255	0xbf583092	-0.8444911

bias f4 [200]
0	0x3dd8c80e	0.105850324
1	0x3ddde7ec	0.10835251
2	0x3c37c609	0.011216649
3	0xbde5574c	-0.11198291
4	0xbe1cdf6e	-0.15319607
5	0xbe0f9cdd	-0.14024682
6	0x3dd64f98	0.104644
7	0x3da38acd	0.079854585
8	0x3c02d1ac	0.00798456
9	0xbd802c1a	-0.06258412
10	0xbea32fbf	-0.31872365
11	0xbe6fc837	-0.2341622
12	0xbdedc7f3	-0.11610403
13	0xbe846727	-0.2585995
14	0xbd2bb097	-0.041916456
15	0xbe7f11b4	-0.24909097
16	0x3e736894	0.23770362
17	0xbe8b0d66	-0.2715866
18	0xbddedd5d	-0.108820654
19	0xbe91e736	-0.28496712
20	0x3e6004a7	0.21876775
21	0xbcaf8ad9	-0.021428512
22	0xbe131bef	-0.14366125
23	0x3d9ff02d	0.07809482
24	0xbe43e41c	-0.19129986
25	0xbe1b6202	-0.15174106
26	0xbe226ce7	-0.15861855
27	0xbe4e0745	-0.2011996
28	0x3e146388	0.14491093
29	0xbd4a2fd0	-0.049362004
30	0x3e2d6397	0.16932522
31	0xbe064073	-0.13110523
32	0xbe1c33f6	-0.15254197
33	0xbe527b80	-0.20554924
34	0xbe89ffc5	-0.2695295
35	0x3de8f27f	0.113743775
36	0x3da11428	0.078651726
37	0xbddc135f	-0.10745882
38	0xbe4daf3b	-0.20086376
39	0x3d768416	0.06018456
40	0x3c086b1b	0.008326317
41	0xbeaa150f	-0.3321919
42	0xbe670862	-0.22561792
43	0x3da3d55a	0.07999678
44	0xbda7f5f8	-0.08201212
45	0xbe90246e	-0.28152794
46	0xbd752b7b	-0.05985592
47	0xbd9d8dbb	-0.076930486
48	0xbe4f1639	-0.20223321
49	0xbdb5e26e	-0.08881079
50	0xbde78b3a	-0.11305852
51	0x3e86b94e	0.2631325
52	0x3dd1fe5b	0.102535926
53	0xbd0fa433	-0.035068702
54	0x3d83c818	0.06434649
55	0xbe3e94d5	-0.18611462
56	0xbd7fc9a6	-0.062448166
57	0xbd80e470	-0.06293571
58	0xbe6c9150	-0.23102307
59	0x3d42aece	0.047529988
60	0x3db41f50	0.08795035
61	0x3d8b3834	0.06797829
62	0xbe3bb501	-0.18330766
63	0xbe572e62	-0.21013787
64	0xbadedf92	-0.0017003885
65	0xbe210676	-0.15725121
66	0xbed4ec27	-0.4158642
67	0x3d3bac9b	0.045818906
68	0x3e0df572	0.13863161
69	0x3d0c421d	0.034242738
70	0xbe52e32e	-0.20594475
71	0xbe5b0187	-0.21387301
72	0x3e170abc	0.14750189
73	0xbe512711	-0.20425059
74	0x3cc6ca03	0.024266249
75	0xbe155a4e	-0.1458523
76	0x3d89b008	0.067230284
77	0xbc9b20f9	-0.018936621
78	0xbd0d31d6	-0.034471355
79	0x3d672064	0.056427374
80	0xbe7dd73e	-0.2478914
81	0x3da8e12c	0.08246073
82	0xbdbd5341	-0.09244395
83	0xbe458f8e	-0.19293043
84	0xbcc3b2f5	-0.023889044
85	0xbe342668	-0.17592776
86	0xbd8f0cc5	-0.069848575
87	0x3e470be2	0.19438127
88	0xbded64fa	-0.115915254
89	0xbd6be8ee	-0.057595186
90	0xbd53cdbd	-0.05170988
91	0xbd8080e1	-0.06274582
92	0xbdb37543	-0.087626
93	0xbbfa7ee5	-0.0076445215
94	0x3dbae36b	0.09125408
95	0xbe6d10f9	-0.23151006
96	0xbe23a870	-0.15982223
97	0xbc041b71	-0.008063183
98	0xbe224aa3	-0.15848784
99	0x3e3b5e36	0.18297657
100	0xbe8d48c3	-0.27594575
101	0xbdc8f9e9	-0.098132916
102	0x3e55a090	0.20862031
103	0x3bff65ba	0.007794109
104	0xbdb81c42	-0.08989765
105	0x3d853bfd	0.065055825
106	0xbe0e5dfb	-0.13903038
107	0xbd901363	-0.07034948
108	0xbd49155a	-0.049092628
109	0xbe3d8410	-0.18507409
110	0xbe48a59e	-0.19594428
111	0xbe3475f3	-0.17623119
112	0xbe312d08	-0.17302334
113	0xbd9ac0e5	-0.07556323
114	0xbdcf5891	-0.101243146
115	0xbdab2808	-0.08357245
116	0xbe9195f4	-0.28434718
117	0xbe488f12	-0.19585827
118	0x3e295991	0.16538073
119	0xbea54e67	-0.3228638
120	0xbe6a0977	-0.22855173
121	0x3dec102b	0.11526521
122	0x3ea6f1b5	0.32606283
123	0x3d88c573	0.066782854
124	0xbe9e54cc	-0.3092407
125	0x3ec64198	0.3872192
126	0xbe601f73	-0.21886997
127	0xbd72dee4	-0.059294596
128	0xbeb5c0b7	-0.35498592
129	0x3e0a666e	0.13515636
130	0xbd5bbe27	-0.05364814
131	0x3e8dd077	0.2769811
132	0xbe4fbde9	-0.20287289
133	0x3dfdb9e0	0.123889685
134	0xbe0db92e	-0.13840172
135	0x3e23e394	0.16004783
136	0xbea9af96	-0.33141774
137	0x3ec5a29e	0.3860063
138	0xbea1cb93	-0.31600627
139	0xbe126d47	-0.14299498
140	0x3e22f1ba	0.15912524
141	0xbd3fcefe	-0.046828263
142	0xbe6aaa24	-0.22916466
143	0x3e4e8167	0.2016655
144	0x3e4320fe	0.19055554
145	0x3c7ecd21	0.015551836
146	0xbc268261	-0.010162921
147	0xbd84e2a7	-0.06488543
148	0xbdc5e4aa	-0.09662755
149	0x3c273906	0.010206467
150	0xbe022ce6	-0.1271244
151	0x3e460aa8	0.19340003
152	0x3d9c27a8	0.07624751
153	0x3b8b0fbf	0.0042438204
154	0x3db8d325	0.090246476
155	0x3e84ffe8	0.2597649
156	0x3ca0681e	0.019580897
157	0x3db40ede	0.08791898
158	0xbd4f8013	-0.05065925
159	0xbd4cf147	-0.050034788
160	0xbe531050	-0.20611691
161	0xbda6dfd4	-0.081481606
162	0xbe6c612b	-0.23083942
163	0xbe3987c0	-0.18118191
164	0x3e204228	0.15650237
165	0x3d922de0	0.07137656
166	0x3e013e36	0.12621388
167	0x3e1f387c	0.15548891
168	0x3df82600	0.12116623
169	0xbd811bf0	-0.06304157
170	0xbd1894f7	-0.03725144
171	0xbb8eafda	-0.0043544592
172	0xbe8411c9	-0.2579482
173	0xbcf50319	-0.029908704
174	0xbd5de813	-0.0541764
175	0x3db7df9d	0.08978198
176	0xbe4f3d98	-0.2023834
177	0x3e039f64	0.12853771
178	0xbe2e1e4a	-0.17003742
179	0xbd5db347	-0.05412605
180	0xbd01df07	-0.031706836
181	0x3e7960ef	0.24353383
182	0x3e1ab072	0.15106371
183	0x3d105157	0.03523382
184	0xbd8cfa66	-0.06883697
185	0xbeab7952	-0.33490998
186	0xbe3b4146	-0.18286619
187	0x3dde5db1	0.10857714
188	0x3d54d374	0.05195947
189	0x3d04ca57	0.03241953
190	0x3dee93c7	0.1164928
191	0x3e758a81	0.23978616
192	0x3e954ed0	0.29161692
193	0xbbdded34	-0.0067726616
194	0xbe9b8cbe	-0.30380815
195	0xbeb5f0b9	-0.3553522
196	0x3cab57c3	0.020915871
197	0xbe71ef37	-0.2362641
198	0xbe6c6b19	-0.2308773
199	0xbd5c9653	-0.053854298

weight f4 [200, 200]
0	0xbd6e14e2	-0.058125384
1	0x3cb0c1a7	0.021576716
2	0xbc8d8f7d	-0.017280335
3	0xbd33d528	-0.043904454
4	0x3d4781e0	0.048707843
5	0xbca82367	-0.020524694
6	0xbc841425	-0.016122887
7	0xbd2a470f	-0.041571673
8	0x3d1eefed	0.03880303
9	0xbd44d260	-0.04805219
10	0xbd944bb6	-0.07241003
11	0xbd350448	-0.044193536
12	0x3d10615e	0.035249107
13	0xbcd8fcc6	-0.02648772
14	0x3d670e72	0.05641026
15	0xbe065c85	-0.13121231
16	0xbd94cc9e	-0.0726559
17	0x3d0e80e4	0.03479089
18	0x3a11d53d	0.0005563086
19	0xbd330300	-0.043704033
20	0xbd6aaf5b	-0.05729614
21	0x3d00dd7c	0.031461224
22	0xbcfc41cc	-0.030793093
23	0xbdb1cb48	-0.08681351
24	0xbd2fd5b7	-0.042928424
25	0xbc03758c	-0.008023631
26	0xbd83cab5	-0.06435148
27	0xbdcd24d9	-0.10016794
28	0xbdf089cc	-0.11745033
29	0xbd2ebae7	-0.042658713
30	0xbbb54458	-0.005531829
31	0xbd0f7bad	-0.035030056
32	0x3c13dc7d	0.0090247365
33	0xbd65136b	-0.05592672
34	0xbc915d1f	-0.017744599
35	0xbdbf2dd8	-0.09334916
36	0xbd27144f	-0.040790852
37	0x3c1c7975	0.009550442
38	0xbd47a2b1	-0.04873914
39	0xbd99f746	-0.07517867
40	0xbd608503	-0.05481435
41	0xbd0b0e15	-0.033948977
42	0xbdbf8d28	-0.09353095
43	0xbd92c516	-0.071664974
44	0xbd11c0ee	-0.035584383
45	0x3b4f99de	0.0031677405
46	0xbddd4fea	-0.10806258
47	0xbd4806b1	-0.048834506
48	0x3d7be6c1	0.06149936
49	0x3c595529	0.013264933
50	0x3b180e36	0.002320183
51	0x3b7c44eb	0.0038493227
52	0xbcc81a39	-0.024426566
53	0xbc9fc17c	-0.01950144
54	0xbd222ff7	-0.039596524
55	0x3c3e97d7	0.011632881
56	0xbd07f775	-0.033194978
57	0xbd9ba42e	-0.07599674
58	0xbc7f90bd	-0.015598473
59	0xbd8ed225	-0.06973676
60	0x3bbec9d7	0.005822401
61	0xbd35e930	-0.044411838
62	0xbc0d49e4	-0.008623574
63	0xbd882559	-0.066477485
64	0xbda77f57	-0.08178585
65	0x3caa182e	0.020763483
66	0xbd727f5c	-0.05920349
67	0xbc5d9ed2	-0.013526635
68	0xbdbe41e8	-0.09289914
69	0x3c0b43fc	0.008500095
70	0x3d846a15	0.06465546
71	0x3cabac16	0.02095608
72	0x3bcbd358	0.0062202625
73	0xbdbbdbd8	-0.09172791
74	0x3d2f5d66	0.04281368
75	0xbb087f64	-0.0020827884
76	0xbdba1cf8	-0.090875566
77	0xbdb8eea0	-0.09029889
78	0x3b93cace	0.00451026
79	0x3d1b6cb5	0.037945468
80	0xbdb88208	-0.090091765
81	0xbd14783d	-0.03624748
82	0xbd6b3363	-0.057422053
83	0xbdb9ea30	-0.09077871
84	0x3d186b2d	0.037211586
85	0x3d8d876f	0.069105975
86	0x3cfcdca9	0.030866938
87	0x3c502981	0.012705208
88	0x3c8fb5a3	0.017542666
89	0xb9491439	-0.00019176387
90	0xbd75a27b	-0.059969407
91	0xbcf60d84	-0.030035742
92	0xbd1bab36	-0.038005076
93	0xbd8519dd	-0.06499074
94	0xbd2205c7	-0.03955629
95	0xbb5a8ce2	-0.0033348133
96	0xbb7f01b4	-0.0038910927
97	0x3b397050	0.0028295703
98	0xbdaec1ef	-0.08533084
99	0x3bb0c4c7	0.0053945514
100	0xbc37e5c8	-0.011224218
101	0x3d619618	0.05507478
102	0xba9ffd76	-0.0012206275
103	0x3cc49a20	0.023999274
104	0x3c880ee5	0.016608665
105	0xbd9df525	-0.07712773
106	0xbd2063ce	-0.03915768
107	0xbd8ef6dc	-0.069806784
108	0x3ce3b24a	0.027794976
109	0xbd45d08b	-0.048294585
110	0xbd5a4502	-0.053288467
111	0xbe0b2714	-0.13589126
112	0xbd19a6cd	-0.03751259
113	0xbdcb4529	-0.09925301
114	0xbd5dae72	-0.054121442
115	0xbcc5cdf1	-0.024146052
116	0x3ce85d9a	0.028364945
117	0xbd0b345c	-0.03398548
118	0x3c9cf355	0.019158999
119	0xbd8bd615	-0.06827942
120	0xbd6653ba	-0.05623219
121	0xbd3d1e80	-0.046171665
122	0xbd7e3ff3	-0.062072705
123	0xbdab4d8f	-0.083644025
124	0xbd1763e6	-0.036960505
125	0x3ba0a636	0.0049026264
126	0xbd24246a	-0.04007379
127	0xbd341ab0	-0.043970764
128	0xbd858b25	-0.0652068
129	0x3cb5c08f	0.022186546
130	0xbda3102f	-0.07962071
131	0x3c2b681e	0.010461835
132	0x3d43abd8	0.047771305
133	0xbd593f4a	-0.053038873
134	0x3d2df2e6	0.042467974
135	0x3c67891a	0.014131809
136	0xbbe62e3a	-0.0070245536
137	0xbb3b50c8	-0.0028582085
138	0xbd50d7ba	-0.050986983
139	0x3d83244c	0.064034075
140	0xbd5cab12	-0.053874083
141	0xbd164786	-0.036689304
142	0xbcf44864	-0.029819675
143	0xbd714f74	-0.058913663
144	0xbdd3d23a	-0.10342832
145	0xbcabae6f	-0.0209572
146	0x3d523f2d	0.05132978
147	0xbd7ed52c	-0.062215015
148	0xbd386907	-0.045022037
149	0xbc922b2e	-0.017842855
150	0xbdf39194	-0.11893001
151	0x3bdcd159	0.0067388234
152	0xbd1ee507	-0.038792636
153	0xbd897a2c	-0.067127556
154	0x3d0b3f4c	0.03399591
155	0x3c9885bd	0.018618459
156	0xbcef627a	-0.029221762
157	0x3c2eb3de	0.010663001
158	0xbcad7136	-0.021172147
159	0x3d5d9d41	0.054105047
160	0xbd169703	-0.03676511
161	0xbb25c207	-0.0025292651
162	0xbd851a96	-0.064992115
163	0xbc8bfebd	-0.017089242
164	0xbca84437	-0.02054034
165	0x3d4de441	0.050266508
166	0xbd969e3e	-0.07354401
167	0xbd124cc6	-0.035717748
168	0x3c0db68c	0.00864948
169	0xbd66716b	-0.056260508
170	0xbda50b37	-0.0805878
171	0xbd4d16c8	-0.050070554
172	0xbd98f895	-0.07469288
173	0xbd9addbe	-0.07561825
174	0xbb341e98	-0.0027484056
175	0xbd957946	-0.07298522
176	0xbd8f9705	-0.070112266
177	0xbd395d90	-0.045255244
178	0x3cda9961	0.026684465
179	0xbca6eae7	-0.020375682
180	0xbd9273d6	-0.07151
181	0xbd184a5e	-0.037180297
182	0x3d42285a	0.047401763
183	0xbd5f38fa	-0.054497696
184	0xbc6a9e2b	-0.014319937
185	0xbbfedaa3	-0.0077775284
186	0x3cab19fe	0.020886417
187	0xbd617f03	-0.05505277
188	0xbd93cace	-0.07216416
189	0x3b1be75d	0.0023789026
190	0x3caf0c26	0.021368098
191	0x3d0a5d84	0.03378059
192	0x3d544a89	0.051828895
193	0xbc01ae15	-0.00791504
194	0x3d88970d	0.06669436
195	0xbdce2131	-0.100649245
196	0xbd6a0b4b	-0.057139676
197	0x3abb2377	0.0014277537
198	0xbd8ae255	-0.06781451
199	0x3c4a8345	0.012360399
200	0xbe02ab35	-0.12760623
201	0xbe293a4f	-0.16526149
202	0xbbf58273	-0.0074923574
203	0xbda04876	-0.07826321
204	0x3bceec50	0.0063147917
205	0xbcf9c6a3	-0.030490225
206	0xbd039e2d	-0.03213327
207	0xbccb51a9	-0.024819212
208	0xbdaa2897	-0.08308523
209	0x3cac252f	0.021013824
210	0x3d12fa35	0.035883147
211	0xbdb311d8	-0.08743638
212	0x3ca15216	0.019692462
213	0xbca1ccde	-0.019751009
214	0xbceba3e2	-0.028764669
215	0xbcaec127	-0.021332337
216	0xbddc04aa	-0.10743077
217	0xbd6b52a2	-0.05745185
218	0xbd25718f	-0.0403915
219	0x3c25d26e	0.010120971
220	0xbb81e4c5	-0.003964039
221	0xbe004c5f	-0.12529133
222	0x3d9f66ad	0.07783256
223	0x3d7fcd9b	0.06245194
224	0x3aef0faa	0.0018238921
225	0x3c8b7084	0.017021425
226	0x397e217b	0.000242358
227	0x3caf2f4e	0.021384861
228	0xbd303378	-0.043017834
229	0xbc15c1ee	-0.009140475
230	0xbd98ca7e	-0.07460497
231	0xbb92f8a6	-0.0044852076
232	0xbd01462c	-0.03156106
233	0xbd8c88fc	-0.06862065
234	0xbd4e331e	-0.050341718
235	0xbd721454	-0.059101418
236	0xbe2d6edf	-0.16936825
237	0xbd9845ad	-0.074351646
238	0xbdc90ad9	-0.09816522
239	0xbd8b106c	-0.067902416
240	0x3bd7cb6a	0.006585528
241	0x3c9512ed	0.018197501
242	0xbd6c3dcb	-0.057676118
243	0xbddaa83a	-0.10676618
244	0x3c4e1321	0.012577803
245	0x3d8c1613	0.06840148
246	0xbd31f578	-0.043446988
247	0x3c2550be	0.010090051
248	0xbc5430c2	-0.012951078
249	0x3cfd4b6b	0.030919751
250	0xbddfd602	-0.109294906
251	0xbda1320f	-0.07870876
252	0x3cfa0dbc	0.030524127
253	0x3d06d0ec	0.032914087
254	0xbd06412d	-0.032777
255	0xbb7a77fc	-0.003821849

bias f4 [200]
0	0xbd21019f	-0.039308187
1	0xbddca8ba	-0.107743695
2	0xbd98f0c6	-0.07467799
3	0xbd0961f5	-0.033540685
4	0xbd90ca0e	-0.07069789
5	0xbce2baa3	-0.027676886
6	0xbe726f6c	-0.23675317
7	0x3c917eda	0.017760683
8	0xbc0c2f69	-0.008556225
9	0xbd363e58	-0.04449305
10	0xbe0982c4	-0.1342879
11	0x3e3d753d	0.18501754
12	0xbd8fa9c5	-0.07014803
13	0xbc83ab75	-0.016072968
14	0xbdbfd058	-0.0936591
15	0xbdab1b8f	-0.08354866
16	0x3d67f5c1	0.056630854
17	0xbdf0d65c	-0.11759636
18	0xbdf3d021	-0.11904932
19	0xbdf09bc4	-0.1174846
20	0xbe04eaa7	-0.12980138
21	0xbd0bcfd5	-0.03413375
22	0xbd43a279	-0.047762368
23	0x3da985ec	0.08277497
24	0xbc6171fb	-0.013760085
25	0xbdb48a68	-0.088154614
26	0xbd8691a5	-0.06570748
27	0xbdd12062	-0.10211255
28	0xbe37833e	-0.17921159
29	0xbd4c6ce0	-0.04990852
30	0xbe0467f5	-0.12930281
31	0xbd398794	-0.045295313
32	0xbdacd8df	-0.084398024
33	0xbd5c9d25	-0.053860802
34	0xbcd7444e	-0.026277687
35	0xbcf757fc	-0.030193321
36	0x3da3de4d	0.08001385
37	0xbc4dc821	-0.0125599215
38	0xbda3d127	-0.07998877
39	0xbbb713a0	-0.0055870563
40	0x3e0a6f9b	0.13519137
41	0xbd47aaf0	-0.048747003
42	0xbe298043	-0.16552834
43	0x3de9bb3b	0.114126645
44	0xbce10203	-0.02746678
45	0xbd0e75f5	-0.03478046
46	0xbd82ad8d	-0.063807584
47	0xbda05bff	-0.07830047
48	0xbe3d3172	-0.18475893
49	0x3dd265b2	0.10273303
50	0xbdd27a7a	-0.10277267
51	0xbe1631e1	-0.14667465
52	0xbc73844c	-0.014863085
53	0xbd9ba10e	-0.07599078
54	0x3bb1667f	0.00541383
55	0xbdcc4d39	-0.099756666
56	0xbd033fe5	-0.032043356
57	0xbd2f417f	-0.04278707
58	0xbe7bdc0b	-0.24595658
59	0xbd4e8211	-0.05041701
60	0xbe3a6ca8	-0.18205512
61	0xbd9075ae	-0.070536956
62	0xbd0ea985	-0.034829635
63	0xbd5b80a2	-0.05358947
64	0x3dffd083	0.12490942
65	0xbd88e29d	-0.06683848
66	0x3d429d92	0.047513552
67	0xbe28b3ef	-0.16474889
68	0x3e421791	0.18954302
69	0xbe3e8293	-0.18604498
70	0xbe70ca24	-0.2351461
71	0xbd8974b5	-0.06711713
72	0x3d923271	0.07138527
73	0x3e771da0	0.24132395
74	0x3d85be33	0.06530418
75	0x3d1cfef6	0.038329087
76	0xbda4eb2f	-0.0805267
77	0xbdfba083	-0.122864746
78	0xbaef9863	-0.0018279668
79	0xbd4a4999	-0.049386594
80	0xbe1aaafd	-0.1510429
81	0xbda6484c	-0.08119258
82	0xbd0cc91c	-0.03437148
83	0xbd587be3	-0.052852523
84	0xbd94ab06	-0.07259183
85	0x3cea8388	0.028627172
86	0xbd15ce6e	-0.03657382
87	0xbdbb9a38	-0.09160274
88	0xbe8ff4d3	-0.28116474
89	0xbe7cc96c	-0.24686211
90	0x3d2d4874	0.042305425
91	0xbcacb9fb	-0.021084776
92	0xbe24361c	-0.16036266
93	0xbd4d920e	-0.050188117
94	0xbd17e1ae	-0.03708046
95	0xbe8e9e5e	-0.278552
96	0xbe2e0e01	-0.1699753
97	0xbc7f66bf	-0.015588461
98	0x3de81246	0.113316104
99	0xbddec622	-0.108776346
100	0x3d080e82	0.03321696
101	0xbce1f04b	-0.0275804
102	0xbdcb4a44	-0.099262744
103	0xbda164d7	-0.07880562
104	0x3e653a26	0.22385463
105	0xbe6f0b1d	-0.23344083
106	0xbd198aae	-0.03748577
107	0xbd9b028c	-0.07568845
108	0xbc981ab6	-0.018567424
109	0xbc861f95	-0.016372481
110	0xbe60c58d	-0.2195036
111	0x3d7a18a4	0.061058655
112	0x3e2b2baf	0.16715883
113	0xbdaedf9f	-0.08538746
114	0xbdd4f5a2	-0.10398413
115	0xbd693793	-0.056937765
116	0xbe06332d	-0.1310546
117	0xbe1e1af8	-0.15439975
118	0x3d930ba8	0.07179958
119	0xbdd78132	-0.10522689
120	0x3e14dd19	0.14537467
121	0xbc7336d2	-0.014844613
122	0xbdd1915d	-0.10232804
123	0x3d755e0c	0.059904143
124	0xbcd0e43a	-0.025499452
125	0xbe79b1ee	-0.24384281
126	0xbd6691de	-0.056291454
127	0xbd68a643	-0.056799185
128	0x3c50968d	0.012731207
129	0xbd40f45a	-0.04710803
130	0xbe5880de	-0.21142909
131	0xbd366248	-0.044527322
132	0xbd4cf081	-0.05003405
133	0x3e6096c8	0.21932518
134	0xbd10c84e	-0.035347275
135	0xbd1d7e66	-0.03845062
136	0x3e059b50	0.13047528
137	0xbe58c737	-0.21169744
138	0xbd8c368b	-0.06846341
139	0x3dcf218f	0.10113823
140	0xbdd7162a	-0.10502274
141	0xbdad1b47	-0.08452468
142	0xbd8af39a	-0.067847446
143	0xbde24def	-0.11050021
144	0xbcaef4b7	-0.021356924
145	0xbe0b3e85	-0.13598068
146	0x3e773d27	0.24144422
147	0x3d510793	0.051032614
148	0xbdc21d69	-0.09478266
149	0xbda395c7	-0.07987552
150	0xbea98f7b	-0.3311728
151	0xbdaf358f	-0.08555137
152	0x3d25a99e	0.040444963
153	0x3dc89409	0.097938605
154	0xbe7168d0	-0.23575139
155	0xbd4b0771	-0.049567644
156	0xbd078ec5	-0.03309514
157	0x3e19fecd	0.15038605
158	0xbd8ec8c5	-0.069718875
159	0xbd34e760	-0.04416597
160	0xbe676906	-0.22598657
161	0xbde0f32b	-0.109838806
162	0x3d6588e4	0.056038752
163	0xbd3537d8	-0.04424271
164	0x3e1b95e2	0.15193895
165	0xbe0b458d	-0.1360075
166	0xbe6b64a9	-0.22987618
167	0xbeacac7a	-0.3372534
168	0xbc2184a4	-0.009858284
169	0xbd9840fe	-0.07434271
170	0x3d25604d	0.040375043
171	0x3e8b31ba	0.27186376
172	0x3de489b6	0.11159079
173	0x3daccc9d	0.084374644
174	0x3e25674f	0.1615269
175	0xbdcf0d70	-0.10109985
176	0xbd7073ec	-0.0587043
177	0xbe0cc075	-0.13745292
178	0xbe32f748	-0.17477143
179	0xbdc45c69	-0.09587938
180	0x3c5c0108	0.01342798
181	0xbda6e6ff	-0.08149528
182	0xbd025f6d	-0.031829286
183	0x3d9b80ce	0.07592927
184	0xbd4d6b29	-0.050151024
185	0xbdb77ac0	-0.089589596
186	0xbdef190b	-0.116746984
187	0x3dd8ed3e	0.10592125
188	0xbd871fd5	-0.06597868
189	0x3d78d985	0.060754318
190	0x3e019d47	0.12657653
191	0x3d771b9d	0.06032907
192	0xbe2cff40	-0.16894245
193	0xbd8e5055	-0.06948916
194	0xbe23de6c	-0.16002816
195	0x3c8d21a2	0.017227951
196	0xbe83aa8b	-0.2571605
197	0xbda2bc97	-0.07946127
198	0xbd59565c	-0.053060874
199	0x3dfc28a5	0.1231244

weight f4 [1, 200]
0	0x3ac23668	0.001481724
1	0x3cfc4fdb	0.030799797
2	0xbc685b43	-0.014181915
3	0xbcbb4127	-0.022858215
4	0x3bf4b4fc	0.007467864
5	0xbc01863d	-0.00790554
6	0xbd943b41	-0.07237864
7	0x3de0efd2	0.10983242
8	0x3e9f6c5d	0.31137362
9	0x3ce434c2	0.027857188
10	0xbd0b840d	-0.03406148
11	0x3e86de7f	0.26341626
12	0x3b296097	0.0025844926
13	0x3cd5b829	0.026088791
14	0x3c0d541d	0.008626011
15	0x3d0a7f1c	0.033812627
16	0x3e0b59e0	0.13608503
17	0x3b0a5d85	0.002111287
18	0x3e2d9508	0.16951382
19	0x3cb51d48	0.022108689
20	0x3da6de3a	0.08147855
21	0x3b200547	0.0024417208
22	0xbb0921e4	-0.0020924741
23	0xbd813ed1	-0.063108094
24	0xbe039f5e	-0.12853763
25	0xbc8deae5	-0.01732392
26	0x3c942185	0.01808239
27	0x3d0a373c	0.03374408
28	0xbe17ee0f	-0.14836906
29	0xbe784b98	-0.24247587
30	0xbfbb1c7b	-1.4618067
31	0x3f1c4790	0.61046696
32	0x3c24bf6e	0.010055406
33	0x3e15f66c	0.14644784
34	0xbf81c89e	-1.0139349
35	0x3b46c981	0.0030332508
36	0x3eb6e22d	0.35719433
37	0xba7c1ddb	-0.0009617486
38	0x3c982a56	0.018574875
39	0x3c9037f6	0.01760481
40	0xbe7022d7	-0.2345079
41	0x3ebc12d3	0.36733112
42	0xbed57e50	-0.4169793
43	0x3d8fd0f4	0.070222765
44	0x3cd7c782	0.02634025
45	0x3c880d55	0.01660792
46	0xbc285246	-0.010273522
47	0x3cd37929	0.02581461
48	0xbdbdabb4	-0.092612654
49	0x3f2f619b	0.6850831
50	0x3c1577b6	0.00912278
51	0xbfcd0414	-1.601687
52	0x3a9727be	0.001153223
53	0x3d31a437	0.043369498
54	0xbb252e5f	-0.0025204641
55	0xbae55cdb	-0.0017498987
56	0xbdb6623a	-0.08905454
57	0xbe773a4a	-0.2414333
58	0xbe676fe9	-0.22601284
59	0x3c3ec207	0.011642939
60	0x3d9a0ded	0.075221874
61	0xbc8faf3d	-0.017539615
62	0xbcd182d2	-0.025575075
63	0xbcaa1fff	-0.02076721
64	0x3e249223	0.16071372
65	0xbcb3fb6f	-0.021970479
66	0x3e085a76	0.13315758
67	0x3ccbe7a8	0.024890736
68	0x3e5ddc09	0.21665968
69	0xbfc6d5ad	-1.5533959
70	0xbe53684b	-0.20645253
71	0x3cc1d010	0.023658782
72	0xbf117e54	-0.56833386
73	0x3e227771	0.15865876
74	0x3dba3e81	0.09093953
75	0x3e03986f	0.12851118
76	0xbd26f2b6	-0.04075881
77	0x3efa376a	0.48870403
78	0x3c28850e	0.010285629
79	0xbcc79248	-0.024361745
80	0xc0186c66	-2.381616
81	0x3e1ae46b	0.15126197
82	0xbead527f	-0.33852002
83	0xbca38986	-0.019963037
84	0xbc0767b4	-0.008264471
85	0xbec58610	-0.38578844
86	0x3d4a73c8	0.049426824
87	0xbbfc6b34	-0.0077032093
88	0x3f98caed	1.1936928
89	0xbe20adee	-0.15691349
90	0x3df0ccb0	0.11757791
91	0x3dc5eaf8	0.09663957
92	0xbc6f401f	-0.01460269
93	0x3e0aaafe	0.13541791
94	0xb9d15329	-0.00039925546
95	0xbea00183	-0.31251153
96	0xbe9319de	-0.28730673
97	0xbe6f1118	-0.23346364
98	0xbe552891	-0.20816256
99	0x3ccada20	0.024762213
100	0x403f52f6	2.9894385
101	0x3b96d1cd	0.004602647
102	0x3e8aeed5	0.2713534
103	0x3d270f9e	0.040786378
104	0xbe50e488	-0.20399678
105	0x3e917c1d	0.28415003
106	0xbd187b95	-0.037227232
107	0x3ac16c25	0.0014756961
108	0xbc856285	-0.01628233
109	0x3d1e00dd	0.038575042
110	0xbed05596	-0.40690297
111	0xbe2d8567	-0.1694542
112	0x3e3ffec7	0.18749534
113	0xbc3dd3c0	-0.01158613
114	0xbd154bf5	-0.03644939
115	0x3a7580e3	0.0009365214
116	0x3edf2b77	0.4358785
117	0x3e67fe76	0.22655663
118	0x3ebf925f	0.3741636
119	0xbbad1507	-0.0052820477
120	0xbf617244	-0.8806498
121	0x3e51327b	0.20429413
122	0x3cc3433a	0.023835767
123	0xbe2ae2f4	-0.16688138
124	0x3be6e8f2	0.007046812
125	0x3e8f5d27	0.28000757
126	0xbfde9ec7	-1.7392205
127	0x3bc04ee8	0.0058687814
128	0xbeaaedba	-0.33384496
129	0xbf06b9ce	-0.52627265
130	0x3db4d02f	0.0882877
131	0x3d0b16ac	0.03395717
132	0xbd8b4a3d	-0.06801269
133	0x3eb4979d	0.35271922
134	0x3e53c2ca	0.20679775
135	0xbc9f011e	-0.019409712
136	0x3dc501a0	0.096194506
137	0xbe96f600	-0.29484558
138	0xbfe5d2d6	-1.7954967
139	0xbf37bb55	-0.7177022
140	0xbb98554e	-0.004648841
141	0x3c34f570	0.011044845
142	0xbf97c671	-1.1857435
143	0x3f506900	0.8141022
144	0xbc7d83ac	-0.015473288
145	0x3c164dc5	0.009173815
146	0x3e83a5d2	0.25712448
147	0xbdfcf87c	-0.12352082
148	0xbc39c320	-0.011338025
149	0x3ba97e46	0.0051725237
150	0x3d64e4ab	0.055882137
151	0x3cc2e310	0.023789912
152	0xbe8c22cd	-0.273703
153	0xbea6c0f5	-0.3256909
154	0xbe72ccf1	-0.23710991
155	0xbd3b5897	-0.045738783
156	0xbc342e38	-0.0109973475
157	0xbec9e820	-0.3943491
158	0xbc9366ce	-0.017993357
159	0xbc996f55	-0.018729845
160	0xbf78a1dc	-0.9712198
161	0xbc043a6d	-0.00807057
162	0xbe9f0f6e	-0.3106646
163	0x3ca79217	0.020455403
164	0xbe0b64f1	-0.13612725
165	0xbcbfdc10	-0.023420364
166	0x400f5d56	2.2400718
167	0x3f76e025	0.9643577
168	0xbdf9a752	-0.12190117
169	0x3d6c6d72	0.057721563
170	0xbeb6c1be	-0.3569469
171	0x3e8f2b7e	0.2796287
172	0xbecfd201	-0.40589908
173	0x3e1a81b3	0.15088539
174	0xbdb0be5d	-0.08630059
175	0xbe208e36	-0.15679249
176	0x3d121f75	0.03567453
177	0xbcf516a4	-0.029918022
178	0x3ce2305a	0.027610946
179	0x3cb56e88	0.022147432
180	0xbdc48443	-0.095955394
181	0xbcef708a	-0.029228467
182	0x3ba201de	0.0049440702
183	0xbe7886bc	-0.24270147
184	0xbc66d88b	-0.014089714
185	0x3cf3b8a4	0.02975113
186	0xbc6352fb	-0.013874765
187	0x3eea8ce0	0.45810604
188	0xbb251ad6	-0.0025192997
189	0x3ed26434	0.41092074
190	0x3d801753	0.06254449
191	0xbdb4eb4f	-0.08833944
192	0xbec324e9	-0.38114098
193	0xbf31850f	-0.69343656
194	0x3efc85bf	0.4932079
195	0xbf65f2f4	-0.8982384
196	0x3f983175	1.1890093
197	0x3c9e6416	0.019334834
198	0x3ff49c1f	1.9110144
199	0xbe589d3c	-0.2115373
