Vehicles/Mod_02_02/Mod_02_02_actor.pth (torch, 176455 bytes, 5 tensors)

weight f4 [200, 14]
0	0xbee08cf7	-0.43857548
1	0xbe831ec4	-0.2560941
2	0xbdee6cff	-0.11641883
3	0x3e33b833	0.17550735
4	0x3df18f6d	0.117949344
5	0x3c310b92	0.010805981
6	0xbe4e814b	-0.20166509
7	0x3e811802	0.2521363
8	0x3e9681c5	0.2939588
9	0xbf11a537	-0.5689272
10	0x3e179153	0.1480153
11	0xbe9bfc03	-0.30465707
12	0xbee4cadb	-0.44686016
13	0x3e04649b	0.12929003
14	0x3c8813a9	0.016610937
15	0xbe2270f2	-0.15863398
16	0x3d3f1898	0.046654314
17	0xbef97204	-0.487198
18	0xbe85269d	-0.26006022
19	0x3dae30e3	0.08505418
20	0x3e9d5c31	0.307344
21	0x3ef59d24	0.4797145
22	0x3c11baec	0.008894663
23	0xbf2212ee	-0.63310134
24	0xbf0415e9	-0.5159593
25	0xbe8130bd	-0.25232497
26	0xbd3e3715	-0.04643925
27	0x3e5d5718	0.21615255
28	0xbeb76de8	-0.3582604
29	0xbefe773c	-0.49700344
30	0xbeb12017	-0.34594795
31	0xbd3b6c83	-0.04575778
32	0xbdcc36c3	-0.099713825
33	0xbeb09a87	-0.34492895
34	0xbebe4411	-0.37161306
35	0xbed9b8c9	-0.42523792
36	0xbf2328c0	-0.63734055
37	0xbf49ef53	-0.78880805
38	0xbf55b9cd	-0.83486634
39	0xbf550f74	-0.83226705
40	0x3e460a1d	0.19339795
41	0xbdf2de70	-0.11858833
42	0x3e912320	0.2834711
43	0xbf268b15	-0.6505597
44	0xbf0b5982	-0.54433453
45	0x3ebc0a13	0.36726436
46	0xb9b4815c	-0.00034428656
47	0xbeec66c8	-0.46172166
48	0xbed99b50	-0.42501307
49	0x3e591ec4	0.21203142
50	0xbe25a76a	-0.16177145
51	0x3eadb942	0.33930403
52	0xbe9ebaf2	-0.31002003
53	0x3eeecb0e	0.46639293
54	0x3e79113f	0.24322985
55	0xbe7ad9c1	-0.24497129
56	0xbe869ebd	-0.26292983
57	0xbf0bbd14	-0.54585385
58	0xbd7f15cb	-0.062276643
59	0xbe5637bb	-0.20919697
60	0x3d54e7e3	0.051978957
61	0x3e498252	0.1967862
62	0xbe11ceb3	-0.14239006
63	0xbeb9d4dd	-0.36295214
64	0xbedb79eb	-0.42866454
65	0x3d93fe4e	0.07226239
66	0xbe3e458f	-0.18581222
67	0xbd235df8	-0.039884537
68	0x3e35563e	0.1770868
69	0x3d521c9b	0.05129681
70	0x3f1bf9d4	0.6092808
71	0xbe800d2e	-0.25010055
72	0xbf86e823	-1.0539593
73	0xbe5577d0	-0.20846486
74	0x3e986f8f	0.29772612
75	0x3d7fa6e8	0.062415034
76	0xbddaed07	-0.10689741
77	0x3d935921	0.07194734
78	0xbe0b0820	-0.13577318
79	0x3ebcb2ca	0.36855155
80	0xbdbdf3b0	-0.09274995
81	0xbdc1d897	-0.09465139
82	0xbe924b22	-0.28572947
83	0xbe804432	-0.2505203
84	0xbd288bb6	-0.041148864
85	0x3daabbd4	0.083366066
86	0xbede0b80	-0.4336815
87	0xbf0a8e7b	-0.5412366
88	0x3d40b76f	0.047049936
89	0xbc183f95	-0.009292503
90	0x3e45f876	0.19333062
91	0xbe88c771	-0.26714662
92	0xbf1b721e	-0.60721004
93	0x3e21b08a	0.1579
94	0xbe3257e8	-0.17416346
95	0xbe4c0c55	-0.1992658
96	0xbe804d1a	-0.25058824
97	0xbebfcfd9	-0.37463263
98	0x3dff340e	0.124611005
99	0x3b35b8a7	0.002772847
100	0x3daa254e	0.083078966
101	0xbf2cdd14	-0.6752484
102	0xbdb5ac13	-0.08870711
103	0x3ee9ce65	0.4566528
104	0x3d10cfc1	0.03535438
105	0x3f10b131	0.5652037
106	0x3e2e20fb	0.17004769
107	0xbee2f40c	-0.44326818
108	0xbe5f9885	-0.21835525
109	0xbed36c80	-0.41293716
110	0xbe3b8ca1	-0.18315364
111	0x3e8d2f81	0.27575305
112	0xbf1de3d5	-0.6167577
113	0x3d858986	0.06520371
114	0xbeea338b	-0.4574245
115	0x3dc719be	0.09721707
116	0x3e793806	0.24337777
117	0x3ee725d9	0.45146063
118	0xbeddf32c	-0.43349588
119	0xbe0c7fbf	-0.13720606
120	0x3eb20fcf	0.34777686
121	0xbdbd326d	-0.092381336
122	0x3eba22a8	0.36354566
123	0x3dc77b7d	0.097403504
124	0x3e9bcd35	0.30429998
125	0xbe53d7bc	-0.20687765
126	0x3ca51c22	0.020155016
127	0xbd8c9eb7	-0.0686621
128	0xbda9112f	-0.08255231
129	0xbe330a23	-0.17484336
130	0xbc684875	-0.014177431
131	0xbd925f83	-0.07147124
132	0xbe4ddc76	-0.2010363
133	0xbe51d0db	-0.20489828
134	0xbe754b44	-0.23954493
135	0x3e4f914e	0.20270273
136	0xbea8e588	-0.32987618
137	0xbc8b8b5c	-0.017034225
138	0xbd957dad	-0.072993614
139	0xbe568488	-0.20948994
140	0x3d8dcef0	0.06924236
141	0x3d1f74a8	0.03892961
142	0x3e874f31	0.26427606
143	0xbf2f6e57	-0.6852774
144	0x3d88e838	0.06684917
145	0x3ea9d3f5	0.33169523
146	0xbe381cf6	-0.17979798
147	0xbc792ed0	-0.015208915
148	0x3f12934e	0.5725602
149	0x3d31e46f	0.043430742
150	0xbe4a3e8c	-0.19750422
151	0xbf0256a2	-0.5091344
152	0x3db0ccca	0.086328104
153	0xbcfee23f	-0.031113742
154	0x3e2d49ef	0.16922735
155	0xbe5b2f15	-0.21404679
156	0x3c51f413	0.0128145395
157	0xbf56a3c1	-0.8384362
158	0x3dd3a072	0.10333337
159	0x3d9886b7	0.0744757
160	0x3ef3a7ee	0.47589058
161	0xbd872770	-0.06599319
162	0x3ea3469a	0.31889802
163	0x3d9509f5	0.0727729
164	0xbf1580fa	-0.5839993
165	0xbe942c50	-0.28940058
166	0xbe0ce3d6	-0.13758788
167	0x3ef9deeb	0.48802885
168	0xbdd73c73	-0.10509577
169	0x3ef57727	0.4794247
170	0xbf1b9c40	-0.60785294
171	0xbf3726ad	-0.7154339
172	0x3dc74610	0.0973016
173	0xbe9386af	-0.28813693
174	0x3e58759e	0.21138617
175	0x3ec7039a	0.38869935
176	0x3eeaea36	0.45881814
177	0xbcdd9c76	-0.027052145
178	0xbe58b885	-0.21164139
179	0x3e49b399	0.19697417
180	0xbeb8c138	-0.36084914
181	0xbd625c5e	-0.05526387
182	0xbe17231a	-0.14759484
183	0xbed2dd29	-0.41184357
184	0x3e943b25	0.28951374
185	0x3e1fc0db	0.15600912
186	0xbe9608e3	-0.29303655
187	0xbdee9578	-0.11649603
188	0x3e590460	0.21193075
189	0x3e29a2f2	0.16566065
190	0x3eb09704	0.34490216
191	0x3e7e7789	0.24850287
192	0xbf3f0cdf	-0.74629015
193	0xbe83babc	-0.25728405
194	0x3e4c09d0	0.19925618
195	0x3e6e0be7	0.23246728
196	0xbdde91d3	-0.108676575
197	0x3da1117b	0.07864662
198	0xbe020139	-0.12695779
199	0xbde88c13	-0.11354842
200	0xbe65d6db	-0.22445242
201	0xbe873a89	-0.26411846
202	0xbb94fdec	-0.0045468714
203	0xbe3188d8	-0.17337358
204	0x3dd09238	0.10184139
205	0xbe14fc98	-0.14549482
206	0xbd809892	-0.062791005
207	0x3e136f42	0.1439791
208	0xbe48c316	-0.1960567
209	0xbcfbf328	-0.030755594
210	0xbdd5bee7	-0.10436802
211	0x3cb5b9f7	0.022183402
212	0xbec13d9c	-0.37742317
213	0x3e59dbd6	0.21275267
214	0xbdbe4dd5	-0.09292189
215	0x3cafa7db	0.021442344
216	0xbe4d1a2b	-0.20029514
217	0xbc12a7c0	-0.0089511275
218	0xbeb122c1	-0.34596828
219	0xbeb95681	-0.3619881
220	0xbebf82a0	-0.37404346
221	0x3dd6508d	0.104645826
222	0xbdbd47d0	-0.09242213
223	0xbdb25913	-0.08708396
224	0xbedbeba2	-0.4295321
225	0x3ec04d7f	0.37559125
226	0x3c9f8c69	0.019476132
227	0x3ed52c7e	0.41635507
228	0xbe337823	-0.17526297
229	0x3e761845	0.24032696
230	0xbeb4d5ff	-0.35319516
231	0xbf036b97	-0.51336044
232	0x3cc6b88c	0.02425792
233	0x3eae82ef	0.3408427
234	0xbea359c9	-0.31904438
235	0x3e01b6e3	0.12667422
236	0xbeb8067f	-0.35942456
237	0x3e889d46	0.2668249
238	0xbec67dca	-0.38767844
239	0xbeb75c00	-0.35812378
240	0x3ddab3bc	0.10678813
241	0xbe33728b	-0.17524163
242	0xbd32f167	-0.04368725
243	0xbc631889	-0.01386083
244	0x3d16f61e	0.03685581
245	0xbf07acc4	-0.52997994
246	0xbf07909e	-0.52955043
247	0xbed370fd	-0.4129714
248	0xbe930577	-0.28715107
249	0xbe287ffe	-0.16455075
250	0x3be52568	0.0069929846
251	0x3e91e354	0.2849375
252	0xbcc45608	-0.023966804
253	0x3f06785b	0.525274
254	0xbeb2d9a2	-0.34931666
255	0xbdea1993	-0.11430659

bias f4 [200]
0	0x3cea40c1	0.02859533
1	0x3e4b667a	0.1986331
2	0xbe389f75	-0.18029578
3	0x3e5124ef	0.20424245
4	0xbd21626d	-0.039400507
5	0x3d6096b7	0.054831233
6	0xbd1e92f7	-0.038714375
7	0xbe4058a4	-0.18783814
8	0xbea7696e	-0.32697624
9	0xbe8c58ef	-0.274116
10	0xbe372400	-0.17884827
11	0xbe3da5fe	-0.18520352
12	0xbed4fe18	-0.41600108
13	0xbe71d681	-0.23616983
14	0xbdbff6ba	-0.09373231
15	0xbe0bf9ff	-0.13669585
16	0x3d2d3aeb	0.042292517
17	0x3d4573be	0.048206083
18	0x3dec335c	0.115332335
19	0x3e5f70a9	0.2182032
20	0x3c9805a7	0.018557383
21	0x3dcd76dd	0.10032437
22	0xbe9467d4	-0.28985465
23	0xbce03882	-0.027370695
24	0xbebcb4a5	-0.3685657
25	0x3e4b4e20	0.19854021
26	0xbddb9e99	-0.107236095
27	0xbe4b7e28	-0.19872344
28	0xbe11627f	-0.1419773
29	0x3d974c2e	0.07387577
30	0xbcd6b539	-0.02620946
31	0x3d4e5a4f	0.050379094
32	0x3e897d86	0.2685358
33	0xbeb793e9	-0.35855034
34	0xbe32b433	-0.17451553
35	0xbe7347f2	-0.23757914
36	0xbda02c1c	-0.07820913
37	0x3e87711a	0.26453477
38	0xbcfddfc6	-0.030990493
39	0xbeb2d823	-0.34930524
40	0x3e42df3e	0.19030473
41	0xbeacb942	-0.3373509
42	0xbd5c1251	-0.053728405
43	0xbe39da20	-0.18149614
44	0xbe8afc5e	-0.27145666
45	0x3c946fd0	0.018119723
46	0xbd6740e5	-0.056458373
47	0xbe5d622f	-0.21619485
48	0x3e520e76	0.20513329
49	0xbe9a0914	-0.3008505
50	0x3cf84081	0.030304195
51	0xbdb4865f	-0.08814692
52	0xbe75afe5	-0.2399288
53	0xbeb5b3b0	-0.35488653
54	0xbd55b6b2	-0.052176185
55	0xbd901aad	-0.07036338
56	0x3d415a0f	0.047205027
57	0x3e37df54	0.17956287
58	0xbda6f8c8	-0.0815292
59	0x3e1f8479	0.15577878
60	0xbd959d09	-0.07305343
61	0x3dd23e2d	0.10265765
62	0xbd68e5e6	-0.056859873
63	0x3d922616	0.071361706
64	0xbd1382cb	-0.036013406
65	0x3e5ade9a	0.21373978
66	0x3de28b03	0.11061671
67	0xbdb04156	-0.08606212
68	0xba4c9c80	-0.0007805303
69	0x3d5e6149	0.054291997
70	0xbe0c53be	-0.1370382
71	0xbe8902d5	-0.26759973
72	0xbd33b9e6	-0.04387846
73	0xbe64329b	-0.2228493
74	0x3e00eec9	0.1259109
75	0x3e8764b8	0.2644403
76	0x3d87fc8a	0.06639965
77	0xbde8f527	-0.11374884
78	0x3e0cce16	0.1375049
79	0xbdef5679	-0.11686415
80	0x3c973c0f	0.018461255
81	0x3e0c87ad	0.13723631
82	0xbe45efe2	-0.1932979
83	0xbe1e738b	-0.15473764
84	0xbe73a62d	-0.2379386
85	0x3d65df99	0.056121442
86	0xbe1f163f	-0.1553583
87	0x3dfccc02	0.12343599
88	0x3e86b816	0.2631232
89	0x3e226726	0.1585966
90	0xbec4b01d	-0.38415614
91	0x3dbfc230	0.0936321
92	0xbc42ff6c	-0.011901718
93	0x3e0fafb3	0.14031868
94	0xbe8cb053	-0.27478275
95	0xbe843eff	-0.25829312
96	0x3e80c594	0.2515074
97	0xbeb3f6f2	-0.35149342
98	0xbd91fa94	-0.07127872
99	0xbe3e9271	-0.1861055
100	0x3dbc35ed	0.09189973
101	0xbeb2be96	-0.3491103
102	0xbbfb227c	-0.007664023
103	0x3e332d53	0.17497759
104	0x3d556f83	0.0521083
105	0x3dbe0513	0.092783116
106	0xbd8e1498	-0.06937522
107	0xbcbc20ba	-0.022964824
108	0xbe3f9d4a	-0.18712345
109	0x3d2ecbc6	0.042674802
110	0xbcd78751	-0.026309641
111	0x3d265348	0.040606767
112	0xbe181c40	-0.14854527
113	0x3de9a9d5	0.11409346
114	0xbe63c118	-0.22241628
115	0x3e3b7051	0.18304564
116	0x3e3ede66	0.18639526
117	0xbdcedd79	-0.10100836
118	0xbe72b0a0	-0.2370019
119	0xbe113b43	-0.14182763
120	0x3eb320b2	0.34985882
121	0xbd06af4d	-0.032882024
122	0x3d0836ca	0.033255376
123	0x3e5a4fcc	0.21319503
124	0x3d6ed7e4	0.058311358
125	0x3ea56473	0.323032
126	0x3ed551b9	0.41663912
127	0x3e8c3e11	0.27391103
128	0xbd755564	-0.059895888
129	0x3e2e40d3	0.17016916
130	0xbdceac35	-0.1009144
131	0xbd7b83f9	-0.061405156
132	0xbd910257	-0.070805244
133	0x3ec5b499	0.38614348
134	0x3e9f3390	0.31094027
135	0xbe952a1e	-0.29133695
136	0x3e7832a8	0.24238074
137	0xbe1f85ef	-0.15578435
138	0x3e13f7a1	0.14449932
139	0xbde4bfd1	-0.111693986
140	0x3e1dd5f4	0.15413648
141	0xbdb60010	-0.08886731
142	0x3df46905	0.119340934
143	0x3dbe49d9	0.09291429
144	0xbe1109ad	-0.14163847
145	0x3ee39cbd	0.4445552
146	0x3dbb4d37	0.09145587
147	0xbe2d5627	-0.16927396
148	0xbd09e038	-0.033661097
149	0xbdce7900	-0.10081673
150	0x3c913bbe	0.017728683
151	0xbd158312	-0.03650195
152	0xbebd1916	-0.36933202
153	0xbd8261ae	-0.06366287
154	0x3e56ea42	0.209878
155	0xbd9cbd76	-0.07653324
156	0x3d7bd984	0.061486736
157	0xbdfca6be	-0.12336491
158	0xbe54a504	-0.20766073
159	0x3e6002f1	0.21876122
160	0x3e5bbe1e	0.21459243
161	0xbe0b383a	-0.13595667
162	0x3e8197a2	0.25311
163	0x3e34d327	0.17658673
164	0xbe6985c8	-0.2280494
165	0x3d7e3e88	0.062071353
166	0xbb910fa3	-0.004426913
167	0xbe9ece97	-0.3101699
168	0x3d9e47d3	0.07728543
169	0xbd641fe1	-0.055694465
170	0xbe03fd76	-0.12889656
171	0xbdbe6053	-0.09295716
172	0x3e4db511	0.20088603
173	0xbdee9907	-0.116502814
174	0x3dfb614a	0.12274416
175	0xbe9d8883	-0.30768213
176	0xbe426d9b	-0.18987124
177	0x3d471a7d	0.048609246
178	0xbe9305c1	-0.28715327
179	0x3e51aeb6	0.20476803
180	0x3d8d833e	0.06909798
181	0xbe28da70	-0.16489577
182	0x3e36b48c	0.1784231
183	0xbe013276	-0.12616906
184	0x3dd6d13c	0.10489127
185	0x3e2a43d9	0.16627444
186	0x3d902d5c	0.070399016
187	0x3e9f5f3a	0.3112734
188	0x3c0454a5	0.008076821
189	0x3dc94729	0.09828026
190	0x3c163385	0.009167557
191	0xbd820ac8	-0.063497126
192	0xbe98a782	-0.29815298
193	0xbe3247dc	-0.17410225
194	0xbd2d96cd	-0.042380143
195	0x3ea8327a	0.3285101
196	0x3df8f9a2	0.12156989
197	0xbe88a088	-0.26684976
198	0xbe6f7348	-0.2338382
199	0xbc938718	-0.018008754

weight f4 [200, 200]
0	0xbbb581db	-0.0055391616
1	0x3b62905a	0.0034570904
2	0xbd818530	-0.063242316
3	0xba2cc110	-0.0006590048
4	0xbd88d5e1	-0.06681419
5	0xbd91ee0f	-0.07125484
6	0xbd4a2813	-0.049354624
7	0xbc6cd9f3	-0.01445626
8	0xbdc1316e	-0.09433256
9	0xbd601c9f	-0.054714795
10	0xbc940e62	-0.018073265
11	0xbdcd2683	-0.10017111
12	0xbd52e9b6	-0.051492415
13	0xbda3a1d5	-0.079898514
14	0xbd1da93e	-0.03849148
15	0xbdb5bcbe	-0.0887389
16	0xbc5cd783	-0.013479116
17	0x3cdea81e	0.027179774
18	0xbd1e4aa1	-0.03864539
19	0xbcc1bb7f	-0.023648975
20	0xbc386845	-0.011255329
21	0xbd382c16	-0.04496392
22	0xbd8db0ea	-0.06918509
23	0xbd362a9c	-0.04447423
24	0xbd9c122b	-0.07620653
25	0xbc83ec58	-0.016103908
26	0xbdaeb1a6	-0.085299775
27	0xbc92d25e	-0.017922577
28	0x3c8a35e0	0.016871393
29	0x3bfe2224	0.0077555347
30	0xbcb2273d	-0.021747226
31	0xbda3f30f	-0.08005344
32	0xbc50155b	-0.012700404
33	0xbd3e8e6d	-0.046522547
34	0xbcc29755	-0.023753801
35	0xbc43b03c	-0.011943873
36	0xbd19ad03	-0.037518512
37	0xbb1d5c34	-0.0024011256
38	0xbc5d7fc1	-0.013519228
39	0xbb71b959	-0.0036884157
40	0xbcfab0bc	-0.030601852
41	0xbcba0b49	-0.02271046
42	0x3d11ce15	0.035596926
43	0x3d274ddc	0.040845737
44	0xbd593801	-0.053031925
45	0xbd706f35	-0.058699805
46	0xbd3c674b	-0.045996945
47	0x3d3efca7	0.046627667
48	0x3c4de3b3	0.012566495
49	0xbe02494a	-0.1272327
50	0xbd096c57	-0.033550587
51	0xbc26f69e	-0.010190634
52	0x3ca49647	0.02009119
53	0x3cd50b76	0.026006442
54	0xbc7acbcf	-0.015307381
55	0xbcd2e2e3	-0.025742954
56	0xbcea427b	-0.028596153
57	0xbd21f9f9	-0.039545033
58	0x3c8f031a	0.017457534
59	0xbbf359d8	-0.0074264817
60	0xbc236107	-0.009971864
61	0x3d20a30e	0.039218
62	0xbc6caa3c	-0.014444884
63	0xbdf1ac1f	-0.118004076
64	0xbd3264bc	-0.0435531
65	0xbdf5c619	-0.12000675
66	0xbd96c887	-0.07362466
67	0xbdf06e87	-0.117398314
68	0xbdf81298	-0.121129215
69	0xbd9739b3	-0.07384052
70	0xbbe12bd0	-0.006871678
71	0xbd5f94a8	-0.05458513
72	0xbbb9cfa4	-0.0056705046
73	0xbd0ddcf4	-0.034634545
74	0x3d3e0f0c	0.04640107
75	0xbda09ebd	-0.07842777
76	0xbdc64c60	-0.09682536
77	0xbd7abc1f	-0.061214563
78	0xbd39fa99	-0.045405004
79	0xbdd3b5ef	-0.103374355
80	0xbd7a8490	-0.061161578
81	0xba0e7c41	-0.00054353854
82	0xbcb669cb	-0.022267243
83	0xbd2286b1	-0.039679233
84	0xbd5da947	-0.054116514
85	0xbca3047f	-0.019899605
86	0x3d40c52e	0.047063045
87	0xbda35a06	-0.07976155
88	0xbd3ac422	-0.045597203
89	0xbd61365a	-0.054983474
90	0xbd5a9342	-0.053363092
91	0x3a50cb34	0.000796485
92	0xbd592af0	-0.053019464
93	0x3cdbfd08	0.026854053
94	0xbd540dcc	-0.05177097
95	0x3d32db95	0.04366644
96	0xbda0107b	-0.078156434
97	0xbab0b7eb	-0.0013482546
98	0x3a7dbee3	0.00096796284
99	0xbd9dac01	-0.07698823
100	0xbde3f958	-0.11131543
101	0x3d378e1a	0.044813253
102	0x3d53e5de	0.05173289
103	0x3b5dab78	0.0033824127
104	0xbdb66ab2	-0.08907069
105	0x3cb2961a	0.02180009
106	0xbd303960	-0.043023467
107	0xbd902e67	-0.070401005
108	0xbce2124e	-0.027596619
109	0xbdcd96c8	-0.10038525
110	0x3d9a3437	0.075294904
111	0xbda2e21f	-0.079532854
112	0xbc35039c	-0.011048224
113	0xbca4e4e8	-0.020128682
114	0x3d59bd22	0.053158887
115	0x3cc1c177	0.023651822
116	0xbb89baaa	-0.0042031603
117	0x3cd9b8c9	0.02657737
118	0xbd7bcd5c	-0.061475143
119	0xbd42ce67	-0.047560122
120	0x3ce5079d	0.027957732
121	0xbc87686c	-0.016529284
122	0xbd8875cb	-0.06663092
123	0xbd90a4dd	-0.07062695
124	0xbd86fbbc	-0.06590983
125	0x3d0e46f3	0.03473563
126	0x3d291b8e	0.041286044
127	0x3c3866d5	0.011254986
128	0xbdcbace9	-0.09945089
129	0x3a370202	0.0006981195
130	0xbcb1ed58	-0.02171962
131	0x3caf658b	0.021410724
132	0x3d1b6e51	0.037947003
133	0x3b87fe9e	0.004150226
134	0xbd7ea6d0	-0.062170804
135	0x3c47db90	0.012198344
136	0x3db5fe08	0.08886343
137	0x3c92e795	0.017932693
138	0xbdacabc3	-0.084311984
139	0x3d2934fc	0.041310295
140	0x3cc6ef59	0.024284052
141	0xbd879863	-0.06620862
142	0xbd18eecc	-0.03733711
143	0xbd8422af	-0.06451928
144	0xbd5bdc44	-0.05367686
145	0xbd5198e2	-0.05117119
146	0xbd7fe7aa	-0.06247679
147	0x3d63df9b	0.05563317
148	0xbc31ff29	-0.010864058
149	0x3c2cce25	0.010547196
150	0xbdab152a	-0.08353646
151	0x3c9dc7de	0.019260343
152	0xbd8650ce	-0.06558381
153	0xbd99ff84	-0.07519439
154	0xbd17cb31	-0.037059013
155	0xbc57f7c1	-0.013181628
156	0xbd72cf5b	-0.05927978
157	0xbdc0d08c	-0.09414777
158	0x3cf18a90	0.029485017
159	0xbdd14a9e	-0.1021931
160	0xbc483d06	-0.01222158
161	0x3d1f2fcd	0.038863946
162	0x3c689222	0.014194997
163	0xbd960768	-0.073256314
164	0xbd89280f	-0.06697094
165	0x3d4d00e4	0.050049677
166	0x3bd36cbd	0.0064521716
167	0x3b3b7a4c	0.002860683
168	0xbd4c0509	-0.04980949
169	0xbd16a722	-0.036780484
170	0xbc8ed141	-0.017433764
171	0x3beacb0d	0.007165319
172	0xbd78f8d8	-0.06078419
173	0x3cf19fb4	0.029495098
174	0xbd9792cd	-0.07401047
175	0xbd6a4111	-0.05719096
176	0xbd10745f	-0.03526723
177	0x3c4cc797	0.012498758
178	0xbdb4a65b	-0.08820792
179	0xbd46983a	-0.04848502
180	0xbda648c4	-0.08119348
181	0xbd70fea9	-0.058836613
182	0xbd8ff231	-0.07028616
183	0xbc06d49b	-0.0082294
184	0x3ce3c457	0.027803583
185	0x3d610e99	0.054945562
186	0xbd6f4d87	-0.058423545
187	0xbc0cc41b	-0.008591677
188	0x3d36f6a5	0.044668812
189	0x3c172ed1	0.0092274705
190	0xbcfc9695	-0.030833522
191	0xbd101a91	-0.035181586
192	0xbd8f83e1	-0.07007576
193	0xbd8af32d	-0.06784663
194	0x3c046c27	0.008082426
195	0xbde1737c	-0.11008355
196	0xbc240942	-0.010011973
197	0x3d3f7152	0.04673893
198	0x3c82d2c1	0.015969636
199	0xbd09e01d	-0.033660997
200	0xbc5b84fa	-0.013398403
201	0xbda78254	-0.08179155
202	0x3b2c5fe8	0.0026302282
203	0xbc5d6493	-0.013512748
204	0x3d01b8a1	0.031670216
205	0xbda8a858	-0.08235234
206	0x3bad5cee	0.005290619
207	0xbcf80dd5	-0.030280033
208	0xbbc63ed3	-0.0060499697
209	0x3d5d53ca	0.054034986
210	0xbd387b5d	-0.045039523
211	0xbd2be63e	-0.041967623
212	0xbba6547c	-0.0050759893
213	0xbcd9e8f0	-0.026600331
214	0xbc4f6d00	-0.012660265
215	0xbc53ed0b	-0.012934933
216	0x3d6305c4	0.05542542
217	0xbccc7b77	-0.024961216
218	0xbcb6a85b	-0.022297075
219	0xbcab3d7f	-0.020903347
220	0xbb89c3ad	-0.0042042346
221	0x389d6011	7.504237e-05
222	0x3ca5977f	0.02021384
223	0xbce97218	-0.028496787
224	0xbddcd841	-0.10783435
225	0xbd3f2405	-0.04666521
226	0xbc1234ab	-0.00892369
227	0xbdb0d969	-0.08635218
228	0xbd1ce80a	-0.038307227
229	0xbb46b416	-0.0030319742
230	0xbd6f5b4c	-0.058436677
231	0xbdb35165	-0.08755759
232	0x3c2d0bc8	0.010561891
233	0xbdad99a6	-0.08476572
234	0xbd32a856	-0.04361757
235	0x3c1102c3	0.008850756
236	0x3ce349d2	0.027745161
237	0xbd8babe0	-0.06819892
238	0xbc1a53dc	-0.009419408
239	0xbcca2e67	-0.02468033
240	0x3d56d24c	0.05244665
241	0xbcb4aecb	-0.022056004
242	0xbd3502b5	-0.044192035
243	0xbd2986e7	-0.04138842
244	0xbd5fb5b6	-0.054616652
245	0xbd98ae4f	-0.07455122
246	0xbd97fa7c	-0.07420823
247	0x3d1a1ab9	0.03762314
248	0xbd7d9904	-0.061913505
249	0xbdaaa89e	-0.083329424
250	0x3cec3db2	0.028838012
251	0xbd5e4f31	-0.05427474
252	0xbd3dee79	-0.046370003
253	0xbd7d6a16	-0.06186875
254	0x3d3c4d40	0.04597211
255	0xbd992a60	-0.074787855

bias f4 [200]
0	0xbd560925	-0.052254815
1	0xbda1cec2	-0.07900764
2	0xbe4908d0	-0.19632268
3	0xbe783d4f	-0.24242137
4	0xbe86d978	-0.2633779
5	0x3e996241	0.29957774
6	0x3d93ce4b	0.07217082
7	0xbe99f0ae	-0.30066437
8	0xbdc01e60	-0.093807936
9	0xbd24db0a	-0.040247954
10	0xbd5078b8	-0.050896376
11	0xbde56383	-0.11200621
12	0xbdb1b53b	-0.08677145
13	0xbe72a980	-0.23697472
14	0xbdf87d3f	-0.12133264
15	0x3d3d778e	0.046256594
16	0xbdde789e	-0.1086285
17	0xbeca29fe	-0.39485162
18	0xbea5851a	-0.3232811
19	0x3df10b7a	0.11769767
20	0xbd9dc26d	-0.077030994
21	0xbd1bae3b	-0.038007956
22	0xbe00da97	-0.12583385
23	0xbe16f600	-0.14742279
24	0xbe94266b	-0.2893556
25	0xbd1aabb4	-0.037761405
26	0xbd36cc01	-0.044628147
27	0xbc952e9b	-0.0182107
28	0xbdf4296d	-0.11921964
29	0x3d085c1f	0.03329098
30	0x3d6cd402	0.057819374
31	0x3e55a277	0.20862757
32	0xbde9c9e6	-0.11415462
33	0x3e1d9552	0.15388992
34	0xbdad9b8a	-0.08476932
35	0xbc65d18d	-0.014027012
36	0xbd2190d5	-0.039444763
37	0xbd9916bf	-0.074750416
38	0xbdc1ff1f	-0.094724886
39	0xbe97b746	-0.29632014
40	0xbd1f6e2a	-0.03892342
41	0xbdab36bf	-0.08360051
42	0x3acb8c32	0.0015529452
43	0x3cd88b3e	0.026433583
44	0xbeeaef68	-0.45885777
45	0xbd97f597	-0.074198894
46	0xbc652f89	-0.013988384
47	0xbd6450f5	-0.05574127
48	0xbec52830	-0.38507223
49	0x3de75f3b	0.11297461
50	0x3e33d11c	0.17560238
51	0xbdeb2ed7	-0.11483543
52	0x3e443c07	0.19163524
53	0xbc081eaf	-0.008308097
54	0xbd948a09	-0.072528906
55	0xbd227daa	-0.039670624
56	0x3c8596b7	0.016307218
57	0xbea16b85	-0.31527343
58	0xbc1240e3	-0.008926603
59	0x3e5594a7	0.20857488
60	0xbe03f77d	-0.12887378
61	0xbdb9c820	-0.09071374
62	0xbd8db3d2	-0.06919064
63	0xbdb787fd	-0.089614846
64	0xbd8cf1f4	-0.068820864
65	0xbe0a02db	-0.13477652
66	0xbe617d7c	-0.22020525
67	0xbe2866ce	-0.16445467
68	0xbe2aab4d	-0.16666909
69	0xbd2e9e60	-0.042631507
70	0xbd2a8b11	-0.04163653
71	0xbe86298c	-0.26203573
72	0xbd6c876e	-0.057746343
73	0xbdca916b	-0.098910175
74	0x3d404e15	0.046949465
75	0x3dcbc5fd	0.09949873
76	0xbe2b7771	-0.16744782
77	0xbd1976f4	-0.03746696
78	0xbe1eae18	-0.15496099
79	0xbd022b85	-0.031779785
80	0xbe4be8e2	-0.19913056
81	0xbea9d224	-0.33168137
82	0x3d35e176	0.04440447
83	0xbd5dc09a	-0.054138757
84	0xbd82a1fc	-0.06378552
85	0x3be27f88	0.0069121756
86	0xbe5f38df	-0.21799038
87	0xbde00982	-0.109393135
88	0xbe0813f7	-0.13288866
89	0xbd56b418	-0.052417845
90	0xbdc1b047	-0.0945745
91	0xbd254b14	-0.040354803
92	0x3c8d4281	0.017243626
93	0xbda6001d	-0.0810549
94	0x3dc4417a	0.09582801
95	0xbd35ec4d	-0.044414807
96	0xbd92aa5f	-0.07161402
97	0x3d403a41	0.046930555
98	0x3dffc5e0	0.124889135
99	0xbd343642	-0.043997057
100	0xbd83d94a	-0.06437929
101	0x3c3cd2f5	0.011524905
102	0x3c8976a6	0.016780209
103	0xbe4a99a2	-0.19785169
104	0xbd48eee7	-0.04905596
105	0xbddbb395	-0.10727612
106	0xbd6a0f8f	-0.057143744
107	0xbde488af	-0.11158883
108	0x3c5b1862	0.0133725125
109	0x3dc62c04	0.09676364
110	0xbddb1307	-0.106969886
111	0xbe1874fe	-0.14888379
112	0x3d9cf2b1	0.07663477
113	0x3e62e0ae	0.22156021
114	0xbdd8d320	-0.10587144
115	0x3c8bda75	0.017071942
116	0xbdf2391c	-0.11827299
117	0xbd370857	-0.044685688
118	0xbe5c4e7a	-0.21514311
119	0x3dcc01ac	0.099612564
120	0x3e66a80e	0.22525045
121	0x3e2baf19	0.16766013
122	0x3cbd4ef2	0.023108933
123	0xbdc3c647	-0.09559303
124	0xbde8309c	-0.113373965
125	0xbebf9de6	-0.37425154
126	0xbcfd88c3	-0.030949002
127	0xbdbcd23b	-0.09219786
128	0xbce6743e	-0.0281316
129	0xbe52e5b4	-0.20595437
130	0xbde96772	-0.11396684
131	0xbd29f293	-0.041491102
132	0xbdf5ba81	-0.119984634
133	0xbdf98471	-0.12183464
134	0xbd445500	-0.047932625
135	0xbd9bd314	-0.07608619
136	0xbdd72c15	-0.10506455
137	0x3d929d37	0.071588926
138	0x3cffda07	0.031231893
139	0xbe4f210f	-0.20227455
140	0xbdcdeff4	-0.10055533
141	0xbc84f377	-0.016229374
142	0xbd75f795	-0.060050566
143	0xbd442ee8	-0.047896296
144	0xbd5ca135	-0.053864677
145	0xbc13b23d	-0.009014663
146	0x3d39c062	0.045349486
147	0xbcf5e774	-0.030017592
148	0xbda8cff1	-0.08242787
149	0x3dddd2fb	0.10831257
150	0x3e1a0422	0.15040639
151	0xbe25e88a	-0.16201988
152	0xbdd057c3	-0.10172989
153	0xbd4518f5	-0.048119504
154	0xbe13c89d	-0.14431997
155	0xbe3982ae	-0.18116257
156	0xbdc3b6b9	-0.09556336
157	0xbe1577f1	-0.14596535
158	0xbd97c9ae	-0.07411514
159	0xbb4ed8f9	-0.0031562431
160	0x3d7b9e68	0.061430365
161	0xbe4a5e05	-0.19762428
162	0xbac0de5c	-0.0014714706
163	0xbc6b871a	-0.014375472
164	0xbdaf1771	-0.08549393
165	0xbd55a81d	-0.05216228
166	0x3d530e0a	0.05152706
167	0xbd081137	-0.033219542
168	0xbda25922	-0.07927157
169	0xbd1c615e	-0.038178794
170	0xbd8fa92c	-0.07014689
171	0xbd077ccc	-0.033078
172	0xbe4f2e02	-0.20232394
173	0xbdec0dcc	-0.11526069
174	0xbe6b6465	-0.22987516
175	0x3dcd9320	0.100378275
176	0xbc90bac6	-0.017667186
177	0x3d498a3d	0.0492041
178	0x3d8eed84	0.06978896
179	0xbe4281c5	-0.18994816
180	0xbd8ce153	-0.06878915
181	0xbe3ecca2	-0.18632749
182	0xbdd72e67	-0.105068974
183	0x3bf6584c	0.00751785
184	0xbd4efa13	-0.050531458
185	0x3d19e119	0.037568185
186	0xbcc37dcc	-0.023863696
187	0xbd6daf54	-0.058028534
188	0x3caf51f9	0.021401392
189	0xbc96ca2c	-0.01840695
190	0x3d900832	0.07032813
191	0xbda35088	-0.079743445
192	0xbcc2d2e4	-0.023782201
193	0xbdc21dae	-0.09478317
194	0x3e3d284c	0.18472403
195	0x3d1ef473	0.038807344
196	0xba644d0e	-0.0008708992
197	0xbebcc9d7	-0.36872742
198	0x3e0d1369	0.13776936
199	0x3b2889ad	0.0025716827

weight f4 [1, 200]
0	0x3c676ae2	0.014124604
1	0xbd1bce42	-0.0380385
2	0x3d867050	0.06564391
3	0x3f815e5f	1.0106925
4	0x3f079a46	0.5296978
5	0x3ee4ecbc	0.44711864
6	0xbed18409	-0.40921047
7	0xbde24330	-0.11047971
8	0xbd69675e	-0.056983344
9	0xbcab7ae4	-0.020932622
10	0xbc939d12	-0.018019233
11	0xbc00e3c8	-0.007866807
12	0xbc411eef	-0.01178716
13	0x3e534a96	0.20633921
14	0x3f3e9cbc	0.7445791
15	0xbf13d3d9	-0.5774513
16	0x3c1ac041	0.009445251
17	0xbed59e5d	-0.41722384
18	0xbe08f3dc	-0.13374275
19	0xbe187a70	-0.14890456
20	0xbb9e62f7	-0.004833575
21	0xbbab6374	-0.0052303616
22	0xbcec57c6	-0.028850447
23	0xc06e7f56	-3.726522
24	0xbddde742	-0.108351246
25	0xbd3c1886	-0.045921825
26	0xbbb94fd4	-0.005655268
27	0x3d622635	0.05521222
28	0xbd11e291	-0.03561646
29	0x3f742cd5	0.9538091
30	0xbe673e29	-0.22582306
31	0x3f6366e1	0.88828856
32	0x3e8854d8	0.2662723
33	0x3e5ef4cf	0.21773075
34	0xbc0d6c8e	-0.0086318385
35	0xbdf5a1ac	-0.11993727
36	0x3f83a87f	1.0285796
37	0xbed16b41	-0.4090214
38	0xbb14913d	-0.0022669577
39	0xbf7846fc	-0.96983314
40	0xbbbb173d	-0.0057095573
41	0x3bf8b6c5	0.007590147
42	0x3ee35e02	0.4440766
43	0x4022f51b	2.54621
44	0xbe0b1e31	-0.13585736
45	0xbcdbd3e7	-0.026834441
46	0x3d032c24	0.032024518
47	0xbcb6ee3b	-0.022330394
48	0xbe1d75f6	-0.1537703
49	0x3ea38105	0.31934372
50	0xbe04e89b	-0.12979357
51	0x3e71ab7e	0.23600575
52	0x3fd40db1	1.6566678
53	0xbc8dbbf3	-0.017301535
54	0xbd1631c6	-0.03666856
55	0xbe4b48b9	-0.1985196
56	0xbe9a65ac	-0.30155694
57	0xc0075128	-2.1143284
58	0xbf3af81c	-0.73034835
59	0xbdfc196e	-0.12309538
60	0xbe9f34b4	-0.31094897
61	0xbcd4593b	-0.025921455
62	0x3f87dd78	1.0614462
63	0x3c430b33	0.011904526
64	0xbcdba428	-0.026811674
65	0xbfa0f017	-1.257327
66	0x3e654462	0.22389367
67	0xbe8e784b	-0.2782615
68	0x39df9a71	0.00042648942
69	0x3c796309	0.015221366
70	0x3bb42a36	0.005498196
71	0xbc51203e	-0.012764035
72	0x3d4b133c	0.04957889
73	0xbc6fd5ca	-0.014638374
74	0xbf13f550	-0.5779619
75	0x3e06cf73	0.13165073
76	0x3ed02a04	0.40657055
77	0xbd3e10f0	-0.04640287
78	0xbdae3974	-0.08507052
79	0x3c056b2c	0.008143228
80	0x3f49024f	0.7851915
81	0xbf4c086f	-0.7970037
82	0xbe61f53a	-0.22066203
83	0xbcb7e52d	-0.022448147
84	0x3cae7ce5	0.021299789
85	0xbcaa0318	-0.020753428
86	0xbd9ce820	-0.07661462
87	0x3c2c99b0	0.010534689
88	0x3cdffdf1	0.027342768
89	0xbc72aed6	-0.014812192
90	0x3fa1059f	1.257984
91	0xc0109cab	-2.2595623
92	0x3f83990d	1.0281082
93	0x3cb8c6e8	0.022555783
94	0xbedd4617	-0.43217537
95	0x3cc6838b	0.024232646
96	0xbec3f063	-0.38269338
97	0xbe894f3e	-0.2681827
98	0xbf8d778e	-1.105211
99	0x3cf9542c	0.030435644
100	0x3cf96a50	0.030446202
101	0x3e69766d	0.22799082
102	0x3e20cee1	0.15703918
103	0x3e1a8abe	0.15091988
104	0xbbedab6a	-0.0072531
105	0x3ba1a39a	0.004932833
106	0xba49a251	-0.00076917285
107	0xbc71439c	-0.014725592
108	0xbc9de964	-0.019276328
109	0x3e447dbb	0.19188587
110	0xbd300ea4	-0.042982712
111	0x3ff352dc	1.9009662
112	0x3e596c21	0.21232654
113	0x3ef34681	0.47514728
114	0xbeccfc5a	-0.4003628
115	0xbbc8ab02	-0.0061239013
116	0x3f791a31	0.9730559
117	0x3c38e8f8	0.011286013
118	0xbf7607d8	-0.9610572
119	0x3eae8468	0.34085393
120	0x3edcb1df	0.43104455
121	0x3e7eff1d	0.24902005
122	0x3c7cc376	0.015427461
123	0xbfab3f46	-1.3378685
124	0x3fc9a679	1.5753928
125	0x3f6c0c3e	0.9220618
126	0xbea1ae30	-0.31578207
127	0xbc960b5a	-0.01831596
128	0x3b0b61fc	0.002126812
129	0x3ea55817	0.3229377
130	0xbbcd2a2b	-0.0062611303
131	0x3e4f4472	0.20240954
132	0xbd2c6511	-0.042088572
133	0xbe1d0e63	-0.1533752
134	0x3d49ca79	0.04926536
135	0xbcaf206e	-0.021377768
136	0x3df9d7bd	0.12199352
137	0xbebc6c65	-0.36801448
138	0x3e52bc58	0.2057966
139	0x3e364a26	0.17801723
140	0x3c457327	0.01205138
141	0xbc12c9e4	-0.008959267
142	0xbc57fb38	-0.013182454
143	0x3cf3ba55	0.029751936
144	0x3c2b019e	0.010437397
145	0x3fe250d6	1.7680919
146	0x400c4d41	2.1922152
147	0xbd1d9bee	-0.038478784
148	0x3c59beb5	0.013290097
149	0xbf26bf6b	-0.6513583
150	0x3e029396	0.12751612
151	0x3e6785a9	0.22609581
152	0xc03df0c4	-2.9678202
153	0xbcd2fc29	-0.025755005
154	0x40338743	2.8051307
155	0xbeb9dc9a	-0.36301118
156	0xbce6bd18	-0.028166339
157	0x3fbafeaa	1.4608967
158	0xbca1e7d2	-0.01976386
159	0x3f0724aa	0.5279032
160	0xbe35d3a9	-0.17756523
161	0x400c71fe	2.1944575
162	0xbf366401	-0.71246344
163	0xbec0a83b	-0.3762835
164	0xbe27d41e	-0.1638951
165	0x3a994dc7	0.0011696153
166	0x3f313d85	0.69234496
167	0xbc378f26	-0.011203563
168	0xbe1eff3b	-0.1552705
169	0x3ddaa2ce	0.10675584
170	0x3f8192be	1.0122907
171	0xbead2a9f	-0.3382158
172	0xbf62da0d	-0.8861397
173	0x3d50c937	0.050973143
174	0xbe832eb7	-0.25621578
175	0xbe6a53d3	-0.22883539
176	0xbe589499	-0.21150436
177	0xbdfb10c6	-0.12259059
178	0xbe359c6b	-0.1773545
179	0xbf1e8322	-0.6191884
180	0x3cf06a8b	0.029347679
181	0x3f38d2a6	0.72196424
182	0x3e4cea34	0.20011216
183	0xbf1908e4	-0.5977919
184	0x3ab0f255	0.0013499955
185	0x3e70d92b	0.23520343
186	0x3a2b21df	0.00065281795
187	0x3fae34a6	1.3609817
188	0x3e7a5c8b	0.24449365
189	0x3ebb19de	0.36543173
190	0x3ea6fdb6	0.3261544
191	0x3c0d1aee	0.008612378
192	0x3eb320ed	0.34986058
193	0x3cb0f669	0.021601873
194	0x3fd2d869	1.6472293
195	0xbf768b30	-0.96306133
196	0xbde07ec0	-0.10961676
197	0xbeebaba5	-0.46029392
198	0x3da846ac	0.082166046
199	0x3e8f58f9	0.27997568
