Vehicles/GenDisV_0_07_0/GenDisV_0_07_0_critic.pth (torch, 353431 bytes, 10 tensors)

weight f4 [200, 15]
00000000: 22db 1abf 5a13 20bf f199 c33e 9dc3 7a3e
00000010: 2f90 8a3d d5c4 46bd 4f5a cf3d 0256 dc3e
00000020: 1253 323e 5ed7 863c e22a 69be 5c99 85be
00000030: 9723 9b3e e1f5 01bf 55da fd3e 7c50 08be
00000040: 0426 fdbd 0420 333e 8f84 9fbe b362 81be
00000050: 14ed 9bbe 8ab0 b03d 2489 efbd 7cb0 2d3d
00000060: 9f24 983d 5288 d23d ef0b 87be 474e 8fbe
00000070: c292 ecbd 8340 993d a028 3ebe 5255 653e
00000080: 1fd9 423e 6250 58bf 0acc ad3d 0ed0 203e
00000090: feaa fd3c 1634 f5be 647c 2c3d 27a8 883e
000000a0: 7b94 1b3e 6171 d33e 788d 423e 36b0 973c
000000b0: dc74 71be 2f20 a8bc 795b 62bf 2474 c9be
000000c0: 5480 84bd 6b7f 40bd 1320 093e 3b1c f8be
000000d0: 63d5 853e 8748 01be ab95 a0be 8be7 54bd
000000e0: f131 503e 0571 c83e 9968 fdbe 272a 3fbe
000000f0: b631 a93e 4bb3 073f d54e f4bc f599 c2bd
00000100: 8bb3 823d 05f0 08bd 4e32 6d3e 5315 afbd
00000110: fccf 37bf 6702 79bf fabd a6be 12dc 26bd
00000120: 19b5 10bf bd0f 41bc ae07 50bf 8204 d03c
00000130: bd51 21bf 536c 823e 4ff8 b63c 3b2e 1a3e
00000140: 08fc 52be 2fe2 6ebf 1609 02bf 63f2 023d
00000150: fee5 623e 71db 9e3e 339e 4e3d 33b4 48be
00000160: 6c81 0ebf 7f5a d23e 1cea 963d 06ea cebe
00000170: 678c a4be 2f77 e43e 1f87 6bbe f77b d0be
00000180: 9aba 39be d0ff a23e 89b6 b33e c110 82be
00000190: 42d0 523b 0186 29be 6f3d e1bd ca19 dcbe
000001a0: a41b 9ebd 9ee5 d53d cb98 1f3c dd2c 8fbf
000001b0: 039c 09bf a61b 62bf c489 9fbf afe8 d1bf
000001c0: 6609 33bf 9b55 86bd f725 8f3e 1a59 713d
000001d0: 5aa4 24bc 46fb 32be 1340 25be cfd9 323f
000001e0: 6cf4 403e 3bcf 123f a430 b63e a909 48bf
000001f0: 5300 9cbe 8a79 8fbe 2bea 46be ca6c 023e
00000200: 9ab9 033e e03b 0f3e 9ab0 1dbf 70fe 8a3d
00000210: fc3e a23e dd7a 94be e830 d83e 1039 8d3c
00000220: 5a5e 20be b80d 12be 84fc 9e3d 4f9a 633e
00000230: eee4 16bd 5d98 b8be 51ab 89bf ad07 babf
00000240: 4463 0bbf ade8 6e3e 0ff2 073f 6db6 ea3e
00000250: 9a42 933d 4443 1cbd ded9 a63d 2b01 5e3e
00000260: 8b73 f03e 8657 e83d af60 313e 7e6f 51bb
00000270: a172 043d ddf1 0bbe 727c 103e b3f0 98bd
00000280: 154d 32be 7d25 6bbd be4d 233d 51d0 603f
00000290: b5ef e13e 29c1 63be 03cc d83e 51ca d2bd
000002a0: cda8 dabd ba74 8e3d 16a8 e7be c901 cfbe
000002b0: 04c6 403e 3126 9cbe fd83 173f e9dd f43e
000002c0: 556e 803d aa47 ecbd c63d cbbc 1539 04bf
000002d0: 0cfd 36bd ef02 2e3f f8e0 45be 3a2c 033e
000002e0: 78b7 1c3e 0a50 b2bd 2845 6cbd 3d35 a2bd
000002f0: 92f2 7dbd 932a 32bf d30c 15be 7835 d63e
00000300: 70b5 2e3e 0ac7 023f dc66 fc3d 3a36 053d
00000310: 151c 153e 5de2 86bd 33f6 67be 0b95 82be
00000320: 1cf2 b0bd 90e8 4fbd ffb7 913d d9da 9ebd
00000330: 8a71 f6bd d86c f6bd 03fd 61bc a5f4 88be
00000340: f8b6 523e 6d44 c73d 5200 e83e 4dae aa3e
00000350: 86e9 31be 0a1a 92bd a0e1 1c3f 431e 7bbd
00000360: 390d 013d 4cec 41bf 98d9 3abe 4a77 813e
00000370: 9d8c bf3d 78ad 823d 0c59 66be c1b4 d53e
00000380: 2c57 cdbe 8a77 9d3e 0f0f 063d 59b3 2cbf
00000390: edc2 f4be 9607 13bf 4ea3 9cbd 8c19 e8bd
000003a0: 0c74 a33d 8b15 9abe 49bc ab3c 0465 9b3d
000003b0: 5a60 a53e c795 193e 65e1 b6bd 2b9b 49be
000003c0: fa45 2bbf 2e6a 2ebd 26ba ed3e a32f 7f3d
000003d0: 9dba ddbe 6a74 21bf 6e09 1a3e b856 89be
000003e0: a886 d03e df38 9f3e 4195 523e ac62 4cbe
000003f0: 9cf0 343e 6bdb 163f a4ac 293e 841e 2b3f
-0.6049062 -0.6252953 0.38203385 0.24488683 0.06765782 -0.048527557 0.10124647 0.4303437
0.17414501 0.016460117 -0.22770265 -0.26093566 0.3030059 -0.50765806 0.49580637 -0.13311952
-0.123607665 0.17492682 -0.31155822 -0.25270614 -0.30454314 0.08627422 -0.116960794 0.042404637
0.0742886 0.10279907 -0.26376292 -0.27989408 -0.11551429 0.07483008 -0.18570185 0.22395828
0.19028138 -0.84497654 0.08486183 0.15704367 0.030965324 -0.478913 0.042110816 0.2669079
0.1519336 0.4129744 0.18999279 0.018516641 -0.23579735 -0.020523159 -0.88420826 -0.3934642
-0.06469789 -0.046996515 0.13391142 -0.48459038 0.26139364 -0.12625323 -0.31364188 -0.05197863
0.20331551 0.39148727 -0.49493864 -0.18668424 0.3304574 0.53007954 -0.029822746 -0.09502021
0.06381901 -0.033432025 0.23163721 -0.08548989 -0.71801734 -0.9726929 -0.32566816 -0.04073722
-0.56526333 -0.011783537 -0.8126172 0.025392774 -0.6301535 0.2547327 0.0223352 0.15056698
-0.20603955 -0.9331388 -0.50795114 0.03196944 0.22158048 0.31026796 0.05044384 -0.1959999
-0.5566623 0.41084668 0.073688716 -0.4041292 -0.32138368 0.4462218 -0.23000763 -0.40719578
-0.18137589 0.31835794 0.351002 -0.25403407 0.0032167588 -0.16555025 -0.10998046 -0.42988425
-0.07720116 0.10444187 0.0097410185 -1.1185566 -0.5375368 -0.8832344 -1.2463918 -1.6399134
-0.69936216 -0.06559297 0.27958652 0.058922864 -0.01004895 -0.17478666 -0.16137724 0.698636
0.1884324 0.5734746 0.35583985 -0.7813974 -0.30468997 -0.28022414 -0.19425265 0.12736812
0.1286377 0.13987684 -0.615976 0.06786811 0.31688678 -0.28999987 0.42224813 0.017239124
-0.15660992 -0.14263046 0.07763007 0.22226833 -0.036839418 -0.36053744 -1.0755407 -1.4533592
-0.5444834 0.23330946 0.5310373 0.45842305 0.071904376 -0.038150087 0.081470236 0.21680133
0.46963152 0.11344819 0.17322038 -0.0031957324 0.03233588 -0.13666482 0.14109972 -0.07467785
-0.17412217 -0.0574088 0.039869063 0.87817866 0.44128194 -0.22241654 0.4234315 -0.10292495
-0.106767274 0.069558576 -0.45245427 -0.4043105 0.18825537 -0.30497888 0.59185773 0.47825554
0.06271044 -0.11537106 -0.02480973 -0.516496 -0.044674918 0.67973226 -0.193241 0.1280984
0.15304363 -0.087066725 -0.05768314 -0.07920311 -0.06199891 -0.69596213 -0.14555673 0.41837668
0.170614 0.5108496 0.12324306 0.032522418 0.14561494 -0.06586144 -0.22652511 -0.25504336
-0.08639929 -0.0507589 0.071151726 -0.07756586 -0.120333746 -0.12032479 -0.013793233 -0.2674915
0.2057761 0.09729848 0.45312744 0.33336106 -0.17374238 -0.07133873 0.61281776 -0.061308157
0.03150675 -0.75751185 -0.18247068 0.25286323 0.09352992 0.06380743 -0.22494906 0.41739467
-0.4010557 0.30755264 0.032729205 -0.6746116 -0.47804967 -0.5743345 -0.076483354 -0.11332998
0.079811186 -0.3009456 0.020963805 0.075876266 0.32300073 0.14998542 -0.08929709 -0.19688098
-0.6690365 -0.04258173 0.46431082 0.06230129 -0.43306437 -0.6306826 0.1504266 -0.26823974
0.40727735 0.31098077 0.20564748 -0.19959515 0.1766991 0.58928555 0.16569763 0.6684344

bias f4 [200]
00000000: dde3 d6be fd58 45be 9b3e b53c c0a5 0d3e
00000010: 13b9 1f3c 1e30 86bc d417 5c3e f283 573e
00000020: 2314 3abe 6d42 d03c 3882 c8bd 8a9f 0b3d
00000030: 62b7 f23d dc03 7fbe 099a 8f3d 42f6 c93e
00000040: cfe4 83be 7894 a73e fff6 f13d a311 923e
00000050: acbc 813e b653 a63e 067c c7bd f186 c83e
00000060: c0b7 783e 2903 c9be fd18 49be 7879 f0be
00000070: f5c9 e9bd cf8e 97be 4cf0 f43d c610 48be
00000080: 3339 383e b639 82bd 548e 513e 3bc9 423e
00000090: 4f7b 9f3e 9719 153d 86b2 8b3e d256 5f3e
000000a0: a23c 893e ad2f 90bd 5ce3 c63d dab3 54be
000000b0: 2276 7cbe e772 28bd e84c 4b3e 2309 eb3d
000000c0: cbe6 cb3d 50f2 c63d d3ef 55bd a44e 793e
000000d0: cd15 d7bc 17ab e4bb fd5e 823b 9589 09bd
000000e0: 2c47 fe3c 39c9 4a3d 2bb6 7fbe f6b0 e3bc
000000f0: a1a6 113e bd04 943d bc59 0e3e d1fd 3cbe
00000100: 7abb 023e bd91 4a3e 8c0d 84be 6784 cc3e
00000110: 933d 153e 69a5 2f3e 2c4d 9c3e b15a a03e
00000120: 54f3 ac3e c3d9 c23e 1e05 90be d015 1c3e
00000130: 9a24 143e 3dde b2be bda4 db3d dd47 f93e
00000140: dd82 b6bc 7726 91be 048b b73d f147 c93d
00000150: ef81 d43e 6185 e3be efba 0bbe 590a 82be
00000160: 29b1 f6bd 9b54 3b3e ab89 1d3e b255 f83d
00000170: 1fe5 813e c345 1a3e 6c4b 33be 9726 6fbe
00000180: 07c9 a23e fa63 673d 93d8 64be 8643 3bbe
00000190: ba4a 233c 4696 afbe c7f7 5c3d 716e 56be
000001a0: a3b5 843e a153 9a3d b9c3 39be 55f2 8f3b
000001b0: ff3e 74bd 5671 4bbe b999 3f3e 239b ebbd
000001c0: 665a 2e3e 5c83 bc3c e960 363e 3af0 553e
000001d0: 68b9 803e 2d25 04be 9bc0 d3bd e115 8d3e
000001e0: c70e b93e 6cd0 2c3e cf59 173e eec2 87be
000001f0: b516 d9bd b340 36be cc52 9fbd b113 15bf
00000200: 3acc 963e 8daa d33e 80a3 e03d a3ca 083e
00000210: 6f8e 15bd c594 913e 83bf 2bbe 44c8 953e
00000220: 24f9 4fbe 0961 09be 8bd7 bdbe c4e4 643e
00000230: 7a2c adbd e3bb 883e b611 ebbc 705c 6a3d
00000240: b3ee 973e 4402 a23e 8789 22be dc0b 90be
00000250: 31cc 82be 179b 04be 88c0 c2be 15d9 d03d
00000260: b0bd 42be f95d 8a3d a893 45be c256 f33d
00000270: 5462 35be 5c7b 52be 11d2 5fbd 7041 843e
00000280: 4979 5c3b cb0b 62bc a59e b2bd aff0 153e
00000290: 804a 2cbd e671 613c 0538 7c3e 0abd c4bd
000002a0: 8e58 8e3d f583 fc3c 04ec cabe be69 40bd
000002b0: 8b43 583c 721c 813e 11fc df3c 429a 56bd
000002c0: 4e65 ebbd 3fa7 c43e 1db8 a7bc 894d 89bd
000002d0: 50b2 e93c d556 9e3e 2736 a53d b1cd f53d
000002e0: 4922 6abe 30d6 903d 2b8c 1e3e 884f 46be
000002f0: 2e43 3d3e f288 e7be b8a7 cbbe 678e d2be
00000300: f51c 73bd fb5e ed3c 5646 993e 2705 783e
00000310: cef2 04be 4946 41bc a107 023e e1a5 df3e
-0.4197072 -0.19272228 0.02212458 0.1383276 0.009748715 -0.016380366 0.21493465 0.21046427
-0.18171744 0.0254223 -0.09790462 0.034087695 0.11851384 -0.24903816 0.07011802 0.39445692
-0.25760505 0.3273046 0.11814689 0.2852908 0.25339258 0.3248574 -0.097404525 0.39165452
0.24288845 -0.39260224 -0.19638439 -0.46967673 -0.11415473 -0.29601142 0.119598955 -0.19537649
0.1799057 -0.06358664 0.2046445 0.19022076 0.31148764 0.036401358 0.2728464 0.21810463
0.26804072 -0.070403434 0.09711334 -0.20771733 -0.24654439 -0.041125204 0.19853556 0.11476352
0.0995613 0.09714186 -0.052230667 0.24346405 -0.026255513 -0.0069784033 0.0039786086 -0.033578474
0.031039797 0.049508307 -0.24971835 -0.027794342 0.1422372 0.07227466 0.13901418 -0.18456198
0.12766829 0.19782157 -0.25791585 0.39944765 0.1457427 0.17152943 0.30527627 0.31319192
0.33779395 0.38056764 -0.28128904 0.15242696 0.14467087 -0.3493518 0.10724781 0.4868764
-0.022279197 -0.2834966 0.08962062 0.09828175 0.4150538 -0.44437698 -0.13645528 -0.2539852
-0.12045509 0.18293993 0.15384547 0.1212572 0.25370118 0.15065674 -0.1750924 -0.23354565
0.31793997 0.05649183 -0.22348242 -0.18287477 0.009966547 -0.34294337 0.053947236 -0.20940568
0.25919828 0.07535482 -0.18141069 0.004392902 -0.05963039 -0.19867453 0.18710984 -0.11504199
0.17026672 0.023011856 0.17810406 0.2089242 0.25141454 -0.12904806 -0.10339471 0.27555755
0.36144087 0.16876382 0.14780353 -0.26515907 -0.10600034 -0.17798118 -0.07779464 -0.5823317
0.29452688 0.41341057 0.10968685 0.1335855 -0.03651279 0.28433815 -0.16772275 0.29254353
-0.20309883 -0.13415922 -0.3707851 0.22352892 -0.08455749 0.26705846 -0.028694969 0.05721706
0.296743 0.31642354 -0.15872775 -0.28134048 -0.2554641 -0.12949787 -0.38037515 0.10197655
-0.19017673 0.06756205 -0.19294608 0.11881782 -0.1771329 -0.2055487 -0.054643694 0.25831175
0.0033641628 -0.013796757 -0.08721665 0.14642595 -0.042063236 0.013760066 0.24630745 -0.09606369
0.06950484 0.03082464 -0.3963319 -0.046975844 0.013199697 0.25217015 0.027341874 -0.052393205
-0.11493932 0.3840885 -0.020473534 -0.06704242 0.028527409 0.30925623 0.08066969 0.12002123
-0.22864641 0.07072103 0.15483157 -0.19366276 0.18482658 -0.45221668 -0.39776397 -0.4112427
-0.059353787 0.028975954 0.29936475 0.24220715 -0.12983248 -0.011796542 0.12698223 0.43681243

weight f4 [200, 200]
00000000: 56a3 5b3d ef18 dfbd eab0 6f3e 86f0 11bf
00000010: 1735 4bbf 977a d8bf de4a 98bb 0f01 5d3f
00000020: 8492 b73e f664 313e bb14 0b3e b179 863e
00000030: 8fdf 3b3e fdda a7bc 8b11 a3be cceb 443d
00000040: 5daf 663e 304e 04bf d394 1b3e 5e38 3b3e
00000050: 6857 a9bd 1caa 823d 5354 2d3d 7f15 2abf
00000060: 2725 91be 4875 a23e 986d a8be ede9 4ebd
00000070: 5c8f 483f 6094 a23d 44c5 363f 7e43 723e
00000080: cbac 493e 8a36 063e 6e6d 92bf 35f2 6b3e
00000090: a20d 8fbd c60a c93e 9201 283e 24a4 debe
000000a0: bcdb acbe 4c58 d33d 2dc3 b8bf 3bc3 563f
000000b0: 8aa4 c03e dd72 9f3e 80f6 ab3e 8f0d 2c3e
000000c0: 852e 87bd bda1 db3e 473c d1bd ac3c a93e
000000d0: 9bec 9bbe e212 ba3d 23cc 3c3d bb86 923d
000000e0: 63f5 0a3e 0835 14bd f16c 3b3e 1959 cf3e
000000f0: a928 133e 8c7b 0fbe 6b7c 89be 3380 183e
00000100: fdf1 2abe e0cf 033d b447 2dbf 5562 34bf
00000110: 0286 893c 1858 9bbe c5f7 f03d 77f9 103d
00000120: c5a3 df3e 9e6d d7be 4f51 fd3d bb01 93bd
00000130: eb5b 3dbd cf82 853e 6848 9bbd d615 e9bd
00000140: b6c4 2cbf 46e9 c63e fdbb 253e c493 0e3d
00000150: 6403 4ebe 17a3 a3bd b795 0d3e 9ee9 433e
00000160: 87f6 cabe cbf8 4abe ad29 e3be b38c b9bd
00000170: 2d09 943e 9b58 39bd 4f69 843d db8c ff3e
00000180: b92f 1b3f 2526 183e 98db 923c 4c4d 173d
00000190: 0f97 233d 4fe4 7fbd b1bc a43e fdc2 9e3e
000001a0: 9aab a1be 891f e9be 22ec bbbd b12c fabd
000001b0: 64c6 1f3e b0e2 17bf 9b49 22bf b2e3 9b3e
000001c0: 373f 3f3e 058d 0fbd 0a7e 823d 5e14 0b3d
000001d0: 89c6 a03e 5f82 fbbe 8739 0dbd d932 113e
000001e0: 361e fd3d 58b0 9abf 664c 653e c032 46bd
000001f0: 9de8 853f 183e a33e e7a5 d5be 162f a93e
00000200: abae 243d 9685 febe 92b5 36bd ba2c cf3d
00000210: aa44 a93e 16fe 72be c3bc 4abd 4971 3f3e
00000220: 4817 dcbf 79ce 6cbe 8ede 9a3e d209 73be
00000230: f949 b3bd 6cb7 793d 7d5b 33bd ea26 17be
00000240: b1a7 3c3d d37d 4dbd d22a 013f 363b 263d
00000250: 5dd8 d63e d356 2ebf f055 613e 61e0 263e
00000260: f748 b33e ffa6 8abe bcbc 073e 1a14 da3e
00000270: bb65 4abe e7fe 43bf e21b f33d 1211 20bf
00000280: 1856 863e fc9c 4cbe 0e24 79bf 6632 11bb
00000290: 24ef dfbd 2f1a 1a3e 7a9b 70be d278 b13d
000002a0: fa70 603e 9a0c 0c3e 9e1d a8be 718f 1fbf
000002b0: 9d79 933f 55c2 d7be d987 713e 0426 f8ba
000002c0: c571 3dbf 1bd2 f1be 59d1 00bf fb30 d53d
000002d0: d7f2 28bf 7d83 0bbf 9f50 9fbf 040a a63d
000002e0: 15f9 79bc e6d5 b93d fe8c 8f3d d499 91bf
000002f0: cd0d 0abd baa1 473e 11ab 18bd caeb 2f3e
00000300: 61ff 34bf eb95 9a3e 1faa af3a 61f3 a0be
00000310: bdc0 67bf 4b36 2fbf 9a68 313e e458 fa3d
00000320: a8cf b2bd c5c1 a43c e37b 6a3d d359 4cbe
00000330: 7586 96bd 48e6 01bf a8a6 c23d 9559 483e
00000340: 057f 323e 3c85 f6be 0f2d ce3d f9b7 253e
00000350: 261c 9fbb c5d9 9ebb a0c4 693e 31d6 0a3e
00000360: cb4c 5fbd a19f fabd 1a4e 003e d9bc 823e
00000370: f00f 453e a048 0e3e b1ee 133d e61b 623e
00000380: f120 283d 9019 923d d6c1 303e 5d61 df3d
00000390: 284b ff3c 521b 223d 35ec 3bbe 99de 823c
000003a0: dc85 203e 50b5 113e 60af c33d bd66 8e3c
000003b0: fc76 7a3e 31d4 533d 481e 0d3e 5545 e1bc
000003c0: 1f21 fc3d a653 f8bc 5190 08bf 4ef9 193f
000003d0: 2d92 4a3e d3aa 04bd 3d19 12bd 6013 38bf
000003e0: 80a5 a53d 3e03 f33d 1a2e 823d 60a6 cc3d
000003f0: 4b26 c0be bbd9 6b3e 9cac b03d 7f10 3a3e
0.053622566 -0.108934276 0.23407331 -0.57007635 -0.79377884 -1.6912411 -0.0046475967 0.8632974
0.3585397 0.1732367 0.13582127 0.26264718 0.18347 -0.020490164 -0.31849322 0.048076436
0.22527833 -0.51681805 0.1519349 0.18283221 -0.082686245 0.06380102 0.042316746 -0.6643905
-0.28348657 0.31730103 -0.32896113 -0.050516058 0.7834375 0.079384565 0.71394753 0.23658559
0.19694822 0.13106743 -1.1439645 0.23041613 -0.06985022 0.39266032 0.16406849 -0.43484604
-0.33761394 0.10319576 -1.4434563 0.8389165 0.37625533 0.3114232 0.33586502 0.16802047
-0.0660067 0.42896834 -0.10216575 0.330541 -0.30453953 0.09085633 0.046093117 0.07154604
0.1357017 -0.036183387 0.18303277 0.40497664 0.1437098 -0.14011973 -0.26852736 0.14892654
-0.16693874 0.032180667 -0.67687535 -0.7046254 0.016787533 -0.30340648 0.11766008 0.03539416
0.43679634 -0.4207582 0.12369024 -0.071780644 -0.046230238 0.26076362 -0.0758217 -0.11381118
-0.6748766 0.38849849 0.16184993 0.03480889 -0.20118481 -0.07990091 0.13826643 0.19132087
-0.3964121 -0.1982147 -0.44367734 -0.09060039 0.2891325 -0.045250516 0.064653985 0.49912152
0.60619694 0.14858301 0.017926976 0.03693895 0.039938983 -0.06247359 0.3217521 0.3100814
-0.31576234 -0.45531872 -0.09175898 -0.122155555 0.15603024 -0.5933027 -0.63393563 0.30447155
0.18676458 -0.035046596 0.06371696 0.03395497 0.3140147 -0.49122903 -0.03447869 0.14179553
0.12359278 -1.2085066 0.22392425 -0.048388243 1.0461613 0.3188331 -0.41728136 0.33043736
0.04020564 -0.49711293 -0.044606753 0.10115953 0.330602 -0.23729739 -0.049496423 0.18695559
-1.7194605 -0.23125638 0.3024792 -0.23734215 -0.087543435 0.06096594 -0.043788422 -0.14760938
0.04605836 -0.050168823 0.50455964 0.04058381 0.41961947 -0.68101233 0.22005439 0.16296531
0.35016605 -0.27080533 0.1325559 0.4259346 -0.1976537 -0.76560825 0.118705526 -0.6252605
0.2623756 -0.1998176 -0.9732064 -0.0022155284 -0.10934284 0.15049051 -0.2349681 0.08665623
0.21918097 0.13676682 -0.32835096 -0.6232825 1.1521488 -0.4214045 0.23586978 -0.0018932228
-0.74001724 -0.4723061 -0.5031944 0.10409733 -0.65995544 -0.5449751 -1.2446479 0.08107379
-0.01525714 0.09074001 0.07009314 -1.137507 -0.033704568 0.19495288 -0.037272517 0.1717979
-0.7070218 0.30192503 0.001340214 -0.31435683 -0.9052847 -0.6844222 0.17325059 0.12223986
-0.087310135 0.020111928 0.057247054 -0.1995614 -0.073498644 -0.50742006 0.095044434 0.19565423
0.17431267 -0.48148525 0.10067188 0.16183461 -0.0048556505 -0.0048477375 0.22828913 0.1355827
-0.054516595 -0.12237478 0.12529793 0.25534704 0.19244361 0.13894892 0.036116306 0.22080955
0.04104704 0.07133782 0.17261443 0.109072424 0.031163767 0.039576836 -0.18351825 0.015975283
0.15676063 0.14229321 0.095549345 0.017382974 0.24459451 0.051716033 0.13781083 -0.02749888
0.12311005 -0.030313324 -0.5334521 0.60146034 0.19782324 -0.032389473 -0.0356686 -0.71904564
0.08088207 0.11865853 0.063564494 0.09992671 -0.37529215 0.23032276 0.086266726 0.18170355

bias f4 [200]
00000000: 5b76 63be 4b23 083f 09e0 40be b1f3 e2bd
00000010: e8df 3fbe f065 e5bd 8594 00be c3d5 4abd
00000020: a971 313e aa44 b1bc 25d2 bf3e 2637 67be
00000030: eec9 183e f716 f33e 038e 19bd a488 3abc
00000040: 8e95 393c d8eb a3be 5618 f93e 7186 dfbd
00000050: 97d7 08be 2a9a e3bc 7ddd 44be ff1c 093f
00000060: 6a38 d23e add9 ccbd 1b22 dd3e aa38 a7bd
00000070: 1b16 da3e e56e e43e 7920 0a3e 4a59 acbe
00000080: 2daa 92bd f724 7bbd 5edb d9bd 73f0 16be
00000090: 1f99 3fbd f067 84bd cabd 03be 9ca8 41be
000000a0: e160 34be 245f 85bb 25d9 083f 8ca3 ef3d
000000b0: 8634 51bd ea06 0bbe d3ea 70bd ce43 35bd
000000c0: 38c2 87bc 7eb8 15be 7960 54bc 9a82 21be
000000d0: e6c6 bbbd 29d9 a9bd f49b d43e d46a cc3d
000000e0: a605 f0bd 8b37 6bbe 2f41 a8bd a082 0b3f
000000f0: faef b4bd 5f8f abbd cc09 57be 3658 b13c
00000100: a086 c4bd 96ae 003d b047 8ebc 2d0f 803c
00000110: 8a8c 013f 58a0 56bd ac20 33bd ec8a 08be
00000120: 02d2 0ebe 545a 8cbd 53a3 4a3e b60e be3e
00000130: 93ae 90bd ad82 0ebe 43ab 743c 4a84 483d
00000140: 8646 1bbc 5e1d d33c 4cae 66be 745f e93e
00000150: 5b22 e1bd 4321 413d 268f 4ebd 7ab3 6cbe
00000160: 46f0 e43e 5bbd 063e cfaf 91be 57ad a73c
00000170: 2669 07bd 9ab3 1abc e62d 0cbe db96 2ebd
00000180: fff9 a0bd 6f91 45bd 8d8f 3ebe a23b 83bd
00000190: 545d 44bd 5f57 803e f628 24bd 933e 7a3e
000001a0: 71a4 d5bc b340 453e 326b a13d a80e 0a3f
000001b0: 3b74 92bd d0a2 603d 4002 87bd 3b00 063f
000001c0: 95a0 3fbe 6558 c8bd 3f2c 4fbe 23f5 cfbc
000001d0: e574 073f 9b61 d5be 5fba 02bc 0fec 27be
000001e0: 1c3e b4bd 213d a2bd f8d3 f9bc b528 543d
000001f0: 1efe 013f d139 43bd 0a18 74bd 9628 0dbd
00000200: a47f 2ebe 6e3c ef3c fd1d a23e ca95 51bd
00000210: d58d 83bd 1adc c4bd 65b4 cb3d 7aa0 65bd
00000220: 0b04 f03e 608a 80be 8a67 3e3e 178e b4bd
00000230: c4dc 9bbd 023e c4bd e2e5 6c3d 2ee7 67bd
00000240: 9c17 a0bd 49a8 133e 005c 2c3d 01d1 8abc
00000250: b216 a1bd dc10 27bd 7309 5ebd 8a79 0cbe
00000260: 73fc 1dbd 52cf 073e 719e 033d b849 c5bd
00000270: d692 18be ece8 093c 0c6b ff3e eeb8 1f3e
00000280: f81a 95be d653 043f 5ece d2bd 7863 90bd
00000290: 7f55 52be 4b0a 0fbc c758 1ebd 3dd1 2dbd
000002a0: 18fb da3e cb3d d13e 6d70 813e 5ed4 2ebe
000002b0: ecf5 903c a0fc 65bd 2c0b 883b eb2d 093f
000002c0: 3658 7e3e 8b56 bbbe 6d74 2e3b 2362 babd
000002d0: 5a9c 1e3f bf06 a5bd d42f e93d 92a1 03be
000002e0: 4aee 7e3e d693 9a3e 5a7d 3abe 920f d63e
000002f0: bf93 c4bc 248c 673e 4f39 b0bd c8ea 06bd
00000300: 99cf 9abd 9e67 a23e 6719 0a3f d89a a0bd
00000310: bf47 65be b8d3 cd3e 082f 70bd fd1f 68bd
-0.22213118 0.5317885 -0.18835463 -0.11081637 -0.18737757 -0.11201084 -0.12556656 -0.049520265
0.17328514 -0.021639187 0.37465015 -0.22579631 0.1492078 0.47478458 -0.03748895 -0.011385117
0.0113271605 -0.32015872 0.4865138 -0.109143145 -0.13363491 -0.027783472 -0.19225116 0.5355987
0.41058666 -0.10002456 0.43190083 -0.08165105 0.4259499 0.44615856 0.1348895 -0.33661872
-0.07161365 -0.06131455 -0.10637544 -0.14740162 -0.046776887 -0.06465137 -0.12865368 -0.18911976
-0.17615081 -0.0040701795 0.53456336 0.11701116 -0.05107548 -0.13576856 -0.058817696 -0.044254117
-0.016572103 -0.1462116 -0.012962454 -0.15772477 -0.09168796 -0.08293373 0.41525233 0.09981313
-0.11719827 -0.22970407 -0.08215558 0.5449619 -0.088348344 -0.08376955 -0.20999831 0.021648508
-0.0959599 0.031416498 -0.017368168 0.015632236 0.5060507 -0.05239901 -0.04373233 -0.13334244
-0.13947299 -0.06853166 0.19788866 0.371206 -0.070645474 -0.13917036 0.01493341 0.048954286
-0.009477263 0.02577084 -0.22527426 0.45580637 -0.10992881 0.04715086 -0.050429486 -0.2311534
0.44714564 0.13158171 -0.28454444 0.020468397 -0.03305926 -0.009442234 -0.13689384 -0.042624336
-0.07860183 -0.0482344 -0.18609448 -0.064078584 -0.047940567 0.2506666 -0.040078126 0.24437933
-0.026079388 0.19262962 0.07881774 0.53928614 -0.071510755 0.05484277 -0.06592226 0.523441
-0.18713601 -0.09782485 -0.20231722 -0.025385445 0.5291274 -0.4167603 -0.007979005 -0.16398643
-0.08800909 -0.07921816 -0.030496582 0.051796634 0.5077838 -0.04766256 -0.059593238 -0.034462534
-0.17040879 0.02920362 0.31663504 -0.05116824 -0.06423537 -0.096122935 0.09946517 -0.056061246
0.46878085 -0.25105572 0.18594185 -0.08816164 -0.07610467 -0.095821396 0.05783642 -0.056616955
-0.07817003 0.14419664 0.042079926 -0.016945364 -0.07865657 -0.040787563 -0.05420823 -0.13718238
-0.038570832 0.1326268 0.032133523 -0.09633201 -0.14899763 0.008417349 0.49886358 0.15597889
-0.29122138 0.51690423 -0.10293268 -0.07050222 -0.20540427 -0.008730481 -0.038658883 -0.042435873
0.42769694 0.40867457 0.25281087 -0.17073199 0.01769539 -0.056149125 0.0041517224 0.5358569
0.24838337 -0.36589465 0.0026619688 -0.09100749 0.61957324 -0.08057927 0.113860756 -0.12854603
0.24895588 0.30190915 -0.1821188 0.41808754 -0.023996232 0.22612053 -0.08604681 -0.03293875
-0.07559127 0.3171968 0.5394501 -0.07842034 -0.2239065 0.4020059 -0.058638602 -0.05667113

weight f4 [1, 200]
00000000: 9a91 3ebf 722e 3d3e 8c7d 74bf 8e44 b2bf
00000010: 5ea7 1fc0 2e6d b3bf e6dc b5bf eb45 263c
00000020: 25ae 563f 72fa 4fbf ba56 263f db03 bbbf
00000030: c9c1 e8bf 7c17 473e 09bd 93bc 0693 fabe
00000040: c876 193a 9a88 4bbe 8910 573e 49ac 9cbf
00000050: acd4 8fbf 0826 87bf 8244 d7bf dca0 583e
00000060: b8e5 5b3e 472f efbe 386f 263e 3c45 7e3c
00000070: ca5d ef3d fceb e83e a85a 26c0 eefd a7bf
00000080: ebb2 a63a 527e 59bf 223e 1bbc fff3 e1bf
00000090: 7789 2a3c 227e 28c0 72c6 3ebf de23 32bf
000000a0: 7272 3ebf f317 3dbb 46bc b53e e3d1 a03f
000000b0: f2e6 ff3c 72f5 99bf b60c 393b a114 83bc
000000c0: bc72 2b3d 2fa5 e4be 2546 0d3d 378c 3cbf
000000d0: fcd4 9c3a 1041 3ec0 fc02 cc3e f0f1 0740
000000e0: 47c6 18bf 6042 94bf adb3 93bf 76a1 813e
000000f0: 82e9 93bf b64f 703c 1e89 49bf 36c1 b73b
00000100: 595a 3ebc 3aeb 10bd b896 81bf 650b 22c0
00000110: f86e 913e c7da 81bc 1569 c43a 140d 81bf
00000120: 3309 d9be 340d 8bbf da32 c83f e85b bd3d
00000130: 2541 e9bc 5a69 223a cfa8 3ac0 e853 f3ba
00000140: ff99 0a3d 3fd3 84bf 5b41 2fbf 4666 d93e
00000150: eb3a 93bf 23b5 2fc0 e464 c83a 182a 49c0
00000160: 6fa5 853e 7fbd 343f 1cef 4bbf 58a6 653b
00000170: b4a8 993c 99a9 47bc 5d8d 41bf 4396 b23c
00000180: 24db 9b3c 5fb9 7ebd eff4 18bf 0497 cfbf
00000190: be71 08bd 9143 113f f082 56bb 00a8 da3f
000001a0: dbf7 a3bf 32c4 8a3f a49b 2bbf d709 6f3e
000001b0: 0e37 8ebd 186d 503f cb2f 6f3c e0da c63e
000001c0: 1b47 57bf e9d1 9ebf a260 a9bf 2de0 f9bf
000001d0: 92ea 733e b86f 13c0 d713 c3bf 447b 0bc0
000001e0: abe8 cc3b d7ca 5abc 3f1e 8e3c dc21 b83f
000001f0: 80d4 4e3e 4c5c c83c eb21 1f3c 5b38 d3be
00000200: 2019 6dbf 70a1 18c0 2581 a43f 326a 1dbf
00000210: 8730 153d c593 913d 2382 923f ea0c 1c3b
00000220: 34fe 8e3e 288c 42bf 34c8 a13f 7481 6ebc
00000230: d63c f9bc 9d92 4ebf 2e07 b8bf 4a2f f7be
00000240: 11f0 7fbc dd4d 203f 3289 0cc0 6e33 21c0
00000250: 5f96 213c a0f9 3d3a fb26 70bc 3eea aabe
00000260: 911d 49bd adeb f93f 5517 abbf 1e7c 11bf
00000270: 81ce acbf ded0 cfbb 00d3 4f3e bdaa 523f
00000280: f4ad eabf 6509 553e d2c0 7dbf a105 30bc
00000290: 5800 f3bf 81a1 6a3c 93d4 3fbf 5166 483c
000002a0: 6718 543e bd92 3d3e cd2d 1a3f 11aa 5bbf
000002b0: f340 643c d155 03bf 71a3 d13b d872 4d3e
000002c0: ff71 123f 47d3 89bf 2abf c4bb e352 ffbc
000002d0: f803 b13e d0f6 673d 4bbb 2ec0 e9be e93f
000002e0: 0d85 6b3f 6ff6 a23f 8545 0ec0 1fb4 223e
000002f0: e022 cd3b 4fb0 973f b202 d23c 6054 ca3c
00000300: 64b3 b1be 496e 103f b278 753e 73c1 44c0
00000310: 3b99 49bf b470 943e 5bd0 7cbf 5b7b edbc
-0.7444092 0.18474749 -0.9550407 -1.3927171 -2.4945903 -1.4017694 -1.4208038 0.010148506
0.83859473 -0.81241524 0.64976084 -1.4610552 -1.8184139 0.19442552 -0.018034475 -0.48940295
0.00058541866 -0.19876328 0.21002401 -1.2240077 -1.1236777 -1.0558481 -1.6817782 0.21155113
0.2147435 -0.46715757 0.16253364 0.015519436 0.11687811 0.45492542 -2.5992832 -1.3124368
0.0012718117 -0.84958375 -0.009475263 -1.7652587 0.010408751 -2.6326985 -0.74521554 -0.6958598
-0.7439338 -0.0028853386 0.35495204 1.2564052 0.031238053 -1.2028029 0.0028236336 -0.016001048
0.041857466 -0.44657275 0.034490723 -0.7365145 0.001196533 -2.972721 0.39846027 2.1241417
-0.5967755 -1.1582756 -1.1539208 0.25318497 -1.1555636 0.014667442 -0.7872485 0.0056077493
-0.01161822 -0.03538058 -1.0124121 -2.5319455 0.28404975 -0.015851391 0.001498493 -1.0082116
-0.4238983 -1.0863404 1.5640519 0.09246045 -0.028473446 0.0006195508 -2.9165533 -0.0018564435
0.03383827 -1.0376967 -0.684591 0.4246084 -1.1502355 -2.7454307 0.0015288857 -3.1431942
0.26102778 0.7060165 -0.79661727 0.0035041776 0.018757202 -0.012186431 -0.7560633 0.021800166
0.019025393 -0.062188502 -0.5974874 -1.6217961 -0.033311598 0.56743723 -0.0032731853 1.708252
-1.2810014 1.0841124 -0.67034364 0.23343597 -0.069440946 0.81416464 0.014598797 0.38838863
-0.84092873 -1.240781 -1.3232615 -1.9521538 0.2381995 -2.3036938 -1.524043 -2.1793985
0.006253322 -0.013354025 0.017348407 1.4385333 0.2019825 0.024458073 0.0097126765 -0.41253933
-0.9261646 -2.3848534 1.2851912 -0.61490166 0.036423232 0.07108263 1.1445965 0.0023811408
0.27928317 -0.7599511 1.2639222 -0.014557231 -0.030424517 -0.80692464 -1.4377191 -0.48278266
-0.015621201 0.6261881 -2.1958737 -2.518764 0.009862511 0.0007246975 -0.014657731 -0.33381838
-0.049100462 1.9525048 -1.3366495 -0.5683001 -1.350052 -0.0063420376 0.20295334 0.82291776
-1.8334336 0.20804365 -0.99122345 -0.01074353 -1.898448 0.014320732 -0.7493374 0.012231425
0.20712434 0.18513007 0.60226136 -0.85806376 0.013931501 -0.5130282 0.0063976576 0.2006334
0.57205194 -1.0767602 -0.006004234 -0.031167453 0.3457334 0.056631863 -2.7301815 1.8261386
0.91999894 1.2731456 -2.2229931 0.15889023 0.006260261 1.185068 0.02563605 0.024698436
-0.34707177 0.5641828 0.23971823 -3.0743072 -0.78749436 0.28992236 -0.98755425 -0.028989485

weight f4 [200, 15]
00000000: 3d1c 993e dacc b7be 0af9 653f 75b4 0d3e
00000010: 7433 833d 3ebf 113c 14e6 57bf 8e15 83be
00000020: 7a17 2ebd dcd4 45be ffd5 4dbe 374f acbd
00000030: e8b6 d5bd fcd1 06bf 296e d63d 165a 9ebd
00000040: 731b 06bf 527f 8cbe ba6a 183f 5f1b cdbd
00000050: 6b29 9bbd fc79 0ebf 0bb1 47be 69e4 803e
00000060: 8a08 063e ef82 02bf d8ec 34be abb7 153e
00000070: 0c04 123f 8f08 debc dc4d ecbd 050e e2be
00000080: 32fa 913f 6a3b 383e 3959 183d 2c54 d6bd
00000090: 21e3 54be 76a5 aabe d678 e23e 7379 0dbe
000000a0: 1208 55bd 9f57 0c3e d24d f9be 4bad ce3e
000000b0: ec46 a93d 54d4 a0be 7616 ee3e 9ae8 a7bc
000000c0: 31a5 c7bc 55e7 d5be 9986 afbe d159 6b3e
000000d0: 8984 023e b712 85be 1c4c c13d afe7 833e
000000e0: eb77 663e 94f2 d1be 577e 0c3f 3fc0 c6be
000000f0: 50ed 8e3d 509a 073e c132 9fbe 14af a53e
00000100: b499 5c3e 49a9 d6bd da5a 19bd 4817 94be
00000110: 45d3 06bf 034d f2bc 77d8 2a3e 065b d53e
00000120: f7a5 893c c9d7 29bd ecd6 233d 3d81 95be
00000130: f027 fd3d 4287 e4bc 2720 14be 4865 18bc
00000140: a008 9dbe 7780 fcbd 7107 8ebc 34e7 2abe
00000150: 2aeb c93d 5d85 873d 6051 aabd 5ef4 89be
00000160: 259b f83d d047 e33d 0065 eebe 4e8a e83d
00000170: 6474 bf3e 92e6 8ebd e990 b63d 1c0e 87bd
00000180: 86f8 2a3e 141b 453e c198 3fbe 16fe f63b
00000190: f244 8bbe 3c52 cabe 4a0e 073f a020 ecbc
000001a0: 85e0 fa3e f7dc f6bd 8b6c d23e c5e5 cd3f
000001b0: 3b62 65bf 6e30 f93d c8d8 fdbd 6019 953e
000001c0: 1950 b23e 29ea dabe 1551 803e aa10 a23d
000001d0: 72bc 3f3e c26f 83be a683 c63d 91a1 e4bc
000001e0: fa99 893e 1c55 c3bd 9799 95bf 2020 283e
000001f0: f081 4f3e 9f14 253e ea6a 213e aa95 cabe
00000200: 1dc7 54be 3247 303e 28d4 d2be 0b64 5b3e
00000210: bb83 17bf 3040 c4bd 5011 303e 504e 01bf
00000220: 7214 34bf 29cb 2c3f 5702 bd3d f822 2dbd
00000230: 7074 423e 8c3a 1fbe 9c12 f53d 8560 b3be
00000240: dad0 0a3f 8385 11be b2b5 99be 5da1 a33c
00000250: 75d3 0f3f 27ba be3d 26a8 063e 356f 053f
00000260: 09d4 a6bf 5afd bfbe 27a7 3abd 82e6 a9bf
00000270: 7695 3bbf 439c 3ebf 7392 b93e a859 b4bc
00000280: a0c8 933e 0a3c 81bd a757 3dbd 707d 5dbe
00000290: fb3a a93e 2d2f 49bf 8837 46be f8da 6b3f
000002a0: bd4c 293e 09fc 7abc d0c2 d2bd 19d8 e7bd
000002b0: 0c28 3e3e 074a df3b b7b4 ab3e 8343 023e
000002c0: c102 b63e 8e4b d0be 7aac 9d3d adcc 8ebf
000002d0: 616f 74be bc5b 863f 643b 09bf 0914 04be
000002e0: 70b4 f43e 204e e4bd 5d95 17bd aa77 8f3d
000002f0: f092 cbbe 9068 213e f7f0 653b eb8f d4bd
00000300: 8067 863d 209d 3b3d cd2d 613d 34c9 773e
00000310: 39ca 2d3f 6efc f83d 24fe 5f3e 0ac2 323e
00000320: dfeb 323e 7b77 2c3e 3082 28bf 81f2 20bf
00000330: f98f 04be 802a 2b3a 27db 843e 0fe5 a23e
00000340: 666e e7be 5fe5 b2be 9bdd 5bbe f612 2b3e
00000350: fe35 043d 3a5d aebe a37e 5abe ebc8 62be
00000360: 87f8 81be b382 8fbe ac17 8cbc a1cd 2bbe
00000370: ea74 7fbd ed60 e9bc e7d1 8cbe 2247 1d3e
00000380: 8113 c13d 0a4c da3e fdf6 1abf 0409 8d3e
00000390: 5cc5 f6be e297 48bf cc5c 833e c47a d9be
000003a0: 8d5d 693d 28bd a2be b217 5a3e 8b04 863d
000003b0: ba30 9e3d d2bd 143e 18d6 d5be 3a6d 983e
000003c0: 66ef b43e 462e 91be 286c 7b3d a4ea 23be
000003d0: a7b4 08be 5243 493e 8fb9 b53e ccb1 d1be
000003e0: 2c50 c93e ce35 c4be e9a6 9e3e c4c1 423e
000003f0: 6a87 d8be c5a8 a7be 3518 0c3e ec27 bf3e
0.29904357 -0.35898477 0.8983313 0.1383837 0.06406298 0.008895693 -0.84335446 -0.25602382
-0.042502858 -0.1931948 -0.20101164 -0.084135465 -0.10435277 -0.5266416 0.1047023 -0.07732026
-0.52385634 -0.27440888 0.5953785 -0.10014986 -0.07576259 -0.55654883 -0.1950113 0.25174263
0.13089195 -0.5098104 -0.17668474 0.14620845 0.57037425 -0.02710369 -0.11538288 -0.4415132
1.1404479 0.17991415 0.037194464 -0.10465273 -0.20789768 -0.33329362 0.44232816 -0.1381586
-0.05200965 0.137053 -0.48692185 0.40366587 0.082654804 -0.31411994 0.4650151 -0.020496655
-0.024370762 -0.41778055 -0.34282377 0.22983481 0.1274587 -0.2599084 0.09438345 0.25762698
0.22506683 -0.41005385 0.5488028 -0.38818547 0.069788575 0.1324246 -0.3109341 0.32360137
0.21543008 -0.10481507 -0.03744016 -0.28924012 -0.5266612 -0.029577738 0.16684137 0.41671008
0.016802771 -0.041465554 0.039999887 -0.29200163 0.12361133 -0.027896527 -0.1446539 -0.009301491
-0.30670643 -0.1232919 -0.017337533 -0.1668976 0.09859307 0.06617234 -0.08316302 -0.2694425
0.121389665 0.110976815 -0.46561432 0.113545045 0.37393486 -0.069775715 0.08914358 -0.06594488
0.16696367 0.1924861 -0.18710615 0.0075376136 -0.2720104 -0.39515865 0.5275618 -0.02882415
0.4899942 -0.120538644 0.41098437 1.6085745 -0.8960301 0.1216744 -0.12394863 0.29120922
0.34826735 -0.42756775 0.2506186 0.07913335 0.1872423 -0.25671202 0.09693079 -0.027909072
0.26875287 -0.09537718 -1.1687497 0.16418505 0.20264411 0.16121148 0.1576344 -0.3956731
-0.2077908 0.17214659 -0.41177487 0.21424882 -0.5918538 -0.09582555 0.17194104 -0.5051012
-0.703437 0.674975 0.09228962 -0.042269677 0.1898973 -0.15549678 0.1196644 -0.35034576
0.5422493 -0.14211087 -0.30021435 0.019974405 0.5618203 0.093128495 0.13150081 0.52122813
-1.3033458 -0.3749798 -0.045569565 -1.327347 -0.73274934 -0.74457186 0.36244544 -0.022015408
0.28864002 -0.0631028 -0.04622617 -0.21629882 0.3305281 -0.7858761 -0.19357121 0.92130995
0.1653318 -0.015318879 -0.10291064 -0.11320514 0.18569964 0.0068142447 0.33536312 0.12721066
0.35548976 -0.40682644 0.07698913 -1.1156212 -0.23870613 1.0496745 -0.5360625 -0.12898268
0.47793913 -0.11147714 -0.03700768 0.07005246 -0.39760542 0.15762544 0.0035086253 -0.10379013
0.0656271 0.045804143 0.05497532 0.24197847 0.6788669 0.12157522 0.2187429 0.17456833
0.1747279 0.16842453 -0.6582365 -0.6287003 -0.12945546 0.00065294653 0.2594845 0.31815383
-0.45201415 -0.3494062 -0.21471255 0.16706452 0.032278053 -0.340555 -0.2133737 -0.22146957
-0.25384924 -0.28029403 -0.017101131 -0.1677766 -0.062367357 -0.0284886 -0.27503893 0.15359166
0.09427548 0.42636138 -0.60533124 0.2754594 -0.48197448 -0.78356755 0.25656736 -0.42476475
0.056973983 -0.3178494 0.21298102 0.06543835 0.077241376 0.14525536 -0.41764903 0.29770833
0.35338897 -0.28355616 0.061382443 -0.16007477 -0.13350163 0.19654587 0.35493132 -0.4095596
0.3931898 -0.383223 0.30986717 0.19019228 -0.42290813 -0.32745948 0.13681109 0.37335145

bias f4 [200]
00000000: 490b 7c3e 841a 213e b3dc 923d d9fc 1e3c
00000010: 0364 443e ac56 05bc 7bcd 56bc bfac 4dbd
00000020: 4ac4 cdbe 973e fa3d f1cb c8bd e755 92be
00000030: 0df4 75bd fa54 89be 0316 60bd 4bdd 8ebe
00000040: 3d70 d2bd 2da6 c8bd 25dc 573e a480 03bd
00000050: a7db b43e e3fe c03d b188 f3bc 2354 9b3d
00000060: 162d 2ebe 3e65 4abd 672e 833e 084b 6e3e
00000070: 30f8 efbd add1 183e 22a1 373e 1ef1 40be
00000080: 2104 7a3d 30e2 9cbe b2a6 7e3c 5b0c 3a3e
00000090: 8b22 b73e ea5c 913d 3ede 79be 19c8 8c3d
000000a0: 1760 283e 1542 0dbe 7a00 88be 0e40 7c3e
000000b0: 4f2d b3bd 6f12 4d3d 5bd2 523e ab4a 503d
000000c0: da39 a53e 9898 2f3e b001 b2be 35c7 853e
000000d0: 144e ef3d 5223 79be 9e99 9d3d 5fcd 813e
000000e0: 118d 9abe 6d25 413d dc7d 81be 7013 ad3e
000000f0: ddcf 00bd a123 5b3d 6d00 823e 1ed6 4f3e
00000100: ecfa b33d 25fc c93e e0c3 c3bc add1 b0be
00000110: ad55 f6bd 4b13 89be a485 a9bb 3755 35be
00000120: 85b3 6dbe e699 133d 96a1 a83e a745 28be
00000130: 1c6a 74be 49a8 66be 04fa 4ebd 33b6 143d
00000140: 06a9 033d 32b7 87be 9c8e 01be 1d07 dd3e
00000150: 1bf2 5f3d 7bc6 1ebe ccb4 2abd 6765 563c
00000160: 936c fb3d 8737 11bf 7fa5 5e3e 0370 a53e
00000170: d427 253e 57c8 533e 377c 813d c1d8 313e
00000180: f29c 5abe 2a87 40be a772 173e 3c68 be3d
00000190: 271c 93be a20e 70bd dc7e 6bbd fd6c 02be
000001a0: b530 49be ee3b 34be 072d bbbd d994 37bd
000001b0: ee24 2c3e 0792 56bd 6ab3 3e3e 8a2e a73e
000001c0: 8237 85be 5460 f2bd 2bba a93d cc64 6c3e
000001d0: a786 6a3e f38a 843e 473f 28be f4b4 cbbc
000001e0: a093 5bbd b648 ac3e ca18 ebbd 383c 88be
000001f0: 4c03 39bd ac19 46be e56b 65be 7ce3 fdbd
00000200: 9750 8fbb 1dcd 61be 53b6 d0bd 25b2 7f3e
00000210: fb37 8cbe 41cc 533e df4e a2be 223f ee3e
00000220: ff21 3e3e f7e4 adbe 3e5a 0dbe eabf 213e
00000230: c731 cf3c 2e54 2bbd 0353 b0bd c447 813e
00000240: b922 cfbd 2f18 85be bb50 3e3e 6f18 803e
00000250: ad44 6b3e 0aee fb3d 2646 38be 1aae abbe
00000260: c87d 2cbe 889f 9e3e aa36 25be f3cb 9e3d
00000270: 1355 81be e7a0 8cbd 9c2e 213e e463 d83e
00000280: 07d9 4dbc 35fa 913e 0ea6 33bb 3420 6dbe
00000290: 3050 39be 96d1 9f3d e13d 9ebd c84f 373e
000002a0: 4f2b 0d3e 5790 c7bd ec90 bd3e 3022 713d
000002b0: 0e41 1a3e 4aa0 ab3e fbb3 08be 9d3a 57be
000002c0: e59f 75be b754 6bbe d991 a8be fd04 32bb
000002d0: b583 853e 089d b83d 696a 883e 3608 803e
000002e0: 25c7 d1bd bb79 84be edd0 d2bd 03f3 713e
000002f0: f577 95be b55d 323e 5091 10be 14ce 20be
00000300: b044 2a3e 24d3 b03e 2bff 323e 8f27 d73d
00000310: b087 8b3c 943a af3e 7d39 a73e 6fae 3c3e
0.2461368 0.15732771 0.07171001 0.009703838 0.19178776 -0.00813834 -0.013110514 -0.05021357
-0.4018882 0.12218969 -0.09804524 -0.28581163 -0.060047198 -0.26822644 -0.054708492 -0.27903208
-0.10275314 -0.097973205 0.21080072 -0.032105103 0.3532383 0.09423616 -0.029728265 0.07584407
-0.17009386 -0.04941296 0.2562134 0.2327081 -0.1171726 0.14923735 0.17932561 -0.18841979
0.061039094 -0.30641317 0.015542673 0.18168776 0.35768542 0.070978 -0.24401185 0.06874103
0.16442905 -0.1379474 -0.26562864 0.2463381 -0.08748876 0.050066408 0.20588057 0.05085246
0.322707 0.17148054 -0.34766912 0.26128545 0.11684814 -0.2432988 0.07695316 0.25351998
-0.3018575 0.047154833 -0.25291336 0.33803892 -0.031448234 0.053500775 0.2539095 0.20296523
0.08788094 0.39450184 -0.023897111 -0.3453497 -0.1202806 -0.26772532 -0.005173402 -0.17708288
-0.23213013 0.03603544 0.3293578 -0.1643282 -0.23868603 -0.22525133 -0.050531402 0.03630657
0.032143615 -0.26506954 -0.12652057 0.4316949 0.05467425 -0.15505402 -0.041676328 0.0130857
0.12276568 -0.56725353 0.21742819 0.3231202 0.16128474 0.20681892 0.0632252 0.17367841
-0.21348932 -0.18801561 0.1478983 0.09297225 -0.28732416 -0.058607705 -0.05749403 -0.12736888
-0.19647487 -0.17600986 -0.09139448 -0.044819687 0.16810963 -0.052385356 0.18623129 0.32652694
-0.26018912 -0.118347794 0.08287462 0.23085326 0.22902928 0.2588726 -0.16430388 -0.024866559
-0.053607583 0.33649224 -0.114793375 -0.26608443 -0.04516916 -0.1934573 -0.2240444 -0.12396905
-0.0043736207 -0.22050901 -0.101910256 0.249703 -0.2738646 0.20683385 -0.317008 0.46532542
0.18567656 -0.3396375 -0.13803956 0.15795866 0.02529229 -0.041828327 -0.08609583 0.25250065
-0.10114045 -0.25995013 0.18585484 0.2501864 0.22975416 0.12301262 -0.1799551 -0.33531266
-0.16844857 0.30981088 -0.16134134 0.07753744 -0.2526022 -0.06866627 0.15740436 0.4226371
-0.01256395 0.28511205 -0.0027412209 -0.23156816 -0.18096995 0.07803647 -0.07726646 0.17901528
0.13786052 -0.097443275 0.3702463 0.058870494 0.15063879 0.33520728 -0.13349907 -0.21018453
-0.23986776 -0.22981535 -0.32923773 -0.0027163618 0.26077047 0.09014326 0.26643685 0.25006264
-0.10243062 -0.25874123 -0.10293756 0.23627858 -0.29193082 0.17418559 -0.14117932 -0.15703613
0.16627765 0.34536088 0.17480151 0.10505592 0.017032474 0.3422438 0.32661048 0.18425916

weight f4 [200, 200]
00000000: 9d86 3dbf 7e37 7dbd 0025 0dbf 78cc 29bf
00000010: c395 c43e 2bab f0bc 64ab c43e a2d4 49bf
00000020: 45fc e23e 2e9d 88bf 431b a43e d5d6 623f
00000030: 4910 163f 41cb 18be 806e 86bd 5239 cc3f
00000040: b49f 15be 25f9 a2bf efa9 a3be 9b49 203d
00000050: 6cba 663e 9abe 97bf c9ab 71bd 2173 b63e
00000060: 30ba 473f f173 a8be ddab 173f 8c5b 2c3e
00000070: 7d5f ae3e 55f2 a7bd e6d3 06bf efd1 30bc
00000080: f253 df3e 77fe 60bf f5f3 53bd a02d bcbd
00000090: 48bb 83bd 5d3a 41bf 531e 48bd 2107 143f
000000a0: e9b5 e1be 7af5 dbbd 69bf 9c3d dfd4 83be
000000b0: 263a 953e c586 6e3d f1f0 dc3b a2b8 15be
000000c0: 2dcb 99bf e330 0dbe b822 bfbe 19be 87bf
000000d0: 2951 e43d d8a0 36bc 103d d93d 07da 57bf
000000e0: 20b4 b6bc fff2 0d3e 1b5a 403d 5cd4 96be
000000f0: ac33 98be 445c f9be 9ce2 94be 75e3 b1bd
00000100: 05bf f8be ac4f b13d 7fdd c4bd 6c43 113f
00000110: 944a fabe c44a 9d3e c293 75be 2655 99bf
00000120: dffa 6a3e 3637 16bd f4cc 86be 2d8f 80bd
00000130: 7cf3 60bb c16a a63d 4d35 5ebe 0d3a dd3c
00000140: 7334 b0bd fa42 4e3f 4319 9dbe 311f 0abc
00000150: 5f29 c8be 8445 c93d 4e1c 88be 03b1 a33e
00000160: 3aa8 61bf 5a27 55be 2b46 ecbe 8b27 46be
00000170: 1cec 48be c875 453e 0f02 8b3e 1c0a 793e
00000180: 0e29 673f adda 48be 401c 263e c967 933e
00000190: b043 d73c 7acf c8be 97e4 f43e 9292 a3bd
000001a0: 0cce 42be facf 773e 09b0 823e d7e2 23bf
000001b0: 94c7 d93e 91b8 e73e 7da1 bd3e 8c5d 123e
000001c0: a797 3f3f a15b 21bc 28fc db3e 7a78 b3be
000001d0: 64d0 503e b51e 1f3f e6ad 34bf 3e2a 9d3d
000001e0: 473e 183c bbd2 94bc 7e99 263e ab3b 003f
000001f0: 2857 ea3e 4a41 543f 3b88 eebc e899 07bf
00000200: 2d14 a53d fe18 21bf 5274 bb3e 8f86 643f
00000210: afb4 3abf 2b26 863d f39e a9bf 6e94 5c3e
00000220: 5b92 553e c330 a7be 27ba 0d3e 07c0 37bd
00000230: d49e 4f3c 8b25 af3d 310a 893d d1a6 633e
00000240: 16b0 15be 1cda 0b3f 647c 37be 1e78 1ebe
00000250: c91a 9e3d d880 303e 7325 42bf 7e59 02be
00000260: 0767 afbe ffa7 26bf af79 8ebd 2d5c 3d3e
00000270: a757 2bbe 2a4d 1f3e 0031 3e3e 03e8 e4be
00000280: ac92 bd3d 29eb 1ebe 651a debe cad8 e03d
00000290: 025c c33d 996a 56bf 1163 003f d7f7 7e3d
000002a0: 7661 5ebf b655 873e a6f0 dfbd 716b 0b3c
000002b0: 37cc 87bf 4e29 183d 7c76 d33e 2f84 cb3e
000002c0: 8eec 2b3e 9581 9e3e aa01 c6bb 68e6 05bf
000002d0: 439c 76bf d8a9 aebe 6ff8 923f 1756 ebbe
000002e0: 4381 acbe a8a8 35bf ba5e bb3e fcff 59bf
000002f0: bec1 903e 4cee 8abe e82b 0abd 5d31 093f
00000300: 99b7 b33c c61d 1dbe 40fe 9dbe 41b1 983d
00000310: 856a 5cbf afe0 20bf 32e1 493e 1289 1cbd
00000320: f53a 563f 5d70 f83d 56e8 cabd 1def 4bbf
00000330: e3fb 82bd b782 0abd e708 2a3f 5066 bdbf
00000340: 4226 5b3e b3f7 66be 5807 f6bd e953 59be
00000350: 2003 8bbe 3336 a9bd cb8e 3e3e c44c 38bf
00000360: 5b17 e0be 51e9 e3be 1df5 e9bd a00c 00bf
00000370: 75e1 5c3e 8603 b8be cd9f 133e 8cc1 65be
00000380: 3676 f13d b62b d13b 4f67 0ebf 4f88 4f3e
00000390: 0c58 793d 254c 85bd d037 043f c74d 013e
000003a0: ce98 553f 1288 dabe f8ac af3d a428 583d
000003b0: bb96 c8be 5713 9b3d e2f9 01bf a2dc 043f
000003c0: 14b5 60be dd61 7f3e d71b 81bd c385 2a3e
000003d0: 7788 2abe 1b06 b23e 2e1b 98bf 108a 893c
000003e0: d197 07bf a118 753e 3908 c43e 3f8f dfbe
000003f0: fcf3 7d3e a584 48bd 8a51 3ebf fe42 9bbe
-0.7403353 -0.0618205 -0.5513458 -0.6632762 0.3839551 -0.029378494 0.3841201 -0.78840077
0.4433309 -1.0672967 0.3205205 0.8860906 0.586186 -0.14921285 -0.06564045 1.5954993
-0.14611703 -1.2732283 -0.31965587 0.039132696 0.22532052 -1.1855042 -0.059001718 0.3563471
0.78018475 -0.32900956 0.5924662 0.16831797 0.34057227 -0.08200518 -0.5266708 -0.01079224
0.43618733 -0.8788828 -0.051746327 -0.0918839 -0.064322054 -0.7547968 -0.048857044 0.5782338
-0.440841 -0.1074018 0.07653696 -0.25748345 0.29145926 0.058233995 0.0067425896 -0.14621213
-1.2015129 -0.1378818 -0.37331176 -1.0604888 0.111482926 -0.011146747 0.1060735 -0.8431706
-0.022302687 0.13862227 0.04696093 -0.29458892 -0.29726923 -0.48703206 -0.2907914 -0.08685962
-0.48583236 0.08657774 -0.096125595 0.567435 -0.48885024 0.30721104 -0.23982146 -1.197911
0.22947262 -0.036673747 -0.26328242 -0.062773086 -0.0034324815 0.081258304 -0.2170002 0.02700522
-0.08603754 0.8057095 -0.30683336 -0.008430288 -0.39094064 0.09827712 -0.26584095 0.31970987
-0.8814732 -0.20815793 -0.46147284 -0.19351022 -0.19621319 0.19283211 0.27150008 0.24320263
0.9029702 -0.19614668 0.16221714 0.2879012 0.026277393 -0.39220792 0.4783065 -0.079869404
-0.19023913 0.2420043 0.2552493 -0.64018005 0.4253508 0.45258 0.37037268 0.14293498
0.7484078 -0.009848506 0.42965817 -0.35052854 0.20391995 0.6215623 -0.7057785 0.07674073
0.009292192 -0.01816689 0.1626949 0.50091046 0.4576962 0.82912123 -0.029117694 -0.5296922
0.08060489 -0.6292876 0.36612183 0.8926782 -0.7293195 0.06550249 -1.3251632 0.21540996
0.20856611 -0.3265439 0.13840543 -0.044860866 0.012672145 0.08552083 0.06691397 0.22231604
-0.14617953 0.54629683 -0.17918545 -0.15475509 0.077199526 0.1723665 -0.7583839 -0.12729451
-0.3425829 -0.6510009 -0.06956803 0.18492194 -0.16732655 0.1555678 0.1857338 -0.4470826
0.09256491 -0.15519394 -0.43379512 0.10978849 0.095390335 -0.83756405 0.50151163 0.062248077
-0.86867464 0.2643258 -0.10934572 0.008509503 -1.0609196 0.037148766 0.41301334 0.39749286
0.16789457 0.30958238 -0.006042679 -0.523047 -0.96332186 -0.34113955 1.1482066 -0.4596412
-0.3369237 -0.70960474 0.36595708 -0.85156226 0.28272814 -0.2713493 -0.03373328 0.5359095
0.021938132 -0.15343389 -0.3085804 0.074556835 -0.86100036 -0.6284284 0.19714811 -0.038216658
0.8368371 0.121308066 -0.09907596 -0.7966173 -0.063957 -0.033816066 0.66419834 -1.4796848
0.21401313 -0.22555427 -0.120131195 -0.21223415 -0.27150822 -0.08262291 0.18609159 -0.71992135
-0.4376782 -0.44513944 -0.11423705 -0.50019264 0.2157038 -0.35940188 0.14416428 -0.22437114
0.11790125 0.0063833846 -0.55626386 0.20266841 0.060874984 -0.06508664 0.51647663 0.12627326
0.83436286 -0.42681938 0.08577913 0.052773133 -0.39177498 0.07572048 -0.50771916 0.5189916
-0.21944076 0.24939676 -0.06304138 0.16652589 -0.1665362 0.34770283 -1.1883295 0.016789466
-0.5296603 0.23935176 0.38287523 -0.43663976 0.24800104 -0.048954625 -0.7434317 -0.30324548

bias f4 [200]
00000000: 5692 3f3e b480 94be fc39 adbd 7459 92bd
00000010: c09c eebd bdda a7bc 3093 cebd 76f2 b9bd
00000020: ac6d 93be 296a e4bc efa4 e9bc 5213 f23e
00000030: da46 34be 078c 93bd 8e2c d93c 5f48 cc3c
00000040: d752 7abe e824 123f a552 22be 66bc 1a3f
00000050: c123 0f3f dc42 68bc ad2c 063f 1fd6 d0bd
00000060: 50ad fc3e 9e1f 84bd 2656 d93e 0fd4 19be
00000070: 041f e33e 0bb9 013f b869 afbd 17a7 20be
00000080: af0d 10be 45b9 96bd 1a91 a6bd ee2c 9dbd
00000090: 764a f93e cafb 7fbe 69c9 35be 85a9 00be
000000a0: 327f f7bd 60ec 2cbc c26a b93e fa0d 9a3e
000000b0: 456c 05be 3e23 303c 7252 3b3e e702 5d3d
000000c0: 4dcb 113f 0e4e 13bc 52c8 b2bd ab7f e23e
000000d0: 2bd8 ac3e 202c 0a3c 74a9 adbd 5967 dc3e
000000e0: d1ab b8be 6600 aebd 870a 123e 38f9 2fbe
000000f0: 5c87 8fbd 0779 50bd 1de3 7abc 535c e4bd
00000100: 64e5 203f 4f4b 6cbc 9ef5 d2bd 21c6 93bd
00000110: 29e9 e63e ccf6 8bbe d7a8 0c3e 49ab 3c3b
00000120: 0617 803c 371d adbd 156d b9bd f4e4 28be
00000130: 4d5f 1dbc 48a9 fd3e 287f babc c840 82bd
00000140: 225c aebd 717d 033f 391b 72be f076 043e
00000150: 52f5 db3e 15e1 dcbd bf9f 31bd 7bf7 883e
00000160: 5df1 1bbe 6a0f 99bc b4ce b7bd fb04 66be
00000170: c221 4ebe fc59 5abd 0f86 09be 4d88 343d
00000180: 457e 24bd 7c3f 073e a4d1 c6bd 09f4 a9bd
00000190: 664c 743c 1518 dd3d 27fe c6bd 92c3 6a3d
000001a0: 40f3 ca3e dcd5 d33c fce6 e0bb 262f 4e3e
000001b0: b0f6 3abd 8862 67bd 65da 3cbd 4ada d43e
000001c0: 2e0c 4cbd 1c71 31be 6493 a2be 8dd0 1fbe
000001d0: 7f1c 393e a3da 5abe 17d7 c33e ee03 7abe
000001e0: 676f 58bd 0fbf e03e 2965 37bd eeb3 033f
000001f0: 84ec 20be ce09 853e 8af4 45be 6896 1ebd
00000200: 4f81 093f e3bb 243e 2aee 85bd 01f1 a7bd
00000210: daac 043f 97e5 b3bc 1ba7 03bd 18d3 3e3e
00000220: 8a23 ef3e 086a f8bb 87cb b03e f5d6 a43e
00000230: 767f 41be a07e 69bd d34e f93e 2cd1 d53e
00000240: f321 36be 4241 a8bd a0a7 55be 4ec6 a43c
00000250: 3145 aebc f2ac 023e 464a ae3e 94de c23e
00000260: 8200 ebbd fddc e3bd 9b27 57be 7526 8ebd
00000270: 5e2e 35be 8a1b 653b 88ce 09be 5d49 eebd
00000280: 04f7 a73e 85ea 8bbd 3823 9abd 80a0 9e3d
00000290: 84dc f9bc d1e6 65bd 8abc 80be 6c5c 65be
000002a0: f713 303e f592 41be dfec 093e 813b 0dbe
000002b0: da34 babd cb1c c23c 3dfe abbd f467 b13e
000002c0: 6913 9cbd 897c ffbb 899e 043f ce3c 46bd
000002d0: 8854 2b3d cc42 15be 3ddd 95bd 3717 613e
000002e0: a498 1fbe 3bde 983e 5e46 f5bc ec65 aabd
000002f0: bf32 a0bd e259 aabd 5d26 97bd 5b10 4ebc
00000300: 40c0 7dbe d150 1bbe 5687 61be da27 18be
00000310: 999c 86be f844 8ebc 7803 cf3d 1f9b b1bd
0.18708166 -0.29004443 -0.08458325 -0.07145968 -0.116509914 -0.020490045 -0.100866675 -0.09079449
-0.2879461 -0.027882652 -0.02852103 0.47280365 -0.17605153 -0.072044425 0.026510503 0.024936853
-0.24445663 0.57087564 -0.15851839 0.60443723 0.5591393 -0.014176097 0.5241192 -0.1019709
0.49350977 -0.06451343 0.4244854 -0.150223 0.443596 0.5067298 -0.08565086 -0.1568874
-0.1406772 -0.07359556 -0.08133145 -0.07674585 0.48689622 -0.24998394 -0.17752613 -0.12564667
-0.120848075 -0.010554403 0.36214262 0.30088788 -0.13029583 0.01075059 0.18293169 0.053957846
0.5695084 -0.008990778 -0.08729614 0.44238028 0.33758673 0.008433372 -0.08479586 0.43047598
-0.36068586 -0.0849617 0.14261828 -0.17184913 -0.070082396 -0.05089667 -0.015312937 -0.11150422
0.6285002 -0.014422252 -0.10300754 -0.072155245 0.45099762 -0.2733673 0.13736282 0.0028788617
0.015635978 -0.08452838 -0.09054009 -0.16493589 -0.009605241 0.49543214 -0.022765711 -0.06360012
-0.08513667 0.51363283 -0.23643197 0.12935996 0.42960602 -0.107851185 -0.043365236 0.26751313
-0.15228792 -0.018684108 -0.08974972 -0.22462837 -0.20130065 -0.053308472 -0.13430046 0.0440753
-0.040159483 0.13207811 -0.097079545 -0.08298499 0.014910793 0.10795609 -0.097164445 0.057315417
0.3963871 0.025858812 -0.006863473 0.20135173 -0.045645416 -0.05649045 -0.046106715 0.4157279
-0.049816303 -0.17328304 -0.31753075 -0.156069 0.18077277 -0.21372466 0.38250038 -0.24415562
-0.052840617 0.43895766 -0.04477421 0.51446426 -0.15715224 0.25984043 -0.19331565 -0.038717657
0.53712934 0.16087298 -0.06539567 -0.08200265 0.5182625 -0.021960063 -0.032141786 0.18635213
0.46706802 -0.0075809993 0.3453028 0.3219525 -0.18896279 -0.057005525 0.4869295 0.41761148
-0.17786388 -0.08215572 -0.20864725 0.02011409 -0.021273227 0.12761286 0.3404104 0.3806044
-0.11474706 -0.111261345 -0.21011202 -0.06940929 -0.17693469 0.0034959042 -0.13457692 -0.11635087
0.32805645 -0.068318404 -0.07526249 0.07745457 -0.030500658 -0.056128327 -0.25143844 -0.22398537
0.17195116 -0.18903716 0.13469265 -0.1379223 -0.09092112 0.02369537 -0.083981015 0.34649622
-0.0762089 -0.007796828 0.51804405 -0.04839783 0.041828662 -0.14576262 -0.073175885 0.21981512
-0.15585572 0.29857048 -0.02994078 -0.08320221 -0.07822179 -0.08317925 -0.07380364 -0.012577142
-0.24780369 -0.15167548 -0.22024283 -0.14858952 -0.2629135 -0.017366871 0.101080835 -0.08672165
