Vehicles/Mod_02_04/Mod_02_04_critic_target.pth (torch, 353434 bytes, 10 tensors)

weight f4 [200, 15]
-0.40364987 -0.6548185 -0.5437533 0.65697265 0.39732835 0.080615975 -0.5707829 -0.02963882
-0.21141976 -0.09503623 -0.3723475 0.35677984 0.5228165 -0.18352662 -0.8007966 -0.33405954
-0.432291 -0.14810473 -0.5087517 -0.96510476 -0.8011965 -1.1792178 -1.163204 -1.9964191
-2.7414732 0.0030067507 -0.16604258 0.28280422 0.16872922 0.36647913 0.02727976 -0.24730907
0.053352535 0.19964251 -0.35964274 -0.11857961 -0.24013563 0.2886715 0.36458012 -0.8554037
0.4068776 0.24204153 0.0047386065 -0.19580968 0.430304 -0.32414478 0.21725014 -0.19698282
-0.09571103 -0.26818326 0.0083084935 0.11812197 0.17392156 -0.32555157 -0.33380336 -0.04189411
0.13508545 -0.2352587 -0.50921965 -1.0355886 -0.0005075813 -0.14982273 0.5793842 -0.656443
0.3435467 -0.2695368 -0.31247061 -0.118898295 0.34933162 0.28245753 0.10601869 -0.61779785
-0.63593185 -0.6296738 -0.61752737 -0.10316739 0.19708715 -0.13809821 -0.39639652 0.062678784
0.39507475 0.22859971 0.25907207 -0.350071 0.3154536 -0.24864976 -0.5215711 0.1550633
-0.27695462 -0.048660785 -0.07279339 -0.15487207 0.35791376 -0.2614737 -0.039809033 -0.08012658
0.30069026 -0.032663837 -0.70747346 -0.065982826 0.4782491 -0.013078739 -0.3320908 0.03476136
-0.9447871 -0.05730301 0.112995274 0.08890258 0.14942531 -0.21678302 -0.26477593 0.4651466
-0.5880211 0.08857841 -0.08106944 0.16703045 -0.07549324 -0.012150017 0.14804773 1.0862147
-0.3494637 -0.60281634 -0.088888355 0.43374896 0.17349938 0.33072555 -0.16336927 0.2692382
0.39448988 -0.050789148 -0.2256275 -0.11347626 -0.23862533 -0.15129244 0.61051327 -0.4521078
0.077480495 0.30774736 0.29422596 -0.04881666 -0.0969612 0.1747284 0.07169758 -0.52701896
0.5903252 -0.0014328411 -0.07600101 0.3177955 -0.13018425 -0.43430617 -0.19534358 0.56510735
-0.94334596 0.24790864 0.09509623 0.37873727 -0.38452908 -0.4224356 -0.18038398 0.29534563
-0.058266267 0.43121257 0.3668024 -0.12115767 -0.19652817 -0.35495365 0.007087055 0.07200253
-0.28186667 0.20594005 -0.43855813 0.09093389 0.17602538 0.24530248 -0.3611739 -0.24266824
0.50298923 0.008967534 0.040210836 -0.07859255 -0.28785938 -0.8782601 -1.1964593 0.9174889
-0.35571182 -0.40902144 0.18839 -0.08780403 -0.11815125 -0.0862135 -0.014583448 0.13612351
0.042201262 0.10600183 0.2594707 0.07900976 0.0498232 -0.09558434 -0.17324853 -0.29639333
-0.3236744 0.1325981 -0.053558923 0.16997918 -0.3852878 -0.027884757 -0.12667938 -0.29490322
-0.05465714 -0.38965082 0.32889512 0.46314287 0.54345053 -0.18142645 0.16125566 -0.20689562
0.15110338 0.13849106 -0.29399967 0.15772751 0.02125588 0.081445925 -0.23288827 -0.1988716
-0.43172133 -0.5582576 -0.59037924 0.57782286 -0.08772799 0.23151319 0.06051597 -0.46439537
0.35279974 -0.07596636 -0.15298328 -0.37123346 0.25459817 -0.5318551 0.034475908 0.1401628
0.5373618 -0.15710917 -0.3208654 0.29366678 -0.5572846 -0.004453765 0.16620764 0.15173258
-0.6646599 0.40595126 0.327636 -0.2674511 0.434995 -0.12561247 -0.13493665 0.06422034
00000000: 32ab cebe 2fa2 27bf 6b33 0bbf 5c2f 283f
00000010: 9f6e cb3e fd19 a53d d41e 12bf 1ccd f2bc
00000020: 6c7e 58be 5ba2 c2bd 55a4 bebe d9ab b63e
00000030: 4dd7 053f 67ee 3bbe 0201 4dbf da09 abbe
00000040: 3f55 ddbe c4a8 17be 8d3d 02bf 1b11 77bf
00000050: 371b 4dbf 9cf0 96bf dee3 94bf a98a ffbf
00000060: 4c74 2fc0 e80c 453b 1107 2abe b7cb 903e
00000070: 5ac7 2c3e 27a3 bb3e ce79 df3c 973e 7dbe
00000080: 3088 5a3d 166f 4c3e 1823 b8be ded9 f2bd
00000090: 1de6 75be c0cc 933e 3faa ba3e bdfb 5abf
000000a0: 4352 d03e bcd9 773e 5046 9b3b 5582 48be
000000b0: ce50 dc3e 4ef6 a5be d276 5e3e ddb5 49be
000000c0: 2504 c4bd 514f 89be 5920 083c eee9 f13d
000000d0: 7e18 323e b2ae a6be 46e8 aabe 2999 2bbd
000000e0: d753 0a3e a8e7 70be 385c 02bf 2b8e 84bf
000000f0: 340f 05ba 216b 19be 8652 143f a60c 28bf
00000100: 5ae5 af3e ba00 8abe 26fc 9fbe f380 f3bd
00000110: 98db b23e 469e 903e 5420 d93d 0028 1ebf
00000120: 6ecc 22bf 4d32 21bf 4616 1ebf 6d49 d3bd
00000130: 37d1 493e 9e69 0dbe 7cf4 cabe bc5d 803d
00000140: 3d47 ca3e 0b16 6a3e 18a5 843e 823c b3be
00000150: 2283 a13e 0b9e 7ebe af85 05bf eac8 1e3e
00000160: ffcc 8dbe 8850 47bd b314 95bd c996 1ebe
00000170: 7940 b73e e1df 85be cc0e 23bd 6819 a4bd
00000180: 13f4 993e 84ca 05bd fb1c 35bf 0122 87bd
00000190: 11dd f43e 3548 56bc ce07 aabe ee61 0e3d
000001a0: 91dd 71bf 90b6 6abd 116a e73d 8e12 b63d
000001b0: f302 193e 5efc 5dbe b690 87be b227 ee3e
000001c0: 8d88 16bf 9968 b53d bc07 a6bd 080a 2b3e
000001d0: 339c 9abd dd10 47bc d399 173e 1509 8b3f
000001e0: e8ec b2be 2c52 1abf 190b b6bd 5814 de3e
000001f0: d2a9 313e dc54 a93e 464a 27be 97d9 893e
00000200: 94fa c93e 4808 50bd e50a 67be 3e66 e8bd
00000210: 335a 74be 68ec 1abe 994a 1c3f ac7a e7be
00000220: 18ae 9e3d 1091 9d3e c9a4 963e faf3 47bd
00000230: 9893 c6bd 00ec 323e 2ed6 923d b7ea 06bf
00000240: 8d1f 173f 2bce bbba 6ba6 9bbd 17b6 a23e
00000250: 054f 05be 615d debe 2608 48be e0aa 103f
00000260: 1f7f 71bf c3db 7d3e d0c1 c23d dae9 c13e
00000270: ffe0 c4be 7b49 d8be 94b6 38be 8b37 973e
00000280: 9ca8 6ebd e5c7 dc3e 86cd bb3e 8321 f8bd
00000290: ae3e 49be 7cbc b5be 873a e83b 1076 933d
000002a0: d450 90be f3e1 523e b18a e0be 8c3b ba3d
000002b0: ff3f 343e 9330 7b3e c9eb b8be 067e 78be
000002c0: e7c3 003f 90ec 123c 1eb4 243d 21f5 a0bd
000002d0: 4e62 93be a7d5 60bf 9425 99bf 8de0 6a3f
000002e0: dc1f b6be 426b d1be 4fe9 403e 99d2 b3bd
000002f0: 48f9 f1bd b490 b0bd 6aef 6ebc f663 0b3e
00000300: 3bdb 2c3d 7d17 d93d 58d9 843e decf a13d
00000310: 6913 4c3d b9c1 c3bd 1068 31be dec0 97be
00000320: a7b8 a5be ccc7 073e 9a60 5bbd 060f 2e3e
00000330: 7144 c5be 936e e4bc 3db8 01be 8efd 96be
00000340: 2ae0 5fbd 5080 c7be f164 a83e 1021 ed3e
00000350: 931f 0b3f dbc7 39be 3420 253e 72dc 53be
00000360: d8ba 1a3e 9ad0 0d3e 2087 96be 5283 213e
00000370: d020 ae3c 1fcd a63d 437a 6ebe ffa4 4bbe
00000380: 940a ddbe f8e9 0ebf 1823 17bf 33ec 133f
00000390: bbaa b3bd cb11 6d3e 98df 773d 3bc5 edbe
000003a0: 2ba2 b43e 4094 9bbd a6a7 1cbe 5012 bebe
000003b0: b15a 823e a827 08bf 9c36 0d3d d686 0f3e
000003c0: 8b90 093f 3ae1 20be 7848 a4be 7e5b 963e
000003d0: 34aa 0ebf e4f0 91bb 5632 2a3e c95f 1b3e
000003e0: 2727 2abf d8d8 cf3e e8bf a73e 5aef 88be
000003f0: aab7 de3e 8ea0 00be d52c 0abe f485 833d

bias f4 [200]
-0.12969291 -0.0726887 0.073800065 0.10686961 -0.06054085 -0.028825918 0.07477141 -0.32568792
-0.25594684 -0.08730317 -0.04000867 -0.0599557 0.23252596 -0.2024429 -0.4534148 0.08125259
-0.085575 -0.1663612 -0.17122802 0.110679686 -0.36080715 -0.22557303 0.20847012 0.045318756
-0.11140607 -0.15499708 -0.30952078 -0.16288663 0.13970831 0.04807858 -0.22113466 -0.23946339
-0.14213018 0.42669263 -0.086404815 0.23710778 -0.32026526 -0.21719983 -0.041762587 0.098095894
0.19802953 -0.062414326 0.06487236 0.041023396 -0.0803827 0.14748694 -0.35154453 -0.26982364
0.17474897 -0.39239153 0.077007264 0.10790039 -0.2925246 -0.24540521 0.40502393 0.12539458
-0.23539603 -0.49516794 -0.073741965 0.052322514 -0.028137194 0.063585944 -0.26541364 -0.13437857
-0.045002054 -0.06258532 -0.035885863 0.13225023 -0.2703478 0.14522706 -0.24295712 -0.3950908
-0.28823695 -0.009669496 -0.27323747 -0.32937506 0.038514074 -0.44311577 -0.107358895 -0.41429862
-0.0654738 -0.3227313 0.09003189 -0.24710172 -0.06320132 -0.14126685 -0.25442034 -0.18546233
-0.21391237 -0.1578586 0.253924 -0.13638234 0.07262776 0.16608438 0.18885176 0.4009592
0.117373034 -0.10416617 -0.11273768 0.2991359 -0.18022823 -0.10658066 -0.028162718 -0.053261057
0.18226922 -0.20805244 0.16252357 -0.09938785 -0.44223857 -0.3115166 0.061062124 -0.06048843
-0.3089851 -0.090907216 -0.19844939 -0.28801396 0.087002255 -0.07221083 0.09646074 0.050749198
-0.060185146 -0.19890873 -0.24676125 0.024636025 0.009707573 -0.26603392 -0.26122153 0.1816152
-0.1827147 -0.31607565 -0.04298044 -0.19603346 -0.15035675 0.19715743 0.03480555 -0.2730739
-0.05281155 -0.20024131 0.06410653 -0.021295993 -0.083408445 0.12225123 -0.18857916 -0.2541075
-0.08991205 -0.14484169 0.011107994 0.32982826 0.01968068 -0.039629135 0.032630336 -0.29588133
-0.0895539 -0.233112 -0.2029791 0.09923274 0.26510918 0.013598117 -0.048784334 0.014828011
0.024442315 0.041016027 -0.30336073 0.26794317 0.012020759 0.15560792 0.0016766734 -0.24405463
-0.16099189 -0.051615287 -0.103738084 -0.24287634 -0.28941494 0.13489053 -0.12208625 -0.050482605
0.11205148 0.19245921 0.35411343 -0.24723817 -0.25409785 -0.24589442 -0.087576665 0.18821453
0.08212978 -0.19072165 0.30118984 0.04866116 0.30064204 -0.1577066 -0.15532534 -0.26923403
0.07238641 0.024446206 0.00977438 0.3364178 -0.30563295 -0.3076765 -0.3598334 -0.08192045
00000000: 38ce 04be d0dd 94bd 7d24 973d 74de da3d
00000010: aff9 77bd 5524 ecbc c121 993d 91c0 a6be
00000020: 770b 83be 01cc b2bd 22e0 23bd 1c94 75bd
00000030: 491b 6e3e 314d 4fbe fc25 e8be c267 a63d
00000040: f241 afbd 975a 2abe 6656 2fbe 08ac e23d
00000050: b7bb b8be 9efc 66be 3179 553e 29a0 393d
00000060: de28 e4bd 8eb7 1ebe 8279 9ebe c1cb 26be
00000070: b20f 0f3e 0cee 443d 2071 62be e435 75be
00000080: 938a 11be 7577 da3e 02f5 b0bd 62cc 723e
00000090: cff9 a3be a269 5ebe 3f0f 2bbd 80e6 c83d
000000a0: 41c8 4a3e 2aa6 7fbd cddb 843d 2608 283d
000000b0: af9f a4bd d106 173e a5fd b3be 5326 8abe
000000c0: 65f1 323e 8be7 c8be fcb5 9d3d e1fa dc3d
000000d0: c9c5 95be 814b 7bbe 4c5f cf3e 7067 003e
000000e0: a80b 71be a786 fdbe 0706 97bd 2250 563d
000000f0: f97f e6bc 5939 823d 4ce4 87be 899a 09be
00000100: 1354 38bd bb2c 80bd 0efd 12bd 9b6c 073e
00000110: 076b 8abe 67b6 143e c0c9 78be 5749 cabe
00000120: cb93 93be ce6c 1ebc c8e5 8bbe d9a3 a8be
00000130: efc0 1d3d 12e0 e2be fbde dbbd f31e d4be
00000140: 2117 86bd 093d a5be a462 b83d 3c08 7dbe
00000150: b26f 81bd 42a8 10be 6243 82be d6e9 3dbe
00000160: d80b 5bbe afa5 21be 5402 823e d0a7 0bbe
00000170: ddbd 943d 0612 2a3e 5b62 413e 864a cd3e
00000180: 4661 f03d 1355 d5bd 03e3 e6bd 5728 993e
00000190: c08d 38be f646 dabd 80b5 e6bc 4428 5abd
000001a0: c8a4 3a3e b30b 55be 946c 263e db8b cbbd
000001b0: 186d e2be 1b7f 9fbe 471c 7a3d b7c2 77bd
000001c0: 4c33 9ebe 902d babd 5136 4bbe 9176 93be
000001d0: 3d2e b23d 46e3 93bd 358d c53d 64de 4f3d
000001e0: b384 76bd bbae 4bbe fbae 7cbe 7dd1 c93c
000001f0: 830c 1f3c 9935 88be d4be 85be 56f9 393e
00000200: 9019 3bbe abd4 a1be 420c 30bd ffbc 48be
00000210: 1ff7 19be a3e3 493e 4490 0e3d 58d0 8bbe
00000220: ed50 58bd 0f0c 4dbe 494a 833d ef74 aebc
00000230: 0cd2 aabd da5e fa3d e51a 41be 611a 82be
00000240: cf23 b8bd 6151 14be 4efe 353c 40df a83e
00000250: 6139 a13c 2952 22bd 63a7 053d c27d 97be
00000260: 0968 b7bd eab4 6ebe c1d9 4fbe 893a cb3d
00000270: 64bc 873e a3ca 5e3c 15d2 47bd 30f1 723c
00000280: 403b c83c 6c00 283d 1952 9bbe d92f 893e
00000290: b8f2 443c af57 1f3e d3c3 db3a 75e9 79be
000002a0: 0fdb 24be 8d6a 53bd a274 d4bd 93b4 78be
000002b0: 322e 94be be20 0a3e 5b08 fabd d9c6 4ebd
000002c0: 3f7b e53d 0714 453e 5b4e b53e 012c 7dbe
000002d0: 1d19 82be bfcb 7bbe 655b b3bd 4fbb 403e
000002e0: a833 a83d 894c 43be 8e35 9a3e ed50 473d
000002f0: c1ed 993e d77d 21be 9b0d 1fbe 0bd9 89be
00000300: 533f 943d 6943 c83c b924 203c f43e ac3e
00000310: ec7b 9cbe c687 9dbe 153c b8be e9c5 a7bd

weight f4 [200, 200]
0.17713727 -0.022911644 0.26101843 0.005863752 -0.29540476 -0.4922863 -0.35465562 0.3906094
0.25737536 -0.76289487 -0.012582121 0.061423663 0.06368669 -0.04973595 0.1971208 -0.11719231
0.004686613 0.039555266 -0.10615225 0.41025984 -0.33888784 0.33681214 -1.0129352 0.008605277
-0.21979162 0.117625974 -0.019937215 0.12656589 -0.43775672 0.11690318 -0.11172854 0.044474553
-0.45608994 0.4750808 0.32158166 -0.10820501 -0.25416064 -0.35089353 -0.8841644 0.14278834
-0.23534526 -0.37510473 -0.6673046 -0.41947958 0.05489003 -0.2511266 0.15397659 0.87334245
-0.9908581 -0.13960573 -0.37251207 -0.3344807 0.28902638 0.04115346 -0.31524163 -0.3689243
0.33595705 0.29772294 0.029232053 -1.2598927 -0.044539176 -0.2529021 -0.12943311 0.040718224
-0.016682798 -0.065316394 0.5572139 -0.030656489 -0.07629934 -0.7102914 0.0441393 0.11989591
0.18665797 0.048138864 0.12388583 -0.44251677 0.0443666 -1.2476919 -0.5627221 -0.051887248
0.24910504 -0.62137675 -0.25167727 -0.047896 -0.094048545 -0.6991307 -0.052422184 -1.9056276
-1.4937396 0.013149295 -0.4763807 0.5526205 0.26265067 0.6522665 -0.20288523 -1.2173865
0.3001609 -0.038060553 -0.06507357 0.25140852 -0.012054269 0.14477673 -0.4528183 -0.00061254436
-0.5839302 -0.5741672 -0.16570306 -0.075646825 -0.008063337 0.20209238 -0.9510965 -0.05332696
0.105338566 0.07614465 -0.0695636 0.11640321 -0.3147286 0.30314222 -0.4753896 -0.17890164
0.23855214 -1.7808063 0.24729884 -0.28968439 -0.31734324 0.719353 0.01201642 -1.0188438
0.21112734 -0.8967016 -0.011801184 0.3457702 -0.31601554 0.102086194 -1.1323345 -0.17896725
-0.4077665 -0.03451263 0.1593328 -0.6481722 -0.020689156 -0.20169954 -0.9579854 -0.5754433
0.06604385 -0.00015284374 -1.4616598 -0.30280304 -0.31096932 0.35641444 -0.3657231 -0.19578779
0.7000727 0.17888306 -0.69873893 -0.38467932 -0.3926132 -0.39393046 -0.29864636 0.21649335
1.7127272 0.08757786 0.119685195 -0.6824923 0.54771155 0.041230433 -0.23597842 -0.034551516
0.09535233 0.14366373 0.44087118 -0.050357305 0.2705408 0.21987857 -0.091480106 -0.4095047
0.1829205 0.61806387 -1.2584544 -0.025975151 -0.064684264 0.05007796 0.4189863 0.7446639
-0.121308856 -0.024387846 0.14190069 -0.32875913 -0.6327315 -0.0359252 0.030690575 -0.23652034
-0.08275808 -0.08852083 0.42921644 -0.35950875 -0.24881347 0.010338605 0.2588118 -0.14437114
-0.09880597 -0.01309195 0.034809515 0.06795576 0.06550482 0.0023119408 -0.044519126 -0.04598316
0.021295454 -0.02736806 -0.024345728 0.00713268 0.08343094 0.07020167 -0.08421623 0.009629418
0.014534513 -0.025324391 0.10200824 0.027491365 -0.058703557 -0.09685392 -0.012599211 0.062139764
-0.08538001 -0.018512288 0.035782944 0.06540648 0.07921838 -0.0022679355 -0.045109212 0.017301425
0.004830914 0.02997688 -0.017764622 -0.06087391 0.0306411 -0.056634527 -0.064324655 -0.073999986
0.023466557 -0.026155848 -0.092265844 0.032405216 -0.053044833 -0.08357101 -0.043726385 0.028267343
0.031873986 0.007712336 -0.053406186 -0.012840064 -0.009427136 -0.03629591 0.01355327 -0.06682209
00000000: 7963 353e 33b1 bbbc 35a4 853e b824 c03b
00000010: 4b3f 97be f30c fcbe 6c95 b5be f5fd c73e
00000020: b4c6 833e 144d 43bf 3e25 4ebc 6197 7b3d
00000030: 2b6e 823d ecb7 4bbd 09da 493e 8602 f0bd
00000040: 2992 993b b404 223d 5a66 d9bd 940d d23e
00000050: b582 adbe a472 ac3e dca7 81bf 26fd 0c3c
00000060: 0e11 61be e3e5 f03d 5f53 a3bc 7d9a 013e
00000070: a621 e0be ef6a ef3d efd1 e4bd f32a 363d
00000080: 9f84 e9be ca3d f33e 5aa6 a43e 979a ddbd
00000090: 5821 82be 51a8 b3be 9958 62bf 1b37 123e
000000a0: 59fe 70be ba0d c0be 79d4 2abf 07c6 d6be
000000b0: 5ed4 603d aa93 80be 0aac 1d3e 5f93 5f3f
000000c0: e0a8 7dbf cef4 0ebe e7b9 bebe 0e41 abbe
000000d0: 44fb 933e 8890 283d 5a67 a1be a5e3 bcbe
000000e0: 9002 ac3e 246f 983e 0f78 ef3c 2a44 a1bf
000000f0: b66e 36bd 627c 81be 1d8a 04be 27c8 263d
00000100: 5daa 88bc 9ac4 85bd 92a5 0e3f 5123 fbbc
00000110: d442 9cbd a8d5 35bf 69cb 343d fd8b f53d
00000120: 4423 3f3e 422d 453d dbb7 fd3d 8f91 e2be
00000130: c1b9 353d 5eb4 9fbf 8e0e 10bf b987 54bd
00000140: 6415 7f3e 8c12 1fbf d8db 80be 992e 44bd
00000150: 869c c0bd 3bfa 32bf a5b8 56bd 9beb f3bf
00000160: dc32 bfbf 2470 573c 2ce8 f3be 8978 0d3f
00000170: 267a 863e f0fa 263f 25c1 4fbe 52d3 9bbf
00000180: b1ae 993e 62e5 1bbd 4b45 85bd 9eb8 803e
00000190: 457f 45bc 5a40 143e cdd7 e7be 2893 20ba
000001a0: 737c 15bf 9ffc 12bf 10ae 29be b9ec 9abd
000001b0: 161c 04bc 4ef1 4e3e 0f7b 73bf 5f6d 5abd
000001c0: bfbb d73d baf1 9b3d 5c77 8ebd ce64 ee3d
000001d0: 1b24 a1be 7535 9b3e 4466 f3be fe31 37be
000001e0: 0347 743e 76f1 e3bf e83b 7d3e 8351 94be
000001f0: d07a a2be 8527 383f 85e0 443c 7969 82bf
00000200: c431 583e 3c8e 65bf c159 41bc cb08 b13e
00000210: cacc a1be 9112 d13d 56f0 90bf 3143 37be
00000220: c5c6 d0be 1e5d 0dbd 2328 233e 9dee 25bf
00000230: 4e7c a9bc 538a 4ebe 883e 75bf 4150 13bf
00000240: ff41 873d ae44 20b9 ab17 bbbf 0009 9bbe
00000250: 5f37 9fbe f47b b63e 0f40 bbbe 987c 48be
00000260: f737 333f 1f2d 373e 8ee0 32bf b0f4 c4be
00000270: 9904 c9be 41b1 c9be 2de8 98be 6fb0 5d3e
00000280: a53a db3f 055c b33d 831d f53d d1b7 2ebf
00000290: d336 0c3f 3ee1 283d 54a4 71be e485 0dbd
000002a0: 1548 c33d 961c 133e deb9 e13e 7643 4ebd
000002b0: 5384 8a3e d927 613e ec59 bbbd 9aaa d1be
000002c0: 834f 3b3e 6f39 1e3f 0915 a1bf d7c9 d4bc
000002d0: 2f79 84bd 8c1e 4d3d 5f85 d63e 4ba2 3e3f
000002e0: c770 f8bd 05c9 c7bc 6a4e 113e 1e53 a8be
000002f0: b1fa 21bf 4d26 13bd cd6a fb3c 6332 72be
00000300: 117d a9bd 694a b5bd 42c2 db3e 8811 b8be
00000310: f5c8 7ebe 4163 293c fb82 843e 07d6 13be
00000320: c95a cabd 9e7f 56bc 6c94 0e3d 642c 8b3d
00000330: 6427 863d ee83 173b b059 36bd d758 3cbd
00000340: ce73 ae3c fb32 e0bc b170 c7bc 42b9 e93b
00000350: d7dd aa3d e5c5 8f3d 8f79 acbd b5c4 1d3c
00000360: 2a22 6e3c 1975 cfbc b2e9 d03d 9235 e13c
00000370: 2473 70bd 595b c6bd ec6c 4ebc 4486 7e3d
00000380: b7db aebd 15a7 97bc 2391 123d d5f3 853d
00000390: 3f3d a23d a5a1 14bb 70c4 38bd b8bb 8d3c
000003a0: a54c 9e3b 1392 f53c 1d87 91bc ec56 79bd
000003b0: 0b03 fb3c 9bf9 67bd a5bc 83bd 4e8d 97bd
000003c0: f03c c03c ca44 d6bc e0f5 bcbd 55bb 043d
000003d0: 8a45 59bd 4727 abbd 701a 33bd ea90 e73c
000003e0: 4c8e 023d c3b7 fc3b 72c0 5abd 225f 52bc
000003f0: 4674 1abc 05ab 14bd 890e 5e3c 05da 88bd

bias f4 [200]
-0.050219472 -0.043626547 0.27821073 -0.094813 0.022112636 0.14852047 0.19102773 -0.07929297
-0.012609194 0.18532383 0.029395299 -0.12611313 -0.2288217 -0.09742315 -0.10521861 -0.12855828
0.17563903 0.10301321 -0.19653198 -0.14554524 -0.07640056 -0.08371257 -0.01157216 -0.08345031
0.06268657 -0.048231356 -0.35891 -0.027990555 -0.07869833 -0.09294385 -0.022423849 -0.03689196
-0.0057266615 -0.108007446 -0.0806325 0.39249885 -0.11728423 -0.04749107 -0.15375115 -0.052087434
-0.045442253 -0.13046885 -0.06731083 -0.06821237 -0.073231086 -0.08123898 -0.14585456 -0.06475232
0.32772368 -0.10458614 -0.2448973 -0.015000797 -0.24127156 0.03225351 -0.08632475 0.088408925
-0.03881868 -0.045120798 0.38777086 0.0748677 -0.09016478 -0.09648735 -0.223445 0.21771139
0.405065 0.009664257 -0.24965157 -0.04681316 -0.56612074 0.2544279 -0.033262823 0.17422035
-0.08432203 -0.114540204 -0.20071408 -0.08328491 -0.103507295 -0.09533996 0.20924243 0.00030825392
-0.015776435 0.00908078 0.2412856 0.43815663 -0.19446975 -0.058499407 -0.1182386 0.00083888375
-0.037594434 0.2803908 -0.09017372 -0.09767199 -0.058440547 -0.040611535 0.18995366 0.009824953
-0.08496725 -0.039789427 0.07977844 0.09681412 0.018855514 -0.23217623 0.0018024897 0.3388463
-0.20258382 -0.23276436 -0.08503877 0.10856435 -0.039048523 -0.075126514 -0.057860147 0.152016
0.22834593 -0.07792025 0.20052148 -0.007418681 -0.20639026 0.19432849 -0.13038976 0.12386041
-0.098712094 0.0061739758 -0.19858874 -0.10300811 0.31657258 -0.092538536 0.18047936 0.21711048
-0.10328676 -0.025580334 -0.05768953 -0.13121231 0.07000745 -0.026359782 -0.15025315 0.22506142
0.29074556 0.2324524 -0.09120264 -0.07588349 -0.035378747 -0.04276153 -0.09344602 -0.24616107
-0.1874965 0.045470923 0.23651485 -0.08379304 -0.14523497 -0.13143319 -0.037683956 -0.13137804
-0.10193522 -0.08664811 0.24629827 -0.029338095 -0.11271474 -0.027159069 -0.10020519 0.22125864
-0.12185048 0.18600796 0.091082476 0.27535164 -0.3000537 -0.12971461 0.18198857 -0.040200766
0.13417345 -0.094861634 -0.06346486 -0.086740494 0.08317147 0.023975804 -0.47959575 -0.010403349
-0.11128124 0.09122104 -0.07606529 -0.10167439 -0.102476135 -0.13231938 -0.16459832 -0.25609758
-0.11308462 0.0009987862 -0.14240447 -0.09995187 -0.15816745 -0.0532858 0.045630064 0.11426684
-0.0048161997 -0.08249289 -0.10160591 -0.1283036 -0.09026695 -0.025001379 0.061287884 -0.1339107
00000000: efb2 4dbd c0b1 32bd a371 8e3e 512d c2bd
00000010: 8f25 b53c c015 183e c69c 433e 5a64 a2bd
00000020: cb96 4ebc 88c5 3d3e 69ce f03c cd23 01be
00000030: 3c50 6abe ca85 c7bd db7c d7bd c8a4 03be
00000040: b8da 333e 97f8 d23d ae3f 49be d009 15be
00000050: e677 9cbd 7f71 abbd 2899 3dbc ffe7 aabd
00000060: d161 803d 3e8e 45bd 0dc3 b7be 734c e5bc
00000070: 972c a1bd 5859 bebd 38b2 b7bc 061c 17bd
00000080: b8a6 bbbb 0233 ddbd a722 a5bd 9cf5 c83e
00000090: b732 f0bd ff85 42bd f170 1dbe a259 55bd
000000a0: a821 3abd a099 05be 43da 89bd edb2 8bbd
000000b0: 2efa 95bd 9f60 a6bd e65a 15be dd9c 84bd
000000c0: 66cb a73e 4231 d6bd 5cc6 7abe e7c5 75bc
000000d0: e40f 77be 421c 043d 08cb b0bd bd0f b53d
000000e0: 5600 1fbd 96d0 38bd e789 c63e 3d54 993d
000000f0: 50a8 b8bd 299b c5bd c4ce 64be bcef 5e3e
00000100: ae64 cf3e d556 1e3c a9a4 7fbe 28bf 3fbd
00000110: 4aed 10bf 6044 823e 993e 08bd d266 323e
00000120: 07b1 acbd 0e94 eabd fe87 4dbe 4791 aabd
00000130: a2fb d3bd 9941 c3bd a643 563e 249d a139
00000140: 953d 81bc 8dc7 143c 9313 773e 1156 e03e
00000150: 1423 47be 139d 6fbd 1427 f2bd 89e8 5b3a
00000160: 9ffc 19bd 628f 8f3e 00ad b8bd 4108 c8bd
00000170: 5b5f 6fbd 4858 26bd 3683 423e d7f8 203c
00000180: 4f03 aebd 3dfa 22bd e162 a33d 7b46 c63d
00000190: e176 9a3c 9bbf 6dbe 8541 ec3a 437d ad3e
000001a0: 2272 4fbe c859 6ebe cf28 aebd fc56 de3d
000001b0: 58f1 1fbd eedb 99bd c3fe 6cbd 15aa 1b3e
000001c0: 84d3 693e a794 9fbd 8155 4d3e 6818 f3bb
000001d0: f857 53be 0cfe 463e e584 05be 87aa fd3d
000001e0: 9129 cabd 104f ca3b d95a 4bbe eaf5 d2bd
000001f0: cd15 a23e d884 bdbd 95cf 383e 3652 5e3e
00000200: 0288 d3bd d98d d1bc db4b 6cbd 855c 06be
00000210: 1160 8f3d 78f0 d7bc f6db 19be 8076 663e
00000220: 9adc 943e 0008 6e3e 73c8 babd ce68 9bbd
00000230: 4ee9 10bd b726 2fbd a060 bfbd a611 7cbe
00000240: 15ff 3fbe b83f 3a3d f330 723e af9b abbd
00000250: 7ab8 14be 6c96 06be 7e5a 1abd f787 06be
00000260: 6ac3 d0bd 9074 b1bd 9d35 7c3e 7256 f0bc
00000270: fcd6 e6bd b27c debc 6138 cdbd a091 623e
00000280: bf8c f9bd df78 3e3e 7389 ba3d e4fa 8c3e
00000290: a3a0 99be e8d3 04be 365b 3a3e 8fa9 24bd
000002a0: c464 093e d146 c2bd ddf9 81bd 00a5 b1bd
000002b0: ce55 aa3d e868 c43c 938d f5be cf72 2abc
000002c0: 6be7 e3bd 19d2 ba3d 1ec8 9bbd aa3a d0bd
000002d0: 02df d1bd bb7e 07be 768c 28be 391f 83be
000002e0: e998 e7bd b4e9 823a 7ad2 11be 91b3 ccbd
000002f0: a6f6 21be 3642 5abd 97e6 3a3d bc04 ea3d
00000300: 36d1 9dbb 08f2 a8bd c216 d0bd 0562 03be
00000310: e1dd b8bd b1cf ccbc 0109 7b3d e31f 09be

weight f4 [1, 200]
-0.5594658 0.037956648 0.22975473 0.0017661331 0.6942331 -0.08620136 -0.16135138 -0.34456396
-0.063363895 0.30844188 -0.41697484 -0.015906448 -0.20852683 0.015608702 -0.20091023 -0.28889328
0.07683623 0.074298136 0.4442414 -0.7091313 0.007200015 0.022660032 0.018274244 0.015186998
-0.25602087 -0.4108336 -0.7724973 0.029849103 0.014850791 -0.018106978 -0.00894769 -0.007999044
0.0145415915 0.00549113 -0.010195292 0.071614675 -0.52810496 0.28270257 -0.084422536 0.021203814
0.0112394905 -0.2122701 -0.6529159 0.011056952 0.019232387 0.019649994 -0.2727442 0.0032998421
0.07077523 -0.03506209 -0.93335426 0.39793456 -0.12687576 -0.065727495 -0.023846164 -0.16361374
0.011727133 -0.7869641 0.08009337 0.20215198 -0.0004657054 0.0025101262 -0.09043019 0.122337386
0.21341689 -0.39950004 -0.12145621 0.015162597 -0.8785601 -0.1423635 -0.065071754 0.13976504
-0.01311052 -0.6466404 -0.13262728 -0.01154217 0.010154313 -0.026142437 0.097942 -0.09911135
0.022059143 -0.25888762 0.07755036 0.20245758 -0.15202363 0.003209783 -0.33670872 -0.010691499
-0.10325467 -0.12868632 -0.031018844 0.012747304 0.02596027 -0.40395224 -0.1288662 0.2149926
-0.013654412 -0.30437136 -0.23402682 0.23082028 -0.26289222 -0.22191772 -0.41110933 0.12129663
-0.17588456 -0.9720467 0.007245091 -0.26674387 -0.14494228 -0.011336349 0.011909485 -0.08707246
-0.18291847 -0.6571363 0.12636256 -0.12683456 -0.36697093 -0.17196698 0.02452715 0.11628253
-0.0052218838 0.017305294 -0.079996094 -0.0137134595 0.11101002 -0.01749901 0.16943493 0.04345511
-0.0022823713 -0.1929933 -0.00096517126 -0.001044328 -0.47809178 -0.23175111 -0.112687215 0.08306417
0.22319578 0.08629415 -1.0251198 0.005238741 0.03098867 -0.010345235 -0.020142479 -0.49982852
0.33074263 -0.62338376 -0.09616946 -0.014423499 -0.123178326 0.47002813 0.0012721297 -0.32907507
0.009787372 0.008839284 0.13805065 -0.1297978 -0.00039754415 0.024574088 0.013498696 0.0557334
-0.23984207 0.070946984 0.22571117 0.050313998 -0.104863755 0.34932166 -0.1546938 -0.012716571
-0.1254068 0.0040678815 -0.0038494624 0.0139768375 -0.2342817 0.0057371855 -1.5468261 0.030019721
-0.021251125 -0.2639831 -0.019384006 -0.2984021 0.012990751 -0.80023146 -0.45741117 -0.24637121
0.36465165 0.02541265 -0.21636362 0.027637769 -0.20727329 0.02096134 -0.055549737 -0.13636981
-0.023335427 -0.08653741 0.005260441 0.029202392 0.36272374 0.02985767 0.112409785 -0.33671924
00000000: 2739 0fbf 6e78 1b3d d344 6b3e 987d e73a
00000010: 43b9 313f 578a b0bd 4c39 25be b06a b0be
00000020: eec4 81bd 18ec 9d3e ba7d d5be 3d4e 82bc
00000030: 0f88 55be a4bb 7f3c 69bb 4dbe d2e9 93be
00000040: 505c 9d3d 9f29 983d 9c73 e33e a189 35bf
00000050: 1aee eb3b 88a1 b93c deb3 953c e3d2 783c
00000060: 2b15 83be c858 d2be 62c2 45bf 1b86 f43c
00000070: bb50 733c 1655 94bc 5599 12bc 6c0e 03bc
00000080: db3f 6e3c f0ee b33b 270a 27bc b7aa 923d
00000090: e331 07bf 64be 903e b9e5 acbd 9fb3 ad3c
000000a0: d725 383c 555d 59be 7f25 27bf 3828 353c
000000b0: 3d8d 9d3c 06f9 a03c 21a5 8bbe 2a42 583b
000000c0: 9bf2 903d 449d 0fbd 4ef0 6ebf 14be cb3e
000000d0: b8eb 01be 239c 86bd 0859 c3bc 5c8a 27be
000000e0: 2923 403c 7b76 49bf fe07 a43d ee00 4f3e
000000f0: ec29 f4b9 ee80 243b 7733 b9bd 068c fa3d
00000100: f589 5a3e 458b ccbe 09be f8bd 8b6c 783c
00000110: 51e9 60bf bdc7 11be 5744 85bd 911e 0f3e
00000120: 82cd 56bc 3a8a 25bf 72cf 07be 5f1b 3dbc
00000130: 475e 263c aa28 d6bc d195 c83d e4fa cabd
00000140: 60b5 b43c eb8c 84be b9d2 9e3d 0a51 4f3e
00000150: 15ac 1bbe 395b 523b 1665 acbe 662b 2fbc
00000160: 2f77 d3bd 59c6 03be 3b1b febc 11da 503c
00000170: a2aa d43c d4d2 cebe 80f5 03be 0527 5c3e
00000180: c1b6 5fbc 90d6 9bbe baa4 6fbe 275c 6c3e
00000190: cf99 86be 663e 63be ec7c d2be 5e6a f83d
000001a0: 151b 34be 0dd8 78bf 3a68 ed3b a792 88be
000001b0: c06b 14be 18bc 39bc 0020 433c 0c53 b2bd
000001c0: fb4e 3bbe 163a 28bf 3065 013e ebe0 01be
000001d0: 9de3 bbbe 1d18 30be 29ed c83c 8925 ee3d
000001e0: 561c abbb d5c3 8d3c fed4 a3bd 6bae 60bc
000001f0: 3959 e33d 155a 8fbc 5a80 2d3e fcfd 313d
00000200: d693 15bb 09a0 45be 8c03 7dba d5e1 88ba
00000210: 72c8 f4be 2a50 6dbe 8ec8 e6bd 8c1d aa3d
00000220: 6f8d 643e fdba b03d 2037 83bf bfa9 ab3b
00000230: f4db fd3c 0f7f 29bc d701 a5bc 86e9 ffbe
00000240: 1957 a93e 1496 1fbf 7ef4 c4bd 8a50 6cbc
00000250: eb44 fcbd 87a7 f03e 97bd a63a 877c a8be
00000260: 375b 203c a5d2 103c 265d 0d3e b7e9 04be
00000270: 796d d0b9 994f c93c a229 5d3c b548 643d
00000280: 2999 75be a74c 913d d420 673e 0d16 4e3d
00000290: cfc2 d6bd 4ada b23e 0d68 1ebe 2a59 50bc
000002a0: a46a 00be dd4b 853b 4347 7cbb 1bff 643c
000002b0: 8be7 6fbe 00ff bb3b 66fe c5bf ebeb f53c
000002c0: d716 aebc cb28 87be 35cb 9ebc 29c8 98be
000002d0: 29d7 543c f8db 4cbf cc31 eabe bc48 7cbe
000002e0: 9fb3 ba3e 312e d03c 6d8e 5dbe 9a68 e23c
000002f0: 733f 54be 1eb7 ab3c 1f88 63bd 87a4 0bbe
00000300: f029 bfbc 873a b1bd c75f ac3b db39 ef3c
00000310: edb6 b93e 1398 f43c 1a37 e63d 7766 acbe

weight f4 [200, 15]
0.7843543 1.0187759 -1.1477776 -0.14402461 0.13902295 0.17805019 0.011635256 -0.10631798
-0.15866065 0.21099691 -0.6649059 -0.21909656 -0.25248626 0.29742894 0.48739842 -0.6630305
0.92425054 0.8226225 -0.14104775 -0.15161282 0.31502548 -0.20139211 -0.62173706 0.35969862
0.120829694 0.06312888 -0.049130883 -0.2726039 -0.25334048 0.53812593 -0.43234053 0.10490376
-0.09184532 0.075469375 0.19010007 0.2801872 -0.35308546 0.16177668 0.21314283 -0.1063846
-0.6853346 0.31208637 0.4478037 -0.020676415 0.2150441 -0.43705812 -0.08223982 -0.093623586
-0.35796967 -0.29614848 0.34094355 0.17382064 0.21871655 0.4235248 0.040324584 -0.2831583
-0.38407537 0.3081122 0.07843665 -0.1666124 -0.4586171 -0.12930757 0.51269615 0.314441
-0.26709136 -0.2425873 0.053385314 0.16453248 0.22654457 -0.05013861 -0.9197364 -0.06843939
0.35190192 0.09946866 -0.52331966 0.0364119 0.16055842 0.041132007 -0.28996778 0.33782557
0.46311915 0.17847028 -1.2313602 0.21018457 -0.01938771 0.37530482 -0.19062194 -0.041218434
-0.24036105 -0.4362214 0.81724346 0.36123806 0.24797195 -0.07195792 0.12621582 -0.32061976
0.21062188 -0.17326982 -0.5081313 -0.44461155 0.1286963 0.24415247 -0.049834184 -0.18954375
-0.76572376 1.0132055 0.14861551 -0.8428281 -0.34044364 -0.11738236 -0.17414176 -0.00053955225
-0.3416334 -0.1570202 -0.2256993 -0.3480821 -0.20792916 0.2182804 0.38251343 0.031044865
1.076017 0.00690048 -0.7667928 -0.042238556 0.3562365 -1.5538228 -1.5393832 -2.4987354
-1.1124936 -0.14190836 0.31062636 -0.010325671 -0.031702317 -0.1874411 0.142577 0.067146584
0.17111611 -0.47931588 0.20369229 0.0049926373 -0.3127189 -0.3159548 0.12280328 0.19736268
0.3983268 -0.28307337 0.25050977 0.4166915 0.05315039 -0.2571085 0.3530197 -0.3755564
-0.56977725 -0.6465364 0.06736202 0.39222324 -0.15376695 -0.12243002 0.20459378 -0.51611906
0.10699069 0.15498035 0.18000042 -0.28218904 -0.6406461 -0.33098015 0.22856985 0.42599455
-0.39247096 -0.3071457 0.29636294 0.18990569 -0.29308552 0.24976674 -0.37096706 -0.28035226
0.53276527 -0.44695652 0.15088496 0.14049704 0.12360587 -0.76090187 0.08486756 0.6613005
-0.5432344 -0.48388922 0.09893562 0.15378782 0.18944773 -0.15244646 -0.9575911 0.40729532
0.3945594 0.14764059 -0.24065433 0.21274115 -0.35167557 0.19110838 0.62543446 0.11096015
-0.05424162 -0.15870671 0.11402225 0.12054023 0.22512372 -0.23327269 -1.3598424 -1.2499089
0.18121053 -0.26807725 -0.47543478 -0.09830573 -0.111425735 0.0644645 -0.48028016 0.34323043
0.20269492 0.5052206 -0.42778417 0.37542078 -0.122299835 0.24755816 0.35626218 -0.5791408
0.21444143 0.6013257 -0.08823233 0.1511475 0.22812143 0.023483297 0.024020018 0.4970437
-0.2086779 -0.27766943 -0.35649014 -0.15990911 -0.045484513 0.044389587 0.00354898 0.72988105
-0.23401502 -0.5057894 0.48325968 -0.054070413 -0.072060876 0.29424515 0.046644114 -0.638465
-0.16803731 -0.41147017 0.21763168 -0.22840399 -0.17464569 0.39376652 -0.069598556 -0.057614267
00000000: 72cb 483f 4067 823f 60ea 92bf 307b 13be
00000010: 085c 0e3e ca52 363e cda1 3e3c 3ebd d9bd
00000020: f077 22be 930f 583e 4637 2abf d95a 60be
00000030: e145 81be 9b48 983e 498c f93e 5ebc 29bf
00000040: af9b 6c3f 6397 523f d26e 10be 6440 1bbe
00000050: 054b a13e bc39 4ebe 292a 1fbf 6b2a b83e
00000060: 8f75 f73d b749 813d 773d 49bd bd92 8bbe
00000070: d8b5 81be 9fc2 093f bd5b ddbe c8d7 d63d
00000080: 6619 bcbd b08f 9a3d 98a9 423e b274 8f3e
00000090: 9ec7 b4be c9a8 253e 1d42 5a3e 2be0 d9bd
000000a0: 1772 2fbf c9c9 9f3e 8746 e53e 9661 a9bc
000000b0: 8534 5c3e 15c6 dfbe 5a6d a8bd b9bd bfbd
000000c0: cd47 b7be c6a0 97be 2790 ae3e 0afe 313e
000000d0: 3bf7 5f3e 3ed8 d83e 642b 253d 20fa 90be
000000e0: 87a5 c4be e2c0 9d3e 65a3 a03d 719c 2abe
000000f0: dccf eabe 3469 04be 0e40 033f 69fe a03e
00000100: 33c0 88be ce68 78be 8faa 5a3d 347b 283e
00000110: 4dfb 673e 255e 4dbd d873 6bbf f329 8cbd
00000120: 7d2c b43e 3ab6 cb3d 47f8 05bf a524 153d
00000130: 6d69 243e 097a 283d a876 94be 79f7 ac3e
00000140: f41d ed3e eac0 363e 369d 9dbf a03a 573e
00000150: fad2 9ebc f427 c03e 6632 43be a9d4 28bd
00000160: 3521 76be 6958 dfbe de36 513f 32f4 b83e
00000170: 5cec 7d3e ad5e 93bd b83e 013e 4628 a4be
00000180: 43ad 573e a56d 31be e514 02bf 20a4 e3be
00000190: f6c8 033e 1b03 7a3e ee1e 4cbd c217 42be
000001a0: 7906 44bf b8b0 813f aa2e 183e 95c3 57bf
000001b0: a14e aebe 2a66 f0bd 3852 32be bd70 0dba
000001c0: 93ea aebe e7c9 20be b81d 67be d137 b2be
000001d0: 62eb 54be e684 5f3e cdd8 c33e cd51 fe3c
000001e0: edba 893f 6c1d e23b 884c 44bf 5602 2dbd
000001f0: a164 b63e aae3 c6bf 820a c5bf 48eb 1fc0
00000200: 3166 8ebf 6d50 11be 6b0a 9f3e 012d 29bc
00000210: 4ada 01bd 8ff0 3fbe b5ff 113e 2684 893d
00000220: 1039 2f3e e468 f5be b694 503e 4799 a33b
00000230: b11c a0be d4c4 a1be 4980 fb3d 7119 4a3e
00000240: 7ef1 cb3e feee 90be d142 803e 9758 d53e
00000250: 39b4 593d baa3 83be 00bf b43e ee48 c0be
00000260: ecdc 11bf 6983 25bf 19f5 893d 7cd1 c83e
00000270: 1575 1dbe 97bc fabd 0881 513e 6120 04bf
00000280: ef1d db3d 2bb3 1e3e 0852 383e 157b 90be
00000290: 6201 24bf 3b76 a9be 370e 6a3e f51b da3e
000002a0: f4f1 c8be 3442 9dbe e2bc 973e a376 423e
000002b0: 4e0f 96be dac2 7f3e 65ef bdbe 558a 8fbe
000002c0: 4e63 083f 7cd7 e4be 9681 1a3e 75de 0f3e
000002d0: 1325 fd3d 77ca 42bf 0bcf ad3d fd4a 293f
000002e0: 6911 0bbf 54c0 f7be c29e ca3d 8e7a 1d3e
000002f0: 96fe 413e ed1a 1cbe b124 75bf 0389 d03e
00000300: b103 ca3e 182f 173e 176e 76be d1d8 593e
00000310: d20e b4be eab1 433e 791c 203f 133f e33d
00000320: 762c 5ebd 0384 22be 7f84 e93d ccdd f63d
00000330: d586 663e 09df 6ebe 510f aebf 04fd 9fbf
00000340: 418f 393e 6c41 89be 306c f3be 8454 c9bd
00000350: 2d33 e4bd f705 843d 48e7 f5be e6bb af3e
00000360: 428f 4f3e 2356 013f 8706 dbbe 2737 c03e
00000370: 5678 fabd e37f 7d3e ff67 b63e 9242 14bf
00000380: 8996 5b3e 7bf0 193f 27b3 b4bd 69c6 1a3e
00000390: aa98 693e 0b60 c03c a1c5 c43c 837c fe3e
000003a0: a9af 55be b02a 8ebe e085 b6be 37bf 23be
000003b0: f84d 3abd dbd1 353d 0196 683b 7cd9 3a3f
000003c0: a2a1 6fbe 6a7b 01bf d06d f73e f078 5dbd
000003d0: a794 93bd 4da7 963e e60d 3f3d 7172 23bf
000003e0: f911 2cbe 38ac d2be d7da 5e3e bce2 69be
000003f0: 52d6 32be c49b c93e b089 8ebd f0fc 6bbd

bias f4 [200]
-0.19980375 -0.086419486 -0.14462827 -0.2190049 -0.20050977 -0.18567817 0.14167018 0.36752847
0.12956227 -0.07661904 -0.11173469 -0.16193563 -0.10403055 -0.07949765 -0.26614547 -0.17827725
0.13811389 0.006210938 -0.23843819 0.12659451 0.3434684 -0.29826495 -0.07545291 -0.060555235
0.11059406 -0.23882025 0.103220016 0.04913221 -0.2475577 -0.2287948 0.21723953 -0.18562232
0.09742377 0.043204702 -0.23339058 0.17544878 -0.22315778 0.16775998 -0.09614533 0.029510142
-0.2691584 -0.07070385 0.29760614 -0.1999326 -0.30816698 -0.27860537 -0.07826202 -0.3372432
-0.16815534 0.11353885 -0.20737818 0.14776859 -0.06203963 -0.17910469 -0.33187956 -0.30370042
0.07353071 -0.045590494 -0.37887245 0.2409663 -0.3954861 -0.25291386 -0.002680384 0.3616296
0.197372 -0.082016654 0.076197736 -0.12394863 -0.2977692 -0.3621336 -0.038426388 -0.20783424
-0.02905105 0.060560778 -0.4260253 0.107023194 -0.26974407 -0.25263917 0.19216073 0.27418274
-0.19341798 0.21311633 -0.135466 0.15371214 -0.11666142 -0.26505318 0.08707948 -0.18507095
0.08474891 0.03063656 -0.3824989 -0.049665425 -0.33977208 -0.30797303 -0.20856133 0.0244778
0.14259812 0.35361785 -0.38040885 -0.026378596 -0.3654769 0.13802044 0.2670391 -0.4765456
0.2358884 -0.2058521 0.044217482 -0.009063952 0.12535368 -0.42506835 0.25217816 -0.19506213
0.36038312 -0.441503 0.3977745 0.22826655 -0.27125207 -0.19666804 0.21033454 0.24207242
0.22163276 -0.20194758 0.022646703 -0.009809875 -0.12573914 0.21711634 0.006576419 -0.05994175
-0.0019726148 -0.20030607 0.08109175 0.23773661 0.14726815 -0.21564966 -0.22240148 0.50826764
0.018072074 -0.039910223 0.09896507 -0.15806614 0.08759382 0.035681546 -0.04966213 -0.06746273
0.039310373 0.25506645 -0.23566955 -0.24865723 -0.26794493 -0.23286009 -0.20115112 -0.25219646
-0.28978905 0.06903265 -0.26618615 -0.24144731 -0.036113374 0.07226966 0.17569932 -0.2610846
0.11237094 0.079577915 0.17911173 -0.3044308 0.26823983 -0.24987742 -0.3241793 -0.5040715
-0.1726648 0.09851744 -0.2759942 -0.08791527 0.1747686 -0.17529188 -0.53128123 0.04793016
-0.07380309 -0.1468931 -0.43309897 0.13895014 0.2571364 0.025330942 -0.24956766 -0.18213984
-0.48342735 -0.004067161 0.28261265 -0.13006814 -0.1594535 0.14640084 0.079483904 -0.34004512
0.2812794 -0.41318867 -0.050531168 -0.108957015 0.0015950829 0.25176746 0.22844413 -0.28687298
00000000: 5b99 4cbe b3fc b0bd 6f19 14be d242 60be
00000010: 6f52 4dbe 6b22 3ebe fd11 113e b12c bc3e
00000020: f9ab 043e 71ea 9cbd 28d5 e4bd 74d2 25be
00000030: f80d d5bd aacf a2bd 3844 88be 508e 36be
00000040: ba6d 0d3e 2085 cb3b 2429 74be fea1 013e
00000050: 17db af3e 2fb6 98be 0e87 9abd c408 78bd
00000060: 237f e23d 4c8d 74be 0465 d33d db3e 493d
00000070: c47f 7dbe 2f49 6abe 0a74 5e3e c713 3ebe
00000080: 1d86 c73d 6af7 303d f1fd 6ebe d8a8 333e
00000090: 7983 64be 46c9 2b3e d8e7 c4bd 41bf f13c
000000a0: 21cf 89be 2ecd 90bd d55f 983e 22bb 4cbe
000000b0: 10c8 9dbe 5da5 8ebe d747 a0bd 24ab acbe
000000c0: ea30 2cbe 0e87 e83d f25a 54be a650 173e
000000d0: 441d 7ebd 3867 37be 1eec a9be 9f7e 9bbe
000000e0: 4597 963d 19bd 3abd 92fb c1be dfbf 763e
000000f0: 277d cabe ed7d 81be 62a9 2fbb 8427 b93e
00000100: e31b 4a3e 59f8 a7bd 8f0d 9c3d c8d8 fdbd
00000110: 3475 98be 9369 b9be fd64 1dbd 80d2 54be
00000120: 78fc edbc 940e 783d fd1f dabe fa2e db3d
00000130: e51b 8abe ec59 81be c8c5 443e ae61 8c3e
00000140: 5d0f 46be 2b3b 5a3e 99b7 0abe b766 1d3e
00000150: 2fec eebd 0db5 87be ba56 b23d 3d83 3dbe
00000160: d690 ad3d 86f9 fa3c e5d6 c3be f96d 4bbd
00000170: 9bf6 adbe a4ae 9dbe 1a91 55be ab85 c83c
00000180: 3e05 123e 660d b53e f3c4 c2be ed17 d8bc
00000190: ca1f bbbe 3b55 0d3e 59b9 883e c9fd f3be
000001a0: bb8c 713e e5ca 52be 641d 353d f880 14bc
000001b0: b75c 003e 8fa2 d9be 7f1d 813e 5ebe 47be
000001c0: 2384 b83e ae0c e2be 19a9 cb3e b5be 693e
000001d0: 8de1 8abe 5963 49be f061 573e d5e1 773e
000001e0: b3f3 623e 59cb 4ebe 9485 b93c 99b9 20bc
000001f0: c3c1 00be bf53 5e3e 007f d73b 7b85 75bd
00000200: fc46 01bb 091d 4dbe 6e13 a63d 3a71 733e
00000210: 76cd 163e 44d3 5cbe 37bd 63be d41d 023f
00000220: e30b 943c e778 23bd 33ae ca3d 17dc 21be
00000230: 6464 b33d d026 123d 856a 4bbd e629 8abd
00000240: ea03 213d 1298 823e 5c53 71be 00a0 7ebe
00000250: 1430 89be e072 6ebe 8ffa 4dbe e51f 81be
00000260: 3b5f 94be fd60 8d3d 8d49 88be f73d 77be
00000270: 9eeb 13bd 1e02 943d 86ea 333e e1ac 85be
00000280: bc22 e63d bff9 a23d 1169 373e 5bde 9bbe
00000290: bb56 893e dedf 7fbe d4fa a5be d40a 01bf
000002a0: 0bcf 30be 83c3 c93d 1d4f 8dbe ec0c b4bd
000002b0: 8af6 323e b77f 33be 0c02 08bf 6a52 443d
000002c0: 1326 97bd 256b 16be 26bf ddbe f248 0e3e
000002d0: 62a7 833e d682 cf3c aa8e 7fbe de82 3abe
000002e0: ca83 f7be d245 85bb 9bb2 903e 9530 05be
000002f0: c747 23be 1aea 153e 75c8 a23d 651a aebe
00000300: db03 903e 778d d3be c5f9 4ebd db24 dfbd
00000310: 1a12 d13a aae7 803e 42ed 693e 04e1 92be

weight f4 [200, 200]
0.9054411 -0.14711161 -0.2747241 -0.40802068 -0.61798066 0.26053098 0.18330373 -0.12971266
-0.2208846 -0.2986937 -0.22782779 0.07820653 0.37234163 -0.33489332 0.10533829 -0.757855
-0.8490765 -0.233622 0.010464257 0.26486447 -0.32228827 0.055102013 1.2023948 0.14676857
-0.20723213 0.33973202 -0.011577294 -0.19351165 -0.038129497 -0.3352838 0.44849485 -0.19377908
-0.37819028 -0.48934355 0.19747695 -0.067028336 -0.53550124 0.3902376 -1.4567099 -1.0147744
0.09106978 0.032886792 -0.039402317 -0.15035734 -0.65541536 0.04090451 -0.57925856 -0.5553712
-0.2859526 -0.266952 0.03734942 -0.97921133 -0.22118732 0.034242183 -0.044246957 0.4628732
0.54470295 0.85342485 -0.21354197 -0.68722904 -0.412886 0.22255011 0.21821934 -0.60067785
0.3430301 -0.1418459 0.029594665 0.052585673 -0.21157928 -0.20384881 0.3771547 -0.07250072
-0.00063661975 0.027806107 -0.40324453 -0.34773088 0.02523175 0.15424621 0.2647166 0.045363203
-0.2212929 0.1726121 -0.32519194 -0.102388114 -0.26056135 0.12681049 -0.07557144 0.2794972
-0.12024057 0.32091537 0.053092 -0.066235505 0.78475314 0.20113495 0.013096737 0.416614
0.17976524 -0.057802033 -0.4195277 -0.36113128 -1.7243443 -0.35013947 0.29510793 -0.12136235
-0.3065917 0.023809984 -0.18827823 -0.12368349 -0.6533142 0.19212085 0.89660054 -0.57856745
0.30442265 -0.38502982 0.11023757 -0.0989982 0.14498994 -0.38669395 -0.14026457 -0.16449693
-0.82057273 -0.5886367 0.29791227 0.08201194 -0.1311657 0.17038216 0.18519609 0.08163597
0.28599757 -0.022952465 -0.9841254 -1.318304 0.16852966 -0.5214567 0.34990305 -0.11119332
-0.24007592 -0.6046698 -1.1019412 0.23911679 0.86836267 -0.11589314 -0.34803623 -0.45311022
0.23869444 -0.5153882 -0.011384777 0.49752167 0.5089408 0.27568132 -0.6490185 0.04069399
-0.02458506 -0.21251553 0.2121611 -1.0256674 0.03753047 0.059349235 0.18530847 -0.007013688
-0.0159056 -0.4191094 0.2733306 0.051621042 0.2433904 0.21870446 0.26715875 0.14886832
0.46257904 -0.47059393 -0.26696497 -0.21264759 -0.16798832 -0.7369704 0.39701757 -0.7099984
0.16599503 -0.03302634 0.08116302 -0.6352365 -0.07109277 -0.23553658 -0.65695596 0.20821786
0.1375261 -0.71143097 -0.19761881 0.2293915 -0.65056485 -0.021068333 -0.04122296 -0.5880594
0.17319062 -0.45557943 0.049518466 -0.08514113 0.37459466 0.23439069 0.010538526 0.569494
-0.46767762 -0.4115314 -0.04234054 0.2986718 0.15864715 -0.00031669493 -0.019718794 -0.5425739
-0.6572998 0.19756071 -0.06234533 0.15879898 -0.10881377 -0.31140158 0.21745995 -0.20283404
0.38964173 -0.30160898 0.035710298 0.07906672 0.07798123 0.1036388 0.06313115 -0.16637005
-0.019668592 0.13985118 -0.39797518 -0.54859376 0.0031540897 0.05961984 -1.050531 0.035858974
0.25500935 0.06749534 -0.0008075827 -0.7401203 -0.1895832 -0.79218036 -0.119277164 0.07469353
-0.15905474 -0.04211434 -0.007876112 0.3610819 0.10956218 -0.5061493 0.027769962 0.119087644
0.19336726 -0.2589526 0.11661585 -0.19928761 -0.17414214 -0.01996739 0.1868194 -0.02148412
00000000: fdca 673f 6da4 16be a3a8 8cbe 16e8 d0be
00000010: fb33 1ebf 5164 853e f9b3 3b3e 65d3 04be
00000020: 932f 62be 61ee 98be b04b 69be bf2a a03d
00000030: 90a3 be3e 2377 abbe 9abb d73d c902 42bf
00000040: 145d 59bf 9b3a 6fbe 4672 2b3c 519c 873e
00000050: f802 a5be a6b2 613d 13e8 993f 804a 163e
00000060: a934 54be 5bf1 ad3e b1ae 3dbc eb27 46be
00000070: ad2d 1cbd 51aa abbe 1ea1 e53e 066e 46be
00000080: 28a2 c1be 3d8b fabe 6637 4a3e 2746 89bd
00000090: 9c16 09bf 39cd c73e 7875 babf 21e4 81bf
000000a0: cb82 ba3d 4db4 063d 5364 21bd 46f7 19be
000000b0: 4dc9 27bf 7d8b 273d 4a4a 14bf cf2c 0ebf
000000c0: 6168 92be efad 88be b5fb 183d 98ad 7abf
000000d0: ee7e 62be 8841 0c3d 4c3c 35bd b7fd ec3e
000000e0: a771 0b3f 0d7a 5a3f bfaa 5abe 3eee 2fbf
000000f0: cb65 d3be 2de4 633e e474 5f3e 06c6 19bf
00000100: a4a1 af3e 0d40 11be 8370 f23c 1364 573d
00000110: 3da8 58be bebd 50be 6c1a c13e 427b 94bd
00000120: d4e2 26ba a2c9 e33c 1176 cebe c809 b2be
00000130: d1b2 ce3c b8f2 1d3e ef88 873e c4ce 393d
00000140: 9b9a 62be 3ac1 303e 8f7f a6be dcb0 d1bd
00000150: 4c68 85be 9cda 013e 33c5 9abd 421a 8f3e
00000160: b040 f6bd 054f a43e ff76 593d 7ba6 87bd
00000170: 95e5 483f 52f6 4d3e b293 563c 6e4e d53e
00000180: 6114 383e d3c1 6cbd 56cc d6be 33e6 b8be
00000190: 50b7 dcbf 7b45 b3be 6318 973e d38c f8bd
000001a0: 96f9 9cbe 280d c33c 02cc 40be c54d fdbd
000001b0: 993f 27bf 54bb 443e 9d87 653f ff1c 14bf
000001c0: 49dd 9b3e a122 c5be 3cc4 e13d 91bf cabd
000001d0: 3e78 143e c0fc c5be 84a1 0fbe e271 28be
000001e0: 0e11 52bf e5b0 16bf f587 983e e0f5 a73d
000001f0: 4d50 06be a978 2e3e 0ba4 3d3e c230 a73d
00000200: 466e 923e cf06 bcbc a4ef 7bbf 2fbe a8bf
00000210: 0a93 2c3e 307e 05bf 7e26 b33e 53b9 e3bd
00000220: 76d6 75be a4cb 1abf 690c 8dbf 08db 743e
00000230: 044d 5e3f 6259 edbd ce31 b2be 10fe e7be
00000240: 516c 743e 7bf0 03bf 3787 3abc 29bb fe3e
00000250: f249 023f 1a26 8d3e 1426 26bf beae 263d
00000260: 9c66 c9bc ac9d 59be c240 593e 1249 83bf
00000270: 8db9 193d 2f18 733d 81c1 3d3e 14d3 e5bb
00000280: 764c 82bc 8295 d6be fdf1 8b3e 9670 533d
00000290: 553b 793e 10f4 5f3e 08c9 883e f070 183e
000002a0: 29d7 ec3e b0f1 f0be a2af 88be 4ac0 59be
000002b0: 2105 2cbe 18aa 3cbf e345 cb3e 75c2 35bf
000002c0: 9afa 293e a146 07bd cc38 a63d dc9e 22bf
000002d0: 1699 91bd 8030 71be 442e 28bf 1037 553e
000002e0: a4d3 0c3e 5720 36bf 965c 4abe 9be5 6a3e
000002f0: 6b8b 26bf 7f97 acbc 68d9 28bd 108b 16bf
00000300: e258 313e b541 e9be e0d3 4a3d 795e aebd
00000310: dfca bf3e 1d04 703e c8a9 2c3c 5cca 113f
00000320: 7173 efbe 3eb4 d2be 466d 2dbd 83eb 983e
00000330: 6674 223e 130a a6b9 4f89 a1bc 20e6 0abf
00000340: cd44 28bf 5b4d 4a3e d15d 7fbd 339c 223e
00000350: c1d9 debd 0770 9fbe d2ad 5e3e bab3 4fbe
00000360: 1f7f c73e 7e6c 9abe f644 123d bced a13d
00000370: a0b4 9f3d 9440 d43d e84a 813d e95c 2abe
00000380: 0720 a1bc 2635 0f3e 67c3 cbbe a470 0cbf
00000390: d8b4 4e3b ef33 743d cd77 86bf dce0 123d
000003a0: 9690 823e ff3a 8a3d f5b3 53ba 8678 3dbf
000003b0: 1922 42be 55cc 4abf 9647 f4bd ecf8 983d
000003c0: 3fdf 22be 1680 2cbd cf0a 01bc badf b83e
000003d0: 2362 e03d 0093 01bf d57d e33c 39e4 f33d
000003e0: 1102 463e 6f95 84be 4ad4 ee3d 0d12 4cbe
000003f0: 5152 32be a792 a3bc 964d 3f3e 77ff afbc

bias f4 [200]
-0.20147783 0.3209786 0.07933829 -0.10186341 -0.039612915 -0.21115218 -0.031938065 -0.0069224727
-0.080037944 -0.20849591 0.1134475 -0.07981741 -0.073341355 -0.056442495 -0.08316868 0.05958888
0.3908244 -0.0305923 -0.0029299154 -0.04667458 0.27607015 0.041626208 -0.03187995 0.118084185
-0.061214644 -0.09225094 -0.13258024 0.21721832 -0.037992544 0.14356925 0.23696342 -0.07740341
0.18137273 0.006957615 -0.04218262 0.24417786 -0.019975947 -0.11526756 0.3012707 -0.034440152
-0.08498215 0.13414307 -0.044985533 0.022229386 -0.14372821 -0.0012925955 -0.09959871 0.17099956
-0.11136135 -0.21944766 0.07307856 -0.02611636 0.24933267 -0.04050028 -0.22775802 -0.034623254
-0.1420252 -0.07133715 0.12727904 -0.050485555 -0.099509306 -0.10046909 -0.0127951745 0.2538806
-0.13162358 -0.015144418 0.1409587 -0.017299604 0.08678502 0.23961657 -0.09187808 0.2702192
-0.08335386 -0.0026879627 0.16961983 -0.09988605 -0.07043414 -0.07239513 -0.00041265108 0.18561125
0.13488807 -0.008537163 -0.05916418 0.08308363 -0.04477766 -0.028003221 -0.13594724 -0.25919095
-0.024977537 0.26449364 0.39620432 -0.13011558 -0.09491975 -0.08279466 -0.06499074 0.07896265
-0.09469623 -0.034284998 -0.03618639 0.1215834 0.24115242 -0.37064162 0.012029067 0.13922922
-0.07291369 -0.026533592 -0.01875791 0.0489493 0.08686484 -0.1607594 -0.28925842 0.123572
0.11157603 -0.1063313 -0.12388316 0.039418895 0.054721434 0.2540514 -0.021139367 -0.06615154
0.2652519 0.06405207 -0.08716816 0.15565981 -0.005560234 0.13142228 -0.030796818 -0.45811394
-0.08436568 -0.05700184 0.2520564 -0.0040192665 -0.08712345 -0.02158156 -0.07210605 0.22970928
0.052634347 0.12878522 -0.14174011 -0.0044765044 -0.24199452 0.22765528 -0.032748688 -0.09539229
-0.14586754 0.21010561 -0.066635765 -0.048820067 -0.16660014 -0.0011858426 0.10600723 -0.054423798
-0.121562734 -0.08940929 0.31609437 -0.16110863 -0.24629156 -0.07747941 -0.04648459 0.12397682
0.3248244 0.016429698 0.090094574 -0.027753105 -0.3176467 -0.046839237 0.11637523 -0.14243892
-0.080298714 -0.015796563 -0.20587954 0.2124138 -0.050067578 -0.17438091 0.1941881 -0.084745035
-0.08949125 -0.04206937 0.3242931 -0.023348093 -0.12009528 0.21559289 -0.3603003 -0.0627718
-0.25805566 -0.05182741 0.20913744 -0.062094316 0.069445096 -0.018538602 -0.061209187 0.44667748
-0.15930282 -0.13747974 -0.059787616 0.19548342 -0.1812632 -0.07840925 -0.033773888 0.15482445
00000000: 3450 4ebe 4f57 a43e 1d7c a23d c39d d0bd
00000010: 2741 22bd 4738 58be 7dd1 02bd e9d5 e2bb
00000020: efea a3bd f47f 55be 2a57 e83d 4f77 a3bd
00000030: fe33 96bd 3f30 67bd 5754 aabd 7813 743d
00000040: 231a c83e b49c fabc d303 40bb d82d 3fbd
00000050: 1159 8d3e 3e80 2a3d 8d94 02bd 1fd6 f13d
00000060: 35bc 7abd 10ee bcbd 1dc3 07be 7b6e 5e3e
00000070: 129e 1bbd d103 133e 8aa6 723e ae85 9ebd
00000080: c6b9 393e b4fc e33b afc7 2cbd c309 7a3e
00000090: 99a4 a3bc 6611 ecbd 2740 9a3e 1e11 0dbd
000000a0: 1f0b aebd cd5c 093e c042 38bd 671a b63c
000000b0: 7d2d 13be 4f6c a9ba 69fa cbbd 821a 2f3e
000000c0: 6b11 e4bd e3b6 60be 36aa 953d faf1 d5bc
000000d0: 1051 7f3e 9fe3 25bd 6639 69be 1dd1 0dbd
000000e0: 0e6f 11be 3619 92bd 7055 023e f1c9 4ebd
000000f0: 89cb cbbd bdc2 cdbd daa2 51bc a3fc 813e
00000100: 55c8 06be 4b20 78bc 7a57 103e e6b7 8dbc
00000110: 58bc b13d 0c5e 753e 932a bcbd 2c5a 8a3e
00000120: 6eb5 aabd 8828 30bb d2b0 2d3e 0f91 ccbd
00000130: c63f 90bd e643 94bd 1759 d8b9 e010 3e3e
00000140: 1920 0a3e 75df 0bbc 2456 72bd c027 aa3d
00000150: c868 37bd 0367 e5bc c135 0bbe adb4 84be
00000160: b19d ccbc b66b 873e 4bdb ca3e 053d 05be
00000170: 4965 c2bd 3f90 a9bd dd19 85bd 2bb7 a13d
00000180: 19f0 c1bd 6d6e 0cbd 2e38 14bd b800 f93d
00000190: a9f0 763e bdc4 bdbe 9015 453c 1b92 0e3e
000001a0: c653 95bd fa5c d9bc 30aa 99bc 107f 483d
000001b0: 31e6 b13d 1d9e 24be ae19 94be 5113 fd3d
000001c0: f981 e43d 3ac4 d9bd 74b6 fdbd b575 213d
000001d0: 9523 603d 0613 823e 772c adbc 757a 87bd
000001e0: 19cf 873e bb2d 833d 3885 b2bd 4965 1f3e
000001f0: a032 b6bb 9093 063e 9c49 fcbc e98d eabe
00000200: eac7 acbd c37a 69bd 890d 813e 0db4 83bb
00000210: c86d b2bd d0cb b0bc 56ac 93bd e938 6b3e
00000220: 1d97 573d 46e0 033e 5224 11be a4af 92bb
00000230: 69cd 77be 771e 693e 7d23 06bd 085d c3bd
00000240: 4d5e 15be ed25 573e 5578 88bd 8df7 47bd
00000250: 3a99 2abe 466e 9bba 521a d93d 7deb 5ebd
00000260: e2f5 f8bd 381c b7bd 1fd7 a13e a9f9 24be
00000270: db33 7cbe 86ad 9ebd a066 3ebd 8fe7 fd3d
00000280: 624f a63e 9397 863c 8183 b83d 7b5a e3bc
00000290: 97a2 a2be 80da 3fbd 2356 ee3d 82db 11be
000002a0: a773 a4bd cb67 81bc 16d2 52be 0183 593e
000002b0: a913 4dbd e990 32be 3fd9 463e ce8e adbd
000002c0: 3047 b7bd ef50 2cbd bf09 a63e 8044 bfbc
000002d0: 84f4 f5bd 62c4 5c3e 4879 b8be 808e 80bd
000002e0: df1f 84be fa48 54bd 2028 563e 9c56 7ebd
000002f0: 3b39 8e3d 44de 97bc 7cb6 7abd e9b2 e43e
00000300: 4720 23be 7dc7 0cbe dce3 74bd ce2c 483e
00000310: 0f9d 39be 0795 a0bd 7d56 0abd 4d8a 1e3e
