Vehicles/GenDis/GenDis_critic_target.pth (torch, 351891 bytes, 10 tensors)

weight f4 [200, 14]
0	0x3da695be	0.0813403
1	0xbe7e0711	-0.24807383
2	0xbe1da937	-0.15396582
3	0x3c9f7868	0.019466594
4	0x3d615fca	0.055022992
5	0xbe0d6432	-0.13807753
6	0x3e60294f	0.21890758
7	0x3c626116	0.013817092
8	0xbe3699d1	-0.17832114
9	0x3e210512	0.1572459
10	0x3e342f10	0.17596078
11	0xbe883ae9	-0.26607445
12	0x3dd296b7	0.10282653
13	0xbb407c8d	-0.0029371113
14	0x3da978a9	0.08274967
15	0xbd89d3d1	-0.06729854
16	0xbe0a3303	-0.13496022
17	0xbe8a05fc	-0.2695769
18	0x3dba77d6	0.09104888
19	0x3d3e4f6a	0.046462454
20	0xbe5ec7e4	-0.2175594
21	0xbe30dd6d	-0.17271967
22	0x3e461132	0.19342497
23	0x3e04cf40	0.12969685
24	0x3e1a652e	0.1507766
25	0x3d896b3c	0.067099065
26	0x3dbd6a0f	0.09248745
27	0x3ce2a074	0.0276644
28	0xbdb467ed	-0.08808885
29	0x3d397b4b	0.045283597
30	0xbd8f56e1	-0.06998993
31	0x3e6ac964	0.22928387
32	0x3d82b990	0.063830495
33	0xbe420a80	-0.18949318
34	0xbe2e4cf1	-0.17021538
35	0xbe6d21fb	-0.23157494
36	0xbc19ed3c	-0.00939494
37	0x3e4b69e7	0.19864617
38	0xbe29fefb	-0.16601174
39	0xbd452219	-0.04812822
40	0xbdabc48d	-0.083870985
41	0xbe0d027f	-0.13770483
42	0xbbd24866	-0.006417322
43	0x3df2bb6a	0.11852153
44	0xbdf3cf46	-0.11904769
45	0xb9cc21b9	-0.00038935037
46	0xbe692137	-0.22766577
47	0x3dae05ed	0.08497224
48	0x3e1c57e0	0.15267897
49	0xbe18c350	-0.14918256
50	0xbe3cf9bb	-0.1845464
51	0xbe4240ec	-0.18970078
52	0x3c597980	0.013273597
53	0x3c6a4f62	0.014301153
54	0x3d441362	0.047870047
55	0x3d70f054	0.058822945
56	0x3e0a6271	0.13514115
57	0x3d15c941	0.036568884
58	0xbe48422f	-0.19556497
59	0x3e782f3a	0.24236766
60	0xbdfe4ccc	-0.124169916
61	0x3e231dd6	0.1592935
62	0xbe5adee9	-0.21374096
63	0x3e3551c1	0.17706968
64	0x3e511073	0.20416431
65	0xbdc8d7c9	-0.09806783
66	0x3e722433	0.23646621
67	0x3d93da3b	0.072193585
68	0xbe243a8e	-0.16037962
69	0xbc3cb825	-0.011518513
70	0xbe5c0858	-0.21487558
71	0xbe651d0f	-0.22374366
72	0x3daf30a2	0.08554198
73	0xbe19e16e	-0.15027401
74	0xbe68c4ab	-0.22731273
75	0xbe2bf2fe	-0.16791913
76	0xbcb2ebcc	-0.021840952
77	0x3e5484c9	0.20753779
78	0x3e034352	0.1281865
79	0xbdcf2f41	-0.10116435
80	0xbe3e8102	-0.186039
81	0xbd694916	-0.056954466
82	0x3e89678f	0.2683682
83	0xbd8d036c	-0.06885418
84	0x3e537e3d	0.20653625
85	0x3cb46eb8	0.022025451
86	0x3e18579d	0.14877172
87	0xbd191f45	-0.037383337
88	0xbe377fd4	-0.17919856
89	0x3d9f419a	0.077761844
90	0x3d818c46	0.06325583
91	0xbcb5d9a1	-0.0221985
92	0xbe106277	-0.14100061
93	0xbe75223a	-0.23938838
94	0x3d53a9b2	0.051675506
95	0x3dc561ab	0.09637769
96	0x3dd9067d	0.10596941
97	0xbce19096	-0.027534764
98	0xbd4e280b	-0.050331157
99	0xbe38d160	-0.1804862
100	0xbe7f3ec6	-0.2492629
101	0xbe70020a	-0.23438278
102	0x3d14032a	0.03613583
103	0xbe241d7c	-0.16026872
104	0x3d6eaa28	0.058267742
105	0xbe783ac5	-0.24241169
106	0x3e321152	0.1738942
107	0x3deb8220	0.11499429
108	0xbe04064a	-0.12893024
109	0xbe87123c	-0.263811
110	0xbe065cf9	-0.13121404
111	0xbe4e58b6	-0.20151028
112	0x3bf1ab34	0.0073751453
113	0x3e36593a	0.17807475
114	0xbe178579	-0.1479701
115	0x3e47135f	0.19440983
116	0xbcc5969f	-0.024119673
117	0x3d73274e	0.059363656
118	0x3df73a97	0.12071722
119	0x3cc0a58f	0.023516444
120	0x3e6bae96	0.23015818
121	0x3c97a703	0.018512255
122	0x3d8a2081	0.06744481
123	0x3db10e88	0.0864535
124	0xbe2be3ec	-0.16786164
125	0x3d5128b2	0.0510642
126	0xbd30010d	-0.042969752
127	0x3d494bd9	0.0491446
128	0xbd1ee2cd	-0.038790513
129	0x3e56c067	0.20971833
130	0x3e6c1c9c	0.23057789
131	0x3dd9c3e2	0.10633065
132	0xbe22741c	-0.15864605
133	0x3e5d758f	0.21626876
134	0xbe28ac23	-0.16471915
135	0xbe62991a	-0.22128716
136	0x3e407f4b	0.18798558
137	0x3e51e4a4	0.20497376
138	0xbe858525	-0.26078144
139	0xbe6f5417	-0.23371921
140	0xbd0b0c4f	-0.033947285
141	0x3d33f20a	0.043932
142	0x3c161b99	0.009161853
143	0x3dd94df6	0.10610573
144	0x3de348ef	0.11097895
145	0xbdd5bf4d	-0.10436878
146	0x3d9bb1a4	0.07602242
147	0x386cb796	5.6437762e-05
148	0x3e833d72	0.25632817
149	0x3e74ece2	0.23918489
150	0xbd47b7d8	-0.04875931
151	0x3e2bd62f	0.16780923
152	0xbb9c3958	-0.004767578
153	0xbe8a2c80	-0.26987076
154	0xbc8b4656	-0.017001312
155	0xbe074a3a	-0.13211909
156	0x3d838836	0.064224645
157	0x3e3eb00d	0.18621846
158	0xbe44f0dc	-0.19232506
159	0x3e752e21	0.23943378
160	0xbc226b3d	-0.009913263
161	0xbe555c10	-0.208359
162	0xbe82a02a	-0.2551282
163	0xbabf31c6	-0.0014586977
164	0xbdb4c7ee	-0.08827196
165	0xbd729a91	-0.059229437
166	0xbc4f6d42	-0.012660326
167	0xbdebf94b	-0.11522158
168	0xbe818b13	-0.25301418
169	0xbd499c0c	-0.049221084
170	0xbe878b25	-0.26473346
171	0xbdeb6be2	-0.114951864
172	0xbe42bba1	-0.19016887
173	0x3e405c0d	0.18785115
174	0xbc46af94	-0.012126822
175	0xbe625f1d	-0.22106595
176	0xbe1c6359	-0.15272273
177	0xbe883c8c	-0.26608694
178	0xbc58e95d	-0.013239232
179	0x3e10ff5d	0.14159913
180	0xbcfbb438	-0.030725583
181	0xbe6b7509	-0.22993864
182	0x3c2703af	0.010193749
183	0x3dc15e7e	0.09441851
184	0x3e6c1ba6	0.23057422
185	0xbe80a856	-0.2512843
186	0x3e03012c	0.12793416
187	0xbe5735fa	-0.21016684
188	0xbe04f8ba	-0.12985507
189	0xbe19cafc	-0.15018839
190	0xbe7e8e8e	-0.24859068
191	0xbdc8daea	-0.098073795
192	0x3e613b7a	0.21995345
193	0x3e80ea93	0.25178966
194	0xbcf9be24	-0.030486174
195	0xbe7ab045	-0.24481304
196	0x3e7a7c5b	0.244615
197	0x3e81b93d	0.25336638
198	0x3e597f79	0.21240033
199	0xbdb22955	-0.0869929
200	0xbcc4bd4d	-0.024016047
201	0x3e6395ed	0.22225161
202	0xbd59bdd7	-0.05315956
203	0xbe6b331a	-0.22968712
204	0xbe0452d5	-0.12922223
205	0xbd750f87	-0.05982926
206	0xbd613035	-0.054977614
207	0x3e69fcff	0.22850417
208	0xbd325e68	-0.043547064
209	0xbe43c580	-0.19118309
210	0xbe7fc7fb	-0.2497863
211	0x3ce21e50	0.027602345
212	0x3e347fae	0.17626831
213	0xbe6b0a7e	-0.22953221
214	0xbe69146b	-0.22761695
215	0x3d9a20ff	0.07525825
216	0x3c4f044d	0.012635303
217	0xbac8ce18	-0.001532021
218	0xbd676806	-0.05649569
219	0xbdaf5ee0	-0.08563018
220	0xbe37aa33	-0.1793602
221	0xbdda8578	-0.106699884
222	0xbd18baf3	-0.037287664
223	0x3e62d232	0.22150496
224	0x3d8a3afa	0.0674953
225	0x3e5c5aa7	0.21518956
226	0xbe708cc6	-0.23491201
227	0x3dde0284	0.108403236
228	0x3e5cdae2	0.21567872
229	0xbd4aaf8c	-0.04948382
230	0xbd9ec993	-0.07753291
231	0xbe557340	-0.20844746
232	0x3e2d546f	0.1692674
233	0x3e1fb18f	0.15595077
234	0xbe8c5ff7	-0.27416965
235	0xbe184c2b	-0.14872806
236	0xbd098afb	-0.033579808
237	0xbdbf57b8	-0.09342903
238	0xbe101bab	-0.14073054
239	0x3e80150e	0.25016063
240	0xbda43477	-0.080178194
241	0x3dd22982	0.10261823
242	0xbd5b795d	-0.053582538
243	0xbe3efc4b	-0.1865093
244	0xbe28cc51	-0.1648419
245	0x3dad43ef	0.08460223
246	0x3d3a1d0c	0.045437858
247	0x3e05c9d8	0.13065279
248	0x3dbaa478	0.09113401
249	0x3e6db0a6	0.23211917
250	0x3e1618e2	0.1465793
251	0xbd4c82f5	-0.049929578
252	0x3e143530	0.14473414
253	0x3decfca1	0.11571623
254	0xbe799e5c	-0.24376816
255	0x3d835759	0.064131446

bias f4 [200]
0	0x3e1cbaa2	0.1530557
1	0x3d8421b2	0.06451739
2	0x3e3a67a3	0.18203597
3	0xbe3b9ad7	-0.18320785
4	0xbe7f799f	-0.24948739
5	0xbd13ad11	-0.03605372
6	0xbe1cc543	-0.15309624
7	0xbe0c360b	-0.13692491
8	0x3de58cc0	0.112084866
9	0x3e17d2f2	0.14826563
10	0xbe24ee8c	-0.16106623
11	0x3e3612bd	0.17780586
12	0xbc86b61e	-0.016444262
13	0xbe2c0317	-0.16798054
14	0xbe0c038d	-0.1367323
15	0xbe0ead60	-0.13933325
16	0x3e0b6117	0.13611256
17	0x3da803ba	0.08203836
18	0xbdbe2279	-0.09283919
19	0x3d230e8d	0.0398088
20	0x3e6578d2	0.2240937
21	0x3e0ab4ef	0.13545583
22	0x3d8ca10f	0.06866657
23	0x3dabd090	0.083893895
24	0x3e6ae700	0.22939682
25	0x3e455671	0.19271256
26	0xbe0c293a	-0.13687602
27	0xbe3b23dc	-0.18275398
28	0x3d59c2cc	0.05316429
29	0x3e2d73e4	0.1693874
30	0xbe59b85f	-0.21261738
31	0xbca2b13d	-0.019859904
32	0xbe3d7e3a	-0.18505183
33	0x3e88c768	0.26714635
34	0xbd46860f	-0.048467692
35	0xbe04868b	-0.12941949
36	0x3da44078	0.08020109
37	0x3d4216ab	0.0473849
38	0x3d8d3d2a	0.06896432
39	0x3e7df9f9	0.24802388
40	0xbda96898	-0.08271903
41	0x3d6df92a	0.05809895
42	0xbc2a6b3f	-0.010401546
43	0x3e545857	0.20736824
44	0xbd085a68	-0.033289343
45	0xbe31c401	-0.17359926
46	0x3d14c404	0.036319748
47	0xbdae4bc4	-0.08510545
48	0xbe710e5e	-0.23540637
49	0x3ddb5a6a	0.107106045
50	0xbdf35777	-0.11881917
51	0x3e13f4b3	0.14448814
52	0xbe6f0c93	-0.2334464
53	0x3abc666f	0.0014373789
54	0xbd4903ce	-0.049075894
55	0xbdc00918	-0.093767345
56	0xbe5557aa	-0.20834222
57	0xbe469d77	-0.19396006
58	0x3dceb8d6	0.100938484
59	0xbcd0d660	-0.025492847
60	0xbdee3db0	-0.1163286
61	0xbe41f62f	-0.18941568
62	0x3e40f743	0.18844323
63	0x3d528c45	0.051403303
64	0x3e16d262	0.14728692
65	0x3e5dc9d2	0.2165902
66	0x3e10efe3	0.1415401
67	0xbd3eaaf3	-0.04654975
68	0x3e37b883	0.1794148
69	0x3da384e5	0.07984332
70	0x3e61bd32	0.22044829
71	0xbd1f5698	-0.03890094
72	0x3d14694a	0.036233224
73	0xbde4e944	-0.111773044
74	0x3e28532e	0.1643798
75	0x3e5170fb	0.20453255
76	0x3ccab3bb	0.024743905
77	0xbd73dd9b	-0.05953751
78	0x3c5f5e9b	0.013633396
79	0x3dfdf9ee	0.12401186
80	0x3d6dce81	0.058058266
81	0x3e504e34	0.20342332
82	0x3a6bdfde	0.00089978974
83	0xbd90cf86	-0.07070832
84	0x3e55d62f	0.20882486
85	0x3e869e4c	0.26292646
86	0xbcdc4ee2	-0.026893083
87	0xbe86b36a	-0.26308757
88	0x3debf647	0.11521583
89	0x3de96aad	0.113973
90	0x3e4dc673	0.20095234
91	0x3e48b31f	0.1959958
92	0xbe0b17bb	-0.13583271
93	0xbd4bbd25	-0.04974093
94	0x3dbc28d2	0.09187473
95	0xbe34ccb0	-0.17656207
96	0x3ca4620c	0.020066284
97	0x3e824bce	0.2544846
98	0xbd408c8a	-0.04700903
99	0xbe4c1885	-0.19931228
100	0x3db43562	0.087992445
101	0xbe82361f	-0.25431916
102	0x3d2c92d1	0.042132203
103	0xbd277348	-0.040881425
104	0x3d49db88	0.049281627
105	0xbe533d88	-0.20628941
106	0x3dda151d	0.10648558
107	0xbe5d20b7	-0.21594511
108	0x3e7c3d02	0.24632648
109	0x3e78db5e	0.24302432
110	0xbddb92be	-0.10721348
111	0xbc71111c	-0.014713552
112	0x3e33c320	0.17554903
113	0x3e5ff64d	0.218713
114	0xbdfba61c	-0.12287542
115	0x3c86ae41	0.016440513
116	0x3e09e41d	0.13465925
117	0x3e0d6668	0.13808596
118	0xbe3440c8	-0.17602837
119	0xbd5e7b00	-0.05431652
120	0x3c24d5e7	0.010060764
121	0x3e61c835	0.22049029
122	0xbe02be8d	-0.12768002
123	0x3e6a30b8	0.22870147
124	0x3e0298f1	0.12753655
125	0x3d8a8d61	0.06765247
126	0x3d876073	0.06610193
127	0xbde9706e	-0.113983974
128	0xbc754383	-0.014969709
129	0xbe2f092c	-0.17093343
130	0xbc152d5f	-0.009105056
131	0x3ca21e9d	0.019789988
132	0x3e469369	0.1939217
133	0xbe2576e8	-0.1615864
134	0x3e82fe88	0.25584817
135	0x3d8cdbc9	0.06877858
136	0x3d6c18c2	0.0576408
137	0x3d282371	0.041049425
138	0xbe2e173f	-0.17001055
139	0x3dd7a80e	0.10530101
140	0xbe0a41fb	-0.13501732
141	0xbc71cdab	-0.014758508
142	0x3e831764	0.25603783
143	0x3e1c3f7a	0.1525859
144	0xbd45e389	-0.048312698
145	0xbe553d82	-0.20824245
146	0xbe7cc5f2	-0.24684885
147	0xbe01695f	-0.12637852
148	0x3e83704f	0.25671622
149	0x3ca9b579	0.020716416
150	0x3d7dfaa3	0.062006604
151	0x3e1febc3	0.1561728
152	0xbd4ff835	-0.050773818
153	0x3e52a907	0.20572291
154	0x3e815a00	0.25263977
155	0xbe81cdde	-0.25352377
156	0xbe85d9ec	-0.26142824
157	0x3e5131b6	0.2042912
158	0x3b15d300	0.0022861362
159	0xbe7fed92	-0.2499297
160	0x3e3fa290	0.18714356
161	0xbc868a8d	-0.016423488
162	0x3d8a16d4	0.06742635
163	0x3c23f91e	0.010008125
164	0x3e850096	0.2597701
165	0x3e67b34a	0.22626987
166	0x3c82779a	0.015926171
167	0xbe0f13c5	-0.13972385
168	0xbe7d59ad	-0.2474124
169	0x3df79c10	0.120903134
170	0xbe806b39	-0.25081804
171	0x3e41e59b	0.18935244
172	0x3e4fb42a	0.20283571
173	0xbe8a52ee	-0.27016395
174	0x3cdfae5c	0.02730482
175	0xbe6d6975	-0.2318476
176	0xbe173b79	-0.14768781
177	0xbe8108a1	-0.25201896
178	0xbe109dfd	-0.14122768
179	0xbe5e240b	-0.21693437
180	0x3e52a3df	0.20570324
181	0x3da4d67f	0.080487244
182	0x3dfe4aba	0.12416597
183	0xbe41d343	-0.18928246
184	0x3d2bcc2c	0.04194276
185	0x3e8408b8	0.25787902
186	0x3db6fcf8	0.08934969
187	0xbe80b749	-0.25139835
188	0x3da12e57	0.07870167
189	0x3d9f3c0e	0.077751264
190	0xbe294be9	-0.16532864
191	0xbe5a55f6	-0.21321854
192	0x3ca5cfd4	0.020240702
193	0xbe6e6337	-0.23280035
194	0xbe191450	-0.14949155
195	0x3ca0d8f0	0.019634694
196	0x3e29b367	0.16572343
197	0xbdf32c38	-0.118736684
198	0x3da2f209	0.07956321
199	0x3e39739f	0.18110512

weight f4 [200, 200]
0	0xbc47db57	-0.012198291
1	0x3d23e722	0.040015347
2	0xbce9be3b	-0.028533092
3	0xbbcd7b35	-0.006270791
4	0xbd767088	-0.060165912
5	0xbbd3b515	-0.0064607956
6	0xbd1eb4b7	-0.03874656
7	0x3ca8c6d8	0.020602629
8	0xbd7e9424	-0.062152997
9	0xbb18c317	-0.0023309642
10	0x3d32e631	0.04367656
11	0x3c9f4aad	0.019444788
12	0xbd0a5030	-0.03376788
13	0x3d9ee786	0.07759003
14	0xbd63882c	-0.055549785
15	0xbd16772e	-0.036734752
16	0xbb25a220	-0.0025273636
17	0xbd56e146	-0.05246093
18	0x3d49393c	0.04912685
19	0xbd8e4d36	-0.069483206
20	0xbd20a905	-0.03922369
21	0xbd2f7abc	-0.042841658
22	0x3d675926	0.056481503
23	0xbc9e446a	-0.019319732
24	0xbd6736c0	-0.056448698
25	0xbd547516	-0.051869474
26	0x3cc2d583	0.023783451
27	0xbcf918ae	-0.030407276
28	0xbd350df1	-0.04420275
29	0x3d297401	0.041370396
30	0x3d927125	0.07150487
31	0xbd7fc89a	-0.062447168
32	0xbceb8a8d	-0.02875259
33	0xbb7311fb	-0.0037089575
34	0x3d94b417	0.07260912
35	0xbc39c6d2	-0.011338906
36	0xbc92c1b9	-0.01791464
37	0x3d2f55d2	0.042806454
38	0xbbf586cd	-0.007492876
39	0x3ca21f71	0.019790383
40	0x3d9d2679	0.07673354
41	0x3d1267a6	0.035743378
42	0xbd041827	-0.032249596
43	0x3c507495	0.012723108
44	0x3d3acbda	0.045604564
45	0x3c89a4f6	0.016802292
46	0x3b7c5973	0.0038505464
47	0xbc90de7f	-0.01768422
48	0x3d4009ac	0.046884224
49	0x3d15d2d0	0.036578
50	0xbd2e33b7	-0.042529788
51	0xbb23424c	-0.0024911342
52	0x3d1015a6	0.035176896
53	0xbd0ed3c9	-0.034869943
54	0x3ce059b0	0.027386516
55	0xbd7b758d	-0.061391402
56	0xbc2e482a	-0.010637322
57	0x3d1e0203	0.038576137
58	0xbbeefce8	-0.0072933324
59	0xbd4f13ce	-0.050555997
60	0x3c035a3e	0.008017121
61	0x3d374a9d	0.04474889
62	0xbd742765	-0.059607882
63	0xbd6aa60c	-0.05728726
64	0xbd0e2360	-0.034701705
65	0xbd1b4a11	-0.037912432
66	0xbd690e07	-0.056898143
67	0xbc5d3524	-0.013501439
68	0xbd466b54	-0.0484422
69	0xbcc66e77	-0.024222596
70	0xbd01a828	-0.031654507
71	0x3cba7fa1	0.022765936
72	0x3af816eb	0.0018927729
73	0x3d8b741d	0.06809256
74	0xbd3c5c1f	-0.04598629
75	0xbbcc429a	-0.0062335255
76	0x3d5e295d	0.054238666
77	0xbcf797e1	-0.030223789
78	0xbc7f95e8	-0.015599705
79	0x3d8024f1	0.06257046
80	0xbd0621fc	-0.032747254
81	0x3d22a04e	0.03970366
82	0x3d08bc8d	0.03338294
83	0xbc05e659	-0.008172595
84	0xbc98cb91	-0.018651756
85	0x3d898ce1	0.06716324
86	0x3cfa736d	0.030572617
87	0x3d8f332c	0.06992182
88	0xbd3d60ca	-0.046234883
89	0xbd0713ce	-0.03297787
90	0x3d8fa2ce	0.070134744
91	0x3d814a7c	0.06313035
92	0x3d6d5373	0.05794091
93	0x3d62e0de	0.05539023
94	0x3c92aaff	0.017903803
95	0xbc676e8a	-0.014125476
96	0x3b63a288	0.0034734327
97	0x3d5e44c4	0.0542648
98	0xbd143d63	-0.036191355
99	0xbcad0d76	-0.021124583
100	0x3d010c1f	0.0315057
101	0xbc7d8aaf	-0.015474959
102	0xbc80916b	-0.01569434
103	0x3c66ab7a	0.014078969
104	0x3b8ae95d	0.004239245
105	0xbb77ae22	-0.0037793
106	0x3d90c079	0.07067961
107	0xba475959	-0.00076045614
108	0xbd5cc97b	-0.053903084
109	0xb9b93ea4	-0.0003533262
110	0x3c84e609	0.01622297
111	0x3d601f74	0.054717496
112	0xbd517ff1	-0.051147405
113	0x3d8eb608	0.069683135
114	0xbd5b52dd	-0.05354582
115	0x3c53668d	0.012902868
116	0x3d8d2082	0.06890966
117	0x3b4f690a	0.0031648302
118	0xbcc61880	-0.024181604
119	0x3cd42cff	0.025900362
120	0xbcfaa055	-0.03059403
121	0x3c8b6e68	0.01702042
122	0x3d71d90d	0.059044886
123	0xbd1245bc	-0.035711035
124	0x3c9e5240	0.01932633
125	0x3bf838c7	0.0075751278
126	0x3c18e884	0.00933278
127	0xbcfbfb07	-0.030759348
128	0xbc422fe9	-0.011852243
129	0x3cb275a8	0.021784618
130	0x3d7d1f09	0.061797176
131	0x3d21b899	0.039482687
132	0x3c5def44	0.013545815
133	0xbb49c977	-0.0030790248
134	0x3cc7be78	0.024382815
135	0x3d80175c	0.062544554
136	0xbcd24479	-0.025667416
137	0x3caaa742	0.020831708
138	0x3d2fb38d	0.042895842
139	0xbc9c07a8	-0.01904662
140	0x3d00ab8a	0.031413592
141	0xbd06a4d1	-0.032872025
142	0xbcb605df	-0.022219596
143	0xbd5a2cda	-0.05326543
144	0x3d7862f4	0.060641244
145	0xbd691955	-0.056908924
146	0xbd27c07f	-0.040955063
147	0x3c01d2f6	0.007923832
148	0x3cf1ee73	0.029532647
149	0x3b1d48ba	0.0023999647
150	0x3d65073e	0.05591511
151	0x3d51ff9e	0.051269166
152	0xbd368331	-0.044558708
153	0x3d4aaf4b	0.04948358
154	0xbcea4ec4	-0.028602012
155	0x3d809201	0.06277848
156	0xbd4e9472	-0.050434537
157	0xbcae3cda	-0.02126925
158	0xbd78f5bc	-0.060781226
159	0x3c9ca344	0.01912082
160	0xbcd2f0ff	-0.025749682
161	0xbd480a62	-0.048838027
162	0x3d4993b1	0.049213115
163	0xbd85905a	-0.065216735
164	0x3d4adf23	0.049529206
165	0xbcfc5dbc	-0.030806415
166	0xbceca854	-0.028888859
167	0x3c7947dc	0.0152148865
168	0xbd0e656e	-0.0347647
169	0x3d238373	0.03992028
170	0xbce3726d	-0.027764523
171	0x3d9c6b35	0.076376356
172	0xbc4b06f9	-0.012391799
173	0x3d66f74c	0.056388184
174	0xbc8bee75	-0.017081479
175	0x3d66a6c9	0.056311402
176	0xbcdb5f41	-0.026778819
177	0xbd6c21cb	-0.057649415
178	0xbcc74bd3	-0.024328148
179	0x3c8a704c	0.01689925
180	0xbd772616	-0.060339056
181	0x3d62bdec	0.055356905
182	0xbd1aad0f	-0.037762698
183	0x3d3d0018	0.046142668
184	0xbd89b077	-0.06723111
185	0x3d5453e3	0.051837813
186	0xbd283a14	-0.041071013
187	0x3d7b2d5c	0.061322555
188	0x3d4f8c19	0.050670717
189	0xbce6f900	-0.028194904
190	0x3d25fe64	0.04052581
191	0x3cec083f	0.028812526
192	0x3c732520	0.014840394
193	0xbd388bf6	-0.045055352
194	0x3d6df867	0.058098223
195	0x3c34aa05	0.011026864
196	0xbd874f79	-0.06606955
197	0x3cef8dbc	0.029242389
198	0x3d715819	0.058921907
199	0x3d676b88	0.056499034
200	0xbd88f53c	-0.066874
201	0x3a37f950	0.00070180465
202	0x3d2aff98	0.04174766
203	0x3c4a58f3	0.012350309
204	0xbcb2b1d5	-0.021813313
205	0xbd8970a1	-0.067109354
206	0xbc76f81e	-0.015073804
207	0xbd56bfd7	-0.052429046
208	0x3d818eb9	0.0632605
209	0x3bf596c7	0.0074947807
210	0xbd099dc2	-0.033597715
211	0xbd69e15e	-0.057099693
212	0xbb8d0630	-0.004303716
213	0x3cd8a839	0.026447402
214	0xbd8b3c20	-0.06798577
215	0xbb8f8052	-0.0043793106
216	0xbb58f171	-0.0033102895
217	0xbd61d1b9	-0.055131648
218	0xbcb75e78	-0.022383913
219	0x3cfcf81d	0.030880028
220	0xbbad0c08	-0.0052809753
221	0xbd094a9a	-0.03351841
222	0xbd849fbe	-0.06475781
223	0xbbac11ff	-0.0052511687
224	0x3cb00be1	0.02149004
225	0xbca8a9fe	-0.020588871
226	0x3cc94a0a	0.024571437
227	0x3c792384	0.0152062215
228	0x39dd7742	0.0004224126
229	0x3d0507a0	0.032477975
230	0xbc2c2a49	-0.010508128
231	0x3d4c9da4	0.049955025
232	0xbd2c28bb	-0.04203103
233	0x3b479d0e	0.0030458602
234	0xbd81d4c0	-0.06339407
235	0xbd8d7b17	-0.06908243
236	0x3cee1814	0.029064216
237	0xbd2a691f	-0.041604158
238	0x3d52c589	0.051457915
239	0x3ca03f75	0.019561509
240	0x3d6524e2	0.055943377
241	0x3c3b9d8f	0.011451139
242	0xbd7ee16c	-0.062226698
243	0xbcc2966b	-0.023753366
244	0xbbfdb587	-0.007742587
245	0x3d12e1fe	0.035860054
246	0x3d2af75e	0.041739814
247	0xbd4a99dc	-0.049463138
248	0xbbd90d5f	-0.0066239084
249	0x3ca70b9c	0.020391278
250	0x3d7bec65	0.06150474
251	0x3d7b3db1	0.06133813
252	0x3bb6e22e	0.005581162
253	0x3d449c79	0.048000786
254	0x3d2d7225	0.042345185
255	0xbd53ecce	-0.051739506

bias f4 [200]
0	0x3d9beafa	0.076131776
1	0xbd60de5c	-0.05489956
2	0xbd6d9ec8	-0.058012754
3	0x3d18818a	0.037232913
4	0x3d84657a	0.064646676
5	0xbbbbf243	-0.005735667
6	0xbb3f10eb	-0.002915437
7	0x3d808880	0.06276035
8	0x3cb41ca5	0.021986315
9	0x3d52befa	0.05145166
10	0xbd602f84	-0.054732814
11	0xbd40548b	-0.046955626
12	0xbc6e2531	-0.014535234
13	0xbd64411f	-0.055726167
14	0x3d830e41	0.06399203
15	0xbb9b0547	-0.0047308537
16	0xbd832f7c	-0.06405541
17	0x3d887916	0.0666372
18	0xbd5e19b1	-0.05422372
19	0xbc024263	-0.007950398
20	0x3d30c514	0.0431567
21	0xbaf080cf	-0.0018348935
22	0x3cc6242a	0.024187166
23	0xbd533ac4	-0.051569715
24	0xbc4e7e0d	-0.012603295
25	0xbd0ae1f6	-0.0339069
26	0x3c3c1aea	0.011481026
27	0x3d54a93a	0.0519192
28	0x3ce79810	0.028270751
29	0xbce6a463	-0.028154558
30	0xbd706229	-0.058687363
31	0xbd6fead0	-0.058573544
32	0x3d1813fa	0.037128426
33	0x3caef730	0.021358103
34	0x3c39b659	0.011334979
35	0xbd4d0271	-0.050051156
36	0xbd1d8e29	-0.038465653
37	0x3d80aec1	0.06283332
38	0x3cf4abb9	0.02986704
39	0xbc5d6596	-0.0135129895
40	0xbd759e79	-0.059965584
41	0x3c3fbd20	0.011702806
42	0xbd3eedb3	-0.046613406
43	0x3d6a59c8	0.05721453
44	0x3abb9f7b	0.0014314497
45	0xbcc03313	-0.023461854
46	0x3d823d6a	0.0635937
47	0x3cedccb6	0.029028278
48	0xbbb80195	-0.005615423
49	0x3ca7d6ba	0.020488132
50	0x3cd38054	0.025818028
51	0x3d328375	0.0435824
52	0x3c89cb24	0.016820498
53	0x3bd43cb7	0.0064769643
54	0x3bd2ab02	0.006429077
55	0xbc806bd6	-0.01567642
56	0xbd85b656	-0.065289184
57	0x3d827dc4	0.06371644
58	0x3c2500cb	0.01007099
59	0xbcb99afa	-0.022656906
60	0x3d4a73b1	0.04942674
61	0xbcdfcb84	-0.027318723
62	0x3d96a09e	0.07354854
63	0x3d5815f1	0.0527553
64	0xbd36c626	-0.044622563
65	0xbc8611b2	-0.01636586
66	0xbbe85758	-0.0070904903
67	0xbbd621b3	-0.006534779
68	0xbca6e8a1	-0.020374598
69	0x3c9208ef	0.017826525
70	0x3d8fbede	0.07018827
71	0x3c39e90d	0.011347068
72	0x3d2945b9	0.04132626
73	0xbd865083	-0.06558325
74	0xbc01ce21	-0.00792268
75	0x3c8f0882	0.017460112
76	0xbd8c424d	-0.06848583
77	0x3ce5fa21	0.028073372
78	0x3d6ba383	0.057528984
79	0xba655063	-0.00087476353
80	0xbc6f50cd	-0.014606667
81	0xbd0bb011	-0.034103457
82	0x3d88a878	0.06672758
83	0xbd8306fa	-0.06397815
84	0xbd807e63	-0.06274106
85	0xbcf76adf	-0.030202327
86	0x3d6e4685	0.05817272
87	0xbc9c019f	-0.019043742
88	0x3d037a56	0.03209909
89	0xbd6c1d20	-0.057644963
90	0xbd4d37e9	-0.05010215
91	0xbd16145a	-0.036640503
92	0xbc07ac06	-0.00828076
93	0x3bd5285e	0.0065050563
94	0xbd770891	-0.060310904
95	0x3cdf85ca	0.027285475
96	0xbca87919	-0.020565556
97	0xbd17abb0	-0.03702897
98	0xbbd514b0	-0.0065027103
99	0xbd41a4fb	-0.04727648
100	0xbd00665c	-0.031347618
101	0xbd893035	-0.06698648
102	0xbd2beb0b	-0.0419722
103	0x3bfc3b75	0.0076975175
104	0xbd6c1ba7	-0.05764356
105	0xbd044187	-0.032289054
106	0xbb9b65e5	-0.0047423714
107	0x3d27b134	0.04094048
108	0xbbe1a16e	-0.006885699
109	0xbd65a318	-0.05606374
110	0x3d6dc8e0	0.058052897
111	0x3d003853	0.031303715
112	0xbbae5579	-0.0053202477
113	0x3cd3f03f	0.025871394
114	0xbcd1eeb5	-0.02562652
115	0x3d98c6c1	0.07459784
116	0xbd801557	-0.0625407
117	0xbceb6382	-0.028733972
118	0xbd688bc8	-0.05677393
119	0xbd3b8771	-0.045783464
120	0xbc8b1319	-0.01697688
121	0xbb903b71	-0.004401617
122	0xbd166ecc	-0.036726758
123	0x3d876206	0.06610493
124	0xbc9fec7e	-0.019521948
125	0xbd169126	-0.036759518
126	0xbc5205eb	-0.012818794
127	0x3d96bf19	0.07360668
128	0xbd4937ba	-0.04912541
129	0x3d692ad5	0.056925613
130	0xbbf69780	-0.0075253844
131	0x3c151191	0.009098426
132	0xbd426b60	-0.047465682
133	0xbbe2764d	-0.006911075
134	0x3d8262e1	0.06366516
135	0xbcdf4f44	-0.027259476
136	0xbd5ffa1b	-0.05468188
137	0xbd477490	-0.048695147
138	0xbd5d995f	-0.054101344
139	0x3d5253ac	0.051349327
140	0xbc7baf28	-0.015361585
141	0x3a06cf4a	0.0005142583
142	0xbd9046af	-0.07044732
143	0x3d130b56	0.035899483
144	0xbd4dc315	-0.050234873
145	0xbcc63a9e	-0.024197873
146	0xbd6282cf	-0.05530053
147	0xbc7beb79	-0.015375965
148	0x3d801704	0.0625439
149	0x3cbbcc2c	0.022924505
150	0xbd02ed64	-0.031964675
151	0xbca5661b	-0.02019029
152	0x3d5e00d3	0.054200005
153	0x3d86280c	0.06550607
154	0xbceeaa1c	-0.029133849
155	0xbb1ae710	-0.002363626
156	0x3d8556e2	0.06510712
157	0x3d3b9a3c	0.045801386
158	0x3b310415	0.002701049
159	0x3d47d3d0	0.048785985
160	0x3d5561d1	0.052095238
161	0xbd91b255	-0.07114092
162	0xba8e992f	-0.0010879393
163	0x3c4e1364	0.012577865
164	0x3cd3fe67	0.025878144
165	0xbcb7f896	-0.022457402
166	0xbd5bda10	-0.053674757
167	0xbc25cb81	-0.01011932
168	0xbcf7fae9	-0.03027101
169	0x3d81025b	0.062992774
170	0x3cb12c74	0.021627642
171	0xbd15daee	-0.03658574
172	0x3bcad3e3	0.0061898096
173	0xbcc80332	-0.024415586
174	0xbd69d0ab	-0.057083767
175	0xbd65f836	-0.056144916
176	0x3c694122	0.01423672
177	0xbd2c4231	-0.042055313
178	0x3d8459dd	0.064624526
179	0x3d19b0ab	0.037522
180	0xbd043ea4	-0.0322863
181	0x3d458427	0.048221733
182	0x3d3d39e5	0.04619779
183	0x3bf7e7bb	0.007565466
184	0xbcea2dd8	-0.028586313
185	0x3c5c0092	0.01342787
186	0xbd00c664	-0.0314392
187	0x3d816ac4	0.06319192
188	0xbd632f2c	-0.05546491
189	0x3cb79411	0.02240947
190	0xbc9af68f	-0.018916396
191	0xbc7d339f	-0.015454202
192	0x3d024a91	0.031809393
193	0xbd034204	-0.03204538
194	0xbc1242e3	-0.00892708
195	0x3d8ddccf	0.069268815
196	0x3d26446b	0.040592592
197	0x3ca01c7d	0.019544834
198	0xbd5af3d8	-0.053455204
199	0x3d4a15f3	0.04933734

weight f4 [1, 200]
0	0xbd8cfc8d	-0.06884108
1	0x3b29ef31	0.0025929923
2	0x3d60fcb1	0.054928485
3	0x3d927b25	0.07152394
4	0x3c088fba	0.008335048
5	0x3c3b26af	0.011422797
6	0xbba991e7	-0.0051748636
7	0xbd8524cb	-0.06501158
8	0x3d0219dc	0.031762943
9	0x3c09623b	0.008385236
10	0xbc8fb01f	-0.017540036
11	0xba93ad7e	-0.0011266915
12	0x3d1ab177	0.0377669
13	0xbd67039d	-0.05639993
14	0xbd1273b5	-0.035754878
15	0xbd749dd2	-0.05972082
16	0x3d5a4c47	0.0532954
17	0xbb1b1df2	-0.0023668972
18	0xbd879b6c	-0.06621441
19	0x3bf47991	0.007460781
20	0xbc00f8af	-0.007871791
21	0xbc257639	-0.010098987
22	0x3d93a988	0.0721007
23	0xbc6bdd38	-0.014396004
24	0x3d5e30bd	0.0542457
25	0x3d9aa249	0.07550485
26	0x3d943f5a	0.07238646
27	0xbd4df9e9	-0.05028716
28	0xbd863735	-0.06553499
29	0xbcc5df30	-0.024154276
30	0x3d6ee44f	0.0583232
31	0x3aad622c	0.001322811
32	0xbd1920c1	-0.037384752
33	0xbd9e2622	-0.07722117
34	0x3c9090e3	0.017647212
35	0x3d20b36e	0.039233617
36	0xbbbdb373	-0.0057892143
37	0x3d8a9d08	0.067682326
38	0x3adca92e	0.0016835087
39	0x3c5b1b5a	0.01337322
40	0xbcd7f705	-0.026362905
41	0xbd19ac72	-0.037517972
42	0x3d577b69	0.052607927
43	0xbd1c73e7	-0.03819647
44	0xbc42a066	-0.011879062
45	0x3c6a863f	0.014314233
46	0xbd00caa7	-0.031443264
47	0x3d8197bf	0.063277714
48	0x3cf29e06	0.029616367
49	0xbc0cb88a	-0.008588919
50	0x3c2edac7	0.010672278
51	0x3ca9af65	0.020713517
52	0xbd7f86f8	-0.062384576
53	0xbd266484	-0.040623203
54	0x3d893992	0.06700434
55	0xbd475b88	-0.048671275
56	0x3cec2681	0.028826954
57	0xbd53bd58	-0.051694244
58	0xbd38b6e3	-0.04509629
59	0xbd79855b	-0.060918193
60	0xbd3a0531	-0.045415107
61	0x3d550f8f	0.05201679
62	0x3d881dd5	0.06646315
63	0x3cf0abe8	0.029378846
64	0x3d39c960	0.04535806
65	0xbd6cee96	-0.05784472
66	0x3d46f44b	0.04857282
67	0x3d90cd06	0.07070355
68	0x3d280fbd	0.041030634
69	0xbc778c85	-0.015109186
70	0xbd3154a0	-0.043293595
71	0xbd325934	-0.043542102
72	0xbcb6fccc	-0.02233734
73	0x3d40e296	0.04709109
74	0x3d7cb059	0.061691616
75	0x3c697f92	0.014251607
76	0x3d1689d3	0.036752533
77	0xbc91d66f	-0.017802445
78	0xbd9107b1	-0.07081545
79	0x3d993914	0.0748159
80	0x3d816c9b	0.06319543
81	0x3d25aa2d	0.040445495
82	0x3d885b88	0.06658083
83	0x3d5271fe	0.051378243
84	0x3d469ab7	0.04848739
85	0x3d06cb15	0.032908518
86	0x3d921b6a	0.07134135
87	0xbd386730	-0.045020282
88	0xbd181f4c	-0.037139222
89	0x3d8c7f66	0.06860237
90	0xbd7d0321	-0.061770562
91	0xbd1917a7	-0.037376072
92	0xba570947	-0.00082029816
93	0x3d8d137c	0.06888482
94	0xbbeac83e	-0.007164984
95	0x3d15bd69	0.03655759
96	0xbc001fa9	-0.007820048
97	0xbc32f875	-0.010923495
98	0xbbb76f08	-0.0055979528
99	0x3d683e5f	0.056700107
100	0x3bd0458a	0.006355946
101	0x3ba163d5	0.004925231
102	0xbb5b58a0	-0.0033469573
103	0x3d1ef26b	0.038805407
104	0xbd6e9d53	-0.058255505
105	0xbd772f9f	-0.06034815
106	0xbd294298	-0.041323274
107	0x3d17c400	0.037052155
108	0xbcdf6899	-0.027271556
109	0xbd2aec56	-0.041729294
110	0xbd4c1a29	-0.049829636
111	0x3d7826b5	0.06058379
112	0x3b34e56a	0.0027602562
113	0xbd062b4e	-0.032756142
114	0xbd591647	-0.05299976
115	0xbd8d3f71	-0.06896866
116	0xbd670de5	-0.056409735
117	0xbd15a32c	-0.036532566
118	0xbd2174a8	-0.039417893
119	0xbd839a46	-0.0642591
120	0x3d4e973a	0.05043719
121	0x3d3da949	0.04630402
122	0x3d7640f0	0.060120523
123	0x3ced9768	0.02900286
124	0x3c65e9e2	0.014032813
125	0x3c9e03b9	0.019288884
126	0x3c9c5c1a	0.019086886
127	0xbcba7f0e	-0.022765663
128	0xbc6893f4	-0.014195431
129	0xbc51ef54	-0.012813408
130	0x3d3f5b29	0.046717796
131	0x3d2a9b33	0.041651916
132	0xbd5ba839	-0.053627227
133	0xbd788292	-0.060671397
134	0xbcab6e7c	-0.020926706
135	0xba871eb3	-0.0010308832
136	0x3d5788e3	0.05262078
137	0xbc976c96	-0.018484395
138	0x3c911dc0	0.017714381
139	0xbcd38c2c	-0.025823675
140	0xbd106375	-0.0352511
141	0xbc17d143	-0.0092662005
142	0x3d162470	0.036655843
143	0xbd0447d0	-0.03229505
144	0x3d03edf0	0.032209337
145	0x3d50b065	0.050949473
146	0xbd9640eb	-0.07336601
147	0xbd7b449f	-0.06134474
148	0xbd3a350f	-0.045460757
149	0xbce85230	-0.028359503
150	0x3d04f151	0.0324567
151	0x3d8a6d9a	0.06759186
152	0xbd9727b5	-0.073806204
153	0x3c2f718e	0.010708226
154	0xbcfe6601	-0.031054499
155	0x3bcaceee	0.0061892187
156	0xbbc4c610	-0.006005056
157	0xba0e0fd6	-0.000541923
158	0xbac62170	-0.0015116166
159	0x3cd3bda1	0.025847258
160	0x3d679d20	0.05654633
161	0x3d146bfb	0.03623579
162	0x3c185b2c	0.009299081
163	0x3c264252	0.010147648
164	0x3d10ad01	0.03532124
165	0xbb857079	-0.0040722457
166	0x3c29143c	0.010319766
167	0xbcad88eb	-0.021183452
168	0xbd794a47	-0.060861852
169	0x3b141c61	0.0022599923
170	0xbc9962ef	-0.018723933
171	0x3d80bb48	0.06285721
172	0xbd8f9328	-0.0701049
173	0x3d727b74	0.059199765
174	0x3d086c05	0.03330614
175	0xbd495856	-0.04915651
176	0x3d9b689c	0.07588312
177	0x3d106673	0.035253953
178	0xbd868fdc	-0.06570408
179	0x3d359051	0.044327084
180	0xbb65d57b	-0.0035069871
181	0xbd1f91a9	-0.03895727
182	0x3d2e1300	0.04249859
183	0xbcbae58d	-0.022814536
184	0x3d3e4358	0.046450943
185	0x3d02ac6e	0.031902723
186	0x3c466122	0.012108119
187	0x3d722ebe	0.059126608
188	0x3a858981	0.0010188074
189	0x3cff8cdf	0.031195102
190	0xbd1d2196	-0.03836211
191	0xbd409cac	-0.047024414
192	0xbbb6099f	-0.005555346
193	0xbc4886a7	-0.012239135
194	0x3bf79bdf	0.007556423
195	0xbd369591	-0.04457623
196	0x3cabf0b3	0.020988798
197	0x3d831f05	0.06402401
198	0x3d789bd1	0.060695473
199	0x3cd59bb1	0.026075216

weight f4 [200, 14]
0	0x3e470b2f	0.1943786
1	0x3ae9b667	0.0017830849
2	0xbe74e660	-0.23916006
3	0x3c1ac558	0.0094464645
4	0xbc057804	-0.00814629
5	0x3dcf8811	0.101333745
6	0xbe09ce08	-0.13457501
7	0x3de44bb4	0.11147252
8	0x3dffafea	0.12484725
9	0xbce5e18c	-0.02806165
10	0x39670e76	0.00022035264
11	0xbd391557	-0.045186367
12	0x3e04122e	0.1289756
13	0x3dc30ded	0.095241405
14	0xbe774840	-0.24148655
15	0x3e690138	0.22754371
16	0x3ccd4f52	0.025062237
17	0x3d8e3981	0.06944562
18	0x3e4842d3	0.19556741
19	0xbe138996	-0.14407954
20	0x3dac9a11	0.08427823
21	0xbe4d1dd3	-0.20030908
22	0xbe3864e9	-0.18007244
23	0x3e4ce49b	0.20009081
24	0x3e457f89	0.19286932
25	0xbe4b4469	-0.19850315
26	0x3d5d8929	0.054085884
27	0xbe000e84	-0.12505537
28	0xbe8582cc	-0.26076353
29	0x3c6d234c	0.014473747
30	0xbe26b068	-0.16278231
31	0xbe2ebdea	-0.17064634
32	0xbe22e009	-0.15905775
33	0xbe68f25e	-0.22748706
34	0x3e4265e0	0.18984175
35	0x3e0172af	0.12641405
36	0x3df90e92	0.12160982
37	0x3e4a19ee	0.19736454
38	0xbd5eb41a	-0.054370977
39	0xbe4ad6b5	-0.19808467
40	0x3e59321f	0.21210526
41	0xbe381c6e	-0.17979595
42	0xbdef812a	-0.11694558
43	0x3e0e072f	0.13869928
44	0x3e3cdd2b	0.18443744
45	0x3e384ea2	0.17998746
46	0x3d9db484	0.07700446
47	0x3d6a3fbf	0.0571897
48	0xbd207cd3	-0.03918154
49	0xbe414d98	-0.18877256
50	0x3e1a62e3	0.15076785
51	0xbe39ee86	-0.18157396
52	0x3daa4e90	0.08315766
53	0xbda7d8b3	-0.08195629
54	0x3e51eff2	0.20501688
55	0x3e5bc010	0.21459985
56	0xbe15811c	-0.14600033
57	0xbe4af110	-0.1981852
58	0x3ca5cc17	0.02023892
59	0xbe544f1d	-0.20733304
60	0x3dc5cb02	0.09657861
61	0x3e6596c5	0.22420795
62	0xbe633fee	-0.22192356
63	0x3e2b087d	0.16702457
64	0x3d110695	0.035406668
65	0x3e777f6e	0.24169704
66	0xbdc740a3	-0.09729125
67	0x3e89ca54	0.26912177
68	0x3e849c14	0.25900328
69	0xbe11e3c6	-0.14247045
70	0xbe197bc9	-0.14988627
71	0x3e59d3bf	0.21272181
72	0x3de5828b	0.1120654
73	0xbdeedc83	-0.11663153
74	0xbd925192	-0.071444646
75	0x3c99e0ab	0.018783888
76	0x3dafc84a	0.08583124
77	0xbdcc769b	-0.0998356
78	0xbe2a0318	-0.16602743
79	0xbe1ebdf4	-0.15502149
80	0x3d1ff5b1	0.03905267
81	0x3e6e8adb	0.23295157
82	0xbd13562a	-0.035970844
83	0xbe570757	-0.20998894
84	0x3d72e587	0.059300926
85	0xbe509b3c	-0.20371717
86	0x3e48ba25	0.19602259
87	0xbe6f5d26	-0.23375377
88	0xbd436445	-0.047703046
89	0xbd3f6b35	-0.0467331
90	0x3da79ecd	0.08184586
91	0xbe61f057	-0.22064339
92	0xbe01c43c	-0.12672514
93	0x3de4be5a	0.11169119
94	0x3e5a6fd5	0.21331723
95	0xbe046c18	-0.1293186
96	0xbe4a210d	-0.1973917
97	0xbe266bd1	-0.16252066
98	0xbe43c8c1	-0.1911955
99	0x3e5f6c20	0.2181859
100	0x3c938705	0.018008718
101	0x3e28e441	0.16493322
102	0xbe7d78bc	-0.24753088
103	0xbe108599	-0.14113463
104	0xbd7eaa5f	-0.062174197
105	0xbd4db5b0	-0.0502221
106	0x3b03f5d2	0.0020135534
107	0xbc2a28a4	-0.010385666
108	0x3e29da9c	0.16587299
109	0xbcbbe4f1	-0.022936316
110	0xbe6584d1	-0.22413947
111	0xbe6848e2	-0.22684053
112	0x3e46aa1b	0.19400828
113	0xbcc83eed	-0.024444068
114	0xbde0362d	-0.10947833
115	0x3dc66498	0.096871555
116	0xbe3dc8fd	-0.18533702
117	0xbcd13a4e	-0.025540497
118	0x3e85d287	0.26137182
119	0xbe65ec3f	-0.22453402
120	0x3d2b5793	0.041831564
121	0x3d0439f8	0.032281846
122	0x3e7d69c3	0.24747376
123	0x3d2a7f46	0.041625284
124	0xbe07b4f7	-0.13252626
125	0xbd8e7a98	-0.06956977
126	0xbe4bc867	-0.19900666
127	0xbd3358d5	-0.04378589
128	0x3e8678f8	0.26264167
129	0x3e16da1a	0.14731637
130	0x3e837f80	0.25683212
131	0x3e1e87c9	0.15481485
132	0xbdd80bd8	-0.10549134
133	0xbc967957	-0.018368406
134	0xbe6bc0ca	-0.23022762
135	0x3e1d2cba	0.15349093
136	0x3df37e64	0.118893415
137	0x3e8521e6	0.26002425
138	0xbe38e9ca	-0.18057933
139	0x3dd62c9d	0.10457728
140	0x39fc3787	0.00048106557
141	0x3db1b6df	0.08677458
142	0xbd46f1f7	-0.0485706
143	0x3d91b710	0.071149945
144	0xbdebce53	-0.115139626
145	0x3ca51b5f	0.020154653
146	0x3e17e751	0.14834334
147	0xbe4f0220	-0.20215654
148	0xbd98dffe	-0.07464598
149	0xbe05fb22	-0.13084081
150	0xbda127af	-0.07868897
151	0x3e82648f	0.25467345
152	0x3c5bc0fc	0.01341271
153	0x3c91e3d1	0.017808827
154	0xbe3cdfde	-0.18444774
155	0x3dcdd5fb	0.10050579
156	0x3d6ccd21	0.057812814
157	0xbdb19b33	-0.0867218
158	0xbd15114a	-0.03639344
159	0xbdeae394	-0.11469188
160	0x3cf0a92c	0.029377542
161	0xbe72868c	-0.23684138
162	0xbe1e9beb	-0.15489165
163	0xbddcdb22	-0.10783984
164	0x3e328bdc	0.17436165
165	0x3e1aff21	0.15136386
166	0xbe14691a	-0.14493218
167	0xbd630d00	-0.05543232
168	0x3cc621ee	0.0241861
169	0x3dd84865	0.10560683
170	0x3e0de544	0.13856989
171	0x3dd06689	0.10175807
172	0xbd24fadd	-0.040278304
173	0x3e7dc408	0.24781811
174	0xbdff7b17	-0.124746494
175	0x3e1fc1fa	0.1560134
176	0xbe636973	-0.22208194
177	0xbe88bc81	-0.26706317
178	0x3e1ab76a	0.1510903
179	0xbc97a746	-0.01851238
180	0xbe3be413	-0.18348722
181	0x3b49a0c1	0.0030765983
182	0x3e1496a6	0.14510593
183	0x3e04ab1e	0.12955901
184	0xbe3a4f8f	-0.18194412
185	0x3e3ace9e	0.1824288
186	0xbe40d2ad	-0.18830366
187	0x3e1e98b8	0.15487945
188	0xbe4329f0	-0.19058967
189	0x3d30552f	0.043049987
190	0xbdbe3b27	-0.09288626
191	0xbe13eb7c	-0.14445299
192	0xbe4d6156	-0.20056662
193	0xbddaa873	-0.106766604
194	0xbdd5ffd1	-0.10449184
195	0xbcadc27b	-0.0212109
196	0x3e7478e8	0.23874247
197	0xbdc9116e	-0.098177776
198	0xbd6fac55	-0.058513958
199	0xbe70d254	-0.23517734
200	0xbe519d47	-0.20470153
201	0x3da6ba7d	0.081410386
202	0xbdc615ff	-0.09672164
203	0x3e209c6c	0.1568467
204	0xbe2f848f	-0.17140411
205	0x3cb6980f	0.022289304
206	0x3e83bdc5	0.2573072
207	0xbe47cca2	-0.19511655
208	0xbe6c1f09	-0.23058714
209	0xbd83025d	-0.06396935
210	0x3e17a9b5	0.14810832
211	0x3dc7c955	0.09755198
212	0xbe41c0c2	-0.18921188
213	0xbcc4b7b5	-0.02401338
214	0x3e8629e6	0.2620384
215	0xbdcf8375	-0.10132495
216	0xbe2b9a60	-0.16758108
217	0xbe634615	-0.22194703
218	0x3d25f2c6	0.04051473
219	0xbdd5c223	-0.10437419
220	0xbd9ab265	-0.07553557
221	0xbe36593b	-0.17807476
222	0xbd257128	-0.040391117
223	0xbcff68e3	-0.031177944
224	0xbcb9bd8d	-0.022673393
225	0xbe08b43f	-0.13350008
226	0x3d6e13eb	0.058124464
227	0xbd70ad63	-0.058759104
228	0xbe7dc277	-0.24781214
229	0x3dfff08b	0.12497052
230	0xbdf5eb29	-0.12007744
231	0x3d85d705	0.06535152
232	0x3e5ce460	0.21571493
233	0xbd8aaf64	-0.06771734
234	0xbe2bdb86	-0.1678296
235	0x3c4ce333	0.01250534
236	0xbe1a3524	-0.15059334
237	0xbd6f4af6	-0.058421098
238	0x3e3d2d33	0.18474273
239	0x3e2f4164	0.17114788
240	0x3e0ceec0	0.13762951
241	0xbdc15350	-0.09439719
242	0x3e393c21	0.18089344
243	0x3e5fe1b8	0.21863449
244	0x3e855354	0.26040137
245	0xbe85c3eb	-0.26126036
246	0xbdc5ca8b	-0.09657773
247	0xbd3d7b62	-0.046260245
248	0x3ddb1fd4	0.1069943
249	0x3da62b37	0.08113711
250	0x3deb9453	0.115029
251	0xbd0e3993	-0.034722876
252	0xbe51946d	-0.20466776
253	0xbc964026	-0.018341135
254	0x3d3a9e94	0.045561388
255	0x3e84d899	0.259465

bias f4 [200]
0	0xbe1159c6	-0.14194402
1	0x3e148e9f	0.1450753
2	0x3dd7542d	0.10514102
3	0x3dc66152	0.09686531
4	0x3d4bd554	0.049763992
5	0x3e40a34a	0.1881229
6	0x3d80c738	0.06287998
7	0xbe76e45c	-0.2411055
8	0x3e73a04d	0.23791619
9	0x3c6c6c5b	0.014430131
10	0xbda5ff24	-0.08105305
11	0x3e355103	0.17706685
12	0x3e839f09	0.25707272
13	0xbd9ca9e4	-0.076495916
14	0xbe83651a	-0.25663072
15	0x3e6ca744	0.23110682
16	0xbd88c4bc	-0.06678149
17	0x3e290d90	0.1650908
18	0x3d05892b	0.032601517
19	0x3e8669fd	0.26252738
20	0x3e57cd3d	0.21074386
21	0xbe2dbe68	-0.16967165
22	0x3e58c7d0	0.21169972
23	0x3d61b0bc	0.055100188
24	0x3daa74d3	0.08323064
25	0xbdb598f7	-0.08867066
26	0xbe005814	-0.12533599
27	0xbe6e11d9	-0.23248996
28	0x3e6284de	0.22120997
29	0x3da1570a	0.078779295
30	0x3e8c972a	0.2745908
31	0x3e7828ca	0.2423431
32	0xbd85f0b8	-0.06540054
33	0x3d41fe6f	0.047361787
34	0x3e593023	0.21209769
35	0xbe42c229	-0.19019379
36	0xbdfc7ee7	-0.12328892
37	0xbc1941c2	-0.009354057
38	0x3dc3d6cd	0.095624544
39	0x3e80b749	0.25139835
40	0x3e17abb3	0.14811592
41	0x3e5c9c5d	0.21544023
42	0x3dbb68d0	0.09150851
43	0xbda880c4	-0.08227685
44	0xbe275597	-0.16341244
45	0x3dec4d35	0.115381636
46	0xbd89d961	-0.06730915
47	0xbe832033	-0.25610504
48	0x3d440524	0.047856465
49	0xbdfef8a1	-0.12449766
50	0xbd9029c1	-0.07039214
51	0x3e19b8aa	0.1501185
52	0x3d89ff0f	0.06738102
53	0xbe7ce0d8	-0.24695146
54	0xbdf124e4	-0.117746145
55	0xbe878b0f	-0.2647328
56	0xbd95035e	-0.07276033
57	0xbd98ecde	-0.07467054
58	0xbd157141	-0.03648496
59	0xbe346a06	-0.1761857
60	0xbe370533	-0.17873077
61	0xbd9cb1b8	-0.07651085
62	0x3e391ee9	0.18078198
63	0x3d5dbb0d	0.054133464
64	0xbd74c077	-0.05975386
65	0x3e02ca45	0.12772472
66	0xbdd72e5b	-0.105068885
67	0x3e1b53a6	0.15168628
68	0xbe150946	-0.14554319
69	0x3c3995bc	0.011327203
70	0xbdc9cd6e	-0.09853636
71	0xbd4b6069	-0.04965249
72	0x3cdb6fe8	0.02678676
73	0xbd1306cc	-0.035895154
74	0xbe5c8cf1	-0.2153814
75	0xbe1ca472	-0.15297106
76	0xbd547fe4	-0.05187978
77	0xbe47f945	-0.19528683
78	0xbda07f78	-0.07836813
79	0xbe544ce2	-0.20732453
80	0x3e094fe5	0.13409384
81	0x3e022ed7	0.1271318
82	0xbd2ddc74	-0.04244657
83	0xbe3cb9a8	-0.18430197
84	0xbd251556	-0.04030355
85	0x3d93588f	0.071946256
86	0xbe5035d8	-0.2033304
87	0xbe20ebb4	-0.15714914
88	0x3e217d2e	0.15770409
89	0xbe269c37	-0.16270529
90	0x3e35c353	0.17750292
91	0x3e7fbbc9	0.24973978
92	0xbdb67e6f	-0.08910834
93	0xbe495011	-0.19659449
94	0xbe5b712b	-0.21429889
95	0x3e6efa74	0.23337728
96	0xbd3d7c22	-0.04626096
97	0xbe67484c	-0.22586173
98	0x3e2eeffc	0.17083734
99	0x3e22e92d	0.15909262
100	0x3e0b7c42	0.1362162
101	0xbd5f47e5	-0.054511923
102	0x3e51baf1	0.20481469
103	0x3d3b8bf0	0.04578775
104	0x3dbb973e	0.091597065
105	0xbd307429	-0.04307953
106	0x3d9c4f49	0.0763231
107	0x3e23d376	0.15998635
108	0xbd1566fc	-0.036475167
109	0xbe4bd20c	-0.19904345
110	0xbdb8727b	-0.090062104
111	0x3e305a18	0.17221868
112	0xbdad3e43	-0.08459141
113	0x3e76ef87	0.2411481
114	0x3df11336	0.11771242
115	0x3e01cee7	0.12676583
116	0xbe7a323a	-0.24433222
117	0xbe0b7f10	-0.13622689
118	0xbe243b07	-0.16038142
119	0xbd8b83a0	-0.06812215
120	0xbdeb3dd8	-0.11486405
121	0xbe6198bb	-0.22030918
122	0xbe6bae6f	-0.2301576
123	0x3dfcc367	0.123419575
124	0xbdf45777	-0.11930745
125	0x3d136e92	0.03599412
126	0xbdedf559	-0.11619062
127	0xbe7b742a	-0.24556032
128	0x3e255777	0.16146646
129	0xbdccaadb	-0.099935256
130	0x3e12b650	0.14327359
131	0xbe485264	-0.1956268
132	0xbda69652	-0.0813414
133	0x3e7b7f3b	0.24560253
134	0x3cc5cd2b	0.024145683
135	0xbe6d5bd9	-0.23179568
136	0x3d8dabf6	0.069175646
137	0xbe0c000c	-0.13671893
138	0xbd29146c	-0.04127924
139	0x3d9d606c	0.07684407
140	0xbd544f83	-0.05183364
141	0x3d86650e	0.065622434
142	0x3db23087	0.08700662
143	0xbdce590b	-0.10075577
144	0x3e88e2d4	0.26735556
145	0x3e0a0481	0.1347828
146	0xbd0f9eee	-0.035063677
147	0x3d78f2bf	0.060778376
148	0x3e16263c	0.14663023
149	0x3e2fd60a	0.17171493
150	0x3dd53d8e	0.10412131
151	0xbdaeade2	-0.08529259
152	0xbb7cdd9f	-0.0038584245
153	0xbe408028	-0.18798888
154	0xbe39fb53	-0.18162279
155	0xbe1b6e9f	-0.15178917
156	0x3e3e9762	0.18612435
157	0xbe5d030d	-0.21583195
158	0xbd4cd2e9	-0.050005827
159	0x3e3f4534	0.18678743
160	0xbe2669da	-0.16251317
161	0x3c242375	0.010018219
162	0xbe563ae8	-0.20920908
163	0x3e322cba	0.17399874
164	0xbd398220	-0.045290112
165	0xbe30f1f0	-0.17279792
166	0x3e7b5c8a	0.2454702
167	0x3e563268	0.20917666
168	0xbe44aae3	-0.19205813
169	0xbcdfc8ba	-0.027317394
170	0xbe338027	-0.17529355
171	0x3d02fc14	0.03197868
172	0xbd4ea114	-0.050446585
173	0x3e5f284f	0.2179272
174	0x3e2f6e83	0.17132
175	0xbbf0dfe7	-0.00735091
176	0xbe723104	-0.2365151
177	0x3e1622e3	0.14661746
178	0xbd3407a6	-0.043952607
179	0x3e801d59	0.2502239
180	0xbe22b8f9	-0.15890874
181	0xbd913cdb	-0.070916854
182	0xbe7111ac	-0.23541898
183	0x3e512037	0.20422445
184	0x3dca57c1	0.09880019
185	0x3cbd7ae2	0.023129884
186	0xbe305ee0	-0.17223692
187	0xbe3bb02c	-0.18328923
188	0x3da8e26a	0.0824631
189	0x3e25dab6	0.16196713
190	0xbdc8fdbf	-0.09814023
191	0x3e413cce	0.18870851
192	0xbd8f86c2	-0.07008125
193	0xbdd2edca	-0.10299261
194	0xbc2f2abe	-0.010691343
195	0x3e844b11	0.2583852
196	0x3e6c291c	0.23062557
197	0x3e5d8a13	0.21634702
198	0x3de62618	0.112377346
199	0x3e2b4a3a	0.16727534

weight f4 [200, 200]
0	0x3bf1fb04	0.0073846597
1	0x3c4ab75a	0.012372816
2	0x3b77dbbe	0.0037820186
3	0x3c156a15	0.00911953
4	0xbbcd900f	-0.0062732766
5	0xbd1b2947	-0.037881162
6	0xbc3aaa20	-0.0113931
7	0x3d2a60b8	0.041596144
8	0x3d9b3ed7	0.07580345
9	0x3c8cdd46	0.017195355
10	0xbc1c92f1	-0.009556518
11	0xbc69772c	-0.014249604
12	0x3d8325b8	0.06403679
13	0xbd026c3a	-0.031841494
14	0xbcec7945	-0.02886642
15	0xbd32fd79	-0.04369876
16	0xbb453e3e	-0.0030096914
17	0xbd1f0723	-0.038825165
18	0xbccbfdc8	-0.024901286
19	0x3c9680c1	0.018371942
20	0x3d3d92da	0.046282627
21	0x3daa9b97	0.08330458
22	0x3d945b59	0.07243986
23	0xbd0ddb99	-0.034633253
24	0x3d7b4a40	0.061350107
25	0x3ce09082	0.027412657
26	0xbd6174c3	-0.055042993
27	0xbc109017	-0.008823416
28	0x3cbdacd3	0.023153698
29	0x3d5b6fc1	0.053573374
30	0x3d46911f	0.048478242
31	0x3d0eebf2	0.034892984
32	0xbc3e44b0	-0.011613056
33	0x3d1c7f98	0.03820762
34	0xbcce5318	-0.025186107
35	0x3d5a3761	0.05327547
36	0xbd817985	-0.06322006
37	0x3d1bcc4d	0.038036633
38	0x3cc9eb4a	0.024648327
39	0xbd39907a	-0.0453038
40	0xbb524c80	-0.0032089055
41	0xbd0adba7	-0.033900883
42	0xbd7e60b1	-0.06210393
43	0x3cd7cc06	0.026342403
44	0x3c02f7da	0.007993663
45	0x3d7ac5d8	0.061223835
46	0xbcd9496f	-0.026524274
47	0xbd58ba3a	-0.052911974
48	0x3ce60756	0.02807967
49	0x3c864bad	0.016393507
50	0xbd52b4bf	-0.051441904
51	0xbd4c4dca	-0.049878873
52	0x3ce976aa	0.028498966
53	0x3d3d53a1	0.046222333
54	0x3cbc0944	0.022953637
55	0xbc638c45	-0.013888423
56	0xbd32f279	-0.04368827
57	0x3b71d1ee	0.003689881
58	0xbc36c6c8	-0.011155792
59	0x3cfbda71	0.03074381
60	0xbd3044b9	-0.04303429
61	0x3bbe3950	0.005805172
62	0xbd374084	-0.04473926
63	0x3d2a27e1	0.041541938
64	0x3d944a9f	0.07240795
65	0x3cb57887	0.022152198
66	0xbcae7521	-0.021296086
67	0xbc83eee1	-0.016105117
68	0x3d43db19	0.04781637
69	0x3aff80c5	0.0019493332
70	0x3d915ab8	0.07097381
71	0x3ca73739	0.020412074
72	0xbd57a53a	-0.052647807
73	0x3d4d71f7	0.050157513
74	0xbc46897d	-0.012117741
75	0xbb64eb99	-0.0034930466
76	0xbcaac3ef	-0.020845382
77	0xbd84e5cc	-0.06489143
78	0xbb6cb54e	-0.0036118808
79	0xbd6224f5	-0.055211026
80	0xbd0eefa4	-0.034896508
81	0x3d024464	0.031803504
82	0x3c41c5f9	0.0118269855
83	0xbd2ef1d2	-0.042711087
84	0x3c036edb	0.0080220355
85	0x3d1e7b9f	0.038692113
86	0xbc9fa1a3	-0.019486254
87	0x3d44a500	0.04800892
88	0xbc954572	-0.01822159
89	0xbd372a90	-0.044718325
90	0x3da49608	0.08036429
91	0x3d758ab4	0.05994673
92	0x3c9af603	0.018916136
93	0x3b0e477f	0.0021710095
94	0xbd64cbc4	-0.05585839
95	0xbb96c782	-0.00460142
96	0x3c437d34	0.011931706
97	0x3c1666ef	0.009179815
98	0xbd758661	-0.059942607
99	0xbbe49d2e	-0.006976745
100	0xbd25b2e3	-0.040453803
101	0xbd01df99	-0.03170738
102	0x3c967b40	0.018369317
103	0xbccc459b	-0.024935534
104	0xbd42452b	-0.047429245
105	0x3b269c97	0.0025422925
106	0x3ca7f699	0.02050333
107	0xbbdb7d07	-0.006698254
108	0xbc2b1edf	-0.010444372
109	0xbd6526c1	-0.05594516
110	0x3c1c5f7d	0.009544251
111	0xbd689ad9	-0.0567883
112	0xbc418db8	-0.011813574
113	0xbbf9e25e	-0.007625862
114	0x3d87fbe2	0.0663984
115	0xbd8cf173	-0.0688199
116	0xbd84392f	-0.064562194
117	0xbd356855	-0.044288952
118	0xbd49a94b	-0.049233716
119	0xbcf74257	-0.030183
120	0x3d843daa	0.06457074
121	0x3cfdd19a	0.030983735
122	0x3cd4d01a	0.025978137
123	0xbd050c62	-0.032482512
124	0x3d83fea7	0.064450555
125	0x3d6788e0	0.05652702
126	0xbce4a526	-0.02791078
127	0x3ce7387a	0.028225172
128	0x3d920c3b	0.07131239
129	0xbd163dfe	-0.036680214
130	0xbd091d71	-0.033475343
131	0xbd30ac84	-0.043133274
132	0x3c8df212	0.017327342
133	0xbd0064e8	-0.03134623
134	0xbc9444a6	-0.01809914
135	0x3be210b5	0.0068989643
136	0xbbd5b7ef	-0.0065221707
137	0x3d2115a0	0.039327264
138	0xbd6910f0	-0.05690092
139	0x3d9e591a	0.077318385
140	0x3b0edea8	0.0021800194
141	0x3d240f4e	0.04005366
142	0x3d5fbc49	0.054622922
143	0x3cf52718	0.029925868
144	0xbccc9904	-0.024975307
145	0x3d3bd22d	0.045854736
146	0x3befd29f	0.007318809
147	0x3d936fcd	0.07199059
148	0xbd66fc56	-0.05639299
149	0xbc1199e4	-0.008886788
150	0x3d9479c1	0.07249785
151	0xbd3a1765	-0.045432467
152	0xbd4f7f3d	-0.050658453
153	0xbb484d01	-0.0030563476
154	0x3ac6f375	0.0015178757
155	0xbd2df55d	-0.042470325
156	0x3bd0ff27	0.006378073
157	0xbbe1ca69	-0.0068905842
158	0xbc5b5074	-0.013385881
159	0x3d2faf28	0.04289165
160	0xbd6f1197	-0.058366384
161	0x3d3fc3c9	0.046817575
162	0xbd6379b1	-0.055535976
163	0xbd3ef32d	-0.04661863
164	0xbdb2514c	-0.087069124
165	0xbd00598e	-0.031335406
166	0x3d784aba	0.06061814
167	0x3d080635	0.033209044
168	0xbc6d8478	-0.014496915
169	0xbd0f0554	-0.03491719
170	0xbd098bff	-0.033580776
171	0xbd5edcdf	-0.054409858
172	0xbd05b764	-0.032645598
173	0x3ce5587d	0.027996296
174	0x3ce268a0	0.02763778
175	0x3d45dcad	0.048306156
176	0xbd49a9da	-0.04923425
177	0xbcb117bb	-0.02161776
178	0xbc0c260c	-0.008553993
179	0xbd5e6f87	-0.05430558
180	0x3d707d19	0.058713052
181	0xbc7d59ea	-0.015463332
182	0x3c228123	0.009918484
183	0x3d8cd071	0.068756945
184	0x3d33ee05	0.043928165
185	0x3d4b594a	0.0496457
186	0x3c1ff524	0.009763036
187	0xbd7322fb	-0.05935953
188	0xbc40b7ba	-0.011762554
189	0xbc03c1ee	-0.008041842
190	0xbd48f9a6	-0.04906621
191	0xbd18d671	-0.037313882
192	0x3cea929b	0.02863436
193	0x3c0b595c	0.008505192
194	0x3d9a62cb	0.075383745
195	0xbd34e005	-0.044158954
196	0x3d0660df	0.032807227
197	0x3cfb9076	0.030708533
198	0xbd6cc6a8	-0.05780664
199	0xbc043a0f	-0.008070483
200	0x3d684b2c	0.056712314
201	0xbd86c06f	-0.065796725
202	0xbd14dfec	-0.03634636
203	0xbda45f9f	-0.08026051
204	0x3d081b1a	0.03322897
205	0xbb9a9b29	-0.0047182036
206	0xbc127305	-0.008938556
207	0xbc93528d	-0.0179837
208	0xba94b19f	-0.0011344439
209	0xbda23373	-0.079199694
210	0xbd02bffb	-0.031921368
211	0xbd75a478	-0.059971303
212	0xbd493bf8	-0.049129456
213	0x3c96e634	0.018420316
214	0xbc225d1e	-0.009909896
215	0xbd1c932c	-0.03822629
216	0xbd89ca8d	-0.067280866
217	0xbbaaeb2d	-0.0052160234
218	0xbd8fe9d9	-0.07027025
219	0x3d08c9ba	0.033395506
220	0x3d2b8d53	0.041882824
221	0xbcc3bb05	-0.023892889
222	0x3d898cb6	0.067162916
223	0xbd57c4a1	-0.052677754
224	0x3da5af62	0.08090092
225	0xbc4a67a2	-0.01235381
226	0x3d22a29c	0.039705858
227	0x3d0990b9	0.033585284
228	0x3d2790cd	0.040909577
229	0xbd8224f2	-0.06354703
230	0xbcc93ebf	-0.024566052
231	0x3d01872e	0.031623058
232	0xbd086cbd	-0.033306826
233	0xbcc84bc9	-0.0244502
234	0xbd11d062	-0.03559912
235	0xbd63403c	-0.05548118
236	0x3d56f633	0.052480888
237	0xbd588cfa	-0.05286882
238	0x3d0f4db5	0.034986217
239	0x3c80bcc5	0.015715012
240	0x3c4ffca2	0.01269451
241	0x3d82458c	0.06360921
242	0xbd70f446	-0.058826707
243	0xbcbb18eb	-0.02283903
244	0xbd08a004	-0.033355728
245	0xbd0bd5a4	-0.03413929
246	0xba37891c	-0.0007001327
247	0x3d6588f7	0.056038823
248	0xbd8252ad	-0.063634254
249	0xbd596362	-0.053073294
250	0x3d5fb019	0.0546113
251	0xbd5552ea	-0.052081026
252	0xbd7df11d	-0.06199752
253	0x3d417024	0.047226086
254	0xbbca8011	-0.0061798175
255	0x3bccc7f9	0.0062494245
