Vehicles/GenDis/GenDis_actor.pth (torch, 175617 bytes, 5 tensors)

weight f4 [200, 13]
-0.09515613 0.09858367 -0.20794958 0.045695603 0.13473879 -0.109202966 0.032229718 -0.046664942
-0.14786744 0.20935835 -0.050696503 -0.21539083 -0.18023725 0.17232886 0.29928312 -0.068068326
0.03962841 0.02358542 -0.124422066 -0.20925559 -0.11117775 0.19933785 0.21949086 0.12099327
0.109058775 0.08073965 0.086959936 0.07920743 0.017518293 0.14767882 0.26674703 -0.12578712
0.015031517 0.1073593 -0.27133423 -0.25032 -0.16291465 -0.09782956 0.21339355 0.035295174
0.27438876 -0.13679956 -0.2005721 0.23225424 0.22454683 0.09292204 -0.1929955 -0.06817186
-0.009836057 0.1841215 0.24331439 -0.17902696 -0.11432015 0.28903106 0.1753139 -0.2607171
-0.027570233 -0.006037016 0.05866893 0.09607128 -0.019696636 -0.0020204552 0.19386406 -0.08598061
-0.2862526 -0.07194723 -0.08853297 0.2362147 -0.011580609 0.24059694 0.09143573 -0.05706799
0.22574201 0.24857426 -0.15897442 0.03727298 -0.117970966 -0.0124723995 -0.040214684 0.2616216
-0.21080357 -0.20405498 0.18300286 -0.10382296 0.106461 0.031547222 0.16275889 -0.16361566
0.172232 0.1948564 0.093353726 -0.066010825 -0.007149006 -0.28784293 0.08206339 -0.20221509
-0.22899441 0.06375694 -0.13808092 0.21799146 -0.21302688 0.15206458 0.104673356 -0.17767505
-0.30338407 0.07885502 -0.27959228 -0.020282175 -0.29339868 -0.12469885 0.10693971 0.004383388
-0.034827117 -0.042564657 0.19296582 0.09704327 0.081257485 0.23770328 0.19443098 -0.12737928
0.1609825 0.017923174 -0.10075767 -0.1285766 -0.19452432 -0.022489041 0.13949789 0.16444016
-0.1176978 -0.2806432 0.13430564 -0.0022385176 -0.035554886 -0.049345583 -0.15972438 0.26718926
0.15751597 -0.14697298 0.23215058 -0.21444523 0.19140573 -0.26997027 -0.21717058 0.13731673
0.1745061 -0.021726124 -0.27270612 -0.22329178 -0.13131237 0.10578695 -0.096212305 0.068943486
0.21671495 0.23627532 0.051234804 0.14766337 -0.28651747 -0.19445755 0.026974613 0.10871478
0.19346434 -0.13848688 -0.31708607 0.1328149 0.05125798 -0.07327646 0.20725518 0.20194039
-0.06912994 0.21264021 -0.06618459 -0.2547969 -0.17134528 0.20102082 -0.053640038 0.24300243
0.07672176 -0.20553376 -0.17142414 -0.04994657 -0.073974736 0.047434427 -0.043922424 0.051315673
-0.07779511 -0.016946286 -0.07399221 -0.06562314 0.02815778 0.07354319 0.2593584 -0.14076811
-0.23067202 0.023565335 0.026003664 -0.10534512 0.27953756 -0.23343831 -0.08451722 0.21996582
0.18676049 -0.067743406 -0.24620263 0.1379317 0.09352117 0.071524985 -0.23172373 0.01799741
-0.28035817 -0.028225936 -0.2289555 -0.2702787 -0.21692175 0.22527297 0.24063545 -0.2327882
0.23113142 -0.015492039 0.12971573 -0.1069421 0.06909799 -0.25971082 0.07772793 -0.16051784
-0.060665365 -0.02663277 -0.21645634 0.15409908 -0.22940126 0.21888216 0.16057885 -0.014318688
-0.25280282 -0.049475435 -0.21902785 -0.25016066 -0.20026748 0.113628455 -0.25316742 0.001355494
0.2320469 0.13630407 0.0032246988 -0.023417907 -0.042415887 -0.18405436 -0.21898083 0.10474821
0.30082485 -0.3055112 0.20089215 0.18050584 0.17135714 -0.27259701 -0.042007335 -0.012414658
00000000: 38e1 c2bd 3ce6 c93d bcf0 54be 502b 3b3d
00000010: f7f8 093e cea5 dfbd 4f03 043d bd23 3fbd
00000020: 906a 17be 0962 563e 23a7 4fbd 6a8f 5cbe
00000030: 1d90 38be fa76 303e a33b 993e 6867 8bbd
00000040: 6651 223d 3636 c13c ffd0 febd 1947 56be
00000050: 29b1 e3bd 391f 4c3e 36c2 603e 52cb f73d
00000060: 355a df3d d45a a53d 0d18 b23d 8137 a23d
00000070: 8682 8f3c 1e39 173e 1193 883e 57ce 00be
00000080: c046 763c 31df db3d 52ec 8abe f129 80be
00000090: 19d3 26be dd5a c8bd d783 5a3e ac91 103d
000000a0: af7c 8c3e 2f15 0cbe c662 4dbe 0ed4 6d3e
000000b0: 9bef 653e e94d be3d 9da0 45be b09d 8bbd
000000c0: 6a27 21bc 598a 3c3e 6827 793e d852 37be
000000d0: af20 eabd e1fb 933e 7d85 333e b67c 85be
000000e0: f8da e1bc 29d2 c5bb d54e 703d 05c1 c43d
000000f0: d75a a1bc 9d69 04bb 4d84 463e 9a16 b0bd
00000100: b38f 92be 1259 93bd c650 b5bd 44e2 713e
00000110: 98bc 3dbc 0b5f 763e a842 bb3d 20c0 69bd
00000120: ea28 673e 408a 7e3e 31ca 22be 8dab 183d
00000130: c39a f1bd 0959 4cbc 27b8 24bd 44f3 853e
00000140: e4dc 57be caf3 50be 1a65 3b3e 22a1 d4bd
00000150: 3a08 da3d a937 013d 44aa 263e dd8a 27be
00000160: 965d 303e 7088 473e 3d30 bf3d af30 87bd
00000170: 3542 eabb 2660 93be da10 a83d 7911 4fbe
00000180: 837d 6abe 0093 823d 1665 0dbe 2739 5f3e
00000190: b823 5abe d1b6 1b3e fc5e d63d 73f0 35be
000001a0: 2855 9bbe be7e a13d b826 8fbe ce26 a6bc
000001b0: 5a38 96be 1c62 ffbd 3503 db3d 86a2 8f3b
000001c0: e1a6 0ebd 4758 2ebd d598 453e 9fbe c63d
000001d0: 536a a63d 7d68 733e ea18 473e b76f 02be
000001e0: 99d8 243e 9fd3 923c 0a5a cebd 96a9 03be
000001f0: 6231 47be f03a b8bc 89d8 0e3e 0063 283e
00000200: 8b0b f1bd 77b0 8fbe 6b87 093e 18b4 12bb
00000210: 00a2 11bd 981e 4abd ca8e 23be 08cd 883e
00000220: de4b 213e 1680 16be e2b8 6d3e 8897 5bbe
00000230: ddff 433e 8b39 8abe f761 5ebe c29c 0c3e
00000240: bab1 323e fcfa b1bc 23a0 8bbe 9aa6 64be
00000250: c076 06be d4a6 d83d f50a c5bd 3e32 8d3d
00000260: 86ea 5d3e 28f2 713e 96db 513d 1135 173e
00000270: 6bb2 92be e11f 47be ddf9 dc3c dba5 de3d
00000280: 841b 463e 81cf 0dbe 1b59 a2be a100 083e
00000290: e3f3 513d f811 96bd b43a 543e 76c9 4e3e
000002a0: ff93 8dbd 5bbe 593e c98b 87bd bd74 82be
000002b0: 2375 2fbe 67d8 4d3e a8b5 5bbd a1d5 783e
000002c0: 4c20 9d3d 7177 52be cf89 2fbe c694 4cbd
000002d0: 1180 97bd 9a4a 423d 00e8 33bd 6230 523d
000002e0: 0b53 9fbd f0d2 8abc 3a89 97bd 6d65 86bd
000002f0: 25ab e63c d09d 963d a0ca 843e 8425 10be
00000300: 4935 6cbe 170c c13c a305 d53c 2fbf d7bd
00000310: 8c1f 8f3e 740a 6fbe 5d17 adbd b83e 613e
00000320: 243e 3f3e 0ebd 8abd 8b1c 7cbe f83d 0d3e
00000330: 0788 bf3d b17b 923d fc48 6dbe 4e6f 933c
00000340: 1b8b 8fbe 143a e7bc 5073 6abe f861 8abe
00000350: bc20 5ebe f5ad 663e 2469 763e 0860 6ebe
00000360: b7ad 6c3e 52d2 7dbc 33d4 043e 7604 dbbd
00000370: 3f83 8d3d d1f8 84be d22f 9f3d ca5e 24be
00000380: 3f7c 78bd f82c dabc bba6 5dbe 26cc 1d3e
00000390: 2ae8 6abe a522 603e c86e 243e ee98 6abc
000003a0: 5f6f 81be c1a6 4abd d648 60be 0f15 80be
000003b0: eb12 4dbe 09b6 e83d 299f 81be d5aa b13a
000003c0: b49d 6d3e 4b93 0b3e 7855 533b e9d6 bfbc
000003d0: 48bc 2dbd bf78 3cbe 833c 60be 3b86 d63d
000003e0: b705 9a3e f76b 9cbe acb6 4d3e 86d6 383e
000003f0: 3f78 2f3e d691 8bbe e20f 2cbd da66 4bbc

bias f4 [200]
0.19524863 -0.1066671 0.24491577 -0.0035882685 0.16490796 -0.21703261 0.21161577 -0.07962703
-0.0021424573 0.21300079 -0.10245697 -0.26417208 0.10670705 0.042242896 0.069642566 0.10198173
-0.20807596 -0.051649913 -0.25161546 -0.20869572 -0.19864585 -0.07634517 -0.11526698 -0.031018462
-0.14091244 -0.11437918 -0.18029402 0.084946655 -0.08750434 -0.21579418 0.21602201 -0.03326985
-0.23928297 0.17116252 0.104537435 -0.14793807 -0.25763607 0.15444186 0.21124974 -0.0037047653
-0.06030307 0.09529814 -0.2042016 -0.17054032 -0.118467264 -0.18514387 -0.0034788288 -0.13881923
0.15572512 0.1646002 0.11588357 -0.043362863 0.24388923 -0.10253432 -0.07991567 0.22110927
0.052980926 -0.07339303 0.044838678 -0.19266503 0.12046484 0.22782102 0.017127274 -0.15169255
0.097261995 -0.10359078 -0.023499865 0.22859871 0.24332002 0.14109863 -0.23295394 0.21567714
0.1996576 0.256735 -0.23237309 0.0007526679 -0.00067676516 -0.22779489 -0.20445687 0.085562415
-0.080487214 0.048236914 0.12082461 0.007521377 -0.07992782 0.0021197381 -0.07872542 -0.24271142
0.080232255 -0.07285666 -0.22586206 -0.0622238 -0.23201391 -0.012769758 -0.1603282 -0.13357663
-0.26725534 -0.24033658 0.27290553 0.08863965 0.22476567 0.13997932 -0.19788072 -0.06426738
0.19475226 0.22763425 0.1218415 0.16729587 0.17038184 -0.0767667 0.120805055 -0.13471265
0.046746492 0.2531509 0.21970372 0.19088249 0.11955839 -0.16364889 0.12808575 0.14530809
0.13164492 -0.1760944 0.13400425 0.20666127 -0.046524547 0.07143376 -0.14704593 0.14562398
0.17776144 0.15513633 0.04493057 0.15401608 0.11432452 0.20946681 0.22437336 -0.22686145
0.115316845 -0.04559569 0.24091439 -0.17071354 -0.29018041 0.07899552 0.24869305 -0.1636525
0.094821416 0.1277594 -0.1898251 0.27956843 -0.008387844 -0.15236093 -0.20949858 -0.07312086
-0.093033366 0.1585052 0.09267263 0.20257239 -0.26312575 0.25206906 -0.07113889 0.1642387
-0.12434041 0.18777366 0.0045001903 0.27635366 -0.07326909 -0.16031393 -0.23567234 -0.16199449
-0.035214864 -0.20242237 -0.15434003 0.027326308 0.06426857 -0.04313825 -0.00898612 0.12649429
0.07888353 0.1729761 -0.12816164 -0.05975051 0.015533797 -0.095790885 -0.085246965 0.08842765
-0.1297069 -0.24247044 0.030307362 0.2639129 0.16087028 -0.16594131 0.11482958 -0.27552682
0.12588303 -0.1867783 -0.070572294 -0.15717979 0.0142164985 0.27704602 -0.018464739 -0.25011593
00000000: 42ef 473e 4874 dabd 33cb 7a3e 2829 6bbb
00000010: a2dd 283e cc3d 5ebe ceb1 583e 7f13 a3bd
00000020: 7868 0cbb e11c 5a3e f6d4 d1bd 9041 87be
00000030: 3a89 da3d e306 2d3d c3a0 8e3d ccdb d03d
00000040: dd11 55be dc8e 53bd bed3 80be 55b4 55be
00000050: d169 4bbe db5a 9cbd 1811 ecbd 6e1a febc
00000060: 5a4b 10be a23f eabd ff9e 38be 83f8 ad3d
00000070: 7a35 b3bd 26f9 5cbe e034 5d3e f745 08bd
00000080: 9806 75be 3a45 2f3e b917 d63d 147d 17be
00000090: e0e8 83be 0226 1e3e da51 583e a6cb 72bb
000000a0: 5a00 77bd ac2b c33d 391a 51be 1fa2 2ebe
000000b0: f79e f2bd 5b96 3dbe 10fd 63bb a126 0ebe
000000c0: 6876 1f3e f48c 283e 5d54 ed3d 429d 31bd
000000d0: 19be 793e 83fd d1bd d4aa a3bd 786a 623e
000000e0: 8702 593d 164f 96bd c3a8 373d fb49 45be
000000f0: 45b6 f63d ea49 693e 7f4e 8c3c 4b55 1bbe
00000100: 4c31 c73d 6727 d4bd ca82 c0bc c815 6a3e
00000110: e228 793e 297c 103e 7a8b 6ebe 78da 5c3e
00000120: 0b73 4c3e c572 833e 36f3 6dbe b04e 453a
00000130: f168 31ba 1043 69be 245d 51be 593b af3d
00000140: 7bd6 a4bd 1294 453d e572 f73d e275 f63b
00000150: 32b1 a3bd 4eeb 0a3b cb3a a1bd 5889 78be
00000160: cf50 a43d df35 95bd 6248 67be 62de 7ebd
00000170: 0e95 6dbe 3f38 51bc 132d 24be 50c8 08be
00000180: b1d5 88be cb1a 76be 46ba 8b3e b488 b53d
00000190: f928 663e bd56 0f3e 3ea1 4abe 9e9e 83bd
000001a0: 236d 473e f418 693e 0988 f93d 9c4f 2b3e
000001b0: 9478 2e3e dc37 9dbd a468 f73d 1df2 09be
000001c0: 4079 3f3d ff9c 813e 03fa 603e b376 433e
000001d0: 07db f43d 9393 27be e928 033e a5cb 143e
000001e0: edcd 063e 1752 34be 6938 093e 039f 533e
000001f0: 8690 3ebd dd4b 923d 3593 16be 741e 153e
00000200: 1807 363e 0fdc 1e3e 1e09 383d 64b6 1d3e
00000210: f922 ea3d 787e 563e 21c2 653e 5e4e 68be
00000220: 3d2b ec3d 8cc2 3abd 43b2 763e 88cf 2ebe
00000230: 8792 94be 67c8 a13d 64a9 7e3e 8594 27be
00000240: bb31 c23d 5cd3 023e 8361 42be 9823 8f3e
00000250: 2b6d 09bc 8104 1cbe cc86 56be 64c0 95bd
00000260: 4788 bebd 304f 223e 26cb bd3d 236f 4f3e
00000270: 6bb8 86be 320f 813e 44b1 91bd 312e 283e
00000280: 2fa6 febd bd47 403e 5576 933b 3a7e 8d3e
00000290: 1b0e 96bd 5629 24be 1754 71be e2e1 25be
000002a0: 763d 10bd cf47 4fbe 500b 1ebe 6cdb df3c
000002b0: 3d9f 833d bcb1 30bd 853a 13bc b887 013e
000002c0: b08d a13d a620 313e ce3c 03be f3bc 74bd
000002d0: 7881 7e3c 032e c4bd f695 aebd 8e19 b53d
000002e0: e3d1 04be 2c4a 78be 2547 f83c 971f 873e
000002f0: 2ebb 243e 85ec 29be c52b eb3d da11 8dbe
00000300: 7be7 003e d042 3fbe 3588 90bd bdf3 20be
00000310: 51ec 683c fad8 8d3e 5d43 97bc 320f 80be

weight f4 [200, 200]
-0.0052334177 -0.04868878 -0.010403645 -0.044741955 -0.04132983 0.04491735 0.043134887 0.055708617
-0.058876492 0.06822948 0.06163637 -0.023423573 -0.042095266 0.07529715 0.036832597 0.019522209
0.050523076 0.013605787 0.06577621 -0.045952123 -0.016955804 0.053077284 -0.06582316 0.01962018
-0.032208603 0.02286953 0.0621377 -0.03084194 -0.040058155 0.023833867 -0.035728782 0.07172021
0.02308083 0.012254262 -0.048416913 -0.05351195 0.027164513 -0.05836568 -0.048588164 -0.038304307
-0.06212887 -0.03757252 0.043950018 -0.031159692 0.014497791 0.07378269 0.083073616 -0.0049365424
-0.027210023 -0.010192186 -0.01807378 -0.033323307 0.061017286 -0.07208763 0.06462323 -0.04820806
0.022738136 -0.061595373 -0.0063437624 0.0044952906 0.04807871 0.061170522 0.03504971 -0.038812965
-0.075433105 -0.03689542 -0.06596566 -0.028949032 -0.03593128 0.08444087 -0.048784364 0.039654057
-0.026390959 0.062166445 0.06714203 0.02753329 0.014567857 0.027216379 0.02234369 -0.035883825
-0.06951036 -0.03429583 -0.031665847 0.0021056137 -0.05213832 0.000362981 0.034054894 0.042008534
0.03782361 0.026766447 0.0034326958 -0.019370353 0.053087514 0.012900148 0.00030940003 0.060159165
-0.025635602 -0.0069532236 -0.016611675 0.098074004 0.030097658 -0.0358906 -0.011351571 0.0038908108
0.008270076 -0.0008426575 0.03584369 -0.009699233 -0.084328026 -0.03423873 -0.05224715 0.02724821
0.013181738 0.055443153 -0.0271102 -0.078807 0.055613313 0.06374513 0.06857393 0.0007626304
-0.07653697 -0.053147864 0.003945976 -0.017871508 0.03957531 0.0071356758 -0.05392098 0.0010062961
0.082071304 0.012987716 -0.049609017 -0.028818425 -0.029657198 -0.031111322 -0.012915663 -0.08967603
0.012518981 -0.04718119 0.04846601 0.02483377 -0.06500368 0.024364846 0.016026435 0.061741542
-0.056664985 -0.008339013 0.0014521696 0.0404166 0.03626572 -0.063422434 -0.042595595 -0.039361518
-0.04240409 -0.053409815 0.021888176 -0.04886413 0.03710095 0.027379159 0.07854239 0.044653412
0.0760598 0.06796632 0.06626088 -0.0029290468 0.0019073305 0.014429602 0.013170411 -0.018423036
-0.015213456 -0.03066493 -0.00026383085 -0.025243353 -0.0374218 0.053264275 0.07446094 -0.0005084467
0.05097371 -0.010686307 0.012207722 0.031346645 -0.07590214 0.028350027 0.0545894 0.024631627
0.05941078 0.00046632608 0.048343398 -0.03689481 -0.0593919 -0.011260447 -0.056991532 0.005068593
-0.025799535 -0.029804071 0.01240609 -0.06569542 0.016071288 0.07807737 0.07085043 -0.021928523
-0.07555934 0.02376248 0.016980153 -0.0679567 -0.0047402447 -0.062885076 -0.06924904 -0.011406455
-0.07883056 0.05440517 0.001582471 -0.026389956 0.024086043 0.04828535 0.009820125 -0.041188307
-0.02649689 -0.025411954 -0.020476406 0.009243851 -0.045858875 0.015450994 -0.06177731 0.010429208
-0.017214958 0.023780517 0.06047236 -0.033149507 0.05455529 0.013741458 0.01753676 -0.0034715496
-0.013935213 -0.0728556 0.017307531 0.0030281164 -0.0004936071 0.019892335 -0.03749501 -0.05771661
-0.009857168 -0.046713006 -0.00976486 -0.07586814 -0.012890097 0.0092077805 -0.015383567 0.05554779
-0.00093099964 -0.012133437 0.022053806 0.017709956 0.06204911 0.03169054 0.004490022 -0.067567594
00000000: 177d abbb e36d 47bd 0d74 2abc 5743 37bd
00000010: 7849 29bd 41fb 373d 35ae 303d b82e 643d
00000020: 7a28 71bd e6bb 8b3d 6b76 7c3d cbe2 bfbc
00000030: 166c 2cbd 6435 9a3d c7dd 163d 0aed 9f3c
00000040: 49f1 4e3d cfea 5e3c adb5 863d 4b38 3cbd
00000050: e6e6 8abc 9167 593d 4bce 86bd 80ba a03c
00000060: 2bed 03bd e158 bb3c 1a84 7e3d 3ca8 fcbc
00000070: 0514 24bd 3e3f c33c 5858 12bd 0ce2 923d
00000080: 0214 bd3c 1ac6 483c d050 46bd 592f 5bbd
00000090: 1d88 de3c da10 6fbd 6204 47bd fae4 1cbd
000000a0: d87a 7ebd a5e5 19bd ef04 343d 9c42 ffbc
000000b0: 2588 6d3c 611b 973d 8022 aa3d b8c2 a1bb
000000c0: 8ee7 debc 20fd 26bc 770f 94bc 057e 08bd
000000d0: 43ed 793d aea2 93bd 2f59 843d d175 45bd
000000e0: 5445 ba3c 6e4b 7cbd 56df cfbb 3b4d 933b
000000f0: 2eee 443d f18d 7a3d 4990 0f3d 58fa 1ebd
00000100: ac7c 9abd a71f 17bd 0119 87bd 8526 edbc
00000110: ae2c 13bd 56ef ac3d 1dd2 47bd 4b6c 223d
00000120: da31 d8bc 3ea2 7e3d c381 893d 7f8d e13c
00000130: 05ae 6e3c e2f4 de3c 1d0a b73c ebfa 12bd
00000140: 735b 8ebd c979 0cbd 0cb4 01bd 56fe 093b
00000150: fe8e 55bd 7c4e be39 257d 0b3d 2411 2c3d
00000160: eeec 1a3d 4f45 db3c 14f7 603b 93ae 9ebc
00000170: 4b72 593d 245b 533c f836 a239 7569 763d
00000180: c101 d2bc ded7 e3bb 3515 88bc 06db c83d
00000190: 5d8f f63c 0602 13bd f1fb 39bc f9fc 7e3b
000001a0: 367f 073c cae5 5cba d5d0 123d 88e9 1ebc
000001b0: 2cb4 acbd e93d 0cbd 1c01 56bd a337 df3c
000001c0: 37f8 573c 5c18 633d 3616 debc 9065 a1bd
000001d0: c9ca 633d cf8c 823d 7d70 8c3d 43eb 473a
000001e0: 6abf 9cbd 93b1 59bd 3f4d 813b 4567 92bc
000001f0: b819 223d 63d2 e93b 3fdc 5cbd b2e5 833a
00000200: 0015 a83d 6eca 543c d332 4bbd 9e14 ecbc
00000210: a7f3 f2bc 2cdd febc 389c 53bc 11a8 b7bd
00000220: 691c 4d3c 1041 41bd 4b84 463d 3170 cb3c
00000230: a620 85bd c998 c73c df49 833c b3e4 7c3d
00000240: 8b19 68bd 5ba0 08bc ba56 be3a e08b 253d
00000250: 5d8b 143d 9fe3 81bd b878 2ebd 8b39 21bd
00000260: e9af 2dbd 40c4 5abd d54e b33c c125 48bd
00000270: 2af7 173d 424a e03c d5da a03d 7fe6 363d
00000280: 3ec5 9b3d ed31 8b3d c9b3 873d 40f5 3fbb
00000290: 64ff f93a 236a 6c3c b5c8 573c e8eb 96bc
000002a0: dc41 79bc 0535 fbbc c752 8ab9 26cb cebc
000002b0: 9a47 19bd a42b 5a3d fa7e 983d 4849 05ba
000002c0: cfc9 503d 9f15 2fbc e602 483c 5765 003d
000002d0: 9572 9bbd 513e e83c 2299 5f3d 44c8 c93c
000002e0: b858 733d 3a7d f439 ba03 463d 031f 17bd
000002f0: ec44 73bd bd7d 38bc f46f 69bd 7116 a63b
00000300: 8c59 d3bc ab27 f4bc ea42 4b3c 528b 86bd
00000310: efa7 833c 07e7 9f3d 081a 913d 72a3 b3bc
00000320: dbbe 9abd 88a9 c23c f619 8b3c e22c 8bbd
00000330: 0e54 9bbb e4c9 80bd 71d2 8dbd 24e2 3abc
00000340: eb71 a1bd f5d7 5e3d ea6a cf3a c02f d8bc
00000350: 1850 c53c dcc6 453d 97e4 203c 12b5 28bd
00000360: 0110 d9bc bb2c d0bc 23be a7bc 8573 173c
00000370: 84d6 3bbd 2a26 7d3c 340a 7dbd 45df 2a3c
00000380: 6206 8dbc 5ccf c23c deb1 773d c7c7 07bd
00000390: 5e75 5f3d da23 613c 40a9 8f3c f082 63bb
000003a0: 8550 64bc 5135 95bd 86c8 8d3c 5d73 463b
000003b0: 6965 01ba 40f5 a23c 5e94 19bd 4168 6cbd
000003c0: f67f 21bc 2356 3fbd cbfc 1fbc c160 9bbd
000003d0: fc30 53bc 3bdc 163c 5b0b 7cbc 1486 633d
000003e0: 540e 74ba 53cb 46bc 2faa b43c 7814 913c
000003f0: 3527 7e3d f1cd 013d 0921 933b e160 8abd

bias f4 [200]
0.06783787 0.015558817 0.0046933987 0.060560387 0.017461963 0.03480294 -0.012524592 -0.06982179
0.026074113 -0.007550471 0.045098394 0.003661329 0.080198765 0.06081141 0.046938166 -0.0005947305
-0.040837955 -0.06502073 -0.06519219 0.04401575 -0.05208066 -0.06609579 -0.03958258 -0.024667919
0.06367368 -0.062001582 0.00788276 0.050294384 0.055726264 0.027035423 -0.072306074 -0.042443044
-0.046616692 0.042918127 0.043802284 -0.031704564 0.023932654 -0.040513504 -0.025253195 -0.05976079
-0.06967987 -0.0040114443 -0.047282103 -0.03377336 -0.011188952 0.003981503 0.0143408645 -0.039563637
0.013684665 0.01574411 -0.027717182 -0.062235232 0.051446922 -0.0166277 -0.08460159 -0.042761747
0.010272232 -0.02052979 -0.05545298 0.03543707 0.046270076 -0.021303121 -0.023434652 -0.050178993
0.00989537 -0.006018167 -0.068337336 -0.027069481 -0.05792368 -0.07672365 -0.05585281 -0.04907375
-0.010703292 -0.0011471797 0.036961615 0.06251413 -0.057461113 0.017347358 -0.058144547 -0.01757811
-0.024797432 0.058833458 -0.013415851 0.024539063 0.0021047709 0.003310596 0.04760931 0.056758016
-0.07057877 0.015195073 -0.0035492799 0.04737478 -0.08486843 0.035133176 0.06039775 -0.03603032
-0.02274028 0.05143019 -0.05238634 -0.013202427 -0.021485116 -0.03614336 -0.019958097 0.052295975
-0.020784454 -0.060322087 0.00805341 -0.048928462 -0.07809228 -0.037365053 -0.06931514 -0.057372514
-0.06058508 -0.048068397 -0.025163533 -0.04579277 0.004737959 -0.047388397 0.0072127883 0.014692762
-0.016950186 -0.03547387 0.0015757577 0.0018848393 -0.021108901 -0.048607256 -0.0619515 -0.025918914
-0.048802637 0.018608302 0.0341158 0.016847426 -0.003293612 0.012677914 -0.014897968 0.033988863
0.0531429 0.02538815 0.05176792 0.029790234 0.022514112 0.047218934 -0.026455538 -0.022678034
0.05807811 0.04664133 -0.058561973 -0.045309123 0.036018733 -0.019387512 0.016193753 -0.065506056
0.06206087 0.022075877 -0.03987891 -0.003450065 0.013481609 -0.036451362 -0.021501413 0.04966917
-0.026884755 0.034141485 0.012186614 -0.04907254 -0.054409377 -0.05823291 0.0117778545 -0.00031480505
-0.03587949 -0.043439228 -0.0029083043 0.08040626 -0.013037284 -0.0065443893 -0.042045556 0.07389435
0.028576415 -0.06360872 -0.06851947 -0.0054839137 -0.08069454 -0.0034614285 0.035573564 0.04880702
-0.026091965 -0.03317677 -0.062230695 0.036369458 -0.00063097134 -0.05313055 0.053844642 -0.027946074
-0.035311084 0.039268486 0.023530284 -0.009118531 -0.028095836 0.04266027 -0.0016904532 -0.028236873
00000000: 95ee 8a3d 69ea 7e3c 15cb 993b 2b0e 783d
00000010: 640c 8f3c 878d 0e3d f233 4dbc bafe 8ebd
00000020: 6199 d53c f169 f7bb 18b9 383d e8f2 6f3b
00000030: 403f a43d 6315 793d 3c42 403d b0e7 1bba
00000040: b345 27bd 9729 85bd 7c83 85bd dc49 343d
00000050: 8852 55bd 3b5d 87bd 5821 22bd 6014 cabc
00000060: 5967 823d 5ff5 7dbd b126 013c 7c01 4e3d
00000070: 3941 643d 6479 dd3c 3515 94bd c2d8 2dbd
00000080: 25f1 3ebd ebca 2f3d 066a 333d a5dc 01bd
00000090: 6a0e c43c 7df1 25bd cadf cebc bbc7 74bd
000000a0: 52b4 8ebd 6f72 83bb e1aa 41bd ef55 0abd
000000b0: de51 37bc 4577 823b f2f5 6a3c 7b0d 22bd
000000c0: a535 603c cbf9 803c 250f e3bc 5fea 7ebd
000000d0: 02ba 523d d036 88bc 9943 adbd f126 2fbd
000000e0: dd4c 283c 172e a8bc aa22 63bd 7626 113d
000000f0: b185 3d3d e283 aebc 07fa bfbc 7d88 4dbd
00000100: 3120 223c 0b34 c5bb 72f4 8bbd d1c0 ddbc
00000110: 6141 6dbd 4a21 9dbd ebc5 64bd 8e01 49bd
00000120: dc5c 2fbc f75c 96ba 1065 173d 6807 803d
00000130: 585c 6bbd 0c1c 8e3c fa28 6ebd f8ff 8fbc
00000140: fc23 cbbc 5afb 703d 28ce 5bbc 2506 c93c
00000150: 32f0 093b 96f6 583b fb01 433d 187b 683d
00000160: 9a8b 90bd c1f4 783c 099b 68bb 0f0c 423d
00000170: 80cf adbd cee7 0f3d a263 773d 8794 13bd
00000180: d349 babc 77a8 523d 0f93 56bd fe4e 58bc
00000190: 8e01 b0bc 0f0b 14bd 2a7f a3bc 4e34 563d
000001a0: 2944 aabc 4b14 77bd 73f2 033c 3669 48bd
000001b0: d8ee 9fbd 190c 19bd 19f5 8dbd 71ff 6abd
000001c0: 1028 78bd 5ee3 44bd c123 cebc 3391 3bbd
000001d0: e140 9b3b 561a 42bd 4159 ec3b e9b9 703c
000001e0: 1edb 8abc 0c4d 11bd a889 ce3a b60c f73a
000001f0: 93ec acbc 6718 47bd dbc0 7dbd e753 d4bc
00000200: 46e5 47bd 7070 983c 02bd 0b3d 9d03 8a3c
00000210: a4d9 57bb 07b7 4f3c 9b16 74bc e837 0b3d
00000220: 5fac 593d cffa cf3c 990a 543d a60a f43c
00000230: 846f b83c a468 413d 49b9 d8bc 49c7 b9bc
00000240: 50e3 6d3d fb0a 3f3d aede 6fbd 0f96 39bd
00000250: 6188 133d 8fd2 9ebc c3a8 843c 0a28 86bd
00000260: 8a33 7e3d 78d8 b43c 1158 23bd 7c1a 62bb
00000270: f7e1 5c3c 064e 15bd bb23 b0bc e671 4b3d
00000280: 6b3d dcbc f1d7 0b3d 5daa 473c 4a00 49bd
00000290: 5edc 5ebd a285 6ebd e7f7 403c 6b0c a5b9
000002a0: 5ff6 12bd 55ed 31bd 4099 3ebb 0aac a43d
000002b0: 559a 55bc 5172 d6bb f637 2cbd ec55 973d
000002c0: 1619 ea3c 4a45 82bd f053 8cbd 67b2 b3bb
000002d0: 2e43 a5bd 22d9 62bb 96b5 113d dfe9 473d
000002e0: d1be d5bc 5de4 07bd 9de5 7ebd 24f8 143d
000002f0: c567 25ba 6b9f 59bd 338c 5c3d 2aef e4bc
00000300: 5ba2 10bd fed7 203d 95c2 c03c e465 15bc
00000310: 3d29 e6bc 89bc 2e3d 3292 ddba 0451 e7bc

weight f4 [1, 200]
0.07013342 -0.0029522378 0.0346998 -0.02184679 0.02838056 -0.03434703 -0.015488283 0.027671525
0.03196531 -0.038487323 -0.019779583 -0.08900845 0.07049098 -0.100305505 -0.040498845 -0.016392825
-0.009488074 0.00046314168 0.0462332 0.046281803 -0.019948484 -0.04407281 -0.007245168 -0.0055789356
-0.12802428 -0.045190647 0.0063621514 0.02522176 -0.012992441 0.03147199 -0.034091003 0.028418174
-0.010602444 0.02020414 0.0061841416 -0.04980855 0.0066556996 0.03815312 0.0070268214 -0.042868663
-0.0033104545 -0.050073974 0.049363043 0.0011456268 0.08732506 0.039471023 0.00138874 0.044720516
0.0032038426 0.04129083 -0.037958007 -0.039716594 0.029037442 0.03820998 -0.03246998 -0.041006193
0.03857845 -0.004412479 0.055834945 0.009059026 0.0025428568 0.04883261 -0.04443365 -0.052831493
-0.054241072 -0.014859616 0.054675195 -0.028052393 0.055670366 0.021536162 -0.01129497 0.07749607
0.037258677 0.02117845 0.0034713228 0.050994825 0.051935498 0.015870178 0.028559878 -0.04482233
0.037323553 0.009443628 -0.048856556 0.03976971 0.031257257 -0.0024922257 -0.0039020504 -0.000841253
-0.0030431508 -0.027247522 -0.065811776 -0.037293643 -0.052799076 0.059414085 -0.0017502891 0.057374377
0.028302463 -0.024136016 -0.0039944556 -0.0020925952 -0.046651218 -0.004674953 -0.03212151 -0.09925262
0.032196146 -0.07215892 0.044017546 -0.044761322 -0.009675999 0.051827163 -0.003506699 0.0059352093
0.0071498672 0.0032372195 -0.009535502 -0.0058504823 0.008042964 0.038705714 0.035108525 0.041671667
0.0003849018 0.028376535 0.06960973 0.040318716 -0.008768983 -0.025454098 -0.030975588 0.001609893
-0.017805975 -0.11476696 -0.019271478 0.030304104 0.056084007 0.038811583 -0.047433138 -0.029630648
-0.07602573 -0.051658593 0.047482178 0.0059516914 -0.013831638 0.05129998 0.004986783 -0.031928178
0.010998873 -0.027611893 0.01382034 -0.021050869 0.035143577 0.022002652 -0.04623249 0.001618157
-0.023109011 -0.11349866 -0.007008913 -6.3485306e-05 -0.0069235717 0.045423962 -0.00854234 -0.0072152843
-0.03455638 0.01084238 -0.001265042 -0.0035314222 -7.727072e-05 -0.021062104 -0.029137308 -0.0001865201
0.018501515 0.08429941 0.043693252 -0.110283054 0.007065825 -0.0033698448 0.045555573 -0.1240135
0.029077278 -0.050510596 -0.0102751665 -0.028589193 -0.041066 -0.03226097 0.0049775867 0.005372047
0.022811303 0.0260031 0.06379129 -0.121446505 0.04600904 -0.067893736 -0.052633263 0.04075164
0.052163433 -0.024761233 -0.034137744 0.023906887 -0.001608108 -0.0077093835 -0.05331608 0.004817982
00000000: 1ca2 8f3d 557a 41bb 6121 0e3d 0af8 b2bc
00000010: 597e e83c 79af 0cbd 91c2 7dbc 65af e23c
00000020: 0fee 023d e2a4 1dbd cb08 a2bc 104a b6bd
00000030: 935d 903d f96c cdbd 1ee2 25bd 3f4a 86bc
00000040: de73 1bbc d3d1 f239 065f 3d3d fd91 3d3d
00000050: 016b a3bc b185 34bd e068 edbb 81cf b6bb
00000060: cc18 03be d419 39bd 9879 d03b dd9d ce3c
00000070: 3fde 54bc c6e8 003d 02a3 0bbd 3bcd e83c
00000080: e0b5 2dbc 2783 a53c 57a4 ca3b 0d04 4cbd
00000090: 0e18 da3b 7246 1c3d 4041 e63b 0d97 2fbd
000000a0: 36f4 58bb 5e1a 4dbd e730 4a3d db28 963a
000000b0: 7bd7 b23d 5eac 213d 6206 b63a dc2c 373d
000000c0: 8ff7 513b 9320 293d db79 1bbd dead 22bd
000000d0: eedf ed3c 1182 1c3d 3eff 04bd 1cf6 27bd
000000e0: 7004 1e3d 8e96 90bb 2fb3 643d 4f6c 143c
000000f0: 0fa6 263b b404 483d 0f00 36bd d665 58bd
00000100: e32b 5ebd bf75 73bc 19f3 5f3d 22ce e5bc
00000110: 9c06 643d 9b6c b03c 8a0e 39bc 42b6 9e3d
00000120: 8e9c 183d 6e7e ad3c 227f 633b f3df 503d
00000130: 51ba 543d 2d02 823c 68f6 e93c 9f97 37bd
00000140: 95e0 183d 72b9 1a3c d01d 48bd 90e5 223d
00000150: 9c07 003d 9c54 23bb 8bb9 7fbb 8887 5cba
00000160: 996f 47bb 3236 dfbc 53c8 86bd 38c1 18bd
00000170: d843 58bd 2f5c 733d f569 e5ba 6501 6b3d
00000180: 91da e73c e5b8 c5bc ece3 82bb ec23 09bb
00000190: 5915 3fbd 5930 99bb d891 03bd f544 cbbd
000001a0: 1be0 033d 0ec8 93bd be4b 343d a657 37bd
000001b0: 1588 1ebc b848 543d a6d0 65bb 257c c23b
000001c0: 6f49 ea3b 8827 543b cb3a 1cbc 67b5 bfbb
000001d0: a3c6 033c e289 1e3d f5cd 0f3d e9af 2a3d
000001e0: a5cc c939 e875 e83c 8c8f 8e3d 3d25 253d
000001f0: c8ab 0fbc 1d85 d0bc 84c0 fdbc 0c03 d33a
00000200: d6dd 91bc f10a ebbd 38df 9dbc 5040 f83c
00000210: 58b8 653d e5f8 1e3d 4049 42bd f9bb f2bc
00000220: 61b3 9bbd f697 53bd ac7c 423d 6806 c33b
00000230: 189e 62bc ee1f 523d 2b68 a33b 1fc7 02bd
00000240: 9e34 343c 5632 e2bc b56e 623c df72 acbc
00000250: b6f2 0f3d e83e b43c 485e 3dbd 5718 d43a
00000260: 1c4f bdbc fc71 e8bd 06ab e5bb 6a23 85b8
00000270: 21df e2bb 7a0e 3a3d 2cf5 0bbc 316e ecbb
00000280: fe8a 0dbd 3da4 313c c4cf a5ba 6f6f 67bb
00000290: 670c a2b8 6f8a acbc 5db1 eebc 9c94 43b9
000002a0: 7d90 973c 2ba5 ac3d b2f7 323d 15dc e1bd
000002b0: 7088 e73b 9dd8 5cbb 7b98 3a3d cafa fdbd
000002c0: 7933 ee3c 33e4 4ebd 2c59 28bc e233 eabc
000002d0: d234 28bd 1424 04bd 061b a33b ff07 b03b
000002e0: c5de ba3c 7404 d53c 02a5 823d f2b8 f8bd
000002f0: fa73 3c3d df0b 8bbd fa95 57bd 31eb 263d
00000300: 53a9 553d 12d8 cabc 05d4 0bbd 60d8 c33c
00000310: 27c7 d2ba ff9e fcbb f661 5abd 2ae0 9d3b
