Vehicles/GenDisV_0_06_0/GenDisV_0_06_0_actor.pth (torch, 176449 bytes, 6 tensors)

weight f4 [200, 13]
0.24468666 -0.072620906 0.16434622 0.050649066 -0.14488196 0.09871316 0.37648234 -0.010797684
-0.49531373 -0.25513303 0.14038411 -0.067993596 0.24946006 0.14222243 0.674815 0.22272459
-0.2044548 -0.10689113 -0.12003531 -0.47598332 -0.54048306 -0.29426914 0.049728185 0.39441308
0.32454687 0.016767731 0.18645914 -0.10140511 -0.10032761 0.007740005 0.38409463 0.026136711
-0.13937105 -0.034706187 0.05441292 -0.40632868 -0.0024636337 -0.39100942 -0.39086515 -0.19864506
0.21420997 -0.010718963 -0.17850797 0.117282316 -0.033874497 -0.11000413 -0.11293874 -0.05353322
-0.20601141 0.0332472 -0.20285456 -0.21256882 0.13704252 0.0066220122 0.5921244 0.24381077
0.16186756 -0.29042378 -0.10989503 -0.4147288 -0.70438486 -0.49042428 -0.38003498 0.20002717
0.29592302 -0.47569343 -0.04501177 0.08549845 -0.09219677 -0.13480644 -0.32252023 -0.31434584
-0.24288806 -0.28484645 -0.15018724 -0.2695164 -0.0011686936 -0.1192265 0.5772487 -0.060887814
0.26879072 -0.11647294 0.008860651 0.1755708 0.08669756 0.29278427 0.27055135 -0.25855055
0.245506 -0.25866282 0.25246087 -0.26581162 0.06518637 -0.038313232 0.06088266 -0.05894714
-0.10759617 0.0054785567 -0.047585305 -0.16210005 0.046052516 -0.25854847 -0.11097521 0.11082752
-0.094149 -0.08424588 0.050351784 -0.09051202 -0.21973479 0.043716975 0.050545342 0.09343329
-0.17705145 0.13589464 -0.03145527 -0.35769975 0.045217328 -0.21476038 0.73931736 -0.050797172
-0.12023977 -0.15082611 -0.07437793 -0.20203693 -0.315641 0.41134304 0.03960048 0.039977103
-0.091472454 -0.022838593 0.10624184 0.24424738 -0.8535986 0.014722888 -0.28707895 -0.40385672
-0.28163454 0.34799147 0.10072142 0.10527668 -0.31915176 -0.11769514 -0.16674337 0.018183803
0.4423214 -0.8116951 -0.2096335 -0.24006434 -0.17504399 -0.07278773 -0.16620602 0.04478002
-0.18098761 -0.40207568 -0.21042968 -0.22839488 0.4637409 -0.63962144 0.516075 0.19724645
-0.2988247 -0.41817138 0.039948937 -0.3678147 -0.17259313 -0.042877506 -0.31472307 -0.3486804
0.08531405 -0.2095896 0.5034958 -0.6510541 0.15170954 -0.2576373 -0.29603943 -0.19301872
-0.36690065 0.019697858 -0.098614074 -0.15274797 0.0008872861 -0.33333978 0.08754532 -0.3902828
0.65682656 -0.22099248 -0.301518 -0.27598214 -0.14303775 -0.3091631 -0.020388681 -0.28244126
-0.021925602 -0.4277576 -0.4828173 -1.9405993 -0.41667715 0.42741758 0.18202662 -0.047518265
0.25428736 0.011776573 -0.12999275 -0.07392113 -0.08323067 -0.15749612 -0.00493573 0.0075980807
-0.22965488 0.5718734 -0.4466196 0.09718134 0.27252978 0.2545046 -0.09409539 0.15311266
-0.030855699 -0.26114762 -0.45214865 -0.27627456 -0.21841429 -0.1317729 0.14723131 0.14963053
-0.21128708 -0.097612865 -0.4738618 -0.668226 -0.5848177 0.39962786 -0.07800794 0.1069231
0.27136004 0.079076834 0.030307623 -0.5321873 -0.100694194 0.33595684 0.15883732 0.09015661
-0.54598486 -0.23631036 -0.22869954 -0.07883745 -0.19540682 -0.06089991 0.02438104 0.12022608
0.4495383 0.521217 -0.196767 -0.2438004 -0.224371 -0.27274722 0.0804858 -0.016071796
00000000: 248f 7a3e 45ba 94bd 604a 283e 6575 4f3d
00000010: f05b 14be 202a ca3d 4bc2 c03e c5e8 30bc
00000020: c399 fdbe cca0 82be dac0 0f3e 3a40 8bbd
00000030: 7572 7f3e c2a2 113e adc0 2c3f ea11 643e
00000040: 995c 51be bde9 dabd 13d5 f5bd 16b4 f3be
00000050: 195d 0abf 72aa 96be c8af 4b3d 83f0 c93e
00000060: 022b a63e 7b5c 893c 25ef 3e3e 7bad cfbd
00000070: 9078 cdbd de9f fd3b 0da8 c43e a81c d63c
00000080: 49b7 0ebe 1328 0ebd 15e0 5e3d 500a d0be
00000090: ea74 21bb 6332 c8be 7a1f c8be 9c69 4bbe
000000a0: dc59 5b3e 979e 2fbc cbca 36be b631 f03d
000000b0: fcbf 0abd d849 e1bd 6d4c e7bd a645 5bbd
000000c0: a8f4 52be 372e 083d 1bb9 4fbe a4ab 59be
000000d0: e054 0c3e 77fd d83b 7795 173f 88a9 793e
000000e0: 9cc0 253e 6db2 94be a510 e1bd 5557 d4be
000000f0: 9152 34bf e418 fbbe f293 c2be ecd3 4c3e
00000100: 3983 973e 178e f3be 435e 38bd d019 af3d
00000110: a9d1 bcbd b30a 0abe 5f21 a5be f0f1 a0be
00000120: a6b7 78be 65d7 91be afca 19be 0efe 89be
00000130: da2e 99ba 062d f4bd 92c6 133f 8065 79bd
00000140: f09e 893e 5d89 eebd 442c 113c d5c8 333e
00000150: 7e8e b13d d2e7 953e b585 8a3e bd60 84be
00000160: ed65 7b3e 746f 84be 8d42 813e 7618 88be
00000170: 6e80 853d 56ee 1cbd 1960 793d 8e72 71bd
00000180: 615b dcbd 7785 b33b cfe8 42bd 8efd 25be
00000190: 90a1 3c3d 7760 84be f946 e3bd 8af9 e23d
000001a0: 31d1 c0bd 1b89 acbd ac3d 4e3d 5e5e b9bd
000001b0: 2802 61be 9210 333d a208 4f3d f459 bf3d
000001c0: fa4c 35be f727 0b3e 3ed7 00bd 6c24 b7be
000001d0: ce35 393d 25ea 5bbe e743 3d3f b210 50bd
000001e0: 4540 f6bd 2972 1abe 7553 98bd c5e2 4ebe
000001f0: b29b a1be 8e9b d23e 1d34 223d 08bf 233d
00000200: e955 bbbd 0018 bbbc 5295 d93d fc1b 7a3e
00000210: 7085 5abf 4538 713c 03fc 92be 4fc6 cebe
00000220: 6732 90be f02b b23e 0847 ce3d 4d9b d73d
00000230: dc67 a3be 260a f1bd c6be 2abe 33f6 943c
00000240: f377 e23e 40cb 4fbf 2aaa 56be 6dd3 75be
00000250: bb3e 33be bc11 95bd e931 2abe 416b 373d
00000260: d154 39be dddc cdbe e17a 57be 59e0 69be
00000270: 726f ed3e 3bbe 23bf 7e1d 043f f9fa 493e
00000280: 8dff 98be 8f1a d6be 7fa1 233d 3552 bcbe
00000290: 41bc 30be 53a0 2fbd 6223 a1be 3d86 b2be
000002a0: 22b9 ae3d a89e 56be 1ae5 003f 7bab 26bf
000002b0: bf59 1b3e 09e9 83be 7b92 97be b3a6 45be
000002c0: 67da bbbe 675d a13c 2df6 c9bd f769 1cbe
000002d0: c398 683a 83ab aabe f64a b33d 26d3 c7be
000002e0: c925 283f da4b 62be 9160 9abe 884d 8dbe
000002f0: 7d78 12be a04a 9ebe 2a06 a7bc 249c 90be
00000300: 529d b3bc 0b03 dbbe d433 f7be 8f65 f8bf
00000310: b556 d5be 7ad6 da3e 3065 3a3e 83a2 42bd
00000320: f431 823e 87f2 403c d21c 05be f663 97bd
00000330: d774 aabd aa46 21be e7bb a1bb 52f9 f83b
00000340: a62a 6bbe 4c66 123f 53ab e4be 0307 c73d
00000350: 0689 8b3e 6d4e 823e 15b5 c0bd 91c9 1c3e
00000360: 17c5 fcbc 24b5 85be 0780 e7be dc73 8dbe
00000370: ffa7 5fbe 7aef 06be cec3 163e bf38 193e
00000380: a45b 58be 41e9 c7bd 049e f2be dc10 2bbf
00000390: 9db6 15bf 069c cc3e a0c2 9fbd 80fa da3d
000003a0: b4ef 8a3e 09f3 a13d b147 f83c 6d3d 08bf
000003b0: c238 cebd 8902 ac3e 40a6 223e 07a4 b83d
000003c0: aac5 0bbf 58fb 71be 3630 6abe 8775 a1bd
000003d0: ba18 48be 2f72 79bd bfba c73c 1739 f63d
000003e0: e229 e63e 7a6e 053f 4a7d 49be d0a6 79be
000003f0: 83c1 65be 86a5 8bbe bdd5 a43d 00a9 83bc

bias f4 [200]
-0.13631718 0.2328904 0.3380696 0.061069466 0.23738758 -0.11534214 -0.07246462 -0.116817355
-0.16324656 0.24440669 -0.05291281 -0.06472807 0.27477446 0.01909193 0.06616052 -0.19098642
-0.14066297 0.28647614 0.05470046 0.114761695 -0.1956452 -0.005520571 0.092012696 -0.2858055
-0.11312153 0.038933665 0.30268025 0.13926563 -0.23431028 -0.18281329 -0.058249027 0.1769719
-0.015220492 -0.0661327 0.008767429 -0.3121241 -0.36782715 -0.16813062 0.18669547 -0.2091373
-0.12017899 0.46176794 0.024451397 -9.526048e-06 0.06857398 -0.04124129 0.030707376 -0.16179116
0.014134885 -0.03993736 0.094566055 -0.259217 -0.22833203 0.44135925 -0.011034616 -0.15755801
0.030406183 0.16587263 0.08030053 -0.18175998 -0.121698536 -0.23221482 0.02315024 0.045041997
-0.316386 -0.18543248 -0.29626215 -0.25270942 0.060395256 0.17987046 -0.04342839 0.25549033
-0.037522867 -0.17973837 -0.16139853 -0.17481753 -0.22737737 0.00857139 -0.11101769 -0.48300725
-0.27528307 0.13822708 -0.3093153 0.018753074 0.2246311 0.23967479 -0.017888594 -0.4087846
0.05885489 -0.11054917 0.05916744 -0.110105306 -0.04643749 0.1281735 0.06740156 0.16804196
-0.31004125 0.117259145 0.1667518 0.045006376 -0.12943658 0.07409039 -0.07893918 -0.07535082
-0.30156717 0.041616466 -0.32609174 0.13577442 -0.033160206 -0.1087448 -0.1858478 -0.11936877
-0.32330072 -0.14501105 0.24625744 -0.027494071 -0.12646422 -0.08061005 -0.050975934 -0.3024484
-0.0766025 -0.0036876656 -0.008335229 0.18662466 -0.04186845 0.48165855 -0.13901529 -0.12799473
-0.008727527 0.32643703 0.06397378 -0.025449157 0.08516452 0.07347821 -0.058978606 -0.07669979
-0.2039128 0.15796499 0.44043168 -0.21580938 0.35845122 0.13517834 -0.15617612 -0.010543331
-0.2702391 -0.03138299 0.18049037 0.028889624 -0.26287588 -0.068563 -0.0805599 -0.16590264
-0.21103978 0.29169637 -0.20906702 0.18138891 -0.09286048 0.15254217 0.032379735 -0.2513571
0.048636526 0.16459501 -0.1179557 -0.031748466 -0.06840692 -0.20058118 -0.0942539 -0.026997415
-0.0019665633 -0.19441769 0.0025997711 0.13111666 -0.14478825 -0.077131644 -0.21373168 0.011830078
-0.15811919 0.2168828 0.07399716 -0.06844401 0.144209 0.11690528 -0.1312748 0.19843821
-0.21737173 -0.14712217 0.22374146 0.15148072 0.08046733 -0.15080447 -0.037782174 0.14374809
0.29742247 0.09877271 -0.1274876 0.01572291 0.00010463603 0.2376083 0.14302363 -0.093543574
00000000: bb96 0bbe d27a 6e3e 7517 ad3e fa23 7a3d
00000010: bb15 733e 8038 ecbd 5568 94bd f03d efbd
00000020: 1b2a 27be bf45 7a3e 1abb 58bd 2690 84bd
00000030: 3daf 8c3e ae66 9c3c 2b7f 873d f291 43be
00000040: f409 10be 00ad 923e 970d 603d 2e08 eb3d
00000050: 3757 48be e8e5 b4bb 2771 bc3d 1955 92be
00000060: 43ac e7bd e878 1f3d e8f8 9a3e a69b 0e3e
00000070: 09ef 6fbe 6833 3bbe 8896 6ebd 1f38 353e
00000080: 5f5f 79bc 9570 87bd 43a5 0f3c bbce 9fbe
00000090: d753 bcbe 6f2a 2cbe 192d 3f3e 1728 56be
000000a0: 6720 f6bd d96c ec3e 4c4e c83c 11d2 1fb7
000000b0: 8470 8c3d a0ec 28bd 098e fb3c 95ac 25be
000000c0: 0196 673c 5b95 23bd d9ab c13d 17b8 84be
000000d0: dfcf 69be d7f9 e13e 89ca 34bc e356 21be
000000e0: 6316 f93c 84da 293e 9b74 a43d 4a1f 3abe
000000f0: 153d f9bd b9c9 6dbe 92a5 bd3c f57d 383d
00000100: 59fd a1be 03e2 3dbe acaf 97be 2163 81be
00000110: 0461 773d f62f 383e f8e1 31bd a1cf 823e
00000120: 94b1 19bd 560d 38be a845 25be 5e03 33be
00000130: 9dd5 68be 046f 0c3c 3e5d e3bd ba4c f7be
00000140: e7f1 8cbe 668b 0d3e 935e 9ebe 0ca0 993c
00000150: b205 663e 4f6d 753e 1a8b 92bc 374c d1be
00000160: d311 713d 9a67 e2bd 8f59 723d e47e e1bd
00000170: 3d35 3ebd ea3f 033e d409 8a3d 3113 2c3e
00000180: babd 9ebe 9025 f03d fcc0 2a3e 9b58 383d
00000190: 068b 04be b4bc 973d ddaa a1bd 8851 9abd
000001a0: 0367 9abe 0776 2a3d 7ff5 a6be 7308 0b3e
000001b0: ffd2 07bd 98b5 debd e34e 3ebe 9d77 f4bd
000001c0: ac87 a5be c77d 14be e92a 7c3e 3f3b e1bc
000001d0: d67f 01be e216 a5bd 24cc 50bd 84da 9abe
000001e0: c6e1 9cbd c3ac 71bb 7c90 08bc 891a 3f3e
000001f0: 407e 2bbd f39b f63e 065a 0ebe 0d11 03be
00000200: e7fd 0ebc c122 a73e af04 833d c07a d0bc
00000210: bc6a ae3d be7b 963d 8d93 71bd c814 9dbd
00000220: 84ce 50be 93c1 213e 4380 e13e 22fd 5cbe
00000230: eb86 b73e 316c 0a3e a2ec 1fbe efbd 2cbc
00000240: c85c 8abe 738b 00bd 78d2 383e efa9 ec3c
00000250: ab97 86be c26a 8cbd 97fc a4bd 62e2 29be
00000260: d01a 58be 3a59 953e aa15 56be 04be 393e
00000270: a32d bebd 0434 1c3e 9da0 043d e1b1 80be
00000280: 1837 473d 988b 283e c292 f1bd ae0a 02bd
00000290: ed18 8cbd 2765 4dbe 3008 c1bd af29 ddbc
000002a0: 75e1 00bb 6e15 47be ec60 2a3b 7243 063e
000002b0: 5f43 14be 32f7 9dbd 7adc 5abe f2d2 413c
000002c0: ffe9 21be 8616 5e3e d38b 973d 602c 8cbd
000002d0: 86ab 133e 096c ef3d e76c 06be 6333 4b3e
000002e0: b296 5ebe 32a7 16be 7b1c 653e c31d 1b3e
000002f0: 0ecc a43d 7d6c 1abe 7bc1 1abd b332 133e
00000300: c247 983e 5949 ca3d 1c8c 02be 55cd 803c
00000310: 0a70 db38 974f 733e c974 123e c693 bfbd

weight f4 [200, 200]
-0.041677803 0.042681288 -0.033021208 0.047861315 -0.08055118 0.0128258765 0.02237235 -0.060038153
-0.00603282 0.01670745 0.043329507 0.040502854 0.059570897 -0.001888162 -0.059639633 -0.019566681
0.039718714 -0.077764936 0.027019821 0.047708828 0.04778804 -0.054613683 0.032363124 0.026262276
0.058021337 0.0024975897 0.04382168 -0.016094415 0.009400177 -0.043698065 -0.011191141 0.05502446
0.045615014 0.047604613 0.020206237 -0.07263864 0.00876033 -0.06618881 -0.0072647627 0.053617276
0.011764838 0.05079948 -0.04434833 -0.029622788 0.03278377 -0.02703836 -0.057315025 0.026562745
0.02357919 0.024688093 0.037212975 -0.01841465 0.06409854 -0.05896663 -0.030797077 0.058088396
-0.046354488 0.048737936 -0.0137298675 -0.054199368 0.06033778 0.008513916 0.013562342 -0.060627036
-0.008519677 -0.034849703 -0.051677644 -0.025299642 0.031792488 -0.017731389 0.02425406 -0.03702453
-0.060683403 0.06877915 -0.044268526 -0.025316406 0.034683377 -0.012727038 0.0646234 -0.07427281
0.0153709315 -0.04404068 0.03310614 -0.049925324 -0.04813275 -0.011291596 -0.050761513 -0.010669442
0.053711362 -0.063163914 -0.052041132 -0.08142532 -0.035040762 0.051136013 0.06279569 -0.049516868
0.03904726 -0.069961414 0.03513747 -0.007031642 0.0034786747 -0.044790346 -0.0005150767 0.012990763
0.02530545 0.067817256 0.05025229 -0.038507335 0.021364165 0.034887385 0.031186983 0.028797181
-0.05593504 -0.016789526 0.03714723 0.036461595 -0.06696683 -0.019707471 -0.016967889 -0.022589177
-0.0292403 -0.019373352 -0.064183705 -0.027984712 -0.05596408 -0.017309695 -0.008928195 -0.054548256
0.05908295 -0.04941379 -0.071810834 -0.015104603 0.02519131 0.030653792 0.0359781 -0.045380525
-0.01742999 -0.05660528 -0.012777078 0.049595203 0.026673317 -0.06509293 0.059967514 -0.069631524
0.021270603 -0.020742152 0.032110486 -0.05972096 -0.012520757 -0.057130527 0.054448497 0.039792154
-0.03654745 -0.02457501 0.04754026 0.013987166 -0.039138034 -0.04437085 -0.053902846 -0.044069745
0.03283752 0.01968789 -0.020976134 -0.022560861 -0.050806016 0.036987446 -0.017773082 0.03157725
0.056304555 -0.020462941 -0.059119184 -0.0054476405 -0.047839243 -0.018466448 -0.03778377 0.0428198
-0.06397924 -0.049026307 0.069530606 0.018597163 0.0275401 -0.0629329 -0.051618703 0.017437484
-0.024548491 -0.010644924 -0.0053461976 -0.013107762 -0.022180272 -0.07465187 0.06131228 -0.033131137
-0.006519359 -0.046298563 0.021207122 -0.023704704 -0.051650826 -0.023906182 0.011537108 -0.056490783
0.011625553 -0.5746276 0.26850793 -0.05568941 0.3312173 -0.010277995 0.051859397 -0.039852206
0.037845444 0.03960451 0.56903476 0.06279154 -0.79233557 -0.15308909 0.36427417 -0.36997205
0.1072131 0.3150752 0.16972697 -0.0074350974 0.31544536 0.31479087 -0.042935424 0.07817595
-0.5384463 0.20260477 -0.075370595 -0.30917698 0.057259757 -0.046952493 0.18977797 0.38930562
-0.11468634 0.11642398 -0.28636023 -0.26148966 0.30356854 0.13115829 0.22916703 0.45994103
0.058344804 0.32702127 -0.35546896 0.27321532 0.08753378 -0.12218527 0.15089361 0.13690783
0.05514835 -0.09257732 0.51404756 -0.24856858 -0.28756708 0.29788962 0.09014402 0.29781702
00000000: 58b6 2abd 93d2 2e3d 3f41 07bd 3a0a 443d
00000010: 04f8 a4bd a023 523c 3846 b73c 91ea 75bd
00000020: f6ae c5bb 10de 883c 487a 313d 52e6 253d
00000030: 9d00 743d 347c f7ba b048 74bd 4e4a a0bc
00000040: 17b0 223d 3943 9fbd ac58 dd3c 556a 433d
00000050: 64bd 433d 99b2 5fbd 328f 043d fc23 d73c
00000060: c8a7 6d3d 9aae 233b 5d7e 333d 6fd8 83bc
00000070: 3303 1a3c befc 32bd 0c5b 37bc 5461 613d
00000080: cfd6 3a3d 0efd 423d 8d87 a53c 91c3 94bd
00000090: 7d87 0f3c 008e 87bd 3f0d eebb ca9d 5b3d
000000a0: 4fc1 403c 1e13 503d 98a6 35bd 7dab f2bc
000000b0: 4648 063d 8d7f ddbc 29c3 6abd 1d9a d93c
000000c0: 2529 c13c af3e ca3c a26c 183d 52da 96bc
000000d0: 1846 833d fe86 71bd 274a fcbc 19ee 6d3d
000000e0: 34de 3dbd 6ea1 473d 3df3 60bc 2800 5ebd
000000f0: bf24 773d f47d 0b3c 9634 5e3c 0e54 78bd
00000100: 1e96 0bbc 90be 0ebd f0ab 53bd 3241 cfbc
00000110: d738 023d 6b41 91bc 73b0 c63c 09a7 17bd
00000120: 298f 78bd 15dc 8c3d ea52 35bd 5a64 cfbc
00000130: 2810 0e3d 1185 50bc 4659 843d 581c 98bd
00000140: 5cd6 7b3c 0064 34bd 4e9a 073d 7f7e 4cbd
00000150: d926 45bd 6300 39bc 4eeb 4fbd e2ce 2ebc
00000160: 7200 5c3d 155c 81bd 1529 55bd 51c2 a6bd
00000170: e786 0fbd ff73 513d 079b 803d 33d2 4abd
00000180: 05f0 1f3d ee47 8fbd 4fec 0f3d b069 e6bb
00000190: 7afa 633b 1576 37bd 3606 07ba 36d7 543c
000001a0: 604d cf3c c6e3 8a3d 58d5 4d3d deb9 1dbd
000001b0: e703 af3c 13e6 0e3d d87b ff3c 11e8 eb3c
000001c0: 241c 65bd 308a 89bc b227 183d c158 153d
000001d0: e825 89bd 9071 a1bc 3e00 8bbc f00c b9bc
000001e0: 5b89 efbc ddb4 9ebc bf72 83bd 3240 e5bc
000001f0: 973a 65bd 10cd 8dbc 9047 12bc fe6d 5fbd
00000200: f700 723d 1d66 4abd 8f11 93bd 4c79 77bc
00000210: 025e ce3c a91d fb3c c65d 133d eee0 39bd
00000220: 57c9 8ebc f0da 67bd f356 51bc 5724 4b3d
00000230: 0082 da3c 714f 85bd 7fa0 753d f99a 8ebd
00000240: b03f ae3c 72eb a9bc 4986 033d f79d 74bd
00000250: dc23 4dbc b301 6abd 6305 5f3d 19fd 223d
00000260: c7b2 15bd 8851 c9bc 93b9 423d 6d2a 653c
00000270: 344f 20bd 35be 35bd 3bc9 5cbd 7a82 34bd
00000280: a380 063d 7f48 a13c 24d6 abbc 8ed1 b8bc
00000290: f819 50bd 2680 173d db98 91bc 2657 013d
000002a0: 9b9f 663d e6a1 a7bc f526 72bd 1f82 b2bb
000002b0: 15f3 43bd f346 97bc 28c3 1abd d163 2f3d
000002c0: 8c07 83bd cfcf 48bd 1066 8e3d 1459 983c
000002d0: c79b e13c f7e2 80bd 226e 53bd 0ed9 8e3c
000002e0: eb19 c9bc 0c68 2ebc 282f afbb f0c1 56bc
000002f0: 67b3 b5bc 14e3 98bd 9622 7b3d 84b4 07bd
00000300: 59a0 d5bb 90a3 3dbd 8fba ad3c 5e30 c2bc
00000310: d18f 53bd e6d6 c3bc 2306 3d3c e162 67bd
00000320: 1a79 3e3c cb1a 13bf df79 893e 941a 64bd
00000330: 5095 a93e 0965 28bc 856a 543d 113c 23bd
00000340: d303 1b3d 5738 223d 43ac 113f da98 803d
00000350: 81d6 4abf 63c3 1cbe 2582 ba3e fa6c bdbe
00000360: 8b92 db3d 8951 a13e e8cc 2d3e 1ea2 f3bb
00000370: 0e82 a13e 452c a13e 0edd 2fbd b61a a03d
00000380: 9ed7 09bf a077 4f3e e65b 9abd 724c 9ebe
00000390: 3589 6a3d 4251 40bd 2855 423e 1153 c73e
000003a0: ace0 eabd b26f ee3d cf9d 92be f9e1 85be
000003b0: 566d 9b3e 5c4e 063e c3aa 6a3e 647d eb3e
000003c0: f6fa 6e3d 556f a73e 0700 b6be e1e2 8b3e
000003d0: e944 b33d 453c fabd db83 1a3e 9131 0c3e
000003e0: 3ce3 613d 2e99 bdbd 9f98 033f c388 7ebe
000003f0: fe3b 93be fd84 983e 6e9d b83d 797b 983e

bias f4 [200]
-0.049907662 0.1393741 0.042602148 -0.2292954 -0.021846293 -0.044897143 -0.022976497 -0.08179483
-0.094423816 -0.0037806265 -0.049011607 -0.105994076 -0.053435385 -0.06688032 -0.07856924 -0.10597587
-0.020762932 0.11086426 -0.07078749 0.0111452555 -0.072661355 -0.022228487 0.11035258 -0.16192444
-0.131591 -0.016926358 0.06578992 -0.1855689 -0.17770834 -0.23364379 0.029920021 -0.024751786
-0.28140604 -0.011824844 -0.085925 0.060534485 0.0010964413 0.0030020713 0.14609228 0.018768031
-0.0012632358 -0.060786065 0.009982016 -0.07432491 -0.080797546 -0.025003703 -0.057046566 0.030001925
-0.068286434 -0.08638036 0.0037548665 -0.10270162 -0.009366908 0.07023186 -0.012853441 -0.019855361
-0.07664799 -0.048567552 -0.0891313 0.0012250863 -0.046830434 -0.0033326042 -0.08761987 -0.085146114
-0.32312986 -0.08215837 -0.11174094 -0.04545549 -0.008415412 -0.052496348 -0.01278861 -0.09118913
-0.047873337 0.011019973 -0.031411465 -0.043667667 -0.1361176 -0.0020497174 -0.048045047 -0.086894535
-0.007145544 0.0243507 -0.061910562 0.016118964 -0.0907978 -0.058003973 -0.06509177 0.062064487
-0.22123578 -0.047908794 -0.23112884 -0.070441365 -0.06505285 -0.097524546 -0.32619256 -0.085356176
-0.017189903 -0.02369389 -0.005593113 -0.070086405 -0.1012291 0.041928995 -0.03184152 -0.08037189
-0.11107277 -0.010559134 -0.07474497 -0.099618055 0.026181232 -0.008677908 -0.09022881 0.012743106
-0.08281227 -0.09695529 -0.009497268 -0.006243292 0.029572446 -0.099904515 0.04546678 -0.06473995
-0.104199745 -0.0044263843 -0.072706856 -0.015313506 -0.09554244 -0.06577918 -0.043494485 -0.08582867
0.007386779 0.015656851 -0.11112397 -0.04601838 -0.05225723 -0.18929899 0.014358137 -0.09993485
-0.09712663 -0.002342959 -0.049282245 -0.07583846 0.03543996 -0.010933889 -0.29236478 0.0033496632
-0.049789403 -0.0444115 -0.015455356 -0.027188737 -0.23285574 0.2767965 -0.07476915 0.04233885
-0.027203964 0.023556173 -0.03412939 -0.058685094 -0.108870976 -0.09326151 0.0058259848 0.01018114
-0.07753809 -0.14310905 -0.0178758 -0.08250506 -0.038596284 -0.0030872165 -0.0114352815 -0.018789789
0.0069136126 0.0075655603 -0.019614011 -0.039800037 -0.03394504 0.030309688 -0.0054320768 -0.04435474
-0.10437662 -0.19407818 -0.17208487 0.047818147 0.021502065 -0.18268883 0.10717706 0.0052540526
-0.065827355 -0.092714794 -0.08026109 -0.03381072 -0.033796996 -0.06899648 -0.0683101 -0.077916086
0.027236288 0.03199807 0.019953841 -0.17558996 -0.058617957 -0.018416576 -0.08740943 -0.014046977
00000000: fa6b 4cbd 16b8 0e3e 977f 2e3d 6acc 6abe
00000010: fff6 b2bc 11e6 37bd 3539 bcbc 0c84 a7bd
00000020: 4661 c1bd 63c4 77bb 65c0 48bd 6c13 d9bd
00000030: 10df 5abd 8df8 88bd e9e8 a0bd e009 d9bd
00000040: 0617 aabc cd0c e33d 08f9 90bd 979a 363c
00000050: 7acf 94bd 8418 b6bc 8900 e23d 85cf 25be
00000060: cbbf 06be 25a9 8abc debc 863d c605 3ebe
00000070: 2df9 35be 5140 6fbe d51a f53c 42c4 cabc
00000080: 7414 90be febc 41bc 72f9 afbd 02f3 773d
00000090: 77b6 8f3a 66be 443b 3799 153e 6abf 993c
000000a0: 2993 a5ba cffa 78bd 9c8b 233c a937 98bd
000000b0: 2f79 a5bd 91d4 ccbc a9a9 69bd 99c6 f53c
000000c0: c2d9 8bbd 30e8 b0bd 3514 763b 3a55 d2bd
000000d0: a977 19bc b9d5 8f3d 3d97 52bc b6a7 a2bc
000000e0: 9ff9 9cbd c5ee 46bd 798a b6bd 1393 a03a
000000f0: 45d1 3fbd d267 5abb 0c72 b3bd 1661 aebd
00000100: 4771 a5be a642 a8bd 6fd8 e4bd 892f 3abd
00000110: cce0 09bc 6906 57bd 5187 51bc 5ec1 babd
00000120: d516 44bd 1e8d 343c 4fa9 00bd dedc 32bd
00000130: 6a62 0bbe 8d54 06bb e2ca 44bd c3f5 b1bd
00000140: 2b25 eabb 1f7b c73c ee95 7dbd eb0b 843c
00000150: 32f4 b9bd 9395 6dbd d54e 85bd 5537 7e3d
00000160: a28b 62be 033c 44bd 0aad 6cbe 9043 90bd
00000170: 6e3a 85bd f3ba c7bd b602 a7be 38cf aebd
00000180: d7d1 8cbc b019 c2bc 6f46 b7bb 7689 8fbd
00000190: 3451 cfbd bdbd 2b3d 416c 02bd 049a a4bd
000001a0: 1f7a e3bd 3800 2dbc e413 99bd 8d04 ccbd
000001b0: 067a d63c c92d 0ebc e2c9 b8bd 76c8 503c
000001c0: 7b99 a9bd 7f90 c6bd 6e9a 1bbc 8794 ccbb
000001d0: ea41 f23c bd9a ccbd 603b 3a3d 6196 84bd
000001e0: ad66 d5bd 340b 91bb 55e7 94bd 80e5 7abc
000001f0: c1ab c3bd 3cb7 86bd 4627 32bd f1c6 afbd
00000200: cb0c f23b cc42 803c f794 e3bd c57d 3cbd
00000210: ad0b 56bd 98d7 41be 643e 6b3c a5aa ccbd
00000220: 54ea c6bd 548c 19bb 2edc 49bd 3251 9bbd
00000230: 7e29 113d 0e24 33bc d6b0 95be 0686 5b3b
00000240: f9ef 4bbd d5e8 35bd 7638 7dbc eaba debc
00000250: bc71 6ebe 45b8 8d3e 9120 99bd 816b 2d3d
00000260: d9da debc e0f8 c03c 42cb 0bbd c85f 70bd
00000270: bff7 debd e4ff bebd e7e7 be3b ccce 263c
00000280: 4acc 9ebd 2e8b 12be 4570 92bc 6af8 a8bd
00000290: 2317 1ebd e652 4abb 0c5b 3bbc 0bed 99bc
000002a0: 968b e23b 85e8 f73b 90ad a0bc 5d05 23bd
000002b0: f409 0bbd 064c f83c 90ff b1bb 51ad 35bd
000002c0: 69c3 d5bd 6ebc 46be 0437 30be f6dc 433d
000002d0: 1925 b03c c812 3bbe a57f db3d 302a ac3b
000002e0: 7ed0 86bd 41e1 bdbd ed5f a4bd 1c7d 0abd
000002f0: b86e 0abd 074e 8dbd 2ae6 8bbd 7892 9fbd
00000300: a31e df3c 6910 033d 3d76 a33c dbcd 33be
00000310: 6219 70bd 5cde 96bc b703 b3bd 4b25 66bc

weight f4 [2, 200]
-0.027451344 -0.06311112 -0.029124951 -1.2638236 -0.082021795 0.0023332718 -0.008562235 -0.001036056
-0.423282 0.005618315 -0.05183556 0.018502604 -0.5892741 -0.04719972 -0.060425226 0.02545721
0.023927642 -0.075499125 0.1406213 0.0034805618 0.0068945065 0.029493688 -0.42438525 -0.9966811
0.6717585 0.19925421 -0.13817544 1.0811682 0.9616904 -0.045441058 -0.0054322956 -0.034881704
-1.0540295 -0.003440199 -0.008976172 -0.020521045 0.008035484 -0.06363986 0.44190666 -0.30011755
0.030705255 -0.008074307 0.01214141 0.09673418 0.0026112215 1.5968711 0.0040432066 0.14182115
-0.0060317204 0.030486008 0.05899483 0.438786 -0.044591255 0.09552555 -0.01930552 0.0034296815
0.052366056 0.0061219153 0.069476284 0.011523127 -0.048525453 -0.048686348 0.45160973 -0.06251378
-1.7046348 -0.025703795 0.22943868 -0.014832898 -0.0033899276 0.052432757 0.036757406 0.6832911
0.011105591 0.020011976 0.027838828 -0.037190966 -0.01630824 -0.0018144835 -0.015223811 0.044361323
0.0077972924 -0.039952323 -0.01707434 0.32355767 -0.008449845 -0.06294048 0.0012961491 0.08353108
-1.2869192 0.01019854 1.2551376 -0.051629607 -0.022805247 0.020028114 1.4275773 0.025820008
-0.01585713 -0.032780327 -0.048314843 0.03191995 -0.07593553 0.0822896 0.0027653398 -0.092817284
-0.21003824 -0.011709329 0.055074647 0.019489791 0.0072001177 -0.0042497925 -0.0025937886 -0.029617103
-0.002489523 0.6961229 -0.014207382 -0.028193671 0.060114045 0.09056011 0.02790966 -0.044163577
0.20089573 0.02719786 0.0019026623 -0.2720477 0.02645505 0.010315696 -0.023404468 0.030396625
0.00281152 0.016415633 0.3140452 0.020889629 -0.4791369 1.0124636 0.08139642 0.011328491
-0.2304665 0.027125742 0.018964792 -0.15861373 -0.05273028 0.017854782 -1.8633196 0.31335592
-0.21817744 -0.08730824 -0.022794895 -0.0035678037 -0.5841491 -0.07707598 -0.033905726 -0.027549785
0.002978115 -0.015059588 0.028370928 0.014157746 0.008762915 -0.012198239 0.03588721 -0.25265566
-0.0092048505 1.0862345 0.0069751013 0.02500741 0.19341815 -0.010860288 -0.07378211 -0.06523992
-0.1642146 -0.01241584 0.012071266 -0.0036818373 1.059083 0.10835159 0.016902033 0.011277348
-0.1671489 1.3814095 1.0288892 -0.03107743 0.021690799 0.25551048 0.03679208 -0.12615563
0.036640786 0.021321932 0.0024796557 -0.01923387 0.0038260035 -0.016971212 0.07469927 -0.0055910544
-0.036560673 -0.0064143594 0.021937748 0.08082485 -0.016929707 -0.02602232 0.009407088 0.027134277
-0.008454839 0.21768373 0.053394165 -0.58951205 -0.038878642 0.021127595 0.018948533 0.022796132
-0.048728906 -0.012972035 -0.035512954 -0.045428593 -0.15878606 0.0027681368 -0.010434077 0.10130449
-0.020192124 0.87689006 0.8745802 0.013997119 -0.08272564 -0.029299166 0.17122982 0.047129914
0.0700337 0.30676836 -0.32234168 -0.05749224 -0.13637048 -0.025135638 0.03674338 -0.053343806
0.15363272 1.2758852 -0.041570246 2.8391984 -0.025028944 -0.016794382 0.79164696 0.78251374
-0.02373917 0.12276838 0.11317232 -0.11203113 -0.08353266 0.11784864 -0.06292569 0.38849702
0.0057677208 0.026430989 -0.12866138 -0.59039843 0.006238567 -0.09221578 -0.01182754 -0.016128622
00000000: a4e1 e0bc 6740 81bd 7397 eebc f9c4 a1bf
00000010: 0bfb a7bd cee9 183b 9e48 0cbc 45cc 87ba
00000020: 6bb8 d8be d819 b83b 8651 54bd c692 973c
00000030: abda 16bf 7e54 41bd 7180 77bd a48b d03c
00000040: e703 c43c 499f 9abd 08ff 0f3e 231a 643b
00000050: 50eb e13b bf9c f13c 0649 d9be 7e26 7fbf
00000060: 5df8 2b3f 4c09 4c3e dd7d 0dbe b863 8a3f
00000070: 5831 763f 6720 3abd 6601 b2bb 1ee0 0ebd
00000080: 70ea 86bf f674 61bb cb10 13bc c01b a8bc
00000090: 43a7 033c 9d55 82bd 9741 e23e 02a9 99be
000000a0: 9689 fb3c 194a 04bc c4ec 463c 921c c63d
000000b0: 0721 2b3b 4666 cc3f e07c 843b 9039 113e
000000c0: bda5 c5bb cbbd f93c 90a4 713d 8fa8 e03e
000000d0: 52a5 36bd e6a2 c33d 9c26 9ebc 82c4 603b
000000e0: ca7d 563d 599a c83b 9549 8e3d 7fcb 3c3c
000000f0: a0c2 46bd 566b 47bd 6439 e73e 3a07 80bd
00000100: 7931 dabf c490 d2bc f9f1 6a3e af05 73bc
00000110: 8c29 5ebb bbc3 563d ef8e 163d 2aec 2e3f
00000120: 3af4 353c 28f0 a33c 410e e43c 8e55 18bd
00000130: dc98 85bc f7d3 edba 4b6d 79bc 38b4 353d
00000140: 6e80 ff3b 0ca5 23bd 7cdf 8bbc 5aa9 a53e
00000150: 3871 0abc f0e6 80bd 8ce3 a93a 5812 ab3d
00000160: c5b9 a4bf c717 273c 59a8 a03f 9179 53bd
00000170: 12d2 babc 0012 a43c daba b63f 7b84 d33c
00000180: d0e6 81bc aa44 06bd c9e5 45bd 7ebe 023d
00000190: 1684 9bbd 7387 a83d b43a 353b fd16 bebd
000001a0: 4414 57be 7cd8 3fbc f495 613d 0ea9 9f3c
000001b0: f7ee eb3b d841 8bbb 8dfc 29bb 919f f2bc
000001c0: 4427 23bb 1c35 323f 14c6 68bc 6af6 e6bc
000001d0: 253a 763d 9477 b93d cda2 e43c dee4 34bd
000001e0: 9cb7 4d3e 0cce de3c c162 f93a d649 8bbe
000001f0: 43b8 d83c 2a03 293c baba bfbc 5802 f93c
00000200: 7a41 383b 147a 863c 88ca a03e ba20 ab3c
00000210: 6f51 f5be 6898 813f 2bb3 a63d 239b 393c
00000220: 69ff 6bbe ce36 de3c 0d5c 9b3c a36b 22be
00000230: b5fb 57bd 3144 923c 4281 eebf 3070 a03e
00000240: e869 5fbe aace b2bd 5cbc babc d0d1 69bb
00000250: cc8a 15bf 03da 9dbd bbe0 0abd 16b0 e1bc
00000260: 7b2c 433b 7dbc 76bc 266a e83c e4f5 673c
00000270: 5492 0f3c 1fdb 47bc 78fe 123d 155c 81be
00000280: f1cf 16bc bb09 8b3f 648f e43b 57dc cc3c
00000290: 680f 463e 59ef 31bc 131b 97bd 829c 85bd
000002a0: df27 28be cf6b 4bbc 8fc6 453c fb4a 71bb
000002b0: 0890 873f 70e7 dd3d 2276 8a3c a0c4 383c
000002c0: 1529 2bbe 07d2 b03f a4b2 833f 1896 febc
000002d0: e7b0 b13c 45d2 823e 4bb3 163d f12e 01be
000002e0: a614 163d 55ab ae3c b881 223b 5990 9dbc
000002f0: b0bd 7a3b 3607 8bbc eefb 983d 2a35 b7bb
00000300: a5c0 15bd 8c2f d2bb cbb6 b33c 8087 a53d
00000310: 2bb0 8abc c32c d5bc 3020 1a3c b448 de3c
00000320: 2a86 0abc 7ce8 5e3e d7b3 5a3d 43ea 16bf
00000330: 363f 1fbd c713 ad3c f439 9b3c f4be ba3c
00000340: f697 47bd a988 54bc 0876 11bd 5513 3abd
00000350: d098 22be a169 353b b1f3 2abc ba78 cf3d
00000360: f469 a5bc de7b 603f 7de4 5f3f 2c54 653c
00000370: 0f6c a9bd ce04 f0bc df56 2f3e 4c0b 413d
00000380: d46d 8f3d be10 9d3e f809 a5be fc7c 6bbd
00000390: b4a4 0bbe 41e9 cdbc 3a80 163d 097f 5abd
000003a0: e551 1d3e 3550 a33f 9045 2abd 6db5 3540
000003b0: 8009 cdbc 5f94 89bc 60a9 4a3f d252 483f
000003c0: a678 c2bc fd6d fb3d e4c6 e73d 9470 e5bd
000003d0: 2c13 abbd a15a f13d 2fdf 80bd 15e9 c63e
000003e0: 26ff bc3b cd85 d83c cfbf 03be 5a24 17bf
000003f0: e56c cc3b a0db bcbd 4cc8 41bc 2c20 84bc

bias f4 [2]
0.053042054 0.036614574
00000000: a042 593d 2af9 153d
