Vehicles/Mod_0_02/Mod_0_02_actor_target.pth (torch, 176449 bytes, 5 tensors)

weight f4 [200, 14]
0.27865493 0.107825086 -0.23965707 0.86459434 0.13994749 -0.5999606 -0.3219005 -0.55747586
-0.48817694 -0.61565834 -0.6446936 -0.14691977 0.22818743 0.59199816 -0.42033216 -0.36382762
-0.32435268 -0.20475098 0.011871309 -0.24605237 0.22504927 0.024007965 0.04352159 -0.024581058
0.29874724 -0.5135004 -0.17526181 0.10917678 -0.015428957 0.0739683 -0.25569257 0.04596866
0.262578 -0.05465023 -0.22232491 0.21200149 0.048131987 -0.16274829 -0.07867078 -0.019918248
0.21196778 -0.24566795 -0.0909019 -0.66978407 -0.21819606 0.70706946 0.13923284 -0.11222564
0.1756934 -0.053682566 -0.34844157 0.24145734 0.2343919 -0.50239366 -0.49903396 -0.49562782
0.52518183 -0.33552915 -0.10014944 0.21423545 -0.10735215 0.33045045 -0.15617593 -0.47727498
-0.22921672 -0.5917051 0.12361429 -0.16467501 0.23759061 0.2443816 -0.1901387 0.06155713
-0.022264134 -0.2300564 -0.09374225 -0.21391873 0.028279817 -0.0015944666 -0.07240588 -0.19036564
-0.038007222 0.23942763 0.03844533 -0.20142919 0.03286268 -0.32649964 -0.23173861 -0.2115952
-0.1353906 -0.10347749 -0.024875464 0.12631577 -0.042804 0.045878854 -0.4082237 -0.25192824
-0.2774271 -0.07892334 -0.49800318 -0.35245895 0.3036554 0.44165882 0.16058695 0.24700044
-0.08031847 0.003325953 -0.16218907 -0.12686308 0.20774001 -0.32074222 -0.3360389 -0.32130075
-0.976859 -0.3503333 0.13199665 1.1471701 -0.025981091 -0.23253287 0.23664416 -0.28677946
0.105087146 0.3486763 0.23758964 -0.28720212 0.21039544 -0.01527044 -0.6295456 0.3725857
-0.5628983 -1.0436693 -0.012098222 0.24672249 0.0922469 -0.26048297 0.030260181 0.30031782
0.042474482 -0.17927726 -0.22029729 0.51023036 0.0016559745 0.11382934 -0.25881854 0.14177723
-0.23595864 0.14942749 -0.27579987 -0.2849254 -0.27829137 -0.16904639 -0.29368728 -0.35627222
-0.30581683 -0.47297227 -0.36168393 0.6785284 -0.18766755 0.43068433 0.15086609 -0.27649197
0.113013595 0.052274033 0.009507211 -0.00032278875 -0.16544007 -0.34314567 0.16728124 -0.6136698
-0.15672909 0.19382107 0.012571469 -0.018753314 -0.08821769 0.05036426 -0.20131339 -0.21322241
0.14343424 -0.016374717 0.09238803 -0.15537903 -0.0999176 0.074597515 0.0051336875 0.119698904
-0.004930194 -0.23044519 -0.032954324 0.04213866 -0.2618643 -0.14995797 -0.11118736 0.21314193
-0.19528736 0.008639235 -0.31805965 -0.3457222 0.100473404 0.1382665 -0.23563379 -0.15562935
0.11949178 0.05488438 0.07045052 -0.14983878 -0.26666847 -0.18634069 -0.11474725 -0.25846687
-0.09270096 -0.089056134 -0.18759836 -0.026150258 -0.13863309 0.046500232 0.034971192 0.06818703
-0.22831433 -0.21341315 0.02336411 0.039232932 0.099701524 -0.13646646 0.10115439 0.08833491
-0.24642515 0.8054482 -0.15696636 -0.32408303 -0.0841758 -0.20629774 -0.056132577 -0.08412262
0.04388373 -0.35312155 -0.22155803 -0.037206803 -0.14074151 0.36423504 -0.07245209 -0.20875305
-0.16533823 -0.6575517 -0.104059845 0.009851582 0.4068693 -0.14151222 -0.39736164 -0.0151058305
-0.14247894 0.1948965 0.07566673 -0.48169369 0.87816113 0.08153992 0.4623449 0.50818014
00000000: dcab 8e3e 66d3 dc3d aa68 75be 0e56 5d3f
00000010: 654e 0f3e 0597 19bf 24d0 a4be bdb6 0ebf
00000020: 54f2 f9be c99b 1dbf a40a 25bf 2372 16be
00000030: f7a9 693e 318d 173f c735 d7be 9d47 babe
00000040: 8e11 a6be 3eaa 51be e17f 423c 27f5 7bbe
00000050: 5173 663e 5aac c43c b243 323d 375e c9bc
00000060: 66f5 983e c374 03bf d577 33be 1398 df3d
00000070: bcc9 7cbc b17c 973d 23ea 82be a249 3c3d
00000080: a070 863e ebd8 5fbd 24a9 63be eb16 593e
00000090: 0c26 453d 7da7 26be 251e a1bd 982b a3bc
000000a0: 150e 593e 6190 7bbe c62a babd f876 2bbf
000000b0: ca6e 5fbe 8102 353f 0e93 0e3e 8ed6 e5bd
000000c0: f8e8 333e 40e2 5bbd ef66 b2be 9840 773e
000000d0: 6e04 703e df9c 00bf 6181 ffbe eec2 fdbe
000000e0: 5172 063f 7aca abbe 261b cdbd 8a60 5b3e
000000f0: 72db dbbd cd30 a93e 95ec 1fbe 635d f4be
00000100: cab7 6abe fc79 17bf 7d29 fd3d 91a0 28be
00000110: f44a 733e 2c3f 7a3e b8b3 42be 5423 7c3d
00000120: 4663 b6bc e893 6bbe f0fb bfbd 830d 5bbe
00000130: 13ab e73c 6cfd d0ba 8949 94bd 36ef 42be
00000140: 76ad 1bbd 842c 753e da78 1d3d 7443 4ebe
00000150: 049b 063d f62a a7be e34c 6dbe 69ac 58be
00000160: d5a3 0abe 02ec d3bd a1c7 cbbc ec58 013e
00000170: 3f53 2fbd 77eb 3b3d b202 d1be bdfc 80be
00000180: ed0a 8ebe 8fa2 a1bd 46fa febe 8075 b4be
00000190: b878 9b3e 1b21 e23e e870 243e afed 7c3e
000001a0: 037e a4bd 3bf8 593b e414 26be 65e8 01be
000001b0: ccb9 543e 5338 a4be 4a0d acbe 8881 a4be
000001c0: 6e13 7abf e35e b3be 212a 073e 78d6 923f
000001d0: 4cd6 d4bc 191d 6ebe d952 723e c2d4 92be
000001e0: ee37 d73d b385 b23e b34a 733e 280c 93be
000001f0: e771 573e de30 7abc e729 21bf 8ec3 be3e
00000200: 1a1a 10bf f596 85bf 9f37 46bc d2a4 7c3e
00000210: f1eb bc3d 065e 85be 33e4 f73c 42c3 993e
00000220: b9f9 2d3d 7594 37be 9d95 61be 759e 023f
00000230: 490d d93a 5b1f e93d dd83 84be 0d2e 113e
00000240: 249f 71be 8503 193e a435 8dbe bee1 91be
00000250: 357c 8ebe 7f1a 2dbe 2e5e 96be 5069 b6be
00000260: 0694 9cbe 6c29 f2be a32e b9be 0ab4 2d3f
00000270: ec2b 40be a882 dc3e a47c 1a3e 5b90 8dbe
00000280: ac73 e73d 4c1d 563d 22c4 1b3c f93b a9b9
00000290: 1f69 29be cab0 afbe c64b 2b3e 7719 1dbf
000002a0: 977d 20be 0879 463e 90f8 4d3c 8da0 99bc
000002b0: 7aab b4bd c14a 4e3d 1925 4ebe fa56 5abe
000002c0: 6de0 123e 4524 86bc ef35 bd3d ae1b 1fbe
000002d0: 99a1 ccbd 95c6 983d 7e38 a83b b324 f53d
000002e0: 778d a1bb d3f9 6bbe 1dfb 06bd 9699 2c3d
000002f0: 1413 86be 958e 19be 33b6 e3bd e141 5a3e
00000300: 69f9 47be 948b 0d3c b7d8 a2be 8002 b1be
00000310: 00c5 cd3d bc95 0d3e fc49 71be 4d5d 1fbe
00000320: 1bb8 f43d 72ce 603d 5d48 903d 566f 19be
00000330: c588 88be 18d0 3ebe 9b00 ebbd c555 84be
00000340: 00da bdbd 1063 b6bd c919 40be 1139 d6bc
00000350: d5f5 0dbe 0777 3e3d f43d 0f3d a4a5 8b3d
00000360: 3bcb 69be fa88 5abe 1766 bf3c b6b2 203d
00000370: 5030 cc3d ddbd 0bbe 082a cf3d efe8 b43d
00000380: e056 7cbe da31 4e3f cabb 20be 36ee a5be
00000390: 5d64 acbd b73f 53be 46eb 65bd 7b48 acbd
000003a0: 6dbf 333d 59cc b4be 1ce0 62be 2966 18bd
000003b0: 8b1e 10be 047d ba3e c361 94bd 5cc3 55be
000003c0: 6d4e 29be 4f55 28bf 541d d5bd 8868 213c
000003d0: 2c51 d03e 94e8 10be fc72 cbbe 727e 77bc
000003e0: 00e6 11be f392 473e 29f7 9a3d 8ea0 f6be
000003f0: 2bcf 603f 67fe a63d 79b8 ec3e 1818 023f

bias f4 [200]
-0.025091402 0.07847876 -0.2555575 -0.19438674 -0.067464985 -0.16641714 -0.3073308 0.003562226
0.094588146 0.12966342 0.06652108 -0.02720834 -0.28070536 -0.059076086 -0.23678118 -0.24541491
0.048338983 0.023588056 -0.21735471 -0.10961093 -0.25557056 -0.20566455 0.07450451 0.08679947
-0.059703376 -0.23319162 0.08365746 -0.16074908 -0.21732973 -0.23239724 -0.036087867 0.23338956
-0.20298302 -0.04438095 -0.18716821 -0.30713326 0.10244772 -0.21201542 -0.10564028 0.21298802
0.056820597 -0.41194162 -0.17544034 0.10568256 -0.14703469 -0.040246785 -0.19404708 -0.3039137
0.15959032 -0.26854602 0.058684457 -0.014884277 -0.25565353 -0.012726856 -0.1879843 0.20964023
-0.098582 -0.1724176 0.2084954 -0.06349792 -0.27051297 -0.052265503 -0.21063626 -0.3092616
-0.069584556 0.020798583 0.043625448 -0.10254617 -0.059816007 -0.033287562 -0.13245706 0.0008015726
0.23705979 0.076155186 -0.08007058 0.0022505524 0.19919074 -0.019125428 -0.05441498 -0.12746488
0.110054575 -0.09015877 -0.09060952 0.19676605 -0.118182495 -0.23433697 0.049188577 0.14969377
0.14524406 -0.100924626 -0.03791065 -0.2110081 -0.24528146 0.22848956 0.045788296 0.034977548
-0.17452109 -0.09855546 -0.28983086 -0.08981968 0.15808198 -0.17205574 -0.16895229 0.17673373
0.19787118 -0.036667965 -0.25634855 -0.30570954 -0.33547017 -0.14885333 -0.013541993 -0.14510794
-0.21534434 -0.13865343 -0.10982185 0.16472408 -0.21094938 0.14107002 -0.19273086 -0.008377686
-0.12432458 0.024682805 -0.23738281 0.0792377 0.24020953 0.07831603 -0.31320834 -0.036849044
0.11276072 -0.10308365 -0.18231805 0.09440247 -0.11800012 -0.23805983 0.16996899 -0.07886645
-0.0962344 -0.13953908 0.17199926 0.1350332 -0.17961122 -0.027280457 0.017286768 -0.022818638
-0.03323761 -0.16361812 -0.06329598 0.0084325615 0.12270687 -0.2746674 0.3226285 -0.0702204
0.12009767 0.13369568 -0.06692044 0.0883469 -0.28403816 0.09314019 -0.10641031 -0.064794935
0.1442206 -0.052214004 0.19246528 -0.09901459 -0.34711576 -0.2552363 0.13943538 0.209813
0.18215692 0.11622129 -0.11237001 -0.23555215 0.03481389 -0.3782902 0.15121259 0.12199268
0.061716035 -0.22517419 -0.18195966 0.2988574 0.23437013 -0.20349196 0.035195317 0.12208961
0.018317407 -0.19830336 -0.043031037 0.16037163 0.008052894 0.27834675 -0.08860059 -0.22016041
0.13489676 -0.10512606 0.06635076 -0.12782128 0.08565622 0.046013933 0.012695884 0.003029651
00000000: 7c8c cdbc 79b9 a03d 6fd8 82be 510d 47be
00000010: 152b 8abd 4169 2abe 765a 9dbe 3c74 693b
00000020: 6eb7 c13d 7dc6 043e 343c 883d 06e4 debc
00000030: 9db8 8fbe c4f9 71bd c476 72be 0c4e 7bbe
00000040: 19ff 453d bd3b c13c 3c92 5ebe b27b e0bd
00000050: 25da 82be ba99 52be d295 983d ecc3 b13d
00000060: 878b 74bd c9c9 6ebe 9a54 ab3d 689b 24be
00000070: af8b 5ebe 8bf9 6dbe dfd0 13bd acfd 6e3e
00000080: c8da 4fbe cdc8 35bd 06a9 3fbe 9240 9dbe
00000090: 1cd0 d13d 921a 59be ee59 d8bd 8819 5a3e
000000a0: b7bc 683d 03ea d2be a2a6 33be 1970 d83d
000000b0: 4390 16be d0d9 24bd 47b4 46be 949a 9bbe
000000c0: a56b 233e dd7e 89be 1d5f 703d 2fdd 73bc
000000d0: 05e5 82be 4e84 50bc f57e 40be eeab 563e
000000e0: 5ce5 c9bd 3d8e 30be d17f 553e 330b 82bd
000000f0: ad80 8abe 5a14 56bd 08b1 57be 8957 9ebe
00000100: 5982 8ebd ca61 aa3c 99b0 323d ba03 d2bd
00000110: a101 75bd 8a58 08bd d3a2 07be a020 523a
00000120: cdbf 723e 40f7 9b3d 0bfc a3bd 017e 133b
00000130: a8f8 4b3e eeac 9cbc 3ee2 5ebd 2786 02be
00000140: 4b64 e13d 29a5 b8bd 7c91 b9bd 0a7d 493e
00000150: aa09 f2bd 08f6 6fbe f679 493d 5349 193e
00000160: dcba 143e 92b1 cebd 3348 1bbd 8212 58be
00000170: 102b 7bbe 2bf9 693e 828c 3b3d 9e44 0f3d
00000180: a8b5 32be 72d7 c9bd b664 94be 61f3 b7bd
00000190: 3ee0 213e 612f 30be d401 2dbe b0f9 343e
000001a0: be9e 4a3e 2631 16bd 1e40 83be f685 9cbe
000001b0: bfc2 abbe 026d 18be 3cdf 5dbc 2d97 14be
000001c0: 3a83 5cbe 2afb 0dbe 47ea e0bd 6ead 283e
000001d0: 1d03 58be a974 103e 3d5b 45be 9042 09bc
000001e0: e39d febd 9833 ca3c 7b14 73be 6047 a23d
000001f0: 7df9 753e 2864 a03d d85c a0be 06ef 16bd
00000200: 18ef e63d 851d d3bd 95b1 3abe 1556 c13d
00000210: 0caa f1bd f5c5 73be 5a0c 2e3e bc84 a1bd
00000220: 8b16 c5bd 55e3 0ebe 9320 303e 2546 0a3e
00000230: 01ec 37be 447b dfbc fb9c 8d3c 27ee babc
00000240: 2924 08bd 828b 27be 53a1 81bd ba28 0a3c
00000250: bd4d fb3d 35a1 8cbe 902f a53e b7cf 8fbd
00000260: c4f5 f53d 85e7 083e 950d 89bd 38ef b43d
00000270: 736d 91be 49c0 be3d a6ed d9bd 35b3 84bd
00000280: 91ae 133e 5ade 55bd 9e15 453e 29c8 cabd
00000290: 28b9 b1be 55ae 82be 26c8 0e3e 38d9 563e
000002a0: 5887 3a3e 6d05 ee3d 3f22 e6bd 9534 71be
000002b0: 0299 0e3d 41af c1be 79d7 1a3e 4cd7 f93d
000002c0: f4c9 7c3d 1094 66be a253 3abe d603 993e
000002d0: b9fe 6f3e 3260 50be f728 103d 1e0a fa3d
000002e0: 630e 963c 0910 4bbe 5041 30bd 7638 243e
000002f0: 49f0 033c 7783 8e3e 3a74 b5bd bb71 61be
00000300: 6022 0a3e 554c d7bd e8e2 873d 95e3 02be
00000310: 876c af3d 1b79 3c3d 6602 503c 1c8d 463b

weight f4 [200, 200]
-0.047176696 0.018705258 -0.0030445368 0.016161256 -0.0813716 0.069796 0.0016251067 0.048134636
0.012138404 0.005633467 -0.060494874 0.058739737 -0.028374508 -0.03018438 0.056837346 0.027513344
0.060902964 -0.08779997 -0.0707262 -0.027748039 -0.11476513 0.019594837 0.002926591 -0.108907476
0.0007697659 0.0076804208 0.014023159 -0.054140244 0.08524769 0.036441475 -0.099866934 -0.08472436
-0.05391506 -0.0031972101 -0.017261708 -0.026981372 0.045890033 -0.009317682 0.06262722 0.05139751
-0.087141335 -0.0379169 -0.030903352 0.02612391 -0.09455318 0.022263661 -0.13030036 -0.07508032
0.07821765 -0.028056037 -0.036689304 -0.067669965 0.052483056 -0.029175945 0.041383915 -0.11229855
-0.04170802 0.0119240135 0.025423681 0.06730727 0.06709925 -0.055859666 -0.07848226 -0.07972055
0.027837446 -0.13911887 -0.017265433 -0.028237352 -0.051663496 0.051132265 -0.05979134 -0.09573782
-0.07907831 -0.19466747 -0.08546942 -0.059788406 -0.15628205 -0.06784132 -0.15829073 0.036892243
0.0686594 -0.034400478 0.027284238 0.019816516 -0.062233474 -0.11900601 -0.09428198 -0.062047377
-0.014492287 -0.048584912 0.040336363 -0.07097654 -0.04986748 -0.036115043 -0.049718946 -0.03586527
-0.028216474 0.043521494 -0.02283974 -0.055135768 -0.012782181 0.045178372 -0.09489293 -0.13094707
-0.10588254 0.04961905 0.043771088 0.0034388886 -0.052405283 0.026810074 -0.013445051 0.032678787
-0.045573384 -0.032823935 -0.079809956 -0.0627835 0.0044892295 -0.17147528 -0.0021727714 -0.0056091286
0.059003815 -0.05829079 -0.0143486215 -0.0135556925 -0.0529517 -0.13185902 0.009409067 -0.1328127
0.016025806 0.017545948 -0.028874142 -0.016682053 0.0636901 -0.03001026 -0.017293746 0.022955446
-0.0608225 -0.069926 -0.0018489216 0.013674095 -0.040747635 0.025868254 -0.014674732 0.015542018
-0.082492165 -0.11524047 0.022713427 0.066470005 -0.012702787 0.0388275 0.007127526 -0.017386878
0.045517504 0.046681274 0.026700636 0.01789352 -0.13298555 -0.06742559 -0.06426505 0.00053363084
-0.041861497 -0.12725398 -0.018675085 0.041045815 -0.03037884 0.030826729 0.033353157 -0.07317595
0.06266355 -0.013934928 -0.03223428 -0.08564525 0.0054522934 -0.033022236 -0.03618192 0.060400106
-0.21066238 -0.13928872 -0.087384224 -0.072693154 -0.15949772 -0.028436473 -0.06578646 0.050522063
-0.052519567 -0.08310758 -0.048834506 -0.14121696 0.017328532 -0.008255904 -0.036028437 0.04885395
-0.06823323 0.0036319962 -0.011386122 0.020881947 -0.027813604 0.03409575 -0.08290046 -0.07536195
-0.06242214 -0.012449482 -0.05321478 0.014653724 -0.35295224 -0.0238872 0.12018468 -0.022678062
-0.12816411 -0.009021265 0.060324054 0.32725346 0.06575468 0.05801288 -0.048608754 -0.013333665
-0.055812728 -0.051000394 -0.30120012 -0.12996061 -0.35964584 -0.040249147 -0.3285918 0.09069801
-0.26156396 0.052673247 -0.09604714 -0.19146074 -0.3122422 -0.076421425 0.09694929 -0.129752
-0.07293455 0.08824252 -0.24346584 0.17738211 0.24172835 -0.021569014 -0.12693633 -0.054380666
0.28342086 -0.17438398 -0.23924284 -0.30846924 -0.16132163 0.059837367 -0.37920216 -0.1380303
0.13693136 0.24609439 -0.138344 0.012346711 0.022929369 -0.109031156 0.09329849 -0.16458945
00000000: 5a3c 41bd c53b 993c da86 47bb 9c64 843c
00000010: 27a6 a6bd 35f1 8e3d 8801 d53a d328 453d
00000020: 28e0 463c f298 b83b 79c9 77bd 1499 703d
00000030: a871 e8bc 3c45 f7bc 47ce 683d aa63 e13c
00000040: 6375 793d 78d0 b3bd e6d8 90bd db4f e3bc
00000050: fb09 ebbd 5a85 a03c 0dcc 3f3b e20a dfbd
00000060: 1dca 493a 0aac fb3b 64c1 653c 29c2 5dbd
00000070: 5796 ae3d a843 153d 0987 ccbd f783 adbd
00000080: 0ad6 5cbd 4988 51bb 6d68 8dbc 0a08 ddbc
00000090: 30f7 3b3d 31a9 18bc b342 803d 3286 523d
000000a0: 2877 b2bd c04e 1bbd 0729 fdbc cf01 d63c
000000b0: 19a5 c1bd 4862 b63c 756d 05be b6c3 99bd
000000c0: 9330 a03d c6d5 e5bc 8647 16bd 8d96 8abd
000000d0: 79f8 563d 6402 efbc 2e82 293d c8fc e5bd
000000e0: 07d6 2abd f05c 433c 5345 d03c 65d8 893d
000000f0: 556b 893d 1bcd 64bd 4fbb a0bd 8744 a3bd
00000100: 5b0b e43c 2d75 0ebe 3d70 8dbc 0552 e7bc
00000110: 1a9d 53bd 1170 513d c4e7 74bd 3112 c4bd
00000120: cff3 a1bd e956 47be 970a afbd b0e4 74bd
00000130: 6708 20be 64f0 8abd f716 22be 521c 173d
00000140: 4d9d 8c3d 84e7 0cbd 3283 df3c 3f56 a23c
00000150: 87e8 7ebd 6cb9 f3bd e916 c1bd 6425 7ebd
00000160: 0f71 6dbc f900 47bd be37 253d 265c 91bd
00000170: d841 4cbd 5eed 13bd 18a6 4bbd 76e7 12bd
00000180: 3c26 e7bc 9843 323d 681a bbbc 0bd6 61bd
00000190: 5a6c 51bc f50c 393d 3957 c2bd fd16 06be
000001a0: f2d8 d8bd 583d 4b3d 5049 333d fa5e 613b
000001b0: eca6 56bd cda0 db3c a248 5cbc 31da 053d
000001c0: 28ab 3abd 6472 06bd 6773 a3bd a394 80bd
000001d0: 631a 933b 3797 2fbe 0e65 0ebb c8cc b7bb
000001e0: fcad 713d 53c2 6ebd 7b16 6bbc b218 5ebc
000001f0: e2e3 58bd 0d06 07be 7d28 1a3c 0d00 08be
00000200: 8d48 833c 85bc 8f3c 7789 ecbc cda8 88bc
00000210: f56f 823d 14d8 f5bc 9dab 8dbc 0f0d bc3c
00000220: 0421 79bd 5d35 8fbd 8457 f2ba 5009 603c
00000230: fee6 26bd a9e9 d33c 4a6e 70bc f3a3 7e3c
00000240: a7f1 a8bd 3203 ecbd 8211 ba3c 6d21 883d
00000250: 5a1f 50bc 9609 1f3d 068e e93b ed6e 8ebc
00000260: 9070 3a3d dd34 3f3d 4bbb da3c 6e95 923c
00000270: 5d2d 08be 6d16 8abd 659d 83bd 5ce3 0b3a
00000280: f676 2bbd de4e 02be 7efc 98bc a81f 283d
00000290: 0cdd f8bc 5688 fc3c 529d 083d 46dd 95bd
000002a0: bf55 803d 534f 64bc 1808 04bd c766 afbd
000002b0: 27a9 b23b 5342 07bd 7e33 14bd 1a66 773d
000002c0: e1b7 57be b4a1 0ebe 80f6 b2bd 26e0 94bd
000002d0: 5f53 23be 9bf3 e8bc 0dbb 86bd 39f0 4e3d
000002e0: c21e 57bd 4f34 aabd b106 48bd 2e9b 10be
000002f0: 91f4 8d3c c543 07bc 8e92 13bd 141b 483d
00000300: ddbd 8bbd c906 6e3b db8c 3abc 9e10 ab3c
00000310: 5bd9 e3bc fca7 0b3d b7c7 a9bd 5e57 9abd
00000320: 5cae 7fbd eaf8 4bbc bef7 59bd 2c16 703c
00000330: 28b6 b4be 17af c3bc 6323 f63d 58c7 b9bc
00000340: 743d 03be eecd 13bc 5b16 773d c48d a73e
00000350: 64aa 863d ea9e 6d3d f919 47bd 7275 5abc
00000360: e39b 64bd cae5 50bd e736 9abe 6514 05be
00000370: 8023 b8be 4adc 24bd 2f3d a8be e1bf b93d
00000380: b6eb 85be e7bf 573d 5db4 c4bd 490e 44be
00000390: 36de 9fbe d682 9cbd 598d c63d b5dd 04be
000003a0: b65e 95bd 7fb8 b43d 1c4f 79be a8a3 353e
000003b0: a387 773e 80b1 b0bc 99fb 01be 43be 5ebd
000003c0: 8a1c 913e b791 32be 13fc 74be aeef 9dbe
000003d0: 7f31 25be 0718 753d c926 c2be d157 0dbe
000003e0: bc37 0c3e 2b00 7c3e 0daa 0dbe dc49 4a3c
000003f0: 5fd6 bb3c ba4b dfbd 4713 bf3d 238a 28be

bias f4 [200]
-0.06121291 -0.28879136 0.35476 -0.05710317 -0.05693705 -0.06576113 -0.030780427 -0.016968751
-0.2967199 -0.008290966 -0.26474765 -0.17179793 -0.115736686 -0.26455235 -0.16240364 -0.21207502
-0.078673 -0.059343997 0.22868676 -0.11297252 -0.16292645 -0.060771093 -0.108908966 0.05787728
-0.119473286 -0.10226603 -0.11143919 -0.06929419 -0.13321204 -0.32451484 -0.044654418 -0.13227029
-0.050183807 -0.034867633 -0.23915753 -0.052592583 -0.011073011 -0.055713635 0.1630897 -0.062516026
-0.20881465 -0.10355945 -0.24688715 -0.10229732 -0.036773495 -0.19833018 -0.08078449 -0.33279714
-0.08319401 -0.20480108 -0.012635917 -0.12849434 -0.09689266 -0.079795055 0.047648866 -0.048318926
-0.15970634 -0.079167716 -0.13592406 -0.0051938514 0.0006369736 -0.09787763 -0.114826225 0.046283178
0.0049667014 -0.10494526 -0.030239515 -0.048352454 -0.06967119 -0.11257794 0.45440483 -0.06783429
-0.07145189 -0.1661646 -0.3190537 -0.20413464 0.08183305 -0.114449225 0.02975036 0.10789468
-0.081466965 -0.18633781 0.06781187 -0.10119016 -0.122570366 -0.10536994 -0.1094171 -0.42093664
0.031136936 -0.07008545 -0.085558824 -0.29287347 -0.11420485 -0.17703672 -0.09193653 0.20956075
-0.08258008 -0.31461006 -0.1603652 0.37602314 -0.12213823 0.09530426 -0.09288722 -0.072253026
0.011161818 -0.044882715 -0.07202856 -0.048887555 -0.06094469 -0.075285956 -0.1675831 0.03854368
-0.24229759 -0.021197481 -0.2207347 -0.2121144 -0.08850777 -0.1457201 -0.034191865 -0.15815662
0.022165483 -0.0409719 -0.14602299 -0.060921595 -0.14322817 -0.0864082 0.0015961603 -0.15164182
-0.21695638 -0.24719188 -0.089307964 -0.1270519 -0.084912114 0.010421002 0.120623715 -0.091127396
-0.35392773 -0.12721582 -0.006215561 -0.091124415 0.20801824 -0.01624694 -0.08206403 -0.02230315
-0.06442151 0.009540982 -0.19681188 -0.049155626 -0.114446245 -0.049872372 -0.07312529 0.20660682
-0.043459654 -0.2715682 -0.09991611 -0.10138685 -0.17255156 -0.10847236 -0.07582985 -0.0834754
-0.25778735 0.06819472 -0.08934373 -0.06209506 -0.12192354 -0.21587986 -0.07608913 -0.06213157
0.14490683 -0.0588928 -0.044452805 -0.012103588 -0.020908026 -0.1434432 -0.14753424 -0.078754954
-0.27588037 -0.14837548 0.060682204 -0.10162826 -0.07070534 0.13094112 0.080482416 -0.059485868
-0.0751891 -0.09507988 -0.31990278 -0.110989176 0.015193369 -0.04518521 0.13176304 -0.117273
0.27241325 -0.06952963 -0.100123234 -0.11400368 -0.12257244 -0.09013796 -0.026579186 -0.30193362
00000000: 63ba 7abd 76dc 93be 1aa3 b53e 03e5 69bd
00000010: d336 69bd c5ad 86bd 3c27 fcbc 0d02 8bbc
00000020: aceb 97be d5d6 07bc 018d 87be cceb 2fbe
00000030: 5b07 edbd 6873 87be 244d 26be 322a 59be
00000040: 4f1f a1bd b112 73bd dd2c 6a3e 235e e7bd
00000050: 31d6 26be 1ceb 78bd aa0b dfbd ba10 6d3d
00000060: 69ae f4bd da70 d1bd 3b3a e4bd 1dea 8dbd
00000070: bd68 08be cf26 a6be 8de7 36bd dd71 07be
00000080: 898d 4dbd 5dd1 0ebd b6e5 74be 526b 57bd
00000090: 936b 35bc fb33 64bd fc00 273e 6708 80bd
000000a0: 82d3 55be fa16 d4bd fccf 7cbe 4281 d1bd
000000b0: ce9f 16bd 1117 4bbe 5772 a5bd 6364 aabe
000000c0: 9f61 aabd 60b7 51be e106 4fbc 0594 03be
000000d0: a96f c6bd 976b a3bd 752b 433d 11ea 45bd
000000e0: 0f8a 23be af22 a2bd ad2f 0bbe 2f31 aabb
000000f0: 93fa 263a 1174 c8bd 032a ebbd 6e93 3d3d
00000100: b6bf a23b 8aed d6bd dcb8 f7bc 390d 46bd
00000110: c5af 8ebd 438f e6bd c0a7 e83e b4ec 8abd
00000120: 5e55 92bd 0e27 2abe 025b a3be ac08 51be
00000130: 1698 a73d 5b64 eabd 07b7 f33c e3f7 dc3d
00000140: 27d8 a6bd 57cf 3ebe f3e0 8a3d c93c cfbd
00000150: 2c06 fbbd 32cc d7bd 1316 e0bd 0285 d7be
00000160: e312 ff3c f688 8fbd 7739 afbd 83f3 95be
00000170: 3be4 e9bd 1d49 35be 3849 bcbd 1897 563e
00000180: bf1f a9bd 9214 a1be c636 24be 1b86 c03e
00000190: 9c23 fabd e12e c33d a83b bebd 65f9 93bd
000001a0: 0fe0 363c f0d6 37bd b683 93bd 513e 48bd
000001b0: 24a1 79bd 862f 9abd e79a 2bbe fadf 1d3d
000001c0: dc1c 78be 57a6 adbc 4708 62be 8434 59be
000001d0: 9043 b5bd a637 15be c50c 0cbd cff3 21be
000001e0: 6394 b53c 27d2 27bd 0d87 15be ec88 79bd
000001f0: 68aa 12be c8f6 b0bd 4136 d13a fe47 1bbe
00000200: d029 5ebe de1f 7dbe 18e7 b6bd e519 02be
00000210: 67e6 adbd dabc 2a3c 9109 f73d 00a1 babd
00000220: 0436 b5be dd44 02be e8ab cbbb 709f babd
00000230: bc02 553e 4d18 85bc 3011 a8bd 18b5 b6bc
00000240: 6def 83bd c751 1c3c 0e89 49be 6957 49bd
00000250: cb62 eabd f946 4cbd b6c2 95bd bd90 533e
00000260: c002 32bd fd0a 8bbe d1a0 ccbd e9a3 cfbd
00000270: 5bb1 30be c226 debd ae4c 9bbd 27f5 aabd
00000280: b4fc 83be aca9 8b3d d8f9 b6bd 6457 7ebd
00000290: 0db3 f9bd 9c0f 5dbe 9ed4 9bbd ac7d 7ebd
000002a0: 7562 143e 9439 71bd 2514 36bd 214e 46bc
000002b0: 4f47 abbc c6e2 12be 3713 17be 474a a1bd
000002c0: 3140 8dbe beef 17be e78d 783d 7a22 d0bd
000002d0: f6cd 90bd 6e15 063e f7d3 a43d 74a7 73bd
000002e0: befc 99bd 3db9 c2bd 4cca a3be 4b4e e3bd
000002f0: 9ced 783c 2014 39bd e4ec 063e d42c f0bd
00000300: c079 8b3e 8d65 8ebd 690d cdbd c37a e9bd
00000310: 4207 fbbd 409a b8bd 98bc d9bc 0b97 9abe

weight f4 [1, 200]
0.0039184694 -0.124412455 0.045154985 0.014244872 0.042892125 -0.01042626 0.3104898 -0.083757855
0.015519114 -0.0674459 0.06332469 0.0544003 -0.019488394 0.021108553 0.042059496 0.3768239
0.03348033 0.0072004325 0.1035813 0.007439645 0.25710014 0.016614623 -0.0035978656 0.60824805
-0.08446346 0.016894022 0.008189035 -0.0020922415 -0.024229499 0.20332207 -0.059348695 -0.0047961758
-0.0068299067 -0.15646979 0.13331932 -0.028170113 0.0019525288 0.008399327 0.38783604 0.024624007
-0.13716978 -0.024204912 -0.0790932 -0.008792532 0.002198692 -0.08997106 0.007656829 -0.1363631
-0.014916356 0.39520597 -0.12982649 0.0022729181 0.052992675 -0.006090064 0.10200408 -0.009095026
-0.030131109 0.039685927 0.027467895 -0.012675405 0.05509244 -0.020019917 0.016680563 -0.15031251
-0.027016388 -0.014185454 -0.02764485 -0.006975101 -0.012902089 -0.11763427 0.14072384 0.09657247
-0.02185872 0.19503681 -0.82452184 -0.051810782 0.12341275 -0.0141021935 0.00996696 -0.19846283
-0.03003686 -0.07908393 -0.15307562 0.030470854 0.019409338 0.014969815 0.004565767 -0.13061689
0.39173698 -0.02954694 0.014151366 -0.50077987 -0.026096243 0.023136131 -0.055300124 0.029801069
-0.011216394 -0.24733454 0.101164326 0.14630635 -0.12787145 -0.45724493 -0.049722616 0.07338095
-0.35690996 0.008003701 -0.0020532485 -0.054742035 0.005396787 -0.12510803 0.05552215 0.33957946
-0.16705558 0.013733016 0.010262054 0.02996826 0.012612821 -0.0117444545 -0.017804857 0.015946308
-0.028603679 -0.2524408 -0.13857082 -0.0071354746 0.27089617 0.025192859 -0.1516567 -0.027594557
0.103225626 -0.36245477 -0.012564763 0.002525819 0.005947106 -0.10864139 0.09220165 0.0046516345
-0.08806662 0.008010593 0.10286799 -0.033381987 -0.05597618 0.020882694 0.006960089 -0.30175176
0.044761267 0.08886886 -0.17813605 -0.010380065 -0.10599131 -0.018948894 0.01921525 0.121266425
-0.020145832 0.34829947 0.023218451 0.0069027366 0.008035308 0.017135419 0.028882017 -0.027470961
0.14020665 -0.025379304 -0.014784668 -0.0131183425 0.3123541 0.043090843 0.019834025 0.01942126
-0.12306223 -0.022722244 -0.09441635 -0.29413325 -0.0034984935 0.07183931 -0.24840608 -0.015287582
-0.019583527 -0.018006394 0.06723134 0.037411265 -0.0041260887 0.02043984 -0.043005466 -0.036830116
-0.018127838 0.04905961 0.06260159 0.015563811 -0.11655629 -0.0070329355 -0.078625105 -0.027318139
0.058889408 -0.0084375115 -0.019296464 -0.0068806643 -0.049025096 0.18038319 -0.045443773 0.042373974
00000000: 8166 803b f5cb febd 6ff4 383d 5363 693c
00000010: a7af 2f3d e7d2 2abc 85f8 9e3e 3d89 abbd
00000020: e243 7e3c 1321 8abd 60b0 813d d9d2 5e3d
00000030: 20a6 9fbc d8eb ac3c 9446 2c3d 10ef c03e
00000040: ac22 093d 9bf1 eb3b 6f22 d43d 44c8 f33b
00000050: a1a2 833e 641b 883c 2bca 6bbb 25b6 1b3f
00000060: 2efb acbd 5565 8a3c 4d2b 063c fd1d 09bb
00000070: f17c c6bc a933 503e 9e17 73bd 3d29 9dbb
00000080: 69cd dfbb 9e39 20be dc84 083e 02c5 e6bc
00000090: ffeb ff3a 559d 093c 7292 c63e 49b8 c93c
000000a0: 3c76 0cbe 6149 c6bc 9efb a1bd 8d0e 10bc
000000b0: ee17 103b bf42 b8bd 23e6 fa3b c5a2 0bbe
000000c0: bb63 74bc 7058 ca3e 3cf1 04be 3df5 143b
000000d0: d90e 593d 298f c7bb 84e7 d03d 4e03 15bc
000000e0: 84d5 f6bc b68d 223d 5a04 e13c 80ac 4fbc
000000f0: 9ca8 613d cf00 a4bc ada5 883c 86eb 19be
00000100: 7951 ddbc 1b6a 68bc 7477 e2bc 638f e4bb
00000110: 4963 53bc 3cea f0bd e919 103e cac7 c53d
00000120: 0f11 b3bc bbb7 473e dd13 53bf 8b37 54bd
00000130: d3bf fc3d e30c 67bc 764c 233c d739 4bbe
00000140: dc0f f6bc c1f6 a1bd dbbf 1cbe 039e f93c
00000150: 5500 9f3c f443 753c 6e9c 953b 6fc0 05be
00000160: c091 c83e 6d0c f2bc 22db 673c 1c33 00bf
00000170: cac7 d5bc fc87 bd3c 6282 62bd 5f21 f43c
00000180: f7c4 37bc 4445 7dbe 3e2f cf3d 55d1 153e
00000190: bcf0 02be 021c eabe f1a9 4bbd c048 963d
000001a0: e7bc b6be f521 033c cb8f 06bb 2f39 60bd
000001b0: 88d7 b03b 521c 00be 326b 633d 5cdd ad3e
000001c0: 9e10 2bbe 7200 613c 2d22 283c ff7f f53c
000001d0: 01a6 4e3c d06b 40bc 7edb 91bc d5a1 823c
000001e0: 4352 eabc ec3f 81be 82e5 0dbe b3d0 e9bb
000001f0: e7b2 8a3e 4161 ce3c e54b 1bbe fb0d e2bc
00000200: f567 d33d ac93 b9be 70dc 4dbc 3688 253b
00000210: f1df c23b 617f debd 38d4 bc3d bd6c 983b
00000220: 465c b4bd dd3e 033c 74ac d23d 8dbb 08bd
00000230: 4747 65bd 2f12 ab3c 7511 e43b 357f 9abe
00000240: 9757 373d e000 b63d 4c69 36be 2611 2abc
00000250: f911 d9bd b63a 9bbc 4d69 9d3c 885a f83d
00000260: df08 a5bc 4f54 b23e 9f34 be3c 5a30 e23b
00000270: 86a6 033c 945f 8c3c fb99 ec3c c80a e1bc
00000280: 5592 0f3e 42e8 cfbc 643b 72bc 51ee 56bc
00000290: e0ec 9f3e 0680 303d f77a a23c 5619 9f3c
000002a0: 0d08 fcbd 0024 babc 5c5d c1bd a298 96be
000002b0: fb46 65bb 7d20 933d 2a5e 7ebe c478 7abc
000002c0: a26d a0bc 2582 93bc 96b0 893d 8e3c 193d
000002d0: 2434 87bb 7471 a73c 8026 30bd 2ddb 16bd
000002e0: d580 94bc bbf2 483d 4335 803d 5bff 7e3c
000002f0: 10b5 eebd 8a74 e6bb 3306 a1bd 4aca dfbc
00000300: 0536 713d 7d3d 0abc 9e13 9ebc 3277 e1bb
00000310: 8ace 48bd 5fb6 383e 4023 3abd 5590 2d3d
