Vehicles/Mod_0_02/Mod_0_02_critic_target.pth (torch, 353427 bytes, 10 tensors)

weight f4 [200, 15]
0	0xbea4c677	-0.32182667
1	0x3e64cf72	0.22344759
2	0x3d2078e6	0.039177798
3	0x3dbe3ec7	0.092893176
4	0xbd89cc35	-0.067284025
5	0x3def55fa	0.116863206
6	0x3e63322a	0.22187105
7	0xbea3661e	-0.31913847
8	0xbee2a4c2	-0.44266325
9	0x3e4bbf09	0.19897093
10	0xbe31360f	-0.17305778
11	0xbe4af259	-0.19819011
12	0xbe0460b5	-0.12927516
13	0xbea96abf	-0.33089253
14	0x3d91bf5d	0.07116578
15	0xbec17fea	-0.37792903
16	0x3e508195	0.20361932
17	0x3d26c872	0.040718503
18	0xbee00f6d	-0.4376177
19	0x3e07a1f5	0.13245375
20	0x3e159b8c	0.14610118
21	0x3e53e423	0.20692496
22	0xbf045aae	-0.51700866
23	0x3e478ecd	0.19488068
24	0xbeab473a	-0.3345278
25	0xbde3426a	-0.11096652
26	0x3ceb32e9	0.0287108
27	0x3c0cce7f	0.008594154
28	0x3c2d518d	0.010578525
29	0x3e88bec3	0.2670804
30	0x3edee669	0.43535164
31	0x3d6ac78f	0.05731922
32	0xbd9dc7ff	-0.07704162
33	0xbf1e51f1	-0.6184378
34	0x3d591f51	0.05300838
35	0x3dea3003	0.11434939
36	0xbd83c32e	-0.06433712
37	0xbe485452	-0.19563416
38	0x3ea7915a	0.32728082
39	0x3d002d7d	0.03129338
40	0x3ea07359	0.31338003
41	0xbd189675	-0.037252862
42	0xbbad0530	-0.0052801594
43	0xc0506b81	-3.2565615
44	0x3ea81cdb	0.32834515
45	0xbebcd410	-0.3688054
46	0xbdd95106	-0.10611157
47	0xbee8f78e	-0.4550137
48	0x3ecf8759	0.4053295
49	0x3e0dc597	0.13844906
50	0x3e27733c	0.16352552
51	0xbf2e91f0	-0.6819143
52	0x3ebb9274	0.36635172
53	0x3eb94c61	0.36191085
54	0xbe2537dd	-0.16134591
55	0xbe52f131	-0.2059982
56	0x3ea9c784	0.3316003
57	0x3e038200	0.1284256
58	0x3c91f9a7	0.017819239
59	0x3d4f0af3	0.05054755
60	0xbea09d54	-0.31370032
61	0xbc2cb72e	-0.01054172
62	0x3da98984	0.08278182
63	0xbe3aa510	-0.18227029
64	0xbe7caae6	-0.24674568
65	0x3e3537c6	0.17697057
66	0x3e1fca53	0.15604524
67	0xbc9656b7	-0.018351896
68	0xbe0774ff	-0.13228224
69	0x3bef1479	0.0072961417
70	0xbde22efb	-0.11044117
71	0x3e373498	0.17891157
72	0xbcd97bf2	-0.02654836
73	0x3de80729	0.11329491
74	0x404cc66c	3.1996107
75	0xbe8bc576	-0.27299088
76	0xbf2b4bb1	-0.6691237
77	0x3eae4a38	0.34041
78	0xbe74fb74	-0.23924047
79	0x3e046c20	0.12931871
80	0x3d3884a7	0.045048382
81	0x3ccbfac4	0.024899848
82	0x3bec25a3	0.007206635
83	0xbe01806f	-0.1264665
84	0xbe97f214	-0.29676878
85	0xbd964a35	-0.073383726
86	0xbf021df9	-0.50826985
87	0xbd09c9d8	-0.03363976
88	0x3edb4c52	0.42831665
89	0xbf30b13d	-0.69020444
90	0x3eb08d4a	0.34482795
91	0xbe65ed8e	-0.22453901
92	0xbf01d5e5	-0.50717
93	0xbea0d1f8	-0.31410193
94	0xbc25a7cb	-0.010110806
95	0xbe9fc9a5	-0.3120853
96	0xbf2051f5	-0.62625057
97	0xbe372ca0	-0.17888117
98	0xbe17ae1e	-0.14812514
99	0xbf0ee995	-0.5582517
100	0xbe8d7745	-0.27630058
101	0xbf26c9c6	-0.6515163
102	0xbf764632	-0.9620086
103	0xbe8bac5f	-0.27279946
104	0xbf533c34	-0.8251374
105	0x3f23dab7	0.6400561
106	0xbef3d294	-0.47621596
107	0x3eacae79	0.33726862
108	0xbe9fc153	-0.31202182
109	0x3e02acf0	0.12761283
110	0x3a795ce5	0.00095124386
111	0xbe8b769b	-0.27238926
112	0x3ec207d3	0.37896594
113	0xbeedba7d	-0.46431342
114	0xbece7272	-0.4032169
115	0x3e8dc34f	0.2768807
116	0x3ed2a1a6	0.41138953
117	0xbe596719	-0.21230735
118	0xbe692867	-0.22769319
119	0x3d053916	0.032525145
120	0x3c62a239	0.013832622
121	0xbeadfa17	-0.33979866
122	0xbe4795e9	-0.1949078
123	0x3f1b0850	0.6055956
124	0xbca54764	-0.020175643
125	0x3e5dddaa	0.2166659
126	0x3e7a32b7	0.24433409
127	0x3d05e383	0.032687675
128	0xbf00d4dd	-0.50324804
129	0xbef35997	-0.4752929
130	0xbe9c4ecd	-0.3052887
131	0x3e39be35	0.18138964
132	0x3cd96b80	0.026540518
133	0xbcb66a5d	-0.022267515
134	0x3c695149	0.014240571
135	0xbeae3d9b	-0.34031376
136	0x3d1a725c	0.037706718
137	0x3d4140dc	0.047180995
138	0x3ed12ba2	0.40853602
139	0x3d9c1e91	0.076230176
140	0xbd8a213e	-0.06744622
141	0xbea9e3dd	-0.33181658
142	0xbe3682cb	-0.17823331
143	0xbe130010	-0.14355493
144	0xbdaedfb7	-0.08538764
145	0xbece7169	-0.403209
146	0x3e1e3a8c	0.15452021
147	0xbe830525	-0.25589862
148	0x3df9ff78	0.1220693
149	0xbf45add1	-0.7721835
150	0xbeecb7f7	-0.46234104
151	0xbca9dcdd	-0.020735199
152	0x3f2bfb89	0.6718069
153	0xbea8da54	-0.3297907
154	0xbfda1f44	-1.7040792
155	0xc0188013	-2.382817
156	0xc09711a0	-4.7209015
157	0xbf822c09	-1.0169688
158	0x3d3eafc9	0.04655436
159	0x3d47ded0	0.048796475
160	0x3e31df7a	0.17370406
161	0xbe01542b	-0.12629764
162	0x3e6e7c33	0.23289566
163	0xbea06552	-0.313273
164	0xbf3061cb	-0.6889922
165	0x3e68b06a	0.22723547
166	0xbe1d1bf5	-0.15342696
167	0xbedb9d8a	-0.4289363
168	0xbd9d711e	-0.07687591
169	0xbe66072b	-0.22463672
170	0x3e3842bf	0.17994212
171	0xbc45f1e1	-0.012081594
172	0xbcaa457f	-0.020785091
173	0x3e64a15a	0.22327176
174	0x3df60103	0.12011912
175	0xbe70f4d4	-0.23530895
176	0x3d98554d	0.07438145
177	0x3b8e99e4	0.0043518413
178	0xbec99459	-0.39370993
179	0x3e6de08b	0.23230188
180	0xbf2e26b8	-0.6802783
181	0x3f3ee58f	0.7456903
182	0x3c4c158b	0.012456308
183	0xbd30df22	-0.043181546
184	0x3e8e5822	0.27801615
185	0xbd82fede	-0.06396268
186	0x3ceb5d44	0.028730996
187	0x3dae3411	0.08506025
188	0xbe2cdf7e	-0.1688213
189	0xbed17cb2	-0.40915447
190	0x3ddd7698	0.108136356
191	0x3e027c0b	0.12742631
192	0xbe691ede	-0.22765681
193	0xbf7901b0	-0.972682
194	0xbea90e23	-0.33018598
195	0xbed9a38f	-0.42507598
196	0x3e3d7d9c	0.18504947
197	0x3f08185f	0.5316219
198	0x3f6c5ad9	0.9232612
199	0xbf4cfa4d	-0.8006943
200	0xbef3dae8	-0.4762795
201	0xbd8b0824	-0.06788662
202	0xbf2ac230	-0.66702557
203	0xbf15cf2b	-0.5851924
204	0xbf131398	-0.5745177
205	0x3dc2d501	0.095132835
206	0x3e5ffeaf	0.21874498
207	0x3d9c73aa	0.07639249
208	0x3d02c597	0.031926718
209	0xbe0d95d2	-0.13826683
210	0x3e4922d1	0.19642188
211	0x3f963b09	1.1736766
212	0xbf1988c3	-0.59974307
213	0x3f2a086a	0.6641909
214	0xbe90f792	-0.2831388
215	0x3e0b6d3c	0.13615888
216	0xbea1e9af	-0.316236
217	0x3e56735b	0.20942442
218	0x3d77776f	0.060416635
219	0x3e4c5444	0.1995402
220	0x3d21b717	0.03948125
221	0xbf1d02b9	-0.6133228
222	0xbd2804c2	-0.041020162
223	0xbe90fd26	-0.28318137
224	0x3f87eab5	1.0618502
225	0x3ad22966	0.0016034066
226	0xbefffe9d	-0.49998942
227	0x3ca2de4b	0.019881388
228	0xbed5c215	-0.41749635
229	0x3eb32533	0.34989318
230	0x3e2c9bf9	0.16856374
231	0x3e452f3f	0.19256304
232	0xbe6e46c8	-0.23269188
233	0xbf41134b	-0.75420064
234	0xbf0bfac7	-0.5467953
235	0xbe9aa487	-0.3020365
236	0x3d3ab321	0.045580987
237	0xbe3b556f	-0.18294309
238	0x3e0e719f	0.1391053
239	0x3eef072c	0.4668516
240	0x3f53e47a	0.827705
241	0xbec18344	-0.3779546
242	0xbdf40763	-0.119154714
243	0x3f499aac	0.78751636
244	0x3e8b9b45	0.272669
245	0xbf10b934	-0.565326
246	0xbe8cf53e	-0.27530855
247	0xbe907640	-0.28215218
248	0x3e103eb1	0.14086415
249	0xbec432e0	-0.38320065
250	0xbd4c65c8	-0.049901754
251	0x3d77fe13	0.06054504
252	0x3e6ced82	0.23137477
253	0x3d495563	0.049153697
254	0xbdaef22d	-0.08542285
255	0xbe63ece3	-0.22258334

bias f4 [200]
0	0xbea30607	-0.31840536
1	0x3db3f9ed	0.08787904
2	0xbe580e58	-0.21099222
3	0xbcc841e8	-0.024445489
4	0xbe0e7c3c	-0.13914579
5	0xbe17dbc6	-0.1482993
6	0x3d69cca5	0.05707993
7	0xbc17df26	-0.009269511
8	0x3d038604	0.03211023
9	0xbda30954	-0.079607636
10	0x3e0cb265	0.13739927
11	0xbeb071f8	-0.3446195
12	0x3eaead48	0.34116578
13	0xbe8f7d47	-0.28025267
14	0x3e7db815	0.24777253
15	0x3e8b9c53	0.27267703
16	0xbe704555	-0.23463948
17	0xbe779294	-0.24177009
18	0xbe1ae656	-0.15126929
19	0xbe663154	-0.22479755
20	0x3d0a5497	0.033772077
21	0xbd3c8712	-0.04602725
22	0xbe6585db	-0.22414343
23	0xbe62d14b	-0.22150151
24	0xbd3c87e5	-0.046028037
25	0xbdb54458	-0.08850926
26	0xbe186ef0	-0.1488607
27	0xbe053e95	-0.13012154
28	0xbea53883	-0.32269678
29	0x3eb905e9	0.36137322
30	0xbd582dff	-0.05277824
31	0x3dc21865	0.09477309
32	0xbc8a7e70	-0.016905993
33	0x3e6b2ea0	0.22967005
34	0xbc7123e5	-0.014718031
35	0xbe25d230	-0.16193461
36	0xbe8b61ad	-0.27222958
37	0xbde3d414	-0.11124435
38	0xbe7089cc	-0.23490065
39	0x3e0eaf23	0.13933997
40	0x3d7cccec	0.061718866
41	0x3dc1d9ad	0.094653465
42	0x3e402754	0.18765002
43	0x3c606c13	0.013697642
44	0x3e82df0f	0.25560805
45	0x3d513bc7	0.0510824
46	0xbe49278b	-0.1964399
47	0xbd8e302b	-0.06942781
48	0xbdceeb52	-0.101034775
49	0x3e23145d	0.15925737
50	0xbe74913c	-0.23883528
51	0x3e3f4976	0.18680367
52	0xbe082a3d	-0.13297363
53	0xbed1ff63	-0.41015157
54	0xbe8dacc4	-0.27670872
55	0x3d9cb548	0.07651764
56	0x3e8b1cdf	0.27170464
57	0x3eb3fb5f	0.35152718
58	0xbde39242	-0.11111881
59	0xbeffcbba	-0.4996012
60	0xbd14145b	-0.036152225
61	0x3e1a1540	0.15047169
62	0x3ddf69b5	0.10908834
63	0xbe7ddfdc	-0.24792427
64	0xbea1b5e5	-0.31584087
65	0xbd6e3423	-0.05815519
66	0x3d36b6ea	0.044608034
67	0xbe59ab0d	-0.21256657
68	0xbd4aae23	-0.049482476
69	0xbe4f92c4	-0.2027083
70	0xbe070c16	-0.13188204
71	0xbd6da3b5	-0.05801745
72	0xbe96c616	-0.29448003
73	0xbe481e87	-0.19542895
74	0xbec69625	-0.38786426
75	0xbe83639d	-0.25661936
76	0x3d838592	0.06421961
77	0xbd0569bb	-0.032571536
78	0x3ed457d8	0.4147327
79	0xbe968647	-0.2939932
80	0xbd1aed79	-0.037824128
81	0xbe479c57	-0.19493233
82	0xbc253f8f	-0.010085954
83	0xbece5344	-0.40297902
84	0xbe3c07b6	-0.18362316
85	0x3d68e2b0	0.05685681
86	0xbda6c247	-0.08142524
87	0xbdd42bf8	-0.10359949
88	0xbed895c2	-0.42301756
89	0x3e745749	0.23861422
90	0xbe6539b3	-0.22385292
91	0xbe87f0e5	-0.26550975
92	0xbe5098ad	-0.20370741
93	0xbe5612ca	-0.20905605
94	0x3c0e0163	0.008667323
95	0xbe65cfbb	-0.22442524
96	0xbeca89ef	-0.3955836
97	0xbe6a7783	-0.22897153
98	0xbe5c1c3a	-0.21495143
99	0xbd56f378	-0.052478284
100	0x3e65b65e	0.22432849
101	0xbe75b1ab	-0.23993556
102	0xbed32efd	-0.41246787
103	0xbd92d0ce	-0.071687326
104	0xbe3a7ddb	-0.18212073
105	0x3dbd4481	0.09241582
106	0x3bddcc28	0.006768722
107	0x3e47bf8e	0.19506666
108	0xbde01be8	-0.10942823
109	0xbe991771	-0.29900697
110	0xbe211941	-0.1573229
111	0xbd9a16a5	-0.0752385
112	0xbd94ac65	-0.07259444
113	0x3e211db3	0.15733986
114	0x3dfbca6d	0.12294469
115	0xbe0fd4bd	-0.14045997
116	0xbece5a91	-0.40303472
117	0xbee272fd	-0.44228354
118	0xbda6e858	-0.08149785
119	0xbd765cf9	-0.06014726
120	0xbe7232f6	-0.23652253
121	0x3ed02e6a	0.4066041
122	0x3ee1085e	0.43951696
123	0x3d8c7c86	0.068596885
124	0xbe34cc13	-0.17655973
125	0xbe340118	-0.17578542
126	0x3e960b5d	0.29305544
127	0xbd4ab346	-0.049487375
128	0xbd5ce5f0	-0.053930223
129	0x3d02b28f	0.031908568
130	0xbed47d25	-0.41501728
131	0xbe82ef2d	-0.25573102
132	0x3dc026ac	0.09382376
133	0xbd2eed9e	-0.04270708
134	0x3e5ca4d8	0.21547258
135	0xbef08db4	-0.4698311
136	0xbd86274b	-0.06550463
137	0xbe94e986	-0.29084414
138	0xbe8d654d	-0.2761635
139	0x3d07159c	0.032979593
140	0xbe88f55d	-0.26749697
141	0xbbfe3a00	-0.007758379
142	0xbe809445	-0.2511312
143	0xbea42bc7	-0.3206465
144	0x3e515bd3	0.20445184
145	0x3e956ab6	0.29182976
146	0xbcb49070	-0.02204153
147	0x3d0092e3	0.031390082
148	0xbe620974	-0.22073919
149	0x3f046401	0.51715094
150	0x3e4b3cdd	0.19847436
151	0xbd3cf8ae	-0.046135597
152	0x3e936957	0.28791305
153	0xbea825bf	-0.32841298
154	0x3ddd8877	0.10817044
155	0xbde4aef4	-0.11166182
156	0x3e866c64	0.2625457
157	0xbe7c6a09	-0.24649824
158	0x3dbaa9da	0.09114428
159	0xbe50aecd	-0.20379181
160	0x3e8cdb03	0.27510843
161	0x3e003f65	0.12524183
162	0x3dd25a52	0.102711335
163	0x3e3fe077	0.1873797
164	0xbea83d2f	-0.3285918
165	0xbe15b24f	-0.146188
166	0xbe5c2a56	-0.21500525
167	0xbdb4fef0	-0.08837688
168	0x3c23735c	0.009976234
169	0x3b859048	0.0040760376
170	0x3dfc37ff	0.12315368
171	0xbe60ecb4	-0.21965295
172	0xbe239e5f	-0.15978383
173	0x3d469dc0	0.048490286
174	0xbe557112	-0.20843914
175	0xbe8cb208	-0.27479577
176	0x3e456cb6	0.19279751
177	0xbea66d87	-0.32505438
178	0xbc847f50	-0.016173989
179	0xbc8c4c02	-0.017126087
180	0xbde8406b	-0.11340412
181	0xbeb7ffa5	-0.3593723
182	0xbdc6a2ae	-0.096989974
183	0x3d816dc8	0.06319767
184	0xbdd0c121	-0.101930864
185	0xbd8e8a45	-0.069599666
186	0x3eb0ae5c	0.34508026
187	0x3d0c17d8	0.034202427
188	0x3cf5890d	0.029972577
189	0xbd827d2a	-0.063715294
190	0xbdf1e82a	-0.1181186
191	0xbd087efa	-0.03332422
192	0xbe67db42	-0.22642234
193	0x3e0037ad	0.12521239
194	0xbd843687	-0.06455713
195	0x3dfae257	0.12250202
196	0xbe836801	-0.25665286
197	0xbd398c67	-0.045299914
198	0xbd8f7a63	-0.07005765
199	0xbe255637	-0.1614617

weight f4 [200, 200]
0	0xbd5126a2	-0.051062234
1	0x3b98d0de	0.004663571
2	0x3e600d24	0.21880013
3	0xbe8fca74	-0.28084147
4	0xbf085f2d	-0.53270227
5	0xbe94c455	-0.2905604
6	0xbe3351e7	-0.17511712
7	0x3e0ab434	0.13545305
8	0xbe05021f	-0.1298909
9	0x3e898c25	0.26864734
10	0xbe6ed5db	-0.23323767
11	0x3e6463a2	0.22303632
12	0x3dc3d7a2	0.09562613
13	0x3d99e09e	0.075135455
14	0xbd1ac791	-0.037787978
15	0xbe238228	-0.1596762
16	0xbe3c813c	-0.18408674
17	0xbce4e6e2	-0.027942125
18	0x3d51b5be	0.051198713
19	0x3ef2e332	0.4743896
20	0xbc911a33	-0.017712688
21	0xbe0c3244	-0.1369105
22	0x3e6a6435	0.22889788
23	0x3d207df7	0.03918263
24	0x3e2eeedd	0.17083307
25	0x3ce5eef3	0.028068041
26	0xbcad2830	-0.021137327
27	0xbd25180f	-0.040306147
28	0xbe316d18	-0.17326772
29	0x3ce6528f	0.028115539
30	0xbd50498a	-0.050851382
31	0xbdafbcea	-0.085809544
32	0xbea7a5b9	-0.32743624
33	0xbea3d2fe	-0.31996912
34	0xbdbb0e3e	-0.09133576
35	0xbeaca808	-0.33721948
36	0x3d669224	0.056291714
37	0x3e61dc64	0.22056729
38	0xbc8efe20	-0.01745516
39	0x3eb33a82	0.35005575
40	0xbd751f3c	-0.05984424
41	0xbea6cbe9	-0.32577446
42	0x3e899243	0.268694
43	0xbd13c3c6	-0.036075376
44	0xbe3b7c10	-0.18309045
45	0xbe6ee1ab	-0.23328273
46	0xbe8d2943	-0.27570543
47	0xbd9b54d7	-0.07584541
48	0x3e03f8cc	0.12887877
49	0xbd581d72	-0.052762456
50	0xbddad188	-0.10684496
51	0xbe875052	-0.26428467
52	0xbda6cba6	-0.081443116
53	0xbf5733c9	-0.8406339
54	0x3dd99c42	0.10625507
55	0x3f08ea90	0.53482914
56	0xbecd0c6c	-0.4004854
57	0x3e3150bb	0.17315952
58	0x3d4283c0	0.047488928
59	0xbf562d59	-0.83662945
60	0xbe6f87fb	-0.23391716
61	0x3df61137	0.12015002
62	0x3e9f0bdc	0.31063735
63	0xbd07894c	-0.03308992
64	0x3e857e29	0.26072815
65	0x3c6a6d80	0.014308333
66	0xbe6a4c23	-0.22880606
67	0xbe62fab3	-0.22165947
68	0xbe187d3e	-0.14891526
69	0x3d29ca4c	0.04145269
70	0x3d800a5a	0.062519744
71	0x3df8057e	0.121104226
72	0xbd56516b	-0.05232374
73	0xbc3e9ee0	-0.011634558
74	0xbee6cc88	-0.4507792
75	0x3e9540f0	0.29151106
76	0x3e0acec5	0.13555439
77	0xbd9c5501	-0.07633401
78	0x3deac1ed	0.1146277
79	0xbf1d2857	-0.6138968
80	0x3eacfe5e	0.33787817
81	0xbeae74c2	-0.34073454
82	0x3d6de08b	0.05807547
83	0xbe3310df	-0.17486905
84	0xbd1e0bcd	-0.038585473
85	0xbe867119	-0.26258162
86	0xbdad92ce	-0.084752664
87	0xbe389f98	-0.1802963
88	0xbd352f3f	-0.04423451
89	0xbe2b051c	-0.16701168
90	0xbc8a9031	-0.016914459
91	0xbda0d4a7	-0.0785306
92	0x3f0ab502	0.54182446
93	0xbca3c7c7	-0.019992722
94	0xbe1259cc	-0.14292067
95	0x3ed9ad8b	0.42515215
96	0x3eb7c2d0	0.35890818
97	0xbd1ae05f	-0.037811633
98	0xbd30a888	-0.043129474
99	0xbec13ac9	-0.37740162
100	0xbe88afcd	-0.26696625
101	0xbf0f869d	-0.5606478
102	0xbd90d4fe	-0.07071875
103	0xbe1c5a35	-0.15268786
104	0x3e7d1b04	0.24717337
105	0xbda1d0a7	-0.079011254
106	0xbef27e24	-0.47361863
107	0xbeaea95b	-0.34113583
108	0x3c867d55	0.016417185
109	0x3ea6285e	0.32452673
110	0xbd8840ee	-0.06653009
111	0xbe7ac08d	-0.24487515
112	0xbea290d7	-0.3175113
113	0xbf1f2ee7	-0.6218094
114	0xbd5021c9	-0.05081347
115	0xbe98ccd6	-0.29843777
116	0xbe045ed1	-0.12926795
117	0xbb464113	-0.003025119
118	0x3cf4a7b3	0.029865121
119	0x3cff1793	0.03113917
120	0x3e95629e	0.291768
121	0xbf1417a8	-0.57848597
122	0xbe8d9d52	-0.27659088
123	0xbe9e922e	-0.309709
124	0x3efca848	0.49347138
125	0x3d1830d5	0.037155945
126	0x3dc0abba	0.09407754
127	0x3ea27a39	0.31733873
128	0x3e2df26c	0.16987008
129	0xbed6f65e	-0.41984838
130	0xbf4184aa	-0.75593054
131	0xbea1578f	-0.31512114
132	0x3d6011d9	0.05470452
133	0xbefcf1f0	-0.49403334
134	0x3d010ba5	0.031505246
135	0xbe4be6e0	-0.1991229
136	0x3e503769	0.20333637
137	0x3bbdecc0	0.005796045
138	0xbce42b63	-0.02785272
139	0x3d7265a4	0.059178963
140	0xbd6a0d92	-0.057141848
141	0xbc687762	-0.014188619
142	0xbe6f67cf	-0.23379444
143	0x3d3a16e6	0.045431994
144	0xbe03de3c	-0.12877744
145	0x3e47ef52	0.19524887
146	0xbeb9bcf8	-0.36276984
147	0x3e3242cf	0.17408298
148	0xbedb1f3c	-0.42797267
149	0xbe7fa12d	-0.24963827
150	0xbef660fc	-0.48120868
151	0xbe8d47e4	-0.2759391
152	0xbe88fa1b	-0.26753315
153	0xbeb26aa8	-0.34846997
154	0x3d3cef9f	0.046126958
155	0xbe3373e3	-0.17524676
156	0x3ccde2f4	0.025132634
157	0x3e177ba0	0.14793253
158	0x3e54eb7a	0.20792952
159	0xbe20c466	-0.1569992
160	0xbe9e764b	-0.30949625
161	0x3e3f3800	0.18673706
162	0xbdfbbe8f	-0.122922055
163	0xbf3e9fab	-0.74462384
164	0x3d96f42e	0.07370792
165	0x3d6384fa	0.05554674
166	0x3ddc9aa4	0.10771683
167	0xbe836dbd	-0.2566966
168	0x3e114491	0.14186312
169	0xbe93d334	-0.28872073
170	0x3e91ab8d	0.28451195
171	0xbe6576a2	-0.22408536
172	0x3b3e277f	0.002901524
173	0xbcecb93b	-0.028896919
174	0xbd0fb3ed	-0.0350837
175	0x3e07f0e3	0.13275485
176	0xbe51a7c1	-0.2047415
177	0xbdb96d7d	-0.09054086
178	0x3def8fc7	0.11697345
179	0xbdb258b0	-0.08708322
180	0xbf01f84d	-0.507695
181	0x3e25ab4f	0.1617863
182	0xbea30335	-0.31838384
183	0x3ed2c0ca	0.4116271
184	0xbed19a41	-0.40938
185	0xbeeac922	-0.45856577
186	0x3dd79f39	0.10528416
187	0x3e2281ca	0.15869823
188	0x3eb3e338	0.35134292
189	0xbd54f4fa	-0.05199144
190	0x3e98e167	0.29859468
191	0x3f079356	0.5295919
192	0xbe26f8a9	-0.16305794
193	0xbdc11238	-0.09427303
194	0x3cd725c9	0.026263135
195	0x3db36cc0	0.08760977
196	0x3be21692	0.0068996632
197	0xbcd430c2	-0.025902156
198	0xbd7b47cc	-0.061347768
199	0xbe3b86af	-0.18313096
200	0xbdbf5b28	-0.093435585
201	0xbda25aef	-0.079275005
202	0xbde1171b	-0.10990735
203	0xbce61152	-0.02808443
204	0xbd47edb1	-0.048810665
205	0x3d1a8bb5	0.03773089
206	0xbcd18f52	-0.025581036
207	0xbc0196a5	-0.007909452
208	0xbdc903d1	-0.09815181
209	0x3d1cd02d	0.03828447
210	0xbd49e341	-0.04928899
211	0x3d4525f8	0.048131913
212	0xbc80203a	-0.015640367
213	0xbd9f02ae	-0.07764183
214	0xbd15674e	-0.036475472
215	0xbe04f9d5	-0.12985928
216	0x3cd38be9	0.02582355
217	0x3dcde509	0.100534506
218	0x3cb435b8	0.021998271
219	0x3cb48bf7	0.022039397
220	0xbd085535	-0.033284385
221	0xbd1f1f95	-0.03884848
222	0xbd6d42ba	-0.057924964
223	0xbc994482	-0.018709425
224	0x3dabdfa6	0.08392267
225	0xbcdf63f1	-0.027269335
226	0xbc9e8676	-0.019351225
227	0xbc59d9fa	-0.013296599
228	0x3dd57cc9	0.104241915
229	0xbd95098e	-0.07277213
230	0xbd27cbeb	-0.040965956
231	0xbd47ca89	-0.048777137
232	0xba8d18bc	-0.0010764818
233	0xbd2cd10f	-0.04219156
234	0xbdace307	-0.084417395
235	0xbdc8e171	-0.098086245
236	0xbd2d55e1	-0.04231823
237	0xbd72ae3c	-0.059248194
238	0xbd0ff1b7	-0.035142627
239	0xbd4e7019	-0.050399873
240	0xbd2335f8	-0.03984639
241	0xbd7e7c1c	-0.06213008
242	0xbd3ebe4e	-0.046568207
243	0x3c780bab	0.015139501
244	0x3d1c0cdd	0.038098205
245	0x3d73af43	0.059493314
246	0x3d099e1c	0.03359805
247	0x3c11c40d	0.00889684
248	0x3b9e760d	0.00483585
249	0xbdf4aa0c	-0.11946496
250	0xbd9297c6	-0.07157855
251	0xbda75cf7	-0.081720285
252	0xbdae3487	-0.085061125
253	0xbdc6fd11	-0.09716237
254	0xbde64992	-0.11244501
255	0xbd65b13b	-0.056077223

bias f4 [200]
0	0xbde911fb	-0.113803826
1	0xbd85b2fd	-0.0652828
2	0x3db5b094	0.0887157
3	0x3de0681a	0.10957356
4	0xbcdd6cef	-0.027029483
5	0xbe10f826	-0.14157161
6	0xbdb95750	-0.09049857
7	0x3d144895	0.036202032
8	0xbe8e5c2d	-0.278047
9	0xbea5d367	-0.3238785
10	0xbe2d6638	-0.16933525
11	0xbd193266	-0.03740158
12	0xbdd13af2	-0.10216321
13	0x3d7bf923	0.061516892
14	0xbe84f448	-0.25967622
15	0x3de2cbd2	0.11074032
16	0xbde22313	-0.11041846
17	0xbcfc7f84	-0.030822523
18	0xbdb084b8	-0.08619064
19	0xbd7ea1cb	-0.062166017
20	0xbda41271	-0.0801133
21	0x3d2c7be6	0.042110346
22	0xbdd1212a	-0.10211404
23	0x3d880302	0.06641199
24	0x3d44ae70	0.04801792
25	0xbed01082	-0.40637594
26	0xbd03d5a5	-0.03218617
27	0xbd647e33	-0.055784415
28	0xbd049da5	-0.032376904
29	0xbd52711f	-0.051377412
30	0xbdd4e21a	-0.10394688
31	0xbe8107fe	-0.2520141
32	0x3da9f750	0.08299124
33	0x3dcdc1f2	0.10046758
34	0xbdb283a8	-0.08716518
35	0xbde3ece3	-0.11129167
36	0xbee7cc69	-0.4527314
37	0xbdce21f9	-0.100650735
38	0x3e484449	0.19557299
39	0xbdb1e8f8	-0.086870134
40	0xbe8fffb5	-0.28124776
41	0xbcf75e3c	-0.030196302
42	0xbe85b1b0	-0.26112127
43	0xbe7b06f5	-0.24514373
44	0xbe9fae8e	-0.31187862
45	0xbe56d93a	-0.20981303
46	0xbe98298e	-0.29719204
47	0x3e4ce4f4	0.20009214
48	0xbd93b4ee	-0.07212244
49	0xbd05cfe5	-0.032668967
50	0x3e1adcbe	0.15123269
51	0xbe5a2b8c	-0.21305674
52	0xbe8512bc	-0.25990856
53	0x3e0152ac	0.12629193
54	0x3e30226c	0.17200631
55	0x3e08f55c	0.13374847
56	0xbdb401fa	-0.087894395
57	0xbe354458	-0.17701852
58	0xbda35107	-0.07974439
59	0x3e68b360	0.22724676
60	0xbd7a426c	-0.0610985
61	0xbebddf20	-0.37084293
62	0x3dfb111b	0.12259122
63	0xbda5731f	-0.08078598
64	0xbd9a1f1e	-0.075254664
65	0xbe8c7218	-0.27430797
66	0xbcf6c774	-0.030124404
67	0xbd1c325e	-0.03813397
68	0x3ec074d5	0.37589136
69	0x3d74e3a9	0.059787426
70	0xbccf66f9	-0.025317656
71	0x3da5fd66	0.081049725
72	0xbdd376d2	-0.103253976
73	0xbc4cfe7f	-0.0125118485
74	0x3a7ec94f	0.00097193284
75	0x3cf16313	0.029466188
76	0xbdd71ec2	-0.105039135
77	0xbd54958a	-0.051900424
78	0xbea8de2f	-0.32982013
79	0xbe908b8e	-0.28231472
80	0xbdfba654	-0.12287584
81	0xbe86756a	-0.26261455
82	0xbea62948	-0.3245337
83	0xbe04e4d0	-0.1297791
84	0xbe895c0f	-0.26828048
85	0xbd024be5	-0.03181066
86	0xbe809f2f	-0.25121447
87	0xbe93e626	-0.28886527
88	0xbe4b4069	-0.1984879
89	0x3ecf1d73	0.40452155
90	0xbdde63b2	-0.10858859
91	0xbd896065	-0.06707839
92	0x3dc679b3	0.09691181
93	0xbea4fc83	-0.322239
94	0xbe0184ad	-0.12648268
95	0xbda77917	-0.08177393
96	0xbd7fc824	-0.06244673
97	0xbe2704af	-0.1631038
98	0x3ec07967	0.37592623
99	0xbd62c65b	-0.055364948
100	0xbacfe0d9	-0.0015859857
101	0xbdb229d0	-0.08699381
102	0x3e7d4be9	0.24735989
103	0xbd8fbc85	-0.07018379
104	0x3e3db0ce	0.18524477
105	0xbe0a5311	-0.1350825
106	0x3de5897c	0.11207864
107	0xbdb490a8	-0.088166535
108	0xbc9bcc06	-0.019018184
109	0xbdcbdb29	-0.09953911
110	0xbcd5fb5a	-0.02612083
111	0xbdd99c42	-0.10625507
112	0x3e9d3978	0.30707908
113	0xbd84efad	-0.06491027
114	0xbcdb253a	-0.02675115
115	0xbd3821f0	-0.04495424
116	0xbd9dfdbe	-0.07714413
117	0xbdfb9dbc	-0.12285945
118	0x3e365943	0.17807488
119	0xbe6499c7	-0.22324286
120	0xbe6a9015	-0.22906525
121	0x3e2478d3	0.16061716
122	0xbdbdf616	-0.09275453
123	0xbd5c6fb2	-0.05381746
124	0xbdaa9cff	-0.08330726
125	0xbdb545f9	-0.08851237
126	0xbd5f76b2	-0.054556556
127	0xbed4affd	-0.41540518
128	0xbe6b3e24	-0.22972924
129	0xbec74ad2	-0.3892427
130	0xbe007fcb	-0.12548749
131	0x3dee3742	0.11631633
132	0xbd56b698	-0.05242023
133	0xbd864f3d	-0.06558082
134	0xbdf13034	-0.11776772
135	0xbdcd3327	-0.10019522
136	0x3d3dd15c	0.04634224
137	0x3d85e821	0.06538416
138	0xbdb42028	-0.08795196
139	0xbe59f90d	-0.21286412
140	0xbc4574e1	-0.012051792
141	0xbea55675	-0.32292524
142	0xbe6dcdba	-0.2322301
143	0x3e25dd5e	0.16197726
144	0x3ef5e7f1	0.4802852
145	0xbd643034	-0.055710033
146	0xbcca6cc1	-0.024710061
147	0xbc12d0ce	-0.008960916
148	0xbda05bff	-0.07830047
149	0xbe349878	-0.17636287
150	0xbe7aa3e4	-0.24476582
151	0xbdaa27cf	-0.08308374
152	0xbdfd1264	-0.12357023
153	0xbcd3abb0	-0.025838703
154	0xbdb83898	-0.089951694
155	0xbe27cc7b	-0.16386597
156	0xbd917c2e	-0.071037635
157	0x3ce91e9d	0.02845698
158	0x3e28b4aa	0.16475168
159	0xbe975ae8	-0.29561543
160	0x3da4937c	0.08035943
161	0xbc6ab59b	-0.014325525
162	0xbd9588e6	-0.07301502
163	0xbd246bd7	-0.040141907
164	0xbd85e755	-0.06538264
165	0xbe58ec8d	-0.21183987
166	0x3e1568e5	0.14590795
167	0xbec97871	-0.39349702
168	0xbd3edfaa	-0.04660002
169	0xbe569b82	-0.20957759
170	0xbd8efac5	-0.06981424
171	0xbdfe1679	-0.1240663
172	0xbd462959	-0.048379276
173	0xbe929d20	-0.28635502
174	0x3d79cac0	0.060984373
175	0xbdeb4c63	-0.11489179
176	0xbdadab07	-0.084798865
177	0xbea9818d	-0.33106652
178	0x3e40d8e8	0.18832743
179	0xbe853ed4	-0.26024497
180	0xbd4a5494	-0.049397066
181	0xbd369c18	-0.044582456
182	0xbedd7064	-0.4324981
183	0x3e3d5a9c	0.18491596
184	0xbdcbd679	-0.09953017
185	0xbe53e81a	-0.20694008
186	0x3e93a30d	0.28835335
187	0xbe0bbabd	-0.13645454
188	0xbd9e7d16	-0.07738702
189	0x3e07b863	0.13253932
190	0x3eaebe43	0.34129533
191	0x3e7fd732	0.24984434
192	0xbe993606	-0.2992403
193	0x3d0bd243	0.034136068
194	0x3e69c328	0.22828352
195	0xbd825225	-0.06363324
196	0x3c86d932	0.016460989
197	0x3e59111f	0.21197937
198	0xbe68e57d	-0.22743793
199	0xbe07431b	-0.13209192

weight f4 [1, 200]
0	0x3dcadbc6	0.099052
1	0x3c5e50f2	0.013569104
2	0x3e434025	0.19067438
3	0x3b1f08ed	0.0024266795
4	0xbd1655d4	-0.036702946
5	0x3c8ec1bc	0.017426364
6	0xbc5a8832	-0.013338136
7	0xbce3ab43	-0.027791625
8	0x3df442eb	0.11926826
9	0xbec22ac9	-0.37923267
10	0xbe2c9ecd	-0.16857453
11	0xbc253566	-0.010083532
12	0xbcc86859	-0.02446382
13	0xb964006a	-0.00021743929
14	0x3e9fc9b6	0.3120858
15	0xbe829874	-0.25506938
16	0x3c963336	0.018334966
17	0x3ca89a27	0.020581318
18	0xbc6749d3	-0.014116722
19	0x3ec39e1b	0.38206562
20	0xbf4f97c3	-0.81090945
21	0xbc10935e	-0.008824198
22	0x3c1d5e5e	0.009605018
23	0x3d49e28a	0.04928831
24	0x3c46de98	0.012138031
25	0x3a7bb84b	0.0009602352
26	0x3cbafd2f	0.022825805
27	0x3dbd219f	0.09234928
28	0xbc692bdb	-0.014231647
29	0xbd3df9a8	-0.04638067
30	0xbb89d33c	-0.0042060893
31	0x3f291c2a	0.660586
32	0x3f196903	0.5992586
33	0x3d8896a7	0.0666936
34	0x3c61a162	0.013771387
35	0x3b223957	0.0024753415
36	0xbf0ee9e5	-0.55825645
37	0x3c86796c	0.01641532
38	0xbd20df66	-0.03927555
39	0xbdb679b7	-0.08909934
40	0x3ece1e10	0.4025731
41	0x3c891ba5	0.016736815
42	0x3ddf5cb5	0.10906354
43	0x3ece6794	0.403134
44	0xbb2f2f4f	-0.002673108
45	0x3efa8ea3	0.48936948
46	0x3e1c7c95	0.152819
47	0x3ee6b014	0.45056212
48	0xbc96e7ac	-0.018421017
49	0xbc0e095d	-0.008669225
50	0xbd8ccec4	-0.06875375
51	0x3ed36a49	0.41292027
52	0x3e2b367a	0.1672
53	0x3dc37e88	0.09545618
54	0xbd6f2c28	-0.05839172
55	0xb9f65ec3	-0.0004699138
56	0x3f3556ab	0.7083537
57	0x3e3d9797	0.18514858
58	0xbc25acef	-0.010112031
59	0xbd2abb60	-0.0416826
60	0x3e12d3ae	0.14338562
61	0x3c9bd604	0.019022949
62	0x3c19a795	0.009378334
63	0x3d3fb118	0.04679975
64	0x3d0aca1c	0.033884153
65	0x3d9ac00c	0.07556161
66	0x3cb2dfd8	0.021835253
67	0xbcd8823a	-0.026429284
68	0x3de3a87b	0.111161195
69	0xbd561c0a	-0.052272834
70	0x3b660343	0.003509716
71	0x3bff1f64	0.0077857245
72	0x3ea7c5a6	0.3276798
73	0x3eba3f3e	0.36376375
74	0x3ed4a6e9	0.41533592
75	0xbe44500f	-0.19171165
76	0xbc9d0f76	-0.019172411
77	0x3ad2cfa1	0.0016083607
78	0x3e2c2675	0.16811545
79	0x3e9377fd	0.2880248
80	0x3cc7ac10	0.024374038
81	0x3f51e226	0.819857
82	0xbeb9013e	-0.3613376
83	0x3e4dae4f	0.20086025
84	0x3f0f1c6e	0.55902755
85	0xbd032834	-0.032020763
86	0xbf1b7f75	-0.6074136
87	0x3c76dd53	0.015067416
88	0x3f532165	0.8247283
89	0xbc8bf3e2	-0.017084066
90	0xbb403f48	-0.0029334594
91	0xbbad4576	-0.0052878214
92	0xbdf588ab	-0.11988958
93	0x3f3a7e03	0.7284853
94	0x3c1f37ce	0.009717895
95	0x3cdbe182	0.026840929
96	0xbbb96ba0	-0.005658582
97	0x3ebccbaf	0.36874148
98	0xbdce1e40	-0.100643635
99	0xbc284cce	-0.010272218
100	0x3c4cb6b0	0.012494728
101	0x3e86f414	0.26358092
102	0x3ea14f80	0.31505966
103	0x3888e684	6.527922e-05
104	0xbe588e98	-0.21148145
105	0xbecd4ef2	-0.40099293
106	0x3f597127	0.8493828
107	0xbc504281	-0.012711168
108	0xbb889b85	-0.00416893
109	0xbca918b7	-0.020641668
110	0x3c02ea7c	0.007990476
111	0xbb051464	-0.0020306343
112	0x3e37536d	0.17902918
113	0xbc10c625	-0.008836304
114	0x3c678533	0.014130878
115	0xbb9fed0d	-0.0048805536
116	0xbb288127	-0.0025711746
117	0xbbfdf684	-0.007750334
118	0xbd6d3dcd	-0.057920266
119	0x3f0b660c	0.54452586
120	0x3f0ada84	0.5423968
121	0xbcb6e84a	-0.022327561
122	0x3f13f4e2	0.57795537
123	0xbc197d66	-0.009368276
124	0x3d1eb2fd	0.038744915
125	0xbd8031d2	-0.062595025
126	0x3b77bf1b	0.0037803117
127	0x3cef6019	0.029220628
128	0x3eebd020	0.46057224
129	0xbeb5525e	-0.35414404
130	0x3f1c32de	0.6101512
131	0xbb46b788	-0.0030321795
132	0x3daad745	0.08341841
133	0x3c3fbfef	0.011703475
134	0x3b98bd36	0.0046612276
135	0x3e0e4901	0.13895036
136	0x3f2f0837	0.6837191
137	0xbda42174	-0.08014193
138	0x3b354840	0.0027661473
139	0x3f01ab1d	0.50651723
140	0x3c27b926	0.010237014
141	0x3dc13947	0.09434753
142	0x3ec71f16	0.38890904
143	0x3ba5eaa7	0.005063373
144	0xbdaa5a00	-0.083179474
145	0x3d28c8ea	0.04120723
146	0xbc25bbc7	-0.01011557
147	0x3cd8422a	0.026398737
148	0xbe8314ac	-0.2560171
149	0x3ec9f088	0.39441323
150	0xbd9a2129	-0.07525856
151	0xbc501dca	-0.012702415
152	0x3c93fc06	0.01806451
153	0x3ef9b667	0.48771974
154	0xbba0e89e	-0.0049105426
155	0x3f4c3970	0.7977514
156	0xbc490df9	-0.012271398
157	0x3ec84f28	0.3912289
158	0xbd5309cf	-0.051523026
159	0x3ef0b9a7	0.47016641
160	0x3ef66abc	0.48128307
161	0x3db0ca40	0.08632326
162	0x3bbc9438	0.0057549737
163	0xba9277bd	-0.0011174601
164	0x3cb3ea40	0.021962285
165	0x3d135692	0.03597123
166	0xbd0fc6d8	-0.03510174
167	0x3e1f3680	0.15548134
168	0xbf16181f	-0.58630556
169	0xbc5bb751	-0.013410405
170	0x3cf6dbc4	0.03013409
171	0x3f2b1a37	0.66836876
172	0x3d461120	0.048356175
173	0x3d7a4152	0.06109745
174	0xbdc36eaf	-0.095425956
175	0xbae0b892	-0.001714485
176	0x3ca45916	0.02006201
177	0x3f1a94ca	0.60383284
178	0xbd11b313	-0.03557117
179	0xbebf8f24	-0.37413895
180	0x3ef5a0f2	0.47974354
181	0x3c39529f	0.011311202
182	0xbf27b5be	-0.6551169
183	0x3e8c53c7	0.27407667
184	0xbd3586bf	-0.044317957
185	0xbd0089b3	-0.03138132
186	0xbd1ad384	-0.037799373
187	0x3ca5d336	0.020242315
188	0xbd20d517	-0.03926572
189	0xbe899848	-0.26873994
190	0xbe4b8a83	-0.19877057
191	0x3f3e28df	0.74281114
192	0x3de7742c	0.11301455
193	0x3e99ad94	0.30015242
194	0x3ea6e9a7	0.32600138
195	0x3b358e8f	0.002770338
196	0xbe3003ad	-0.17188902
197	0xbe5afad5	-0.21384747
198	0xbedc3158	-0.43006396
199	0x3eba2654	0.36357367

weight f4 [200, 15]
0	0xbeaea3f0	-0.3410945
1	0xbdd61522	-0.104532495
2	0xbe675838	-0.22592247
3	0xbd888c83	-0.066674255
4	0x3ddf6db9	0.109096
5	0x3ef56810	0.47930956
6	0xbe49250d	-0.1964304
7	0xbe9bdfdd	-0.30444232
8	0x3d8436cf	0.064557664
9	0x3eca8a5b	0.39558682
10	0x3dfbbbcd	0.122916795
11	0xbf0beab1	-0.54654986
12	0x3a8c62bd	0.0010710579
13	0x3e99b867	0.300235
14	0xbf5290a9	-0.82251984
15	0x3f152216	0.58255136
16	0xbd8592b9	-0.06522126
17	0x3e84fd5c	0.25974548
18	0x3e128776	0.14309487
19	0xbe0ae2aa	-0.13563028
20	0x3c2424f5	0.010018577
21	0xbe145e4c	-0.14489096
22	0xbeb4d26d	-0.35316792
23	0xbf1bf3a7	-0.6091866
24	0xbf47ab3e	-0.7799567
25	0x3b6637a5	0.0035128382
26	0xbd204e9c	-0.039137468
27	0x3e028d09	0.12749113
28	0xbd6a7bf6	-0.057247125
29	0xbf31dac7	-0.6947445
30	0xbe5f6489	-0.21815695
31	0x3eb887c8	0.36041093
32	0x3e5daed2	0.2164872
33	0xbf0a8015	-0.5410169
34	0x3e7da63b	0.24770443
35	0x3c894ecb	0.016761204
36	0x3dfde033	0.12396278
37	0x3e79a7a4	0.24380356
38	0xbf27a92e	-0.6549252
39	0xbd90258f	-0.07038414
40	0xbe865dc1	-0.26243404
41	0x3e02d737	0.1277741
42	0xbe24d635	-0.16097338
43	0xbf26601e	-0.64990413
44	0x3f566d3f	0.83760446
45	0x3ea78ecc	0.32726133
46	0x3f77dad4	0.9681828
47	0x3e93de10	0.28880358
48	0x3e406c68	0.18791354
49	0xbf2f3c66	-0.68451536
50	0xbf0f8f57	-0.56078094
51	0xbf874847	-1.0568932
52	0xbce1526b	-0.02750512
53	0xbe3d7572	-0.18501833
54	0x3eadfef2	0.3398357
55	0xbd966f56	-0.073454544
56	0x3e0d1d89	0.13780798
57	0xbd2fedb2	-0.042951293
58	0x3d72ad78	0.059247464
59	0xbe889e35	-0.26683202
60	0x3e7954b2	0.24348715
61	0x3ea38a32	0.31941372
62	0x3e03c709	0.12868895
63	0xbe74e1d1	-0.23914267
64	0x37ff7321	3.045198e-05
65	0xbc0ed59f	-0.008717923
66	0xbea7fdb5	-0.3281075
67	0xbef0bd5d	-0.47019473
68	0xbe054ba3	-0.13017134
69	0x3ee49c96	0.44650716
70	0x3d2d1c11	0.042263094
71	0x3e09e006	0.13464364
72	0xbebb23c3	-0.36550722
73	0xbe728722	-0.23684362
74	0x3f52e23d	0.8237646
75	0xbe2e9d22	-0.17052129
76	0x3f1d423a	0.6142918
77	0xbdab27cf	-0.08357202
78	0xbed446e9	-0.4146035
79	0xbf82ce76	-1.0219257
80	0xbeeda6bc	-0.4641627
81	0xbdc7ec4f	-0.09761869
82	0x3e5df0dc	0.21673912
83	0x3db59393	0.08866038
84	0xbeb4c7d8	-0.3530872
85	0xbe8cbfa8	-0.27489972
86	0xbe0f6148	-0.14001954
87	0xbdc7e962	-0.09761311
88	0x3e860085	0.2617227
89	0x3e5320b1	0.2061794
90	0x3e2eaca3	0.17058043
91	0x3d031233	0.031999778
92	0x3d5b122a	0.05348412
93	0xbc97dc4b	-0.018537661
94	0xbec20b4a	-0.37899238
95	0x3e3a938d	0.18220349
96	0x3e341d29	0.17589249
97	0x3e91dcbd	0.28488722
98	0xbf4f05e8	-0.8086839
99	0x3ea735d5	0.32658258
100	0x3e4e3872	0.2013872
101	0x3d7ff0fd	0.062485684
102	0xbd92def8	-0.07171434
103	0x3b3a97ba	0.0028471784
104	0x3dbbe597	0.0917465
105	0x3e8931c5	0.26795784
106	0xbeb8c194	-0.36085188
107	0xbeb8c41e	-0.36087126
108	0x3f5c33b3	0.86016387
109	0x3e19a7ef	0.15005468
110	0xbe85139c	-0.25991523
111	0x3e0c7d9e	0.13719794
112	0x3e203a2f	0.15647195
113	0x3e27cd42	0.16386893
114	0xbfa1e002	-1.2646487
115	0xbf278bd3	-0.6544773
116	0xbee366b8	-0.44414306
117	0xbe693c68	-0.2277695
118	0xbf0116d2	-0.50425446
119	0x3e8222b2	0.25417095
120	0xbe56096a	-0.20902029
121	0x3e927d35	0.2861115
122	0xbc48f1d9	-0.012264692
123	0xbe602d82	-0.2189236
124	0x3dfca693	0.12336459
125	0xbe5f7dba	-0.21825305
126	0x3e0cf274	0.13764364
127	0x3d5b7f12	0.05358798
128	0xbe58d82a	-0.2117621
129	0xbe333c08	-0.17503369
130	0xbe707004	-0.2348023
131	0xbe65c26b	-0.22437446
132	0xbea46e2f	-0.32115313
133	0x3d412a70	0.047159612
134	0x3d95bd3d	0.07311485
135	0xbe2a447b	-0.16627686
136	0x3b63504d	0.0034685314
137	0x3dcb2fbb	0.09921213
138	0xbf09b2e5	-0.53788596
139	0xbf376d3a	-0.7165104
140	0x3e7d642f	0.24745248
141	0x3e0ebd48	0.13939393
142	0x3eaf254a	0.34208137
143	0x3ebacdec	0.3648523
144	0x3db7970a	0.08964355
145	0xbe1ff857	-0.15622078
146	0x3e1744da	0.14772359
147	0x3c84782d	0.016170586
148	0xbecf5f98	-0.4050262
149	0xbce80aa4	-0.028325386
150	0x3eb47b4c	0.35250318
151	0xbda9d72f	-0.08292996
152	0x3e8271e4	0.25477517
153	0xbf11ce6b	-0.56955594
154	0xbec557f6	-0.3854367
155	0xbe51d27d	-0.20490451
156	0xbe603577	-0.21895395
157	0x3e9602fa	0.29299146
158	0x3f1c6579	0.61092335
159	0x3e79085b	0.24319594
160	0xbe8276e4	-0.2548133
161	0xbe2df6de	-0.16988704
162	0x3e59d05c	0.21270889
163	0xbf02aa52	-0.5104114
164	0xbf025563	-0.5091154
165	0xbe88a572	-0.26688725
166	0xbea9e46e	-0.3318209
167	0x3d244553	0.040105175
168	0xbdff17dc	-0.12455723
169	0xc00e288e	-2.2212253
170	0xbfec82ff	-1.8477477
171	0xc0841604	-4.1276875
172	0xc0279906	-2.6187148
173	0x3e7f61e4	0.24939686
174	0x3daf40a7	0.08557253
175	0x3d442386	0.04788544
176	0x3ec2f6ff	0.38079068
177	0x3e543c84	0.2072621
178	0xbeb942e4	-0.36183846
179	0x3e92f0d8	0.28699374
180	0x3db515ac	0.08842024
181	0x3e359ae6	0.1773487
182	0xbed714f3	-0.4200817
183	0xbe8d75a2	-0.2762881
184	0xbeadfcdc	-0.3398198
185	0x3da60e53	0.08108201
186	0xbe8aa60d	-0.27079812
187	0x3e934ce8	0.28769612
188	0x3e5e249d	0.21693654
189	0x3f01f381	0.5076218
190	0xbc31163d	-0.010808525
191	0x3e8dedda	0.2772053
192	0xbdbad707	-0.091230445
193	0xbebfb734	-0.3744446
194	0xbf93bfb2	-1.1542876
195	0xbcaf3361	-0.021386804
196	0x3dffc792	0.12489237
197	0xbd6a207f	-0.057159897
198	0xbbb6e4d2	-0.0055814767
199	0x3e6a9f3e	0.22912309
200	0x3edcb5ab	0.43107352
201	0x3d789fa0	0.060699105
202	0xbec24442	-0.37942702
203	0x3d0d08ce	0.034432225
204	0xbf347caf	-0.7050275
205	0xbf7c0fa4	-0.98461366
206	0xbe01cbf4	-0.12675458
207	0xb9f28e31	-0.00046263778
208	0x3e5dcbea	0.21659818
209	0x3f9402a8	1.1563311
210	0xbe5db364	-0.21650463
211	0xbe9a6bd3	-0.30160388
212	0x3e07c2d6	0.13257918
213	0xbc136afb	-0.008997674
214	0x3da4f7ce	0.080550775
215	0x3e388811	0.18020655
216	0xbe38ce35	-0.18047412
217	0x3e716f40	0.23577595
218	0xbe3c327a	-0.1837863
219	0xbe49c0e8	-0.19702494
220	0xbf5778fb	-0.84168977
221	0xbee867c1	-0.45391658
222	0xbeb06f06	-0.34459704
223	0x3e4e2a7b	0.20133393
224	0x3f314661	0.69248015
225	0xbeba244c	-0.36355817
226	0x3ef42e52	0.4769159
227	0x3e4ae20a	0.1981279
228	0xbcba01b5	-0.022705892
229	0xbeb72b5f	-0.35775277
230	0x3e99475f	0.29937264
231	0x3d93576c	0.07194409
232	0xbe252674	-0.1612795
233	0x3e1b3013	0.15155058
234	0x3d97088c	0.07374677
235	0x3dab08f8	0.0835132
236	0xbe5fcc6a	-0.21855322
237	0xbe313a55	-0.17307408
238	0x3dfd104b	0.12356623
239	0x401afce2	2.4216847
240	0x3f867712	1.0505087
241	0xbd41f495	-0.047352392
242	0xbf9d1b6a	-1.2273991
243	0x3f3e4b7e	0.7433394
244	0xbd96a06f	-0.07354819
245	0xbe25e86e	-0.16201946
246	0xbe256455	-0.16151555
247	0xbca87be8	-0.020566896
248	0x3e077e69	0.13231815
249	0x3e1c135b	0.15241759
250	0xbdc62b79	-0.096762605
251	0x3d25efc9	0.04051188
252	0xbd690bb6	-0.056895934
253	0xbd66fd7f	-0.056394096
254	0x3f18a923	0.5963308
255	0x3f297a5c	0.6620233

bias f4 [200]
0	0xbd6728ae	-0.05643528
1	0xbdbed54b	-0.09318026
2	0xbe11fc86	-0.14256486
3	0x3d076e50	0.033064187
4	0xbea5ab62	-0.32357317
5	0x3e6e1769	0.23251118
6	0xbe2416a3	-0.1602426
7	0xbdd0cff0	-0.10195911
8	0xbea6dd9f	-0.32590958
9	0xbee6eb8d	-0.45101586
10	0xbeb10cdb	-0.3458012
11	0xba4e0db0	-0.0007860316
12	0xbe4ef32f	-0.20209955
13	0xbdfe6cd0	-0.12423098
14	0xbe8cc666	-0.27495116
15	0xbde5b033	-0.11215248
16	0xbe9bf2f5	-0.304588
17	0xbe86ec0f	-0.26351973
18	0xbd8ce2aa	-0.0687917
19	0xbf10d1c7	-0.56570095
20	0xbdad55a9	-0.08463604
21	0xbe7142f4	-0.23560697
22	0x3ea71add	0.32637683
23	0xbc96a60e	-0.018389728
24	0x3d91c306	0.07117276
25	0x3e452ad1	0.19254614
26	0xbeb34d38	-0.3501985
27	0xbdc2fb37	-0.09520572
28	0x3d0af12d	0.03392141
29	0xbe7e72bc	-0.24848455
30	0x3d2eee15	0.04270752
31	0xbca32167	-0.019913388
32	0x3d894403	0.06702425
33	0xbed2bf02	-0.41161352
34	0xbe82c619	-0.25541762
35	0x3d2e802a	0.042602696
36	0x3d3e0cc7	0.046398904
37	0xbe45a4f6	-0.19301209
38	0xbe793c5c	-0.24339432
39	0x3d7a86da	0.06116376
40	0xbe63e1f3	-0.22254162
41	0xbe66f141	-0.22552969
42	0xbe508004	-0.20361334
43	0xbe6903ed	-0.22755404
44	0x3eca2a56	0.39485425
45	0xbdbe33d8	-0.09287232
46	0xbd52a597	-0.05142745
47	0x3e6f8f37	0.23394476
48	0xbd92ad67	-0.0716198
49	0xbe9f9ec6	-0.31175822
50	0xbd8832d5	-0.066503204
51	0x3c1b5a61	0.009481997
52	0x3ee967e5	0.45587078
53	0x3c7eae0a	0.015544424
54	0xbee019fb	-0.43769822
55	0xbe68e5bd	-0.22743888
56	0xbe54e376	-0.20789894
57	0x3dfe0272	0.1240281
58	0xbea1320f	-0.31483504
59	0x3e3b35a9	0.18282188
60	0xbe65ef3d	-0.22454543
61	0xbe85ae75	-0.26109663
62	0x3ec96564	0.39335167
63	0xbeb39ce8	-0.35080647
64	0xbe1a63de	-0.15077159
65	0xbdfa0dbc	-0.12209651
66	0x3e53ce65	0.20684202
67	0xbdaa1d2b	-0.083063446
68	0x3ce30699	0.027713107
69	0x3ecb2e21	0.3968363
70	0xbe48cf35	-0.19610293
71	0xbde51839	-0.11186261
72	0xbe17663e	-0.14785096
73	0x3e831fac	0.256101
74	0xbe8bd8e7	-0.2731392
75	0xbe0d929d	-0.1382546
76	0x3ce866fa	0.028369416
77	0x3dc250e2	0.094880834
78	0x3e6c0595	0.23049004
79	0xbe4424f1	-0.19154717
80	0x3c5f6580	0.013635039
81	0xbda00638	-0.07813686
82	0x3c335e42	0.010947766
83	0x3b58493a	0.003300263
84	0x3e5be998	0.21475828
85	0xbe225aef	-0.15855001
86	0x3eb42b44	0.3518926
87	0x3a005cc6	0.0004896637
88	0xbdceeb89	-0.101035185
89	0x3e0c7c2a	0.1371924
90	0x3e91014f	0.2832131
91	0xbe9a8107	-0.30176565
92	0xbd114f6f	-0.035476144
93	0xbe186746	-0.14883146
94	0xbe0a472b	-0.13503711
95	0x3ea5fd86	0.32419986
96	0xbe98c376	-0.29836625
97	0xbe5d364b	-0.21602742
98	0x3e1617ac	0.14657468
99	0xbe64350d	-0.22285862
100	0x3e33e604	0.17568213
101	0xbea68b97	-0.32528374
102	0x3e3f5f8f	0.18688796
103	0xbe96dbf6	-0.29464692
104	0xbcb229d0	-0.021748453
105	0x3df84ed7	0.121244125
106	0xbe939e7a	-0.28831846
107	0xbe9a2cc2	-0.30112273
108	0xbe58486a	-0.21121374
109	0xbe92ba57	-0.2865779
110	0xbe3e7779	-0.18600263
111	0x3d8d435f	0.06897616
112	0xbe9fa4a4	-0.31180298
113	0xbe98666b	-0.2976564
114	0xbdfb9bd3	-0.122855805
115	0x3e90d404	0.28286755
116	0x3e0b3fa3	0.13598494
117	0x3ea022d0	0.3127656
118	0xbe4f38bd	-0.20236488
119	0xbd9e3133	-0.07724228
120	0xbea3f115	-0.32019868
121	0xbdfc2936	-0.12312548
122	0xbdae0dc4	-0.08498719
123	0xbe516c9f	-0.20451592
124	0xbd4ad9fc	-0.049524292
125	0xbe106247	-0.1409999
126	0x3c8c7657	0.017146273
127	0x3d4f4530	0.05060309
128	0xbe183d84	-0.14867216
129	0x3dc8f3c0	0.098121166
130	0xbdbc7c00	-0.092033386
131	0xbe643fdf	-0.2228999
132	0x3daa6ca9	0.083215065
133	0xbea0ebbf	-0.3142986
134	0x3e42f3f0	0.19038367
135	0xbe416915	-0.18887742
136	0xbc3107a2	-0.010805042
137	0xbd02ca75	-0.03193136
138	0x3da31c41	0.079643734
139	0xbeb7c750	-0.3589425
140	0x3ded9434	0.11600533
141	0xbe905736	-0.28191537
142	0x3de9ae7c	0.114102334
143	0xbe0868bd	-0.13321204
144	0x3d8908f2	0.06691159
145	0xbe35d350	-0.1775639
146	0xbecd71de	-0.40125936
147	0xbdf45cff	-0.119318
148	0x3d0fc70f	0.035101946
149	0xbe03eda2	-0.12883618
150	0xbedc64bd	-0.43045607
151	0x3da32d44	0.07967618
152	0x3dd8f263	0.105931066
153	0x3ecb541c	0.39712608
154	0xbe6345f6	-0.22194657
155	0xbe26285f	-0.16226338
156	0xbddfa610	-0.10920346
157	0x3e5733f8	0.21015918
158	0xbe7e2b4d	-0.24821205
159	0x3dfea3f3	0.124336146
160	0xbea6e3c7	-0.32595655
161	0xbdd9390a	-0.106065825
162	0xbc225a27	-0.009909189
163	0x3e924502	0.28568274
164	0xbb053844	-0.0020327726
165	0x3e4190eb	0.18902938
166	0xbd371cd0	-0.044705212
167	0xbeb91d20	-0.36155033
168	0xbe8aff71	-0.2714801
169	0xbe3992f2	-0.18122461
170	0xbe3c66c3	-0.18398575
171	0xbec87349	-0.39150456
172	0xbdc58e5e	-0.09646295
173	0x3e9884eb	0.29788908
174	0xbdce8919	-0.10084743
175	0x3ea6c8ab	0.32574973
176	0xbc7a126c	-0.015263181
177	0xbdcb807e	-0.09936617
178	0x3e86f9e7	0.26362535
179	0xbe2a651b	-0.16640131
180	0x3e4a1143	0.19733147
181	0xbe7db8ad	-0.2477748
182	0xbdc75171	-0.097323306
183	0xbd88453c	-0.066538304
184	0x3dab6b6f	0.08370101
185	0xbcfccc08	-0.030859008
186	0x3dc1dac1	0.09465552
187	0xbe1efade	-0.15525386
188	0xbd043a6d	-0.03228228
189	0xbe67950c	-0.2261545
190	0x3eb50be8	0.35360646
191	0x3ec92d3b	0.3929232
192	0x3e8563b7	0.2605264
193	0x3d0332c6	0.032030843
194	0x3e7bd187	0.24591647
195	0x3c3cce07	0.01152373
196	0x3e27aade	0.16373774
197	0xbe56d3eb	-0.20979278
198	0xbd88fedf	-0.06689238
199	0x3dc758ad	0.097337104

weight f4 [200, 200]
0	0xbea2ab67	-0.31771395
1	0xbdaffd8e	-0.085932836
2	0xbd481c90	-0.048855364
3	0xbd04d5e4	-0.032430544
4	0xbbfb7c23	-0.0076747104
5	0x3e23b75f	0.1598792
6	0xbdda9e11	-0.1067468
7	0xbbdab96a	-0.006674935
8	0xbd11e8c6	-0.03562238
9	0xbed9b47a	-0.42520505
10	0xbea3981f	-0.31951997
11	0x3d6d74ba	0.057972647
12	0xbef6cc24	-0.48202622
13	0x3ca68236	0.020325761
14	0x3c4dccd1	0.012561039
15	0xbee26963	-0.4422103
16	0x3e72791c	0.23679012
17	0xbd993fae	-0.07482849
18	0xbedde5ea	-0.43339473
19	0xbd5e2e92	-0.05424363
20	0xbdb96947	-0.09053283
21	0x3d3f8eb8	0.046766967
22	0xbde7d673	-0.113202
23	0x3cf9e978	0.030506834
24	0xbe8cbee5	-0.2748939
25	0xbcce05d9	-0.025149273
26	0xbcb1f258	-0.021722004
27	0xbd761b94	-0.060084894
28	0xbe5f0181	-0.21777917
29	0xbd6a2c1a	-0.057170965
30	0xbe0a102d	-0.13482733
31	0xbdc90561	-0.09815479
32	0x3c4620c0	0.012092769
33	0xbebfdb47	-0.37471983
34	0xbec4d649	-0.38444737
35	0xbe93a485	-0.28836456
36	0xbd92d25d	-0.0716903
37	0xbe88e815	-0.26739565
38	0x3d29c55f	0.041447993
39	0xbcf0770c	-0.029353641
40	0x3c63ece2	0.013911458
41	0xbe2e322f	-0.17011331
42	0xbd698292	-0.057009287
43	0xbee6cc0b	-0.45077547
44	0xbead39bf	-0.3383312
45	0xbbcbd420	-0.0062203556
46	0xbeca5871	-0.395206
47	0x3c966e95	0.018363276
48	0xbd96f815	-0.07371537
49	0xbe91ae2e	-0.284532
50	0x3c556eb9	0.013026887
51	0xbdb10348	-0.08643204
52	0x3bb6e4bf	0.005581468
53	0xbe347ac8	-0.17624962
54	0x3ba987a6	0.0051736413
55	0x3d85c9c5	0.06532625
56	0x3d6e8243	0.058229696
57	0xbd0d99a5	-0.034570355
58	0x3d75707b	0.059921723
59	0xbe8f7a1d	-0.28022853
60	0xbde8e4c3	-0.11371758
61	0xbe0c36f5	-0.1369284
62	0xbe5fe7f9	-0.21865834
63	0xbd7b26fb	-0.06131647
64	0xbdc71611	-0.09721006
65	0x3ca2fa4e	0.019894745
66	0xbeaf95a6	-0.3429386
67	0xbe18d316	-0.14924273
68	0xbe12f7dd	-0.14352365
69	0xbd0576d5	-0.03258403
70	0x3e382380	0.17982292
71	0xbdc77a10	-0.097400784
72	0xbc7394b4	-0.014866997
73	0xbdb8d7f8	-0.09025568
74	0x3dbc6557	0.091990165
75	0xbd448da0	-0.047986627
76	0xbd2a9466	-0.04164543
77	0xbe2fd747	-0.17171966
78	0x3d5e25f9	0.054235432
79	0x3c0aec7c	0.008479234
80	0xbc893c74	-0.01675246
81	0xbd90eba6	-0.07076196
82	0xbe19238e	-0.1495497
83	0xbe6c7b83	-0.23093991
84	0xbe10e17d	-0.14148517
85	0xbdae6d8f	-0.085169904
86	0xbe1c6396	-0.15272364
87	0x3d9241d6	0.071414635
88	0x3d5c0ed2	0.05372507
89	0xbe99c6d5	-0.3003451
90	0xbe5693b2	-0.20954779
91	0xbd9e9c56	-0.077446625
92	0xbdcb3bc9	-0.099235125
93	0x3cd234f2	0.025660012
94	0xbdc92569	-0.098215885
95	0xbe5a2f21	-0.21307041
96	0x3dea58a3	0.11442687
97	0xbeb17b98	-0.34664607
98	0xbeae4107	-0.34033987
99	0xbd676142	-0.056489237
100	0x3da505be	0.08057736
101	0xbcdb5802	-0.026775364
102	0xbeda4821	-0.42633155
103	0x3d13734e	0.035998635
104	0x3ba08a16	0.0048992736
105	0xbe9d261e	-0.30693144
106	0xbf1ce2ee	-0.6128377
107	0xbe0e64c5	-0.13905628
108	0x3d1de00e	0.038543753
109	0xbec15951	-0.37763456
110	0xbc9910df	-0.018684803
111	0xbda0a3df	-0.07843756
112	0x3d1fe21d	0.039033998
113	0xbeab97c7	-0.33514234
114	0xbd2cb107	-0.042161014
115	0xbea7cb1f	-0.32772157
116	0xbe6de923	-0.23233466
117	0xbe1b2a4d	-0.15152855
118	0xbd0231fe	-0.031785958
119	0xbe15b88e	-0.14621183
120	0xbb798374	-0.0038072737
121	0xbdabe907	-0.08394056
122	0xbedd0fda	-0.43176156
123	0xbed7964a	-0.4210685
124	0x3c8c54a4	0.017130204
125	0x3d0d3d97	0.034482565
126	0x3d357658	0.044302315
127	0x3d2f452f	0.042790588
128	0x3d714f75	0.058913667
129	0x3c851aa4	0.016248055
130	0x3d586d22	0.052838452
131	0xbe7034a4	-0.23457581
132	0x3d0c6a84	0.03428127
133	0x3da5c5ef	0.080943935
134	0x3b684adb	0.0035445008
135	0x3d6c6f02	0.057723053
136	0x3c4c67c9	0.012475916
137	0x3dbef277	0.0932359
138	0xbd0e5205	-0.03474619
139	0x3d970ad6	0.07375114
140	0xbe0d2c45	-0.13786419
141	0x3d51d1ba	0.0512254
142	0xbc5fbdc9	-0.013656088
143	0x3c64c2f2	0.013962494
144	0xbc3d92e8	-0.01157067
145	0x3d499909	0.04921821
146	0xbe7d8f64	-0.2476173
147	0xbd236ace	-0.03989678
148	0xbd455be1	-0.048183326
149	0x3c024078	0.007949941
150	0xbe66635b	-0.22498839
151	0x3d773a4c	0.06035833
152	0xbd240d4e	-0.04005175
153	0x3d33d077	0.04389998
154	0xbdb6eee8	-0.089322865
155	0x3c8296e4	0.01594109
156	0x3c8e81ac	0.017395817
157	0xbd5f84c2	-0.054569967
158	0xbcb3caff	-0.021947382
159	0xbcef000b	-0.029174825
160	0xbd69c68b	-0.05707411
161	0x3d555362	0.052081473
162	0xbe3d9f68	-0.1851784
163	0xbda93347	-0.082617335
164	0xbe221ba6	-0.1583086
165	0xbd846d35	-0.06466142
166	0xbe5a876a	-0.21340719
167	0xbe272bbf	-0.16325282
168	0x3b39975f	0.0028318984
169	0xbe3e0750	-0.18557477
170	0xbdefe29b	-0.117131434
171	0xbed51fd2	-0.4162584
172	0x3d850bd3	0.06496396
173	0xbddf07c2	-0.108901516
174	0xbd496899	-0.049172018
175	0xbd894cdd	-0.06704114
176	0x3d136e9e	0.035994165
177	0xbe394eb8	-0.18096435
178	0xbe057b85	-0.130354
179	0x3c7c756c	0.015408855
180	0xbe67f35b	-0.22651426
181	0xbe83163d	-0.25602904
182	0xbd71260c	-0.058874175
183	0xbe8609b5	-0.2617928
184	0xbe07ced5	-0.13262494
185	0xbd32a158	-0.0436109
186	0xbea2964f	-0.317553
187	0xbd9432b6	-0.07236235
188	0xbcb76350	-0.022386223
189	0xbd04da44	-0.032434717
190	0xbe95b6fe	-0.29241174
191	0xbe678853	-0.22610597
192	0xbed8fce2	-0.42380434
193	0xbe63d4ab	-0.22249095
194	0xbf1288ee	-0.5724019
195	0xbc531911	-0.012884394
196	0xbd2ef25f	-0.04271161
197	0x3c98040d	0.018556619
198	0xbe08bf75	-0.13354285
199	0xbe305380	-0.17219353
200	0xbda9971c	-0.08280775
201	0x3c515261	0.012775988
202	0xbf0167c5	-0.50548965
203	0xbe9a3dbf	-0.30125234
204	0xbf275206	-0.6535953
205	0xbdfa892c	-0.12233195
206	0xbf6d55c6	-0.92709005
207	0x3d5722aa	0.052523293
208	0x3d20a636	0.03922101
209	0x3e40eb13	0.18839674
210	0x3e940360	0.28908825
211	0x3b5835a9	0.0032990968
212	0x3eba3fd5	0.36376825
213	0xbe0e1c1c	-0.1387791
214	0xbe84ddb4	-0.25950396
215	0xbe8ebe9d	-0.278798
216	0xbdf07323	-0.117407106
217	0x3df23393	0.11826243
218	0x3e5870da	0.211368
219	0x3e661d28	0.2247206
220	0xbe12c8fd	-0.14334483
221	0x3cdad972	0.026715014
222	0xbee6135e	-0.4493665
223	0xbb94a52a	-0.0045362907
224	0xbe1a4cfa	-0.15068427
225	0xbd453a48	-0.048151284
226	0x3d6259c3	0.055261385
227	0xbf58cc72	-0.8468696
228	0xbf11538e	-0.5676812
229	0xbd35aab0	-0.044352233
230	0xbea81a74	-0.32832682
231	0xbe17e726	-0.1483427
232	0xbe8d221d	-0.2756509
233	0x3e0afb54	0.13572437
234	0xbf320ade	-0.6954783
235	0x3e1c9a47	0.15293227
236	0x3c6a9273	0.014317143
237	0xbf3b5895	-0.7318204
238	0xbdc49701	-0.09599114
239	0xbdcbe678	-0.09956068
240	0x3d373d08	0.04473594
241	0xbe60fbc3	-0.2197104
242	0x3ddab711	0.106794484
243	0xbf1d1106	-0.613541
244	0xbfa15d8b	-1.2606672
245	0xbda9d4fe	-0.08292578
246	0x3e99dbaa	0.30050403
247	0xbc1655bf	-0.009175717
248	0xbeb724cf	-0.3577027
249	0x3e8690ef	0.2628245
250	0xbe02bd2c	-0.12767476
251	0x3ce5faaa	0.028073628
252	0xbf0506f1	-0.51963717
253	0xbf68921d	-0.9084795
254	0xbe79b7cc	-0.24386519
255	0x3d1c8c67	0.038219836
