Vehicles/Mod_04_02/Mod_04_02_actor.pth (torch, 176453 bytes, 5 tensors)

weight f4 [200, 14]
0	0x3c4d9c64	0.012549493
1	0x3e7a6fa0	0.24456644
2	0xbe6fd9a4	-0.23422867
3	0xbcdb1c23	-0.026746815
4	0xbeb09588	-0.34489083
5	0xbe8f0d3e	-0.2793979
6	0xbd8d4e4f	-0.06899702
7	0xbe7ceca1	-0.24699642
8	0xbe696ad9	-0.22794665
9	0xbe964fa7	-0.29357645
10	0xbe9a7579	-0.3016775
11	0x3e293e91	0.16527773
12	0xbebc2a52	-0.36751038
13	0xbe7f8237	-0.24952017
14	0x3e46c641	0.19411565
15	0x3c11cdf6	0.008899203
16	0xbf102a11	-0.5631419
17	0x3e20aa09	0.15689863
18	0xbd8c4f48	-0.06851059
19	0x3d777e8d	0.060423423
20	0x3df50a69	0.11964876
21	0xbd2bfb8b	-0.041987937
22	0x3e82c4bd	0.25540724
23	0xbeb510ec	-0.35364473
24	0x3e6d1c62	0.23155358
25	0x3e98ce93	0.29845104
26	0xbf4fd9fa	-0.8119198
27	0xbe144db6	-0.1448277
28	0xbed3d0fe	-0.41370386
29	0x3dc3a4d2	0.09552921
30	0x3cd49ded	0.025954211
31	0xbf32dd00	-0.6986847
32	0xbf0593b1	-0.52178484
33	0x3e9eae95	0.3099257
34	0x3f08a8b3	0.53382415
35	0xbe782685	-0.24233444
36	0x3dcbe3a2	0.09955527
37	0xbda3454f	-0.07972204
38	0x3ddece76	0.10879223
39	0x3e843b75	0.25826612
40	0xbed1ba79	-0.4096258
41	0xba6d9178	-0.0009062509
42	0x3f230150	0.6367388
43	0x3e86faf4	0.26363337
44	0x3d4188b7	0.047249522
45	0xbdaaa85e	-0.08332895
46	0x3e4c3fbe	0.1994619
47	0x3d65f0a3	0.056137692
48	0x3ee9663f	0.4558582
49	0xbf602d23	-0.87568873
50	0xbe8c54ba	-0.2740839
51	0xbdaec090	-0.08532822
52	0x3e5357d4	0.20638973
53	0x3c825dc8	0.015913859
54	0x3e8d15f9	0.27555826
55	0xbd5d204e	-0.053985886
56	0xbefcea0e	-0.4939732
57	0xbd9b9b1f	-0.075979464
58	0xbe8d402c	-0.27588022
59	0x3dd8425d	0.10559533
60	0xbe7cebdb	-0.24699347
61	0x3e83abac	0.25716913
62	0xbef627bf	-0.480772
63	0xbe9558ca	-0.29169303
64	0xbe4aa95f	-0.19791172
65	0x3ce36222	0.027756754
66	0xbd872f8c	-0.06600866
67	0xbe0446aa	-0.12917581
68	0xbe8fb42c	-0.28067148
69	0xbd5e0c10	-0.054210722
70	0xbe414507	-0.18873988
71	0x3e2a4c4c	0.16630667
72	0x3cc1e76f	0.023669926
73	0x3cdb4f2b	0.026771149
74	0xbe6cf2b4	-0.23139459
75	0x3e2751a6	0.1633974
76	0xbe2512e1	-0.16120483
77	0x3cc206a2	0.023684803
78	0xbe605b69	-0.2190987
79	0x3d6f89a7	0.058480885
80	0x3dd90c54	0.105980545
81	0xbe861ad0	-0.2619233
82	0xbca39f74	-0.019973494
83	0xbe80fb33	-0.2519165
84	0xbe93174e	-0.28728718
85	0x3e3d6194	0.18494254
86	0xbe3a86d8	-0.18215501
87	0x3e07ef9e	0.13275
88	0xbe5fb32b	-0.21845691
89	0xbec1d595	-0.37858263
90	0xbd910527	-0.07081061
91	0xbe078f71	-0.13238312
92	0x3e1040d4	0.1408723
93	0xbda65a57	-0.081227
94	0xbe4b9733	-0.19881897
95	0x3eaf9b6c	0.34298265
96	0xbef7526b	-0.48305067
97	0xbe8214bc	-0.25406444
98	0xbee97918	-0.456002
99	0xbe7d0314	-0.24708205
100	0xbe4a7846	-0.19772443
101	0xbde34b46	-0.11098342
102	0xbf25d96f	-0.647849
103	0xbc588d73	-0.013217318
104	0x3ea53dc4	0.32273686
105	0x3ec1e456	0.3786952
106	0x3e0c14aa	0.13679758
107	0x3e90eb44	0.28304493
108	0xbd1d685c	-0.038429603
109	0xbf1215c5	-0.5706447
110	0xbdf89414	-0.12137619
111	0xbd01bad4	-0.031672314
112	0x3e63edb1	0.22258641
113	0xbe88cd47	-0.26719114
114	0xbe45e746	-0.19326505
115	0xbd883d87	-0.066523604
116	0xbfd3caf6	-1.6546314
117	0xbffd3f26	-1.9784896
118	0xbfb23b77	-1.3924397
119	0xbdc61085	-0.096711196
120	0xbe978458	-0.29593158
121	0x3ebc6352	0.36794525
122	0x3eb6ce0b	0.35704073
123	0x3e8d4657	0.27592728
124	0xbe1eae79	-0.15496244
125	0xbe4d1e15	-0.20031007
126	0x3ce0fb37	0.027463539
127	0xbe73a757	-0.23794304
128	0x3eeedf31	0.46654657
129	0xbcfd3f63	-0.030914014
130	0xbe598166	-0.21240768
131	0x3d2f8296	0.042849146
132	0x3d996058	0.07489079
133	0x3df4ba26	0.119495675
134	0xbe9cbbbe	-0.30611986
135	0xbe8906f9	-0.26763132
136	0x3e672457	0.22572456
137	0x3dd87411	0.10569013
138	0xbf0b2486	-0.54352605
139	0xbec68236	-0.38771218
140	0x3e4fdd3e	0.20299241
141	0x3e82a39d	0.25515452
142	0x3eb87d36	0.36033028
143	0x3e8ff6ca	0.28117973
144	0xbe3abe43	-0.18236642
145	0x3c48973d	0.012243089
146	0x3ea20a64	0.31648552
147	0xbed2a6b9	-0.41142824
148	0xbec82918	-0.39093852
149	0x3db3c4c5	0.08777765
150	0x3d3ae5f8	0.04562947
151	0x3e770eb3	0.24126701
152	0x3d45e4d7	0.04831394
153	0xbecf51d0	-0.40492105
154	0x3e93af98	0.28844905
155	0xbdb78c68	-0.08962327
156	0xbd31738e	-0.043323092
157	0xbd9f83ae	-0.07788788
158	0x3ec83aed	0.39107457
159	0x3e01139c	0.12605137
160	0xbea9a027	-0.3313
161	0xbc27ef39	-0.010249906
162	0xbe8b441a	-0.27200395
163	0xbd41d63b	-0.047323447
164	0xbf00545c	-0.5012872
165	0x3ec8ed43	0.39243516
166	0xbea3f422	-0.32022196
167	0xbe32a1b5	-0.17444499
168	0xbd1508c7	-0.036385324
169	0xbde16080	-0.11004734
170	0x3e2c8049	0.16845812
171	0xbd546aee	-0.05185979
172	0xbe869cf2	-0.26291615
173	0x3dcf3386	0.10117249
174	0xbd0954e5	-0.033528227
175	0xbda50935	-0.08058397
176	0xbb6437e1	-0.0034823345
177	0xbe4c1ebc	-0.19933599
178	0xbacf5dee	-0.001582084
179	0x3dbe9770	0.09306228
180	0xbe3d8f7c	-0.18511766
181	0xbe762ef4	-0.24041349
182	0x3ee104e8	0.43949056
183	0xbd50d273	-0.05098195
184	0xbe58b6c8	-0.21163476
185	0x3e32bac7	0.17454062
186	0xbe46418a	-0.19360939
187	0xbc81b26c	-0.015832148
188	0xbeb3c419	-0.35110548
189	0xbdeff543	-0.11716702
190	0xbed53ba8	-0.41647077
191	0xbe093667	-0.13399659
192	0xbebb88bb	-0.36627755
193	0x3e112786	0.14175233
194	0xbe523f1d	-0.20531888
195	0xbd05034f	-0.03247386
196	0x3e9a3060	0.30115032
197	0x3c96ae61	0.018393697
198	0xbe5e067c	-0.21682161
199	0xbe511cba	-0.20421115
200	0xbe452512	-0.19252422
201	0x3d61e09d	0.05514585
202	0x3e99d37f	0.3004417
203	0x3c48c419	0.012253785
204	0x3e67ce6a	0.22637334
205	0xbf0a4b4a	-0.5402113
206	0xbe9a3033	-0.30114898
207	0x3ef5eff1	0.48034623
208	0xbe8834a0	-0.2660265
209	0xbe3f4825	-0.18679865
210	0xbe7738ed	-0.24142809
211	0x3e22d289	0.15900625
212	0xbc024d6f	-0.007953032
213	0xbe12654f	-0.14296459
214	0x3cb34d12	0.021887336
215	0xbe8185af	-0.25297305
216	0xbe7655f8	-0.24056232
217	0xbe837e70	-0.25682402
218	0xbe1974af	-0.14985918
219	0x3d5a0e76	0.053236447
220	0xbe17f0a5	-0.14837892
221	0xbdfbc4c3	-0.12293389
222	0x3d1c5916	0.038170896
223	0xbd4f711b	-0.050644975
224	0xbdfa42e2	-0.12219788
225	0x3d6d7b9c	0.05797921
226	0xbeb33039	-0.34997728
227	0x3e90e469	0.28299263
228	0xbeb63d23	-0.3559352
229	0xbeb7bda2	-0.35886866
230	0x3dbe52d6	0.092931435
231	0xbdf5f410	-0.12009442
232	0x3ed09040	0.40735054
233	0xbe9f27c4	-0.31085026
234	0xbe04ef1f	-0.12981842
235	0xbead4ea5	-0.33849064
236	0x3cc8b658	0.02450101
237	0xbd80e3f4	-0.062934786
238	0x3ee7a7e7	0.45245287
239	0xbe38ceb5	-0.18047602
240	0x3ed7e8db	0.42169842
241	0xbc5775a8	-0.01315061
242	0x3dc81ba5	0.09770898
243	0x3d2991a9	0.041398678
244	0x3e6fa2eb	0.23401992
245	0x3e3e49ac	0.18582791
246	0x3ce1ed20	0.02757889
247	0xbe97aa3a	-0.2962206
248	0x3e7aaba3	0.24479537
249	0xbe0d6efb	-0.13811867
250	0xbdab6de1	-0.08370567
251	0xbf750e94	-0.9572537
252	0xbe2e6c92	-0.17033604
253	0xbe842de5	-0.25816265
254	0x3dc1cf53	0.09463372
255	0xbf2fc848	-0.6866498

bias f4 [200]
0	0xbde5840d	-0.11206827
1	0x3d55ed4f	0.05222827
2	0xbd996768	-0.07490426
3	0xbe6da8a0	-0.23208857
4	0x3d85d917	0.06535547
5	0xbe3f75d7	-0.18697296
6	0xbe4cc301	-0.19996263
7	0x3de96312	0.11395849
8	0x3da60d17	0.081079654
9	0x3cb07916	0.021542113
10	0xbe42dacd	-0.19028778
11	0xbe703490	-0.23457551
12	0xbde4491b	-0.11146756
13	0xbe407aa6	-0.18796787
14	0x3e5f1c1c	0.21788067
15	0xbe30f87e	-0.17282292
16	0xbd366bc0	-0.044536352
17	0xbe2d2e18	-0.16912115
18	0x3e0e1736	0.13876042
19	0x3de03d78	0.10949224
20	0x3e33c2b6	0.17554745
21	0x3d6bc6ba	0.057562567
22	0x3e7845e5	0.24245413
23	0xbe364836	-0.17800984
24	0xbe4e9c2b	-0.20176761
25	0xbe77d551	-0.24202468
26	0xbeaa280b	-0.33233675
27	0xbe0ae8cc	-0.13565367
28	0xbe67c350	-0.226331
29	0xbe8283b6	-0.25491112
30	0xbc612640	-0.01374203
31	0x3d65e22b	0.056123894
32	0xbcf6d1c7	-0.030129327
33	0xbe4ce588	-0.20009434
34	0xbe9a5dc8	-0.30149674
35	0xbe2f4f0c	-0.17119998
36	0x3e062efd	0.13103862
37	0xbddd827f	-0.10815906
38	0xbdb34815	-0.08753983
39	0xbd38e67d	-0.045141686
40	0xbe929e26	-0.28636283
41	0x3e82ca83	0.2554513
42	0x3ca77ba3	0.020444697
43	0xbdfdc8c5	-0.123918094
44	0xbe931a56	-0.2873103
45	0x3d045923	0.03231157
46	0xbd61745a	-0.055042602
47	0xbde83c98	-0.11339682
48	0x3c9d7f9d	0.01922589
49	0x3cf9815a	0.030457187
50	0x3d99d248	0.07510811
51	0x3d66955b	0.05629478
52	0x3e3ea789	0.18618597
53	0x3c45e264	0.0120779015
54	0xbdbc57d6	-0.09196441
55	0xbe64cc76	-0.2234362
56	0xbd890762	-0.06690861
57	0x3de98eeb	0.114042126
58	0xbe2c4fa2	-0.16827253
59	0x3dad9674	0.08475962
60	0xbdf579bb	-0.11986109
61	0x3c91ff9a	0.017822076
62	0xbe855974	-0.2604481
63	0xbc25c48f	-0.010117664
64	0x3d9eada0	0.0774796
65	0x3d6817e6	0.056663416
66	0x3d876463	0.06610944
67	0xbcbb2bcf	-0.022848038
68	0xbe37238d	-0.17884655
69	0xbe82158b	-0.2540706
70	0x3e3adb93	0.18247823
71	0x3d0bd851	0.034141842
72	0xbca79d60	-0.020460784
73	0xbe4e1b2f	-0.20127557
74	0xbe6b22b1	-0.22962452
75	0xbd7505db	-0.059820037
76	0x3e5baa30	0.2145164
77	0xbdf74453	-0.12073579
78	0x3e8904dd	0.26761523
79	0x3e11940e	0.14216635
80	0xbc18f587	-0.009335882
81	0x3bf06ac6	0.007336947
82	0xbdf86709	-0.121290274
83	0x3e31d26d	0.17365427
84	0xbe8db17f	-0.2767448
85	0x3c023d36	0.007949164
86	0xbe19900a	-0.14996353
87	0x3b6a3550	0.0035737343
88	0xbe9ab7e1	-0.30218413
89	0x3d97b46c	0.074074596
90	0xbe5f35d6	-0.2179788
91	0xbe3cc308	-0.18433774
92	0x3e1d5749	0.15365328
93	0x3e96377f	0.29339215
94	0x3dd9a800	0.106277466
95	0x3e449072	0.19195727
96	0xbe1d1170	-0.15338683
97	0xbe9d9d84	-0.30784237
98	0x3c2b393e	0.010450659
99	0xbe46e0b4	-0.19421655
100	0x3dda20d1	0.106507905
101	0xbe42fc48	-0.1904155
102	0xbeab6bff	-0.33480832
103	0x3e254716	0.16140398
104	0xbead7c33	-0.3388382
105	0xbe15b7df	-0.14620923
106	0x3d94f0d8	0.072725
107	0x3cb93f51	0.0226132
108	0xbe06a3bb	-0.13148396
109	0x3da9fece	0.08300553
110	0xbdbbbd59	-0.091669746
111	0x3d018c62	0.03162802
112	0xbdbf08f7	-0.09327882
113	0x3d1a12d3	0.03761561
114	0xbe845389	-0.25844982
115	0xbe92f418	-0.28701854
116	0x3e000714	0.125027
117	0xbddc32fa	-0.107519105
118	0xbea527e4	-0.32256997
119	0x3db03b98	0.086051166
120	0x3d8bf8b2	0.06834544
121	0x3dd2244e	0.10260831
122	0x3e10b4a0	0.14131403
123	0x3e0f3018	0.1398319
124	0xbe873a63	-0.26411733
125	0xbe396315	-0.18104203
126	0x3e87d4e9	0.26529625
127	0x3d30e5af	0.043187793
128	0xbd4336c3	-0.047659647
129	0x3e27fadd	0.1640429
130	0xbd168d42	-0.036755808
131	0x3d73b41f	0.05949795
132	0xbe87b4dd	-0.26505175
133	0xbdba7455	-0.0910422
134	0x3dd494fe	0.103799805
135	0xbd7f086e	-0.0622639
136	0xbdf60677	-0.12012952
137	0x3e7680c3	0.24072556
138	0xbdb4ee61	-0.0883453
139	0xbe197348	-0.14985383
140	0xbe97ec14	-0.296723
141	0xbe0c40ea	-0.13696638
142	0x3e87ed31	0.2654815
143	0xbc3a66bf	-0.011377036
144	0xbd7826fd	-0.060584057
145	0x3d9da0a5	0.07696656
146	0x3d69eb20	0.057109
147	0xbdae14a6	-0.08500032
148	0xbd98fa54	-0.07469621
149	0xbc6fb1a3	-0.014629754
150	0xbd119d8d	-0.035550643
151	0xbe58e8f1	-0.2118261
152	0x3d3969bd	0.045266856
153	0xbe983f25	-0.29735675
154	0xbe993645	-0.29924217
155	0xbd97f151	-0.07419074
156	0xbe27e3cb	-0.1639549
157	0xbdb2ff39	-0.08740086
158	0xbe5fa22b	-0.21839206
159	0xbeacbe48	-0.33738923
160	0xbe1d1713	-0.15340833
161	0xbe5a9d3f	-0.21349047
162	0xbe63000a	-0.22167984
163	0x3e1e8ce5	0.15483434
164	0xbd08f7d6	-0.03343948
165	0x3dff7472	0.12473382
166	0xbd4a9e89	-0.049467597
167	0xbd0bb3fa	-0.034107186
168	0x3ce45f09	0.027877348
169	0x3ea618ca	0.32440788
170	0x3db6646c	0.08905873
171	0xbe2d14dd	-0.1690249
172	0xbe349691	-0.17635562
173	0xbe5e3904	-0.21701437
174	0x3e50f013	0.20404081
175	0x3e441fde	0.19152781
176	0xbde2660a	-0.11054619
177	0xbe406c05	-0.18791206
178	0x3d348cea	0.0440797
179	0xbd8a28a7	-0.06746035
180	0xbe525580	-0.20540428
181	0xbd91f8cf	-0.071275346
182	0xbdf22685	-0.11823753
183	0x3e0f1efd	0.13976665
184	0x3cb28aa0	0.021794617
185	0xbe8b45b7	-0.27201626
186	0xbddc0600	-0.10743332
187	0x3d963084	0.07333472
188	0xbded6af3	-0.115926646
189	0xbe052db1	-0.13005711
190	0xbe1508aa	-0.14554086
191	0x3e221639	0.1582879
192	0xbdc8158e	-0.09769736
193	0xbd3435ad	-0.0439965
194	0x3d81f0e3	0.063447736
195	0xbe60b215	-0.21942933
196	0x3e15855f	0.14601658
197	0xbdd6b784	-0.104842216
198	0x3e83d51b	0.25748524
199	0xbe886c72	-0.26645237

weight f4 [200, 200]
0	0x3d57ad64	0.052655593
1	0xbe157760	-0.14596319
2	0xbf17dbd6	-0.5931982
3	0xbe5fabb1	-0.21842839
4	0xbd3d4c81	-0.046215538
5	0xbd4543ef	-0.04816049
6	0xbda4d0c1	-0.08047629
7	0xbea3ab74	-0.31966746
8	0xbca0ea5d	-0.019643003
9	0x3db66007	0.089050345
10	0xbd8468fc	-0.06465337
11	0x3e465085	0.19366653
12	0x3b1a0cc0	0.0023506135
13	0xbd888049	-0.066650935
14	0xbd419654	-0.047262505
15	0x3d1d4790	0.038398325
16	0x3c817b05	0.01580573
17	0x3d6fbce3	0.058529746
18	0xbe6db559	-0.2321371
19	0x3e0d30bd	0.13788123
20	0xbf2253fb	-0.63409394
21	0x3e40646e	0.18788311
22	0xbe93c4b6	-0.28861016
23	0xbc803be0	-0.01565355
24	0xbdede367	-0.11615639
25	0xbd5787be	-0.05261969
26	0xbcb33408	-0.021875396
27	0x3c969d2c	0.018385492
28	0xbf028329	-0.50981385
29	0xbf1d29db	-0.6139199
30	0xbc28ad2d	-0.010295195
31	0xbed7127f	-0.420063
32	0x3d68a310	0.056796134
33	0x3d3f364a	0.046682633
34	0x3d3ddab9	0.04635117
35	0xbeb72355	-0.35769144
36	0xbeb6970e	-0.3566212
37	0x3da112c3	0.07864907
38	0xbeac78c1	-0.33685878
39	0x3e71ecca	0.23625484
40	0x3ee006c8	0.43755174
41	0xbe4fa588	-0.20277989
42	0x3dbee56b	0.09321102
43	0x3c60d89e	0.013723521
44	0xbd7d93f7	-0.06190869
45	0xbe1f1b11	-0.15537669
46	0xbdfbc4a6	-0.12293367
47	0xbeec5c9e	-0.4616441
48	0x3caa68c9	0.020801919
49	0xbe88b574	-0.26700938
50	0xbd9543ff	-0.0728836
51	0xbde8c1e5	-0.113651074
52	0x3ebdb070	0.37048674
53	0x3c0f6b95	0.008753677
54	0xbe88ded3	-0.267325
55	0xbf03b1e5	-0.5144332
56	0x3e2f5f28	0.17126143
57	0x3e273659	0.16329326
58	0x3e905b28	0.28194547
59	0xbefc7aed	-0.49312535
60	0xbedba139	-0.4289644
61	0xbf0edc0c	-0.55804515
62	0xbd7f18f2	-0.06227965
63	0xbd10172a	-0.03517834
64	0xbea68d91	-0.32529882
65	0x3d02f64c	0.03197317
66	0xbfc7c9c7	-1.5608453
67	0x3dd0c71b	0.10194226
68	0xbde5923b	-0.11209532
69	0xbe022ffb	-0.12713616
70	0xbe8b48ae	-0.27203888
71	0x3c71f448	0.014767714
72	0xbee68bde	-0.45028585
73	0x3ea686e6	0.32524794
74	0xbed17106	-0.40906543
75	0xbe56984e	-0.20956537
76	0xbec17f4c	-0.37792432
77	0x3ebb1dab	0.36546072
78	0xbe71be40	-0.23607731
79	0x3df206be	0.11817692
80	0xbd205a13	-0.0391484
81	0xbedee12e	-0.43531173
82	0xbeb42b02	-0.35189062
83	0xbdcbe45a	-0.09955664
84	0xbe6174b2	-0.22017172
85	0xbe0315ba	-0.12801257
86	0x3e916c56	0.28402966
87	0xbde05d77	-0.10955327
88	0x3e46e136	0.19421849
89	0x3e0c238d	0.13685437
90	0xbf03e422	-0.5151998
91	0x3dcc5b81	0.099783905
92	0xbe4d678c	-0.20059031
93	0xbe06f6a7	-0.13180028
94	0x3e2deafe	0.16984174
95	0xbe5faa37	-0.21842276
96	0x3bb64862	0.005562828
97	0xbdc2aaa4	-0.09505203
98	0x3e60f0ca	0.21966854
99	0xbdb8e92b	-0.09028848
100	0xbdaef897	-0.085435085
101	0xbe028ebd	-0.12749763
102	0xbee6edb7	-0.45103237
103	0x3d96ca48	0.07362801
104	0xbe1391c8	-0.1441108
105	0xbd301b18	-0.04299459
106	0x3dc7f34a	0.097632006
107	0x3e3f0b94	0.1865676
108	0xbd80aea7	-0.06283312
109	0xbf35fad7	-0.71085876
110	0x3eba4744	0.36382496
111	0x3d4a1aac	0.049341843
112	0x3d04dfc6	0.03243997
113	0xbd1caaee	-0.03824895
114	0xbe7edfd3	-0.2489007
115	0xbdbfe492	-0.09369768
116	0xbdb7c47d	-0.08973024
117	0x3ec6fec7	0.38866255
118	0x3eb18a57	0.34675857
119	0xbe61da68	-0.22055972
120	0xbd74dab0	-0.05977887
121	0x3e87b3f0	0.2650447
122	0xbe81a86f	-0.25323817
123	0x3e2f2ddc	0.17107338
124	0xbc4ac8b5	-0.012376954
125	0xbe498bb6	-0.19682202
126	0x3e43ffd9	0.19140567
127	0xbed4f1c8	-0.41590714
128	0xbd0010f1	-0.031266157
129	0xbe0afd36	-0.13573155
130	0xbe58ecac	-0.21184033
131	0xbc88b207	-0.016686453
132	0x3c989b84	0.018628843
133	0xbea1d470	-0.3160739
134	0xbe241294	-0.16022712
135	0xbd878e63	-0.06618955
136	0xbe3918f7	-0.1807593
137	0xbe62e7e7	-0.22158776
138	0x3d641707	0.055686023
139	0xbcba1f9d	-0.022720153
140	0xbca3b37f	-0.019983051
141	0x3f246131	0.642108
142	0xbf0505c9	-0.5196195
143	0xbeef1092	-0.4669233
144	0xbece1594	-0.40250838
145	0x3c23ddba	0.010001594
146	0x3e01a77a	0.12661543
147	0x3ded6e16	0.11593263
148	0x3e4abeb5	0.19799311
149	0x3d1a0904	0.037606254
150	0xbdf34829	-0.11878998
151	0x3ea48163	0.32129964
152	0x3e4fd496	0.20295939
153	0xbd992595	-0.07477871
154	0xbe83cc3b	-0.25741753
155	0xbd18abda	-0.037273265
156	0xbe1860b4	-0.1488064
157	0x3d84ca55	0.06483904
158	0x3e94609f	0.28979966
159	0x3d3ad697	0.045614805
160	0x3e5fd129	0.21857132
161	0xbd8d484a	-0.06898554
162	0xb9f1ca6f	-0.00046117927
163	0xbe3c14d0	-0.18367314
164	0xbe36ead3	-0.17863016
165	0xbca05669	-0.019572454
166	0x3e876927	0.26447412
167	0xbdd1101a	-0.10208149
168	0xbe38ced6	-0.18047652
169	0xbd9ff57a	-0.07810493
170	0xbce62ceb	-0.02809759
171	0x3e1295ab	0.14314906
172	0x3d8b5047	0.06802421
173	0x39e8116b	0.00044263466
174	0x3e72ed45	0.23723324
175	0x3e8c6273	0.2741886
176	0xbf374523	-0.7158987
177	0xbe24e419	-0.16102637
178	0xbf3c2a44	-0.7350199
179	0xbe843b45	-0.2582647
180	0xbedc2a87	-0.43001196
181	0xbbb57714	-0.005537877
182	0xbd4c011b	-0.04980574
183	0xbe33be63	-0.17553096
184	0x3f020e4c	0.50803065
185	0x3def758d	0.11692343
186	0x3e22b4dd	0.15889306
187	0xbdbf7917	-0.09349268
188	0xbd3c9a63	-0.046045672
189	0xbf59b604	-0.8504336
190	0x3dac52fd	0.08414266
191	0x3db457f4	0.08805838
192	0x3e8d4f73	0.27599677
193	0xbf0c9e66	-0.54929197
194	0x3ed97da1	0.4247866
195	0xbf2dc6b9	-0.6788135
196	0xbde0ab13	-0.1097013
197	0x3cbaf1db	0.022820404
198	0xbd5b5298	-0.053545564
199	0xbba015ca	-0.00488541
200	0x3da0c5a6	0.078501984
201	0xbdc29183	-0.095004104
202	0x3e778b56	0.24174246
203	0x3ebfddab	0.37473807
204	0xbe95a1d7	-0.29225037
205	0xbd788a30	-0.06067866
206	0x3eae038d	0.33987084
207	0xbe5e3448	-0.21699631
208	0xbe0ccbe8	-0.13749659
209	0x3c63f7ed	0.013914091
210	0x3defec74	0.11715022
211	0xbeba34a7	-0.36368296
212	0xb9a00f17	-0.0003052882
213	0xbe905b9b	-0.2819489
214	0xbeb0b9c9	-0.34516743
215	0x3d378af7	0.04481026
216	0x3e92b602	0.28654486
217	0xbf1cac45	-0.6120036
218	0x3f3c7744	0.73619485
219	0x3e4d93ec	0.20075959
220	0x3e0f543f	0.13996981
221	0x3e2c29cf	0.16812824
222	0xbe2b098f	-0.16702865
223	0x3d47c428	0.048771054
224	0xbe32c1eb	-0.17456786
225	0x3d8d6298	0.06903571
226	0x3efa8bc1	0.4893475
227	0xbbcfde85	-0.006343665
228	0xbdc652d5	-0.09683768
229	0xbdafcf7d	-0.08584497
230	0xbeb6c02d	-0.35693493
231	0x3dee57b2	0.1163782
232	0xbe61edbe	-0.22063348
233	0xbd99eb25	-0.075155534
234	0x3d1f009b	0.038818937
235	0x3e8330cb	0.25623164
236	0x3de5ee4e	0.11227094
237	0x3e1beadf	0.15226315
238	0x3dfa33fb	0.12216946
239	0x3ec5ea88	0.38655496
240	0x3e3f1c05	0.18663032
241	0xbe8fbd44	-0.28074086
242	0xbe324dba	-0.17412463
243	0x3d5d3af4	0.0540113
244	0xbd252d39	-0.04032633
245	0xbeb542f8	-0.35402656
246	0x3d2a231a	0.04153738
247	0x3d9574e4	0.07297686
248	0x3dac18a3	0.084031366
249	0x3ea25a1e	0.3170938
250	0x3d60fdd3	0.054929566
251	0x3e6df78c	0.23238963
252	0xbed9e2da	-0.42555887
253	0xbd5d4a3b	-0.05402587
254	0xbe09db76	-0.13462624
255	0xbdec845a	-0.115486816

bias f4 [200]
0	0xbd99b30c	-0.075048536
1	0x3e6d68ca	0.23184505
2	0xbd858853	-0.065201424
3	0x3cbf822a	0.023377497
4	0xbda35ac2	-0.07976295
5	0xbdb7fd49	-0.08983857
6	0xbeab29e7	-0.33430406
7	0xbe1ab8fe	-0.15109631
8	0xbce67abe	-0.0281347
9	0xbd34e6cb	-0.044165414
10	0x3d887af1	0.06664074
11	0xbdf3316a	-0.11874659
12	0x3b81d309	0.003961925
13	0xbe0c785b	-0.13717787
14	0xbdccbe0c	-0.09997186
15	0x3eac77d0	0.3368516
16	0xbd204e3b	-0.039137106
17	0xbdbe43df	-0.09290289
18	0x3e5c9eb8	0.21544921
19	0x3d235489	0.03987554
20	0xbe0b2496	-0.13588175
21	0xbe8c66b7	-0.27422115
22	0xbdc0b03f	-0.09408616
23	0x3e11f162	0.14252236
24	0xbe01c642	-0.12673286
25	0x3e095563	0.13411479
26	0xbe2525ff	-0.16127776
27	0xbd51e83d	-0.05124687
28	0xbd079fd4	-0.03311141
29	0x3e30ac3d	0.17253204
30	0xbd73e0d6	-0.059540592
31	0x3c840349	0.016114848
32	0xbdac82dd	-0.08423398
33	0xbd8fed35	-0.070276655
34	0xbd97d54b	-0.07413729
35	0xbe316264	-0.1732269
36	0xbdf5598b	-0.119799696
37	0x3dc104f1	0.094247706
38	0x3e02d5f3	0.12776928
39	0xbdeba1bc	-0.11505458
40	0xbd03973d	-0.032126654
41	0xbe4c4983	-0.19949917
42	0xbdde1c03	-0.108451866
43	0xbdf352cc	-0.118810266
44	0x3c6b6285	0.014366751
45	0xbe916022	-0.28393656
46	0xbd1e0a2d	-0.038583923
47	0xbe1249fe	-0.14286038
48	0xbe80fa7b	-0.251911
49	0xbd4ffe07	-0.05077937
50	0xbc5d2c44	-0.013499323
51	0xbe692ce4	-0.2277103
52	0xbda9264f	-0.0825926
53	0xbd8d14f2	-0.068887606
54	0x3d1dcc43	0.038524877
55	0xbe8b45eb	-0.2720178
56	0xbe88dfaf	-0.26733157
57	0x3c8cc3d8	0.01718323
58	0xbe3ea42e	-0.18617317
59	0x3e7b03d9	0.24513187
60	0xbde5efe4	-0.11227396
61	0xbe69d934	-0.22836763
62	0xbdf1e07c	-0.11810395
63	0x3df035d0	0.11729014
64	0xbdaa1c3a	-0.08306165
65	0xbd74aab0	-0.059733093
66	0xbbe191c1	-0.0068838303
67	0xbd69f5f7	-0.057119336
68	0xbe1c5f9d	-0.15270849
69	0x3e11bed3	0.1423295
70	0xbdaaf0b0	-0.08346689
71	0xbdaade98	-0.08343238
72	0xbdc3d492	-0.09562029
73	0xbcd406a0	-0.025882065
74	0xbea25f35	-0.31713262
75	0x3e5b1de0	0.21398115
76	0xbd68ba71	-0.05681843
77	0xbe5ab67f	-0.21358679
78	0xbd2f1d2f	-0.04275244
79	0xbd3ee713	-0.04660709
80	0x3d3c978b	0.04604296
81	0xbe13c372	-0.14430025
82	0xbeefbe4f	-0.4682488
83	0xbddb54ee	-0.107095584
84	0xbd82e283	-0.0639086
85	0xbdbe6bbf	-0.09297895
86	0xbe00a432	-0.12562636
87	0xbdb82136	-0.089907095
88	0xbd7a5fa3	-0.061126363
89	0xbda73848	-0.08165032
90	0xbdb2f5ee	-0.087383136
91	0xbd04c7f5	-0.032417256
92	0xbe3b3877	-0.18283258
93	0xbf12115f	-0.57057756
94	0xbd1bf22c	-0.03807275
95	0xbe2c76ec	-0.1684224
96	0xbde6be38	-0.1126675
97	0xbd5d2767	-0.053992655
98	0xbd491400	-0.04909134
99	0xbca33576	-0.019922953
100	0xbea0f54a	-0.3143714
101	0x3dacaef0	0.08431804
102	0xbd76e835	-0.060280044
103	0xbe50d218	-0.20392644
104	0x3dda6bd6	0.10665099
105	0xbea31e1b	-0.31858906
106	0xbe9fa8f4	-0.31183589
107	0xbdf15b2e	-0.11784969
108	0xbc9817b8	-0.018565997
109	0xbe8ccfb8	-0.27502227
110	0xbe5bb9f8	-0.2145766
111	0xbe3bc1b9	-0.18335618
112	0xbc5f7938	-0.013639741
113	0x3eb0ffe5	0.34570232
114	0xbd24ce27	-0.040235665
115	0xbe141ede	-0.144649
116	0xbe34fa98	-0.17673719
117	0x3cb72ae3	0.022359317
118	0xbd4476aa	-0.04796473
119	0xbd05486e	-0.032539777
120	0xbd88a2be	-0.066716656
121	0xbd4ec549	-0.050481115
122	0x3da2ccc8	0.07949215
123	0xbe7d6fb3	-0.24749641
124	0x3a817166	0.0009875714
125	0xbc74968b	-0.01492847
126	0x3e91d3b4	0.2848183
127	0x3d7fa7e1	0.06241596
128	0xbe30ecd5	-0.17277844
129	0xbd4b1ac9	-0.04958609
130	0x3d2dfc14	0.04247673
131	0xbdb1b416	-0.08676927
132	0x3c0f573b	0.008748825
133	0xbde5fdd7	-0.11230057
134	0x3e319078	0.17340267
135	0xbd7fc12f	-0.062440094
136	0xbe3045d0	-0.17214131
137	0x3dde3a61	0.10850979
138	0x3d777204	0.06041147
139	0xbd769b7f	-0.060206886
140	0x3daf8a80	0.08571339
141	0x37841320	1.5744532e-05
142	0xbd917ecb	-0.07104262
143	0xbec8361e	-0.39103788
144	0xbdd4c43c	-0.10388991
145	0xbe7ea342	-0.24866965
146	0xbdb980e7	-0.09057789
147	0xbde44e8b	-0.111477934
148	0xbcf40653	-0.029788172
149	0xbda88fb2	-0.08230533
150	0x3dc0be0f	0.09411251
151	0xbd1a9351	-0.037738148
152	0xbdbebc47	-0.09313255
153	0xbd12d0ba	-0.03584359
154	0xbda5cc84	-0.08095649
155	0xbd7cf435	-0.06175633
156	0x3e02e181	0.12781335
157	0xbe02b514	-0.12764388
158	0xbd8410fd	-0.06448553
159	0xbe70ca5e	-0.23514697
160	0xbe0e9f06	-0.1392785
161	0x3da324b6	0.079659864
162	0xbd905f59	-0.07049436
163	0xbd82680d	-0.06367502
164	0x3db93087	0.09042459
165	0xbd626869	-0.055275355
166	0x3e30ef74	0.17278844
167	0xbe226f4a	-0.15862766
168	0xbdaa129f	-0.08304333
169	0xbd5c2913	-0.05375011
170	0xbe3ff4c5	-0.18745716
171	0xbde84748	-0.11341721
172	0x3da77fc2	0.08178665
173	0xbd27c85e	-0.04096257
174	0xbdd4856e	-0.10377012
175	0x3dc19647	0.09452491
176	0xbe82f27a	-0.2557562
177	0xbdae582f	-0.085129134
178	0xbe97cd4a	-0.2964881
179	0xbb49184f	-0.0030684655
180	0xbddba1d8	-0.107242286
181	0x3de58733	0.11207428
182	0x3e037cb8	0.12840545
183	0xbc394e1a	-0.011310125
184	0xbe44d6d5	-0.19222577
185	0x3ea15d9e	0.31516737
186	0xbd5d7230	-0.054063976
187	0xbdaa8deb	-0.0832785
188	0xbe1916d6	-0.14950117
189	0x3c9520ce	0.018204119
190	0xbe165fac	-0.14684933
191	0x3c9d1119	0.019173192
192	0xbd85b124	-0.065279275
193	0xbddaabd7	-0.10677307
194	0xbe1e663a	-0.15468684
195	0xbd0e7158	-0.03477606
196	0x3c4600ff	0.012085198
197	0xbdd0cc75	-0.10195247
198	0xbcb4cae0	-0.022069395
199	0xbe0f2680	-0.1397953

weight f4 [1, 200]
0	0xbfa19223	-1.2622722
1	0x3dff2ca3	0.12459686
2	0xbe338713	-0.17531995
3	0xbfaf969f	-1.3717841
4	0xbd0003fd	-0.031253804
5	0xbcc3dc81	-0.023908855
6	0x3f18ea3b	0.5973241
7	0x3e47fd1c	0.19530147
8	0x3c838f44	0.016059525
9	0xc00f17d3	-2.235829
10	0x3f288b65	0.658377
11	0xbe944596	-0.2895934
12	0xbf970361	-1.1797906
13	0xbedf3d06	-0.43601245
14	0xbbf07e93	-0.0073393076
15	0x3f308b88	0.6896291
16	0x3ce4132e	0.027841177
17	0xbfd6a129	-1.6767932
18	0xbe9b9f04	-0.30394757
19	0xbf2e8016	-0.68164194
20	0xbfe3124f	-1.7739962
21	0xbfe41407	-1.7818612
22	0x3cf7c8e3	0.030247157
23	0xbff8cb51	-1.9437047
24	0xbca341c4	-0.01992882
25	0xbea39d19	-0.31955793
26	0xbe5355a4	-0.20638138
27	0xb9bef1f4	-0.00036419893
28	0x3cd23491	0.025659831
29	0xbf988a80	-1.1917267
30	0x3d2a92de	0.04164397
31	0xbf9cbf49	-1.2245876
32	0x3cf35239	0.029702293
33	0xbb3d796b	-0.0028911482
34	0x3b0d8a3e	0.0021597291
35	0xbec48ac1	-0.3838711
36	0xbcf922a8	-0.030412033
37	0xbec40a7f	-0.38289258
38	0xbe2bf742	-0.1679354
39	0xbca62345	-0.02028049
40	0x3d09189d	0.03347074
41	0xbe664dc6	-0.22490606
42	0xbee6c999	-0.45075682
43	0xbfeb7225	-1.8394209
44	0x3e3faa7b	0.18717377
45	0xbf05b314	-0.52226377
46	0xbc81f9c9	-0.015866177
47	0xbbee5102	-0.0072728405
48	0xbe641a20	-0.22275591
49	0xbc98cdd1	-0.018652828
50	0x3d85c066	0.06530838
51	0xbeb3c2b7	-0.35109493
52	0x3c9c7a87	0.019101394
53	0xbde258ba	-0.110520795
54	0xbe945551	-0.2897134
55	0xbf1890b8	-0.59595823
56	0x3ecd03e8	0.40042043
57	0xbfd99d7b	-1.7001184
58	0xb9934302	-0.0002808795
59	0xbec2d1de	-0.3805074
60	0x3c3af796	0.011411568
61	0xbf014a64	-0.50504136
62	0x3cd3934d	0.025827074
63	0xbea29b14	-0.3175894
64	0x3cc25aec	0.023724996
65	0x3cbdb301	0.023156645
66	0xbbc7d921	-0.006098882
67	0xbc4db743	-0.0125559
68	0xbe0ab0cf	-0.1354401
69	0x3e7cd408	0.24690259
70	0xbcd7740a	-0.026300449
71	0x3cdeb86a	0.027187545
72	0x3c4e628b	0.012596737
73	0x3da4943b	0.08036085
74	0x3eb89848	0.3605368
75	0xbf725f31	-0.946765
76	0xbf0ddced	-0.5541523
77	0xbfde5b8e	-1.737169
78	0x3bf2f6e8	0.0074146874
79	0x3d071dbd	0.032987345
80	0xbf398fae	-0.7248486
81	0x3ed287db	0.41119274
82	0xc00d6d59	-2.209799
83	0xbf8f7099	-1.1206237
84	0x3d009dea	0.0314006
85	0x3d0f51ad	0.03499
86	0x3c5baf1d	0.0134084495
87	0xbbdcdd42	-0.006740243
88	0xbed3e14e	-0.4138283
89	0xbea682f0	-0.32521772
90	0x3cce379e	0.025173005
91	0x3c83b769	0.016078668
92	0x3fac6acf	1.3470095
93	0x3f4f64bd	0.8101309
94	0x3cdd88f4	0.027042843
95	0xbf35ceaf	-0.710185
96	0x3c5c626f	0.013451203
97	0x3ba3c7ef	0.004998199
98	0xbc354094	-0.01106276
99	0xc05619b9	-3.34532
100	0xbe3f7457	-0.18696724
101	0xbe80d620	-0.25163364
102	0x3b8fabb3	0.004384482
103	0x3e28a5a5	0.16469438
104	0xbd6c0550	-0.057622254
105	0xbeba9999	-0.3644531
106	0x3e5873e2	0.21137956
107	0xbf72a986	-0.9478992
108	0x3e8bd0b8	0.27307677
109	0xbf1e2899	-0.617807
110	0xbfb0e83d	-1.3820873
111	0xbd11bd35	-0.035580833
112	0x3bc41fb8	0.0059852265
113	0x3ea55c17	0.3229682
114	0x3baa1f0e	0.0051916903
115	0x3eefcf56	0.46837872
116	0xbfaf2354	-1.3682656
117	0x3e661462	0.22468713
118	0xbc7cd4b8	-0.0154315755
119	0xbc172058	-0.00922402
120	0x3ce0f452	0.027460251
121	0x3c2aba9c	0.010420468
122	0xbdd27469	-0.1027611
123	0xbfec6491	-1.846819
124	0xbefe3741	-0.4965153
125	0x3f2034fd	0.62580854
126	0x3ea8ff2a	0.33007175
127	0xbe64e072	-0.22351244
128	0xbe59ee8d	-0.21282406
129	0x4078ae34	3.8856325
130	0xc0161e33	-2.3455932
131	0xbc7f6cad	-0.015589875
132	0x3e0cf5f8	0.13765705
133	0x3fd40780	1.6564789
134	0xbe99d073	-0.30041847
135	0x3bb6428e	0.005562133
136	0xbda5975b	-0.080855094
137	0xbe080978	-0.13284862
138	0xbe3e6bd1	-0.18595816
139	0x3e524f4f	0.20538066
140	0x3fd8b7f5	1.6931139
141	0xbe913420	-0.2836008
142	0xbc8fc609	-0.017550485
143	0x3d627c88	0.055294544
144	0xbce7cec7	-0.028296841
145	0x3f543789	0.8289724
146	0x3b7aa424	0.0038244808
147	0xbf9dd2f7	-1.2330006
148	0xbf8f7042	-1.1206133
149	0x3d6be382	0.057590015
150	0xbf026524	-0.5093558
151	0x3c0cbea0	0.00859037
152	0x3de4ec80	0.11177921
153	0x3d13424d	0.0359519
154	0xbe9efa92	-0.31050545
155	0x3d31dfe6	0.043426417
156	0xbeec864e	-0.46196216
157	0x3c76a8a6	0.015054857
158	0xbf945ac2	-1.1590197
159	0xbfe1f048	-1.7651453
160	0xbf03212a	-0.5122248
161	0xbeed4772	-0.4634357
162	0xbe3b0b1c	-0.18265957
163	0x3cfeb646	0.031092774
164	0x3e8d305e	0.27575964
165	0xbdd6dc94	-0.10491291
166	0x3ed1918b	0.40931353
167	0xbee20b6e	-0.44149345
168	0xbcaa16cf	-0.02076283
169	0xbe0b11b6	-0.13580975
170	0xbccfa136	-0.025345426
171	0xbc78aac2	-0.015177431
172	0xbef654ca	-0.48111564
173	0x3c5b17ea	0.013372401
174	0xbc8f82d5	-0.01751844
175	0xbe43a462	-0.19105676
176	0x3eed6f7d	0.4637412
177	0xbfea33c4	-1.8297048
178	0x3fa613bf	1.2974776
179	0x3d7d7b69	0.06188527
180	0xbcde788c	-0.02715709
181	0xbf564058	-0.8369193
182	0xbd9bb799	-0.07603378
183	0xb9418279	-0.00018454519
184	0xbd29ae48	-0.041425973
185	0x3edf1ab9	0.43575075
186	0xb9fd74dd	-0.0004834299
187	0xbf9e31a4	-1.2358899
188	0x3e7275e2	0.23677781
189	0x3e499ac8	0.1968795
190	0x403e7ec5	2.9764874
191	0xbf7dd433	-0.99151915
192	0xbc5f05d1	-0.013612227
193	0xbe922f2f	-0.28551623
194	0xbc0ae4b3	-0.008477378
195	0xbc9e3f75	-0.019317368
196	0xc0036ccc	-2.0535154
197	0x3bf70d59	0.007539433
198	0x3db6097b	0.08888527
199	0xbe5cec9a	-0.21574631
