Vehicles/GenDisV_0_02_0/GenDisV_0_02_0_critic.pth (torch, 353427 bytes, 10 tensors)

weight f4 [200, 15]
00000000: d4a7 c03e d285 3ebe aa8a 1cbf 5eac 93be
00000010: c7f7 23bf 1024 d5be 3a77 063e 5352 243c
00000020: 8afc 873e 74d9 68bb d382 6b3e d37f 1c3d
00000030: 4b56 2ebe 063a 4fbe 35c5 6d3e f7ee f9bd
00000040: 76d1 09bf 0da2 1c3e ff89 6bbe 6c75 713e
00000050: ed42 363e 4c80 aabe dd2b 813e 3470 6e3e
00000060: c794 92be 8f5a 2a3c 0654 85bc bd19 a23d
00000070: 39e9 203f ea45 efbe 4cb8 ab3d f44a 40be
00000080: b98b b93e 62ef 76be cc53 19be 5e6b e33b
00000090: 4dbd be3e 00d5 aebe 0168 4bbe b5c5 e2bd
000000a0: eeb3 b0bd 5f96 c6bd 2607 5c3e 97d1 33bf
000000b0: 71c1 6b3d 6472 4e3d 0c9e 8cbd 8e4e 9fbe
000000c0: 5c11 10be 8ce2 cc3d c87f ccbe fcda 5e3e
000000d0: 574d f1bb 0e41 043e 8de5 06be afee 313e
000000e0: 2fda 1a3e 5379 05bf b346 8f3f f50d 493e
000000f0: 8e5b 603d b7f7 bd3e 208a d83e dd20 c33d
00000100: 45ef b3bc aad8 853e 2a13 1f3e 6954 f4be
00000110: a7d3 a83c 69d5 b6be 6852 0cbe 423c babd
00000120: 559c a43e 4467 a2be 51ba 313e 7757 0dbf
00000130: 5ccb aabe d6d9 93be 02a1 6fbe cf3e dbbd
00000140: c1f6 dabd 8e5c 94bc 9461 ad3e 31fc bc3e
00000150: ccda 89be f90a 213e 1a47 663e fb72 04bf
00000160: 16ff 263e 0708 52bc aba5 d0be 27ce a93b
00000170: e28e 483f 4b9e e3bd 7d77 5f3e eed8 173e
00000180: 80b3 b43b 9a34 edbe 86b1 393e 0d3f 9c3e
00000190: 7126 893e 0fdb efbc d8a2 4abe 0889 6a3c
000001a0: b56d 313f 6b35 1dbe 4a9d 1fbf 990a 36bd
000001b0: 1f2c 1c3e 969a 5e3d 99f5 62be 18c4 4fbf
000001c0: bfea b1bf 0a74 6fbf 91ba a4be 65c4 10bf
000001d0: c487 8a3e 3717 34be 1208 f73d c46f 45be
000001e0: 5842 19bf f3f0 423f 58d0 5fbe abe9 31be
000001f0: c8b5 4f3e 87ad bfbe 91b5 79be a4b6 b83d
00000200: f272 5cbe 521b 0e3e d5a9 c8bd ebc2 6abd
00000210: 16aa 8f3e 728b e3bd 94fb b9bd 9d15 283e
00000220: c1c9 0e3f 7dde d63e 35fe 48be c71d 8dbe
00000230: 1af8 5ebe 9b73 bfbe 8957 e0be 3773 9a3e
00000240: ed6d eb3d f7dd 08be 1dc9 713d 2628 38be
00000250: 03de 1fbf 0af2 41be 7dfe 133c 5474 dd3e
00000260: 2258 563e e237 d5be 092e a1be 19e2 46be
00000270: 6ed6 b8be dbae 063e 6be1 f33d 1fbe d3be
00000280: 777f 49bd 4061 8ebe 1330 cebc 7029 633f
00000290: b197 b83e 210c 973e 6f7b e43e 8f9e 863e
000002a0: c442 73be 0667 a6be d6b4 483e 8bdf a53e
000002b0: 34fc d1be 0b32 3abf c18c 17bf 0610 65bf
000002c0: 09db 86bf 7e80 81bf 432b 74be ff18 9a3d
000002d0: 47a0 bfbe 2a52 5cbe fa71 713e b02d 883e
000002e0: 8a17 ecbe bdda c3be c2cc 49bf cb8c 35be
000002f0: e488 873e dc9d d23e 1be6 3cbe 61e7 30bd
00000300: b7fb 86be 82b6 173e 4063 153e 2407 a9bd
00000310: 171b 483d fe1f c33e 058a ad3e 7637 8abe
00000320: 796f a93d 93c7 5a3c 2a7e 803e e9c3 9bbd
00000330: 2109 02bd 9616 83be f829 ed3c 392e de3c
00000340: 370f 32be 1ea2 223e 12b8 233f e613 1dbf
00000350: 365f 05bd 4719 80be 3f40 063e bdbe 563e
00000360: 9677 123d b4b6 17bf 3210 74be 5128 903e
00000370: 7c70 713b edd9 493e 267e bebe d694 c3be
00000380: a795 05bc a5d9 f7bd d335 51bd ff6e b4be
00000390: 9eeb 833e 0bf4 09be d6d5 203d b177 ab3c
000003a0: 2fff 31be 9de5 2ebf 4885 903e 135c 183d
000003b0: 0aeb 9f3e e3a4 81be e3dc e33e 4e0d debe
000003c0: 24cb 603c acd6 d33e 7461 13bf cdec 0d3e
000003d0: 4961 5fbe 7d3c 1cbd 8088 9c3d f9a9 493d
000003e0: 0695 ebbd b367 91be 9240 353e 6555 0dbd
000003f0: 263b cbbe 7ebe 563f 0865 a9be d5ea 49be
0.37628043 -0.18605736 -0.61149085 -0.28842443 -0.64049953 -0.41629076 0.13131419 0.010029393
0.2655986 -0.0035530003 0.22999124 0.03820784 -0.17025106 -0.20236978 0.2321976 -0.12203782
-0.5383524 0.15296192 -0.2300186 0.23579949 0.17798968 -0.33301008 0.25228778 0.2328499
-0.28629133 0.010397567 -0.016275417 0.079150654 0.6285587 -0.46733028 0.08384761 -0.18778592
0.36239412 -0.24114755 -0.14973372 0.0069402894 0.372538 -0.3414688 -0.19863893 -0.11072866
-0.08628069 -0.0969665 0.21487102 -0.70241684 0.057557527 0.05040206 -0.068660825 -0.3111462
-0.14069122 0.10004148 -0.3994124 0.21763223 -0.007363956 0.12915441 -0.13173504 0.17376207
0.15122293 -0.5213825 1.1193451 0.1963423 0.054774813 0.37103054 0.4229288 0.095277525
-0.021964679 0.26141864 0.15534654 -0.4772065 0.020608736 -0.35709694 -0.1370331 -0.090935245
0.32150522 -0.3171941 0.1735623 -0.55211586 -0.33358276 -0.28877133 -0.23401263 -0.10705339
-0.10691596 -0.01811054 0.3386351 0.36911157 -0.2692474 0.15726842 0.2248806 -0.51737946
0.16308245 -0.012819297 -0.40751395 0.005182046 0.7834302 -0.11114176 0.21822925 0.14828846
0.005514562 -0.46329194 0.18134126 0.30516854 0.2678714 -0.02927926 -0.19788682 0.014314897
0.69308025 -0.15352409 -0.6234938 -0.0444437 0.15251206 0.054346643 -0.22164 -0.8115859
-1.3899764 -0.93536437 -0.3217359 -0.56549674 0.27056706 -0.17586981 0.12062086 -0.19280916
-0.5986686 0.7614891 -0.2185682 -0.17374294 0.20284188 -0.37437078 -0.24385668 0.09019211
-0.21528223 0.1387761 -0.09798018 -0.057314795 0.28059453 -0.111105815 -0.09081188 0.16414495
0.557766 0.4196662 -0.19628222 -0.2756178 -0.2177433 -0.37392887 -0.43816784 0.30166027
0.11495576 -0.13365923 0.059029687 -0.17984065 -0.6244814 -0.18939987 0.009032843 0.43252814
0.20932057 -0.41644198 -0.31480435 -0.19422187 -0.36101097 0.1315264 0.119082294 -0.41355988
-0.049193826 -0.2780857 -0.025169408 0.88735104 0.3605323 0.2950144 0.44625422 0.26292846
-0.23755938 -0.32500476 0.19600233 0.32397112 -0.41012728 -0.7273261 -0.5919915 -0.89477575
-1.0535594 -1.0117338 -0.23844628 0.07524299 -0.3742697 -0.21515718 0.23578635 0.26597357
-0.4611171 -0.38252822 -0.7882806 -0.1772949 0.26471627 0.41136062 -0.18447153 -0.04318941
-0.26363918 0.14815715 0.14588642 -0.08253315 0.04885396 0.38110346 0.33894363 -0.26995438
0.08273215 0.013353246 0.25096256 -0.07605726 -0.031746987 -0.2560317 0.028950676 0.02712165
-0.17388617 0.15882155 0.63952744 -0.6135849 -0.032561503 -0.25019285 0.13110445 0.20971198
0.035758577 -0.5926316 -0.23834303 0.2815576 0.0036840728 0.19712038 -0.3720562 -0.3819949
-0.008153356 -0.12102059 -0.05107672 -0.35240933 0.257657 -0.13472001 0.03926643 0.020931097
-0.17382501 -0.6831911 0.28226686 0.037197184 0.31234008 -0.2532111 0.4450446 -0.43369526
0.0137203075 0.4137472 -0.57570577 0.13859864 -0.21814455 -0.038143624 0.07643223 0.049234364
-0.11503033 -0.2839943 0.17700413 -0.034505267 -0.39693564 0.8388442 -0.33084893 -0.19718488

bias f4 [200]
00000000: 039f b43d 49a3 b13d 620e 1b3e ed17 d8bd
00000010: acc5 2dbe ba62 963e dada cabd db44 8a3e
00000020: b938 7f3e d71c 98bd e24f 1a3c 3dc1 983c
00000030: 3655 75bd bdd6 a5bc 25d1 d6bd 884d 033e
00000040: 4b45 a5be 8c3e 6f3e 71a8 29be f2a1 45be
00000050: 181a 18bc ed44 973e dd78 e43d bb39 5e3e
00000060: 892a 833d 0c1f 583e a3d5 5abe 4e92 6bbe
00000070: 40ce 203e d4c4 86be 7765 d03c 6972 4bbc
00000080: e359 17be 3d82 99be 03b2 28be 7e8f 9cbe
00000090: 4515 8dbd 4744 35be 5bdf 40be cb38 b7be
000000a0: 4020 0c3e b8ee 103e 392a 983e 9d27 ce3d
000000b0: 9c27 90be bf2e c73a a8c0 53bd 1c48 8abe
000000c0: ecac a6be fc0c 0a3c 477c 2c3e 97dd 01be
000000d0: 5225 d83e 0986 513d a274 cd3e 6585 873e
000000e0: 7305 b6bc cf8a a93e a2c2 463e 22aa 3fbe
000000f0: aa45 913d 3d3c b23e 8de3 6ebe cccb 8f3e
00000100: f024 e6bd 555f 18be 6886 37be 72be ea3d
00000110: 7a72 ba3d 6245 333e 0f28 a93e 5e50 dd3d
00000120: 9527 c03e 29a9 95bd 7c93 333d 6bfa b13e
00000130: 96a0 04be bfcb 94be 7e1a 9ebd 6c8d 103e
00000140: 78c9 92be 8db8 50be bbd0 c53d b50f c3be
00000150: 190c 9dbd adaa 303e 8b22 c13c 06da 673d
00000160: f099 35be 6f1a 163d 8ad0 e13d d1c5 aabe
00000170: 4596 973d a455 58be 1dfa 54be c1df bc3e
00000180: 38c3 85be 6d71 bcbe f3d8 8fbe 0321 033f
00000190: 25c7 903e 07ca ec3d 016d 67be 04a6 89bd
000001a0: d1c0 35be a38d 02be bbed 7abe 05b5 f43b
000001b0: 6145 873d f0f5 9dbe 8186 4c3e eae9 883d
000001c0: 9d06 01be e76b 603c cb00 86bd a45e 323e
000001d0: 913a 96bd 7d01 8bbd aaff 86bd d907 033d
000001e0: 86fa f83d 7d53 4f3d 0fed 60bd 5a6b 9fbe
000001f0: cbe1 2abe 04e0 f4bd 0463 40be 0b34 9c3d
00000200: 2ca6 80be cbcc 1b3d aef2 4cbe 8105 eebd
00000210: d290 d03e 6cba 4abe 918d fa3d 2621 b1be
00000220: 9fd7 8bbb 9ed3 303e c51c adbe 1912 b1bc
00000230: caf9 d6be 9118 e53c f061 313d 3c54 9fbe
00000240: a458 b1be 3bb9 2bbd 9da9 ca3e f3b3 0abe
00000250: 058d 92bd 01f2 03bc 8600 eebc 027f f33d
00000260: 71dd 9dbe bddd 98be 31d6 d0bd 89db 88be
00000270: d19b bd3d 7074 273e e412 093d 726e debe
00000280: 192a 873d 243b 42be 8eba b43d 6b69 113e
00000290: ed92 a2be 3a36 4fbe 3097 403e 8758 b63e
000002a0: 06d7 cf3e 506c 393e 56b1 8ebd 9954 1b3d
000002b0: f261 053e 17c7 99be 03c0 39be 8840 653e
000002c0: c4dc a4be d2bb a73d bd84 033e ec27 3a3e
000002d0: 04be 163e 6f03 fe3d e254 82be 26ae b43e
000002e0: bf6a 863e 628a dabc 605e 863c 4824 dc3e
000002f0: 9203 7b3e ccd1 83bd 34e0 afbe 4871 e0bc
00000300: 3250 c13d f356 6e3e dad4 4cbe 7cb6 57be
00000310: dbc2 90be 2828 34bd 8d91 7d3e bd28 873e
0.088193916 0.08673722 0.15142205 -0.105514385 -0.16969937 0.29372197 -0.09905024 0.27005658
0.24923982 -0.07427376 0.00941846 0.01864683 -0.059895717 -0.020243997 -0.1048911 0.12822545
-0.3227943 0.23363703 -0.16568162 -0.19300058 -0.009283565 0.29544774 0.11155865 0.2170171
0.06404597 0.21105593 -0.21370558 -0.2300503 0.15703678 -0.26322043 0.025439007 -0.012417414
-0.14780383 -0.29982176 -0.16474156 -0.30578226 -0.068888225 -0.17701827 -0.18835203 -0.35785517
0.13684177 0.14153564 0.29719713 0.100661494 -0.2815522 0.0015196427 -0.051697403 -0.2700814
-0.32553804 0.008425947 0.16844283 -0.12682186 0.42215973 0.051153217 0.40128046 0.2646896
-0.022219395 0.33113715 0.19410184 -0.18717244 0.070933655 0.34811583 -0.23328991 0.28085172
-0.11237514 -0.14880116 -0.17922366 0.11462106 0.09103866 0.17506936 0.33038375 0.108063444
0.375302 -0.07307655 0.043841824 0.34761366 -0.12951884 -0.29061696 -0.07719897 0.14116448
-0.28669333 -0.203829 0.09658953 -0.3809792 -0.07668323 0.17252608 0.023576042 0.056604408
-0.17734504 0.036646303 0.11026104 -0.33354047 0.074017085 -0.2112642 -0.20798536 0.3688946
-0.26125503 -0.36805287 -0.28095207 0.51222247 0.28276935 0.11561971 -0.22600175 -0.06721118
-0.17749335 -0.12749343 -0.2450475 0.0074678683 0.0660503 -0.30851698 0.19973184 0.066852406
-0.12600179 0.013697601 -0.0654312 0.17418915 -0.073353894 -0.06787393 -0.06591733 0.031989906
0.121571586 0.05061673 -0.054913577 -0.3113659 -0.16687696 -0.1195679 -0.18787771 0.07627114
-0.2512678 0.038037103 -0.2001445 -0.116221435 0.4073549 -0.19797677 0.12234033 -0.34595603
-0.0042676474 0.17268226 -0.33811012 -0.021615075 -0.4198745 0.027965816 0.04330629 -0.31118953
-0.3463794 -0.041924696 0.3958253 -0.13545208 -0.071558036 -0.008053304 -0.029052984 0.11889459
-0.3083301 -0.29856673 -0.10197104 -0.26729992 0.09258235 0.16353011 0.03346528 -0.43443638
0.06599826 -0.18967873 0.08824645 0.1420037 -0.3175272 -0.2023553 0.18807673 0.35614416
0.40593737 0.18107724 -0.06967418 0.037922475 0.13025644 -0.30034706 -0.18139653 0.22387898
-0.3219968 0.08190121 0.12843604 0.18179291 0.14720923 0.12402999 -0.25455385 0.35289115
0.26253316 -0.026677314 0.016402423 0.4299643 0.2451308 -0.064365 -0.3435074 -0.027397767
0.09439124 0.23275356 -0.20003071 -0.21065706 -0.28273663 -0.04398361 0.24762554 0.26398268

weight f4 [200, 200]
00000000: 3a43 9ebd 04a9 ecbc f888 bebc a40b fabc
00000010: 4c0b 62bc ae21 acbc d087 c1bc 2f67 71bd
00000020: cf5c 07bd 088f 8abd f778 843c a385 d0ba
00000030: e780 abbd 745b a33c 9721 aabd c458 3cba
00000040: ad52 253c d63a 28bc 102d 903c 412e 68bc
00000050: d82f bcbd e068 9c3c 5b26 183c 28fe 003d
00000060: 742c adbd 0ee7 58bd fde3 ef3c 34fa 09bd
00000070: 7138 97bd d48b 4fbc c97f b63c df10 6dbd
00000080: ce6b 7ebd 610a 2c3d 85f8 68bc 318f 6cbd
00000090: e649 b7bd bf49 8ebd 8e87 483c 4658 77bd
000000a0: 285d b2bc b212 4fbd cb7e 76bd fd4e 00bd
000000b0: 74bf 8ebd a7e9 dd3c 5ab0 87bd ed9d 603a
000000c0: 9795 0dbd f320 1ebc 3095 f33c e248 ad3c
000000d0: 3c62 7e39 50ef b03c 33e4 2fbd feaf c7bc
000000e0: 6e45 153c ab60 69bd d16d 6abd c479 00bc
000000f0: 5548 95bc 5007 603b de6e cc3c 03a2 88bd
00000100: 3209 733c ba9e dabb 86ad e3bc a806 78bc
00000110: 7da4 26bd 2913 7f3c 1cdc 0dbd 5e10 88ba
00000120: 3b6f 2cbc e17a 4bbd b1ee 4bbd eafe e5bc
00000130: e4d9 1dbd 9de1 b2bc 70ef 34bd 30e6 80bc
00000140: bbf8 82bd 8763 61bd 011b 0a3d f40a 62bc
00000150: f9ac 40bd bd32 c3bc add3 54bd 0a25 91bd
00000160: 764b 563d e0e2 003d c79b 95bd 0d22 923c
00000170: b2d5 a43b 69c9 803c 1427 143c efcb c5bc
00000180: 9088 0b3d 29b1 39bc cf5d 87bd bd81 aa3c
00000190: 6606 86bd ef5a 57bd 1673 1f3d 0c5a 5cbc
000001a0: 2c8f b93c 72be f53b 5da5 fc3b ae20 b3bd
000001b0: 60c1 78bd 603a 0abd 5c7a cc3c a59e 49bd
000001c0: d4c3 f2bb de46 e73c a058 ce3b 6211 f1bc
000001d0: 24d3 9abc 565b a2bd 95ca f93c 6bc0 70bc
000001e0: f262 bfbd 39bd c03c 91a7 0c3d 3c3b 1cbb
000001f0: 77f8 843d cd36 78bd 4cd2 87bd f482 91bd
00000200: 8233 26bd 17a8 a7bd 088d c83c 12bd 4ebc
00000210: 7fc8 3d3c bb7a 133c c9f9 8bbd 49e2 f4bc
00000220: e0a9 8b3d 4215 fcbc 589b 183b 755c 3abd
00000230: fcfd 63bd 4367 a8bd 791f 1c3d a97c d33c
00000240: 914f b73a a02d 6fbd 2e7c bf3c 5c35 b43c
00000250: 38b6 5cbb e3f2 5fbd b934 61bc 491f 74bd
00000260: 65ab e439 594e 7a3d 8173 b9bb 93a4 1fbd
00000270: 0371 843c 6211 3d3c f170 16bc dc6c 8bbd
00000280: a027 6dbd b8f3 7bbd 09c7 76bd 13ae e13c
00000290: e196 ecbc 17b2 fcbb 6a9b d2bc c940 a2bc
000002a0: f0ea 84bb 932d 00bb 024d 9dbc ad8d d03a
000002b0: f5ee 81bd 3643 b93c fa28 16bd f4f4 f6bc
000002c0: 3220 9ebd 453c b5bd f787 8ebc f034 98bd
000002d0: 822c c1bb 15cb 21bd 6143 013d ee72 73bd
000002e0: 8eaf b23c 9af6 283d 727c c8bd 4876 2b3d
000002f0: 1ce6 1a3d 2224 36bd ecd4 813d afb5 b6bc
00000300: 0594 ac3c 744a 86bc f6af 8f3c d03c 2ebd
00000310: 5e02 39bc e8f9 aa3b cbfb cdbc d502 96bc
00000320: 26d0 313e 6105 84be 1a5a fcbe 68bc 72bd
00000330: dcf9 0abf f219 adbe 7b49 6ebb 7b44 c63b
00000340: 0db4 81be 4c61 ecbe dcd9 bdbf 4d22 853e
00000350: f3b3 83be 4092 0c3e 7254 7dbf f1b1 cabb
00000360: f180 89bf 37d1 323e 53d2 3b3e b701 13bf
00000370: 9193 ea3d dee1 cebe a6d0 8f3e 413e eebe
00000380: 66d1 cebe 4523 923e 7e37 50bf 4e0b e2be
00000390: 757f 91bd 7dc5 223c f69c bb3e 3953 9cbd
000003a0: 2dce b1be 19eb 0e3b 4b13 0c3e 21da 5bbf
000003b0: 75b8 46bf 846d 50bd 600e 1e3c 886c fa3d
000003c0: 4eb1 abbd 8092 cdbe b809 80bd cd57 b5bc
000003d0: feb3 0c3c 6997 f23d 5c53 a0bd c32b 51bb
000003e0: 3c45 353d 84c2 75be 68e0 d0be 408d 943e
000003f0: b4a6 08bf 7115 1bbe d89b be3d a018 1cbf
-0.07727666 -0.028889187 -0.023258671 -0.030523129 -0.013796639 -0.021012153 -0.02362433 -0.058936294
-0.033047494 -0.06765562 0.016170962 -0.0015908967 -0.083741955 0.01994107 -0.08307188 -0.0007184858
0.010090512 -0.010267934 0.017599612 -0.014171184 -0.09188813 0.019092977 0.009286488 0.031492382
-0.084557444 -0.052954726 0.029283518 -0.033685878 -0.07383812 -0.012667615 0.02227773 -0.057877418
-0.06211453 0.042002086 -0.014219408 -0.057753745 -0.08949642 -0.0694766 0.01223935 -0.06038692
-0.021772936 -0.05055494 -0.060179513 -0.03132533 -0.069701105 0.027088953 -0.06625433 0.00085684547
-0.034566488 -0.00965141 0.029734224 0.021152917 0.00024259923 0.021598488 -0.042942237 -0.024375912
0.009110792 -0.056976955 -0.057233635 -0.007841531 -0.018222967 0.0034184046 0.02495521 -0.06671526
0.014833735 -0.0066717537 -0.027792703 -0.015138306 -0.040684212 0.015568533 -0.03463374 -0.0010380854
-0.010524566 -0.049677733 -0.04978818 -0.028075654 -0.038537875 -0.021836096 -0.044173658 -0.015734762
-0.06395098 -0.055026557 0.03371716 -0.013796557 -0.04703996 -0.023827905 -0.051959682 -0.07087143
0.05231806 0.031466365 -0.07305103 0.017838502 0.0050303573 0.01572104 0.00904252 -0.024145095
0.034065783 -0.011333742 -0.066096894 0.020813817 -0.06544189 -0.052576955 0.038928114 -0.013449203
0.022651277 0.0074995095 0.0077101425 -0.087464675 -0.06073129 -0.033747077 0.02496069 -0.04922356
-0.0074085984 0.028232034 0.006297186 -0.029427234 -0.018899508 -0.07927577 0.030492106 -0.0146943135
-0.09345044 0.023527728 0.03433949 -0.0023839017 0.064927034 -0.060599137 -0.06631908 -0.071050555
-0.040576465 -0.081863575 0.024481311 -0.01261832 0.0115834465 0.009001429 -0.06834752 -0.029893057
0.068195105 -0.030771855 0.0023285951 -0.04549833 -0.05566214 -0.082228206 0.038115952 0.025816279
0.0013985505 -0.05839312 0.023374643 0.0219981 -0.0033677947 -0.054674994 -0.01374548 -0.05960015
0.00043615248 0.061109874 -0.005659521 -0.03897531 0.01616717 0.011539789 -0.009182201 -0.06807873
-0.057899117 -0.061511725 -0.06024841 0.027548825 -0.028880538 -0.0077116597 -0.025708873 -0.019806283
-0.004056327 -0.0019558414 -0.01920176 0.0015911363 -0.063444056 0.022615056 -0.036660172 -0.0301461
-0.077209845 -0.08849386 -0.017398817 -0.07431972 -0.0058951983 -0.039500315 0.0315584 -0.059435777
0.021812227 0.041250803 -0.09789361 0.04186085 0.037817106 -0.044468053 0.0633944 -0.02230343
0.021066675 -0.016392924 0.01753996 -0.042538464 -0.011292068 0.0052177794 -0.025144478 -0.018311897
0.17364559 -0.25785354 -0.49287492 -0.05926171 -0.54287505 -0.33808857 -0.0036359716 0.006050644
-0.2533268 -0.46167982 -1.483211 0.26002732 -0.25723228 0.13727665 -0.9895698 -0.006185763
-1.0742475 0.17462622 0.18341951 -0.5742449 0.11453927 -0.40406698 0.28088874 -0.4653187
-0.40394133 0.28542534 -0.81334674 -0.4414925 -0.071043886 0.00993478 0.3664319 -0.07633061
-0.34727612 0.002180761 0.13679235 -0.85879713 -0.7762521 -0.050885692 0.009646982 0.12227732
-0.083834276 -0.40150833 -0.06251854 -0.022136593 0.008587835 0.118452854 -0.078283995 -0.0031916953
0.04425548 -0.23999983 -0.40796208 0.29014015 -0.5337937 -0.15144898 0.093070686 -0.60975075

bias f4 [200]
00000000: 7604 30bd 1b49 af3b 1006 883e 196b e8bd
00000010: 5cc3 b0bd 60f7 403e 4162 973d b792 01be
00000020: 572d abbd bc4f d53d ec90 9cbe 8001 b6bd
00000030: 7389 aa3e cf0f d6bd 0621 983d 97be 1a3d
00000040: 46b8 cebd 119a 273e c35f c0bb 2b76 0e3f
00000050: e959 efbd 4189 e9bd ff0d e1bd 1a75 9fbb
00000060: afd1 24be 7ea5 3ebe a264 5b3d ff9c a4bd
00000070: 7e20 04be e5bc 653d b54b a8bd ff3f 91bd
00000080: b91a 17bd 3d04 59bd 1132 ab3d d245 e0bd
00000090: 90ab 2dbe d377 18be 402e b3bd a002 6b3d
000000a0: ca7e f1bd 3393 cdbc 8fb4 2d3c 181c 8abc
000000b0: 233d 7abd 64ec dc3d 1c02 cabd c0c6 74bd
000000c0: 98a1 48be b1f2 59bc c0ab 39bd 2f81 8bbd
000000d0: 0ad9 7c3d caee af3d fa50 8dbd c124 cb3e
000000e0: 2bc6 bc3c 0179 75bd 262a 3c3c ac55 a6bd
000000f0: 742f 15bd 78c1 77bd dcc8 8abe 932d a63d
00000100: e518 11be 66ab 9dbc f969 2dbe a4e7 88be
00000110: cb75 a2bd dafd 743e 61df b1bd 7ea3 90bd
00000120: 8e24 ff3b dccb f9bd e2bb dbbd 9cb0 df3b
00000130: d505 dabd 25dd ae3d 541f 1a3e efba 71bc
00000140: a694 813e b31c 9ebd e29a 24bd 4fbc de3c
00000150: 14fa fabd 29a4 d33d e02f 5abd 8ea7 05bd
00000160: 65f9 7dbd beae 63bd 5dd0 c3bd 0ba5 d2bd
00000170: a8a8 6fbe 12f9 94bd b9ec 08be 49c5 7c3d
00000180: d910 e8bd 24eb 18bd d913 34bd b938 323c
00000190: 3ed6 c7bd c7cb 55bd 444d 123c ffe4 d5bd
000001a0: 62a8 cfbd 568a d4bd e8be 2abe 0493 8f3e
000001b0: 8271 a9bd 1c9d 23bc b498 8e3e 677e 20bd
000001c0: 1be4 c8bd c78f 7abe bb93 9fbd 2ed8 d93d
000001d0: c844 2a3e bbf9 1c3e 7915 6dbd 42a0 b23c
000001e0: 06ce 4cbd 093f 073e 3e2d 313e 48a4 acbd
000001f0: 1fcb 1ebe dbae 4d3c 69a8 05be f5ef 43bd
00000200: 93a0 67be 9e39 d2b9 4a31 1fbe e5d8 763e
00000210: 6c77 0cbc f0d5 903c ec4c 90bd fe68 3abd
00000220: 661b 363c ad60 d3bd d528 ee3e 461a 86be
00000230: d3b6 9b3e 05a4 0dbe e7c6 393e 32d1 6ebb
00000240: c81a a2bd 809e 80bd 1750 983e 066e 2bbe
00000250: 6fa3 97bd 01c7 f0bc 4c9e 6e3c b738 9bbd
00000260: b5e2 973c 5a10 e4bb 5acd 0bbd 71a0 023d
00000270: 9cea 87be 15fe 17be 74a1 b1bd c672 e9bc
00000280: 136e 783b a4e7 323d 2ce3 ff3d 8620 ddbd
00000290: bd61 183d b679 283e ad66 51be 3d4d e5bd
000002a0: 2c06 94bd 29c5 aabc 9c8c 923d 7208 05bd
000002b0: dbde 79bd 9de7 b83d c29f 67bd cc31 cc3c
000002c0: a76e c8bd 4aaf 373d 4fd4 14bc 135c 0dbc
000002d0: 42ee 83be bd7d b9bd eb91 93bd 0db2 f1bd
000002e0: 2c30 c9bc bfbf 43bd 48f8 1abd a229 523d
000002f0: c06e 703e 2980 02be 8ff2 2ebe b6f3 7bbd
00000300: 6b66 a7bd f676 0dbe 0b6e f9bd 4523 913e
00000310: ee1a f5bd 5a59 44bd 3f97 a0bd 3bb9 56be
-0.042973004 0.005349291 0.26567125 -0.11348552 -0.08631012 0.18844366 0.07391787 -0.12653624
-0.08358257 0.10415599 -0.30579317 -0.08887005 0.3330799 -0.10452234 0.07428174 0.037779417
-0.10093741 0.16367365 -0.0058707907 0.5564906 -0.11687071 -0.11403132 -0.10988998 -0.0048662545
-0.16095613 -0.18617818 0.053562768 -0.08037757 -0.1290302 0.056088347 -0.08217565 -0.070922844
-0.03689072 -0.052982558 0.08359159 -0.10950817 -0.16959977 -0.1488946 -0.08749056 0.05737555
-0.11791761 -0.025094604 0.010602131 -0.0168591 -0.06109346 0.107872754 -0.098636836 -0.059759855
-0.19592893 -0.013302491 -0.04532981 -0.06811749 0.061730422 0.08590467 -0.06900211 0.39676479
0.023043713 -0.05992985 0.011484658 -0.08121809 -0.036422208 -0.06048724 -0.2710637 0.08114161
-0.14169653 -0.019246768 -0.16934957 -0.26739228 -0.079326235 0.23924962 -0.08685184 -0.07062434
0.00778634 -0.12197086 -0.10729195 0.0068264734 -0.106456436 0.08538274 0.15051013 -0.014754041
0.25308722 -0.07720318 -0.04018677 0.027189402 -0.1225473 0.103340454 -0.053268313 -0.032630496
-0.06200542 -0.05558657 -0.095612265 -0.10285386 -0.23404181 -0.07274069 -0.13371553 0.061711583
-0.113313384 -0.037333623 -0.04396424 0.010877782 -0.0975766 -0.05219629 0.008929554 -0.10444068
-0.10139538 -0.10377948 -0.16674387 0.28041852 -0.08273603 -0.009986188 0.27850878 -0.039183047
-0.09809133 -0.24468909 -0.07791849 0.10636936 0.166278 0.1532964 -0.057881806 0.021804933
-0.050001167 0.1320764 0.17302415 -0.08429772 -0.15507172 0.012553896 -0.13052525 -0.047836263
-0.22619848 -0.0004009725 -0.15546146 0.24106176 -0.008573394 0.017680138 -0.07045922 -0.045510285
0.011114931 -0.10321174 0.46515527 -0.2619192 0.3041292 -0.138321 0.18142281 -0.0036440608
-0.07915264 -0.062802315 0.29748604 -0.1674119 -0.07404219 -0.029391767 0.014564108 -0.07579177
0.01854072 -0.006959957 -0.034131385 0.03189129 -0.2654618 -0.14843018 -0.08673373 -0.028497111
0.0037907406 0.04367794 0.124945015 -0.10797219 0.037202585 0.16452679 -0.20449324 -0.11196373
-0.0722774 -0.020845966 0.07155725 -0.032478757 -0.061003547 0.09028552 -0.05654884 0.024926089
-0.0978673 0.044844903 -0.009083821 -0.008627909 -0.25767714 -0.09057186 -0.07205566 -0.118015386
-0.024559103 -0.047790285 -0.037834436 0.051309235 0.23479748 -0.12744202 -0.17084716 -0.061511718
-0.081738316 -0.13814911 -0.12179192 0.2834722 -0.11968027 -0.047936775 -0.07841348 -0.20969097

weight f4 [1, 200]
00000000: 15b1 da3b 782a 183f d8e6 9b3e 12ee 2dbd
00000010: b1b8 dcbc 3a71 e53e e52e cbbe 3676 2abe
00000020: 549e c2bc 576c a63e f22e 293f f59a 463c
00000030: 1bac 713e 4458 71bc 4780 b0be a214 a73f
00000040: a67b bcbe aeac 0d3f b33f 2fbd d0e2 eb3e
00000050: 15c3 173c 0d28 3ebc 7ca8 8bbc 6f8a 14bf
00000060: 416f a93b b3c0 b8bd 6cbd 62bf 785d d63b
00000070: 427c 2ebc 2f94 67bf dc9f 53bf 8dc3 0cbe
00000080: 55ac af3f c82e f13c 0dcf 3bbe 0072 07bf
00000090: 17f4 c63e 8082 563f 5b10 84bb 12f9 623f
000000a0: 8215 96bd 219b d9bf fd68 df3c 8bec 453f
000000b0: 3a4c 903f d452 d0be 9675 2ebd 3982 11bd
000000c0: 832d 7dbf 5509 04bd fcac b73c 02b4 b63c
000000d0: 6c2d fdbe fea1 823f 37a9 eabc 3a13 643e
000000e0: b0c4 f73b 6f4d d63c 99df a4bb 9207 f53c
000000f0: 888b 9f3c ab20 8a3c f747 83bf cf9b c5bd
00000100: 70bf a23f d720 ecbe 08ed 35be 0815 8cbf
00000110: 4e65 35bd 1895 2d3f e330 203c 964e 133f
00000120: a882 00be 8b17 a0be 0ade 9ebc bd9a adbe
00000130: ab5c b0bc 1a9d 1ebf 310f 7e3f 4f40 5ebd
00000140: fa0a 633f 777b 953f 86c8 123c febf 3e3f
00000150: 62c6 c63c 0af5 93bf 36bc c63a 9d32 dc3b
00000160: 0e13 c03b 09b3 2ebf 42d6 cfbc ba3d dc3c
00000170: d9ea bd3e 8fc9 623f 4377 10bf e0e4 103f
00000180: 428f aabd 260f b33c fabe 8b3b 9698 933f
00000190: 3c63 87bf 1bec 7a3f cb96 98bf 8cdd 553e
000001a0: c63c 08bd a235 243c a687 40be dc41 4d3e
000001b0: b882 373c e27b b3bb d41d f63e e0ee ef3e
000001c0: ca00 a0bc c79c d83e 23f3 6fbc a418 1b3f
000001d0: fb38 4d3f 1d98 37be 3e9c a4bc 4637 15bf
000001e0: 8d34 a13c 23cd 12bf 1f1c 663e 71be c03b
000001f0: 4ae0 a3be 4612 38bf 2ffd 50bf 3a94 5fbf
00000200: 5144 45bf c443 a8bc 66c5 a3bf 5da0 db3e
00000210: f1dc 11bd ad7a aa3f d561 153c 9d26 4c3d
00000220: 1205 08bf 5bbd 2f3b f4c1 7b3e dfbd 383f
00000230: 8233 1c3e 6461 03bf 42cc 5abf f82e d6bf
00000240: 513b 94be ab2c b83c 7805 cd3e effe eebe
00000250: c55f 8dbf b96f 0bbc d006 123d 6349 b73e
00000260: 7b3c 873b 5bcf 76bb 2d88 26bf d7b3 78bf
00000270: 0ef2 7bbe 645c cf3c 12f8 dfbd 0688 533c
00000280: 323c b8be be38 2f3f 30a9 1fbe 9c2f a6ba
00000290: b4b0 813f d553 ca3e e6a0 b3bd 731e a2bf
000002a0: 8a87 1b3c 0111 9c3f b9f6 eebe 84ca 8bbf
000002b0: 0ffe 8ebc b7f9 fabe 09a7 cfba cac2 103f
000002c0: 2f74 9ebc 45a8 4a3f bf23 b93b a53b 8fbf
000002d0: 2de4 7abe bdc1 75be e394 60bc 45f2 f0be
000002e0: cc08 713f 1236 9cbb 3df2 9f3d 4037 5e3f
000002f0: 1a7f 8f3e 7d5a 5dbf 73e1 aabe 6273 6fbe
00000300: ee8b d53f 93ee 933d d504 d63c 1923 1b3f
00000310: d264 5d3f 1c9b 933c eb44 4abc 66fe adbf
0.006673942 0.594398 0.30449557 -0.04246337 -0.026943536 0.44812948 -0.39684215 -0.16646656
-0.023757137 0.32504532 0.6608726 0.012121906 0.2360081 -0.014730517 -0.34472868 1.3053172
-0.36813086 0.55341613 -0.042785358 0.46071482 0.00926282 -0.011606229 -0.017048113 -0.5802373
0.005170733 -0.090211295 -0.88570285 0.006541904 -0.010649743 -0.90460485 -0.826658 -0.13746472
1.3724467 0.029441252 -0.18340702 -0.52908325 0.388581 0.8379288 -0.00403027 0.886613
-0.07328321 -1.7000467 0.027271742 0.7731406 1.1273263 -0.40688193 -0.042592607 -0.03552458
-0.9889757 -0.032235462 0.022421353 0.022302631 -0.49448717 1.0205686 -0.028645141 0.2227296
0.007561289 0.02615997 -0.0050315377 0.029910836 0.019475713 0.01686128 -1.0256337 -0.09648859
1.2714672 -0.46118805 -0.17766201 -1.0943918 -0.044286065 0.67805624 0.0097772805 0.5754179
-0.12549841 -0.31267962 -0.019392986 -0.33907118 -0.021528563 -0.6195847 0.9924193 -0.05426055
0.88688624 1.1678303 0.008958941 0.74511707 0.024264518 -1.1559155 0.0015162292 0.0067199008
0.0058616465 -0.68241936 -0.02537072 0.026884902 0.37093237 0.88588804 -0.5643198 0.56599236
-0.083281055 0.02185781 0.0042647095 1.153094 -1.0577159 0.9801652 -1.1921018 0.20885295
-0.033261083 0.010022553 -0.18801746 0.20044655 0.011200599 -0.0054774145 0.48069632 0.46861935
-0.019531626 0.42307112 -0.014645371 0.60584474 0.8016507 -0.1792912 -0.020094033 -0.58287466
0.019678378 -0.57344264 0.22471665 0.0058820774 -0.32007056 -0.71902883 -0.8163633 -0.8733555
-0.7705737 -0.020540126 -1.2794616 0.42895785 -0.035611097 1.3318688 0.009117563 0.049841512
-0.53132737 0.0026815746 0.24585706 0.7216472 0.15254024 -0.5132048 -0.8546792 -1.6733084
-0.28951505 0.022482237 0.40043235 -0.46678874 -1.1044852 -0.0085105235 0.03565103 0.35798177
0.004127083 -0.0037660215 -0.6505154 -0.97149414 -0.24604055 0.02531261 -0.109359875 0.0129108485
-0.35983425 0.68445957 -0.15591884 -0.0012678984 1.013205 0.39517084 -0.08770923 -1.2665542
0.009492764 1.2192689 -0.4667261 -1.0921178 -0.017455129 -0.49018642 -0.0015842627 0.56547225
-0.01934251 0.7916301 0.005650013 -1.1190077 -0.24501105 -0.23999687 -0.013707372 -0.47059837
0.9415405 -0.004767188 0.07809875 0.86803055 0.28026658 -0.864662 -0.3337513 -0.23383859
1.6683328 0.07223239 0.026125351 0.6060043 0.86481965 0.018018298 -0.012345533 -1.3593261

weight f4 [200, 15]
00000000: d032 2bbf b649 ffbe 3201 bdbe 5e93 a4bd
00000010: baf3 5abe 1b5e c43c ea8b dabc 3f70 ca3d
00000020: cc52 793e e35a c53e 3070 80bd b9ab 023d
00000030: 2bbe 1f3d ac5b 0b3f b7bb 0fbd 5dae fe3e
00000040: 109e 42be 40e0 c63e 8c99 58be d674 cfbe
00000050: e607 20bf 0efe fbbe 39ed 893e 041c df3d
00000060: d538 153e 48ab 78bd d069 68be 17bd 4c3e
00000070: c945 0cbd b224 2dbd 6d50 4a3c 4e36 223e
00000080: d0bd fb3e d45e 9c3d 5eec efbe 9d81 40be
00000090: 00ee 3a3c 6092 aa3e 9728 c03e 15ee 83bf
000000a0: 2d72 52bf 7b5d 1cbe 5a4b a3be 1060 7c3e
000000b0: 6e41 683d 13fe 62be 5de2 393d 240c 013f
000000c0: 2d0d 08be 571b 80be 1b3b b43e c1e4 28bd
000000d0: f2e5 9abe 5b61 3a3e aa69 12be b102 7abf
000000e0: 3fd8 eebe 72a9 dcbe 89b7 2a3f a88f 6d3d
000000f0: ff17 62bf 4666 85be 5d2a fdbd f2fb 543e
00000100: 0122 5a3e ab6c 73be c658 e63d 8942 263e
00000110: 8d0e acbe f41b 8f3e b489 e7bc 5c8f 2b3e
00000120: a7bb 9cbd 42f0 0abd 18a2 d7be 40bc 383e
00000130: e8d5 90be 3708 05bd 85ce 663e 2f0b c43d
00000140: 8707 54be b4c4 06be db40 c33e fdd4 e63e
00000150: c65d 623d 4a9e aebe 0461 ddbc 1d4c 07be
00000160: f30a 7ebd b55a 853d 2ed2 a23e 44e8 c53e
00000170: 38dc f03e 2d16 81be 41f1 093e 15f4 5c3e
00000180: 0497 69bc d281 82bd e74d d1be 6b6d 49bc
00000190: f4b0 e6be 326a d5ba d930 65be b9cf 893e
000001a0: 5213 873e 16c3 0cbf a695 03be 9b13 843e
000001b0: 381c 3c3e 58c4 61bd c87f a43d 011e 47be
000001c0: 1d00 3dbe 222c 253f 4e07 25bc 79d1 873d
000001d0: b488 1fbf f052 c0be 03cc ff3d ce5c 253c
000001e0: 0cef b7bd dc85 8f3d 1cca 9abf 2ef2 9c3d
000001f0: 1037 b2be 8043 03be 9429 bcbd 613b 3c3e
00000200: ce7c b63e fbe9 ba3e d7ec 4dbe acb7 afbd
00000210: b31d bc3c 3808 8fbd 7203 9a3d e0c0 31be
00000220: 9b21 45bc d41b c43e a6d6 9b3e 1315 c93d
00000230: 71ad 04bf f0a5 4cbe aaaa b13e e1bf dc3d
00000240: 22e2 99be ad8d c9be ba0c 19bf cb4d d9bd
00000250: 8f4b 00bf 9f50 6e3e 8aa2 8fbe 0a37 f4bd
00000260: 1c10 c0bc 76a5 87bd 9ff1 94be f223 ba3e
00000270: eada 853e 928f 96be 22e4 5dbe 3c3c 79be
00000280: 1ddf 0a3e cb98 cebe 0998 113e 7bf8 1bbd
00000290: 1d85 013f 3029 01be 4982 b4be 518a 723e
000002a0: 2a9a 3c3e ae36 d03e 01a6 7bbe 68cb dabe
000002b0: 5308 27be ae68 9abe 4c4a fabe 449a 53bd
000002c0: f2d0 a13e 53fd 9e3e 541b 64be 0c73 dfbd
000002d0: c05b b5be 6bcb 81bb 7a1e c1bc 7a25 053e
000002e0: 5cea fdbe d67d 303d f1c5 69be 3e13 b13d
000002f0: 31ac 973e ffd1 9d3e fa0c d23e 846c c4be
00000300: 4ae0 d6be 2fdb 3c3e 9ace 06bf 3d2d 683e
00000310: 6638 da3e 643f 023f 8f30 e8bd 5e73 9cbd
00000320: 0f58 6f3d b3ac b23b 8da1 f2bb 3430 723e
00000330: 7032 f63c fe03 49bc 04f8 0bbe d31e 11bf
00000340: 711c 153e 0268 96bd 33ef 073e cd3a 92be
00000350: 6b60 9bbd df91 5fbd 77a2 813d e254 cbbe
00000360: b3ba 2bbd c4e5 37be 655e c1bc 6ccf e53d
00000370: 96a5 043d d8cf 523e fa27 9f3c 9606 663f
00000380: dcf0 3f3e 310f 44bf 1493 d43d c603 10be
00000390: 18d0 a13c 48d1 4b3e 1963 423e 9985 b3be
000003a0: 6677 033e c06a 2bbf 00df 4c3e 5c68 be3d
000003b0: 69f1 8dbe 06b9 033e 7c7d 993e 4b89 13be
000003c0: bbfe d1bc 961d 2a3e 5476 0ebe f4fc 22be
000003d0: c55d 543e e4fc d5bd c58e 7abe 797d 89be
000003e0: 14a8 1c3e dd52 33be f264 31be 4ed4 3ebe
000003f0: 6f14 ab3d 5128 5b3e 5738 1abe c5c9 933e
-0.6687441 -0.49860924 -0.36914974 -0.080359206 -0.21382037 0.023970654 -0.026678044 0.098846905
0.24347991 0.38545904 -0.06271398 0.03190205 0.038999718 0.54436755 -0.03509113 0.49742404
-0.19005609 0.38842964 -0.21152323 -0.40518826 -0.6251205 -0.49217266 0.269388 0.108940154
0.14572461 -0.06071022 -0.22696614 0.19994007 -0.03424624 -0.042271324 0.012348277 0.15841028
0.49168253 0.076352745 -0.4686002 -0.18799444 0.011409283 0.333148 0.37530968 -1.0307032
-0.8220547 -0.15270035 -0.31893426 0.2464602 0.056703024 -0.22167234 0.045381892 0.5040915
-0.13286276 -0.2502086 0.35201344 -0.04123378 -0.3025356 0.182012 -0.1429812 -0.97660357
-0.46649358 -0.43098027 0.666863 0.05799833 -0.88317865 -0.2605459 -0.12361596 0.20799235
0.21302034 -0.23771922 0.11247401 0.16236319 -0.3360485 0.27951014 -0.028263904 0.16753906
-0.07652979 -0.033920534 -0.42115855 0.18040562 -0.28288198 -0.032478537 0.22539718 0.095724456
-0.20705996 -0.13160974 0.38135418 0.45084372 0.05526521 -0.3410514 -0.0270238 -0.13212629
-0.06202216 0.065114416 0.3180098 0.38653767 0.47043014 -0.2521223 0.13470937 0.21577485
-0.014257196 -0.063724175 -0.40879747 -0.012294154 -0.4505688 -0.0016282259 -0.22381915 0.26916292
0.26381928 -0.5498518 -0.12850055 0.25796208 0.1837014 -0.05511889 0.08032185 -0.1944504
-0.18457074 0.64520466 -0.010072542 0.066317506 -0.6231797 -0.37563276 0.12490084 0.010092927
-0.089811414 0.070079535 -1.2092929 0.076633796 -0.34807634 -0.12818718 -0.09187618 0.18382026
0.35642093 0.36506638 -0.20109878 -0.085799545 0.02296338 -0.069839895 0.075201884 -0.17358732
-0.012031938 0.3830248 0.304372 0.09818473 -0.5182715 -0.19985175 0.3470052 0.107787855
-0.30055338 -0.39365903 -0.59785044 -0.10610541 -0.50115293 0.23272942 -0.28053695 -0.1192456
-0.023445182 -0.06623356 -0.29090592 0.3635555 0.2614358 -0.2940641 -0.21669057 -0.24339384
0.13561673 -0.40350947 0.14218153 -0.038078766 0.5059374 -0.12613368 -0.3525565 0.23685576
0.18418184 0.40666717 -0.24575044 -0.42733312 -0.16311769 -0.3015799 -0.4888481 -0.05166079
0.31604725 0.31052646 -0.2227605 -0.10910615 -0.35421562 -0.003961017 -0.023574103 0.13002577
-0.49592865 0.043088757 -0.22829415 0.08646248 0.2962356 0.30824277 0.41025525 -0.3836404
-0.41967994 0.18442987 -0.52659 0.22673507 0.42621154 0.50877976 -0.11337387 -0.07639192
0.05843359 0.0054527163 -0.0074045123 0.236512 0.030053347 -0.012269018 -0.13668829 -0.5668766
0.14561631 -0.07344057 0.13274841 -0.28560486 -0.0758675 -0.054582473 0.06329816 -0.39713198
-0.041926097 -0.17958742 -0.023604581 0.11221203 0.032384478 0.20587099 0.019428242 0.898538
0.18744224 -0.7658568 0.103796154 -0.1406394 0.019752547 0.19904053 0.18983115 -0.35062864
0.12838516 -0.6695976 0.20006943 0.09297249 -0.27723244 0.1286355 0.2997855 -0.14407842
-0.02563416 0.16612849 -0.13912326 -0.15916806 0.20738895 -0.10448626 -0.24468525 -0.2685354
0.15298492 -0.17512079 -0.17323664 -0.18635675 0.08353507 0.21402098 -0.15060554 0.28864875

bias f4 [200]
00000000: 176a ed3d e605 44be 1fba ba3e 243a 6a3e
00000010: 4a27 9f3e 1207 0ebe 29a2 1a3e 5205 e43e
00000020: 8f62 1ebe af12 fa3d 40dc b13e 60ab 9c3e
00000030: ab6e d9bd d202 17be ea17 d8be da28 d83e
00000040: 92e8 69be e688 903e f088 09be 9284 6cbe
00000050: 1db2 0a3d b623 34bd 7d99 5dbe 2f5c 4bbe
00000060: 5e21 96be 9fc7 f33c eb5b 003d 872a 98be
00000070: 7729 d3bd 5f93 7abe da0e 883e c72d 633e
00000080: f1f8 113a 7583 843c 2367 25be 7d13 a4be
00000090: d9fe e93b d543 e0bb f8ca c13e 55cd 6dbd
000000a0: 799d 82be be5b 70bd 8084 983e e635 d43d
000000b0: 9756 453d b4dd 6bbe 9cd1 053e f724 93be
000000c0: eb84 80be 63db c8be 7574 eebd 4fdd 71be
000000d0: 0d24 093e 5725 bebe 002d 3cbe 586c 56bc
000000e0: 8132 58bc bdca e1be 16c2 d63d 586f 703b
000000f0: ae94 a93d 3e5e 7a3e dd40 38be b059 4ebe
00000100: 6b76 39bc 9afb 4c3e 8109 4a3e 10a8 0fbe
00000110: cd52 88be 8d73 d83d 45f7 0a3e 52f4 9fbe
00000120: 3873 553e ff99 0ebe 6cb2 e43d b8c0 a4bd
00000130: 31b8 813d 3173 0dbe f9d8 c9bd 205d d03c
00000140: 6c06 6d3e 0142 82be 2066 f93d 85e4 b8bd
00000150: 2d58 203e 6382 423e b660 2c3e 50ef 9b3d
00000160: fd10 00be 1a81 013e b834 abbe d955 6dbe
00000170: 4bd6 733e 230a d8bd b2a3 a6be 8746 afbe
00000180: 6816 a83a 3cd8 65bd 424b 5abd c899 a1be
00000190: e11e 253e 89f9 833d aac0 913d 5c2b 9fbd
000001a0: 45b3 c73d eb33 913d c567 27be b96a fa3d
000001b0: 8940 37be 33d2 04bd 2791 033d f25f c23d
000001c0: 2381 44bd fe29 57be 9016 8fbd bbfb 34be
000001d0: 059e 8ebe dd08 12bf fc0b 703e 701a 0d3d
000001e0: b58f eabe 4aa7 803e 8cfb 2b3c a418 b7bd
000001f0: 94fd aebd 841f d2be a3a9 5c3e dba1 71be
00000200: bd50 5dbe e079 be3e 72d9 f0be bdc3 bf3d
00000210: d6bb a93e 70b5 8dbd 6a53 d8bd 3e4a ea3b
00000220: 5cba ea3d c055 bdbe 571d dcbd 31a5 86be
00000230: a31b 18bd 4b20 cd3b e458 1d3e fcf5 56be
00000240: da44 423e e006 3fbc 36bf 8fbd 3bb3 d73e
00000250: cc2a 9cbd 1b9b 3c3e 5a10 0c3e 1a0b 1ebe
00000260: ecd5 113d 4924 09be 2378 a13d f7aa c3be
00000270: 9f5d 03bd faea 483e 3083 783e 8db3 2dbe
00000280: 39b1 383e af37 c5be 623e 8ebe 378a bdbd
00000290: 328d 843e 1b7a 0abe 69f6 e1bc c428 1b3e
000002a0: b8b7 c8be 01b6 63be 2f5e 8dbe 45bd 85bc
000002b0: e349 9abd 2708 19be a997 3bbe fdd6 c53e
000002c0: 2a74 ec3e 14e1 b6be a8b9 413d a533 4c3d
000002d0: 539f 133e 0514 c03e 5b05 b9be 9df3 76be
000002e0: 8072 c43e bf8f 6dbd 314f 743e 9fad 90bd
000002f0: e4d9 6abe 49ff f5bd 214c 323e aefb d03c
00000300: 0eb2 ed3c 154b 573e 4d7c a2be a3ac eabd
00000310: aa05 09be 9d5f b53e 1f16 063e 29f1 28be
0.11592501 -0.19142875 0.36470124 0.22873741 0.31084663 -0.13869885 0.15100922 0.4453531
-0.15467285 0.12210595 0.3473835 0.305995 -0.10616811 -0.1474717 -0.42205745 0.42218667
-0.22842625 0.28229445 -0.13431144 -0.23097447 0.03386127 -0.04397937 -0.21640582 -0.19859384
-0.29322332 0.029758273 0.03133766 -0.29719946 -0.10310643 -0.2447028 0.2657383 0.22185431
0.0005568406 0.016175965 -0.16152625 -0.32046118 0.007140976 -0.0068440237 0.37850165 -0.058057148
-0.25510767 -0.058681242 0.2978859 0.10361843 0.04817828 -0.23033792 0.13068241 -0.2873914
-0.25101408 -0.3922988 -0.11643306 -0.23619579 0.13392659 -0.37137863 -0.18376541 -0.013087355
-0.013195635 -0.4409999 0.10486238 0.003668746 0.082803115 0.24450013 -0.17993493 -0.201514
-0.011319737 0.20017853 0.19730188 -0.14028955 -0.26625672 0.105689146 0.13570888 -0.3124109
0.20844734 -0.13925932 0.11166844 -0.08044571 0.0633396 -0.13813473 -0.098558374 0.02543503
0.23146981 -0.25440982 0.12177682 -0.09027962 0.15658636 0.18995051 0.16833767 0.076140046
-0.1250648 0.12646905 -0.3343866 -0.2317728 0.23812215 -0.105488084 -0.32546765 -0.34233496
0.001282406 -0.05611442 -0.053294428 -0.31562638 0.1612506 0.064440794 0.07116826 -0.07771942
0.0975099 0.07089981 -0.16348179 0.12227387 -0.17895712 -0.032427024 0.03212085 0.09490956
-0.047974717 -0.21012112 -0.06986725 -0.17674153 -0.27854934 -0.57044774 0.23442072 0.03444904
-0.45812765 0.2512763 0.010496985 -0.08940247 -0.0854446 -0.4103967 0.21549086 -0.23596899
-0.2161283 0.37202358 -0.47040898 0.09363506 0.3315112 -0.06919372 -0.10562785 0.0071499636
0.114613265 -0.36979485 -0.10747784 -0.26297906 -0.03713573 0.006259953 0.1536594 -0.20992273
0.18971577 -0.011659354 -0.070188925 0.4212893 -0.0762535 0.18418543 0.13678113 -0.15433922
0.035604402 -0.13392748 0.078842424 -0.38216373 -0.032071706 0.19620886 0.24268794 -0.16963024
0.18036355 -0.38519046 -0.2778197 -0.09254878 0.25888973 -0.13523142 -0.027583318 0.1515227
-0.39202666 -0.22237398 -0.2761092 -0.016325602 -0.07533624 -0.14944516 -0.18319573 0.38640586
0.46182376 -0.35718596 0.047296196 0.04985394 0.14416246 0.37515274 -0.36136898 -0.24116369
0.38368607 -0.057998415 0.23858334 -0.070643656 -0.22934681 -0.120115824 0.17411853 0.025510635
0.029015567 0.21024735 -0.3173546 -0.11458709 -0.13381067 0.3542451 0.13094376 -0.16498245

weight f4 [200, 200]
00000000: cc83 5fbe a6eb 12bf d174 aabc df72 803c
00000010: 3b00 23bf 58a1 7d3e 710e 94bc c574 5bbf
00000020: a5a1 943d 7bb7 b33d f524 8cbe dc30 b7be
00000030: 9385 cbbe bb0b 4abf d87d 6c3e 9e30 28be
00000040: f100 913d d97d e1be f37b 983c b1d2 05bf
00000050: 1ee7 0ebe 8c8c bfbe f027 97be 002b 893d
00000060: 83f0 2fbd ebcc c7be 7ed1 dfbe ccc5 0b3d
00000070: 4d52 65bd 1ad3 983e 1694 d33e 8182 a4be
00000080: 86bf d9bd 93ca 9b3e 69ae bf3d 6b95 7a3e
00000090: a7c9 6abd 037c 8a3e 31f9 683e a01e 95be
000000a0: 696b 433d c70b 31bf 0d65 373f f6ab 893e
000000b0: c19e 7cbe 7a6b 66be 297a dfbe 6200 78be
000000c0: 98c7 50bf 86e8 c8be 8822 3cbe 9a30 393d
000000d0: a535 953e 804d 16be 1b70 e53d c8f4 c6bd
000000e0: 23d1 18bc 424f c5be 63ff f5bc df2a e6be
000000f0: 5174 ba3e 0ccc 893d d28b a6bd 41f5 c0be
00000100: ed86 e13e 6ed5 7ebd 98db cebe ecf6 593e
00000110: cd22 87be 54bf 213e 8f5f 96be 915b d53c
00000120: c74e 39be 9aa8 22be 080e a8bc f72e 083d
00000130: a7b0 c9be 1e90 a23e 3274 c53e dda7 813e
00000140: ce8b 483e 5b05 57be 359e ccbe fd4c a4bd
00000150: 384a cd3d 9179 6f3d 95dc 44bc 4798 ffbe
00000160: 2550 84bf cb49 13be 1fcb 41bc 48f3 883d
00000170: ca60 56be f701 c1bd 7e7c 46bd 50fe f6bb
00000180: dff6 f5bd 7857 afbe 16b9 91bd 9fcd 50bd
00000190: 1e88 66be 40a1 3dbf 7830 533d 11a2 983d
000001a0: 44dc 943e 9ea9 023f a4d6 11bd 0a29 5a3e
000001b0: 75ef 90bd 6b05 dabc 5fcd fa3d 17e7 71bd
000001c0: e1b9 bf3e a9ac 32bf 8dad 5bbe e2cd 2cbd
000001d0: 14ac 2b3d 54b6 cbbc c8df 8d3e 51bf e13d
000001e0: 5cd3 c4bd 9c43 68bd 1e19 0abe b78d 8f3d
000001f0: c403 00bd e3cf 94bc b09c 5cbf 5592 35bf
00000200: 14de f3be 6a9c c0be d9db f0bd 0e2f febd
00000210: dc6b cabd 528e cc3d b40e f3bd 54c4 033e
00000220: dee3 ba3d a1e1 09bf 6993 4c3e 526d 96bf
00000230: 1fa7 11be bb6d 1d3d 74d8 593d 4adb ae3d
00000240: 66bf 8b3d d945 85be ca30 293e 8ef5 33bf
00000250: 92f8 33bf aeb7 05bd b5fb 32bf 71e0 c9bd
00000260: 27ad 61bc a142 0f3d e36f b9be 5344 8a3e
00000270: 343b 04bd 168b f23d 49df cc3e 8d84 e5be
00000280: 6b40 76bd e0bf ac3d 5601 603c 7ab0 033e
00000290: 95d4 0cbe 51a1 92bf 0a83 78bc 1340 333e
000002a0: 3aa3 c2be d154 0abe 1d40 df3b 717f e8be
000002b0: 3b34 833d 45b8 72bd 2e21 b03e a222 56bf
000002c0: 21d3 953e a71c 68ba b475 86be b00c 0e39
000002d0: 3964 95bf 235b 873d b883 9dbd d140 de3c
000002e0: 6921 50bf 92b7 ab3e dc5b 21bc d990 01bc
000002f0: a71f 9fbe 2de0 febe e5ec d33c 507b 9f3d
00000300: 6396 2d3e 0f54 afbe 01ae 943c abf9 88be
00000310: d794 bcbc 8762 94be 54ef 873d 2cfc 15be
00000320: 38c9 86bc 279f acbd 610b 9ebd 8f7f bbbc
00000330: 10f7 f4ba d7f8 b5bc 8922 c13b 7e19 97bd
00000340: d73f be3c 4816 31bc c22a 00bd 9f27 77bd
00000350: 59da 013d 6ab2 b8bc 16a7 9cbc 0b40 44bc
00000360: ffb5 c93c 7c25 853c 05dd 673b 2530 8a3d
00000370: 90ed ddbc 85da c43d f8b7 94bd cda9 693d
00000380: 8aa5 b0bd 8ee9 eabd 4ca8 7c3c 1438 00be
00000390: 9611 a3bd 115d 16bb 4b4b 8abc 97ea 26bd
000003a0: 2548 43bd e9af 2bbd 1923 ec3c 0280 0dbe
000003b0: 8103 6d3e 78c3 893c 7c7a 8e3c 7e48 643d
000003c0: 16cc 113d 169f 4bbd 1ecd 243d d5c1 69bd
000003d0: 92c7 90bb db7c 5cbd 1b6e 90bd a7cf 44bd
000003e0: ead6 acbd 24f7 7abc 1c52 5ebd bdec ffbc
000003f0: 7d53 583c a9d5 8c3d cb28 e0bc 47a2 213d
-0.2182762 -0.5739082 -0.020807656 0.015679775 -0.63672227 0.24768579 -0.018073292 -0.8572505
0.07257394 0.087752305 -0.27371946 -0.35779464 -0.39750347 -0.7892415 0.2309488 -0.16424796
0.07080258 -0.44041327 0.018613791 -0.52274615 -0.13955352 -0.37411916 -0.29522657 0.06697655
-0.04295398 -0.39023528 -0.43714517 0.03412418 -0.05598669 0.29848558 0.41323918 -0.32130817
-0.10632233 0.3042799 0.09359438 0.24471061 -0.057321217 0.27047738 0.22751309 -0.29124928
0.047709856 -0.69158596 0.71638566 0.26889008 -0.24669935 -0.22501937 -0.43647888 -0.24218896
-0.81554556 -0.392399 -0.18372548 0.045212366 0.2914249 -0.14678001 0.11203023 -0.09714657
-0.009327206 -0.3853703 -0.030029004 -0.44954583 0.36416867 0.06728372 -0.08132137 -0.37687114
0.44048253 -0.06221526 -0.40401912 0.212856 -0.26393738 0.15795642 -0.2936978 0.026044639
-0.18096457 -0.15884629 -0.020514503 0.033247914 -0.39392588 0.31750578 0.38565212 0.25323382
0.19584581 -0.20998137 -0.39964452 -0.08022497 0.10023922 0.058465544 -0.0120154815 -0.49920866
-1.0336958 -0.14383619 -0.011828213 0.06687027 -0.2093536 -0.09424203 -0.04845857 -0.0075376406
-0.120099775 -0.3424642 -0.071153805 -0.050977346 -0.22512862 -0.7407417 0.051559895 0.07452787
0.290743 0.51040065 -0.035605088 0.21304718 -0.07076923 -0.026613912 0.12246203 -0.059058275
0.37446502 -0.6979471 -0.21452923 -0.042188533 0.041912153 -0.024867214 0.27709794 0.11022819
-0.09610626 -0.056705102 -0.13486144 0.07009452 -0.03125359 -0.018165534 -0.86176586 -0.7092641
-0.4763037 -0.37619334 -0.117606826 -0.12411319 -0.09883854 0.09988083 -0.11868039 0.12867862
0.091254935 -0.5385991 0.19978108 -1.1752112 -0.14223908 0.038434725 0.05318494 0.0853792
0.06823616 -0.26029852 0.16522518 -0.7029656 -0.70301163 -0.032645874 -0.69915324 -0.09857262
-0.013774193 0.03497565 -0.36218175 0.27005252 -0.032283023 0.11842935 0.40014103 -0.4482769
-0.060120028 0.08435035 0.0136721935 0.12860289 -0.13752969 -1.145548 -0.015167961 0.17504911
-0.38015157 -0.13508917 0.006813063 -0.4540973 0.064064465 -0.059257764 0.34400314 -0.83646595
0.2926264 -0.0008854367 -0.26261675 0.00013546902 -1.167121 0.0660918 -0.07691139 0.027130516
-0.8130098 0.3353849 -0.009848561 -0.0079080695 -0.31078836 -0.49780408 0.025869796 0.07787192
0.16951899 -0.3424382 0.018149378 -0.26752982 -0.023020191 -0.2898142 0.06637445 -0.14646977
-0.01645337 -0.084287934 -0.07717014 -0.022887973 -0.0018689353 -0.022213383 0.0058940095 -0.07377909
0.0232238 -0.010808535 -0.031290777 -0.06034052 0.031702373 -0.022546012 -0.019122642 -0.01197816
0.024622915 0.016253226 0.003537954 0.06747464 -0.027090818 0.09611992 -0.07261652 0.0570467
-0.08625324 -0.11470328 0.0154209845 -0.12521392 -0.079623386 -0.0022943655 -0.016881606 -0.040751066
-0.047676224 -0.041915808 0.02882533 -0.13818362 0.23145868 0.01681684 0.01739239 0.055733196
0.035595022 -0.049712263 0.040234677 -0.05706962 -0.004418322 -0.05383001 -0.07052251 -0.048049595
-0.08439429 -0.015317712 -0.054277524 -0.031240815 0.013203499 0.0687669 -0.027363202 0.0394614

bias f4 [200]
00000000: 2601 95bd 3416 f8bd e468 523c 2f5f 95bd
00000010: f334 bfbd 9def 4bbd 37e9 5abd b3eb d2bd
00000020: 410d c0bc f929 90bd cb43 36bd 9428 babd
00000030: 501c a0bd fe27 30bc acf1 09be 3491 86bd
00000040: 8518 2cbe 8635 3ebb 447f 9cbd e1d4 bf3d
00000050: 59fa b5bd 7e4a c13d 1612 db3d 1faa fb3d
00000060: 4ffc 193c 85a7 8dbc 4222 143d 124a 4c3e
00000070: 0729 5f3c f769 d1bd b5bf a43d 3a5e 333d
00000080: 68bb b1bc 5d37 c0bc 3099 b8bd fef5 b3bd
00000090: 0860 c83a 378a 8abb 3477 78bd 6027 5f3c
000000a0: 7489 69bd 7931 72bd 55c4 2abd bd0e ebbc
000000b0: ad85 a03d 0f58 4bbe c16e b1bb 0569 593d
000000c0: 82e2 a33d b03c 9e3d db84 223e cdb7 6f3c
000000d0: 6e4d 933e 39b9 b8bd ab5a dcbc bd4f b2bd
000000e0: ae08 983c 08b9 5dbc a338 6c3d 15aa 313b
000000f0: 1596 96bd dfec 75bd 18f7 02be 304c 873b
00000100: 3b59 c0bd a4f3 48be 62e3 8b3c addb 9bbd
00000110: 530c 87bd a426 793d 848b ff3c ca6a 9fbc
00000120: 158d 183d 4587 d8bd f29a 533d d2f9 2dbd
00000130: 7f05 8f3d c375 12bd 82c7 4d3c afec 23be
00000140: 7e03 113e b6ad c6bc 6906 49be 91c7 d33d
00000150: 5439 a93d c05e 0c3e 8e6e 56bd d0e8 e2bd
00000160: f5c1 11bd 3308 17bd 1e5e 1abe 0a14 733e
00000170: 343f d53d 4fb3 48bd 8aa6 023b 2ddf 8dbd
00000180: 8b9b bebd 8c7f a1bc c8e1 01be c608 9dbd
00000190: a3a9 eabd 2db8 9ebd cbe1 1abe ed05 eabc
000001a0: 6497 c8bc d032 093e 4daf 29bd c26a 63bd
000001b0: 73bb 003f adec 9f3d 87fb ce3d 23d7 12bd
000001c0: 85c5 30be ccf9 5fbc 4651 cf3d 392b 2cbc
000001d0: 0039 b9bd 9fa9 4ebe 737b a43d 0eac a9bd
000001e0: 4548 e73c bf64 39bd fdbd 51bd 031d 8f3d
000001f0: 3a62 19bd 64a9 cabd f1af 683e 7265 22bd
00000200: 37a3 3ebd 8400 3bbc 5cbc 50bd 5669 1bbd
00000210: d56a 17be e4f2 a73e 6dea 5d3d 63de 96bd
00000220: 2ed6 92be e30c c3bb 6274 81bd 9dae 37bd
00000230: 6e9e c23b b48d cdbd dc21 70bd 20cb 9cba
00000240: 033d 72bd 43b4 c0bd 8aed a63d 7b90 44be
00000250: 7050 b83d c709 fabc fd66 b43d cc56 97bd
00000260: 7aec cabd 0f12 2dbd fa68 70bd 2a0e a1bd
00000270: 347b cf3c d0b6 96bd 5bb9 f83c e0ea 08bd
00000280: 60d2 bfbe 1f17 adbd df33 ae3e 1468 b13a
00000290: ce08 95bd e9aa 9dbd 3df9 28be b3cb 27be
000002a0: 735b 30bd a1f5 e0bd 17e9 d7bd 8bfd 86bd
000002b0: 7bec 8a3c 5720 7fbd 64b3 70bd b6ef 3abd
000002c0: 44ad 92bd 2028 47bd 3718 8a3d 053e e53e
000002d0: ea91 953c 76f6 13be d551 8fbd c30c 9fbd
000002e0: 0818 26bd 4c86 b23e cd57 b6bc 2e28 ffbc
000002f0: 123f a4bc 8369 9ebd 0413 13be c4eb 1c3e
00000300: a522 25bd 72b6 263e a088 e1bd f096 18bd
00000310: 3b99 28bb e701 d4bc 9d6d b83d b299 c4bd
-0.0727561 -0.1211361 0.012842391 -0.072935455 -0.09336271 -0.04978906 -0.053445067 -0.10298862
-0.02344382 -0.07039256 -0.044498246 -0.09089771 -0.078179 -0.010751722 -0.13471097 -0.06570664
-0.16806228 -0.0029023602 -0.076414615 0.09366775 -0.08885641 0.094380364 0.10696809 0.122883074
0.009398534 -0.017291794 0.036165483 0.1995013 0.0136206215 -0.10225289 0.08044378 0.043791033
-0.021695808 -0.0234639 -0.09013593 -0.08787154 0.0015287409 -0.0042279023 -0.060660556 0.013620228
-0.05701585 -0.059129212 -0.041691143 -0.028693551 0.07837997 -0.1985781 -0.005414814 0.05307867
0.08002187 0.07726419 0.15870993 0.014631224 0.28770012 -0.090197034 -0.026898703 -0.08706615
0.018558826 -0.013532884 0.0576712 0.0027109433 -0.073528446 -0.06004035 -0.12789571 0.0041289553
-0.09392019 -0.19624192 0.017076198 -0.07610259 -0.065941475 0.060827866 0.031194456 -0.0194601
0.03724392 -0.105726756 0.05166144 -0.042474575 0.0698347 -0.035756838 0.012559773 -0.16008256
0.14161488 -0.024252754 -0.19631352 0.10340799 0.082628876 0.1370802 -0.052351527 -0.11079562
-0.035585362 -0.036873054 -0.15074965 0.23738113 0.10412446 -0.048999127 0.001993569 -0.06927333
-0.09307011 -0.01971414 -0.12683785 -0.07667689 -0.11458137 -0.077499725 -0.15125196 -0.028567279
-0.024486251 0.1339829 -0.041426945 -0.055521734 0.50286025 0.07808814 0.10106569 -0.0358497
-0.17262848 -0.013670396 0.101229236 -0.010508352 -0.09044075 -0.20181893 0.080313586 -0.0828477
0.028232703 -0.045262095 -0.051206578 0.069879554 -0.03744719 -0.0989559 0.22723366 -0.039647527
-0.046542373 -0.011413697 -0.050960883 -0.037942253 -0.14786847 0.32802498 0.054178644 -0.07366636
-0.2867903 -0.005952464 -0.063210264 -0.04484426 0.0059392964 -0.10036793 -0.05862604 -0.0011962391
-0.059140217 -0.09409382 0.08150776 -0.1919574 0.08999717 -0.03052224 0.08808706 -0.07389602
-0.099083856 -0.04225355 -0.058693863 -0.0786403 0.025327303 -0.073590875 0.030361822 -0.03342712
-0.3746519 -0.084516756 0.3402395 0.0013535046 -0.0727707 -0.07698614 -0.16501327 -0.16386299
-0.043055963 -0.1098435 -0.10542505 -0.06591328 0.016958466 -0.0622867 -0.05876483 -0.045638762
-0.07161954 -0.04862225 0.067429 0.4477388 0.018258054 -0.14449486 -0.0699803 -0.07766106
-0.04055026 0.34868085 -0.022258664 -0.031147089 -0.020049606 -0.077349685 -0.14362723 0.15324312
-0.040316243 0.16280535 -0.11012387 -0.03725332 -0.0025726098 -0.025879813 0.09005282 -0.095996276
