Vehicles/GenDisV_0_02_0/GenDisV_0_02_0_critic_target.pth (torch, 353427 bytes, 10 tensors)

weight f4 [200, 15]
0.36700615 -0.19169943 -0.6026111 -0.28795445 -0.64212054 -0.41830543 0.13198003 0.0053241584
0.26170492 -0.007923177 0.22435385 0.038612075 -0.16755782 -0.21158557 0.23251577 -0.11839693
-0.53857696 0.16250257 -0.22398405 0.23817062 0.17548364 -0.33846852 0.24551341 0.229046
-0.28606132 0.009559265 -0.011739032 0.08530508 0.6098352 -0.48221856 0.07507098 -0.18336207
0.36830816 -0.24409457 -0.14536259 0.0068123857 0.36536995 -0.34191155 -0.20711969 -0.117697276
-0.086603984 -0.098550394 0.22000304 -0.6896948 0.0707839 0.047873855 -0.080402166 -0.3163719
-0.13635343 0.108326785 -0.39308283 0.22130802 -0.0055953977 0.13282222 -0.13322026 0.17157891
0.15022711 -0.52116495 1.1148934 0.1991812 0.058379147 0.3780059 0.42159984 0.09446314
-0.014146373 0.2673441 0.15663739 -0.47278067 0.02206944 -0.34734553 -0.12552235 -0.084614955
0.33268842 -0.3124185 0.17493322 -0.5501375 -0.3288302 -0.2911143 -0.22965816 -0.106187664
-0.100045584 -0.008251263 0.33834672 0.36960736 -0.2637245 0.15880807 0.22359718 -0.5199397
0.16097742 -0.01303032 -0.40469506 0.006682992 0.7857618 -0.11431073 0.21021114 0.14229712
-0.000614826 -0.4688219 0.17442767 0.2996223 0.2617071 -0.041149355 -0.2111528 0.026313627
0.6925117 -0.14474848 -0.6200859 -0.045438156 0.15139873 0.0530785 -0.21033132 -0.8033205
-1.386677 -0.95089895 -0.33771062 -0.58227336 0.26572683 -0.17472398 0.11871947 -0.20285086
-0.5928185 0.76686865 -0.21976209 -0.16079701 0.21758868 -0.35535336 -0.23239103 0.09666872
-0.20387565 0.14879327 -0.08800792 -0.05326619 0.28650713 -0.12057516 -0.0929375 0.16938439
0.5583807 0.43241346 -0.1917727 -0.2746049 -0.22039644 -0.36749357 -0.42741847 0.31079188
0.119521 -0.12791553 0.06859863 -0.16532174 -0.61806226 -0.19090405 0.005947064 0.42950547
0.20695229 -0.4108115 -0.31299695 -0.19215879 -0.3546102 0.13312104 0.121220894 -0.41264057
-0.047699768 -0.27633062 -0.024218736 0.8867416 0.36761403 0.28675878 0.4374673 0.26567984
-0.2534214 -0.349009 0.18736726 0.31301653 -0.411053 -0.72956574 -0.59722847 -0.8969003
-1.0536474 -1.0112367 -0.22531968 0.076415345 -0.36773178 -0.2218394 0.22934069 0.27116126
-0.46040577 -0.38077942 -0.77714854 -0.17645648 0.26912862 0.42022717 -0.17497776 -0.038506232
-0.2509763 0.15512072 0.15230785 -0.088311754 0.046058085 0.38393837 0.3323846 -0.27143297
0.07389864 0.011013683 0.24878077 -0.076895915 -0.027295258 -0.2570269 0.031756878 0.029392364
-0.16523443 0.17788355 0.6312915 -0.62055635 -0.02725561 -0.24951123 0.13341518 0.20500247
0.03230254 -0.5928976 -0.24281937 0.27918935 0.005103103 0.19838363 -0.37510905 -0.36855376
-0.0056982962 -0.12134678 -0.039021228 -0.3639169 0.25443888 -0.13509975 0.036416627 0.026235051
-0.17480761 -0.6777869 0.27647933 0.037126582 0.3194149 -0.24709652 0.4333646 -0.43733177
0.006835659 0.41795143 -0.5743372 0.14039014 -0.21819954 -0.041197203 0.07277677 0.049593944
-0.1141771 -0.28615505 0.1671101 -0.042851355 -0.40456796 0.8353193 -0.33057612 -0.19725911
00000000: 3be8 bb3e db4c 44be b944 1abf c46e 93be
00000010: 0362 24bf 212c d6be c625 073e 4776 ae3b
00000020: 30fe 853e 37d0 01bc 04bd 653e b227 1e3d
00000030: 4794 2bbe e3a9 58be 9d18 6e3e 177a f2bd
00000040: 2ee0 09bf 1367 263e 135c 65be 00e3 733e
00000050: fcb1 333e bf4b adbe de67 7b3e 098b 6a3e
00000060: a176 92be 779e 1c3c 1255 40bc 6eb4 ae3d
00000070: 291e 1c3f 5ae5 f6be d0be 993d 44c3 3bbe
00000080: e392 bc3e edf3 79be eed9 14be 6f3a df3b
00000090: c511 bb3e 080f afbe 2f17 54be 450b f1bd
000000a0: 6e5d b1bd cad4 c9bd 7a48 613e d78f 30bf
000000b0: 26f7 903d 6017 443d e4a9 a4bd 7ffb a1be
000000c0: 3ca0 0bbe 6fda dd3d 2742 c9be 929e 623e
000000d0: 9959 b7bb 8c02 083e e46a 08be 62b2 2f3e
000000e0: 23d5 193e 116b 05bf d4b4 8e3f 28f6 4b3e
000000f0: f91e 6f3d fd89 c13e efdb d73e e475 c13d
00000100: 30c6 67bc 53e1 883e 8d65 203e 4f10 f2be
00000110: f8ca b43c 46d7 b1be ee88 00be 9b4a adbd
00000120: 2356 aa3e 51f5 9fbe b221 333e d0d5 0cbf
00000130: 6f5c a8be ef0c 95be 822b 6bbe eb78 d9bd
00000140: b3e4 ccbd 4e30 07bc c83b ad3e 2d3d bd3e
00000150: e606 87be 959e 223e a9f6 643e c51a 05bf
00000160: 44d7 243e 207d 55bc 3134 cfbe 00fd da3b
00000170: af27 493f be1b eabd 9741 573e 56b6 113e
00000180: 462c 21ba 6d09 f0be 2b9d 323e 1868 993e
00000190: 79fe 853e 3a8c 28bd 7138 58be ad8f d73c
000001a0: 7248 313f f238 14be f3bd 1ebf 5c1d 3abd
000001b0: 4508 1b3e d768 593d 1861 57be 6aa6 4dbf
000001c0: a27e b1bf 1d6e 73bf 68e8 acbe de0f 15bf
000001d0: 590d 883e d8ea 32be 3223 f33d 23b8 4fbe
000001e0: f4c2 17bf 8151 443f 5009 61be f9a7 24be
000001f0: 91cf 5e3e e0f0 b5be eaf7 6dbe 40fa c53d
00000200: c7c4 50be 435d 183e 7f3d b4bd a62d 5abd
00000210: 10b1 923e 1cf0 f6bd 0456 bebd 1a73 2d3e
00000220: 0af2 0e3f 4c65 dd3e 1060 44be 0399 8cbe
00000230: 9baf 61be 1e28 bcbe 98d6 dabe 1d20 9f3e
00000240: 6dc7 f43d 4afc 02be 707d 8c3d 1a4a 29be
00000250: 5439 1ebf 5a7c 43be 97df c23b 24e8 db3e
00000260: 4deb 533e e355 d2be 2341 a0be 46c5 44be
00000270: 788f b5be e250 083e a942 f83d a045 d3be
00000280: d560 43bd 357b 8dbe 5f66 c6bc 7f01 633f
00000290: e837 bc3e 0cd2 923e b7fb df3e 3007 883e
000002a0: 73c0 81be 4fb1 b2be 34dd 3f3e b443 a03e
000002b0: 8a75 d2be d2c4 3abf f7e3 18bf 429b 65bf
000002c0: ebdd 86bf 3470 81bf 34ba 66be a67f 9c3d
000002d0: 5747 bcbe de29 63be 49d8 6a3e a6d5 8a3e
000002e0: 4eba ebbe 85f5 c2be 35f3 46bf 02b1 34be
000002f0: 3acb 893e 0428 d73e 5f2d 33be b6b8 1dbd
00000300: f77f 80be f7d7 1e3e 97f6 1b3e cbdc b4bd
00000310: 67a7 3c3d 9293 c43e 502e aa3e 43f9 8abe
00000320: 2c58 973d bc72 343c 63c0 7e3e 9b7b 9dbd
00000330: 4e9a dfbc 0899 83be 8013 023d 41c8 f03c
00000340: 3733 29be 1b27 363e 529c 213f c8dc 1ebf
00000350: 2847 dfbc df7f 7fbe fd9d 083e 2bec 513e
00000360: ab4f 043d 23c8 17bf a4a5 78be e8f1 8e3e
00000370: ee37 a73b 1425 4b3e 4b0e c0be 14b3 bcbe
00000380: c6b8 babb a984 f8bd b9d4 1fbd 5153 babe
00000390: d045 823e 9757 0abe 9a29 153d e4ea d63c
000003a0: c400 33be 7183 2dbf b38e 8d3e 0b12 183d
000003b0: 5a8a a33e df06 7dbe f7e1 dd3e f3e9 dfbe
000003c0: aafd df3b bbfd d53e c307 13bf 6fc2 0f3e
000003d0: b36f 5fbe 66be 28bd fd0b 953d 0523 4b3d
000003e0: afd5 e9bd ea82 92be e91e 2b3e e784 2fbd
000003f0: 8823 cfbe 7cd7 553f 4641 a9be 4bfe 49be

bias f4 [200]
0.083078995 0.08652081 0.14318869 -0.104215674 -0.16593778 0.29482865 -0.105369955 0.27158242
0.25709343 -0.06594903 0.0129197985 0.009130607 -0.0518911 -0.020776134 -0.107648656 0.12789156
-0.3231675 0.23756354 -0.16443342 -0.19223508 -0.006012437 0.2995172 0.109844394 0.22178888
0.062360182 0.21173598 -0.21272765 -0.2246003 0.1568673 -0.26321736 0.0279436 -0.018630162
-0.148136 -0.2957517 -0.16738361 -0.29962903 -0.067999855 -0.17502299 -0.19527574 -0.3571715
0.1405405 0.13653417 0.30589503 0.097913206 -0.2756685 0.006405467 -0.048178155 -0.27063343
-0.32550532 0.0039973767 0.17097285 -0.1265928 0.42247483 0.041788504 0.3997026 0.2639574
-0.035310324 0.32813343 0.19739495 -0.18213324 0.07150247 0.3425634 -0.23328991 0.28144112
-0.11089025 -0.14879867 -0.17948146 0.10981738 0.08851624 0.16933675 0.32428226 0.109879024
0.3763384 -0.08345638 0.041483197 0.34441033 -0.12133946 -0.28814393 -0.075421885 0.13926019
-0.2820816 -0.2005968 0.1011055 -0.38695353 -0.07721483 0.16768233 0.0237525 0.056634992
-0.17734337 0.033747524 0.1030613 -0.33353898 0.078179374 -0.21425396 -0.20984082 0.36489224
-0.2588466 -0.36727387 -0.28094974 0.5076729 0.27578267 0.11371163 -0.21907327 -0.058989517
-0.17749238 -0.12749298 -0.24504536 0.005645753 0.06479621 -0.30851692 0.20452581 0.068006
-0.123509765 0.0046187285 -0.06994303 0.17789052 -0.07314993 -0.06142637 -0.061846774 0.03855862
0.12811704 0.047361888 -0.059134524 -0.30975437 -0.16687678 -0.12262207 -0.18425655 0.07705959
-0.25051668 0.029225606 -0.2035605 -0.11697185 0.40620643 -0.21050122 0.1320676 -0.34927008
-0.0045243087 0.17185633 -0.3442679 -0.017680293 -0.41564962 0.02987939 0.044868674 -0.3118999
-0.34285814 -0.041909546 0.40009072 -0.13061239 -0.07145577 -0.015656263 -0.029585138 0.1160107
-0.31440434 -0.298605 -0.09533863 -0.25752643 0.10163256 0.16206717 0.03653661 -0.43275923
0.06604865 -0.19121912 0.08421663 0.14112483 -0.3109326 -0.20235349 0.1865141 0.3545375
0.4168158 0.18214369 -0.07020885 0.04020857 0.12568092 -0.3060866 -0.18261577 0.23301673
-0.32048073 0.08490902 0.12816833 0.17844802 0.14085606 0.11997777 -0.24505877 0.35061443
0.26330137 -0.023768708 0.015043347 0.4256288 0.2478368 -0.06436489 -0.3382925 -0.021091908
0.09266943 0.2322148 -0.1983874 -0.20622909 -0.28273195 -0.0411168 0.25142992 0.2600085
00000000: 5225 aa3d d331 b13d 0ea0 123e 076f d5bd
00000010: 98eb 29be c8f3 963e 34cc d7bd da0c 8b3e
00000020: c0a1 833e 4910 87bd 90ad 533c 8b98 153c
00000030: c38b 54bd b632 aabc e676 dcbd 01f6 023e
00000040: 3676 a5be db43 733e 3c61 28be 46d9 44be
00000050: fa03 c5bb 525a 993e 19f6 e03d a01c 633e
00000060: 646d 7f3d 51d1 583e 47d5 59be 9ffd 65be
00000070: d2a1 203e 6dc4 86be fae9 e43c 489e 98bc
00000080: f7b0 17be c46c 97be 9c66 2bbe fa68 99be
00000090: 8243 8bbd 3a39 33be 5df6 47be 2fdf b6be
000000a0: d9e9 0f3e 9dcf 0b3e 469e 9c3e b886 c83d
000000b0: 6c24 8dbe f4e4 d13b 7556 45bd 7790 8abe
000000c0: a2a8 a6be 6dfc 823b 8213 2f3e 8ba1 01be
000000d0: 9f4e d83e 6c2a 2b3d d2a5 cc3e 6d25 873e
000000e0: 8fa1 10bd 1b01 a83e e721 4a3e 2381 3abe
000000f0: e36f 923d 7864 af3e 8de3 6ebe 0d19 903e
00000100: 6d1a e3bd ae5e 18be fdc9 37be efe7 e03d
00000110: 0148 b53d 9d66 2d3e 5308 a63e 4108 e13d
00000120: 6daf c03e 2eeb aabd 49ea 293d 8d56 b03e
00000130: d380 f8bd 9a87 93be ca76 9abd 399a 0e3e
00000140: 006d 90be 3f69 4dbe 6610 cf3d c61e c6be
00000150: cf22 9ebd ebb4 2b3e 9a94 c23c 18fa 673d
00000160: 8099 35be d83a 0a3d ce11 d33d 9fc5 aabe
00000170: 821c a03d 6465 5bbe 83e0 56be 28d3 ba3e
00000180: 8b87 84be 520b bcbe a5d8 8fbe daf6 013f
00000190: 6333 8d3e a5e1 e83d be54 60be fe9e 71bd
000001a0: 90c0 35be 858d 02be 2ced 7abe 0200 b93b
000001b0: e0b3 843d eef5 9dbe 376f 513e bb46 8b3d
000001c0: b0f2 fcbd b458 973b 4b3e 8fbd ef28 363e
000001d0: a1cf 95bd 389a 7bbd 0b53 7dbd a5ef 1d3d
000001e0: 1d31 033e 8afe 413d 0b37 72bd 2098 9ebe
000001f0: bfe1 2abe 4821 fbbd c0ad 3cbe 6bd1 9d3d
00000200: b943 80be 8a6a ef3c 2a72 50be f08e efbd
00000210: 4afa cf3e a28d 57be bb3c 073e 87d3 b2be
00000220: a740 94bb 1bfb 2f3e e243 b0be 43d6 90bc
00000230: 07d0 d4be 9fc5 f43c 37c8 373d 58b1 9fbe
00000240: 1a8b afbe 58a9 2bbd b1d8 cc3e 41bf 05be
00000250: 6757 92bd 9041 80bc 885c f2bc 0597 ed3d
00000260: 9bf9 a0be c1e2 98be e640 c3bd 81da 83be
00000270: bb24 d03d f0f4 253e 6aa7 153d 9e92 ddbe
00000280: 8444 873d f2ce 43be c579 ac3d 0783 103e
00000290: 8f32 9fbe c135 4fbe 8dfd 3e3e f085 b53e
000002a0: e168 d53e e083 3a3e a8c9 8fbd beb1 243d
000002b0: 80b2 003e 62b7 9cbe a1ff 3abe f09b 6e3e
000002c0: 0d16 a4be c8e4 ad3d 8f3e 033e 14bb 363e
000002d0: 923c 103e e8b6 f53d b0f0 7abe bc83 b33e
000002e0: 70cf 863e 98b6 c2bc 5f78 763c 05ec d93e
000002f0: eec8 7d3e bdd1 83bd ad34 adbe f0c8 acbc
00000300: 78c9 bd3d b7c9 6d3e 1126 4bbe b82d 53be
00000310: 3ec2 90be 176a 28bd 6cbb 803e d61f 853e

weight f4 [200, 200]
-0.07727526 -0.028889095 -0.023258686 -0.030523129 -0.013796533 -0.021011962 -0.023624139 -0.058936294
-0.033047456 -0.067655064 0.016171314 -0.0015908752 -0.08374088 0.019941311 -0.08307182 -0.0007184858
0.010090512 -0.010267935 0.017599965 -0.014171111 -0.091887355 0.01909306 0.009286505 0.031492516
-0.084557466 -0.05295468 0.029283602 -0.033685878 -0.07383756 -0.012667615 0.02227773 -0.057877284
-0.062114432 0.042002086 -0.014219354 -0.057753745 -0.08949572 -0.0694766 0.012239546 -0.060386643
-0.021772668 -0.050554845 -0.060179517 -0.03132507 -0.069701105 0.027088953 -0.066254355 0.00085684547
-0.034565885 -0.009651398 0.029734224 0.021153148 0.00024259956 0.021598695 -0.042941835 -0.024375902
0.009110792 -0.05697651 -0.057233553 -0.007841531 -0.018222835 0.0034184046 0.02495521 -0.0667148
0.014833735 -0.0066717537 -0.027792703 -0.015138306 -0.040684212 0.015568654 -0.034633685 -0.0010380648
-0.010524566 -0.049677167 -0.04978818 -0.028075492 -0.038537875 -0.021835998 -0.044173658 -0.015734712
-0.063950635 -0.055026557 0.03371716 -0.013796533 -0.04703966 -0.023827912 -0.051959682 -0.07087074
0.05231806 0.031466365 -0.07305078 0.017838502 0.005030404 0.015721299 0.009042685 -0.024144934
0.034065783 -0.011333741 -0.066096894 0.020813817 -0.06544075 -0.052576955 0.0389282 -0.013449149
0.022651277 0.0074995095 0.0077101425 -0.08746469 -0.06073129 -0.033747066 0.024960771 -0.049223427
-0.0074085984 0.028232325 0.00629719 -0.02942703 -0.018899508 -0.079275005 0.03049246 -0.0146943135
-0.09345049 0.023527728 0.03433949 -0.0023839017 0.064927034 -0.060599137 -0.06631843 -0.071049556
-0.040576465 -0.081863336 0.024481699 -0.01261832 0.0115834465 0.009001429 -0.06834648 -0.029893063
0.068195105 -0.030771859 0.0023286112 -0.045498133 -0.05566214 -0.082226925 0.038115952 0.025816279
0.0013985505 -0.058392864 0.023374913 0.021998418 -0.0033677947 -0.05467502 -0.013745311 -0.05960015
0.00043615248 0.061109874 -0.005659521 -0.03897531 0.01616717 0.011539935 -0.009182198 -0.06807873
-0.05789889 -0.061511725 -0.060248062 0.027548825 -0.028880538 -0.0077116597 -0.025708813 -0.019806085
-0.00405624 -0.0019558414 -0.01920176 0.0015911363 -0.063443996 0.022615327 -0.036660172 -0.03014601
-0.077209696 -0.08849287 -0.017398817 -0.07431887 -0.0058951383 -0.039500315 0.0315584 -0.059435204
0.021812227 0.041251294 -0.09789253 0.041861497 0.037817318 -0.044468053 0.063394815 -0.02230343
0.021066722 -0.016392598 0.01753996 -0.042538013 -0.011292068 0.005217786 -0.02514443 -0.01831187
0.16959755 -0.25549686 -0.49308714 -0.07060924 -0.55429983 -0.3669515 -0.026310941 0.006050644
-0.25415325 -0.4568571 -1.4828637 0.25325555 -0.2572271 0.1380823 -0.9809616 -0.0044507375
-1.0763433 0.1819693 0.1812251 -0.5801493 0.12096875 -0.4104856 0.28023136 -0.4804331
-0.40084106 0.28496307 -0.8150157 -0.4387075 -0.077556334 0.00993478 0.3562111 -0.07633053
-0.34432676 0.008085976 0.13234772 -0.8422645 -0.7776496 -0.04228226 -0.0018996304 0.12808637
-0.0709555 -0.39827704 -0.06813585 -0.017414654 0.00509884 0.12137419 -0.073513895 0.00992583
0.045274165 -0.25215128 -0.4074431 0.27956018 -0.538502 -0.16705567 0.084685095 -0.6024316
00000000: 7e42 9ebd d3a8 ecbc 0089 bebc a40b fabc
00000010: db0a 62bc 4721 acbc 6987 c1bc 2f67 71bd
00000020: c55c 07bd bd8e 8abd b479 843c ea84 d0ba
00000030: 5780 abbd f65b a33c 8f21 aabd c458 3cba
00000040: ad52 253c d73a 28bc cd2d 903c f32d 68bc
00000050: 702f bcbd 0d69 9c3c 6d26 183c 4cfe 003d
00000060: 772c adbd 02e7 58bd 2ae4 ef3c 34fa 09bd
00000070: 2638 97bd d48b 4fbc c97f b63c bb10 6dbd
00000080: b46b 7ebd 610a 2c3d 4bf8 68bc 318f 6cbd
00000090: 8849 b7bd bf49 8ebd 6088 483c fc57 77bd
000000a0: 985c b2bc 9912 4fbd cc7e 76bd b74e 00bd
000000b0: 74bf 8ebd a7e9 dd3c 5db0 87bd ed9d 603a
000000c0: f594 0dbd e620 1ebc 3095 f33c 5e49 ad3c
000000d0: 5362 7e39 bfef b03c c7e3 2fbd f9af c7bc
000000e0: 6e45 153c 3360 69bd bb6d 6abd c479 00bc
000000f0: 0e48 95bc 5007 603b de6e cc3c c5a1 88bd
00000100: 3209 733c ba9e dabb 86ad e3bc a806 78bc
00000110: 7da4 26bd ab13 7f3c 0ddc 0dbd ad0f 88ba
00000120: 3b6f 2cbc 497a 4bbd b1ee 4bbd 93fe e5bc
00000130: e4d9 1dbd 68e1 b2bc 70ef 34bd 15e6 80bc
00000140: 8df8 82bd 8763 61bd 011b 0a3d db0a 62bc
00000150: a9ac 40bd c132 c3bc add3 54bd ae24 91bd
00000160: 764b 563d e0e2 003d a69b 95bd 0d22 923c
00000170: 16d6 a43b f4c9 803c c527 143c 99cb c5bc
00000180: 9088 0b3d 28b1 39bc cf5d 87bd bd81 aa3c
00000190: cd05 86bd ef5a 57bd 2d73 1f3d d259 5cbc
000001a0: 2c8f b93c 72be f53b 5da5 fc3b b020 b3bd
000001b0: 60c1 78bd 5d3a 0abd 887a cc3c 819e 49bd
000001c0: d4c3 f2bb 7a47 e73c a958 ce3b f410 f1bc
000001d0: 24d3 9abc ef5a a2bd 53cb f93c 6bc0 70bc
000001e0: f862 bfbd 39bd c03c 91a7 0c3d 3c3b 1cbb
000001f0: 77f8 843d cd36 78bd f5d1 87bd 6e82 91bd
00000200: 8233 26bd f7a7 a7bd d88d c83c 12bd 4ebc
00000210: 7fc8 3d3c bb7a 133c 3df9 8bbd 4ce2 f4bc
00000220: e0a9 8b3d 4415 fcbc 9d9b 183b 405c 3abd
00000230: fcfd 63bd 9766 a8bd 791f 1c3d a97c d33c
00000240: 914f b73a 5b2d 6fbd bf7c bf3c 0736 b43c
00000250: 38b6 5cbb eaf2 5fbd 0334 61bc 491f 74bd
00000260: 65ab e439 594e 7a3d 8173 b9bb 93a4 1fbd
00000270: 0371 843c ff11 3d3c ee70 16bc dc6c 8bbd
00000280: 6327 6dbd b8f3 7bbd acc6 76bd 13ae e13c
00000290: e196 ecbc 17b2 fcbb 4a9b d2bc 5f40 a2bc
000002a0: 35ea 84bb 932d 00bb 024d 9dbc ad8d d03a
000002b0: edee 81bd c743 b93c fa28 16bd c4f4 f6bc
000002c0: 1e20 9ebd c03b b5bd f787 8ebc 7e34 98bd
000002d0: 012c c1bb 15cb 21bd 6143 013d 5472 73bd
000002e0: 8eaf b23c 1ef7 283d e17b c8bd f676 2b3d
000002f0: 55e6 1a3d 2224 36bd 24d5 813d afb5 b6bc
00000300: 1e94 ac3c c549 86bc f6af 8f3c 573c 2ebd
00000310: 5e02 39bc f6f9 aa3b b1fb cdbc c602 96bc
00000320: fbaa 2d3e 7cd0 82be eb75 fcbe 949b 90bd
00000330: 98e6 0dbf 11e1 bbbe 0b8a d7bc 7b44 c63b
00000340: 6020 82be 2ce9 e9be 7ace bdbf b6aa 813e
00000350: 45b3 83be 7265 0d3e 4d20 7bbf 7ed7 91bb
00000360: 9ec5 89bf 2956 3a3e 1393 393e aa84 14bf
00000370: 77be f73d 2b2b d2be 7c7a 8f3e 54fb f5be
00000380: 0a3b cdbe aee6 913e dea4 50bf 459e e0be
00000390: dbd5 9ebd 7dc5 223c 4d61 b63e 2e53 9cbd
000003a0: 994b b0be 0b7b 043c 2986 073e a59e 57bf
000003b0: 0b14 47bf 2a30 2dbd 05fd f8ba 1329 033e
000003c0: 1e51 91bd f8ea cbbe cf8a 8bbd 2da9 8ebc
000003d0: 2c14 a73b 0893 f83d 748e 96bd f39f 223c
000003e0: 6771 393d f919 81be 629c d0be 8322 8f3e
000003f0: 44db 09bf a410 2bbe 616f ad3d f538 1abf

bias f4 [200]
-0.042972386 0.0074991807 0.26312572 -0.11348512 -0.08630985 0.18706019 0.074323475 -0.12775604
-0.08358144 0.10724275 -0.31069773 -0.08886987 0.33278483 -0.104522064 0.077371776 0.034531306
-0.09767944 0.16227368 -0.0058707376 0.5540758 -0.116870664 -0.1140305 -0.10988947 -0.0036185829
-0.16095506 -0.18617678 0.048481997 -0.0803762 -0.1290278 0.05304148 -0.07717606 -0.070922896
-0.033774745 -0.05298225 0.08555579 -0.110010296 -0.16666552 -0.15086125 -0.08749002 0.057676885
-0.11791673 -0.022709908 0.010602279 -0.019009287 -0.05882798 0.107456885 -0.0986361 -0.059759304
-0.19217989 -0.013300365 -0.04532975 -0.068117 0.05801189 0.08567117 -0.06900213 0.3958603
0.023043735 -0.059929177 0.011484801 -0.081218116 -0.036421828 -0.060487226 -0.26703534 0.076273374
-0.14106347 -0.028072387 -0.16934739 -0.2592646 -0.07932567 0.23523115 -0.08685076 -0.07773215
0.0115457205 -0.11617201 -0.1072907 0.001523559 -0.106456235 0.0880227 0.1566041 -0.014753934
0.25108504 -0.074522644 -0.04018661 0.027194692 -0.122546524 0.105475254 -0.05326835 -0.032630224
-0.06200491 -0.053104103 -0.09561116 -0.102853134 -0.23403935 -0.07385714 -0.13143583 0.05955916
-0.11331227 -0.037333034 -0.04396406 0.0032625815 -0.099912085 -0.06234226 0.006765801 -0.10024878
-0.1013943 -0.1037785 -0.16674267 0.28141236 -0.082735054 -0.009986117 0.28564236 -0.026459208
-0.098090716 -0.24398471 -0.0779175 0.09770912 0.16707484 0.15723018 -0.057881754 0.011821621
-0.050000522 0.12290859 0.17065477 -0.08429818 -0.15342158 0.016602367 -0.13858053 -0.08622544
-0.22134931 -0.0004009726 -0.15043499 0.2358737 -0.0014668432 0.018598776 -0.07044956 -0.045510054
0.012933319 -0.10321076 0.4640601 -0.26273257 0.31001046 -0.12650733 0.18279299 -0.014475331
-0.0838339 -0.06280138 0.296507 -0.16643621 -0.07352753 -0.029391639 0.014564129 -0.06983232
0.018540973 -0.0069599203 -0.033300865 0.034290954 -0.2669468 -0.14842899 -0.086734526 -0.028496822
0.005939074 0.04426456 0.12645532 -0.10797168 0.04408266 0.16794978 -0.20449331 -0.11299813
-0.07227741 -0.016544653 0.072184786 -0.027839443 -0.06100355 0.08696359 -0.056548845 0.022390265
-0.0978672 0.04966513 -0.009083664 -0.0063202577 -0.25767413 -0.092428 -0.072055385 -0.117901385
-0.021677818 -0.047789935 -0.037834458 0.05182016 0.23048483 -0.12595718 -0.16840412 -0.050785046
-0.0764744 -0.13814731 -0.121791035 0.28550798 -0.12063997 -0.04793671 -0.07841223 -0.21038662
00000000: d003 30bd b0bb f53b 6ab8 863e e36a e8bd
00000010: 38c3 b0bd b58c 3f3e e836 983d 7bd2 02be
00000020: bf2c abbd 16a2 db3d c613 9fbe 6801 b6bd
00000030: c662 aa3e aa0f d6bd 1875 9e3d b370 0d3d
00000040: 290c c8bd 122b 263e 515f c0bb e9d7 0d3f
00000050: e359 efbd d388 e9bd bb0d e1bd bf25 6dbb
00000060: 67d1 24be 20a5 3ebe 0f95 463d 479c a4bd
00000070: dd1f 04be 0642 593d 7b0e 9ebd 0640 91bd
00000080: 6357 0abd ea03 59bd e037 af3d 144d e1bd
00000090: 5eaa 2abe 5f7b 1abe f82d b3bd 993e 6c3d
000000a0: 547e f1bd 210a babc 2eb5 2d3c 5db9 9bbc
000000b0: 9cf5 70bd 5b12 dc3d b901 cabd 2cc6 74bd
000000c0: ceca 44be c6e9 59bc b0ab 39bd ed80 8bbd
000000d0: e09d 6d3d 5e74 af3d fd50 8dbd 34ae ca3e
000000e0: 37c6 bc3c 4c78 75bd bf2a 3c3c af55 a6bd
000000f0: 0e2f 15bd 74c1 77bd dbb8 88be 3735 9c3d
00000100: f172 10be 10f8 e5bc 6769 2dbe 54be 84be
00000110: 7f75 a2bd 6fe0 703e d0de b1bd 0932 9fbd
00000120: 432a 3d3c 97eb edbd 3abb dbbd 28b2 c73a
00000130: ba05 dabd 3f45 b43d d35c 203e 7cba 71bc
00000140: 388e 803e 549f 98bd b79a 24bd 67c7 de3c
00000150: acf9 fabd 6903 d83d ea2f 5abd 45a7 05bd
00000160: dcf8 7dbd b083 59bd c9cf c3bd aaa4 d2bd
00000170: 03a8 6fbe 6a42 97bd 1d97 06be 4ef4 733d
00000180: 4310 e8bd 86ea 18bd a813 34bd 09d1 553b
00000190: b59e ccbd 995a 7fbd a7b3 dd3b 3b4f cdbd
000001a0: d1a7 cfbd d289 d4bd 97be 2abe 4815 903e
000001b0: ff70 a9bd cf9c 23bc b73f 923e fbc0 d8bc
000001c0: c9e3 c8bd 21d7 79be 3693 9fbd b81b c83d
000001d0: ab15 2b3e f300 213e 6b15 6dbd 79af 413c
000001e0: 59cd 4cbd 80b7 fb3d 20c0 2e3e 86a4 acbd
000001f0: 8c1a 1dbe b001 883c 0ee8 0dbe f796 b0bd
00000200: 65a9 62be a239 d2b9 a10b 1abe e088 713e
00000210: 1743 c0ba 765c 983c dc47 90bd c068 3abd
00000220: 46e6 533c 2a60 d3bd 4999 ed3e e284 86be
00000230: b1b9 9e3e 238b 01be 162e 3b3e f029 6dbc
00000240: 1cb1 abbd 039e 80bd c4cf 973e 416e 2abe
00000250: 9a95 96bd bcc6 f0bc 629e 6e3c 3f04 8fbd
00000260: 3de3 973c 0b10 e4bb 7d66 08bd ac74 0c3d
00000270: 40ad 88be c5fd 17be dfa1 b1bd 2b72 e9bc
00000280: 909c c23b c14e 353d 817d 013e 4220 ddbd
00000290: 0590 343d 07fb 2b3e b266 51be 906b e7bd
000002a0: 2e06 94bd a788 87bc 9ed5 933d 8b0f e4bc
000002b0: dcde 79bd f719 b23d c39f 67bd ca6b b73c
000002c0: 996e c8bd aa6d 4b3d a6d3 14bc 2a1a cfbb
000002d0: dded 83be e44a bdbd c691 93bd 4876 f1bd
000002e0: ae95 b1bc 61bf 43bd 4ef8 1abd 6041 543d
000002f0: 3704 6c3e ebfa 00be 2172 2cbe fb03 50bd
00000300: 9c9e 9cbd 7d76 0dbe 946d f9bd 1a2e 923e
00000310: 1712 f7bd 4959 44bd 9796 a0bd 976f 57be

weight f4 [1, 200]
0.0066739107 0.5981666 0.29764342 -0.042463504 -0.026943374 0.4421593 -0.38921437 -0.16463639
-0.023757132 0.31994686 0.6761652 0.012122013 0.23526494 -0.014730465 -0.33619994 1.2956331
-0.3592166 0.5462581 -0.042786114 0.46239334 0.009262664 -0.011606245 -0.017047876 -0.5799566
0.005170754 -0.09021246 -0.8747735 0.006541942 -0.010649478 -0.90434176 -0.82315975 -0.1374678
1.351775 0.029441185 -0.18131101 -0.53069526 0.3894636 0.8306465 -0.0040303487 0.89099634
-0.07328472 -1.6716493 0.027271943 0.77188426 1.1309814 -0.41164955 -0.042593144 -0.035524774
-0.98481214 -0.032237414 0.02242124 0.022302404 -0.48648962 1.0176659 -0.02864546 0.22097434
0.0075613684 0.026159946 -0.005031522 0.029910572 0.01947602 0.01686161 -1.0236471 -0.09382445
1.2568088 -0.45638472 -0.17766224 -1.074122 -0.044286665 0.6733099 0.009777128 0.56765944
-0.12312902 -0.30930638 -0.019392949 -0.33595806 -0.021528289 -0.6140894 0.9934424 -0.054260764
0.88147795 1.1528333 0.008959052 0.7445684 0.024264516 -1.1482368 0.0015162528 0.006719825
0.0058618514 -0.69118226 -0.025370926 0.026884887 0.37093493 0.87692904 -0.56981856 0.5611122
-0.08328192 0.021857604 0.00426467 1.1390978 -1.0592916 0.9658478 -1.1884521 0.20624453
-0.033260543 0.010022438 -0.18801856 0.20189372 0.011200747 -0.005477439 0.49234632 0.4551842
-0.019531531 0.41616458 -0.014645526 0.5942239 0.79123867 -0.1855896 -0.02009405 -0.5758774
0.019678678 -0.5741166 0.22253704 0.0058820993 -0.32330734 -0.6991418 -0.7996694 -0.86201787
-0.7641144 -0.020539967 -1.2775081 0.430342 -0.03153404 1.319433 0.009126721 0.04984182
-0.5271549 0.0026815364 0.24805373 0.7113041 0.15502706 -0.50868315 -0.84058744 -1.6493297
-0.28397453 0.022481963 0.4027068 -0.46884862 -1.0987729 -0.008510527 0.035650693 0.36244956
0.004127113 -0.0037660624 -0.649731 -0.9526518 -0.24221756 0.025310906 -0.109360464 0.012910845
-0.3597464 0.67786753 -0.1542207 -0.0012679154 1.0038255 0.40986773 -0.08771055 -1.2621121
0.009492886 1.2060812 -0.454351 -1.0935758 -0.017455421 -0.49064204 -0.0015842627 0.56521446
-0.019342285 0.7829487 0.0056501064 -1.1070138 -0.24501257 -0.24182351 -0.013707313 -0.46706817
0.9205024 -0.0047672116 0.07809929 0.8572754 0.2822845 -0.86141974 -0.3308272 -0.23437148
1.6495743 0.0722327 0.026125671 0.5978991 0.86746466 0.018018685 -0.012345716 -1.3612577
00000000: d2b0 da3b 7221 193f b864 983e 36ee 2dbd
00000010: 5ab8 dcbc b462 e23e 1b47 c7be 7196 28be
00000020: 519e c2bc 13d0 a33e 2a19 2d3f 689b 463c
00000030: 4be9 703e 0c58 71bc 6622 acbe 4ed7 a53f
00000040: 3deb b7be 92d7 0b3f 7e40 2fbd d2be ec3e
00000050: 6ec2 173c 1f28 3ebc fda7 8bbc 0978 14bf
00000060: 6e6f a93b 4fc1 b8bd 28f1 5fbf c95d d63b
00000070: 267b 2ebc f182 67bf 99ba 52bf 5cc4 0cbe
00000080: f706 ad3f a42e f13c 98a9 39be a5db 07bf
00000090: c667 c73e 40a5 543f 0411 84bb 5618 643f
000000a0: 4d16 96bd 9bf8 d5bf 6969 df3c 359a 453f
000000b0: 00c4 903f bbc3 d2be 2676 2ebd 6d82 11bd
000000c0: a61c 7cbf 610b 04bd c0ac b73c 88b3 b63c
000000d0: 2b15 f9be e042 823f e2a9 eabc 1947 623e
000000e0: 5bc5 f73b 624d d63c 77df a4bb 0407 f53c
000000f0: 2d8c 9f3c 5c21 8a3c de06 83bf 0927 c0bd
00000100: 1cdf a03f 42ab e9be 17ed 35be d47c 89bf
00000110: ef65 35bd 0a5e 2c3f 3f30 203c 2152 113f
00000120: 112b fcbd 685d 9ebe f6dd 9ebc b202 acbe
00000130: 185c b0bc f734 1dbf 3e52 7e3f 8940 5ebd
00000140: 8aa8 613f 0b90 933f fdc8 123c 099c 3e3f
00000150: 61c6 c63c 6cf9 92bf 00bd c63a fa31 dc3b
00000160: c614 c03b 52f1 30bf b0d6 cfbc b23d dc3c
00000170: 2feb bd3e 6c7e 603f a1df 11bf 0da5 0f3f
00000180: b68f aabd b80e b33c a5be 8b3b f5cd 913f
00000190: de96 87bf cd41 773f 331f 98bf c431 533e
000001a0: 353c 08bd 2735 243c f087 40be 3abd 4e3e
000001b0: 5783 373c 177c b3bb d114 fc3e e70d e93e
000001c0: 9700 a0bc 8613 d53e caf3 6fbc 0f1f 183f
000001d0: 9e8e 4a3f 330b 3ebe 479c a4bc b46c 13bf
000001e0: 2e35 a13c 4ef9 12bf c0e0 633e a0be c03b
000001f0: 8a88 a5be f5fa 32bf 22b7 4cbf 34ad 5cbf
00000200: 009d 43bf 6f43 a8bc 6385 a3bf c955 dc3e
00000210: d629 01bd 2ee3 a83f 3e88 153c f026 4c3d
00000220: a0f3 06bf b7bc 2f3b cc01 7e3e 0718 363f
00000230: 6abf 1e3e 0f39 02bf bd30 57bf 3c1d d3bf
00000240: 1c65 91be 182c b83c 962f ce3e ed0c f0be
00000250: 97a4 8cbf bd6f 0bbc 7606 123d fd92 b93e
00000260: bc3c 873b 0bd0 76bb c554 26bf fde0 73bf
00000270: e107 78be d158 cf3c 61f8 dfbd 0288 533c
00000280: ae30 b8be ba88 2d3f 08ec 1dbe 2e30 a6ba
00000290: 5b7d 803f 2fda d13e 97a1 b3bd e48c a1bf
000002a0: 0d88 1b3c de60 9a3f b2a0 e8be 4bfa 8bbf
000002b0: acfe 8ebc 6f35 fbbe 09a7 cfba e5b1 103f
000002c0: b673 9ebc 536f 483f 8724 b93b a1b2 8dbf
000002d0: 93e4 7abe 95a0 77be a394 60bc 8f23 efbe
000002e0: 0ca6 6b3f 4536 9cbb 85f2 9f3d 6776 5b3f
000002f0: 9887 903e 0186 5cbf 2f62 a9be 14ff 6fbe
00000300: 4025 d33f bdee 933d 8105 d63c ea0f 193f
00000310: 2a12 5e3f ec9b 933c b045 4abc b13d aebf

weight f4 [200, 15]
-0.66712165 -0.50573826 -0.36604154 -0.07785817 -0.2169106 0.026158791 -0.02515339 0.097405605
0.24198842 0.38433912 -0.05929001 0.042716242 0.048220593 0.53805625 -0.038620885 0.50399923
-0.195977 0.39585927 -0.202666 -0.39589536 -0.6187054 -0.48354828 0.26879805 0.10860096
0.15141468 -0.050520726 -0.22269066 0.19768968 -0.04125654 -0.04026452 0.013862927 0.15921079
0.5051742 0.07321709 -0.4683686 -0.1850925 0.005142341 0.32884243 0.36593485 -1.0300971
-0.8150273 -0.14590736 -0.31163386 0.25349107 0.06041354 -0.2153591 0.048910946 0.5090137
-0.13327068 -0.25150117 0.3472113 -0.042506117 -0.29611605 0.1879539 -0.14473277 -0.97583044
-0.46969557 -0.4337655 0.65957254 0.048775163 -0.8795548 -0.26450342 -0.109832935 0.20827387
0.21698146 -0.23329209 0.116936274 0.16188878 -0.3332229 0.28326577 -0.025760049 0.16654062
-0.079610154 -0.027229501 -0.42251888 0.18257238 -0.28544554 -0.037617538 0.22954352 0.097347535
-0.20724005 -0.13200182 0.382045 0.45497033 0.055774443 -0.3364426 -0.025425836 -0.13058233
-0.06121436 0.06605531 0.32087612 0.39692608 0.4645964 -0.25513208 0.13369982 0.21699008
-0.013364141 -0.06506289 -0.40630424 -0.0060914843 -0.44737637 -0.0010107706 -0.2200028 0.26440606
0.25767827 -0.54917186 -0.13265103 0.2503764 0.18683447 -0.053312134 0.082184255 -0.18970451
-0.18035875 0.6402786 -0.020601735 0.056820538 -0.63401663 -0.38489622 0.123296216 0.0073552746
-0.090794004 0.07173099 -1.2052988 0.081385165 -0.34967396 -0.12988004 -0.090752676 0.17953828
0.35554555 0.3553547 -0.20126472 -0.079462945 0.028516075 -0.0759508 0.07914759 -0.17555328
-0.008901818 0.37118536 0.30740955 0.09336381 -0.5200278 -0.19537732 0.34910688 0.10969029
-0.30409953 -0.3802822 -0.5946107 -0.10405414 -0.5070821 0.22934592 -0.27600497 -0.11252619
-0.02713169 -0.07162042 -0.29950076 0.3623635 0.2589246 -0.29060656 -0.2192121 -0.2510749
0.13276061 -0.3999659 0.14531623 -0.043640256 0.5092126 -0.12262331 -0.35410675 0.25190315
0.18181472 0.40596813 -0.24896887 -0.4218416 -0.15472066 -0.30211595 -0.48971373 -0.043132175
0.32171193 0.3156882 -0.21416113 -0.10702541 -0.3567696 -0.021076903 -0.025197817 0.13399504
-0.4904193 0.051446795 -0.22250806 0.089583345 0.29488444 0.309376 0.41054878 -0.38302955
-0.4208217 0.17552774 -0.5215407 0.23075351 0.42346513 0.5032694 -0.11494155 -0.078966364
0.063129306 0.0082703065 -0.0064855726 0.23472384 0.027310554 -0.009966561 -0.13648595 -0.56570953
0.14777337 -0.07475562 0.13299921 -0.28096607 -0.07662862 -0.05774428 0.06877295 -0.3922012
-0.039584983 -0.17459753 -0.01735962 0.12025401 0.039228506 0.2104085 0.024288485 0.9014566
0.18368076 -0.7626728 0.1038613 -0.13710465 0.01725332 0.19297653 0.19078758 -0.35432687
0.11936913 -0.6616366 0.20632589 0.09911561 -0.2702448 0.13638717 0.29574376 -0.14905165
-0.025633935 0.16612872 -0.13912185 -0.15916692 0.20739008 -0.1044863 -0.24468476 -0.2685341
0.15298589 -0.17512012 -0.17323661 -0.18635559 0.08353524 0.21402408 -0.15060766 0.30164787
00000000: 7cc8 2abf 1078 01bf cc69 bbbe 1b74 9fbd
00000010: d01d 5ebe f64a d63c 7b0e cebc 977c c73d
00000020: d0cb 773e 19c8 c43e 15da 72bd 3af7 2e3d
00000030: f582 453d 0ebe 093f ef30 1ebd 1806 013f
00000040: 32ae 48be 11ae ca3e ad87 4fbe ccb2 cabe
00000050: 7a63 1ebf a493 f7be e69f 893e 2e6a de3d
00000060: 730c 1b3e d2ee 4ebd 0509 64be 2a6f 4a3e
00000070: 9efc 28bd 69ec 24bd 5521 633c 2708 233e
00000080: 1953 013f d7f2 953d 02ce efbe e388 3dbe
00000090: 1581 a83b 095e a83e d05b bb3e 39da 83bf
000000a0: a1a5 50bf bd68 15be 798e 9fbe 95c9 813e
000000b0: 3074 773d 1987 5cbe d856 483d b94e 023f
000000c0: 1c78 08be c3c4 80be aec5 b13e e51a 2ebd
000000d0: 869c 97be fd76 403e d434 14be 06d0 79bf
000000e0: f07b f0be 8316 debe bfd9 283f 77c8 473d
000000f0: 812a 61bf fe6c 87be 17f0 e0bd bf45 553e
00000100: 6330 5e3e 1fe4 6ebe 497c ef3d 2cc6 253e
00000110: 319c aabe 3608 913e bd06 d3bc a089 2a3e
00000120: a60a a3bd 6710 dfbc 6554 d8be 41f4 3a3e
00000130: eb25 92be d914 1abd 750d 6b3e 255e c73d
00000140: bc36 54be 7c2b 07be 679b c33e dff1 e83e
00000150: be73 643d 3442 acbe d849 d0bc 60b7 05be
00000160: e9bb 7abd 0248 873d e049 a43e e539 cb3e
00000170: 94df ed3e aca0 82be 9be8 083e a632 5e3e
00000180: 45f5 5abc b13f 85bd 1c07 d0be 139b c7bb
00000190: 840e e5be d57b 84ba 6a48 61be 3b60 873e
000001a0: 68ee 833e 8796 0cbf acd5 07be 5631 803e
000001b0: 8951 3f3e d35d 5abd 3850 a83d e641 42be
000001c0: f7af 38be 4ce9 233f f8c4 a8bc a7bc 683d
000001d0: ea4e 22bf 1e11 c5be ba82 fc3d 8404 f13b
000001e0: 35f2 b9bd b3e7 923d 3b47 9abf 44ad a63d
000001f0: 7708 b3be 46ff 04be 8adc b9bd e2d8 373e
00000200: 110a b63e 0df1 b53e 5718 4ebe 78bd a2bd
00000210: 8b9a e93c 188c 9bbd 2218 a23d 3dc4 33be
00000220: eed8 11bc 020c be3e c964 9d3e 8635 bf3d
00000230: 8b20 05bf fe10 48be 23be b23e 4ea5 e03d
00000240: efb2 9bbe 59b4 c2be 6838 18bf 561a d5bd
00000250: 22d0 01bf a8d9 6a3e 8650 8dbe 2274 e6bd
00000260: 4743 debc baad 92bd 2a58 99be b587 b93e
00000270: c491 843e 62ca 94be 2379 60be e48c 80be
00000280: 66f2 073e 55c8 ccbe c7cd 143e 20c0 32bd
00000290: c25b 023f ee21 fbbd 7b4d b5be 73f9 803e
000002a0: a32d 3a3e 0edb cf3e b2f1 7ebe 9ffb d7be
000002b0: 186f 1ebe f1ae 9abe c2bb fabe 5dab 30bd
000002c0: 6db7 a43e e2a1 a13e 0e4d 5bbe 2330 dbbd
000002d0: 81aa b6be 78a9 acbc a76b cebc ff35 093e
000002e0: 3d18 fbbe e0b9 523d 27d9 63be 7977 b73d
000002f0: 18fb 963e 8866 9e3e 7333 d23e 731c c4be
00000300: f175 d7be 8bbd 333e b183 05bf a64a 6c3e
00000310: 6cd0 d83e 43d6 003f 7a66 ebbd 1eb9 a1bd
00000320: f049 813d 2e80 073c ed84 d4bb 725b 703e
00000330: 62ba df3c c94a 23bc f9c2 0bbe 57d2 10bf
00000340: e751 173e 7919 99bd f230 083e c9da 8fbe
00000350: 77ef 9cbd 4485 6cbd d5d8 8c3d 98ce c8be
00000360: dd23 22bd b2c9 32be c335 8ebc bc47 f63d
00000370: 12ae 203d 5375 573e a5f8 c63c dcc5 663f
00000380: cf16 3c3e 863e 43bf 3cb5 d43d 2965 0cbe
00000390: d656 8d3c a49b 453e d25d 433e 556a b5be
000003a0: cd77 f43d 0461 29bf 1847 533e 20fd ca3d
000003b0: 875d 8abe 14a9 0b3e ba6b 973e ffa0 18be
000003c0: 42fe d1bc a61d 2a3e f575 0ebe a7fc 22be
000003d0: 115e 543e eafc d5bd a48e 7abe 4d7d 89be
000003e0: 55a8 1c3e b052 33be f064 31be 00d4 3ebe
000003f0: 8614 ab3d 2129 5b3e e538 1abe 9771 9a3e

bias f4 [200]
0.11767144 -0.18586493 0.36315703 0.23033702 0.31215268 -0.13657242 0.15037438 0.44572628
-0.15158437 0.12313505 0.3449254 0.30601016 -0.10253377 -0.14528699 -0.41630542 0.41763067
-0.2284246 0.28720278 -0.13761656 -0.22954102 0.038420938 -0.033956505 -0.22069493 -0.20181905
-0.29322237 0.026957184 0.033401713 -0.30119133 -0.10951884 -0.24477232 0.26295215 0.22191244
0.0028315668 0.014425143 -0.15768631 -0.3180725 0.0041665514 -0.006182509 0.37524393 -0.05564531
-0.25510517 -0.054260753 0.2942712 0.09983017 0.054373056 -0.22927906 0.12709358 -0.28304395
-0.24333018 -0.3913623 -0.11561772 -0.24187694 0.1290665 -0.36679548 -0.18697114 -0.011723628
-0.012861458 -0.43924335 0.10324779 0.0037366988 0.08133718 0.2475026 -0.1744075 -0.19546403
-0.016196746 0.19955283 0.1956391 -0.1352863 -0.26707894 0.10244845 0.13051882 -0.30739927
0.20298961 -0.13675979 0.11198291 -0.07385861 0.060968738 -0.13884914 -0.0956414 0.026156092
0.23645034 -0.2568792 0.124307595 -0.084170915 0.15877604 0.18957818 0.16576235 0.07979556
-0.12242302 0.12057138 -0.33438537 -0.2317714 0.24071828 -0.09976025 -0.32546255 -0.3440258
0.0051077274 -0.058191378 -0.051038884 -0.31744814 0.16692232 0.06771321 0.06743464 -0.077719316
0.10242562 0.07630606 -0.16350235 0.12264217 -0.18108149 -0.032187395 0.030995414 0.09572216
-0.04595679 -0.20919196 -0.06769927 -0.18175341 -0.27854767 -0.5706669 0.22821866 0.03274053
-0.4541317 0.24789013 0.010486373 -0.08535749 -0.08419329 -0.4113411 0.21373689 -0.23668928
-0.21363999 0.37193486 -0.46715033 0.08746096 0.3238197 -0.066504836 -0.10622441 0.013979786
0.11204448 -0.36624318 -0.11061472 -0.26289815 -0.03915543 0.008604149 0.16044524 -0.20421301
0.19099261 -0.012463605 -0.06578623 0.41481918 -0.081097364 0.18997528 0.14229111 -0.15640725
0.040979974 -0.13389555 0.075504534 -0.3861597 -0.026451597 0.20227665 0.24511619 -0.16328429
0.17775953 -0.3762785 -0.27781454 -0.09328779 0.25316033 -0.13516659 -0.022975415 0.1529553
-0.3921657 -0.22132139 -0.27610388 -0.021848034 -0.07533513 -0.15233286 -0.18453313 0.38462785
0.4588834 -0.35718417 0.05228331 0.053665373 0.14216232 0.37581828 -0.36300123 -0.25061205
0.37717026 -0.059995078 0.23935123 -0.07436787 -0.23285295 -0.12252265 0.17534855 0.028967652
0.025356688 0.22129522 -0.31735036 -0.11367484 -0.12887718 0.3516512 0.13164213 -0.1652707
00000000: b9fd f03d 6053 3ebe b8ef b93e 78dd 6b3e
00000010: 7ad2 9f3e a4d9 0bbe befb 193e 3c36 e43e
00000020: ef38 1bbe 3b2e fc3d 109a b03e 5dad 9c3e
00000030: 3afd d1bd 1dc6 14be fc25 d5be b0d3 d53e
00000040: 23e8 69be 3e0c 933e 5beb 0cbe cd0c 6bbe
00000050: 465f 1d3d fa15 0bbd dafd 61be a7a9 4ebe
00000060: 3e21 96be 50d5 dc3c 3cd0 083d c035 9abe
00000070: 6a4b e0bd 98a5 7abe aaa1 863e 043d 633e
00000080: cf91 393b 6f57 6c3c 8578 21be 66da a2be
00000090: 9187 883b a596 cabb f91f c03e 56ec 63bd
000000a0: 259d 82be 8640 5ebd b7aa 963e c373 cc3d
000000b0: 48b6 5e3d 21c8 6abe d224 023e 23eb 90be
000000c0: 8c2b 79be a460 c8be fcc8 ecbd 97ae 77be
000000d0: 022a 043e 9ecc bbbe 5d75 3fbe 7614 40bc
000000e0: ddb8 52bc 81e4 e0be 9473 d33d 67e3 743b
000000f0: 1c94 a63d 5271 7d3e e197 32be b927 48be
00000100: 0aaf 84bc 9457 4c3e 9e55 483e 7e88 0abe
00000110: 92be 88be 7ed0 d13d baa6 053e 7063 9dbe
00000120: 82dc 4f3e c20a 0cbe 4c57 e53d 2f43 97bd
00000130: 5bba 793d 782e 0ebe a3df c3bd 4d45 d63c
00000140: 0a20 723e ac85 83be fb94 fe3d cd61 acbd
00000150: 3096 223e c820 423e 9bbd 293e db6b a33d
00000160: ecb8 fabd 21ee f63d 8f34 abbe 7b55 6dbe
00000170: da7e 763e 1a4f ccbd 07a3 a6be 2624 b0be
00000180: b95e a73b 155a 6ebd 260e 51bd 9088 a2be
00000190: afed 2a3e 39ad 8a3d 2c1b 8a3d 4e2b 9fbd
000001a0: 86c4 d13d 5a46 9c3d 296d 27be d12b fb3d
000001b0: 6d6d 39be eed6 03bd 18ea fd3c fb09 c43d
000001c0: 303d 3cbd 6b36 56be eaa5 8abd 911d 3abe
000001d0: cd9d 8ebe 3a17 12bf 27b2 693e ef1a 063d
000001e0: f383 e8be e9d6 7d3e 09cf 2b3c e8cf aebd
000001f0: 886d acbd 4d9b d2be d8dd 5a3e ad5e 72be
00000200: 71c4 5abe 3f6e be3e 542e efbe bb1e b33d
00000210: b2cb a53e b033 88bd 2f8c d9bd 790b 653c
00000220: 9477 e53d 3a84 bbbe f889 e2bd 969a 86be
00000230: 7261 20bd 6bf8 0c3c c24b 243e 371d 51be
00000240: 9193 433e 2634 4cbc eeba 86bd 2e63 d43e
00000250: 6016 a6bd e188 423e c3b4 113e 3929 20be
00000260: 9eda 273d ea1b 09be 1fa2 9a3d b9b6 c5be
00000270: 05b1 d8bc 9c21 4f3e bdff 7a3e ff33 27be
00000280: 9806 363e 93a7 c0be b53d 8ebe ab0d bfbd
00000290: 3b9e 813e 1c69 0abe f036 bcbc 50a0 1c3e
000002a0: f1c9 c8be 13a2 62be 7d5d 8dbe a6fa b2bc
000002b0: 4e49 9abd 25fd 1bbe 41f6 3cbe f1ed c43e
000002c0: c4f2 ea3e d8e0 b6be 0627 563d 39d0 5b3d
000002d0: 0093 113e 416b c03e 4cdb b9be 3950 80be
000002e0: 761c c13e 66bd 75bd 7d18 753e 2f4e 98bd
000002f0: 0171 6ebe 28ed fabd 928e 333e 924d ed3c
00000300: d4b8 cf3c 379b 623e bf7b a2be 5bce e8bd
00000310: 61f8 03be a00b b43e 32cd 063e b93c 29be

weight f4 [200, 200]
-0.22045323 -0.5618739 -0.010315545 0.015679775 -0.6197726 0.2507021 -0.012565484 -0.85955215
0.077611856 0.101586446 -0.27619377 -0.38565066 -0.40972215 -0.7619593 0.23921311 -0.15944293
0.0708022 -0.42592704 0.040939875 -0.52223516 -0.13643435 -0.37250206 -0.30253038 0.06738705
-0.042953756 -0.39842513 -0.43766975 0.025069756 -0.046915334 0.286087 0.40897483 -0.32310793
-0.10448798 0.2959579 0.10019789 0.24857678 -0.059207726 0.28322768 0.23278883 -0.29556865
0.047709856 -0.7004554 0.7195442 0.27890962 -0.23161618 -0.22999297 -0.4562412 -0.23275256
-0.8224207 -0.41068804 -0.18372405 0.04521277 0.30597275 -0.13726802 0.10859506 -0.07971454
-0.022947636 -0.38059005 -0.020885998 -0.46639046 0.37011218 0.06757494 -0.08025028 -0.40123314
0.42942223 -0.06430418 -0.41286147 0.20871778 -0.26300615 0.15393443 -0.29477417 0.016868385
-0.18548468 -0.16046634 -0.020514263 0.033247914 -0.36740234 0.3324006 0.39040753 0.23789696
0.19362071 -0.20146294 -0.39587337 -0.07918225 0.099504136 0.05847789 -0.0010618668 -0.5067696
-1.0185032 -0.16161403 -0.011828274 0.06687027 -0.22731374 -0.09416275 -0.048458252 -0.0058650337
-0.12134237 -0.34137502 -0.07115535 -0.053152133 -0.20891792 -0.71017814 0.06082284 0.07452749
0.28918916 0.5221291 -0.0356045 0.21365741 -0.07537741 -0.037471145 0.14270881 -0.046765424
0.38314778 -0.70772123 -0.21109574 -0.044498004 0.041912165 -0.019591376 0.27703038 0.1132144
-0.08230556 -0.056949925 -0.13722005 0.06544875 -0.031764466 -0.018242255 -0.86951685 -0.70615727
-0.47336736 -0.3596224 -0.11760679 -0.12964046 -0.07174502 0.11074203 -0.11760456 0.115589626
0.09574949 -0.53942597 0.19782154 -1.1709667 -0.14812581 0.044043817 0.055053633 0.08242348
0.06432692 -0.25909963 0.14856367 -0.7056988 -0.69052154 -0.03264587 -0.70841604 -0.093408145
-0.011988593 0.040737018 -0.36313477 0.24317607 -0.032283027 0.13119322 0.38631734 -0.44508857
-0.058181792 0.08018971 0.0136721935 0.13327816 -0.13588016 -1.140735 -0.037112508 0.17342012
-0.3600844 -0.14018302 0.006813143 -0.4535719 0.064064465 -0.059257135 0.33133355 -0.8256071
0.29584318 -0.0008854267 -0.27799317 -0.0059521627 -1.1312526 0.058504183 -0.07730554 0.027130755
-0.79446256 0.3388542 -0.009848467 0.007809312 -0.3141096 -0.49180126 0.024043135 0.07928034
0.16965355 -0.34249625 0.018149378 -0.26582137 -0.029260863 -0.25812045 0.08679985 -0.1442003
-0.01645369 -0.08428401 -0.07716575 -0.022887973 -0.0018689218 -0.02221337 0.0058975886 -0.07377796
0.023221854 -0.010804117 -0.031288736 -0.060337305 0.031702623 -0.022545666 -0.019122493 -0.011978031
0.024622915 0.016254557 0.0035379813 0.06747063 -0.027087884 0.09611579 -0.072611205 0.057046544
-0.086253226 -0.114698835 0.015423075 -0.12520821 -0.0796222 -0.0022909918 -0.016880779 -0.04075062
-0.04767594 -0.04191111 0.028825391 -0.13818307 0.23146303 0.016815478 0.017396728 0.055733748
0.035594814 -0.04970996 0.040238142 -0.05706964 -0.0044182455 -0.053826552 -0.070522055 -0.048049215
-0.08439355 -0.01531757 -0.05427716 -0.0312405 0.01320448 0.06876817 -0.027367378 0.039460924
00000000: 7ebe 61be f8d6 0fbf 8802 29bc df72 803c
00000010: 6ba9 1ebf 075c 803e 76df 4dbc 9c0b 5cbf
00000020: f7f2 9e3d 8e0c d03d 4569 8dbe 0174 c5be
00000030: 1ac7 d1be c40f 43bf 48f4 743e 0245 23be
00000040: be00 913d 1c13 dabe 92b0 273d 34b1 05bf
00000050: 72b5 0bbe 97b8 bebe 43e5 9abe 3902 8a3d
00000060: 47f0 2fbd 61fe cbbe 4016 e0be 175f cd3c
00000070: 4b2a 40bd ff79 923e 2665 d13e 676e a5be
00000080: cbfd d5bd cb87 973e 8d34 cd3d e98a 7e3e
00000090: cd83 72bd 3803 913e 3260 6e3e c654 97be
000000a0: 696b 433d 0c51 33bf 0c34 383f 3ecd 8e3e
000000b0: cb2c 6dbe 4783 6bbe 7298 e9be b056 6ebe
000000c0: 2a8a 52bf b445 d2be 2822 3cbe 0731 393d
000000d0: 76a8 9c3e fd8f 0cbe 1667 de3d 6041 a3bd
000000e0: aefc bbbc b3dc c2be 1d19 abbc bbca eebe
000000f0: 587f bd3e bb64 8a3d 425a a4bd 6e6e cdbe
00000100: 3bdd db3e e9b1 83bd 9462 d3be 1dba 553e
00000110: bea8 86be fda0 1d3e a4ec 96be 912f 8a3c
00000120: b2ef 3dbe 4a51 24be 870d a8bc f72e 083d
00000130: 291c bcbe 6930 aa3e 7fe3 c73e 439b 733e
00000140: 8244 463e 4d4c 4ebe eaaf cabe 4e2a a2bd
00000150: d3c8 cb3d 8386 6f3d 562e 8bba a7bb 01bf
00000160: 505e 82bf 267e 25be 60cb 41bc 48f3 883d
00000170: efc4 68be 66d8 c0bd 297c 46bd 782f c0bb
00000180: 5982 f8bd b5c8 aebe e5b9 91bd 0db6 59bd
00000190: 94ee 55be 3cce 35bf 5f21 793d dea1 983d
000001a0: 9a10 943e 41aa 053f 06d6 11bd 02c9 5a3e
000001b0: 795f 9abd 587b 19bd 4222 123e 1a8d 3fbd
000001c0: f22b c43e 382d 35bf 7b29 58be 8a43 36bd
000001d0: 17ac 2b3d 187e a0bc edd6 8d3e f4dc e73d
000001e0: d18f a8bd 5344 69bd 6a83 0cbe ff09 863d
000001f0: 751b 02bd c870 95bc a898 5ebf b9c6 34bf
00000200: 355d f2be 6d20 b8be d4db f0bd 78c0 04be
00000210: 0eef 92bd b8cc e23d a9da f0bd 41ba ec3d
00000220: 4f18 c43d d217 0abf bb91 4a3e 3de2 95bf
00000230: 4bae 17be 4a67 343d eb7f 613d a4cd a83d
00000240: d5bd 833d b5a8 84be 1321 183e ada8 34bf
00000250: 05c6 30bf adb7 05bd c15a 35bf c54c bfbd
00000260: ce6b 44bc dcdb 263d cdec b9be 2603 793e
00000270: 353b 04bd 8457 063e 63cb c53e a6e2 e3be
00000280: 0850 6ebd 813a a43d 5601 603c 127a 083e
00000290: 2b24 0bbe 9b03 92bf 4903 18bd 0b95 313e
000002a0: fc5c b8be 238c 0fbe c940 df3b 933a e8be
000002b0: 3b34 833d 9cb7 72bd 8da4 a93e fd5a 53bf
000002c0: c278 973e fb1b 68ba 1f55 8ebe 5c0a c3bb
000002d0: e3cc 90bf 15a2 6f3d 5e52 9ebd 5141 de3c
000002e0: e661 4bbf 4c7e ad3e 775b 21bc 42e5 ff3b
000002f0: f9d2 a0be 60cd fbbe 1cf6 c43c bb5d a23d
00000300: a9b9 2d3e ab5b afbe 01ae 943c bd19 88be
00000310: 7ab4 efbc 5d28 84be 1fc4 b13d 3ea9 13be
00000320: e4c9 86bc 189d acbd 1409 9ebd 8f7f bbbc
00000330: 9cf6 f4ba d0f8 b5bc 8f40 c13b e618 97bd
00000340: c23b be3c c003 31bc 9e28 00bd 4024 77bd
00000350: 9cda 013d b0b1 b8bc c6a6 9cbc 813f 44bc
00000360: ffb5 c93c 4728 853c 7add 673b 0b2e 8a3d
00000370: 69e7 ddbc 5bd8 c43d 2fb5 94bd a3a9 693d
00000380: 88a5 b0bd 39e7 eabd 11b1 7c3c 9536 00be
00000390: f710 a3bd 7724 16bb 8f49 8abc 1fea 26bd
000003a0: d947 43bd fcaa 2bbd 3a23 ec3c dd7f 0dbe
000003b0: a504 6d3e 9dc0 893c 9583 8e3c 1249 643d
000003c0: decb 113d ac9c 4bbd c0d0 243d dbc1 69bd
000003d0: eec6 90bb 3b79 5cbd de6d 90bd 41cf 44bd
000003e0: 87d6 acbd 8cf6 7abc ba51 5ebd 14ec ffbc
000003f0: 9a57 583c 54d6 8c3d 8d31 e0bc c7a1 213d

bias f4 [200]
-0.072757974 -0.12113322 0.011816417 -0.0773055 -0.095966235 -0.049788926 -0.048699785 -0.10298873
-0.023443835 -0.070392415 -0.044498265 -0.09089643 -0.07817828 -0.010751665 -0.1293412 -0.06570599
-0.15817484 -0.0006833697 -0.074559666 0.09278833 -0.104821846 0.0940297 0.10576241 0.119588085
0.006129756 -0.01729151 0.036165524 0.19701351 0.013620698 -0.094380274 0.079052 0.036636066
-0.021695554 -0.027990732 -0.09013498 -0.08787149 0.0023535662 0.0041786544 -0.057805046 0.015512548
-0.061366573 -0.059128985 -0.041690882 -0.028693518 0.08296119 -0.1979734 -0.009693838 0.055326834
0.0797157 0.07319059 0.15170322 0.0057695913 0.2842991 -0.09019607 -0.026898671 -0.08706534
0.012820612 -0.013532782 0.051869094 0.0027109662 -0.07918073 -0.06004019 -0.12789531 0.0021891596
-0.09391988 -0.1870089 0.014927444 -0.07966565 -0.06594143 0.06428675 0.031194678 -0.019460004
0.032803085 -0.10896808 0.047450677 -0.04247394 0.07198944 -0.03575649 0.005619563 -0.15614939
0.14362763 -0.024252595 -0.1879878 0.10108537 0.08420057 0.13371247 -0.052475538 -0.11079546
-0.035585128 -0.036872588 -0.15074775 0.23898864 0.10345517 -0.048999164 -5.8571226e-05 -0.06927333
-0.09184027 -0.020734305 -0.12818483 -0.076676235 -0.114580356 -0.07749878 -0.15235348 -0.02856723
-0.024486171 0.13867556 -0.041310817 -0.05552141 0.50152963 0.08393672 0.09946142 -0.035849623
-0.17464724 -0.010400279 0.10565612 -0.011506113 -0.09044045 -0.19882075 0.07283155 -0.08284681
0.03608641 -0.047650285 -0.05120603 0.06444999 -0.03260354 -0.09895498 0.2244439 -0.039647188
-0.045887154 -0.011413649 -0.050960906 -0.037941746 -0.14786586 0.32928187 0.053407885 -0.0736662
-0.28383276 -0.0059524146 -0.06321005 -0.035432845 0.0059393756 -0.10036761 -0.05862607 4.8856535e-05
-0.05914016 -0.094092734 0.08401867 -0.19650541 0.08659198 -0.03074122 0.085871145 -0.07389568
-0.09908313 -0.04024392 -0.05869387 -0.078640215 0.022620475 -0.077904746 0.03181511 -0.03342669
-0.36754295 -0.08451574 0.3413524 0.0013535273 -0.07277064 -0.07698618 -0.16501115 -0.16053016
-0.041874327 -0.10984328 -0.105425075 -0.06591312 0.01695884 -0.06228654 -0.05876465 -0.045638204
-0.07161878 -0.045582663 0.06565112 0.4455575 0.018297998 -0.1368952 -0.06981342 -0.07765971
-0.037648704 0.34567532 -0.022258446 -0.031146996 -0.020049347 -0.07734828 -0.14038068 0.15477422
-0.04031625 0.16142109 -0.11008363 -0.04057116 -0.0025725716 -0.025879804 0.08973516 -0.09599561
00000000: 2202 95bd b214 f8bd a599 413c 5952 9ebd
00000010: f289 c4bd 79ef 4bbd 6d79 47bd c1eb d2bd
00000020: 490d c0bc e629 90bd d043 36bd e827 babd
00000030: ef1b a0bd c027 30bc 0572 04be dd90 86bd
00000040: 96f8 21be 2a24 33ba bdb2 98bd cf07 be3d
00000050: d6ac d6bd a592 c03d f699 d83d 99ea f43d
00000060: 1fdc c83b eda6 8dbc 4d22 143d e9bd 493e
00000070: 5929 5f3c 724a c1bd 04e6 a13d b30f 163d
00000080: e0ba b1bc d24c e5bc b098 b8bd f8f5 b3bd
00000090: 4a3e 1a3b 18ed 883b fcc4 6cbd 5828 7e3c
000000a0: 845b 7bbd 3c31 72bd 0fc4 2abd ab0e ebbc
000000b0: 8ee7 a93d 8ab9 4abe e7d2 1ebc 649e 623d
000000c0: fc41 a33d f3e4 953d 1758 1b3e d70e bd3b
000000d0: a78f 913e b8b8 b8bd 9a5a dcbc 504f b2bd
000000e0: 8b0d 523c 9ab8 5dbc b074 543d 77aa 313b
000000f0: 8229 a2bd b4ec 75bd fdf6 02be 0178 0f3b
00000100: 1159 c0bd 437f 3fbe 3d92 743c bf27 a3bd
00000110: 4d0c 87bd c6a8 833d fb8b ff3c 966a 9fbc
00000120: 875c 063d a82a dfbd a45b 423d 27f9 2dbd
00000130: 336f 933d 6675 12bd 5024 b83b a0e5 1fbe
00000140: 1f13 133e 61ad c6bc e07f 40be d905 cf3d
00000150: 5971 ac3d eceb 083e 97f0 56bd bbe8 e2bd
00000160: b6c1 11bd b607 17bd 9e5d 1abe 70b9 743e
00000170: 4ee0 d33d 59b3 48bd 60aa 75b8 2ddf 8dbd
00000180: c016 bcbd fdda a9bc e242 03be 6e08 9dbd
00000190: 1ba9 eabd aeb7 9ebd 8d02 1cbe d305 eabc
000001a0: 3997 c8bc f700 0e3e 8835 29bd 6b6a 63bd
000001b0: 3f64 003f 04e7 ab3d 6eb2 cb3d 0ed7 12bd
000001c0: bad6 32be ef65 2abc 3c62 d83d 2384 3cbc
000001d0: d838 b9bd ab97 4bbe b528 953d 97ab a9bd
000001e0: 58cf 133d f22c 43bd 6abd 51bd 5bfe 833d
000001f0: 4a8b 05bd e9a8 cabd 9fd4 653e 1765 22bd
00000200: 2bf4 3bbd 5000 3bbc 62bc 50bd ce68 1bbd
00000210: 266a 17be a297 a83e 3ac2 5a3d 4ede 96bd
00000220: 8752 91be 790c c3bb 4574 81bd 0822 11bd
00000230: 189f c23b 898d cdbd e421 70bd 4eeb 4c38
00000240: f43c 72bd b1b3 c0bd fb11 ac3d b738 49be
00000250: 2357 b13d 03d5 fbbc 36dd af3d 9e56 97bd
00000260: 19ec cabd cfd6 24bd fc68 70bd 1f0e a1bd
00000270: 934e b93c 868c 9fbd 9050 023d 6dea 08bd
00000280: 972e bcbe 9716 adbd bec5 ae3e d768 b13a
00000290: c608 95bd eeaa 9dbd aff8 28be 0562 24be
000002a0: 6a84 2bbd 83f5 e0bd 1ae9 d7bd 75fd 86bd
000002b0: 44ed 8a3c 2c20 7fbd 34b3 70bd 20ef 3abd
000002c0: deac 92bd e3b4 3abd 1874 863d 1d20 e43e
000002d0: afe5 953c 412e 0cbe 57fa 8ebd 0e0c 9fbd
000002e0: 8735 1abd 5bfc b03e 5857 b6bc fc27 ffbc
000002f0: 873e a4bc c668 9ebd f4bf 0fbe 227d 1e3e
00000300: a722 25bd 924b 253e 8773 e1bd f22d 26bd
00000310: 9798 28bb e201 d4bc 11c7 b73d 5999 c4bd
