Vehicles/GenDisV_0_02_0/GenDisV_0_02_0_actor.pth (torch, 176449 bytes, 6 tensors)

weight f4 [200, 13]
0	0xbe201355	-0.15632375
1	0xbe2aef09	-0.16692747
2	0x3efa8b9b	0.48934636
3	0xbd8381f6	-0.064212725
4	0x3e541294	0.20710212
5	0x3e947e9b	0.29002842
6	0xbebc1356	-0.36733502
7	0xbb8fe704	-0.004391553
8	0xbe867c10	-0.26266527
9	0xbc8afd86	-0.016966593
10	0x3eb99406	0.36245745
11	0x3e088ed5	0.13335736
12	0xbd86583d	-0.06559799
13	0x3ddf990b	0.109178625
14	0xbedfd597	-0.43717644
15	0xbc1cb1b7	-0.009563855
16	0x3ebc34d8	0.36759067
17	0xbe1ff530	-0.15620875
18	0xbe6632b3	-0.22480278
19	0xbd87d709	-0.066328116
20	0x3e29d5e6	0.16585502
21	0xbd351c22	-0.044216283
22	0x3eddd0a7	0.43323252
23	0x3d95516d	0.07290921
24	0x3ebb455c	0.36576355
25	0x3c4171ad	0.011806888
26	0x3f121f85	0.57079345
27	0x3f997344	1.1988301
28	0xbebc46f5	-0.36772886
29	0xbf07089a	-0.527475
30	0xbd1bad88	-0.03800729
31	0xbe310d33	-0.17290191
32	0xbdde4d5f	-0.10854601
33	0xbca04f28	-0.019568995
34	0xbe5e94c2	-0.21736434
35	0xbaecf08d	-0.0018077061
36	0x3e195963	0.14975505
37	0xbdfc04ab	-0.12305578
38	0x3b9f69bd	0.0048649
39	0xbf9a93c5	-1.2076346
40	0x3ed801bc	0.42188823
41	0xbe632e2e	-0.22185585
42	0x3e59e2f4	0.21277982
43	0xbdc76da8	-0.09737712
44	0x3d309432	0.04311008
45	0x3d96cf74	0.07363787
46	0x3e5c935e	0.21540591
47	0xbe14436b	-0.14478843
48	0xbc504c13	-0.01271345
49	0x3cad5fb5	0.0211638
50	0x3e5ac552	0.21364334
51	0xbdc0dc1f	-0.09416985
52	0x3f04aff5	0.5183099
53	0x3d26a193	0.040681433
54	0xbed5822e	-0.41700882
55	0xbe586c23	-0.21135001
56	0xbebe58df	-0.37177178
57	0x3d1299c2	0.035791166
58	0x3e1c5d01	0.15269853
59	0x3e93dea8	0.2888081
60	0x3e02a93b	0.12759869
61	0x3d5df0cd	0.054184724
62	0xbe80775c	-0.25091064
63	0xbe4647fa	-0.19363394
64	0xbdab262c	-0.0835689
65	0x3e79678e	0.24355909
66	0x3d9528ba	0.072831586
67	0x3e3296a7	0.17440282
68	0x3e6ffac0	0.23435497
69	0xbe33cd27	-0.17558728
70	0x3ccf5bc7	0.025312318
71	0xbf40b28d	-0.75272447
72	0xbeecd7bb	-0.4625834
73	0xbf107360	-0.5642605
74	0xbd42a47a	-0.04752014
75	0xbea19141	-0.31556132
76	0xbe458c16	-0.1929172
77	0x3e112bed	0.14176913
78	0x3eb439c4	0.35200322
79	0x3e76782a	0.24069276
80	0x3e79806e	0.24365398
81	0x3e5a8767	0.21340714
82	0x3e2f3ec4	0.17113787
83	0xbe5c8953	-0.2153676
84	0xbe49acdb	-0.19694845
85	0xbe4a65b6	-0.19765362
86	0x3e811145	0.25208488
87	0x3e33ebc1	0.17570402
88	0x3cc6689c	0.024219804
89	0x3d08b8bb	0.033379298
90	0xbe79c851	-0.24392821
91	0x3e938ff9	0.2882078
92	0xbe288a7a	-0.16459075
93	0x3d18d107	0.03730872
94	0xbeb74659	-0.35795859
95	0x3e64e27a	0.22352019
96	0x3d88f487	0.06687265
97	0xbe0ab3c3	-0.13545136
98	0x3db4a19e	0.088198885
99	0x3e298c7a	0.16557494
100	0xbe5eda6c	-0.21763009
101	0xbed6e03f	-0.4196796
102	0xbe357c46	-0.17723188
103	0xbe9bb67e	-0.30412668
104	0xbca76794	-0.020435132
105	0xbecdedc2	-0.40220457
106	0x3ebb8a28	0.36628842
107	0xbd4101e1	-0.047120932
108	0x3e720823	0.23635916
109	0xbdc365b4	-0.09540883
110	0xbec1b30c	-0.37831914
111	0xbe92da12	-0.28682
112	0x3e5ff148	0.21869385
113	0x3e6f6b0e	0.23380682
114	0x3e87f8af	0.26556918
115	0xbdab8c1d	-0.08376334
116	0xbe57c628	-0.21071684
117	0xbee40c52	-0.4454065
118	0xbe177ef7	-0.14794527
119	0x3dabf62f	0.08396565
120	0x3e8787d8	0.26470828
121	0x3e5143b4	0.20435983
122	0x3c228d93	0.009921449
123	0xbee62565	-0.44950405
124	0xbef6a779	-0.48174646
125	0xbe5ce74f	-0.21572612
126	0x3ddfaf7c	0.10922143
127	0xbe05a3dc	-0.13050789
128	0x3e692810	0.22769189
129	0x3eb64dc9	0.3560622
130	0x3d5fae87	0.0546098
131	0xbd95d845	-0.07316641
132	0xbeb3ca87	-0.35115454
133	0x3dd8db0b	0.10588654
134	0xbe96d16e	-0.29456657
135	0xbde43fdd	-0.111449935
136	0x3e7e7d8d	0.24852581
137	0x3ee2efe0	0.44323635
138	0x3d975e63	0.0739105
139	0xbec11b37	-0.37716076
140	0xbd8a40d9	-0.0675065
141	0x3ef90a1d	0.48640528
142	0xbe0de838	-0.13858116
143	0xbe04a799	-0.12954558
144	0xb921116c	-0.00015360647
145	0x3cff6bc4	0.031179316
146	0xbe759a33	-0.23984604
147	0xbdaa642c	-0.083198875
148	0x3d200e6a	0.039076246
149	0x3e46e4c9	0.19423212
150	0xbd7e28dc	-0.062050685
151	0xbe3663f4	-0.17811567
152	0x3d3526a3	0.0442263
153	0xbcea60cf	-0.028610615
154	0xbe28a5a4	-0.16469437
155	0x3cb25c4b	0.021772524
156	0xbe5f7715	-0.2182277
157	0x3d917601	0.071025856
158	0x3e7a7dd3	0.2446206
159	0xbd6375e9	-0.05553237
160	0xbe8dcdef	-0.27696177
161	0xbd2c2d6a	-0.042035498
162	0xbe105693	-0.14095525
163	0xbe400458	-0.18751657
164	0xbed3a85c	-0.41339386
165	0x3e9ffe13	0.3124853
166	0x3db57073	0.088593386
167	0x3e4f6b51	0.20255782
168	0x3d712a90	0.05887848
169	0x3f1d7b51	0.6151629
170	0x3f768e23	0.96310633
171	0xbedbf365	-0.42959133
172	0x3d220b75	0.039561708
173	0xbd5e6abe	-0.054301016
174	0x3ca5cd92	0.020239625
175	0xbe9f9971	-0.31171754
176	0x3dfaaf1f	0.12240433
177	0x3e2bb6d6	0.16768965
178	0x3db493f7	0.088172846
179	0x3ed98d68	0.42490697
180	0xbd910a00	-0.070819855
181	0xbebf62f3	-0.3738018
182	0x3d6118c2	0.05495525
183	0x3ddce6da	0.10786219
184	0x3dab49c0	0.08363676
185	0xbe891a73	-0.26777992
186	0xbc1cd66d	-0.009572607
187	0xbe546b57	-0.20744072
188	0xbea9c7e1	-0.33160308
189	0x3db6ba4b	0.08922251
190	0xbd68860c	-0.056768462
191	0x3e02cdc1	0.12773801
192	0x3e1554f2	0.14583185
193	0xbd9fcbc4	-0.07802537
194	0xbf0857e1	-0.5325909
195	0xbe3f1dad	-0.18663664
196	0xbe8e20ab	-0.277593
197	0xbe6dd040	-0.23223972
198	0x3e80801e	0.25097746
199	0x3d0e36b7	0.03472015
200	0x3e5bcd02	0.21464923
201	0x3eecc391	0.46242955
202	0x3ec60e5b	0.38682827
203	0xbebf91ab	-0.37415823
204	0xbf14bb72	-0.5809852
205	0xbe9526ee	-0.29131263
206	0x3ce131ed	0.027489627
207	0xbd0ddec9	-0.034636293
208	0x3e9dd85a	0.30829126
209	0xbdccad8b	-0.09994038
210	0x3e84ea2e	0.25959915
211	0x3d934738	0.07191318
212	0x3d1caaf6	0.03824898
213	0x3da0b4fe	0.078470215
214	0xbe97c999	-0.29645994
215	0xbc11c3d7	-0.0088967895
216	0xbd0fa776	-0.035071813
217	0x3d4a6073	0.049408387
218	0xbeb2024e	-0.34767383
219	0xbecaefd8	-0.3963611
220	0xbe942eb9	-0.28941897
221	0xbe60f44e	-0.21968195
222	0xbe6987bc	-0.22805685
223	0x3e914053	0.28369388
224	0xbe2ed193	-0.17072134
225	0x3d071440	0.032978296
226	0xbe9d7f52	-0.307612
227	0xbe1bd598	-0.15218198
228	0xbf37e6de	-0.7183665
229	0xbe0614b6	-0.13093838
230	0xbea503af	-0.32229373
231	0xbec1162f	-0.37712237
232	0xbee4c017	-0.44677803
233	0xb9f20254	-0.00046159572
234	0xbf6e7ac4	-0.93156075
235	0x3d0f901e	0.03504955
236	0xbe75c9a9	-0.24002708
237	0x3e0a7f67	0.13525163
238	0xbe12c19b	-0.14331667
239	0xbe8ed09b	-0.27893528
240	0xbdfd4bbd	-0.123679616
241	0xbde6447a	-0.112435296
242	0xbe098714	-0.13430434
243	0x3e3ae2b4	0.18250543
244	0xbe3a9b96	-0.18223414
245	0x3d74ad40	0.059735537
246	0x3dad4c9f	0.0846188
247	0x3e867c6c	0.262668
248	0xbe8f1c7f	-0.27951428
249	0x3c8da922	0.017292563
250	0x3dfbcdd2	0.122951165
251	0x3e1842cd	0.14869232
252	0x3ded0913	0.115739964
253	0x3ed4d800	0.41571045
254	0xbe81d160	-0.25355053
255	0x3e201706	0.15633783

bias f4 [200]
0	0x3dc162b9	0.09442658
1	0xbc95c752	-0.01828352
2	0x3e04ce80	0.12969398
3	0xbe290b24	-0.16508156
4	0xbe3c7b01	-0.18406297
5	0xbd21ec8f	-0.03953224
6	0xbea14584	-0.3149835
7	0xbea75cc1	-0.32687953
8	0xbe356ee6	-0.17718086
9	0x3cee344d	0.029077673
10	0xbd1d3528	-0.038380772
11	0xbe02dd65	-0.12779768
12	0x3e66d19c	0.22540897
13	0xbe0294fe	-0.12752149
14	0x3ea03780	0.31292343
15	0xbe3a3c94	-0.18187171
16	0xbeae2b92	-0.34017617
17	0x3e820c00	0.2539978
18	0xbdcdb121	-0.1004355
19	0xbe3103a1	-0.1728654
20	0x3e2f2003	0.17102055
21	0x3e0497c9	0.12948526
22	0xbebc26ff	-0.36748502
23	0xbd2096ca	-0.039206304
24	0xbe15d084	-0.14630324
25	0x3e0075c2	0.12544921
26	0x3d7d773b	0.061881285
27	0xbe35aa0c	-0.17740649
28	0xbdbaf5ef	-0.09128939
29	0x3db1b0f7	0.086763315
30	0xbb94d94d	-0.004542506
31	0xbea3bfff	-0.3198242
32	0x3d07202e	0.032989673
33	0xbe1cb04b	-0.15301625
34	0xbe7a8682	-0.24465373
35	0x3d0d78b9	0.03453896
36	0xbd02661d	-0.031835664
37	0x3d04c3c2	0.03241325
38	0x3ed8fc7d	0.42380133
39	0xbd7f151f	-0.062276002
40	0xbea48c2b	-0.3213819
41	0xbe94fc32	-0.2909866
42	0x3e713054	0.23553592
43	0xbd1b1925	-0.037865777
44	0x3ddeb081	0.10873509
45	0xbdc0e3be	-0.094184384
46	0xbec1e7bb	-0.3787211
47	0xbebd1bf1	-0.3693538
48	0xbe7711b3	-0.24127845
49	0x3d8e4fd1	0.069488175
50	0xbe68df79	-0.22741498
51	0xbe583b63	-0.21116404
52	0xbe69aaba	-0.22819033
53	0xbe791c4c	-0.243272
54	0xbe91cf29	-0.28478363
55	0xbe305b54	-0.17222339
56	0xbe87843c	-0.26468074
57	0xbe04fee6	-0.12987861
58	0x3e5a9fd8	0.21350038
59	0xbd81df60	-0.063414335
60	0xbede891a	-0.43463975
61	0xbdc852f4	-0.09781447
62	0xbc40c5c9	-0.011765906
63	0x3e5fd92c	0.21860188
64	0xbddf5432	-0.10904731
65	0xbdd79a90	-0.10527527
66	0x3d98fb03	0.07469752
67	0xbdf87d65	-0.12133292
68	0xbba8f4ba	-0.005156127
69	0xbe07ef9d	-0.13274999
70	0xbc02da6b	-0.007986645
71	0xbd5d7703	-0.054068577
72	0x3c120494	0.008912224
73	0xbe0ea52b	-0.13930194
74	0xbe15303d	-0.14569183
75	0x3d7825d9	0.06058297
76	0x3e129052	0.14312866
77	0xbd5e49aa	-0.05426947
78	0x3d893006	0.06698613
79	0x3e9f361d	0.31095973
80	0x3df8a1df	0.121402495
81	0x3dd716bf	0.10502385
82	0xbe21dcc5	-0.15806873
83	0x3db67512	0.08909048
84	0x3e97ea77	0.2967107
85	0xbd946753	-0.0724627
86	0xbe621c22	-0.22081044
87	0x3acb285f	0.0015499702
88	0xbed4f843	-0.4159566
89	0x3e08b2ac	0.13349408
90	0xbcad0082	-0.021118406
91	0x3d902355	0.07037989
92	0x3e981ee0	0.29711056
93	0xbe588f16	-0.21148333
94	0x3e3164d4	0.17323619
95	0x3ce67574	0.028132178
96	0x3c972327	0.01844938
97	0xbd032722	-0.03201974
98	0x3e8111b7	0.25208828
99	0xbd59200d	-0.05300908
100	0xbe8e9627	-0.27848932
101	0xbdd07b89	-0.101798125
102	0x3e9d5514	0.30728972
103	0xbec3b4b5	-0.38223806
104	0xbe6f182b	-0.23349063
105	0xbe8bf87d	-0.2733802
106	0x3ddac0ac	0.106812805
107	0x3e7e87ec	0.24856538
108	0x3e016a03	0.12638097
109	0x3e93f1bf	0.28895375
110	0x3cdf3339	0.027246105
111	0x3e5eab81	0.21745111
112	0x3d3efd92	0.046628542
113	0xbe2283c5	-0.15870579
114	0xbdd31c05	-0.10308079
115	0xbe28a5b8	-0.16469467
116	0x3d108ace	0.035288624
117	0xbc66e80b	-0.014093409
118	0x3cfea099	0.031082438
119	0xbe7768bd	-0.24161048
120	0x3e78933e	0.24274918
121	0xbcf99877	-0.030468209
122	0xbe9505d0	-0.29105997
123	0xbd5a193f	-0.053246733
124	0xbe0caa48	-0.13736832
125	0xbd9cc44e	-0.0765463
126	0x3dcb5a68	0.09929353
127	0xbdcefe49	-0.10107095
128	0xbe2262dc	-0.15858024
129	0xbe232bfe	-0.1593475
130	0x3d32e808	0.043678313
131	0x3da465ce	0.0802723
132	0xbeacf035	-0.33777013
133	0xbe0b2a79	-0.13590421
134	0xbdd97b58	-0.10619229
135	0xbdea9b41	-0.114553936
136	0x3e849a9f	0.25899217
137	0x3e374954	0.17899066
138	0x3e07ce48	0.13262284
139	0xbd52a579	-0.05142734
140	0xbd061b16	-0.032740675
141	0xbe58c56b	-0.21169059
142	0x3e957252	0.29188782
143	0x3d103918	0.0352107
144	0xbdc9d402	-0.098548904
145	0x3e14a1cd	0.14514847
146	0xbe9bbf51	-0.304194
147	0xbe3a9350	-0.18220258
148	0xbd7ff4ee	-0.062489443
149	0xbe572a2d	-0.21012183
150	0xbeeea9f0	-0.46614027
151	0xbe0e1526	-0.13875255
152	0x3e4d8e30	0.20073771
153	0xbeabbb48	-0.33541322
154	0xbe160559	-0.14650477
155	0x3e45901f	0.19293259
156	0x3e18f47d	0.14937015
157	0xbae2544e	-0.0017267556
158	0xbd28bc44	-0.04119517
159	0xbe63a9ca	-0.22232738
160	0xbe120178	-0.14258373
161	0xbc0f5f54	-0.008750755
162	0x3dca7433	0.098854445
163	0x3d037db8	0.032102317
164	0x3e5f29be	0.21793267
165	0x3e6db268	0.23212588
166	0x3e77e4a1	0.24208309
167	0x3c900bae	0.017583694
168	0xbe398c70	-0.18119979
169	0xbdf3222c	-0.11871752
170	0x3e1683a1	0.1469865
171	0x3d553398	0.052051157
172	0x3cfd70c2	0.030937556
173	0xbdbd7758	-0.09251279
174	0x3c5256c2	0.0128380675
175	0xbe7d254b	-0.24721257
176	0x3d253524	0.040333882
177	0xbe7bbbde	-0.24583384
178	0xbdfa6d56	-0.122278854
179	0xbe2cd998	-0.1687988
180	0x3bdc5c71	0.006724887
181	0x3cb72bad	0.022359693
182	0xbb73dae5	-0.0037209329
183	0xbdbcb4f7	-0.09214204
184	0x3e56bfbc	0.20971578
185	0xbe3e0c63	-0.18559413
186	0x3e3f9850	0.18710446
187	0x3e008e0f	0.12554191
188	0x3d41b785	0.04729416
189	0xbe7bd2e7	-0.24592172
190	0x3dc05080	0.09390354
191	0x3e2cf690	0.16890931
192	0x3dd12b75	0.10213367
193	0xbe68b51c	-0.22725338
194	0x3e10471d	0.14089628
195	0x3cc7db5b	0.024396589
196	0x3d0d2cdf	0.03446662
197	0xbde3d640	-0.11124849
198	0xbe264584	-0.16237456
199	0x3d49848e	0.04919868

weight f4 [200, 200]
0	0x3c59eeac	0.013301533
1	0x3e227a1f	0.15866898
2	0x3da7814c	0.08178958
3	0xbd9fa334	-0.077948004
4	0x3daf8d17	0.085718326
5	0xbb5a6440	-0.0033323914
6	0xbe01d751	-0.12679793
7	0x3d25a2df	0.04043853
8	0xbe374edc	-0.17901176
9	0xbd53dac9	-0.05172232
10	0x3dbf9829	0.09355194
11	0xbd836805	-0.064163245
12	0x3d6a6d08	0.057232887
13	0x3d646381	0.055758957
14	0xbcf97fb3	-0.0304564
15	0xbd82ca77	-0.06386273
16	0xbd47e2d8	-0.04880032
17	0x3dc1a241	0.094547756
18	0x3cd14891	0.025547298
19	0xbe2991a5	-0.16559465
20	0x3e5e6ada	0.21720448
21	0x3d4cb82b	0.049980324
22	0x3db2b603	0.08726122
23	0x3d4928b2	0.049111076
24	0x3dda7116	0.10666101
25	0x3d83c869	0.064347096
26	0xbd88f4af	-0.06687295
27	0xbd1b355d	-0.037892688
28	0x3d468d64	0.048474684
29	0xbdcea534	-0.10090104
30	0xbcb9d711	-0.02268556
31	0xbd418e0e	-0.047254615
32	0xbce0a047	-0.027420176
33	0xbddf8a35	-0.10915033
34	0x3dc210de	0.094758734
35	0x3e1557e0	0.14584303
36	0x3d9d456e	0.07679258
37	0x3d97b752	0.074080124
38	0xbce2b55c	-0.02767437
39	0xbe01ac14	-0.12663299
40	0xbe3632f9	-0.17792882
41	0xbd67730c	-0.0565062
42	0x3e1ed90c	0.15512484
43	0x3c8d0960	0.017216384
44	0x3cb5cff6	0.02219389
45	0xbddaa959	-0.10676832
46	0xbb8a1804	-0.0042142887
47	0x3cd05148	0.025429383
48	0xbe425909	-0.18979277
49	0xbe2c8ce6	-0.16850623
50	0xbdd447dd	-0.10365269
51	0x3d6ba1dd	0.05752741
52	0xbaaff81e	-0.0013425385
53	0x3dbd89b4	0.092547804
54	0x3c16e555	0.00920995
55	0x3c85ca19	0.01633172
56	0x3cb972d1	0.022637757
57	0xbe52958a	-0.20564857
58	0x3d16de10	0.03683287
59	0xbdb4bb2b	-0.08824762
60	0xbc21fa95	-0.009886404
61	0xbe25c149	-0.16187014
62	0xbd3c6570	-0.045995176
63	0x3d05ea81	0.032694343
64	0xbd91898b	-0.07106312
65	0x3ca7a62d	0.020464981
66	0xbdad360b	-0.084575735
67	0x3d66120c	0.056169555
68	0xbe115ffc	-0.14196771
69	0xbd10ac76	-0.03532072
70	0xbdd2256c	-0.10261044
71	0xbe87c852	-0.2652002
72	0xbd21d9cf	-0.03951436
73	0x3d806709	0.062696524
74	0xbd0200cc	-0.03173904
75	0x3cc4316f	0.023949353
76	0x3cac90a8	0.021065071
77	0xbd37dde5	-0.04488935
78	0x3d9535f3	0.072856806
79	0xbc950a44	-0.018193372
80	0x3d1276d5	0.03575786
81	0x3c279f03	0.010230782
82	0xbd4e0358	-0.050296158
83	0xbdd7b0c0	-0.10531759
84	0xbd11a0dd	-0.0355538
85	0xbd70e560	-0.0588125
86	0xbd86758d	-0.0656539
87	0xbc7b4a56	-0.015337547
88	0xbe12de54	-0.14342624
89	0xbd24d75f	-0.040244456
90	0x3d2af4b0	0.04173726
91	0xbeb73398	-0.3578155
92	0xbe53a5f7	-0.2066878
93	0xbdca43ed	-0.09876237
94	0xbe6d1fba	-0.23156634
95	0x3e9e7ee3	0.30956182
96	0xbcee5864	-0.029094882
97	0xbc487e3d	-0.012237129
98	0xbdbc9eee	-0.09210001
99	0xbdcd7c2c	-0.100334495
100	0x3d8a4ffb	0.06753536
101	0xbe37c6d0	-0.17946935
102	0xbd7c00ce	-0.061524205
103	0xbd0186b6	-0.03162261
104	0xbd81b50f	-0.06333362
105	0x3ccf420c	0.025300048
106	0xbdc5e94d	-0.09663639
107	0xbd2ca694	-0.04215105
108	0xbdc8fa24	-0.098133355
109	0xbde5b262	-0.112156644
110	0x3d5c601a	0.053802587
111	0xbdc09b6d	-0.09404645
112	0xbc82b540	-0.015955567
113	0xbdb024fe	-0.08600806
114	0xbd6ac52f	-0.057316955
115	0x3d629555	0.055318195
116	0x3dd10969	0.10206873
117	0xbdda3a32	-0.10655631
118	0x3d9e65d6	0.077342674
119	0x3db7cafc	0.08974263
120	0x3d6455e2	0.055745967
121	0xbd84e259	-0.06488485
122	0xbcb39ba6	-0.021924805
123	0x3e052511	0.13002421
124	0x3d9c35b5	0.07627431
125	0x3c82eca2	0.015981976
126	0xbd45427a	-0.0481591
127	0x3dc729c7	0.09724765
128	0x3cde84bc	0.027162902
129	0x3e281e45	0.16417797
130	0xbd6b4b82	-0.057445057
131	0xbbb34950	-0.005471386
132	0x3d7d8986	0.06189873
133	0xbca55818	-0.020183608
134	0x3c022eba	0.007945711
135	0x3d3e4f8a	0.046462573
136	0xbdfff800	-0.12498474
137	0xbdc75dba	-0.09734674
138	0xbde02c7b	-0.10945984
139	0xbb3006fa	-0.0026859627
140	0xbe5cf2a4	-0.21576935
141	0xbd57bdde	-0.052671306
142	0x3d831946	0.06401305
143	0xbd612eaa	-0.054976143
144	0xbd26bd83	-0.040708076
145	0x3dd75981	0.105151184
146	0xbcc7a97b	-0.024372807
147	0x3e1cec11	0.15324427
148	0x3e3262e4	0.17420536
149	0xbd789016	-0.060684286
150	0xbd9d9141	-0.076937206
151	0x3d520a13	0.05127914
152	0xbe202eac	-0.15642804
153	0xbda5faa7	-0.08104449
154	0xbc17b571	-0.009259568
155	0xbe73bae8	-0.23801768
156	0xbd5a17b3	-0.053245258
157	0x3d60c021	0.05487073
158	0x3bdc6959	0.0067264256
159	0xbc93e60d	-0.018054033
160	0xbd976ace	-0.07393418
161	0xbd6104e5	-0.05493631
162	0x3d22877c	0.03967999
163	0x3d5b3645	0.053518552
164	0xbd7370c6	-0.05943372
165	0xbd0fcb1b	-0.035105806
166	0x3bcfbf08	0.0063399114
167	0xbd6f9c48	-0.05849865
168	0xbe309305	-0.17243584
169	0x3e40a795	0.18813927
170	0x3c886ab4	0.016652443
171	0x3d1a5a17	0.037683573
172	0xbc052fea	-0.008129099
173	0x3db62016	0.08892839
174	0x3e07b5a1	0.1325288
175	0x3e8590ba	0.2608698
176	0xbd1475f2	-0.036245294
177	0x3aa30f70	0.0012440514
178	0x3d86bf59	0.065794654
179	0x3d6cfba3	0.057857167
180	0x3d69d02e	0.0570833
181	0xbdacdf27	-0.084410004
182	0x3c9ad8c2	0.018902186
183	0x3c93c035	0.018035987
184	0xbe32d13d	-0.1746263
185	0x3e708f27	0.23492108
186	0xbca6e057	-0.020370645
187	0xbd9d9e44	-0.076962024
188	0x3def252e	0.11677013
189	0x3d185ec8	0.037199765
190	0xbd59bab6	-0.053156577
191	0xbdb4ca3d	-0.088276364
192	0x3c9de457	0.01927392
193	0x3d29d7f2	0.041465707
194	0xbe0e9bf7	-0.13926683
195	0xbdce8357	-0.10083645
196	0xbed22c32	-0.41049343
197	0xbce7dd58	-0.028303787
198	0x3c035b30	0.008017346
199	0xbdb1fc63	-0.08690717
200	0xbd93f547	-0.07224517
201	0xbcbd4e0a	-0.023108501
202	0xbd68fe2a	-0.056883015
203	0x3bed7e4c	0.007247722
204	0xbd947e41	-0.072506435
205	0x3c458b4c	0.012057137
206	0x3d256434	0.040378764
207	0x3ce69f4b	0.028152129
208	0x3c95141d	0.018198067
209	0xbcc4c6b9	-0.02402054
210	0xbd98b35c	-0.07456085
211	0xbd068a95	-0.032847006
212	0xbd407362	-0.046985038
213	0xbd722232	-0.059114642
214	0xbb5058c9	-0.0031791201
215	0x3ad01c0b	0.0015877498
216	0xbd584cfa	-0.052807786
217	0x3cbaf73f	0.022822974
218	0x3c31644e	0.010827137
219	0xbd4f4b9e	-0.050609224
220	0xbcc093ae	-0.02350792
221	0xbaf55a57	-0.001871894
222	0x3d2460c9	0.040131364
223	0xbd80cc4f	-0.06288969
224	0xbcc0ee93	-0.023551261
225	0xbb392121	-0.0028248506
226	0xbdb52371	-0.088446505
227	0xbd782314	-0.060580328
228	0xbd5ba0de	-0.05362021
229	0x3d762c5d	0.060100902
230	0x3cd9b040	0.0265733
231	0x3d1a1b00	0.037623405
232	0x3cdf94a0	0.02729255
233	0xbd5ce9b8	-0.05393383
234	0xb9049faa	-0.0001264798
235	0xbd460206	-0.048341773
236	0x3d30d468	0.043171316
237	0x3cc57bb7	0.024106843
238	0x3bd8bb6b	0.006614139
239	0xbda5dcff	-0.08098792
240	0x3c1669c3	0.009180489
241	0xbd8eae7f	-0.06966876
242	0xbdce387b	-0.100693665
243	0x3d03777b	0.032096367
244	0xbd9b80c3	-0.07592919
245	0x3d56bf94	0.052428797
246	0x3cc5342a	0.024072725
247	0xbb44f739	-0.0030054583
248	0xbde10462	-0.10987164
249	0xbda16751	-0.07881034
250	0xbd85e2c5	-0.065373935
251	0x3ca79ea3	0.020461386
252	0xbd2f8052	-0.042846985
253	0xbaa16b0a	-0.0012315225
254	0x3d222b10	0.03959185
255	0xbc0f7182	-0.00875509

bias f4 [200]
0	0xbdb99cf3	-0.09063139
1	0xbdb72266	-0.08942108
2	0xbe2019fa	-0.1563491
3	0xbd26eb32	-0.040751643
4	0xbcfa3d70	-0.030546874
5	0xbca1f806	-0.019771587
6	0xbe9ef8fa	-0.3104933
7	0x3cac0a5b	0.021001032
8	0xbab79c01	-0.0014008285
9	0xbd87e807	-0.066360526
10	0x3d9f53c0	0.07779646
11	0xbdfcdc86	-0.12346749
12	0xbcff2b3f	-0.031148551
13	0x3cdc7a7a	0.02691387
14	0xbdb9c199	-0.09070129
15	0xbdb449d6	-0.088031456
16	0x3dc44bc2	0.09584762
17	0x3ca90192	0.020630632
18	0xbe043804	-0.12911993
19	0xbd886761	-0.06660343
20	0xbdd90e65	-0.10598449
21	0xbe05f9a8	-0.13083518
22	0xbd1141cc	-0.03546314
23	0xbd8289ee	-0.06373964
24	0xbcc3017f	-0.023804424
25	0xbca7995f	-0.020458875
26	0xbdbaeffd	-0.091278054
27	0x3cd696e2	0.026194993
28	0xbc3ab6a7	-0.011396087
29	0xbe196c1d	-0.14982648
30	0xbdc0b629	-0.09409744
31	0xbd74b735	-0.059745032
32	0xbd0cdb0b	-0.034388583
33	0x3c9fb8a8	0.01949723
34	0x3cc51ba5	0.024061034
35	0xbdc9373d	-0.09824989
36	0xbcfbf7a5	-0.030757735
37	0x3df0a4f2	0.11750211
38	0xbd57d9c2	-0.052697904
39	0xbdc87cc5	-0.09789423
40	0xbde1f601	-0.1103325
41	0x3dbcd335	0.09219972
42	0xbe98d895	-0.2985274
43	0x3d014a1f	0.031564828
44	0xbd8b743b	-0.068092786
45	0xbcbb4e92	-0.022864614
46	0xbd8f966f	-0.07011115
47	0xbd51262b	-0.05106179
48	0xbe07c635	-0.13259204
49	0x3d75429f	0.059877988
50	0xbdf5a856	-0.11994998
51	0xbdd54dc7	-0.104152255
52	0xbd194a79	-0.03742454
53	0xbd6b833b	-0.057498198
54	0xbb1a1dfd	-0.002351641
55	0xbd9fee5f	-0.078091376
56	0xbddb0cee	-0.106958255
57	0xbd6b86cd	-0.057501603
58	0xbd55d353	-0.052203488
59	0x3d935b80	0.071951866
60	0xbd185560	-0.037190795
61	0x3d59b4d6	0.053150974
62	0xbe26cbb9	-0.16288652
63	0xbe087884	-0.13327223
64	0xbde68d7f	-0.11257457
65	0xbcee1ed2	-0.02906743
66	0xbdb390f9	-0.08767886
67	0xbdbaa423	-0.09113338
68	0xbdaa0686	-0.083020255
69	0xbda1aa09	-0.0789376
70	0xbda510cb	-0.08059844
71	0x3abac5a8	0.001424958
72	0xbcd6fb26	-0.026242804
73	0xbdb98b93	-0.09059825
74	0xbd7cda36	-0.06173154
75	0xbcf3e6c5	-0.029773125
76	0xbc94451c	-0.01809936
77	0xbd3a28d6	-0.0454491
78	0xbe1ec6e5	-0.1550556
79	0xbeaf15fc	-0.3419646
80	0xbdda4262	-0.10657193
81	0xbde8b11c	-0.11361906
82	0xbd647ad0	-0.055781186
83	0xbddfa25c	-0.109196395
84	0x3d1ac496	0.037785135
85	0x3da7b55f	0.08188891
86	0x3cb478c5	0.022030244
87	0xbe19d9b4	-0.15024453
88	0xbd1fe5d3	-0.039037537
89	0xbdd63a42	-0.104603305
90	0xbd82c9d0	-0.06386149
91	0xbe9df7e4	-0.30853188
92	0xbe6adf76	-0.22936806
93	0xbc223ba9	-0.009901919
94	0xbd15abb0	-0.036540687
95	0xbde795f7	-0.113079004
96	0xbe3a8bc9	-0.18217386
97	0xbc410f0b	-0.011783372
98	0xbce7ec33	-0.02831087
99	0xbdc0478d	-0.09388647
100	0x3ce47f0d	0.027892614
101	0xbd6c587d	-0.057701577
102	0x3de755ba	0.11295648
103	0xbda67e60	-0.08129573
104	0xbcd74490	-0.02627781
105	0x3d732824	0.059364453
106	0xbce577e2	-0.028011266
107	0xbcea9ea1	-0.028640093
108	0xbd831382	-0.06400205
109	0xbde84376	-0.11340992
110	0xbcd0a4e2	-0.025469247
111	0xbe25cfc7	-0.16192542
112	0xbb9baf98	-0.004751157
113	0xbdbb0d09	-0.09133346
114	0xbd93244d	-0.07184658
115	0xbe00ce0b	-0.12578599
116	0xbd85f45c	-0.065407485
117	0xbd651051	-0.055923764
118	0xbe41a8f1	-0.18912102
119	0xbd0275a4	-0.031850472
120	0xbdd6702f	-0.10470616
121	0xbdc27e48	-0.094967425
122	0xbd008b53	-0.03138287
123	0xbe192b41	-0.14957906
124	0xbe232a8b	-0.15934198
125	0xbe5628e6	-0.20914039
126	0xbd7909ba	-0.06080029
127	0xbda4f4f6	-0.08054535
128	0xbdd1122d	-0.10208545
129	0xbd32a910	-0.04361826
130	0xbe121eae	-0.14269516
131	0xbe20d300	-0.1570549
132	0xbd6daf66	-0.0580286
133	0xbde85ee5	-0.11346225
134	0xbd35bb81	-0.04436827
135	0xbe231981	-0.15927698
136	0xbd8ddd55	-0.06926981
137	0xbd3de1ca	-0.046357907
138	0xbdaa4279	-0.0831346
139	0x3c8af289	0.016961353
140	0xbd93cd63	-0.07216909
141	0xbe386e1a	-0.1801075
142	0xbd179148	-0.037003785
143	0x3db943ab	0.0904611
144	0xb997388b	-0.00028843092
145	0xbdd90a6b	-0.1059769
146	0xbe4bbe37	-0.1989678
147	0x3c5e1a66	0.013556099
148	0xbcb8445a	-0.02249353
149	0xbd212cc7	-0.039349344
150	0x3dfa8838	0.12233013
151	0xbd01987f	-0.031639572
152	0x3dfe0ee0	0.12405181
153	0xbd9c14bd	-0.07621143
154	0xbe2b2a28	-0.167153
155	0xbc29cf55	-0.010364373
156	0xbddd43c5	-0.10803942
157	0xbcbe658a	-0.023241777
158	0x3da26008	0.07928473
159	0x3b7fc522	0.0039027412
160	0x3af27bc3	0.0018500019
161	0xbe20d925	-0.15707834
162	0x3c9ed669	0.019389348
163	0x3c4b2626	0.012399232
164	0x3db7ab32	0.089682
165	0x3e2585f6	0.16164383
166	0x3d2e1509	0.04250053
167	0xbdca541f	-0.09879326
168	0xbd8c8114	-0.06860557
169	0xbdf290b6	-0.11844008
170	0xbe12ddb3	-0.14342384
171	0xbd6e45ce	-0.05817204
172	0xbe79892b	-0.24368732
173	0x3b99eb05	0.004697206
174	0xbe55d1e7	-0.20880853
175	0xbd1e01f3	-0.038576078
176	0x3de3df76	0.11126606
177	0x3cce0dae	0.025153007
178	0xbd2ea308	-0.042635947
179	0xbc9518b2	-0.018200252
180	0xbe1222ad	-0.1427104
181	0xbccde2f8	-0.025132641
182	0x3c3893b2	0.011265682
183	0xbdba2b3b	-0.09090277
184	0x3e058ef0	0.13042808
185	0xbe4ca73a	-0.19985667
186	0xbdd34817	-0.103164844
187	0x3e35e43d	0.17762847
188	0xbdaeb3a9	-0.08530361
189	0x3cf5047f	0.02990937
190	0xbd0a5ad9	-0.033778045
191	0x3d2dd01b	0.042434793
192	0xbc6cec9c	-0.014460709
193	0x3e0ec2ca	0.13941494
194	0x3cbfd011	0.023414643
195	0xbdb93093	-0.09042468
196	0xbd1ecf33	-0.03877182
197	0xbd24fe1a	-0.040281393
198	0xbd8c552d	-0.068521835
199	0x3dc381b0	0.0954622

weight f4 [2, 200]
0	0x3c93df4f	0.018050818
1	0x3c765ba7	0.0150365
2	0xbdaae21e	-0.0834391
3	0xbc61c1eb	-0.013779144
4	0xbcfd1e37	-0.030898197
5	0xb9a78a29	-0.0003195566
6	0xbd997d31	-0.074945815
7	0xbc75280c	-0.014963161
8	0xbbd5ff5e	-0.0065306863
9	0x3c80338e	0.015649583
10	0xbe59762e	-0.21236488
11	0xbd706912	-0.058693953
12	0xbcd8b44b	-0.026453158
13	0x3ef4482a	0.47711307
14	0xbd5e4985	-0.054269332
15	0x3d17597b	0.03695057
16	0xbdeee779	-0.11665244
17	0x3ca3c599	0.019991683
18	0xbefccb3a	-0.493738
19	0x3f507337	0.81425804
20	0xbcfae65e	-0.030627426
21	0xbf0bd4b3	-0.5462143
22	0xbd1f2643	-0.03885485
23	0x3db611db	0.088901244
24	0x3d5965a4	0.053075448
25	0xbc09cffb	-0.008411403
26	0xbdd5ffa8	-0.10449153
27	0x3d7ccbf8	0.061717957
28	0xbbdeb640	-0.0067966282
29	0xbbf0b26b	-0.007345488
30	0xbdf5f0c2	-0.120088115
31	0xbd03f664	-0.0322174
32	0xbd48dd5d	-0.049039233
33	0x3bdc78f4	0.006728286
34	0x3b1fb20d	0.00243676
35	0xbc7f9de2	-0.015601607
36	0x3ca2bc9b	0.019865325
37	0x3da7801a	0.0817873
38	0xbd287432	-0.041126437
39	0xbcd2da2f	-0.025738804
40	0x3ec6e3f5	0.38845792
41	0xbef48b30	-0.47762442
42	0x3ebdbb42	0.3705693
43	0x3e953d03	0.2914811
44	0x3c8294a9	0.015940027
45	0xbf1183ce	-0.56841743
46	0xbcb27fb1	-0.021789404
47	0xbc9ad91e	-0.018902358
48	0x3d985882	0.074387565
49	0xbd843b03	-0.06456568
50	0xbc9deb77	-0.019277317
51	0xbbb2cae6	-0.0054563163
52	0x3e3be47c	0.18348879
53	0xbb814a54	-0.003945628
54	0xbc863450	-0.016382366
55	0x3e71bd9b	0.23607485
56	0xbc614c3b	-0.013751085
57	0xbc6f36c6	-0.014600461
58	0xbe87e5be	-0.26542467
59	0x3dee59da	0.116382316
60	0x3d7b01f9	0.06128118
61	0x3d45e473	0.04831357
62	0x3c808c95	0.015692035
63	0x3d4df720	0.050284505
64	0x3b8f68e0	0.0043765157
65	0xbcc2351a	-0.023706961
66	0x3ef875ee	0.48527473
67	0x3c384b3e	0.011248408
68	0xbdef2413	-0.116768025
69	0x3d818fdc	0.06326267
70	0x3d700e51	0.058607403
71	0xbc5dbe8f	-0.013534202
72	0xbbee32b7	-0.0072692293
73	0x3f2b563c	0.6692846
74	0xbd1e8630	-0.03870219
75	0xbd84cc97	-0.06484335
76	0x3cff116b	0.031136235
77	0x3ca056eb	0.019572696
78	0xbec3656a	-0.3816331
79	0xbf5f8e03	-0.8732607
80	0xbd248e00	-0.040174484
81	0xbddf1c98	-0.10894126
82	0xbc3e4b64	-0.011614654
83	0x3c56eb2a	0.013117591
84	0x3caf2442	0.021379594
85	0x3e072f2d	0.1320159
86	0x3e28a95c	0.16470855
87	0xbba7e3a7	-0.005123574
88	0xbc1b9790	-0.009496585
89	0xbd0b2d5c	-0.033978805
90	0xbf465060	-0.7746639
91	0xbf33b819	-0.70202786
92	0x3f2dfff8	0.679687
93	0xbbecf815	-0.007231722
94	0x3cc055e5	0.023478458
95	0x3c8a1d38	0.016859636
96	0xbd3bbbc6	-0.04583337
97	0xbe29bac5	-0.16575153
98	0x3cd209bd	0.02563941
99	0x3bff7b64	0.0077966917
100	0x3dd2f8ce	0.10301362
101	0xbb9b051a	-0.0047308328
102	0x3f028c5b	0.50995415
103	0xbd076bd5	-0.03306182
104	0x3c868d70	0.016424865
105	0xbea69f00	-0.32543182
106	0xbca8a258	-0.020585224
107	0x3db6717a	0.08908363
108	0xbc8fd797	-0.017558856
109	0xbd5ac376	-0.053409062
110	0xbcf680b6	-0.030090671
111	0xbe22cff6	-0.15899643
112	0x3ea27553	0.31730136
113	0xbd23b4ac	-0.039967224
114	0x3c3da728	0.011575498
115	0x3daf8061	0.08569408
116	0xbd76e309	-0.06027511
117	0x3d16cd9e	0.036817186
118	0x3ebb23d4	0.36550772
119	0xbcaa7a17	-0.02081017
120	0xbc09ff08	-0.008422621
121	0xbd9d9587	-0.07694536
122	0x3c423754	0.011854012
123	0x3f098249	0.53714424
124	0x3ee50396	0.44729298
125	0x3d086d04	0.03330709
126	0xba7696b4	-0.0009406612
127	0xbcb43c6b	-0.022001466
128	0x3ba5a070	0.005054526
129	0x3d04298c	0.032266185
130	0x3fbafbaa	1.4608052
131	0x3ea44aaa	0.32088214
132	0x3d3f5a5b	0.04671703
133	0xbd2433f0	-0.040088594
134	0xbc91809e	-0.017761525
135	0xbd7a3bb5	-0.061092097
136	0xbc8f9430	-0.017526716
137	0x3a58f381	0.0008276031
138	0x3ec82fe3	0.39099035
139	0x3a8d0eba	0.0010761835
140	0xbc77fea6	-0.0151363965
141	0x3e1bad96	0.15202937
142	0x3ce2597c	0.02763056
143	0xbefc0df8	-0.49229407
144	0x3c1936f3	0.00935148
145	0x3dd935a9	0.10605938
146	0x3f070abd	0.5275076
147	0xbe8ae8df	-0.27130792
148	0x3c484604	0.012223724
149	0x3c2c5fca	0.010520885
150	0x3e9b04f2	0.3027721
151	0x3c91703b	0.017753711
152	0x3f8e8254	1.1133523
153	0x3c8a7bff	0.01690483
154	0xbf615ec6	-0.8803524
155	0x3d6ffbbb	0.05858968
156	0xbfcf1dd5	-1.6180979
157	0xbcb334e4	-0.021875806
158	0xbf09a819	-0.5377212
159	0x3bfa2026	0.007633227
160	0xbc824fed	-0.015907252
161	0xbdfb584d	-0.122727014
162	0xbced7ff3	-0.028991675
163	0xbcc4fbe9	-0.024045901
164	0x3f9eceb0	1.2406826
165	0x3d090d07	0.03345969
166	0xbed5d0b8	-0.41760802
167	0xbbc087b4	-0.005875552
168	0x3cc5e11b	0.02415519
169	0x3d136821	0.035987977
170	0xc0275a7d	-2.614898
171	0xbdad2199	-0.08453674
172	0xbe208165	-0.1567436
173	0x3d013a81	0.031549934
174	0xbe4f219b	-0.20227663
175	0x3e726122	0.23669866
176	0xbe61ab20	-0.22037935
177	0xbf6520c8	-0.89503145
178	0xbd6ffc5c	-0.058590278
179	0x3afc17a8	0.0019233124
180	0x3d02bc94	0.031918123
181	0xbc81b4e3	-0.015833324
182	0x3cf89b62	0.03034753
183	0xbcee5803	-0.029094702
184	0x3e775dc9	0.2415687
185	0xbe45cec2	-0.19317153
186	0x3cd5831a	0.02606349
187	0x3f174310	0.59086704
188	0x3c38eb49	0.011286565
189	0x3cfdb1fe	0.030968662
190	0xbe091b98	-0.13389432
191	0x3d2860ef	0.041108068
192	0xbe242e6b	-0.16033332
193	0x3c1e9142	0.009678187
194	0xbcdce23c	-0.026963346
195	0xbb986d1d	-0.004651679
196	0x3d0878e9	0.033318434
197	0x3e0231f0	0.12714362
198	0x3b2a3ff6	0.0025978065
199	0x3e5d40bd	0.21606727
200	0xbd18693d	-0.037209738
201	0x3d2006fa	0.039069153
202	0x3c433e79	0.01191675
203	0xbbe72802	-0.00705433
204	0xbc6b6277	-0.014366738
205	0x3d0feff0	0.03514093
206	0x3ed3cbdc	0.4136647
207	0x3c539b39	0.012915426
208	0xbd19e348	-0.037570268
209	0xbd88de7f	-0.06683063
210	0x3f06dee1	0.52683836
211	0x3f85eb1a	1.0462372
212	0x3ced83ad	0.028993452
213	0x3f50e3f5	0.81597835
214	0xbceac24d	-0.028657103
215	0xbd83e25f	-0.06439661
216	0xbdd31f7e	-0.10308741
217	0x3b9c4a5d	0.004769607
218	0xbe100e89	-0.14068045
219	0x3e083219	0.1330036
220	0xbb0af035	-0.0021200303
221	0xbd17424c	-0.03692846
222	0xbe29976b	-0.16561668
223	0xbdb2d835	-0.087326445
224	0xbf394b5b	-0.7238061
225	0x3c49e8cb	0.012323569
226	0x3f2448b8	0.6417346
227	0xbbea2ffe	-0.0071468344
228	0xbde59daa	-0.11211713
229	0x3eb6dae5	0.35713878
230	0x3d125d09	0.035733256
231	0x3c9d0785	0.019168625
232	0xbcd2ea96	-0.025746625
233	0x3d16bab7	0.03679916
234	0x3ca6e821	0.02037436
235	0xbcf82126	-0.030289244
236	0xbc6168ec	-0.0137579255
237	0xbe0c63fc	-0.13710016
238	0xbd1044ad	-0.035221744
239	0x3cf95d2c	0.030439936
240	0x3f80d770	1.0065746
241	0x3da2298f	0.07918083
242	0x3f7da2d5	0.99076587
243	0xbe39e990	-0.18155503
244	0x3e47a47f	0.19496344
245	0x3dbd9e49	0.09258706
246	0x3b7cb560	0.0038560256
247	0x3d12b4d0	0.035816967
248	0xbe2b3fb3	-0.16723518
249	0xbf83365c	-1.0250964
250	0xbe23a90b	-0.15982454
251	0xbdbc6325	-0.09198598
252	0xbe59777d	-0.21236987
253	0xbd368e69	-0.044569407
254	0xbd4f5e46	-0.050627016
255	0xbecda4d6	-0.40164822

bias f4 [2]
0	0x3d957a97	0.07298773
1	0x3d9729d3	0.07381024
