Vehicles/GenDisV_0_08_0/GenDisV_0_08_0_critic.pth (torch, 353428 bytes, 10 tensors)

weight f4 [200, 15]
0	0xbe521d31	-0.20518948
1	0x3ece04ff	0.40238187
2	0x3ec9bada	0.3940037
3	0xbd9d36cf	-0.076764695
4	0xbd67cf5c	-0.056594238
5	0xbe334b44	-0.1750918
6	0x3ef762bb	0.48317513
7	0xbeb7d136	-0.35901803
8	0xbc1a779e	-0.009427933
9	0x3dd14b6a	0.10219462
10	0xbee157bd	-0.44012251
11	0xbd76e097	-0.06027278
12	0xbe5a7821	-0.21334888
13	0xbe5cd337	-0.21564947
14	0xbd6bdb84	-0.057582393
15	0x3ec34391	0.38137487
16	0xbc55bcf8	-0.013045542
17	0xbf43ba1c	-0.76455855
18	0xbf51bbdf	-0.81927294
19	0xbe6f559a	-0.23372498
20	0xbefaf3d8	-0.49014163
21	0x3d84d6df	0.06486296
22	0x3e922a0b	0.285477
23	0x3e0a7cef	0.13524221
24	0x3e40ba10	0.18820977
25	0x3d607d98	0.054807276
26	0x3e49fb28	0.19724715
27	0x3e04b74f	0.12960552
28	0xbdcbda72	-0.099537745
29	0xbe96a699	-0.2942398
30	0x3dc0bc20	0.09410882
31	0x3dbb31fd	0.09140394
32	0xbdf46c3b	-0.11934706
33	0x3b057e29	0.0020369387
34	0xbdc36548	-0.09540802
35	0xbe032b09	-0.12809385
36	0xbddc9678	-0.10770887
37	0xbe3e6fc4	-0.18597323
38	0xbcc5d753	-0.024150526
39	0xbd4ac367	-0.049502756
40	0x3ca2ddd9	0.019881176
41	0x3c510744	0.01275808
42	0x3e6eeb27	0.23331891
43	0x3e19a78c	0.1500532
44	0x3e312889	0.17300619
45	0xbde4fdf3	-0.111812495
46	0xbf0c589d	-0.54822713
47	0x3edcc083	0.43115625
48	0xbe28f47a	-0.1649951
49	0x3ce65fa0	0.02812177
50	0x3f1f3cce	0.62202156
51	0xbe3196c8	-0.17342675
52	0xbedbcc6c	-0.429294
53	0xbc8ba3a4	-0.017045803
54	0x3e26ee3c	0.16301817
55	0x3e39a4eb	0.18129317
56	0x3ecfe573	0.40604743
57	0x3db4bcef	0.08825099
58	0xbd32052a	-0.043461956
59	0x3e87a6ef	0.26494548
60	0xbe16461e	-0.14675185
61	0xbd158188	-0.036500484
62	0xbebe7531	-0.37198785
63	0x3e1eae17	0.15496098
64	0x3eeb3658	0.45939898
65	0x3e861f8d	0.26195946
66	0x3dc6985b	0.09697028
67	0x3ecc346a	0.3988374
68	0xbe4eab6c	-0.2018258
69	0x3ea96af3	0.33089408
70	0xbe633f89	-0.22192205
71	0x3db3dc23	0.08782222
72	0x3bf95939	0.007609513
73	0x3f10d12c	0.5656917
74	0x3ec8e583	0.39237604
75	0x3eafa04a	0.34301978
76	0x3eab7ed0	0.33495188
77	0xbdb19074	-0.0867013
78	0xbe9b5315	-0.30336824
79	0x3e377b60	0.17918158
80	0x3d580c59	0.05274615
81	0x3d966ffe	0.073455796
82	0x3eb4c4ed	0.35306492
83	0x3e65d483	0.22444348
84	0xbe691b70	-0.22764373
85	0xbe91d3d9	-0.2848194
86	0xbdc86ab6	-0.097859785
87	0x3ccc7aab	0.024960836
88	0xbdd83ecf	-0.10558855
89	0x3e79e506	0.24403772
90	0xbc6d676e	-0.014489992
91	0x3de413f3	0.111366175
92	0xbda24ce5	-0.07924823
93	0x3da38784	0.07984832
94	0x3eb29361	0.34878066
95	0x3f09f652	0.5389148
96	0x3e85638c	0.2605251
97	0xbf482f07	-0.7819676
98	0xbe49707b	-0.19671814
99	0x3e653aba	0.22385684
100	0x3db19ffd	0.086730935
101	0x3da38e64	0.07986143
102	0xbe408fb7	-0.18804823
103	0x3f48c6d5	0.78428394
104	0x3cb0acf8	0.021566853
105	0x3e32998c	0.17441386
106	0xbf37db90	-0.718194
107	0xbedc32a7	-0.43007395
108	0xbde393e5	-0.11112193
109	0xbe6ec1a5	-0.23316057
110	0x3d23af9f	0.039962407
111	0x3cc989ed	0.024601901
112	0x3dd1969f	0.10233807
113	0x3e074d28	0.13213027
114	0xbe048464	-0.12941128
115	0xbe8d355f	-0.2757978
116	0xbda822dc	-0.08209774
117	0x3efc501f	0.49279878
118	0x3def996b	0.11699184
119	0x3e4f1969	0.20224537
120	0x3e31b5e7	0.17354546
121	0xbd8e7fce	-0.069579706
122	0x3eaaf86b	0.33392653
123	0xbf496065	-0.7866271
124	0xbeb5e8b6	-0.35529107
125	0xbe369888	-0.17831624
126	0xbd87ca0a	-0.06630333
127	0x3f130b93	0.57439536
128	0x3e9ce17c	0.3064078
129	0x3e9f3433	0.31094512
130	0x3e8674f4	0.26261103
131	0xbe848c8f	-0.25888488
132	0x3ee837e4	0.4535514
133	0x3d612c4e	0.054973893
134	0xbedb07b3	-0.42779312
135	0x3de2abb4	0.11067906
136	0xbef3105a	-0.47473413
137	0xbeca5a86	-0.3952219
138	0x3e09c605	0.13454445
139	0xbd8eca38	-0.06972164
140	0xbd3b21b7	-0.04568645
141	0xbd1d0785	-0.03833725
142	0xbe8b283a	-0.27179128
143	0x3e049dde	0.12950847
144	0x3eda8d48	0.42685914
145	0xbf4f90ea	-0.81080496
146	0xbd8af505	-0.06785015
147	0xbe6b60f6	-0.22986206
148	0x3e9ff250	0.31239557
149	0x3eef43c9	0.46731403
150	0x3e29e47e	0.16591069
151	0xbeca1f9a	-0.39477235
152	0x3e4e254e	0.20131418
153	0x3c983ef1	0.0185847
154	0xbe074a9c	-0.13212055
155	0x3e9c61e5	0.30543438
156	0x3eda36fa	0.4262007
157	0x3d929e2b	0.071590744
158	0x3dd658e0	0.1046617
159	0x3e2e0855	0.16995366
160	0xbeb19f4a	-0.3469184
161	0xbe9fa0c5	-0.31177345
162	0xbd8aaf8c	-0.06771764
163	0xbf09cddb	-0.53829736
164	0x3e89071a	0.2676323
165	0xbeb8e1f9	-0.36109903
166	0xbe2e571d	-0.17025419
167	0x3eae0475	0.33987775
168	0xbd9bc493	-0.07605853
169	0xbe736a75	-0.23771079
170	0x3e3c55de	0.1839213
171	0xbd1c98e7	-0.038231757
172	0x3ce0b1f9	0.027428614
173	0x3e84c151	0.2592874
174	0xbe1e3fff	-0.154541
175	0x3ea405fa	0.3203581
176	0x3db3bc0a	0.087761
177	0xbe8d25c9	-0.2756789
178	0xbe1496f1	-0.14510705
179	0x3e3b24fc	0.18275827
180	0xbbe0d475	-0.0068612644
181	0x3f1ee477	0.6206736
182	0xbdba7542	-0.091043964
183	0x3e9b7856	0.30365247
184	0xbda249a0	-0.07924199
185	0xbdb5f8b9	-0.08885331
186	0xbe30cbe2	-0.17265275
187	0xbe998ff8	-0.29992652
188	0xbe753194	-0.23944694
189	0x3ee00001	0.43750003
190	0x3d27977b	0.040915947
191	0x3c36803d	0.011138973
192	0xbccc6d02	-0.024954323
193	0x3df92a7f	0.121663086
194	0xbe2bf616	-0.16793093
195	0x3dabf260	0.08395839
196	0x3ea5579e	0.3229341
197	0xbf0877f8	-0.5330806
198	0xbebf35f9	-0.37345865
199	0xbf154c0a	-0.5831915
200	0xbdd398f7	-0.1033191
201	0xbba79a14	-0.005114803
202	0x3e0d715d	0.13812776
203	0xbe3ab192	-0.182318
204	0x3e73cf05	0.2380944
205	0x3e9a7920	0.30170536
206	0xbf38eb2f	-0.7223386
207	0xbdb5ecdd	-0.08883069
208	0x3e9651e6	0.2935936
209	0x3f26af4d	0.6511124
210	0x3ede2767	0.43389437
211	0xbe841f27	-0.25805017
212	0xbeb36490	-0.3503766
213	0x3f0b278c	0.5435722
214	0x3e34da69	0.17661442
215	0xbe400f72	-0.18755892
216	0xbeeed1b8	-0.46644378
217	0xbd8e4663	-0.06947019
218	0x3e498a5d	0.19681688
219	0x3e34b203	0.17646031
220	0xbe4771b1	-0.19476964
221	0xbde53de8	-0.11193448
222	0xbd9a13a6	-0.07523279
223	0xbed0d4e1	-0.40787414
224	0x3e2af482	0.16694835
225	0x3f051f3d	0.5200079
226	0x3de27350	0.1105715
227	0xbd89a39d	-0.0672066
228	0xbbf67bec	-0.007522097
229	0x3d241bd1	0.04006559
230	0xbe6ff87e	-0.23434636
231	0xbebdcb19	-0.37069014
232	0xbd83dd65	-0.06438712
233	0xbf30e950	-0.69106007
234	0x3e227592	0.15865162
235	0x3dca4b19	0.09877605
236	0xbe54c424	-0.20777947
237	0x3e2f29ec	0.17105836
238	0x3e817e9e	0.25291914
239	0x3ece46a7	0.40288278
240	0xbe5ed8eb	-0.21762435
241	0xbd98be7a	-0.074582055
242	0xbdc4f986	-0.09617905
243	0x3ec8b2a5	0.39198795
244	0x3f021249	0.5080915
245	0x3e4479ff	0.19187163
246	0xbf219d43	-0.6313059
247	0xbe37a05f	-0.1793227
248	0xbe7dd868	-0.24789584
249	0x3e5da8d1	0.2164643
250	0xbca3875c	-0.019962005
251	0xbe6efe0a	-0.23339096
252	0x3ec5bd6f	0.3862109
253	0xbd9e15e3	-0.07719018
254	0xbe3065a8	-0.17226279
255	0xbe1cf642	-0.15328315

bias f4 [200]
0	0x3e439325	0.190991
1	0xbe803b7a	-0.25045377
2	0xbcc00820	-0.023441374
3	0xbed0feeb	-0.40819487
4	0xbe372509	-0.17885222
5	0x3e956fd6	0.29186887
6	0xbe06987d	-0.13144107
7	0x3e1b403d	0.15161224
8	0xbefc4fc2	-0.492796
9	0xbefb7b57	-0.49117538
10	0xbe8f7a4e	-0.28023
11	0x3e356447	0.17714034
12	0x3e6a4d64	0.22881085
13	0x3e15097f	0.14554404
14	0xbe074241	-0.13208868
15	0x3e8f1437	0.2794511
16	0x3e8cceec	0.2750162
17	0xbddb64b6	-0.107125685
18	0x3cc40dd0	0.023932368
19	0x3e8bdd86	0.27317446
20	0x3e0f670a	0.1400415
21	0x3e741c71	0.23838975
22	0x3e4cbba8	0.1999346
23	0x3e0edae7	0.13950692
24	0xbd932422	-0.07184626
25	0xbe75d532	-0.24007109
26	0xbe8cbe2f	-0.2748885
27	0xbe747934	-0.2387436
28	0xbeaef5f3	-0.3417202
29	0xbe07330f	-0.13203071
30	0xbe399bda	-0.18125859
31	0xbea85945	-0.32880607
32	0x3e1a803e	0.15087983
33	0x3ee58818	0.44830394
34	0xbd0993cb	-0.033588212
35	0x3beebce4	0.007285701
36	0xbe5d9467	-0.21638642
37	0xbeb97a3a	-0.36226064
38	0x3b72b20b	0.0037032391
39	0x3e8371c2	0.25672728
40	0x3d3b5a71	0.04574055
41	0xbe3bde25	-0.1834646
42	0x3cb52b2c	0.022115313
43	0xbd35511c	-0.044266805
44	0x3e8838c5	0.26605812
45	0x3e19ff1e	0.15038726
46	0x3dec75ac	0.11545882
47	0x3e35428e	0.1770117
48	0x3e65763e	0.22408387
49	0x3e001c41	0.12510778
50	0x3d9831e4	0.07431391
51	0xbe6fbecf	-0.23412631
52	0xbd1896da	-0.03725324
53	0xbdd41be3	-0.103568815
54	0x3f088ca8	0.53339624
55	0x3ec8418b	0.39112505
56	0x3e2f785c	0.17135757
57	0x3d9b3e6f	0.07580268
58	0xbe4d2b3f	-0.20036028
59	0xbeb95128	-0.3619473
60	0x3e7c3c8a	0.24632469
61	0x3d84e6c8	0.064893305
62	0x3e79c251	0.24390532
63	0x3f0ffe71	0.5624762
64	0x3e245bd1	0.1605065
65	0x3e178607	0.14797221
66	0xbe6a1720	-0.22860384
67	0xbebdee8d	-0.37096062
68	0xbe817a97	-0.2528884
69	0x3ea1b3ae	0.31582397
70	0xbe915e00	-0.2839203
71	0xbc045b97	-0.008078477
72	0x3ee21cee	0.44162697
73	0x3e81d405	0.2535707
74	0x3bad61f0	0.005291216
75	0x3ee01603	0.43766794
76	0x3e367eb2	0.17821768
77	0xbe4e09ac	-0.20120877
78	0x3daaebe4	0.08345774
79	0x3d49e035	0.049286086
80	0x3d7f1a8b	0.062281173
81	0xbd8c11dd	-0.06839345
82	0xbd803437	-0.06259959
83	0xbcddedc0	-0.027090907
84	0xbd24d87b	-0.040245514
85	0xbe1ec988	-0.15506566
86	0xbd3fd76c	-0.0468363
87	0xbe22a640	-0.15883732
88	0xbe937242	-0.2879811
89	0xbed3c88e	-0.4136395
90	0x3e9177c9	0.284117
91	0xbee6d82f	-0.4508681
92	0x3ed21512	0.410317
93	0xbeaeb7cc	-0.341246
94	0x3ebe4c9b	0.3716782
95	0x3b8e40e4	0.0043412317
96	0x3d0ab64f	0.03386527
97	0x3e8d62c3	0.27614412
98	0x3defe853	0.11714234
99	0x3df45b92	0.11931528
100	0x3e7f0b05	0.24906547
101	0xbd9cb79c	-0.07652208
102	0xbe26fffe	-0.16308591
103	0x3c6dd498	0.014516018
104	0xbe03b237	-0.12860952
105	0xbd58830b	-0.052859347
106	0xbe138f9c	-0.14410251
107	0xbeae2b42	-0.34017378
108	0xbe340c43	-0.17582802
109	0x3e61e276	0.22059044
110	0xbebe1819	-0.3712776
111	0x3b7ac6a4	0.0038265372
112	0x3e5997d1	0.2124932
113	0xbd34d46d	-0.044147898
114	0x3e9df329	0.3084958
115	0x3dfd5c8e	0.12371169
116	0x3e62a1f5	0.22132094
117	0x3d82b437	0.063820295
118	0xbea673b6	-0.32510155
119	0xbd61fb8d	-0.05517154
120	0xbe455002	-0.19268802
121	0xbe80d8a5	-0.25165287
122	0xbe3d6191	-0.1849425
123	0x3ccb2dc1	0.02480209
124	0x3f04184f	0.5159959
125	0xbd35d4d9	-0.04439244
126	0xbdaa141d	-0.083046176
127	0xbd3bf192	-0.045884676
128	0x3d3aabf1	0.045574132
129	0xbe66b1c9	-0.22528757
130	0x3c69e95c	0.014276829
131	0x3ee265fd	0.44218436
132	0xbe764c97	-0.24052654
133	0x3d011fd7	0.031524505
134	0x3e4cb6de	0.19991633
135	0x3e41d1c6	0.18927678
136	0xbe509cc7	-0.20372306
137	0xbe319e53	-0.17345552
138	0x3e2a9785	0.16659363
139	0xbe0d7cf6	-0.138172
140	0xbeb90771	-0.3613849
141	0xbe9d3619	-0.30705336
142	0xbdeeb382	-0.11655332
143	0xbeb03f9d	-0.34423533
144	0x3bf0261f	0.007328763
145	0x3e54442b	0.20729129
146	0x3e47b270	0.19501662
147	0x3e8f6412	0.28006035
148	0x3e87902b	0.2647718
149	0xbaa967fc	-0.0012924667
150	0x3e6cddde	0.2313151
151	0x3d425d93	0.04745252
152	0xbd713a40	-0.058893442
153	0x3eaa84d2	0.3330446
154	0xbeae3d09	-0.3403094
155	0x3d930eee	0.07180582
156	0x3e8cf282	0.2752877
157	0x39e96f79	0.00044524277
158	0xbe7571a5	-0.23969133
159	0xbe3d6ee0	-0.18499327
160	0x3d6a7c0a	0.0572472
161	0x3e557901	0.2084694
162	0xbef5a162	-0.47974688
163	0x3db61ea5	0.08892564
164	0x3e454b3f	0.19266985
165	0x3e84c8f3	0.25934562
166	0x3eac4309	0.33644894
167	0xbd673741	-0.05644918
168	0xbd9c912f	-0.07644879
169	0x3e716ee9	0.23577465
170	0xbe41de0e	-0.18932363
171	0xbef5bcc7	-0.47995588
172	0xbd795540	-0.060872316
173	0xbdce4d8e	-0.10073386
174	0x3df74d0e	0.12075244
175	0xbe57a42a	-0.21058717
176	0x3e861e19	0.26194838
177	0x3ebfc470	0.37454557
178	0xbe00a3af	-0.1256244
179	0xbc32a379	-0.010903233
180	0x3e97862e	0.29594558
181	0xbe59bff9	-0.21264638
182	0x3e1428ba	0.14468661
183	0xbda16e00	-0.07882309
184	0xbc896474	-0.016771533
185	0x3dda3c11	0.10655988
186	0xbd1d348a	-0.038380183
187	0xbdad43ca	-0.08460195
188	0x3e520b0a	0.20512024
189	0xbec7fd15	-0.39060274
190	0xbd24dd87	-0.040250327
191	0xbe888133	-0.2666107
192	0xbe9e8479	-0.30960444
193	0xbf0ea647	-0.5572247
194	0xbe8f5b24	-0.27999222
195	0x3ef291cb	0.47376856
196	0x3cafe70f	0.021472482
197	0x3dfda170	0.123843074
198	0x3d2dc6b5	0.04242583
199	0x3e71f3aa	0.23628107

weight f4 [200, 200]
0	0x3f174bc2	0.5909997
1	0xbf11f7d9	-0.5701881
2	0xbe03be28	-0.12865508
3	0x3e923714	0.28557646
4	0xbf5746d4	-0.8409245
5	0xbe4544b6	-0.19264492
6	0xbf09fc5b	-0.5390069
7	0xbdf7b3df	-0.120948546
8	0xbe20ee6d	-0.15715952
9	0x3eb04f14	0.34435332
10	0x3e31ead1	0.17374732
11	0x3e928c31	0.28622583
12	0x3e430b83	0.1904736
13	0x3ecd78ec	0.4013132
14	0xbe160f40	-0.14654255
15	0x3ebc5deb	0.36790404
16	0x3ebe3b3b	0.37154564
17	0xbe2d3a86	-0.16916856
18	0xbe4f5127	-0.20245801
19	0xbf1b83ba	-0.60747874
20	0x3e918c3d	0.28427306
21	0x3d1d0bf7	0.03834149
22	0xbe94bf0b	-0.29052004
23	0x3d78658b	0.060643714
24	0x3f2347c2	0.6378137
25	0xbea56789	-0.32305554
26	0xbcef7943	-0.029232627
27	0x3e179ab1	0.14805104
28	0xbe11c2d4	-0.14234477
29	0xbd76d960	-0.0602659
30	0x3f4103c5	0.75396377
31	0xbf07b923	-0.5301687
32	0x3da012bb	0.078160726
33	0x3ed52984	0.41633236
34	0xbda41235	-0.08011285
35	0xbee3653f	-0.44413182
36	0xbeee6b99	-0.46566465
37	0xbe262cd0	-0.16228032
38	0x3e36e96f	0.17862485
39	0x3e5051b6	0.2034367
40	0xbedb3fdd	-0.4282216
41	0xbea71cd5	-0.32639185
42	0xbe61aab6	-0.22037777
43	0x3f39aecb	0.7253234
44	0x3d9d60b5	0.07684461
45	0xbd935f06	-0.07195859
46	0x3ea80eb1	0.3282371
47	0x3eb79306	0.35854357
48	0xbcfefab0	-0.031125396
49	0xbcdd5899	-0.027019786
50	0x3e869349	0.26284245
51	0xbf5224d9	-0.82087475
52	0x3d572195	0.05252226
53	0xbeac501c	-0.3365487
54	0xbebb1008	-0.36535668
55	0x3dcdbbcb	0.10045584
56	0x3d1c8d1d	0.038220514
57	0x3def01d1	0.11670268
58	0x3eba6151	0.36402372
59	0xbf3195de	-0.69369304
60	0x3e1791c0	0.14801693
61	0x3f3ecacf	0.7452821
62	0xbeca27f4	-0.39483607
63	0x3e2b8f21	0.16753818
64	0xbeae9cce	-0.34104007
65	0xbe2a0a11	-0.16605403
66	0xbe1bb46c	-0.15205544
67	0xbf65d17b	-0.89772767
68	0xbf5c04a9	-0.8594461
69	0xbf2c2f94	-0.672601
70	0x3d7a75b9	0.061147425
71	0xbe89c4f9	-0.2690809
72	0x3f10e2b4	0.5659592
73	0x3eee1904	0.4650346
74	0xbdae562e	-0.08512531
75	0x3e4a4c2e	0.19755623
76	0xbf09ac81	-0.53778845
77	0x3eb3d124	0.351205
78	0xbe81ca1e	-0.25349516
79	0xbda831f5	-0.082126535
80	0x3f3994b5	0.72492534
81	0xbd9ab749	-0.0755449
82	0x3f34df7c	0.7065351
83	0xbf213ceb	-0.6298358
84	0xbda438b1	-0.080186255
85	0x3d866ccf	0.06563722
86	0x3c617d85	0.013762836
87	0x3d328e68	0.04359284
88	0xbe071e00	-0.13195038
89	0x3e0c1077	0.13678156
90	0x3e003589	0.12520422
91	0x3e572ed9	0.21013965
92	0x3e849d53	0.2590128
93	0xbf7362c5	-0.95072585
94	0xbdca616f	-0.09881865
95	0xbd6bd75c	-0.05757843
96	0xbe18ae03	-0.1491013
97	0x3d9309c7	0.07179599
98	0x3f23b47a	0.6394726
99	0x3ece047b	0.40237793
100	0x3e22c8d0	0.15896916
101	0x3c9d9e6b	0.019240579
102	0xbd267239	-0.040636275
103	0x3d6fb157	0.058518734
104	0xbdfaf496	-0.12253682
105	0x3e4c9716	0.1997951
106	0x3d446dd6	0.04795631
107	0xbe2e9b6b	-0.17051475
108	0x3e50599b	0.20346682
109	0xbe3df43e	-0.18550202
110	0xbd8ce10c	-0.06878862
111	0x3d00f632	0.03148479
112	0xbea4b1e9	-0.32166985
113	0xbeb80279	-0.35939386
114	0xbf2c6633	-0.67343444
115	0x3aa8c065	0.0012874721
116	0x3e467dc4	0.19383913
117	0x3e921cb4	0.28537524
118	0xbe6b79b0	-0.22995639
119	0xbdbdffe8	-0.09277326
120	0x3f5e78a8	0.86902857
121	0xbf1e6928	-0.61879206
122	0xbeb853eb	-0.36001524
123	0x3d426b6a	0.04746572
124	0x3fae8998	1.363574
125	0x3f080a55	0.53140765
126	0xbe423e09	-0.18968977
127	0xbf015f57	-0.505361
128	0x3e25e3c2	0.16200164
129	0xbd8ea2b0	-0.06964624
130	0xbcdfccec	-0.027319394
131	0x3f096957	0.5367636
132	0x3f8b13b9	1.0865394
133	0xbdaeed39	-0.085413404
134	0xbf0260a4	-0.5092871
135	0x3f12445c	0.5713556
136	0xbd4ee23e	-0.05050873
137	0xbc3dcc08	-0.011584289
138	0xbd2002d4	-0.039065197
139	0xbfb5f02d	-1.4213921
140	0x3dd23977	0.10264867
141	0xbeeaa84e	-0.4583153
142	0xbe962af9	-0.2932966
143	0xbd3939f7	-0.045221295
144	0x3ce08f7c	0.027412169
145	0xbea7fb6e	-0.32809013
146	0xbcb4139b	-0.021982005
147	0x3ea6f223	0.3260661
148	0x3dbe4100	0.092897415
149	0xbe93219c	-0.2873658
150	0xbe1d8949	-0.15384401
151	0xbe3c53e0	-0.18391371
152	0xbeac9f8b	-0.33715472
153	0xbdbfc542	-0.09363796
154	0xbe87f4f9	-0.26554087
155	0x3f1894f9	0.59602314
156	0xbe0c6330	-0.13709712
157	0xbdfcef6f	-0.12350356
158	0x3bf9fb80	0.007628858
159	0x3e9a2215	0.30104128
160	0x3e07d6b7	0.13265501
161	0x3e09a09d	0.13440175
162	0xbeded309	-0.43520382
163	0xbe83cab9	-0.25740603
164	0x3dcf94a8	0.10135776
165	0x3dba4baa	0.09096463
166	0xbe911b6b	-0.2834123
167	0xbd53af12	-0.051680632
168	0xbf1b13c5	-0.6057704
169	0x3d8b6883	0.068070434
170	0x3e6901c6	0.22754583
171	0xbf28ba6e	-0.6590947
172	0xbefe5ed5	-0.49681726
173	0x3e95c910	0.2925496
174	0x3d409945	0.04702117
175	0xbe9d35eb	-0.307052
176	0xbe62aab4	-0.2213543
177	0xbc98b950	-0.018643051
178	0xbe4734d4	-0.19453746
179	0x3ed5b8bc	0.41742504
180	0xbf210fd4	-0.62914777
181	0xb90beabe	-0.00013343521
182	0x3f3e313a	0.74293864
183	0xbd262f85	-0.040572662
184	0xbf70842e	-0.9395169
185	0xbe52aa48	-0.2057277
186	0x3e3f1c5c	0.18663162
187	0xbedd9883	-0.4328042
188	0x3d2e0028	0.042480618
189	0x3e68dde5	0.22740896
190	0x3ea0aa06	0.31379718
191	0x3f6b7a6c	0.91983676
192	0x3db547f8	0.088516176
193	0x3f0b9381	0.5452195
194	0xbe2dee59	-0.16985454
195	0x3f85b286	1.0445106
196	0x3f81e77d	1.014877
197	0xbd6e7fde	-0.058227412
198	0xbe86ac0b	-0.26303133
199	0x3e815f27	0.25267908
200	0xbc73a755	-0.014871438
201	0xbce3b80c	-0.027797721
202	0xbd8de4d3	-0.069284104
203	0xbe12750e	-0.14302465
204	0xbd493839	-0.049125884
205	0x3bd2f687	0.0064380798
206	0xbdd551b2	-0.10415973
207	0xbdfd3aa5	-0.12364701
208	0xbc808e8d	-0.015692974
209	0xbd70d65c	-0.05879818
210	0x3da7f375	0.082007326
211	0xbddd29e0	-0.10799003
212	0x3a0218fc	0.00049628294
213	0x3d74d0c4	0.059769407
214	0xbd928067	-0.07153397
215	0xbd6a14eb	-0.057148855
216	0x3ce83043	0.028343325
217	0x3daa1306	0.0830441
218	0xbd596859	-0.05307803
219	0x3ce570b7	0.028007848
220	0x3d04d587	0.032430198
221	0xbd98c965	-0.07460288
222	0xbce78e85	-0.0282662
223	0xbb87595f	-0.004130527
224	0xbd6d2f83	-0.05790664
225	0xbddc4256	-0.1075484
226	0xbdcd3b87	-0.100211196
227	0x3d0de8c2	0.034645803
228	0xbca574c6	-0.020197283
229	0xbcf821f3	-0.030289626
230	0xbd6b4c71	-0.057445947
231	0xbdc181f6	-0.09448616
232	0xbcbf69b6	-0.023365837
233	0x3dad4d44	0.08462003
234	0xbd866623	-0.0656245
235	0xbd02d7ef	-0.03194421
236	0xbdc4c81d	-0.09608481
237	0xbd1fef18	-0.039046377
238	0xbd3cf139	-0.046128485
239	0xbcf87bba	-0.030332435
240	0x3d8bd83a	0.06828351
241	0xbd799eab	-0.060942333
242	0xbd8d99b3	-0.069140814
243	0xbd996cb0	-0.074914336
244	0xbd182085	-0.037140388
245	0xbda2c957	-0.07948559
246	0xbd92ffbb	-0.07177683
247	0xbcbd5ea3	-0.023116415
248	0x3cc57270	0.02410242
249	0xbe1694b7	-0.14705168
250	0xbbcab905	-0.006186607
251	0xbd952c1b	-0.07283803
252	0x3d191dbb	0.03738187
253	0xbd536a91	-0.0516153
254	0xbdd83b6b	-0.10558208
255	0x3dbcfd7d	0.092280366

bias f4 [200]
0	0x3cc6c05c	0.024261646
1	0x3d108077	0.035278764
2	0xbbcf9a8c	-0.006335562
3	0x3ea5264b	0.32255778
4	0xbcc0dcc9	-0.023542779
5	0xbdb40b17	-0.08791178
6	0xbea0a7b8	-0.3137796
7	0xbd23aa34	-0.03995724
8	0xbe4b7dd3	-0.19872217
9	0xbd5d9eac	-0.0541064
10	0x3e93d28f	0.2887158
11	0xbe668f7a	-0.2251567
12	0x3e969237	0.29408428
13	0x3ea50a22	0.32234293
14	0xbdf41446	-0.11917929
15	0xbd9d7088	-0.07687479
16	0x3d7802cf	0.060549553
17	0xbd8dc34b	-0.06922015
18	0xbd81a986	-0.06331162
19	0x3e9801a5	0.29688755
20	0xbd3ee3b6	-0.04660388
21	0xbdcfa7f5	-0.10139457
22	0x3e726716	0.23672137
23	0x3e8e55d0	0.27799845
24	0xbe95f69f	-0.2928972
25	0xbc8cfb04	-0.017209537
26	0x3e77ac2b	0.2418677
27	0xbd15d9a7	-0.036584523
28	0x3ec1d497	0.37857506
29	0xbdaa836d	-0.08325849
30	0xbe396f71	-0.18108918
31	0x3e90092b	0.28131995
32	0xbdb9a8f7	-0.090654306
33	0x3de24f60	0.11050296
34	0xbd9ccc22	-0.07656123
35	0x3ea4e32e	0.32204574
36	0x3ec2aca0	0.38022327
37	0x3e8c4383	0.27395257
38	0xbc8ab309	-0.016931074
39	0xbda037eb	-0.078231655
40	0xbe5d17be	-0.21591088
41	0xbeb2433d	-0.34816924
42	0x3e88929b	0.2667435
43	0xbcd46df0	-0.025931329
44	0x3e7f813f	0.24951647
45	0x3ca7c5d0	0.020480067
46	0xbd6a997d	-0.057275284
47	0xbc96dc6d	-0.018415654
48	0xbdbc616a	-0.09198268
49	0xbe109afe	-0.14121625
50	0xbdcb024b	-0.09912547
51	0x3eacdd17	0.33762428
52	0x3ebb9271	0.36635163
53	0x3e0322b0	0.12806201
54	0xbd88b806	-0.06675725
55	0x3ecbd1f4	0.3980862
56	0xbd794f17	-0.06086644
57	0xbdc26bdf	-0.09493231
58	0xb9885114	-0.0002600035
59	0x3e3ad18d	0.18244
60	0x3e946022	0.28979594
61	0xbe5953b2	-0.21223333
62	0xbd1083d1	-0.03528196
63	0xbd296af3	-0.04136176
64	0xbe4d645f	-0.2005782
65	0x3d6619c6	0.056176923
66	0x3e92a677	0.28642628
67	0xbe3d5577	-0.18489634
68	0xbe2e4b87	-0.17020999
69	0x3ecc4d9d	0.39902964
70	0xbbd7ad94	-0.0065819714
71	0xbdab1fc0	-0.08355665
72	0xbcd5a886	-0.026081335
73	0xbd43e5aa	-0.047826447
74	0xbdcac6b3	-0.0990118
75	0x3e11c764	0.14236218
76	0x3e6ab070	0.22918868
77	0xbeb06101	-0.34449008
78	0xbe7a6600	-0.24452972
79	0xbd8ea036	-0.069641516
80	0xbd99562b	-0.07487138
81	0xbe435a7b	-0.19077484
82	0x3eadc42c	0.3393873
83	0x3d4743ab	0.048648518
84	0x3c8b9fe3	0.017044013
85	0x3e8f069e	0.27934736
86	0xbda731c9	-0.08163793
87	0x3ec6993a	0.38788778
88	0x3e7c61fa	0.2464675
89	0x3e8953bd	0.268217
90	0x3e727d74	0.23680669
91	0xbd8202f2	-0.06348218
92	0xbdea7472	-0.114479914
93	0xbd2f5c6d	-0.042812753
94	0xbd546602	-0.051855095
95	0xbe0fd81f	-0.14047287
96	0xbd8e4f39	-0.06948704
97	0x3bfa9b4b	0.007647907
98	0xbd77928a	-0.060442485
99	0xbd975ba8	-0.07390529
100	0xbd926d55	-0.0714976
101	0x3ec73f08	0.38915277
102	0xbd706029	-0.058685455
103	0x3eb7b438	0.35879683
104	0xbe1b4c43	-0.1516581
105	0xbdf780ec	-0.12085137
106	0x3d662c41	0.056194548
107	0x3eb7a453	0.35867557
108	0x3ea0493f	0.31305882
109	0x3e393628	0.18087065
110	0x3ecd1df9	0.4006193
111	0xbea1cb5e	-0.3160047
112	0xbc1ddbf3	-0.0096349595
113	0x3eb152d2	0.346335
114	0x3e94b53c	0.2904452
115	0xbe9fcc86	-0.31210726
116	0xbe892106	-0.26783007
117	0x3ebdfce2	0.37106997
118	0x3e9a8410	0.3017888
119	0x3e5e6e5c	0.21721786
120	0xbdae36e4	-0.08506563
121	0xbdbea6bc	-0.09309146
122	0x3e0e8cef	0.1392095
123	0x3e0261f4	0.12732679
124	0x3dc0df15	0.094175495
125	0x3ca67c93	0.020323073
126	0x3e41adf5	0.18914016
127	0x3b98f185	0.0046674632
128	0xbdc41389	-0.095740385
129	0xbd45c253	-0.048281025
130	0x3e08f03d	0.13372894
131	0xbe08389f	-0.13302849
132	0x3eb1c64c	0.347216
133	0xbe8a0d05	-0.26963058
134	0x3e1f3b2c	0.15549916
135	0xbda17414	-0.07883468
136	0xbdc08fa5	-0.09402398
137	0xbdbd5abc	-0.09245822
138	0xbd57f47a	-0.052723385
139	0x3eab8d2b	0.3350614
140	0xbe96b415	-0.29434267
141	0xbe5e3e14	-0.21703368
142	0xbdaa949d	-0.08329127
143	0xbe77a3e4	-0.24183613
144	0x3ec846bc	0.39116466
145	0xbe403ef6	-0.18774018
146	0xbdb4b122	-0.08822848
147	0x3e3cb143	0.18426995
148	0xbdbafd97	-0.091304
149	0xbe35948a	-0.17732444
150	0xbe9b0baf	-0.3028235
151	0xbe7f6d7b	-0.24944107
152	0xbd5ea778	-0.05435893
153	0x3e939a3f	0.28828618
154	0xbd761db9	-0.06008694
155	0xbd9d3ec1	-0.07677985
156	0x3e9861af	0.29762027
157	0xbeaa0a9f	-0.33211228
158	0xbdcd9d40	-0.10039759
159	0xbecb1dd6	-0.396712
160	0xbd112aaf	-0.035441097
161	0xbd95a84d	-0.073074915
162	0xbe0b3109	-0.13592924
163	0x3ea70e22	0.3262797
164	0xbe98ba0d	-0.29829445
165	0xbcf02829	-0.029316025
166	0x3eac3193	0.33631572
167	0xbdb27d75	-0.08715335
168	0xbdd11cf0	-0.102105975
169	0x3d6cd22f	0.057817634
170	0xbdad11bc	-0.08450648
171	0xbc8f672c	-0.01750525
172	0x3d35e18f	0.044404563
173	0x3e51b62d	0.20479651
174	0xbd61f80b	-0.055168193
175	0xbdc31290	-0.09525025
176	0xbd0ddb3a	-0.0346329
177	0xbdae25c4	-0.08503297
178	0x3e84855b	0.25882992
179	0xbe325a0c	-0.17417163
180	0x3eb67af9	0.35640696
181	0x3e2ce147	0.16882811
182	0xbc8e0e45	-0.017340789
183	0xbaf1e801	-0.0018455983
184	0xbacedab4	-0.0015781731
185	0xbd948fa6	-0.07253961
186	0xbe254fe5	-0.16143759
187	0x3d0a3e30	0.033750713
188	0xbc114afb	-0.008867974
189	0xbd1b6bbc	-0.03794454
190	0x3cb2d3f1	0.021829577
191	0x3ca921cd	0.020646
192	0xbe836873	-0.25665626
193	0x3e785310	0.24250436
194	0x3ed6057b	0.41801056
195	0x3e739de0	0.23790693
196	0x3d439f5b	0.047759395
197	0xbe37450a	-0.1789743
198	0xbe4bbfbe	-0.19897363
199	0x3e56c1b3	0.20972328

weight f4 [1, 200]
0	0xbffe8894	-1.988543
1	0x3d4e3fc9	0.0503538
2	0xbf78155a	-0.9690758
3	0x3e639de0	0.22228193
4	0xbce0a33d	-0.027421588
5	0xbc6d6c41	-0.014491142
6	0xbfb5e09f	-1.4209174
7	0x3ca69ae4	0.02033753
8	0xc01ddc56	-2.4665732
9	0xbc169c8f	-0.0091926
10	0x3f66e858	0.9019828
11	0xbf8d084b	-1.1018156
12	0x3e01c3cf	0.12672351
13	0x3eadf47e	0.33975595
14	0xc08d7379	-4.420346
15	0x3c736306	0.014855152
16	0x3f9f46cb	1.2443479
17	0xbc90c841	-0.017673614
18	0x3c5011dc	0.0126995705
19	0x3e9ec7f8	0.3101194
20	0xbf4d7a2f	-0.8026456
21	0xbcaf58f6	-0.021404725
22	0x3f57e167	0.8432831
23	0x3e5b8768	0.21438372
24	0xbfd5e59e	-1.6710699
25	0x3d511eb2	0.051054664
26	0x3f42c108	0.7607579
27	0xbcba77b3	-0.022762155
28	0x3fb584a8	1.4181108
29	0xbf93fbea	-1.1561253
30	0xbfe14e30	-1.7601986
31	0x3eed701d	0.46374598
32	0xbd1e32df	-0.038622733
33	0x3fa4fdb5	1.2889925
34	0x3cb0aaa5	0.021565745
35	0x3f9648e9	1.1741
36	0x3ea2576c	0.31707323
37	0x3f22729e	0.6345614
38	0x3c857f04	0.016295917
39	0x3d5b2300	0.053500175
40	0xbfe06fa0	-1.7534065
41	0xbfd3e28c	-1.6553512
42	0x3ed8ae86	0.4232065
43	0xbcb8efad	-0.022575224
44	0x3fdad071	1.7094861
45	0xbc053221	-0.008129627
46	0xc04bc4cc	-3.1838865
47	0xbbe2b789	-0.0069188518
48	0xbd43e07e	-0.047821514
49	0xc040b112	-3.0108075
50	0x3c423f67	0.011855937
51	0x3e4902dc	0.19629997
52	0x3e75dc72	0.24009874
53	0x3f92e917	1.1477383
54	0x3c7b5dc9	0.015342184
55	0x3e281701	0.16415025
56	0xbf8ff1fa	-1.124572
57	0xbd9ae279	-0.075627275
58	0x3b7de4c9	0.0038741103
59	0x3faaf709	1.3356639
60	0xbfb7c19b	-1.4355959
61	0xc00f4678	-2.238676
62	0xbcab9cf8	-0.020948872
63	0x3d009cbc	0.031399474
64	0xc058c770	-3.3871727
65	0x3f80727c	1.0034938
66	0x3f26fafd	0.6522673
67	0xbfeabfee	-1.8339822
68	0xbfa9719d	-1.3237797
69	0x3ed49456	0.4151942
70	0xbd301fbf	-0.042999025
71	0x3c192f67	0.0093496805
72	0x3cba2482	0.022722486
73	0x3b52cc6d	0.0032165304
74	0xbc886887	-0.016651405
75	0x3fc5a849	1.5441982
76	0x3f1cdcad	0.61274225
77	0xbf777b20	-0.9667225
78	0xbf28f661	-0.66000944
79	0xc0134fd4	-2.3017473
80	0x3afaa489	0.0019122522
81	0xbfcf873a	-1.6213143
82	0x3e5a6f50	0.21331525
83	0xbd1e1260	-0.038591743
84	0xbb0e8c57	-0.002175113
85	0x3e2965a8	0.16542685
86	0xbcd3e93a	-0.025868047
87	0x3e69eebf	0.2284498
88	0xc0824e86	-4.0720854
89	0x3f9dddab	1.2333273
90	0x3f4827db	0.78185815
91	0xbd89407b	-0.06701752
92	0xbfe91745	-1.8210226
93	0xbcd04c2f	-0.025426952
94	0x3c24c65a	0.010057056
95	0xc01d1933	-2.454663
96	0xbd368ad4	-0.04456599
97	0xbd5bf811	-0.05370337
98	0x3c0b295b	0.008493747
99	0xbc5e4ff0	-0.013568863
100	0x3bb796af	0.0056026797
101	0x3ef57a16	0.47944707
102	0xbffaf635	-1.9606386
103	0x3e6f9b85	0.2339917
104	0xbf0c5f6b	-0.54833096
105	0xbf83cb8d	-1.0296494
106	0xbcbc73b5	-0.023004392
107	0x3ebbce10	0.3668065
108	0x3eb0264f	0.34404227
109	0x3f4fa394	0.81108975
110	0x3e801bcb	0.25021204
111	0xc002b4db	-2.0422885
112	0x3d5f8efa	0.054579712
113	0x3efc37ea	0.4926141
114	0x3fd6d0da	1.6782486
115	0xbfbf1f2c	-1.4931388
116	0xbf84c835	-1.0373598
117	0x3e701ea4	0.23449188
118	0x3f1a0b5a	0.6017357
119	0xc033e6f9	-2.8109725
120	0x3b190196	0.0023346893
121	0x3d084d20	0.033276677
122	0x3f307e90	0.6894312
123	0x3f7e7c0f	0.9940805
124	0x3f98ed03	1.194733
125	0xc001b0b6	-2.0264106
126	0x3f51e8d2	0.8199588
127	0x3ca3170e	0.019908454
128	0xbd66dbaa	-0.05636183
129	0xbfee7221	-1.8628579
130	0x3fac6698	1.3468809
131	0xbf35231d	-0.70756704
132	0x3e5695e7	0.2095562
133	0xbfd61d5f	-1.6727713
134	0x3f9813a2	1.1880991
135	0x3bfeac92	0.007772037
136	0x3a6e996f	0.0009101843
137	0x3cd2d3d7	0.025735779
138	0xbc0554d3	-0.008137899
139	0x3ee05e7e	0.43822092
140	0x40269731	2.602978
141	0xc0207580	-2.5071716
142	0x3b868278	0.0041049086
143	0xbfb565d8	-1.4171705
144	0x3e910e38	0.2833116
145	0xbfdccb83	-1.7249607
146	0x3bd500d3	0.0065003424
147	0x3ff7c171	1.9355909
148	0xbd052945	-0.03251006
149	0xbfe2168a	-1.7663128
150	0xbf6973c5	-0.91192275
151	0xbf51e03a	-0.8198277
152	0x3bf020d8	0.007328134
153	0x3f83f558	1.0309248
154	0x3d2566ff	0.040381428
155	0xbccfc0fb	-0.025360575
156	0x3f0728c3	0.5279657
157	0xbfae9ce2	-1.3641627
158	0xbbf963ea	-0.0076107876
159	0xc015fa63	-2.3434074
160	0xbc91b87e	-0.017788168
161	0xbc3daf7a	-0.011577481
162	0xc00266f1	-2.037533
163	0x3f670482	0.90241253
164	0xc01a3951	-2.4097483
165	0xc08441af	-4.133018
166	0x3e852008	0.26001
167	0xbf3df73e	-0.74205387
168	0xbf45e570	-0.7730322
169	0x3fe7eed1	1.8119756
170	0xbf1ceecc	-0.61301875
171	0x3cd6ef07	0.026237024
172	0x3fdac282	1.7090609
173	0x3f9cfd86	1.2264869
174	0xbcd3fc35	-0.025877098
175	0x3c61624a	0.013756344
176	0xbc7bc417	-0.015366576
177	0x3c964976	0.018345576
178	0x3ee8f855	0.45501962
179	0xbf909060	-1.129406
180	0x3e15d4e6	0.14631996
181	0x3f0f96a0	0.5608921
182	0xbac58add	-0.0015071292
183	0x3d0c3236	0.034227572
184	0x3cbe37b8	0.023219928
185	0x3c22dcb8	0.009940319
186	0xc00a8de8	-2.1649113
187	0x3c8b451f	0.017000733
188	0x400b2602	2.1741948
189	0xbb0f88e6	-0.0021901666
190	0xbd1a6e86	-0.03770306
191	0xbd4b7235	-0.049669463
192	0xbfea4c6a	-1.830457
193	0x3f8d9d4d	1.1063629
194	0x3f83718b	1.0269026
195	0x4013f3cd	2.3117554
196	0xbfc84f68	-1.5649233
197	0xbf987d89	-1.191331
198	0xbfb39265	-1.4029051
199	0xc0140c7f	-2.3132627

weight f4 [200, 15]
0	0x3dd5a45b	0.10431739
1	0xbdc6174c	-0.09672412
2	0xbe332192	-0.17493275
3	0xbe3c1922	-0.18368962
4	0x3cbed814	0.023296393
5	0xbea02cb1	-0.31284097
6	0xbeade39d	-0.33962718
7	0x3c3f0d6c	0.011660915
8	0x3db86774	0.09004107
9	0xbe5c3dbc	-0.21507925
10	0x3e7c79b7	0.24655806
11	0x3d953483	0.072854064
12	0xbb425528	-0.0029652808
13	0x3d95209e	0.07281612
14	0x3e6538ac	0.223849
15	0x3ec36a73	0.38167152
16	0x3f0c7e6f	0.5488042
17	0xbeb12faf	-0.34606692
18	0x3da7dbae	0.081961975
19	0x3e3f66c9	0.18691553
20	0x3d831ea4	0.064023286
21	0xbdf1ce84	-0.11806968
22	0x3de09776	0.10966389
23	0x3d5bbaa9	0.05364481
24	0xbd948550	-0.0725199
25	0xbdaba88c	-0.08381757
26	0xbe087c86	-0.13328752
27	0xbe8767d2	-0.26446396
28	0xbdac48d6	-0.0841233
29	0x3e459be4	0.19297749
30	0xbe5b5aad	-0.21421309
31	0x3e985cce	0.29758304
32	0x3f2691c2	0.6506616
33	0x3d1cda77	0.03829428
34	0x3ecb42a0	0.39699268
35	0x3eb13b73	0.3461567
36	0xbda52435	-0.080635466
37	0x3e5bbb14	0.21458083
38	0xbec1bb4a	-0.37838203
39	0xbea011e6	-0.31263655
40	0x3d8d1c82	0.06890203
41	0xbd7c7117	-0.06163129
42	0xbe6c04b1	-0.23048665
43	0xbe523d28	-0.20531142
44	0xbf65c1da	-0.8974892
45	0x3e02d410	0.12776208
46	0xbe74852f	-0.2387893
47	0xbc7f2b63	-0.015574309
48	0xbf12295f	-0.5709438
49	0x3c9c7bc9	0.019101994
50	0xbdab166b	-0.08353885
51	0x3e6ec9a6	0.2331911
52	0x3e7c0985	0.24613006
53	0xbc9c5518	-0.019083545
54	0xbe5883fc	-0.21144098
55	0x3d2ff180	0.04295492
56	0xbeb5454f	-0.3540444
57	0xbee4082f	-0.44537494
58	0x3f435b59	0.7631126
59	0x3dc3926f	0.09549414
60	0x3ecba189	0.3977168
61	0x3f1ae32b	0.6050288
62	0x3d87da21	0.06633402
63	0xbe2f1769	-0.17098774
64	0xbf6fb9a2	-0.9364263
65	0xbf507be2	-0.8143903
66	0xbecb98f9	-0.39765146
67	0x3e459ab4	0.19297296
68	0x3edd5687	0.43230078
69	0x3ebd178f	0.36932036
70	0xbdbc75db	-0.09202167
71	0xbe53fdac	-0.20702237
72	0xbe86701e	-0.26257414
73	0x3e76dbfe	0.24107358
74	0xbb61b09b	-0.003443754
75	0xbe022e83	-0.12713055
76	0xbd5498d6	-0.05190357
77	0xbec5f585	-0.3866388
78	0xbee13762	-0.43987566
79	0x3dd88eb2	0.10574092
80	0x3dedcfaa	0.116118744
81	0x3e9b8a46	0.30378932
82	0xbe75ab43	-0.23991112
83	0xbdad29cf	-0.0845524
84	0xbeb09019	-0.34484938
85	0x3e32f634	0.17476732
86	0x3e4cd1d9	0.20001926
87	0x3e81d403	0.25357065
88	0x3ea22cf6	0.31674927
89	0xbe219909	-0.15781035
90	0xbd547845	-0.05187251
91	0x3f4ef0e7	0.8083634
92	0xbf1c5c3a	-0.61078227
93	0x3e5dd6d1	0.21663977
94	0x3c853f0c	0.016265415
95	0x3ec528e1	0.3850775
96	0x3dc157b9	0.0944056
97	0xbda65b2b	-0.08122858
98	0xbdd659a7	-0.104663186
99	0xbdcdef8e	-0.10055457
100	0xbd98a825	-0.07453946
101	0x3e723687	0.23653613
102	0xbec4a939	-0.38410357
103	0x3e896e16	0.268418
104	0xbee42d61	-0.4456587
105	0xbf597fe0	-0.84960747
106	0x3e1c55a2	0.15267041
107	0xbefc0baf	-0.49227664
108	0x3e8f2a19	0.27961805
109	0x3c76a097	0.015052936
110	0xbe078419	-0.13233985
111	0x3ea98ede	0.33116812
112	0x3e7bddd5	0.24596341
113	0xbec2991f	-0.38007447
114	0xbca5625f	-0.020188509
115	0x3d233e5d	0.039854396
116	0x3d9b0803	0.075698875
117	0xbeea1818	-0.45721507
118	0xbea90fdd	-0.33019915
119	0x3ec54333	0.3852783
120	0x3e30fe74	0.17284566
121	0xbe8baef6	-0.27281922
122	0x3eb2af16	0.34899205
123	0xbf078aa8	-0.5294595
124	0xbf26983b	-0.65076035
125	0xbf4b51c4	-0.7942164
126	0xbee55590	-0.44791842
127	0x3ef6cb5e	0.48202032
128	0x3ef1b879	0.47211054
129	0xbd8275d4	-0.0637013
130	0xbdbd23ca	-0.09235342
131	0x3d0433a6	0.03227582
132	0xbcad3022	-0.021141116
133	0xbdb0ce92	-0.0863315
134	0xbd99f21c	-0.07516882
135	0x3e3c37eb	0.18380706
136	0x3de5266f	0.11188971
137	0xbf3e035a	-0.74223864
138	0x3d25ebb8	0.040508002
139	0x3ea384ba	0.319372
140	0x3f395297	0.7239165
141	0xbf3b89a7	-0.73256916
142	0xbe467f40	-0.1938448
143	0x3d991b5e	0.07475923
144	0x3dcb0491	0.0991298
145	0xbdeb8888	-0.11500651
146	0x3dbc46ca	0.091931894
147	0x3d0b998a	0.034081973
148	0x3e34c98a	0.17655006
149	0x3ca81e15	0.020522157
150	0x3f30a188	0.6899648
151	0x3ec083cb	0.3760055
152	0x3d1e7b27	0.038691666
153	0xbf406d2c	-0.75166583
154	0x3da305fd	0.079601265
155	0x3e03bb0b	0.1286432
156	0x3dabed7d	0.08394907
157	0x3e0b99db	0.1363291
158	0x3de24301	0.11047936
159	0xbea654b3	-0.32486495
160	0xbe8da948	-0.27668214
161	0xbef13a27	-0.4711468
162	0x3b81838d	0.0039524497
163	0x3c011207	0.007877833
164	0xbd84d593	-0.064860485
165	0xbf2ac523	-0.66707057
166	0x3e5d5090	0.21612763
167	0x3f2db9f2	0.67861855
168	0xbed65c20	-0.4186716
169	0xbdc2583c	-0.094894856
170	0xbe648120	-0.22314882
171	0x3dd524f6	0.1040744
172	0x3ee2e8f1	0.44318345
173	0xbe307ad4	-0.17234355
174	0x3e743fdc	0.23852485
175	0xbc3a0817	-0.011354468
176	0xbd7e163c	-0.062032923
177	0xbea92a19	-0.3303993
178	0x3e734ae8	0.23759043
179	0x3f308590	0.689538
180	0xbe5a44ce	-0.2131531
181	0x3c6e4843	0.014543596
182	0xbf98292a	-1.1887562
183	0x3f2a0fa5	0.6643012
184	0xbe616383	-0.22010617
185	0xbeec3362	-0.46132952
186	0xbea2052b	-0.31644568
187	0x3e31f562	0.17378762
188	0x3ec80a9b	0.3907059
189	0xbc9d6889	-0.019214885
190	0xbb8dfb7a	-0.004332957
191	0x3d99612e	0.07489239
192	0xbd6e5ae1	-0.058192138
193	0x3bcc1989	0.00622863
194	0x3d77526e	0.060381345
195	0xbf67471c	-0.9034288
196	0x3f1494f4	0.58039784
197	0xbf456586	-0.7710804
198	0x3e01173b	0.12606518
199	0x3e8bf835	0.27337804
200	0xbe762bd9	-0.24040164
201	0x3ec12db2	0.37730175
202	0x3ef691cd	0.48158112
203	0x3e488361	0.19581367
204	0xbb92e829	-0.004483242
205	0xbdc2b7aa	-0.095076874
206	0xbeb03ca7	-0.34421274
207	0xbe433c65	-0.19066007
208	0x3ead96a6	0.33903998
209	0xbe32eb62	-0.17472604
210	0x3e81b874	0.2533604
211	0xbe76affb	-0.24090569
212	0x3df90876	0.12159817
213	0x3e8174be	0.2528438
214	0x3eb8aed8	0.36070895
215	0xbd8340a7	-0.06408816
216	0xbe707c39	-0.23484887
217	0xbf069817	-0.5257582
218	0xbe06790d	-0.13132115
219	0xbf6da564	-0.9283049
220	0xbea6fbf2	-0.32614094
221	0x3e9d8e14	0.3077246
222	0x3eccf621	0.4003153
223	0x3ebc166b	0.36735854
224	0xbe3983a1	-0.18116619
225	0x3e8cccb0	0.27499914
226	0xbdb75eb2	-0.089536086
227	0xbea98b9b	-0.33114323
228	0x3ede5274	0.43422282
229	0x3f7ecda9	0.9953256
230	0x3d7647b6	0.060126983
231	0xbf799dca	-0.9750639
232	0x3d78640e	0.060642295
233	0x3df30f01	0.11868096
234	0xbe62bf80	-0.22143364
235	0x3d02c2ae	0.031923942
236	0x3de9e264	0.11420134
237	0x3e14313d	0.14471908
238	0xbe0a3f8f	-0.13500808
239	0xbe3e4a66	-0.18583068
240	0x3eafa947	0.34308836
241	0xbe0782aa	-0.13233438
242	0xbe9ab444	-0.30215657
243	0x3dd7d2c5	0.10538248
244	0xbeac722e	-0.33680862
245	0xbec17dba	-0.37791234
246	0x3e3f4f94	0.186827
247	0xbe697a33	-0.22800522
248	0xbed83a51	-0.42231992
249	0x3ebf76b6	0.37395257
250	0x3eba1fea	0.36352473
251	0x3e9736a4	0.29533875
252	0x3e90a865	0.28253475
253	0xbe0fd1dd	-0.140449
254	0x3e0fd304	0.1404534
255	0xbd8ca95e	-0.06868242

bias f4 [200]
0	0x3e8d3ba9	0.2758458
1	0x3e1dc6ca	0.15407863
2	0x3b1cb2a0	0.002391018
3	0x3ec8305c	0.39099395
4	0xbeac6768	-0.33672643
5	0x3eb069ea	0.34455806
6	0xbcde5274	-0.027138926
7	0x3c2dcb10	0.010607496
8	0xbcd38e1c	-0.025824599
9	0x3dfa8e0b	0.12234124
10	0x3ec7a505	0.38993087
11	0x3e5b02e4	0.21387821
12	0x3e8e9a04	0.2785188
13	0xbdea3149	-0.11435182
14	0x3e8e842e	0.2783522
15	0xbd9e0f5b	-0.077177726
16	0xbe71b626	-0.2360464
17	0xbeb18abf	-0.34676167
18	0xbca07ffa	-0.019592274
19	0x3ec1d1a2	0.3785525
20	0xbe9662f2	-0.29372364
21	0x3e057704	0.13033682
22	0x3e76c552	0.24098709
23	0xbe83275a	-0.2561596
24	0xbdf08c8f	-0.117455594
25	0x3e42480d	0.18972798
26	0xbef57ba6	-0.479459
27	0x3e147455	0.14497502
28	0x3d101788	0.03517869
29	0xbda8c02d	-0.082397796
30	0x3e7527a0	0.23940897
31	0x3e986fc1	0.2977276
32	0xbd094cb6	-0.033520423
33	0xbe8f805c	-0.28027618
34	0xbf32fdcc	-0.69918513
35	0x3eb3fa01	0.35151675
36	0xbdb7a53f	-0.08967065
37	0x3d95feea	0.073240116
38	0x3cf58d3f	0.029974578
39	0x3dade2b7	0.08490508
40	0xbdcc80d3	-0.09985509
41	0x3dcee172	0.10101594
42	0x3f1f9386	0.6233448
43	0x3d13b4a1	0.036060933
44	0xbea677b3	-0.32513198
45	0xbd33a00e	-0.043853812
46	0xbe0a6951	-0.13516738
47	0xbee57e18	-0.44822764
48	0x3e83703c	0.25671566
49	0x3e735729	0.23763718
50	0xbebccc2e	-0.36874527
51	0x3e3b9ba7	0.18321095
52	0xbd9570a6	-0.072968766
53	0xbd2474df	-0.04015052
54	0x3e7be06f	0.24597333
55	0xbef47b69	-0.47750404
56	0x3c33f247	0.010983056
57	0xbe8de746	-0.2771551
58	0xbdd92d61	-0.106043585
59	0xbde16560	-0.11005664
60	0x3e612e2e	0.21990272
61	0x3e8cc407	0.27493307
62	0xbced4ab1	-0.02896628
63	0xbeb88e40	-0.36046028
64	0xbd040540	-0.03223157
65	0xbe82f9a6	-0.25581092
66	0x3ddd0cc5	0.10793451
67	0x3cfd1ef4	0.030898549
68	0xbd5c2e64	-0.05375518
69	0xbd961ab6	-0.073293135
70	0x3e548336	0.20753178
71	0xbd938ce0	-0.07204604
72	0x3d508382	0.050906666
73	0xbc78e2e2	-0.015190812
74	0x3a4088fb	0.00073446304
75	0xbe2f4b27	-0.17118512
76	0xbe24e12c	-0.16101521
77	0xbe2afc6a	-0.16697851
78	0x3ee302aa	0.4433797
79	0x3e0b3ac4	0.13596636
80	0x3e509141	0.2036791
81	0xbc9b4729	-0.01895483
82	0x3c3b5e3c	0.011436041
83	0x3eec2615	0.46122804
84	0xbee05289	-0.4381297
85	0xbdf5b038	-0.11996502
86	0xbe91cfcf	-0.28478858
87	0x3de506c1	0.11182929
88	0x3dacb930	0.08433759
89	0xbd673bc4	-0.05645348
90	0xbec41184	-0.38294613
91	0x3e8f6325	0.2800533
92	0x3d8178c0	0.06321859
93	0xbe1c745d	-0.15278764
94	0x3ea70d6c	0.32627428
95	0xbe787b9f	-0.24265908
96	0x3e8bf050	0.2733178
97	0xbe7ae0b0	-0.24499774
98	0x3e6dfd7f	0.23241232
99	0xbe8b464c	-0.2720207
100	0x3e77ba1d	0.2419209
101	0xbe62d2a3	-0.22150664
102	0x3eae3da6	0.3403141
103	0x3e0860d2	0.13318184
104	0xbec720c8	-0.38892198
105	0xbe6cd3ec	-0.23127717
106	0x3e8b9ea4	0.2726947
107	0x3d81f1cd	0.06344948
108	0x3db2dc47	0.08733421
109	0xbd7b83b2	-0.06140489
110	0x3e880362	0.2656508
111	0xbdd5f261	-0.10446621
112	0xbec2fcf0	-0.380836
113	0x3e42686a	0.18985143
114	0x3e564e10	0.20928216
115	0xbdc2f01e	-0.09518455
116	0xbe3f3d91	-0.1867583
117	0x3e178b48	0.14799225
118	0x3e71ab8d	0.23600598
119	0xbe5d5174	-0.21613103
120	0xbdc2e3c3	-0.09516098
121	0xbe8b96a9	-0.27263382
122	0xbd7aa5ce	-0.06119328
123	0x3e5e0aa3	0.21683745
124	0xbe8cab44	-0.27474415
125	0xbd33b7b5	-0.04387637
126	0x3bf821e8	0.0075724013
127	0x3cd0c5fb	0.02548503
128	0xbe48aa2e	-0.19596168
129	0xbe84b447	-0.2591879
130	0xbe415ecf	-0.18883823
131	0xbdfaefe6	-0.12252788
132	0x3d58e4ea	0.052952684
133	0xbcc0adea	-0.023520429
134	0xbe791613	-0.24324827
135	0x3d852139	0.06500477
136	0xbeab8c59	-0.33505514
137	0xbea33796	-0.31878346
138	0xbdfed000	-0.124420166
139	0x3ecdae5c	0.40172088
140	0x3ebc8714	0.36821806
141	0x3ea835cd	0.32853547
142	0xbe879d92	-0.26487404
143	0xbece126d	-0.40248433
144	0xbe063433	-0.1310585
145	0x3e21b48d	0.15791531
146	0x3e83c790	0.25738192
147	0xbce1da03	-0.027569776
148	0x3e6386bb	0.22219364
149	0xbde7c629	-0.11317093
150	0x3e29b9c6	0.16574773
151	0xbeb6f1cd	-0.35731354
152	0xbec76a32	-0.38948208
153	0x3d229e9d	0.039702047
154	0xbe6cd893	-0.23129492
155	0x3e746119	0.23865165
156	0x3c2ad541	0.01042682
157	0x3e4c7f0e	0.19970343
158	0xbe5a6af1	-0.21329857
159	0x3ddabeea	0.10680945
160	0x3be99fc2	0.0071296403
161	0xbd9f4656	-0.077770874
162	0x3eb63032	0.35583645
163	0x3f25d65b	0.64780205
164	0xbc19e7ac	-0.009393614
165	0xbe66fe88	-0.22558033
166	0x3a901f1f	0.0010995603
167	0x3de659e0	0.11247611
168	0x3e3323bf	0.17494105
169	0xbed132ef	-0.40859172
170	0xbe06a83a	-0.13150111
171	0x3ed321bb	0.41236672
172	0x3eab9ec3	0.33519563
173	0xbe7cd37a	-0.24690047
174	0xbdd7eacc	-0.10542831
175	0xbd871537	-0.06595843
176	0xbe7637af	-0.24044679
177	0x3e551e74	0.20812398
178	0xbed7b186	-0.42127627
179	0xbe695d2e	-0.22789451
180	0xbd9306e2	-0.07179047
181	0xbe87741a	-0.26455766
182	0x3e9c3854	0.30511725
183	0x3f0cbdf8	0.5497737
184	0x3eb69c18	0.35665965
185	0x3dd0ef03	0.10201838
186	0x3ac88102	0.0015297236
187	0x3d6fab88	0.058513194
188	0xbeb50ae6	-0.35359877
189	0x3da61b4c	0.08110675
190	0x3eb47e59	0.35252646
191	0x3db8093a	0.08986135
192	0xbe0c8795	-0.13723595
193	0xbdf90de1	-0.1216085
194	0xbdbe0db6	-0.09279959
195	0xbdd3f8e0	-0.103502035
196	0x3ded74fd	0.11594579
197	0xbc9c5ab7	-0.019086225
198	0x3bcaae1f	0.0061853076
199	0x3ec215eb	0.37907347

weight f4 [200, 200]
0	0x3e0dda9e	0.13852927
1	0x3e258f07	0.16167842
2	0x3c900414	0.01758007
3	0x3e26f164	0.1630302
4	0xbd802548	-0.06257111
5	0x3e5c2d90	0.21501756
6	0x3eac0d48	0.33603883
7	0xbd9cc554	-0.07654825
8	0x3e2fe6cf	0.1717789
9	0x3d5a549b	0.053303342
10	0x3e227b6a	0.15867391
11	0x3ce13e20	0.027495444
12	0x3d9972f5	0.074926294
13	0xbea299c4	-0.3175794
14	0xbd1e3c2a	-0.038631596
15	0xbe43e4ce	-0.19130251
16	0x3e9df8d4	0.30853903
17	0x3d075e21	0.033048753
18	0x3e65ed6f	0.22453855
19	0x3d1bd474	0.038044408
20	0xbe6613e4	-0.22468525
21	0x3de9dabf	0.11418676
22	0x3e88e41c	0.26736534
23	0x3dfe99c2	0.12431671
24	0xbe86fc6f	-0.26364467
25	0x3ebcf362	0.36904436
26	0x3d5d1986	0.05397942
27	0x3e4f9599	0.2027191
28	0x3d3b4bc4	0.045726553
29	0x3db7888d	0.08961592
30	0x3e23b5af	0.15987276
31	0xbf0dc4af	-0.5537824
32	0x3da5b3db	0.08090945
33	0xbe9c718e	-0.30555385
34	0xbe534080	-0.20630074
35	0x3dcfe3cc	0.10150871
36	0x3da18def	0.078884
37	0x3e47a57e	0.19496724
38	0xbf3c92ff	-0.736618
39	0x3e7dd770	0.24789214
40	0x3b1f5cc8	0.0024316777
41	0x3dd39a98	0.10332221
42	0xbf2e0fa4	-0.67992616
43	0x3e3a86c2	0.18215469
44	0xbda0b42d	-0.07846866
45	0xbc8b4ac9	-0.017003434
46	0xbdf404e7	-0.119149975
47	0xbf5cbb5f	-0.86223406
48	0x3e5451ed	0.20734377
49	0x3e7bb422	0.24580434
50	0x3d821033	0.06350746
51	0x3e236a43	0.15958504
52	0x3ece668d	0.40312615
53	0x3dea5285	0.114415206
54	0x3d29ee46	0.041487
55	0x3e96a94f	0.29426047
56	0xbf273b98	-0.6532531
57	0x3e92939c	0.28628242
58	0x3da3694b	0.079790674
59	0x3d296060	0.041351676
60	0x3d863b4d	0.065542795
61	0x3e351c8e	0.17686674
62	0x3e17dbfa	0.14830008
63	0x3f68a126	0.90870893
64	0xbcfd6cd0	-0.030935675
65	0xbe720f62	-0.2363868
66	0x3dde756c	0.1086224
67	0x3e24a892	0.1607993
68	0xbe7c7aa9	-0.24656166
69	0x3ca7c4b5	0.02047954
70	0x3eedf3cb	0.46475062
71	0xbdd3704d	-0.10324154
72	0x3e5b4c3c	0.214158
73	0x3e16de67	0.14733277
74	0x3e1d983a	0.15390101
75	0x3dcd3fc0	0.10021925
76	0xbdc7d6af	-0.097577445
77	0xbdf95045	-0.12173513
78	0x3e367410	0.17817712
79	0xbe6c5811	-0.2308047
80	0x3d34ca9a	0.04413853
81	0x3e0d119a	0.13776246
82	0x3d842b24	0.06453541
83	0x3e4e6b07	0.20158015
84	0x3ca77b12	0.020444427
85	0x3e766c91	0.24064852
86	0x3f574331	0.840869
87	0x3e7c740e	0.24653646
88	0x3d8a4fb0	0.067534804
89	0xbdbe36d4	-0.092878014
90	0xbedaf8bf	-0.42767903
91	0x3e6c7f55	0.23095448
92	0x3e0436a1	0.12911464
93	0xbcb64e10	-0.02225402
94	0x3e2586cb	0.161647
95	0x3d403342	0.046923883
96	0xbec147ca	-0.37750083
97	0x3d72e423	0.0592996
98	0x3e9e610f	0.30933425
99	0x3cbc7971	0.023007127
100	0x3dcf4ab3	0.101216696
101	0x3e64dbb5	0.22349437
102	0x3dda0b48	0.10646683
103	0xbea2136d	-0.31655446
104	0x3e216a33	0.15763168
105	0xbcce1432	-0.025156114
106	0x3d5aa72c	0.053382084
107	0xbe8d85d9	-0.2764118
108	0xbc96410c	-0.018341564
109	0xbeaffc61	-0.34372237
110	0xbf8e8f45	-1.1137472
111	0x3dd14a72	0.102192774
112	0xbd73f89a	-0.059563257
113	0x3e0f4012	0.13989285
114	0x3ddbef0d	0.10738955
115	0xbdae472c	-0.08509669
116	0xbc534dbc	-0.012896951
117	0x3e91468f	0.28374144
118	0x3e82556e	0.25455803
119	0xbd08addb	-0.033368926
120	0x3e4e5fbc	0.20153707
121	0x3dd353db	0.103187285
122	0xbeaf592e	-0.34247726
123	0x3e8d4f28	0.27599454
124	0x3e1951aa	0.14972559
125	0xbf012477	-0.50446266
126	0x3e8fc308	0.28078485
127	0x3e28f39a	0.16499177
128	0x3d6b2685	0.057409782
129	0x3e31970e	0.17342779
130	0xbb8a12a8	-0.00421365
131	0xbe1ea36a	-0.15492025
132	0x3ea4668b	0.32109484
133	0x3d93473b	0.071913205
134	0xbde375b2	-0.11106433
135	0xbda051a7	-0.07828074
136	0x3d1be9d5	0.038064796
137	0xbecae8b3	-0.3963066
138	0x3df2831a	0.11841412
139	0x3ea1d8fa	0.31610852
140	0x3edbf9c1	0.42963985
141	0x3e0c9470	0.137285
142	0x3c4e9b2a	0.012610236
143	0xbe36aaf9	-0.17838658
144	0x3d1eeb0a	0.03879837
145	0xbf89209b	-1.0713075
146	0x3e8049b1	0.25056222
147	0x3e6a23af	0.22865175
148	0x3e01230f	0.1261103
149	0x3e0d786f	0.13815473
150	0x3e59972f	0.21249078
151	0x3d96399e	0.07335208
152	0x3e240e5b	0.16021101
153	0xbd86198f	-0.06547844
154	0xbf4b17df	-0.793333
155	0x3e891f25	0.26781574
156	0xbe39dccc	-0.18150634
157	0x3e983832	0.29730374
158	0xbef34503	-0.4751359
159	0x3b454570	0.0030101202
160	0x3df32d27	0.118738465
161	0xbe80badf	-0.2514257
162	0xbebd2d79	-0.36948755
163	0xbfc9ece9	-1.5775424
164	0xbd34a171	-0.044099275
165	0x3e093be6	0.13401756
166	0x3e20fab2	0.15720633
167	0x3d1ba088	0.03799489
168	0x3e1d8ecc	0.15386504
169	0x3aae725e	0.001330923
170	0xbcbc1500	-0.022959232
171	0x3dbdcb10	0.09267247
172	0xbf669da8	-0.90084314
173	0x3e48d0cb	0.19610898
174	0xbdf6fa44	-0.12059453
175	0x3ea802e4	0.32814705
176	0x3db054ef	0.0860995
177	0x3e2fe1ec	0.17176026
178	0xbf298835	-0.6622346
179	0xbf42e1a5	-0.76125556
180	0x3d164de2	0.03669537
181	0xbd91b40f	-0.071144216
182	0x3e4b41f9	0.19849385
183	0x3e728474	0.2368334
184	0x3dcfbaab	0.10143026
185	0x3e2a9d01	0.16661455
186	0x3e8c199a	0.27363282
187	0x3e2e8d45	0.17046078
188	0x3e84a93b	0.25910363
189	0xbf8c9db7	-1.0985631
190	0xbe0d9f4f	-0.13830303
191	0x3c18e8f0	0.00933288
192	0x3e8820de	0.26587576
193	0x3e0d4b9b	0.13798372
194	0x3dc75cf4	0.09734526
195	0xbda63e36	-0.081173345
196	0xbf66c1e0	-0.9013958
197	0xbe72992d	-0.23691244
198	0x3d9a1c7b	0.075249635
199	0xbf957fc8	-1.1679621
200	0xbd62a4cb	-0.05533294
201	0xbdc309b6	-0.095233366
202	0xbe19688c	-0.14981288
203	0xbd6ad83f	-0.057335135
204	0xbe53b32e	-0.2067382
205	0xbb467bdf	-0.0030286235
206	0xbce132c8	-0.027490035
207	0xbdd1f7c0	-0.10252333
208	0xbca55c78	-0.020185694
209	0xbd4a1d77	-0.049344506
210	0xbd437ca3	-0.047726285
211	0x3d34fb62	0.04418505
212	0xbd5b26b0	-0.053503692
213	0x3d943f3d	0.07238624
214	0x3c432af1	0.0119120935
215	0xbddf6b4b	-0.109091364
216	0xbc71b483	-0.01475251
217	0xbdd91a88	-0.106007636
218	0xbdadb899	-0.08482475
219	0xbd8c6acc	-0.068563074
220	0xbd96db0e	-0.07366
221	0xbd7c983e	-0.061668627
222	0xbe5006ab	-0.20315044
223	0xbd941dfe	-0.07232283
224	0x3d9bc1d9	0.07605333
225	0xbd74907b	-0.0597081
226	0xbd1d4f07	-0.038405444
227	0xbddd9076	-0.10818569
228	0xbc9e53b2	-0.019327018
229	0x3c72103e	0.01477438
230	0xbcfa34ae	-0.030542698
231	0xbd152cda	-0.036419727
232	0xbd309c75	-0.04311796
233	0x3d48b9f6	0.04900547
234	0xbe08f8af	-0.13376115
235	0xbc131e48	-0.008979388
236	0xbd06c679	-0.032904122
237	0xbdb8068e	-0.08985625
238	0xbcb02286	-0.021500837
239	0xbe0d06a6	-0.13772067
240	0xbdc8180b	-0.09770211
241	0xbc8686d1	-0.016421707
242	0xbd2eda18	-0.04268846
243	0xbd1f1cab	-0.0388457
244	0xbceaa835	-0.02864466
245	0x3c9e30b7	0.019310338
246	0x3d0c317c	0.03422688
247	0xbd7771f3	-0.060411405
248	0xbcda47fb	-0.026645651
249	0x3c05889a	0.008150244
250	0x3c89f733	0.016841507
251	0xbd06a99d	-0.0328766
252	0xbc0fd571	-0.008778916
253	0xbd7ea6c6	-0.062170766
254	0xbe2ae6c3	-0.16689591
255	0xbcb83670	-0.022486895
