Vehicles/GenDisV_0_01_0/GenDisV_0_01_0_critic.pth (torch, 353427 bytes, 10 tensors)

weight f4 [200, 15]
0	0x3eacafb0	0.3372779
1	0xbec8828b	-0.39162096
2	0xbf07ea04	-0.53091455
3	0xbe126af5	-0.14298613
4	0xbeba889c	-0.3643235
5	0x3df3ef14	0.11910835
6	0x3e1aeb68	0.15128863
7	0x3f027b6e	0.5096959
8	0x3e7e9988	0.24863255
9	0xbd66275a	-0.056189872
10	0xbe2d2d33	-0.16911773
11	0xbec9f49e	-0.3944444
12	0xbf0cbe4f	-0.5497789
13	0x3c1aa163	0.009437892
14	0x3eb6e888	0.35724282
15	0xbf6a0ecd	-0.91428834
16	0x3cf3c64c	0.029757641
17	0xbca8ad02	-0.020590309
18	0x3ea4b13b	0.32166466
19	0x3e46b614	0.19405395
20	0xbe22d032	-0.15899733
21	0x3e2b1ff7	0.16711412
22	0xbd53cdf2	-0.051710077
23	0xbe4dc56a	-0.20094839
24	0xbd983b5f	-0.07433199
25	0x3e2302f5	0.15919097
26	0x3e71f808	0.23629773
27	0x3e6f94b4	0.2339657
28	0xbceca796	-0.028888505
29	0xbe858755	-0.26079813
30	0x3ed8ec4b	0.42367777
31	0xbc82217e	-0.015885111
32	0xbec4bc8b	-0.38425097
33	0xbe7754fe	-0.24153516
34	0xbe45f48f	-0.19331573
35	0x3e558239	0.20850457
36	0x3e11682c	0.14199895
37	0xbd92dd71	-0.07171143
38	0x3ebdf928	0.37104154
39	0xbca2262c	-0.019793592
40	0x3dc93ccc	0.09826049
41	0xbde81c96	-0.11333577
42	0xbdf667f5	-0.12031547
43	0xbecec628	-0.40385556
44	0xbf020e94	-0.50803494
45	0x3dece5f6	0.11567299
46	0x3e635dde	0.22203776
47	0x3d98b9af	0.07457291
48	0xbe2a5cdc	-0.16636986
49	0x3e2e1c7c	0.17003053
50	0xbcb284d7	-0.021791859
51	0xbddf0c02	-0.10890962
52	0xbe164eaf	-0.14678453
53	0x3e0b86ea	0.13625684
54	0xbf50ca97	-0.8155913
55	0xbd5d5f12	-0.054045744
56	0x3e44d1fc	0.19220728
57	0x3e0bab62	0.13639596
58	0xbd8d1c37	-0.06890147
59	0x3e4a6989	0.19766821
60	0xbd61ffbb	-0.055175524
61	0x3bdbdc87	0.0067096385
62	0x3d5dc635	0.054144103
63	0xbdc8e46e	-0.098091945
64	0xbd13b282	-0.03605891
65	0x3bb89330	0.0056327805
66	0xbe274640	-0.16335392
67	0xbde83e93	-0.1134006
68	0x3c6cc414	0.014451046
69	0xbe8776b9	-0.26457766
70	0x3d2965c3	0.041356813
71	0xbe81d90a	-0.253609
72	0x3d525d18	0.051358312
73	0xbe0230c1	-0.1271391
74	0xbd526ed5	-0.05137523
75	0x3e3b1db6	0.18273053
76	0x3e863e68	0.26219487
77	0xbea87e70	-0.32908964
78	0xbe3919b2	-0.18076208
79	0x3d943558	0.07236737
80	0x3e34fb1b	0.17673914
81	0xbd2652d3	-0.04060633
82	0xbe7c0286	-0.24610338
83	0xbe156eb8	-0.14593017
84	0xbde7be8e	-0.11315642
85	0xbe949c17	-0.29025337
86	0xbce5ce56	-0.02805249
87	0xbf2adfc3	-0.66747683
88	0x3d96d1b1	0.07364214
89	0x3d5dddd0	0.054166615
90	0xbf243d14	-0.641557
91	0x3e981822	0.29705912
92	0x3eb3222d	0.34987012
93	0x3e2081b1	0.15674473
94	0x3c80dc39	0.01573001
95	0x3ebc5b96	0.36788625
96	0xbe8c20c9	-0.27368763
97	0xbe981ac0	-0.2970791
98	0x3eb58540	0.35453224
99	0x3d0084f4	0.031376794
100	0xbe368d88	-0.17827427
101	0xbdbb40ed	-0.09143243
102	0xbe35bf95	-0.17748864
103	0x3e567274	0.20942098
104	0xbe1a8e35	-0.1509331
105	0xbd812829	-0.06306488
106	0xbeb0f790	-0.34563875
107	0xbd3c7d2b	-0.046017807
108	0xbdeea90c	-0.11653337
109	0xbb6c59e6	-0.0036064326
110	0xbea9c793	-0.33160076
111	0xbea2ddfa	-0.3180998
112	0x3decd71c	0.11564466
113	0x3e8b67fd	0.27227774
114	0x3e9dae2e	0.3079695
115	0x3e4956ad	0.1966197
116	0xbe739e04	-0.23790747
117	0xbe43eb34	-0.19132692
118	0xbf0273fc	-0.5095823
119	0x3f1883c0	0.59576035
120	0x3e89b516	0.2689597
121	0x3be69a60	0.007037446
122	0xbece17f4	-0.4025265
123	0x3ecdacb9	0.4017084
124	0x3d308922	0.04309953
125	0xbecd6725	-0.40117756
126	0xbf39466e	-0.7237309
127	0xbc4e16ca	-0.0125786755
128	0x3e041cd6	0.12901625
129	0x3e30c33b	0.17261975
130	0x3b7ac974	0.0038267048
131	0x3ca2a979	0.019856201
132	0xbd6db9a2	-0.05803836
133	0xbda7ed2f	-0.08199536
134	0x3e38bdeb	0.18041198
135	0xbf0cafff	-0.5495605
136	0xbe31685e	-0.17324969
137	0xbe9d7c6e	-0.30758995
138	0xbd4b2d39	-0.049603675
139	0x3c2adb01	0.010428191
140	0xbef9e203	-0.48805246
141	0xbf02727d	-0.50955945
142	0xbe4e7feb	-0.20165984
143	0xbdcfbcee	-0.10143457
144	0x3e6cf345	0.23139675
145	0x3e7e7d0b	0.24852388
146	0xbe1cf17d	-0.15326495
147	0xbc7183b6	-0.014740875
148	0xbe96efd4	-0.2947985
149	0x3de010de	0.10940717
150	0xbf39881d	-0.7247332
151	0x3e46bd6e	0.19408199
152	0x3e6850df	0.226871
153	0xbe7ab143	-0.24481682
154	0xbe603e8c	-0.2189886
155	0x3e01ed38	0.12688148
156	0x3e80ed1d	0.25180903
157	0x3ea45685	0.3209726
158	0xbdc7470f	-0.0973035
159	0xbe041c4c	-0.1290142
160	0x3e0cca91	0.13749148
161	0xbe9bf76b	-0.30462202
162	0x3d1a4116	0.037659727
163	0xbe3c4bd8	-0.18388307
164	0x3d6e575d	0.058188785
165	0xbefa6c6f	-0.48910853
166	0xbb9efbd2	-0.0048517967
167	0x3e19892e	0.14993736
168	0xbe27622c	-0.16346043
169	0xbeb9506f	-0.36194178
170	0xbe73aa59	-0.23795451
171	0xbe94a82b	-0.29034552
172	0x3de6f8c5	0.11277918
173	0xbe0b8335	-0.1362427
174	0xbecd68ef	-0.4011912
175	0xbe53a323	-0.206677
176	0x3cc30978	0.023808226
177	0x3d4fa799	0.050696943
178	0x3ea2d6c0	0.31804466
179	0x3e577eb6	0.2104443
180	0x3ea7a654	0.32744086
181	0xbeb2f883	-0.34955224
182	0x3e7c8e01	0.24663545
183	0xbe5c9197	-0.21539913
184	0x3e27a0b8	0.16369903
185	0x3c6d4f49	0.014484235
186	0xbeacf004	-0.33776867
187	0xbd8beb59	-0.068319984
188	0xbf1bceb7	-0.60862297
189	0xbf99d4c9	-1.2018062
190	0xbfc37bf5	-1.5272204
191	0xbf568040	-0.83789444
192	0xbf10918c	-0.56472087
193	0xbb810053	-0.003936806
194	0x3df7330c	0.12070283
195	0x3f138979	0.5763164
196	0x3f4892c1	0.7834893
197	0xbd92b6ae	-0.0716375
198	0xbeaf6848	-0.34259248
199	0xbe5e4d0c	-0.21709079
200	0xbdcaebdb	-0.09908267
201	0x3e496a0f	0.19669364
202	0x3c710db2	0.014712738
203	0xbd06ca4b	-0.032907765
204	0x3da2c54f	0.0794779
205	0x3c0d1d8e	0.008613003
206	0x3e43d36b	0.19123618
207	0xbe08f605	-0.13375099
208	0x3ed745d4	0.42045462
209	0x3e265574	0.16243535
210	0xbf4d5902	-0.8021394
211	0xbedfef50	-0.43737268
212	0x3d0f9001	0.035049442
213	0xbd2bbce3	-0.041928183
214	0x3ec3e05c	0.3825711
215	0xbda0d246	-0.078526065
216	0xbd12cadd	-0.035837997
217	0xbec61228	-0.38685727
218	0xbe7002ee	-0.23438618
219	0xbe85930c	-0.2608875
220	0xbe47256d	-0.1944787
221	0x3e221e03	0.15831761
222	0x3e610bd1	0.21977164
223	0x3d416d3a	0.047223307
224	0xbf229e2e	-0.63522613
225	0x3f0e907f	0.55689234
226	0x3df991cd	0.121860124
227	0x3cde7a64	0.02715797
228	0xbe3aef10	-0.18255258
229	0xbd9e1e45	-0.07720617
230	0xbdb543dd	-0.088508345
231	0x3e2557ed	0.16146822
232	0x3e1a2239	0.15052117
233	0x3dd2228a	0.10260494
234	0xbe0b392e	-0.13596031
235	0x3e4955c4	0.19661623
236	0x3d03bb6c	0.03216116
237	0xbefc02d0	-0.49220896
238	0xbecc3bc6	-0.39889354
239	0x3e25ac1e	0.16178939
240	0x3d76a413	0.060215067
241	0x3e0657fa	0.13119498
242	0x3d9ccca7	0.07656222
243	0xbe069922	-0.13144353
244	0xbe044fad	-0.12921019
245	0xbe5acaf2	-0.2136648
246	0x3cb88da9	0.022528486
247	0xbdd75601	-0.10514451
248	0xbe96655f	-0.29374215
249	0xbe601c7c	-0.21885866
250	0x3e2a79db	0.16648047
251	0x3d43a7b3	0.047767352
252	0xbe506937	-0.20352636
253	0xbe34afb2	-0.17645147
254	0x3e521b80	0.20518303
255	0x3f0e9667	0.55698246

bias f4 [200]
0	0xbe1019ff	-0.14072417
1	0xbe149209	-0.14508833
2	0xbe81d9c8	-0.25361466
3	0xbd99a63c	-0.0750241
4	0xbdeab59b	-0.1146042
5	0x3e467bc6	0.19383153
6	0x3e004af3	0.12528591
7	0xbc8fab7e	-0.017537829
8	0x3e1a6a8b	0.15079705
9	0x3ba0a586	0.0049025444
10	0x3b52213f	0.0032063273
11	0xbcd2f30d	-0.025750661
12	0x3e8a7f66	0.27050322
13	0xbe77d108	-0.24200833
14	0xbbfe03d3	-0.0077519207
15	0xbe0e8b8f	-0.13920425
16	0xbe85499b	-0.2603272
17	0xbdfc8ba0	-0.12331319
18	0x3e3c5477	0.18391596
19	0x3cf5da30	0.030011266
20	0x3e2878df	0.16452359
21	0xbe585c6e	-0.21129009
22	0x3dd315bd	0.103068806
23	0xbd884dbe	-0.06655453
24	0xbde5e3b8	-0.112250745
25	0x3c03c3c0	0.008042276
26	0x3ea297df	0.31756493
27	0x3e095f65	0.13415296
28	0x3e19a609	0.15004744
29	0x3e1568d5	0.14590771
30	0xbd3b25cd	-0.045690347
31	0x3e295487	0.16536151
32	0xbe043e01	-0.12914278
33	0xbe03187c	-0.12802309
34	0xbe9833e7	-0.29727098
35	0x3dab8079	0.083741136
36	0xbe1d9607	-0.15389262
37	0x3e1d16e1	0.15340759
38	0x3d7ac773	0.061225366
39	0xbd371ba2	-0.044704087
40	0xbdf1862f	-0.117931716
41	0xbba3b9d4	-0.0049965177
42	0x3dc5ab6c	0.09651837
43	0xbd1e6ac9	-0.038676057
44	0x3e61fc1d	0.2206883
45	0x3e5d5733	0.21615295
46	0x3dafe63c	0.085888356
47	0x3d3ec5c4	0.046575323
48	0x3e386a36	0.18009266
49	0xbeba86de	-0.3643102
50	0x3db783eb	0.08960708
51	0xbe7c1855	-0.24618657
52	0xbd53c60d	-0.051702548
53	0x3c40217f	0.011726736
54	0xbe0cfb17	-0.13767658
55	0xbd953c72	-0.0728692
56	0x3e808d1a	0.25107652
57	0xbe42bc21	-0.19017078
58	0x3e9b5fb6	0.3034646
59	0xbe4c9878	-0.19980037
60	0x3d12a822	0.035804875
61	0x3e631210	0.22174859
62	0xbe8ac2b0	-0.2710166
63	0x3cd70ba9	0.026250677
64	0x3e8b4092	0.271977
65	0xbe5d2116	-0.21594653
66	0x3d94a6c8	0.072583735
67	0xbe125c9e	-0.14293143
68	0x3b0b9464	0.0021298165
69	0x3e3fd8fc	0.18735117
70	0x3e778c72	0.2417467
71	0xbe62997f	-0.22128867
72	0x3dfa3cf1	0.12218655
73	0xbd381f43	-0.04495169
74	0xbc9bb347	-0.019006385
75	0x3d87ac9e	0.06624721
76	0xbde60c31	-0.11232794
77	0xbe6e09f6	-0.23245987
78	0xbd9844b2	-0.074349776
79	0xbe2922c6	-0.16517171
80	0x3e19946c	0.14998025
81	0xbca9c3f0	-0.020723313
82	0xbe1d87b9	-0.15383805
83	0x3e594165	0.21216352
84	0xbc4fa46d	-0.0126734795
85	0xbe53bb9a	-0.20677033
86	0xbea0fc52	-0.31442505
87	0x3bef70aa	0.007307132
88	0xbe0282fb	-0.12745278
89	0x3db531ec	0.088474125
90	0x3e93ad4b	0.2884315
91	0x3e808242	0.2509938
92	0x3d5ab11a	0.053391553
93	0xbda0cd61	-0.07851673
94	0x3d6e9529	0.05824772
95	0x3c4be731	0.012445257
96	0xbdb7ca4d	-0.08974133
97	0x3d142a7d	0.036173332
98	0xbe82915b	-0.25501522
99	0xbf102125	-0.56300575
100	0xbecf0dfc	-0.40440357
101	0x3b4c75d5	0.0031198163
102	0xbeaf7c64	-0.3427459
103	0xbd72d05c	-0.05928074
104	0x3e67716e	0.22601864
105	0x3d72feff	0.059325214
106	0xbd09261e	-0.033483617
107	0x3e115e54	0.1419614
108	0xbe689945	-0.22714718
109	0xbea2c545	-0.3179113
110	0x3e6673c4	0.22505099
111	0xbe3c6d5e	-0.18401095
112	0xbe74cdbb	-0.23906605
113	0x3e13b176	0.14423165
114	0x3c8bc052	0.017059479
115	0xbd6ed8eb	-0.058312338
116	0xbdb31e1e	-0.08745979
117	0xbea35fa6	-0.3190891
118	0xbe46f432	-0.1942909
119	0xbe349995	-0.17636712
120	0x3cee0237	0.02905379
121	0xbe7f0655	-0.24904759
122	0xbe3b4994	-0.18289787
123	0xbba280c7	-0.004959199
124	0xbe970a19	-0.2949989
125	0x3e2f7244	0.17133433
126	0xbe52c7d7	-0.20584045
127	0x3e9b5cf1	0.30344346
128	0xbe73a4d7	-0.2379335
129	0xbde6283c	-0.11238143
130	0xbe4bf53d	-0.1991777
131	0xbe85f4bc	-0.2616328
132	0x3e21329c	0.15741962
133	0x3dff3a31	0.12462271
134	0xbe4757bc	-0.19467062
135	0xbc6fe408	-0.014641769
136	0xbeed5c32	-0.46359402
137	0xbe4062f0	-0.18787742
138	0xbd3a6e2d	-0.045515228
139	0x3df5ec87	0.12008005
140	0xbc79d04c	-0.015247416
141	0xbdba06e7	-0.09083348
142	0xbe4e440a	-0.20143142
143	0xbe842128	-0.25806546
144	0x3e51f49e	0.2050347
145	0xbea5a092	-0.32349068
146	0xbe43d008	-0.19122326
147	0xbea8c5a1	-0.3296328
148	0x3da4a757	0.0803973
149	0xbe33255b	-0.17494719
150	0x3db36f44	0.087614566
151	0xbcf5015d	-0.029907877
152	0xbe813859	-0.25238302
153	0xbcb540a6	-0.022125553
154	0xbeaa57b0	-0.33270025
155	0xbe1f1d41	-0.15538503
156	0x3dc7f48d	0.09763441
157	0x3de8aaa8	0.11360675
158	0xbdce393b	-0.100695096
159	0x3e8f1796	0.27947682
160	0x3e066bac	0.13127011
161	0xbce9eb9f	-0.028554736
162	0xbd0efa0e	-0.03490644
163	0x3e096303	0.13416676
164	0x3e86b89e	0.26312727
165	0xbe30c1a6	-0.17261371
166	0xbe76d769	-0.2410561
167	0xbe8bbb94	-0.27291548
168	0x3e11f75e	0.1425452
169	0x3e8ffb25	0.28121296
170	0xbd9439d9	-0.07237596
171	0x3cd4f0d9	0.025993751
172	0xbd703b37	-0.05865022
173	0x3e0c3bf8	0.13694751
174	0xbe369fad	-0.17834349
175	0xbd4601af	-0.04834145
176	0xbd0538fa	-0.03252504
177	0xbd904b30	-0.07045591
178	0x3e295589	0.16536535
179	0xbe62e74a	-0.22158542
180	0x3e44353f	0.19160937
181	0x3df949bc	0.12172267
182	0xbeb0df65	-0.34545437
183	0xbe91859b	-0.28422245
184	0xbd013afa	-0.031550385
185	0x3dc36724	0.09541157
186	0x3de1d307	0.110265784
187	0x3e827cc8	0.25485826
188	0xbd9e8050	-0.077393174
189	0xbe8793db	-0.26479992
190	0x3e454227	0.19263516
191	0xbd937934	-0.07200852
192	0x3e5fa9b3	0.21842079
193	0xbcac0acf	-0.021001248
194	0x3d108cb6	0.035290442
195	0xbdd78bae	-0.10524689
196	0xbd0d0ec3	-0.034437906
197	0xbd979fcf	-0.07403528
198	0xbe5ab71c	-0.21358913
199	0x3d103691	0.03520829

weight f4 [200, 200]
0	0x3bbc416e	0.0057451045
1	0xbe00c23d	-0.12574096
2	0xbe7af3bb	-0.24507038
3	0x3ce0f897	0.027462287
4	0xbc093f14	-0.008376855
5	0xbd0a0035	-0.033691604
6	0x3cdde8d5	0.027088562
7	0xbe24cd07	-0.16093837
8	0xbd8827f1	-0.06648243
9	0xbe7b1ea8	-0.24523413
10	0xbe06bdbb	-0.13158314
11	0xbc16f821	-0.009214432
12	0xbdfe2d45	-0.12410978
13	0xbcea5255	-0.028603712
14	0xbe16d67a	-0.14730254
15	0xbde5248c	-0.111886114
16	0x3d2b2821	0.041786317
17	0xbcb9b69b	-0.02267008
18	0xbe2ec85c	-0.17068619
19	0x3d190941	0.03736234
20	0xbe138667	-0.14406739
21	0xbeb936d7	-0.36174652
22	0x3d9c04b5	0.07618085
23	0x3cc00bd5	0.023443142
24	0xbcafd7cc	-0.021465205
25	0x3b7e7323	0.003882595
26	0xbda01fa6	-0.078185365
27	0xbceb7208	-0.028740898
28	0xbdf6ad1d	-0.120447375
29	0x3d001821	0.03127301
30	0xbd8bfdcf	-0.068355195
31	0x3c0075e6	0.007840609
32	0xbcc9cef1	-0.02463481
33	0xbe322f1a	-0.1740078
34	0xbc2d615c	-0.010582294
35	0xbea3ade7	-0.31968614
36	0xbc49441c	-0.012284305
37	0xbaa27ece	-0.001239741
38	0x3d2ed395	0.04268225
39	0xbdf41ca8	-0.11919528
40	0xbe972cbd	-0.2952632
41	0xbd692bd8	-0.05692658
42	0xbdcf00b3	-0.10107555
43	0x3d587816	0.052848898
44	0xbda1a057	-0.078919105
45	0xbe430868	-0.19046175
46	0xbe4c37dd	-0.19943185
47	0xbd7531d5	-0.059861977
48	0xbed3fd00	-0.4140396
49	0x3c55677e	0.013025163
50	0xbd014e1f	-0.031568643
51	0xbe473d11	-0.19456889
52	0x3d148274	0.036257222
53	0x3b579e7b	0.0032900858
54	0xbdeaeaaf	-0.114705436
55	0x3ced28cb	0.028950116
56	0xbec50bb9	-0.38485506
57	0xbea03de5	-0.31297222
58	0xbe14e477	-0.14540277
59	0xbe393c52	-0.18089417
60	0xbd4f4275	-0.050600488
61	0xbd26812f	-0.040650543
62	0xbc90bb1c	-0.017667346
63	0xbdba1c33	-0.0908741
64	0xbd2716e0	-0.0407933
65	0xbd104fbb	-0.035232287
66	0xbc83b059	-0.0160753
67	0x3bf8bee9	0.0075911176
68	0xbd7703c4	-0.060306326
69	0x3ceecdfe	0.02915096
70	0xbc197a3a	-0.00936752
71	0xbe8174d3	-0.25284442
72	0x3d3bdaad	0.045862842
73	0xbd281cb0	-0.041042984
74	0xbdb797d5	-0.089645065
75	0xbdf9b175	-0.1219205
76	0x3dc8a5e3	0.097972654
77	0x3db3b4ad	0.087746955
78	0xbe49db85	-0.19712646
79	0x3e2503df	0.16114758
80	0xbbf404fa	-0.0074468823
81	0xbc54c18a	-0.012985596
82	0xbd4c7d34	-0.04992409
83	0xbd556980	-0.052102566
84	0xbdd3d8b3	-0.103440665
85	0xbed561ad	-0.41676083
86	0x3d2449c6	0.04010942
87	0xbde7a8b4	-0.113114744
88	0xbce3351a	-0.027735282
89	0xbc7f81a1	-0.015594871
90	0xbdf6debf	-0.12054204
91	0xbbdddbf6	-0.006770606
92	0xbc5e42d2	-0.013565736
93	0xbe2471a3	-0.16058974
94	0xbe23c69a	-0.15993729
95	0x3d2132dc	0.039355144
96	0xbe3983ee	-0.18116733
97	0xbecf0dbc	-0.40440166
98	0x3c9f90d1	0.019478234
99	0x3c7f00c6	0.015564149
100	0xbdb71d66	-0.08941154
101	0xbd76d4e0	-0.060261607
102	0xbc6cfaad	-0.014464063
103	0x3d17814a	0.036988534
104	0xbe538606	-0.20656595
105	0xbe623e77	-0.22094141
106	0xbca1568f	-0.019694595
107	0x3d4ed991	0.050500456
108	0x3d3c1695	0.045919973
109	0xbd1262ca	-0.035738744
110	0xbc5bf3c9	-0.013424822
111	0x3bc4f127	0.006010193
112	0xbd1948a0	-0.037422776
113	0x3d6d749a	0.057972528
114	0xbc55e91f	-0.013056069
115	0xbdc68aa3	-0.096944116
116	0xbd834fde	-0.06411718
117	0xbd841c9b	-0.064507686
118	0x3da1dbe0	0.07903266
119	0x3d8abab8	0.06773895
120	0x3d1163bc	0.035495505
121	0x3c9b545d	0.018961126
122	0x3d7aafdf	0.06120288
123	0x3cadf71f	0.021236
124	0xbdd5ee31	-0.10445822
125	0x3d9f3393	0.07773509
126	0xbd8417c3	-0.06449845
127	0xbdf9634a	-0.12177141
128	0x3d56f637	0.052480903
129	0xbd115bf8	-0.0354881
130	0x3c2b3705	0.010450129
131	0xbdbf6988	-0.093463
132	0x3ca655e7	0.020304633
133	0xbdd4ea0f	-0.10396206
134	0xbd95e1fe	-0.07318495
135	0xbd5a3f20	-0.053282857
136	0xbd607095	-0.054794867
137	0xbe074225	-0.13208826
138	0xbd4183b7	-0.047244754
139	0x3a6ff62c	0.0009153809
140	0xbd2075b3	-0.039174747
141	0xbd8da5ff	-0.06916427
142	0xbed563ab	-0.41677603
143	0xbd27d4b6	-0.04097434
144	0x3c73b1a9	0.0148739
145	0xbeba1d0c	-0.36350286
146	0xbe095df4	-0.13414747
147	0xbd87cfb6	-0.066314146
148	0xbc43e9d4	-0.011957604
149	0xbca3576c	-0.019939147
150	0xbcb3882a	-0.021915514
151	0xbc983fe0	-0.018585145
152	0xbd5e4d58	-0.05427298
153	0xb9ee9acc	-0.0004551023
154	0x3dfcf33a	0.12351079
155	0x3c92d819	0.017925309
156	0xbde9056b	-0.113779865
157	0x3d2bfc51	0.041988675
158	0x3dda2647	0.10651832
159	0xbbe3ca77	-0.006951626
160	0xbe5006b1	-0.20315053
161	0x3c4f4b1d	0.012652186
162	0xbdb043e6	-0.086067006
163	0xbcd8f418	-0.02648358
164	0xbe06c3da	-0.13160649
165	0x3d5cc7b8	0.053901404
166	0x3c807484	0.015680559
167	0xbbc2a4ca	-0.0059400545
168	0xbc5b2cc4	-0.013377372
169	0xbdffadd7	-0.12484329
170	0xbe58463c	-0.21120542
171	0x3d6f4bab	0.058421772
172	0xbdc38a02	-0.09547807
173	0xbe5cae17	-0.21550785
174	0xbe817fc7	-0.252928
175	0xbe647bee	-0.223129
176	0xbbcf5185	-0.0063268566
177	0xbd4d5b8d	-0.050136138
178	0xbb39b810	-0.002833847
179	0x3dd0cb80	0.101950645
180	0x3c1e4615	0.009660264
181	0x3d0406b1	0.032232944
182	0xbdd4c448	-0.10389
183	0x3d1bdcb2	0.03805227
184	0xbc2a86df	-0.010408132
185	0x3dbfc208	0.093631804
186	0xbcfdc084	-0.030975588
187	0x3d31955c	0.04335533
188	0xbddf2a50	-0.10896742
189	0xbce3b408	-0.027795807
190	0xbd2dba01	-0.042413715
191	0x3d8682f3	0.06567945
192	0xbe95d417	-0.29263374
193	0xbd0de653	-0.034643482
194	0xbb82d4b1	-0.00399264
195	0xbd96d206	-0.073642775
196	0xbe1e8d84	-0.15483671
197	0xbd40a3de	-0.047031276
198	0xbe5566e9	-0.20840038
199	0xbce2fe27	-0.02770908
200	0xbd5ca88e	-0.053871684
201	0xbcb76105	-0.02238513
202	0xbdc34a4c	-0.095356554
203	0xbcec31a6	-0.028832268
204	0x3d60f832	0.054924197
205	0xbd800f96	-0.06252973
206	0x3be910b7	0.0071125883
207	0x3d0f9d39	0.03506205
208	0x3bc5e24d	0.00603894
209	0xbceb356c	-0.028711997
210	0xbbe81e2c	-0.007083675
211	0xbcdbcd1a	-0.026831198
212	0xbd0c7e5a	-0.034300186
213	0xbc4615cf	-0.0120901605
214	0x3b5868f3	0.003302154
215	0xbd97c1dd	-0.07410023
216	0xbd64191a	-0.055688
217	0x3d66952e	0.056294613
218	0xbc8c95d6	-0.017161291
219	0xbd338c84	-0.043835178
220	0x3d1dfc83	0.038570892
221	0xbc0ec98b	-0.008715044
222	0x3c982036	0.018570047
223	0xbd395f3f	-0.04525685
224	0xbdb5c457	-0.088753395
225	0x39a261b4	0.00030971842
226	0x3d24ca7a	0.04023216
227	0x3cd4ab3f	0.025960563
228	0xba4a8756	-0.0007725855
229	0xbd2ad0c0	-0.041702986
230	0xbd819686	-0.06327538
231	0xbdce52f3	-0.10074415
232	0xbcdeaa09	-0.027180688
233	0xbc328557	-0.0108960485
234	0x3d453c9c	0.048153505
235	0xbce05882	-0.027385954
236	0xbd4c1bfd	-0.04983138
237	0xbcc145cc	-0.023592852
238	0xbce4c86a	-0.027927596
239	0xbda781ad	-0.081790306
240	0x3c11ca22	0.00889829
241	0xbc9769dd	-0.018483097
242	0xbd801e06	-0.062557265
243	0xbd81ad26	-0.063318536
244	0x3d30853c	0.043095812
245	0xbd7bd412	-0.061481543
246	0xbd492a04	-0.049112335
247	0x3d09469d	0.033514608
248	0x3b3dfee7	0.0028991045
249	0x3c90e07f	0.017685173
250	0xbc95e7f6	-0.018299084
251	0xbd15e059	-0.036590908
252	0xbd27d833	-0.040977668
253	0xbdd4e710	-0.10395634
254	0xbd461af0	-0.048365533
255	0x3d1ca690	0.038244784

bias f4 [200]
0	0xbdeac604	-0.1146355
1	0xbd9026ff	-0.07038688
2	0x3c4fb76f	0.012678011
3	0xbd85ab3a	-0.065267995
4	0xbe04fa5f	-0.12986134
5	0xbe963ed2	-0.29344803
6	0x3c8dae0d	0.017294908
7	0xbe35653b	-0.17714398
8	0x3c8fac63	0.017538255
9	0xbd2466db	-0.040137153
10	0xbd221df6	-0.039579354
11	0xbd04aa2c	-0.03238885
12	0x3d7be592	0.061498232
13	0xbd9ff8af	-0.078111045
14	0xbc407189	-0.011745819
15	0xbd479892	-0.048729487
16	0xbcb20e90	-0.02173546
17	0xbd0dd311	-0.034625117
18	0xbe18df45	-0.1492892
19	0xbdbc3ed0	-0.09191668
20	0xbe8b2ce2	-0.2718268
21	0x3db2ee3c	0.08736846
22	0xbcb72e01	-0.022360804
23	0xbda20849	-0.079117365
24	0xbe001486	-0.12507829
25	0xbe2b1c3e	-0.16709992
26	0xbc06c5f9	-0.008225911
27	0xbe511169	-0.20416798
28	0xbca67f82	-0.020324472
29	0xbd9b2f7b	-0.075774156
30	0xbb1836fb	-0.002322613
31	0xbd98de39	-0.074642606
32	0xbc11075a	-0.00885185
33	0xbd937011	-0.07199109
34	0xbcdf1c0e	-0.027235057
35	0xbda0dffb	-0.07855221
36	0xbe457c58	-0.19285715
37	0x3dbfb837	0.09361308
38	0xbdcd94d5	-0.10038153
39	0xbda62cd7	-0.08114021
40	0xbd7ef6bb	-0.06224702
41	0xbcbff90f	-0.02343419
42	0xbe1a19b2	-0.15048864
43	0xbd9198a8	-0.07109195
44	0xbc07d05e	-0.008289425
45	0xbcd36810	-0.025806457
46	0xbdbf034e	-0.09326802
47	0xbd75bbb8	-0.059993476
48	0xbe17062e	-0.14748451
49	0xbe66362f	-0.22481607
50	0xbdb0a3f4	-0.086250216
51	0xbe2d5275	-0.16925986
52	0xbd763391	-0.06010777
53	0xbcdb0627	-0.026736332
54	0xbcf64032	-0.030059908
55	0xbe80dfba	-0.2517069
56	0x3cf64104	0.030060299
57	0xbdb8a017	-0.0901491
58	0xbdb1ab5e	-0.08675264
59	0xbd90b9d8	-0.07066697
60	0xbe597a16	-0.21237978
61	0xbdd0f460	-0.10202861
62	0xbddde8eb	-0.10835441
63	0xbdc8bfcb	-0.098022066
64	0xbba1bf49	-0.004936133
65	0xbd5b7432	-0.05357761
66	0x3cd6e171	0.026230546
67	0xbd95a351	-0.07306541
68	0x3d144c60	0.03620565
69	0x3c66b662	0.014081569
70	0xbd31d5ad	-0.043416668
71	0x3d9ca30e	0.07648288
72	0xbe02b900	-0.12765884
73	0xbd375a25	-0.044763703
74	0xbdcf21cd	-0.10113869
75	0xbdb6926b	-0.08914646
76	0xbe036765	-0.1283241
77	0xbd687953	-0.05675633
78	0xbd9a9e6d	-0.075497486
79	0xbcfd4e93	-0.030921256
80	0xbdb66117	-0.08905237
81	0xbdcde314	-0.10053077
82	0x3d39d630	0.04537028
83	0xbdb43a0b	-0.08800133
84	0xbd86730b	-0.065649115
85	0xbdaa0e90	-0.08303559
86	0x3e1cae50	0.1530087
87	0x3e808050	0.25097895
88	0xbd68e34d	-0.056857396
89	0xbda82a45	-0.08211187
90	0xbe406e07	-0.18791972
91	0xbda9349e	-0.08261989
92	0xbda83461	-0.082131155
93	0xbd869eaf	-0.06573235
94	0xbdb93b3d	-0.09044502
95	0xbd4545ba	-0.0481622
96	0xbd59ee94	-0.05320604
97	0xbe879f86	-0.26488894
98	0xbddd5a38	-0.108082235
99	0x3c03580b	0.008016597
100	0xbdf92a59	-0.1216628
101	0xbe0cb7c7	-0.1374198
102	0xbc36ff34	-0.011169244
103	0xbde91cf4	-0.113824755
104	0xbe08e7dc	-0.13369697
105	0xbd5dc25e	-0.05414044
106	0x3c89e0b4	0.01683078
107	0xbc91a2a2	-0.017777745
108	0xbdef7b0d	-0.11693392
109	0xbe32fe3f	-0.174798
110	0xbd2ac426	-0.041690968
111	0xbe51befe	-0.20483014
112	0xbe2540d9	-0.16138019
113	0xbdea058c	-0.11426839
114	0xbdd6d55d	-0.104899146
115	0xbd310581	-0.04321814
116	0xbd96dc98	-0.07366294
117	0xbda2805a	-0.07934637
118	0xbc6b1831	-0.014349029
119	0xbdc2fd6d	-0.095209934
120	0xbe892aca	-0.26790458
121	0xbe260e19	-0.16216315
122	0xbd524e39	-0.05134413
123	0xbdedec26	-0.11617307
124	0xbd03f00f	-0.03221136
125	0xbe536f6b	-0.20647971
126	0xbd106682	-0.03525401
127	0xbdf74670	-0.12073982
128	0xbd0db2fc	-0.03459452
129	0xbc8ea83c	-0.017414205
130	0xbc39b1d7	-0.011333904
131	0xbc35bb07	-0.011091954
132	0xbd9d811e	-0.07690643
133	0xbddfd47d	-0.10929201
134	0xbe20ddda	-0.1570963
135	0xbde9bd8c	-0.11413106
136	0x3de6f055	0.112763084
137	0xbe17fb73	-0.14842014
138	0xbe680a01	-0.22660066
139	0xbcfa2f2a	-0.030540068
140	0xbe0ca532	-0.13734892
141	0xbd949a07	-0.07255941
142	0xbe731907	-0.23740016
143	0xbce1855b	-0.02752941
144	0xbdeeafbe	-0.11654614
145	0xbd881e04	-0.0664635
146	0xbcc59006	-0.024116527
147	0xbd968818	-0.073501766
148	0x3c1fe4f8	0.00975918
149	0xbd2b4870	-0.04181713
150	0xbdcb5b6d	-0.099295475
151	0xbd0ec43b	-0.03485511
152	0x3dd60998	0.104510486
153	0xbddd43c3	-0.1080394
154	0xbde770ff	-0.11300849
155	0xbcf6f040	-0.030143857
156	0xbbf6424a	-0.0075152265
157	0x3c6df67f	0.014524101
158	0xbca7151b	-0.020395806
159	0x3dd536d1	0.10410846
160	0xbdd873df	-0.10568976
161	0xbda5b426	-0.08091001
162	0xbd4f738c	-0.050647303
163	0xbe11337e	-0.14179799
164	0xbd4dd627	-0.05025306
165	0xbbfcd743	-0.007716091
166	0xbd76922b	-0.06019799
167	0x3d97631c	0.073919505
168	0xbd8d58ac	-0.069016784
169	0xbda858fc	-0.082200974
170	0xbd66eba9	-0.056377087
171	0xbdc5ab5c	-0.09651825
172	0xbdc52bb8	-0.09627479
173	0xbd801eb5	-0.06255857
174	0xbc9aa226	-0.018876147
175	0xbd05a744	-0.03263022
176	0xbda52299	-0.080632396
177	0xbb0ceb98	-0.002150273
178	0xbca5938f	-0.020211963
179	0xbd1eb02b	-0.038742226
180	0xbdd851fc	-0.10562512
181	0xbdc4e461	-0.09613872
182	0xbd74072e	-0.05957716
183	0xbd254de0	-0.04035747
184	0x3ca994e9	0.020700889
185	0xbddf13ed	-0.108924724
186	0xbdf9a9af	-0.12190568
187	0xbdca1d1e	-0.09868835
188	0xbdcb6367	-0.09931069
189	0xbd01478c	-0.031562373
190	0x3d520c59	0.051281307
191	0xbe63b1e5	-0.2223583
192	0xbe23f203	-0.16010289
193	0x3dd82a78	0.10554975
194	0xbd6bd7e9	-0.057578955
195	0xbd9e46ad	-0.07728324
196	0xbda877ac	-0.082259506
197	0xbe49d0f8	-0.19708622
198	0xbd53bf1c	-0.051695928
199	0xbe0aa7f7	-0.13540636

weight f4 [1, 200]
0	0x3cb9379b	0.022609523
1	0xba152a4e	-0.0005690203
2	0xbe39b861	-0.18136741
3	0x3ba57b0e	0.0050500697
4	0xbdd97b2b	-0.106191956
5	0xbe870b8a	-0.2637599
6	0x3af6edba	0.0018839159
7	0xbc2d0f4d	-0.01056273
8	0xba4ae13f	-0.0007739253
9	0xbbcaf20f	-0.0061934064
10	0x3cb723d9	0.02235596
11	0xbc76bdd5	-0.015059908
12	0x3d7513aa	0.059833206
13	0xbc1a87b7	-0.009431771
14	0xbbec437e	-0.007210194
15	0xbbd61ab0	-0.006533943
16	0xbcee8678	-0.029116854
17	0xbea95c64	-0.330783
18	0x3de4bc97	0.11168783
19	0xbb516148	-0.0031948853
20	0xbd7e1f85	-0.062041778
21	0x3d1ef1ce	0.03880482
22	0x3ce4e575	0.027941445
23	0xbc5bd723	-0.013417992
24	0x3f1298cd	0.57264405
25	0xbd970334	-0.07373658
26	0xbb44014e	-0.0029908004
27	0x3e21451b	0.15749018
28	0xbc412b5f	-0.011790126
29	0xbe803d9d	-0.25047007
30	0x3c888520	0.016665041
31	0xbd22c32a	-0.039736904
32	0x3c70db38	0.014700703
33	0xbecc0b3d	-0.39852324
34	0xbe30db12	-0.17271069
35	0xbbbb59f2	-0.0057175094
36	0x3d62ed26	0.055401944
37	0x3de5718d	0.11203299
38	0xbcc747b8	-0.02432619
39	0xbea3abc8	-0.31966996
40	0x3efa7964	0.4892074
41	0xbe5c3fd7	-0.21508728
42	0xbec12f63	-0.37731466
43	0xbb67b2c9	-0.0035354367
44	0xbe313db0	-0.17308688
45	0xbc442be8	-0.011973359
46	0xbb0b5f2d	-0.0021266446
47	0xbd7fb307	-0.062426593
48	0x3d2786d9	0.040900085
49	0xbe76a789	-0.24087347
50	0xbc8c57d4	-0.017131723
51	0x3db4246e	0.08796011
52	0xbbefff14	-0.007324109
53	0xbea46b82	-0.32113272
54	0x3c7cfebe	0.015441595
55	0xbe73d622	-0.23812154
56	0x3ad171e4	0.0015979377
57	0xbcbee431	-0.02330217
58	0xbc29abf1	-0.010355935
59	0xbc65c289	-0.014023432
60	0xbe9a13f4	-0.30093348
61	0xb97b7251	-0.00023979812
62	0x3c1f6d07	0.009730584
63	0xbe2f9302	-0.17145923
64	0x3b97f418	0.0046372525
65	0xbe32a3b6	-0.17445263
66	0xbe1956da	-0.14974537
67	0xbc11a8ff	-0.008890389
68	0xbe4ab802	-0.19796756
69	0xbd30f8d9	-0.04320607
70	0xbd80a189	-0.062808104
71	0xbe1e0f27	-0.15435468
72	0x3e810640	0.2520008
73	0xbce40d0b	-0.02783825
74	0xbe18d98b	-0.14926736
75	0xbc129c1b	-0.008948351
76	0xbe6cd56d	-0.2312829
77	0x3b0446d6	0.0020183823
78	0xbb70e662	-0.0036758413
79	0x3c30bb85	0.010786896
80	0xbd064672	-0.032782026
81	0x3c3b5eaa	0.011436144
82	0xbde9c946	-0.11415343
83	0xbcc23796	-0.023708146
84	0xbcad6b37	-0.021169288
85	0x3b31c791	0.0027127007
86	0x3d8d40cd	0.068971254
87	0x3e064ff8	0.13116443
88	0x3c886be9	0.016653018
89	0x3b2ba671	0.0026191736
90	0xbe120e27	-0.14263211
91	0x3ac1bc57	0.0014780861
92	0x3c3e3e8a	0.01161159
93	0x3c347b80	0.011015773
94	0x3cb00ba7	0.021489931
95	0xbaaa233c	-0.0012980471
96	0x3b373477	0.0027954855
97	0xbeb56372	-0.35427433
98	0x3da5ddc2	0.080989376
99	0xbc82ef9e	-0.015983399
100	0x3e046505	0.12929161
101	0xbec50ae1	-0.38484862
102	0x3dc34ac5	0.095357455
103	0x3c011a7e	0.007879851
104	0xbe3aae80	-0.18230629
105	0x3c2ba72f	0.010476871
106	0xbeef8215	-0.46778932
107	0x3d6200bb	0.055176478
108	0xbd25b56d	-0.040456224
109	0x3dbb9389	0.091589995
110	0xbcc38fed	-0.02387234
111	0x3befc576	0.0073172403
112	0x3ce8a1e5	0.02839751
113	0xbb9ccb49	-0.0047849757
114	0x3ccc0922	0.024906699
115	0xbec4d843	-0.38446245
116	0x3ce63a4d	0.028103972
117	0xbb42a3e0	-0.0029699728
118	0x3c04e330	0.008110806
119	0xbe68dfe4	-0.22741657
120	0xbe5a14d3	-0.21297006
121	0x3c3c6bbc	0.011500295
122	0x3c6800dd	0.014160362
123	0xbb0979c7	-0.0020977126
124	0x3a3e7d4f	0.0007266597
125	0xbe36582c	-0.17807072
126	0x3c3c3cc2	0.011489095
127	0x3c0cc038	0.00859075
128	0xbbcf8f31	-0.0063342084
129	0xbcc33059	-0.023826765
130	0xbbe37ae0	-0.006942138
131	0xbc3b7c75	-0.011443247
132	0xbdd31b51	-0.103079446
133	0xbc9b96d5	-0.01899282
134	0xbe9822ca	-0.29714042
135	0x3b90e510	0.0044218376
136	0x3dd6506d	0.10464559
137	0x3df2c216	0.11853425
138	0xbddaf29b	-0.106908046
139	0xbdc29529	-0.09501106
140	0xbd22b2b3	-0.039721202
141	0xbe04d52f	-0.12971948
142	0x3e8716e9	0.26384667
143	0x3d6f8e2f	0.058485206
144	0x3dc67373	0.09689989
145	0x3cf1acbc	0.029501311
146	0xbc50d891	-0.012746946
147	0xbd44097a	-0.0478606
148	0xbc63b2b2	-0.013897585
149	0xbc21619e	-0.009849934
150	0xbc2b9a78	-0.01047384
151	0xbedc7ac5	-0.43062416
152	0x3cf6c08e	0.030121114
153	0xbd6fac25	-0.05851378
154	0x3f17c126	0.59279096
155	0x3e01dc4b	0.12681691
156	0xba1196d5	-0.0005553787
157	0xbe6a518a	-0.22882667
158	0xbe81803c	-0.25293148
159	0x3d6faa1b	0.058511835
160	0xbb4401f7	-0.0029908398
161	0xbd96892d	-0.07350383
162	0x3dc5907b	0.09646698
163	0x3c4b1229	0.012394466
164	0xbe99cd2c	-0.30039346
165	0x3d52fadd	0.051508773
166	0x3d12e7cd	0.035865594
167	0xbdc24a46	-0.09486823
168	0xbc397357	-0.011319003
169	0xbcd095aa	-0.02546199
170	0x3cb111bd	0.021614904
171	0xbbfcd869	-0.007716228
172	0xbca975a9	-0.020685988
173	0xbbb15a65	-0.005412387
174	0xbeeec419	-0.46633986
175	0xbd0dfee4	-0.03466691
176	0x3d15ca7a	0.03657005
177	0xbde0bb3b	-0.109732114
178	0xbd1456ba	-0.03621552
179	0x3b74c5a8	0.0037349258
180	0x3c87e0d0	0.016586691
181	0xbbad1920	-0.005282536
182	0x3cd3cc50	0.02585426
183	0x3e2a1982	0.16611293
184	0xbe421c9e	-0.18956229
185	0xbbe13934	-0.006873274
186	0xbe5b766d	-0.21431895
187	0x3d7a5d09	0.06112388
188	0xbc112fb7	-0.008861474
189	0x3d23386b	0.039848726
190	0xbe2d5a4d	-0.16928978
191	0x3e86f010	0.26355028
192	0x3e2c010a	0.16797271
193	0xbe27b104	-0.1637612
194	0x3b80b73e	0.003928094
195	0xbf10f7ce	-0.5662812
196	0x3b787b65	0.0037915346
197	0xbf177365	-0.59160453
198	0x3d039aee	0.032130174
199	0xbf1ccea4	-0.6125281

weight f4 [200, 15]
0	0x3da2135e	0.0791385
1	0x3e2da183	0.16956143
2	0x3ce92d00	0.02846384
3	0xbe6e951e	-0.23299071
4	0xbe3b6bf0	-0.18302894
5	0xbd1b3e12	-0.03790099
6	0xbe390c7e	-0.18071172
7	0x3e325c77	0.17418085
8	0xbca4997a	-0.020092715
9	0xbdfe7b3e	-0.1242585
10	0x3bf05950	0.0073348656
11	0xbe377679	-0.17916287
12	0xbe389025	-0.18023737
13	0xbe2604fd	-0.1621284
14	0xbe557bce	-0.20848009
15	0xbdad56f7	-0.08463853
16	0x3eb50945	0.35358635
17	0xbe42c292	-0.19019535
18	0xbebdbb05	-0.37056747
19	0xbea88953	-0.3291727
20	0xbd54bb49	-0.05193642
21	0xbe5d5964	-0.21616131
22	0x3ee6e938	0.45099807
23	0xbeb6d1e4	-0.3570701
24	0xbdefff36	-0.117185995
25	0xbe0f3036	-0.13983235
26	0x3e760036	0.24023518
27	0xbccc9a7a	-0.024976004
28	0xbe8971a0	-0.26844501
29	0xbdd2ae70	-0.102871776
30	0x3f10e659	0.5660148
31	0xbde5f0c0	-0.1122756
32	0x3e12efc8	0.14349282
33	0x3e7f9876	0.24960503
34	0x3e65c300	0.22437668
35	0xbf3c4993	-0.73549765
36	0xbefabc90	-0.48971987
37	0xbeaa58e8	-0.33270955
38	0xbfd53418	-1.6656523
39	0xbf84bb30	-1.0369625
40	0xbf91f0c7	-1.1401604
41	0xbf45e958	-0.7730918
42	0xbfbea4f1	-1.4894086
43	0xbd78ae5b	-0.060713153
44	0xbe236f3b	-0.159604
45	0xbe26f14d	-0.16302986
46	0xbe519f50	-0.20470929
47	0x3c9aed7c	0.01891207
48	0xbe8ce231	-0.2751632
49	0xbe6b9633	-0.23006515
50	0xbda5063e	-0.08057831
51	0xbe228d2c	-0.15874165
52	0x3aa5a58d	0.0012637839
53	0xbe5e95fa	-0.21736899
54	0xbdc5490b	-0.096330725
55	0x3dd04043	0.10168507
56	0xbe2ff78a	-0.17184272
57	0xbe6e5aa6	-0.23276767
58	0xbe260063	-0.16211085
59	0xbe0dcd36	-0.13847813
60	0x3e01041c	0.12599224
61	0x3f13e287	0.5776753
62	0x3e40cd22	0.18828252
63	0x3dceffa9	0.10107357
64	0x3ce96532	0.028490636
65	0x3e5dfa62	0.21677545
66	0x3e71ae56	0.2360166
67	0xbeea3ffc	-0.4575194
68	0xbeb2385c	-0.34808624
69	0x3e29f096	0.16595683
70	0x3e3767cf	0.17910694
71	0xbe2b1294	-0.16706306
72	0x3e1f4086	0.15551957
73	0x3f023a20	0.5086994
74	0x3c81a6bf	0.015826581
75	0x3f38c481	0.7217484
76	0xbed51fd2	-0.4162584
77	0xbbd2cebe	-0.006433337
78	0xbe90a752	-0.28252655
79	0xbe048151	-0.12939955
80	0xbe8b9d80	-0.272686
81	0x3ccc9cd8	0.024977133
82	0xbf336072	-0.7006904
83	0xbdf7d85d	-0.12101815
84	0xbeb27d51	-0.34861234
85	0xbf98e5ee	-1.1945169
86	0xbec67e42	-0.38768202
87	0x3e21b0f3	0.15790157
88	0x3eb8b4fa	0.36075574
89	0x3f00fddc	0.5038736
90	0x3ef26a82	0.47346884
91	0x3ea71d6f	0.32639644
92	0xbda3742e	-0.07981144
93	0xbbf6f30a	-0.0075362967
94	0x3dc031ff	0.09384536
95	0x3e228a6b	0.15873115
96	0x3e22edc9	0.1591102
97	0xbf90b273	-1.1304458
98	0xbec92186	-0.3928339
99	0xbe9eeda6	-0.31040686
100	0xbede0800	-0.4336548
101	0xbf79539b	-0.97393197
102	0xbfc2ef4f	-1.5229281
103	0xbe815096	-0.25256795
104	0xbe103318	-0.1408199
105	0x3f012a6c	0.50455356
106	0xbe6c3c02	-0.23069766
107	0xbcd20ba4	-0.025640316
108	0xbec9937c	-0.39370334
109	0xbe7e539d	-0.24836583
110	0xbe8f1dae	-0.2795233
111	0x3dab8546	0.08375029
112	0x3e0fd664	0.14046627
113	0xbee9b6bc	-0.45647228
114	0xbd4876c5	-0.048941392
115	0x3e327f8e	0.17431471
116	0x3d712138	0.05886957
117	0xbdfd7ffa	-0.12377925
118	0xbd91775c	-0.07102844
119	0x3e93fb66	0.2890274
120	0x3e93182c	0.2872938
121	0xbd415791	-0.04720265
122	0x3df76227	0.12079268
123	0x3da3b4cd	0.079934694
124	0xbe81e151	-0.25367215
125	0x3e62e40e	0.22157308
126	0xbda7986f	-0.08183371
127	0x3e0a12f0	0.13483787
128	0xbeea03a3	-0.457059
129	0xbe253089	-0.16131796
130	0xbe79af72	-0.24383333
131	0xbe825e68	-0.2546265
132	0xbd153f09	-0.036437068
133	0x3ed6679e	0.4187593
134	0xbccef656	-0.025263947
135	0xbf3fe21b	-0.74954385
136	0xbe820a9b	-0.25398716
137	0xbe9f14ce	-0.3107056
138	0xbcd54daf	-0.026038019
139	0x3c2f3752	0.010694342
140	0xbdb471f8	-0.088108
141	0xbd2f97d9	-0.042869423
142	0xbe37a7dc	-0.17935127
143	0x3e3efdeb	0.1865155
144	0x3e83e3fd	0.2575988
145	0xbe532ae3	-0.20621829
146	0xbda94473	-0.08265009
147	0x3cb1b005	0.021690378
148	0x3eed040f	0.4629216
149	0x3edb5563	0.42838582
150	0x3bef46fe	0.007302164
151	0x3e944a84	0.289631
152	0xbe893c7a	-0.26803952
153	0x3d8c73fb	0.06858059
154	0xbe506de0	-0.20354414
155	0xbe37504a	-0.17901722
156	0x3e56d702	0.20980456
157	0xbea1ccf4	-0.3160168
158	0x3dff8e6c	0.12478337
159	0x3df13592	0.11777796
160	0xbe563e75	-0.20922263
161	0xbd685f98	-0.05673179
162	0x3e21840c	0.15773028
163	0xbedcbf65	-0.43114772
164	0xbe6f9c47	-0.23399459
165	0x3e95b69c	0.29240882
166	0xbdc7d680	-0.097577095
167	0x3e625105	0.22101219
168	0x3cd74e10	0.02628234
169	0x3e040a42	0.12894538
170	0xbe2e78f8	-0.17038333
171	0x3d65d173	0.05610795
172	0xbe8f83d5	-0.28030267
173	0xbf78676e	-0.9703282
174	0xbde83a71	-0.11339272
175	0xbeaade42	-0.33372694
176	0xbf13214a	-0.5747267
177	0xbe6af22a	-0.22943941
178	0xbe066421	-0.13124134
179	0x3e806833	0.25079498
180	0xbdab1f7a	-0.08355613
181	0x3e7dd545	0.24788387
182	0x3d91beef	0.07116496
183	0x3e1e8a72	0.154825
184	0x3e5d7e89	0.216303
185	0xbdb4ce42	-0.08828403
186	0xbddb6913	-0.10713401
187	0x3e93f9a3	0.28901395
188	0x3eb23b7a	0.34811002
189	0xbea14243	-0.31495866
190	0x3d1fcc67	0.039013293
191	0xbe5f1d87	-0.21788608
192	0xbe226696	-0.15859446
193	0x3f5a1ba4	0.85198426
194	0xbe15f708	-0.14645016
195	0x3ee61476	0.44937485
196	0xbec3ac6c	-0.38217485
197	0xbd31ffc9	-0.043456826
198	0x3eb0ed53	0.34556064
199	0x3e8b4c11	0.27206472
200	0x3d0b01c8	0.033937246
201	0xbe8b7c6d	-0.27243367
202	0xbd9bdd82	-0.07610609
203	0x3ed9ee8b	0.42564806
204	0xbde438c2	-0.11143638
205	0xbd9e6230	-0.077335715
206	0x3c26cfbc	0.010181364
207	0xbdb1e803	-0.08686831
208	0x3ed0787e	0.40716928
209	0x3e0c956f	0.1372888
210	0x3efb4a82	0.49080282
211	0xbed16164	-0.40894616
212	0x3c6173ab	0.013760488
213	0xbdebb3f0	-0.1150893
214	0xbe43f573	-0.191366
215	0xbe87e13b	-0.26539025
216	0xbf0a0f7d	-0.53929883
217	0xbf210544	-0.6289866
218	0xbf178eee	-0.5920247
219	0xbcdd0991	-0.0269821
220	0xbf152804	-0.58264184
221	0xbf1ce6b5	-0.6128953
222	0xbdf20e97	-0.11819189
223	0xbe31f6e1	-0.17379333
224	0x3f4033c2	0.75078976
225	0xbef2a4d6	-0.47391385
226	0xbdd4cd5a	-0.1039073
227	0xbe9eef58	-0.3104198
228	0xbea63d2e	-0.3246855
229	0x3d998932	0.07496871
230	0x3e091857	0.13388191
231	0x3e29dc17	0.16587864
232	0xbe5dbda5	-0.21654375
233	0x3ed044b0	0.40677404
234	0x3e24b7a4	0.16085678
235	0xbe8c0d55	-0.27353922
236	0xbe9ac7ba	-0.30230504
237	0xbe4ec356	-0.20191702
238	0xbee09547	-0.4386389
239	0x3ec8b5e3	0.3920127
240	0x3ed3100c	0.4122318
241	0x3c34d7f9	0.01103782
242	0xbf0268cc	-0.5094116
243	0x3d4aa34d	0.049472142
244	0xbe136dda	-0.14397374
245	0x3c921f7c	0.017837279
246	0xbe20f73b	-0.15719311
247	0xbe988af0	-0.297935
248	0xbe525c07	-0.20542918
249	0xbf023fd2	-0.5087863
250	0x3d85e21d	0.06537268
251	0x3e1c20b4	0.1524685
252	0x3df6de60	0.120541334
253	0x3dd40af9	0.10353655
254	0xbf142252	-0.5786487
255	0x3e9786ba	0.29594976

bias f4 [200]
0	0xbdd07942	-0.10179378
1	0x3e71715d	0.23578401
2	0x3d9b2443	0.07575276
3	0xbd6da9a5	-0.058023114
4	0xbe822c86	-0.25424594
5	0x3c99cde0	0.018774927
6	0x3e328b30	0.17435908
7	0x3de9df91	0.11419595
8	0xbd535ebc	-0.051604018
9	0xbda16726	-0.07881002
10	0x3ddf1620	0.10892892
11	0x3e904aaa	0.28181964
12	0xbe184142	-0.14868644
13	0xbe37145e	-0.17878863
14	0x3de7a0dd	0.11309979
15	0x3d19ed13	0.037579607
16	0xbcc41293	-0.023934638
17	0xbe69197e	-0.22763631
18	0x3e7675b1	0.24068333
19	0xbe69b1d7	-0.22821747
20	0xbc727ace	-0.014799787
21	0xbec981f7	-0.39356968
22	0xbd348c92	-0.04407937
23	0x3cbbfa57	0.02294652
24	0xbd5b7208	-0.053575546
25	0x3bb086cc	0.005387163
26	0xbe6ccdf3	-0.23125438
27	0xbe384a30	-0.1799705
28	0xbe5b4fe1	-0.2141719
29	0xbe2df319	-0.16987266
30	0x3d9d9d44	0.07696012
31	0x3e09a62e	0.13442299
32	0xbe2be2ac	-0.16785687
33	0xbdbb8904	-0.09156993
34	0xbb858478	-0.0040746294
35	0xbdeb2dea	-0.11483367
36	0xbe11d331	-0.1424072
37	0x3c86d401	0.016458513
38	0xbd9db1d3	-0.07699933
39	0xbe0e0903	-0.13870625
40	0x3d184aff	0.037180897
41	0x3d7d46cf	0.061835106
42	0xbe582111	-0.21106364
43	0xbe1d75ab	-0.15376918
44	0xbe928bec	-0.28622377
45	0xbd40b435	-0.04704686
46	0xbb83fdfc	-0.00402808
47	0xbe9131d3	-0.28358325
48	0xbe1ca795	-0.15298302
49	0x3e736ba8	0.23771536
50	0x3d58b11d	0.052903283
51	0xbdc66f45	-0.09689192
52	0xbd93e61e	-0.07221626
53	0x3e1b11ea	0.15143552
54	0xbe986b7a	-0.29769498
55	0xbe1aa755	-0.15102895
56	0xbe6ea20c	-0.23304003
57	0x3e80b7df	0.25140283
58	0x3e0c9d0f	0.13731788
59	0xbe94e79c	-0.29082954
60	0xbbbb56a3	-0.005717115
61	0xbe0ddee5	-0.13854559
62	0xbe29a85e	-0.16568133
63	0xbdf130eb	-0.117769085
64	0xbe24fcd7	-0.16112076
65	0xbc3d57cc	-0.011556577
66	0xbe7a09b5	-0.24417765
67	0x3d8fd2ed	0.07022653
68	0x3db7ead1	0.089803346
69	0xbe65343a	-0.22383204
70	0xbe69b938	-0.22824562
71	0xbcdb7e69	-0.026793675
72	0xbe8b85b3	-0.27250442
73	0xbe5f37da	-0.2179865
74	0x3c1d8de4	0.009616349
75	0x3d8cd5f8	0.06876749
76	0xbea4ae5f	-0.32164285
77	0xbe1d38ff	-0.15353774
78	0x3dd8bcee	0.105829105
79	0xbd71aaa6	-0.059000634
80	0x3e2773ab	0.16352718
81	0x3dee554b	0.11637362
82	0xbe33b3ff	-0.17549132
83	0xbced01f7	-0.028931601
84	0x3de6b004	0.11264041
85	0xbe1b0ce5	-0.15141638
86	0x3e202b1a	0.15641442
87	0xbe6a1f0a	-0.22863403
88	0xbd4e105f	-0.05030858
89	0xbdf360d9	-0.118837066
90	0x3e4663e5	0.19374044
91	0xbded0a85	-0.11574272
92	0x3dcebe41	0.10094882
93	0x3b9f9d85	0.0048710727
94	0xbe1e7617	-0.15474735
95	0x3e302989	0.17203344
96	0xbceaa21d	-0.028641755
97	0x3de785da	0.11304827
98	0xbe2c2a1a	-0.16812935
99	0x3d61eedb	0.05515943
100	0x3eb921bd	0.36158553
101	0x3e8477ef	0.25872752
102	0x3e389826	0.1802679
103	0x3cd62528	0.026140764
104	0x3d4ef316	0.050524794
105	0xbe9fd05a	-0.31213647
106	0xbe0c948e	-0.13728544
107	0x3b843429	0.0040345383
108	0x3d598cf3	0.053112935
109	0xbe2572e4	-0.16157109
110	0xbdd078ae	-0.10179268
111	0xbbec5e8c	-0.0072134193
112	0xbd80e5f0	-0.06293857
113	0xbd8841be	-0.06653164
114	0xbe9577e1	-0.29193023
115	0x3e15d7e3	0.14633135
116	0x3e61c4fa	0.22047797
117	0xbd584588	-0.052800685
118	0xbe634a6f	-0.22196363
119	0x3d828552	0.06373085
120	0xbe3356c1	-0.17513563
121	0x3de02a65	0.10945586
122	0xbd232fcb	-0.0398405
123	0x3e66765f	0.22506092
124	0xbe7b9b3d	-0.24570937
125	0xbd1a37fc	-0.037651047
126	0xbad23ad3	-0.001603926
127	0x3dab46a5	0.08363084
128	0xbe373f93	-0.17895345
129	0x3e10ddc2	0.14147094
130	0xbe793e26	-0.24340114
131	0x3d8a546e	0.06754385
132	0xbde6361d	-0.1124079
133	0xbeabe6fc	-0.33574665
134	0xbd4bf8fa	-0.04979799
135	0x3e22cbaf	0.15898012
136	0x3e30f49a	0.17280808
137	0xbe4eff11	-0.20214488
138	0xbd853f28	-0.06506187
139	0xbd35cf0c	-0.04438691
140	0x3e23f38f	0.16010879
141	0x3e8b3f56	0.2719676
142	0xbe44a306	-0.19202814
143	0x3deb52fb	0.11490437
144	0x3d1daf9d	0.038497556
145	0xbda81515	-0.08207146
146	0x3d9f9df0	0.07793796
147	0xbd63798c	-0.055535838
148	0x3d89e146	0.067324206
149	0xbcfd9f61	-0.030959787
150	0xbe070ead	-0.13189192
151	0xbe89b84b	-0.26898417
152	0xbe7bbc52	-0.24583557
153	0x3dad6a30	0.08467519
154	0x3de10fe1	0.10989357
155	0xbde688dc	-0.112565726
156	0xbe6f0abe	-0.23343942
157	0x3e3eb862	0.18625024
158	0x3e4abae0	0.1979785
159	0xbd76f306	-0.06029036
160	0xba877f25	-0.0010337575
161	0x3d07835b	0.033084255
162	0x3d9a4fc1	0.07534743
163	0xbe745e58	-0.23864114
164	0xbe037807	-0.12838756
165	0xbe7a5ae3	-0.24448733
166	0xbeac1989	-0.33613232
167	0x3dd8e270	0.105900645
168	0xbdc77a00	-0.097400665
169	0x3c5b613d	0.013389883
170	0x3d8ced18	0.068811595
171	0xbd2d7298	-0.042345613
172	0xbe0c2b7c	-0.13688463
173	0x3e000df8	0.12505329
174	0xbe781736	-0.24227604
175	0x3e27bdb5	0.16380961
176	0x3dd56038	0.10418743
177	0x3e063891	0.13107516
178	0x3b9c3c1e	0.0047679087
179	0xbe088107	-0.1333047
180	0xbd1aa373	-0.037753534
181	0x3d83f02e	0.06442295
182	0xbe120924	-0.142613
183	0xbcae1458	-0.021249935
184	0x3e4958e7	0.1966282
185	0x3cce97aa	0.025218803
186	0xbcc62a93	-0.024190223
187	0xbe7aa18e	-0.2447569
188	0xbd4dc557	-0.050237026
189	0x3e7b794f	0.24557994
190	0xbe0595dc	-0.13045448
191	0x3dbdbedb	0.092649184
192	0xbebfc081	-0.37451556
193	0x3e423a4d	0.18967552
194	0x3e91ee0c	0.28501928
195	0xbe59b2d2	-0.21259621
196	0x3d633377	0.055469003
197	0x3e6ba524	0.23012215
198	0xbde4b79e	-0.11167835
199	0x3d8137ad	0.063094474

weight f4 [200, 200]
0	0xbd2ed2bc	-0.04268144
1	0xba92b7e5	-0.0011193721
2	0x3ed06f3b	0.40709862
3	0x3c7856d4	0.01515742
4	0x3c8c07ad	0.017093504
5	0x3ea68b59	0.3252819
6	0x3ed5ec62	0.41781908
7	0xbd71857f	-0.058965202
8	0xbe1cc556	-0.15309653
9	0xbda313b5	-0.07962743
10	0xbc87e7d4	-0.016590036
11	0xbd5c2251	-0.053743664
12	0xbe0647ea	-0.1311337
13	0x3ca9c45d	0.020723516
14	0x3d9d9b19	0.07695598
15	0xbe92ae54	-0.28648627
16	0xbe86dea9	-0.2634175
17	0x3e485198	0.19562376
18	0x3e86d343	0.26333055
19	0xbea53f02	-0.32274634
20	0x3d66aa41	0.05631471
21	0xbe8588f8	-0.2608106
22	0xbd54c5a8	-0.051946312
23	0x3ea6c1fe	0.3256988
24	0xbe89b31d	-0.26894465
25	0xbd5fa0da	-0.05459676
26	0xbd093e5d	-0.03350674
27	0xbc4de884	-0.012567643
28	0x3c15bafd	0.00913882
29	0xbe762a7f	-0.24039648
30	0xbdc1ad23	-0.09456851
31	0x3db041c1	0.086062916
32	0xbe4dfbea	-0.20115629
33	0xbd8dae01	-0.06917954
34	0xbdebb11a	-0.11508389
35	0x3d332d9d	0.043744672
36	0xbcc5ff17	-0.024169488
37	0xbe1173d1	-0.14204337
38	0xbe3405c3	-0.17580323
39	0xbd381667	-0.04494324
40	0x3d212bc5	0.039348383
41	0xbdde1263	-0.10843351
42	0xbe2457ce	-0.1604912
43	0xbd6818d0	-0.056664288
44	0x3c5f24bf	0.013619601
45	0xbe36bf3c	-0.17846388
46	0xbdc67cd6	-0.09691779
47	0xbec2911f	-0.38001344
48	0xbed1fbbd	-0.41012374
49	0x3d2087fd	0.03919219
50	0xbdd8eeac	-0.10592398
51	0xbe487d3a	-0.1957902
52	0xbdf57681	-0.119854935
53	0xbea55d66	-0.3229782
54	0x3e2574a3	0.16157775
55	0xbebc7f88	-0.3681605
56	0xbeb57294	-0.3543898
57	0x3db23082	0.087006584
58	0xbe4a9a8e	-0.1978552
59	0xbeac680e	-0.33673137
60	0x3e5a2af5	0.2130545
61	0xbde52791	-0.11189187
62	0x3d2c009e	0.041992776
63	0xbe81601b	-0.25268635
64	0x3cfba2dd	0.030717308
65	0xbe3e56f1	-0.18587853
66	0x3cc78105	0.024353513
67	0x3e1bd791	0.15218951
68	0x3e437f64	0.19091564
69	0xbd4a58f8	-0.049401253
70	0x3d0e2a3b	0.034708243
71	0x3d890430	0.06690252
72	0xbe7ca7b9	-0.24673356
73	0x3cd86c2c	0.026418768
74	0xbc80736c	-0.015680037
75	0xbed0d92a	-0.40790683
76	0x3d570ea6	0.052504204
77	0xbe31a3d2	-0.17347649
78	0xbdb780dd	-0.089601256
79	0xbd6f27b2	-0.058387466
80	0x3e57f4ac	0.21089429
81	0xbd9c3fba	-0.076293424
82	0x3d5944ff	0.053044315
83	0xbe604b90	-0.21903825
84	0xbd00fe91	-0.031492773
85	0xbd1458c7	-0.036217477
86	0xbe13e93c	-0.1444444
87	0xbe405207	-0.18781291
88	0xbe0641f1	-0.13111092
89	0xbcf361f6	-0.029709797
90	0xbd67429b	-0.056460004
91	0x3d0b5e80	0.03402567
92	0xbeb991bf	-0.36244008
93	0xbe44d685	-0.19222458
94	0x3bbfc603	0.0058524623
95	0xbe80f6a8	-0.25188184
96	0x3d813d73	0.06310549
97	0xbe969029	-0.2940686
98	0x3e4e4084	0.20141798
99	0xbde6be86	-0.11266808
100	0xbbeff32e	-0.0073226904
101	0xbe131aae	-0.14365646
102	0xbe10650a	-0.14101043
103	0xbe28cdd4	-0.16484767
104	0xbe8126e7	-0.25224993
105	0x3d211298	0.039324373
106	0x3dd11e2f	0.10210835
107	0xbca2aac9	-0.019856827
108	0xbda7a905	-0.08186535
109	0x3e024b4b	0.12724034
110	0x3c4bdf5e	0.012443392
111	0x3f07ea3a	0.53091776
112	0xbe2debb8	-0.16984451
113	0xbe8ada4e	-0.27119678
114	0xbef39bde	-0.47579855
115	0x3e43efcf	0.19134448
116	0xbeabe9ca	-0.33576804
117	0x3ceab807	0.028652204
118	0xbd453056	-0.0481418
119	0xbd1db4e9	-0.038502607
120	0xbd9c8a0e	-0.07643519
121	0xbda5f9ff	-0.081043236
122	0xbe87c828	-0.26519895
123	0x3d1c7e23	0.03820623
124	0x3cd9f65c	0.026606731
125	0xbdc76d62	-0.0973766
126	0xbe266db4	-0.16252786
127	0xbdcdf3da	-0.100562766
128	0x3e7dd7d2	0.2478936
129	0x3d564fd9	0.052322242
130	0xbf05790c	-0.5213783
131	0xbdc7dad5	-0.09758536
132	0x3dd38cb9	0.10329575
133	0x3b4850b6	0.0030565686
134	0xbe1b9c8d	-0.15196438
135	0x3cc69d45	0.024244914
136	0xbe01c9d2	-0.12674645
137	0xbe2f53d1	-0.17121817
138	0x3d81aae6	0.063314244
139	0xbe7c9157	-0.24664818
140	0x3dc03bc7	0.093864016
141	0x3e24af35	0.16082461
142	0xbe09243d	-0.1339273
143	0xbe677e84	-0.22606856
144	0xbd9c5d84	-0.07635024
145	0x3d0894c1	0.033344988
146	0x3d83d9b7	0.0643801
147	0x3dbf05a0	0.09327245
148	0x3d72afe8	0.05924979
149	0xbe3f528e	-0.18683836
150	0x3c0852de	0.008320538
151	0xbdbe16f5	-0.092817225
152	0xbd83dea6	-0.06438951
153	0x3dd81fbc	0.10552928
154	0x3c9c16c7	0.01905383
155	0xbde0bb31	-0.10973204
156	0x3c6a8ae8	0.014315344
157	0x3e3f9a1b	0.1871113
158	0xbca7fb88	-0.020505682
159	0x3cd0da89	0.02549483
160	0xbd5df49e	-0.054188363
161	0xbde547f0	-0.111953616
162	0xbe1ef7d3	-0.15524225
163	0x3c2b2065	0.010444735
164	0xbe83b0df	-0.2572088
165	0xbd0e47e2	-0.03473652
166	0xbe93361d	-0.28752223
167	0xbee588b4	-0.4483086
168	0x3e5feb39	0.21867074
169	0x3de792b0	0.11307275
170	0xbccb8f50	-0.02484861
171	0x3e76ba7c	0.24094576
172	0xbdd0f505	-0.10202984
173	0x3d5a56d3	0.05330546
174	0xbd4b607a	-0.049652554
175	0x3e43da42	0.19126227
176	0x3e0a6605	0.1351548
177	0xbe97bc62	-0.29635912
178	0x3e800cc9	0.25009754
179	0xbe47ff40	-0.19530964
180	0xbdab36b2	-0.08360042
181	0xbea90f8b	-0.3301967
182	0xbf0c3b7d	-0.5477827
183	0x3d15d99b	0.036584478
184	0x3de9cd64	0.11416128
185	0x3efea9bb	0.4973887
186	0xbdcb1542	-0.09916164
187	0x3db449c5	0.08803133
188	0xbdd1559d	-0.102214076
189	0x3e90f1c8	0.28309464
190	0xbd4481b3	-0.047975253
191	0xbe93af9a	-0.2884491
192	0xbdb47d7c	-0.08812997
193	0xbd0214a9	-0.031757984
194	0xbe9ec36a	-0.31008464
195	0x3b9bb19d	0.0047513978
196	0xbe1a421c	-0.15064281
197	0xbd52702a	-0.0513765
198	0xbdadf3b3	-0.084937476
199	0xbea87cbe	-0.3290767
200	0xbc9181bc	-0.017762057
201	0xbe064105	-0.1311074
202	0xbcbcfb46	-0.023069035
203	0x3d4d0562	0.05005396
204	0xbcff6576	-0.03117631
205	0xbd774331	-0.060366813
206	0xbdaec5aa	-0.08533795
207	0xbe81cf75	-0.2535359
208	0xbee3e6d1	-0.44512036
209	0xbe54880a	-0.2075502
210	0xbe290a39	-0.16507806
211	0xbefae4c1	-0.4900265
212	0x3e8469f9	0.258621
213	0xba4b2b56	-0.0007750293
214	0x3d349b58	0.04409346
215	0x3ebb6492	0.36600167
216	0xbe1cbd4b	-0.15306585
217	0xbd377579	-0.044789765
218	0x3d7df364	0.061999694
219	0xbe24eb80	-0.16105461
220	0xbe7ac64b	-0.24489705
221	0xbd0368f4	-0.032082513
222	0xbd782f1f	-0.060591813
223	0x3ebc3917	0.36762306
224	0xbcdb57fa	-0.026775349
225	0xbed9ac04	-0.4251405
226	0xbbc23cd0	-0.0059276596
227	0x3cb99705	0.02265502
228	0xbd7c0dd7	-0.061536636
229	0x3e65baec	0.22434586
230	0x3d1fad88	0.03898385
231	0x3e196086	0.14978227
232	0x3e84a62d	0.25908032
233	0x3d262f5a	0.0405725
234	0x3cef66d1	0.029223831
235	0x3bdfdd07	0.0068317684
236	0xbdf99905	-0.12187389
237	0xbe8b9da8	-0.2726872
238	0xbf8ced27	-1.1009873
239	0x3eff406c	0.49853837
240	0xbe145b49	-0.14487948
241	0x3e833464	0.25625908
242	0xbf36c993	-0.7140133
243	0x3dc9a2fc	0.0984554
244	0xbd18fbd0	-0.037349522
245	0xbd892298	-0.06696051
246	0xbe6ca830	-0.23111033
247	0x3f00ebee	0.5036
248	0xbefc1b78	-0.49239707
249	0x3dbdf026	0.0927432
250	0xbd112536	-0.035435878
251	0xbe40b1b9	-0.18817796
252	0xbda2a4a7	-0.07941561
253	0xbe14b03d	-0.14520355
254	0xbe5eec95	-0.21769936
255	0x3d6a5468	0.057209402
