Vehicles/GenDisV_0_01_0/GenDisV_0_01_0_critic_target.pth (torch, 353427 bytes, 10 tensors)

weight f4 [200, 15]
0	0x3eaf9ffb	0.34301743
1	0xbec5221e	-0.38502592
2	0xbf09a84c	-0.53772426
3	0xbe15a8b7	-0.14615141
4	0xbebc5fd5	-0.36791864
5	0x3ded2e3e	0.115810856
6	0x3e16b94f	0.14719127
7	0x3f014941	0.505024
8	0x3e82f669	0.2557862
9	0xbd58f56e	-0.052968435
10	0xbe25ddac	-0.16197842
11	0xbec30239	-0.38087633
12	0xbf0a455e	-0.54012096
13	0x3c092bdd	0.008372274
14	0x3eb5fc46	0.35544032
15	0xbf6923ed	-0.91070443
16	0x3cd3aead	0.025840128
17	0xbca058e0	-0.019573629
18	0x3ea576b9	0.3231714
19	0x3e43b5ff	0.19112395
20	0xbe26532f	-0.1624267
21	0x3e28a94e	0.16470835
22	0xbd52dc29	-0.051479492
23	0xbe4b86c4	-0.19875628
24	0xbda4b8df	-0.08043074
25	0x3e20fafd	0.15720744
26	0x3e716762	0.23574594
27	0x3e6ec711	0.23318125
28	0xbd07989e	-0.03310453
29	0xbe82fa99	-0.25581816
30	0x3eda6a77	0.4265935
31	0xbbf5049d	-0.0074773566
32	0xbece9891	-0.40350774
33	0xbe6ecf42	-0.2332125
34	0xbe41a97c	-0.1891231
35	0x3e59f7df	0.21285962
36	0x3e18f360	0.1493659
37	0xbd7ea004	-0.06216432
38	0x3ec19dce	0.37815708
39	0xbc61edec	-0.013789635
40	0x3dd869d3	0.10567059
41	0xbdde1961	-0.108446844
42	0xbdf653a3	-0.12027671
43	0xbec854ac	-0.391271
44	0xbeff49e8	-0.49861073
45	0x3dfcdd9c	0.12346956
46	0x3e66ce11	0.22539546
47	0x3d97645f	0.07392191
48	0xbe230f8b	-0.15923898
49	0x3e35234d	0.17689247
50	0xbc6653a8	-0.014058031
51	0xbdd00792	-0.10157694
52	0xbe0e3f78	-0.13891399
53	0x3e14b878	0.14523494
54	0xbf4e4e1f	-0.80587953
55	0xbd340251	-0.04394752
56	0x3e4ecf17	0.20196186
57	0x3e150ad6	0.14554915
58	0xbd848c3b	-0.06472059
59	0x3e51e8f7	0.20499025
60	0xbd61ffea	-0.0551757
61	0x3bdbdc0a	0.0067095803
62	0x3d5dc5e2	0.054143794
63	0xbdc8e3c9	-0.098090716
64	0xbd13b1ce	-0.03605824
65	0x3bb893ff	0.005632877
66	0xbe274587	-0.16335116
67	0xbde83e5b	-0.11340018
68	0x3c6cc42a	0.014451066
69	0xbe87768d	-0.26457635
70	0x3d29660e	0.041357093
71	0xbe81d90d	-0.2536091
72	0x3d525d91	0.051358763
73	0xbe023154	-0.1271413
74	0xbd526f89	-0.0513759
75	0x3e3e9ef2	0.1861532
76	0x3e88658d	0.26639977
77	0xbeaae303	-0.3337632
78	0xbe362859	-0.17788829
79	0x3da08344	0.07837537
80	0x3e3a9aa5	0.18223055
81	0xbd0ccc8a	-0.03437475
82	0xbe73c6a2	-0.23806241
83	0xbe0c7b38	-0.13718879
84	0xbdd5451a	-0.10413571
85	0xbe90130c	-0.28139532
86	0xbca7fbd7	-0.020505829
87	0xbf295141	-0.6613961
88	0x3da3072f	0.079603545
89	0x3d8dac37	0.06917613
90	0xbf265c32	-0.6498443
91	0x3e9d1801	0.30682376
92	0x3ea8c301	0.32961276
93	0x3e1a5e2a	0.15074983
94	0x3bd4f576	0.006498988
95	0x3eb8faeb	0.36128935
96	0xbe902b5b	-0.28158078
97	0xbe96b040	-0.29431343
98	0x3eb844ba	0.35989934
99	0x3d13c198	0.036073297
100	0xbe30b48a	-0.1725637
101	0xbdac2e2e	-0.084072456
102	0xbe2eccaa	-0.1707026
103	0x3e629480	0.22126961
104	0xbe0a11b7	-0.1348332
105	0xbd842e7b	-0.06454178
106	0xbeb72dcf	-0.35777137
107	0xbd688315	-0.056765635
108	0xbddb2886	-0.107010886
109	0x3bfde276	0.0077479435
110	0xbea14b58	-0.31502795
111	0xbe9a4358	-0.30129504
112	0x3e02d9b5	0.12778361
113	0x3e8ef83e	0.2792377
114	0x3e9fb180	0.3119011
115	0x3e479944	0.1949206
116	0xbe79c810	-0.24392724
117	0xbe44e62b	-0.19228427
118	0xbf039bd4	-0.5140965
119	0x3f1ab13f	0.60426706
120	0x3e878d80	0.26475143
121	0x3baff5b3	0.005369866
122	0xbecb5dfb	-0.3972014
123	0x3ecba365	0.39773098
124	0x3d29c4e1	0.041447524
125	0xbece8ad8	-0.40340304
126	0xbf3ac2d4	-0.72953534
127	0xbca79fb1	-0.020461889
128	0x3df86f7a	0.121306375
129	0x3e2ac9dc	0.16678566
130	0xbb1d75b4	-0.0024026455
131	0x3c848f7b	0.016181698
132	0xbd783bf8	-0.060604066
133	0xbdac7cf2	-0.08422269
134	0x3e32ebc8	0.17472756
135	0xbf08facf	-0.53507704
136	0xbe2e95fe	-0.17049405
137	0xbe9f1a42	-0.3107472
138	0xbd655dd0	-0.05599767
139	0x3b5fa911	0.003412787
140	0xbefd3a06	-0.4945833
141	0xbefd9900	-0.49530792
142	0xbe42eea0	-0.1903634
143	0xbdc1ef6a	-0.09469493
144	0x3e70f860	0.23532248
145	0x3e7deefc	0.24798197
146	0xbe1b4a8e	-0.15165159
147	0xbc2bf3dd	-0.010495153
148	0xbe93e02f	-0.28881976
149	0x3dd5ca67	0.10438996
150	0xbf39be78	-0.7255626
151	0x3e44a973	0.19205265
152	0x3e692a4b	0.2277004
153	0xbe7a9116	-0.24469408
154	0xbe61bd27	-0.22044812
155	0x3e007995	0.1254638
156	0x3e7fba18	0.24973333
157	0x3ea130ab	0.31482443
158	0xbdc74d3a	-0.09731527
159	0xbe080f67	-0.13287126
160	0x3e0aa7fa	0.1354064
161	0xbe9be438	-0.30447555
162	0x3d15b893	0.036552977
163	0xbe42dcd5	-0.19029553
164	0x3d525b70	0.051356733
165	0xbefb69ef	-0.49104258
166	0xbbdf3353	-0.0068115382
167	0x3e10ff3c	0.14159864
168	0xbe3339b4	-0.17502481
169	0xbeb86709	-0.3601611
170	0xbe6feb4f	-0.23429607
171	0xbe94863b	-0.2900866
172	0x3dee10d3	0.11624303
173	0xbe089703	-0.13338856
174	0xbecc605d	-0.3991727
175	0xbe521b78	-0.20518291
176	0x3cc769e9	0.024342494
177	0x3d375fe5	0.044769187
178	0x3ea6b0c2	0.3255673
179	0x3e56894f	0.20950817
180	0x3eaca8b0	0.33722448
181	0xbeb37aa3	-0.35054502
182	0x3e82d4fa	0.25553113
183	0xbe5a8eed	-0.21343584
184	0x3e2f415f	0.17114781
185	0x3caf8b5f	0.021428762
186	0xbeab30d8	-0.33435702
187	0xbd906340	-0.070501804
188	0xbf1bc7ca	-0.6085173
189	0xbf9a89a5	-1.2073256
190	0xbfc369e0	-1.5266685
191	0xbf553217	-0.83279556
192	0xbf0d801a	-0.5527359
193	0xbc127fdb	-0.008941616
194	0x3dd8491f	0.10560822
195	0x3f122dea	0.5710131
196	0x3f463e9f	0.774393
197	0xbd9602cb	-0.073247515
198	0xbeb18db5	-0.34678426
199	0xbe641526	-0.22273692
200	0xbdd3e637	-0.10346644
201	0x3e447e30	0.19188762
202	0x3c23e7cb	0.010003994
203	0xbd201fcd	-0.039092828
204	0x3d9df5c5	0.077128924
205	0x3b8e9285	0.0043509626
206	0x3e3ea36b	0.18617027
207	0xbe0f272c	-0.13979787
208	0x3ed41ad0	0.41426706
209	0x3e1f45bc	0.15553945
210	0xbf509f51	-0.814931
211	0xbedee08e	-0.43530697
212	0x3cede419	0.02903943
213	0xbd43deac	-0.04781978
214	0x3ec0722d	0.3758711
215	0xbda77b8d	-0.08177862
216	0xbd19bd47	-0.037534025
217	0xbec4858b	-0.38383135
218	0xbe605535	-0.21907504
219	0xbe83ff8a	-0.25780898
220	0xbe4417ac	-0.19149655
221	0x3e30433c	0.17213148
222	0x3e6d9098	0.2319969
223	0x3d4df2e2	0.05028046
224	0xbf1e7e29	-0.61911255
225	0x3f106bc6	0.5641445
226	0x3deb76ef	0.11497294
227	0x3c9d9d65	0.01924009
228	0xbe3384a6	-0.1753107
229	0xbd8c0986	-0.06837754
230	0xbd9eaf28	-0.07748252
231	0x3e2fe366	0.1717659
232	0x3e18cfca	0.14923015
233	0x3dd0c74b	0.10194262
234	0xbe05cb10	-0.13065743
235	0x3e4af126	0.19818553
236	0x3cf7cb90	0.030248433
237	0xbef88f6d	-0.48546925
238	0xbed2f9e4	-0.41206276
239	0x3e2a3c6b	0.1662461
240	0x3d76a44b	0.060215276
241	0x3e0657d5	0.13119443
242	0x3d9ccd0d	0.07656298
243	0xbe0698ad	-0.13144179
244	0xbe044f85	-0.1292096
245	0xbe5aca9a	-0.21366349
246	0x3cb88dbf	0.022528527
247	0xbdd75572	-0.10514344
248	0xbe966536	-0.29374093
249	0xbe601c53	-0.21885805
250	0x3e2a7a9e	0.16648337
251	0x3d43a7f0	0.04776758
252	0xbe5068ca	-0.20352474
253	0xbe34afe7	-0.17645226
254	0x3e521bf1	0.20518471
255	0x3f10976a	0.5648104

bias f4 [200]
0	0xbe1408d6	-0.14456496
1	0xbe135679	-0.14388455
2	0xbe7bd4ba	-0.24592867
3	0xbd8969ce	-0.06709634
4	0xbdeab59b	-0.1146042
5	0x3e4bc2e4	0.19898564
6	0x3df86d75	0.12130252
7	0xbc1b03d4	-0.009461362
8	0x3e179e6f	0.14806531
9	0x3aba32c1	0.00142058
10	0x3ab26d33	0.0013612866
11	0xbcfcf54c	-0.030878685
12	0x3e8b44c7	0.2720091
13	0xbe7c7e81	-0.24657632
14	0xbc43e667	-0.011956788
15	0xbe0a664b	-0.13515584
16	0xbe854985	-0.26032653
17	0xbdf35b28	-0.11882621
18	0x3e3d595b	0.18491118
19	0x3ca4806a	0.020080764
20	0x3e194a1b	0.14969675
21	0xbe5183c1	-0.20460416
22	0x3dd0a00b	0.10186776
23	0xbd756f2e	-0.059920482
24	0xbdfd5f85	-0.123717345
25	0x3b99a7c5	0.004689189
26	0x3ea21737	0.31658337
27	0x3e095f9c	0.13415378
28	0x3e19f983	0.15036587
29	0x3e24e39b	0.1610245
30	0xbd1e6b2a	-0.03867642
31	0x3e2a0adc	0.16605705
32	0xbe043d8d	-0.12914105
33	0xbdfd1d86	-0.12359147
34	0xbe9d9761	-0.30779555
35	0x3daf1833	0.085495375
36	0xbe1955e7	-0.14974175
37	0x3e104a93	0.14090948
38	0x3d740de3	0.059583556
39	0xbd5a9200	-0.053361893
40	0xbde57d92	-0.11205591
41	0xbbf86514	-0.007580409
42	0x3dc5ab90	0.096518636
43	0xbd1e6a56	-0.03867563
44	0x3e6b92f5	0.23005278
45	0x3e5e83e8	0.21730006
46	0x3da31b54	0.07964197
47	0x3d1cdfe4	0.038299456
48	0x3e3d0c90	0.18461823
49	0xbeb55dca	-0.35423118
50	0x3db42aaa	0.087972
51	0xbe7fe2c4	-0.24988848
52	0xbd3cccfb	-0.046093922
53	0x3cb4795f	0.02203053
54	0xbe0cfb0d	-0.13767643
55	0xbd953c56	-0.07286899
56	0x3e7bb5fb	0.24581139
57	0xbe39048c	-0.18068141
58	0x3e9ca436	0.30594033
59	0xbe5663cf	-0.20936511
60	0x3d2d7d5c	0.04235588
61	0x3e624eb6	0.22100338
62	0xbe8de397	-0.277127
63	0x3cf1053b	0.02942144
64	0x3e8d1ed2	0.27562577
65	0xbe5d210a	-0.21594635
66	0x3d8f8d33	0.070093535
67	0xbe125c66	-0.1429306
68	0x3b0b9474	0.0021298202
69	0x3e3ceff3	0.18450908
70	0x3e73b586	0.23799714
71	0xbe5d03e8	-0.21583521
72	0x3dfb01c6	0.12256198
73	0xbd283c77	-0.04107329
74	0xbc188f5a	-0.009311521
75	0x3d7fd3d4	0.062457874
76	0xbdf0e099	-0.117615886
77	0xbe6c1645	-0.2305537
78	0xbd9062bd	-0.07050083
79	0xbe280a8e	-0.16410276
80	0x3e19e954	0.15030414
81	0xbca9c3cf	-0.020723252
82	0xbe1d86fe	-0.15383527
83	0x3e5e1b4f	0.21690105
84	0xbbe3d8e3	-0.006953345
85	0xbe543ec8	-0.20727074
86	0xbea47904	-0.32123578
87	0xb9d72862	-0.00041038083
88	0xbdfff222	-0.12497355
89	0x3dc6d787	0.09709077
90	0x3e969536	0.29410714
91	0x3e84acc3	0.25913057
92	0x3d6122c3	0.054964792
93	0xbda2c49b	-0.07947656
94	0x3d802fbc	0.062591046
95	0x3c4be7a8	0.012445368
96	0xbdad4621	-0.08460642
97	0x3d2b979d	0.041892637
98	0xbe85cc17	-0.2613227
99	0xbf106283	-0.56400317
100	0xbece88f3	-0.4033886
101	0x3ac96a18	0.0015366701
102	0xbeb1ce3f	-0.34727666
103	0xbd43f416	-0.0478402
104	0x3e69ca14	0.22830993
105	0x3d8358b4	0.06413403
106	0xbd035855	-0.032066662
107	0x3e146789	0.1449262
108	0xbe6be3f9	-0.23036183
109	0xbea41db3	-0.3205391
110	0x3e65ca22	0.22440389
111	0xbe3c6d28	-0.18401015
112	0xbe72cf04	-0.23711783
113	0x3e201c3a	0.15635768
114	0x3c9c2784	0.019061811
115	0xbd80cf69	-0.0628956
116	0xbdba5bae	-0.09099518
117	0xbe9f6b8a	-0.31136733
118	0xbe4a06d5	-0.19729169
119	0xbe349940	-0.17636585
120	0x3d09f96d	0.033685137
121	0xbe791536	-0.24324498
122	0xbe478d70	-0.19487548
123	0xbc249ad0	-0.010046676
124	0xbe95deeb	-0.29271635
125	0x3e2adf13	0.16686659
126	0xbe52c7d7	-0.20584045
127	0x3e99084a	0.29889137
128	0xbe73811a	-0.23779717
129	0xbddf961c	-0.10917303
130	0xbe4bf4f1	-0.19917656
131	0xbe7de148	-0.24792969
132	0x3e2ae671	0.16689469
133	0x3dfb9118	0.12283534
134	0xbe50d6ac	-0.20394391
135	0xbbaa40e5	-0.0051957243
136	0xbeed5bbb	-0.46359047
137	0xbe3a6406	-0.18202218
138	0xbd3f6b69	-0.046733294
139	0x3decb1c8	0.115573466
140	0xbcb252c2	-0.021767978
141	0xbdba0650	-0.09083235
142	0xbe4e7be0	-0.20164442
143	0xbe842128	-0.25806546
144	0x3e4c7028	0.19964659
145	0xbea6b530	-0.3256011
146	0xbe3be019	-0.18347205
147	0xbea4b866	-0.32171935
148	0x3da4a7fe	0.080398545
149	0xbe47215a	-0.19446316
150	0x3db7b015	0.08969132
151	0xbd01b152	-0.031663246
152	0xbe81d0b9	-0.25354555
153	0xba4a7838	-0.00077236025
154	0xbea50e46	-0.32237452
155	0xbe1f1d3e	-0.15538499
156	0x3dcf813a	0.1013207
157	0x3de8aaf2	0.1136073
158	0xbde3c02a	-0.11120637
159	0x3e8bd70a	0.273125
160	0x3e0ba3c7	0.13636695
161	0xbd0e851c	-0.03479491
162	0xbd300738	-0.042975634
163	0x3e0af164	0.13568646
164	0x3e86ec6d	0.26352254
165	0xbe30c1a8	-0.17261374
166	0xbe76d769	-0.2410561
167	0xbe859e61	-0.26097396
168	0x3e1115e6	0.1416851
169	0x3e8c8051	0.27441648
170	0xbd8de4d4	-0.06928411
171	0x3d078eee	0.033095293
172	0xbd85b9f6	-0.0652961
173	0x3e09c652	0.1345456
174	0xbe2ddb4f	-0.16978191
175	0xbd2de955	-0.04245885
176	0xbcbf90d7	-0.023384495
177	0xbd98c0dd	-0.07458661
178	0x3e227934	0.15866548
179	0xbe62ba52	-0.22141388
180	0x3e4742c5	0.19459064
181	0x3de362f9	0.11102862
182	0xbeb0df58	-0.34545398
183	0xbe91e192	-0.2849241
184	0xbcd5a7e8	-0.02608104
185	0x3dc5268d	0.096264936
186	0x3df67f99	0.12036056
187	0x3e80b955	0.25141397
188	0xbda62dd9	-0.081142135
189	0xbe879375	-0.26479688
190	0x3e46dae3	0.19419436
191	0xbd8eb593	-0.06968226
192	0x3e652ad7	0.22379623
193	0xbc0f6398	-0.008751772
194	0x3d372ef2	0.044722505
195	0xbdd78b5a	-0.10524626
196	0xbd162513	-0.03665645
197	0xbd82ee5f	-0.06393122
198	0xbe59d162	-0.2127128
199	0x3cc777e8	0.024349168

weight f4 [200, 200]
0	0x3bbc416e	0.0057451045
1	0xbe00c225	-0.1257406
2	0xbe7af36c	-0.2450692
3	0x3ce0f96a	0.02746268
4	0xbc093f14	-0.008376855
5	0xbd0a008c	-0.033691928
6	0x3cdde842	0.027088288
7	0xbe24ccb7	-0.16093718
8	0xbd8827e5	-0.06648234
9	0xbe7b1e64	-0.24523312
10	0xbe06bd65	-0.13158186
11	0xbc16f816	-0.009214422
12	0xbdfe2d34	-0.124109656
13	0xbcea519c	-0.028603368
14	0xbe16d67e	-0.1473026
15	0xbde523d4	-0.11188474
16	0x3d2b2821	0.041786317
17	0xbcb9b767	-0.02267046
18	0xbe2ec8f6	-0.17068848
19	0x3d1909c5	0.037362833
20	0xbe13860e	-0.14406607
21	0xbeb93680	-0.36174393
22	0x3d9c050d	0.07618151
23	0x3cc00c80	0.02344346
24	0xbcafd747	-0.021464957
25	0x3b7e72bc	0.0038825711
26	0xbda01f0f	-0.07818424
27	0xbceb72aa	-0.0287412
28	0xbdf6ace4	-0.12044695
29	0x3d00186a	0.031273283
30	0xbd8bfdec	-0.06835541
31	0x3c00762a	0.0078406725
32	0xbcc9cfb8	-0.02463518
33	0xbe322e80	-0.17400551
34	0xbc2d60cf	-0.010582163
35	0xbea3ad37	-0.3196809
36	0xbc4943e1	-0.01228425
37	0xbaa27e17	-0.0012397197
38	0x3d2ed3e6	0.04268255
39	0xbdf41ca4	-0.11919525
40	0xbe972c6e	-0.29526085
41	0xbd692bdb	-0.05692659
42	0xbdcf00a1	-0.10107542
43	0x3d5878d9	0.052849624
44	0xbda1a037	-0.07891887
45	0xbe4307c9	-0.19045939
46	0xbe4c3759	-0.19942988
47	0xbd753134	-0.059861377
48	0xbed3fc6a	-0.41403514
49	0x3c5566ea	0.013025025
50	0xbd014dfd	-0.031568516
51	0xbe473c59	-0.19456615
52	0x3d148266	0.03625717
53	0x3b579ee1	0.0032901096
54	0xbdeaeabb	-0.114705525
55	0x3ced28cb	0.028950116
56	0xbec50b69	-0.38485268
57	0xbea03d87	-0.31296942
58	0xbe14e40e	-0.14540121
59	0xbe393bf8	-0.18089283
60	0xbd4f4241	-0.050600294
61	0xbd2680a7	-0.040650036
62	0xbc90ba6e	-0.017667022
63	0xbdba1c30	-0.090874076
64	0xbd27176e	-0.04079383
65	0xbd10502d	-0.03523271
66	0xbc83b025	-0.016075203
67	0x3bf8bf5b	0.0075911707
68	0xbd7703c4	-0.060306326
69	0x3ceeced2	0.029151354
70	0xbc19797e	-0.009367345
71	0xbe817445	-0.2528402
72	0x3d3bdb0f	0.045863207
73	0xbd281cb0	-0.041042984
74	0xbdb797a8	-0.08964473
75	0xbdf9b0c4	-0.121919185
76	0x3dc8a610	0.09797299
77	0x3db3b51f	0.087747805
78	0xbe49db71	-0.19712617
79	0x3e25042e	0.16114876
80	0xbbf4046c	-0.007446816
81	0xbc54c18a	-0.012985596
82	0xbd4c7da8	-0.049924523
83	0xbd556942	-0.052102335
84	0xbdd3d87a	-0.10344024
85	0xbed56239	-0.416765
86	0x3d244a3e	0.040109865
87	0xbde7a85b	-0.11311408
88	0xbce3354a	-0.027735371
89	0xbc7f810c	-0.015594732
90	0xbdf6de1c	-0.12054083
91	0xbbdddbc2	-0.006770582
92	0xbc5e42e1	-0.01356575
93	0xbe24714f	-0.16058849
94	0xbe23c637	-0.15993582
95	0x3d2132d7	0.039355125
96	0xbe3983d8	-0.181167
97	0xbecf0d21	-0.40439704
98	0x3c9f90d1	0.019478234
99	0x3c7f00eb	0.015564184
100	0xbdb71d00	-0.08941078
101	0xbd76d4bc	-0.060261473
102	0xbc6cfa13	-0.014463919
103	0x3d178195	0.036988813
104	0xbe5385aa	-0.20656458
105	0xbe623e6b	-0.22094123
106	0xbca155ff	-0.019694326
107	0x3d4eda58	0.050501198
108	0x3d3c1737	0.045920577
109	0xbd1262a6	-0.03573861
110	0xbc5bf37a	-0.013424749
111	0x3bc4f1a0	0.0060102493
112	0xbd194846	-0.03742244
113	0x3d6d74ba	0.057972647
114	0xbc55e961	-0.01305613
115	0xbdc68a39	-0.09694333
116	0xbd834f45	-0.06411604
117	0xbd841bf5	-0.06450645
118	0x3da1db97	0.079032116
119	0x3d8abab8	0.06773895
120	0x3d1163f5	0.035495717
121	0x3c9b547d	0.018961186
122	0x3d7ab03b	0.061203223
123	0x3cadf796	0.021236222
124	0xbdd5ee12	-0.10445799
125	0x3d9f33e5	0.0777357
126	0xbd8417c3	-0.06449845
127	0xbdf962a4	-0.12177017
128	0x3d56f6e9	0.052481566
129	0xbd115b5e	-0.035487525
130	0x3c2b36e7	0.010450101
131	0xbdbf69ff	-0.09346389
132	0x3ca65676	0.0203049
133	0xbdd4e9ea	-0.10396178
134	0xbd95e1f6	-0.07318489
135	0xbd5a3ec2	-0.053282507
136	0xbd606feb	-0.054794233
137	0xbe07416d	-0.13208552
138	0xbd418381	-0.047244553
139	0x3a6ff6ea	0.00091539195
140	0xbd2074ff	-0.039174076
141	0xbd8da5ff	-0.06916427
142	0xbed56302	-0.416771
143	0xbd27d4b6	-0.04097434
144	0x3c73b263	0.014874074
145	0xbeba1cf8	-0.36350226
146	0xbe095d45	-0.13414486
147	0xbd87cf9d	-0.06631396
148	0xbc43ea58	-0.011957727
149	0xbca3580e	-0.019939449
150	0xbcb387d0	-0.021915346
151	0xbc983f6e	-0.018584933
152	0xbd5e4d58	-0.05427298
153	0xb9ee9a7b	-0.00045509994
154	0x3dfcf3eb	0.12351211
155	0x3c92d819	0.017925309
156	0xbde904cb	-0.11377867
157	0x3d2bfc8e	0.0419889
158	0x3dda2689	0.10651881
159	0xbbe3cb4a	-0.006951724
160	0xbe50065a	-0.20314923
161	0x3c4f4ba0	0.012652308
162	0xbdb043e0	-0.08606696
163	0xbcd8f449	-0.026483672
164	0xbe06c3a5	-0.1316057
165	0x3d5cc732	0.053900905
166	0x3c807484	0.015680559
167	0xbbc2a491	-0.005940028
168	0xbc5b2c42	-0.013377251
169	0xbdffad94	-0.12484279
170	0xbe584612	-0.2112048
171	0x3d6f4bd2	0.058421917
172	0xbdc38979	-0.09547705
173	0xbe5cad6a	-0.21550527
174	0xbe817f35	-0.25292364
175	0xbe647bdb	-0.22312872
176	0xbbcf5119	-0.0063268063
177	0xbd4d5c50	-0.050136864
178	0xbb39b82f	-0.0028338542
179	0x3dd0cc01	0.10195161
180	0x3c1e459e	0.009660153
181	0x3d0406dc	0.032233104
182	0xbdd4c3a2	-0.103888765
183	0x3d1bdd35	0.038052756
184	0xbc2a871e	-0.010408191
185	0x3dbfc247	0.09363227
186	0xbcfdbfd4	-0.03097526
187	0x3d319627	0.043356087
188	0xbddf2a22	-0.10896708
189	0xbce3b3db	-0.027795723
190	0xbd2db9df	-0.04241359
191	0x3d868394	0.06568065
192	0xbe95d3e6	-0.29263228
193	0xbd0de6fc	-0.034644112
194	0xbb82d564	-0.0039927233
195	0xbd96d1ce	-0.07364236
196	0xbe1e8d7e	-0.15483662
197	0xbd40a349	-0.04703072
198	0xbe5566ea	-0.2084004
199	0xbce2fdd3	-0.027708923
200	0xbd5ca88e	-0.053871684
201	0xbcb760f8	-0.022385105
202	0xbdc34a31	-0.09535635
203	0xbcec314b	-0.028832098
204	0x3d60f832	0.054924197
205	0xbd800f96	-0.06252973
206	0x3be9114a	0.0071126567
207	0x3d0f9d44	0.03506209
208	0x3bc5e308	0.006039027
209	0xbceb34f3	-0.028711772
210	0xbbe81d8b	-0.0070836
211	0xbcdbcd1a	-0.026831198
212	0xbd0c7e5a	-0.034300186
213	0xbc4615d1	-0.012090162
214	0x3b586939	0.0033021702
215	0xbd97c1a6	-0.074099824
216	0xbd64191a	-0.055688
217	0x3d66955a	0.056294776
218	0xbc8c957d	-0.017161125
219	0xbd338c80	-0.043835163
220	0x3d1dfcf5	0.038571317
221	0xbc0ec98d	-0.008715046
222	0x3c9820f5	0.018570403
223	0xbd395f20	-0.045256734
224	0xbdb5c3b0	-0.08875215
225	0x39a261f6	0.00030972034
226	0x3d24cb26	0.0402328
227	0x3cd4ab3f	0.025960563
228	0xba4a8756	-0.0007725855
229	0xbd2ad0c0	-0.041702986
230	0xbd8195dd	-0.06327412
231	0xbdce5269	-0.10074312
232	0xbcdeaa09	-0.027180688
233	0xbc328557	-0.0108960485
234	0x3d453d68	0.048154265
235	0xbce0587b	-0.02738594
236	0xbd4c1c01	-0.049831394
237	0xbcc145c9	-0.023592846
238	0xbce4c86b	-0.027927598
239	0xbda781af	-0.08179032
240	0x3c11ca4d	0.00889833
241	0xbc9769dd	-0.018483097
242	0xbd801e06	-0.062557265
243	0xbd81ad26	-0.063318536
244	0x3d30853c	0.043095812
245	0xbd7bd3a4	-0.061481133
246	0xbd492951	-0.049111668
247	0x3d094764	0.03351535
248	0x3b3dff7f	0.00289914
249	0x3c90e07f	0.017685173
250	0xbc95e7f6	-0.018299084
251	0xbd15df9e	-0.03659021
252	0xbd27d79f	-0.040977117
253	0xbdd4e6ca	-0.10395582
254	0xbd461af0	-0.048365533
255	0x3d1ca690	0.038244784

bias f4 [200]
0	0xbdeac603	-0.11463549
1	0xbd9026c6	-0.070386454
2	0x3b513d41	0.003192738
3	0xbd85ab2d	-0.0652679
4	0xbe04bfe3	-0.12963824
5	0xbe906846	-0.28204554
6	0x3c8daebc	0.017295234
7	0xbe356528	-0.1771437
8	0x3c8face4	0.017538495
9	0xbd24665f	-0.04013669
10	0xbd221dff	-0.039579388
11	0xbd04aa25	-0.032388825
12	0x3d8d6f99	0.06906051
13	0xbd9ff7fe	-0.07810973
14	0xbc407149	-0.011745759
15	0xbd479889	-0.048729453
16	0xbcb20e78	-0.021735415
17	0xbd1f63f7	-0.038913693
18	0xbe1682bc	-0.14698309
19	0xbdbc3e48	-0.09191567
20	0xbe8a9df0	-0.27073622
21	0x3daee0a9	0.08538944
22	0xbcb72d68	-0.022360519
23	0xbda2081f	-0.07911705
24	0xbdf97d47	-0.12182098
25	0xbe24c369	-0.16090168
26	0xbc06c5fd	-0.008225915
27	0xbe441e56	-0.19152197
28	0xbca67f17	-0.020324273
29	0xbd853c3b	-0.06505629
30	0xbb1836d6	-0.0023226044
31	0xbd98de06	-0.074642226
32	0xbc1106fe	-0.008851765
33	0xbd999bda	-0.075004295
34	0xbcccd1eb	-0.02500244
35	0xbda0df3f	-0.07855081
36	0xbe4456a6	-0.19173679
37	0x3dd99f87	0.106261306
38	0xbdcd9491	-0.100381024
39	0xbdba5d53	-0.090998314
40	0xbd9459be	-0.072436795
41	0xbc9b0501	-0.018923284
42	0xbe209713	-0.1568263
43	0xbd91984e	-0.07109128
44	0xbb9022e1	-0.004398689
45	0xbcd367fa	-0.025806416
46	0xbdbf02e0	-0.0932672
47	0xbd75bb7c	-0.059993252
48	0xbe1218fb	-0.14267342
49	0xbe672714	-0.22573501
50	0xbdb0a3f8	-0.086250246
51	0xbe290349	-0.1650516
52	0xbd6e1f36	-0.058135234
53	0xbcd09507	-0.025461687
54	0xbcf63f84	-0.030059583
55	0xbe814afa	-0.25252515
56	0x3cf5e24a	0.03001513
57	0xbdb89fb8	-0.09014839
58	0xbdb1ab40	-0.086752415
59	0xbd90a1c8	-0.07062107
60	0xbe54d3fc	-0.2078399
61	0xbdd0f3da	-0.10202761
62	0xbddde842	-0.10835315
63	0xbdc52336	-0.096258566
64	0xbba1beaf	-0.0049360613
65	0xbd659c95	-0.05605753
66	0x3cd365c6	0.025805365
67	0xbd95a2ae	-0.07306419
68	0x3d1752dc	0.036944255
69	0x3c9f1805	0.019420633
70	0xbd461124	-0.04835619
71	0x3d9f3743	0.07774212
72	0xbdf189e5	-0.117938794
73	0xbd3759f0	-0.044763505
74	0xbdb833f5	-0.08994285
75	0xbdb691f0	-0.08914554
76	0xbe09bf61	-0.13451912
77	0xbd6878f3	-0.05675597
78	0xbd9a9e76	-0.07549755
79	0xbcfd4e8c	-0.030921243
80	0xbdb660b8	-0.089051664
81	0xbdcde2b1	-0.100530036
82	0x3d350aad	0.044199634
83	0xbdb439f0	-0.08800113
84	0xbd8874d2	-0.06662907
85	0xbdaa0e07	-0.08303457
86	0x3e1476aa	0.14498392
87	0x3e7d697b	0.24747269
88	0xbd68e333	-0.0568573
89	0xbda829a7	-0.082110696
90	0xbe3bb40c	-0.18330401
91	0xbda9340f	-0.082618825
92	0xbda833cf	-0.08213007
93	0xbd6e7080	-0.058212757
94	0xbdb93b30	-0.09044492
95	0xbd454539	-0.04816172
96	0xbd59ee4a	-0.053205766
97	0xbe8966cf	-0.2683625
98	0xbdd6630d	-0.10468111
99	0x3c0358a4	0.008016739
100	0xbdeb368b	-0.114850126
101	0xbe01b797	-0.1266769
102	0xbcd851c2	-0.026406173
103	0xbde91c3c	-0.113823384
104	0xbe051e80	-0.12999916
105	0xbd5dc1fa	-0.05414007
106	0x3c93b50a	0.018030662
107	0xbc36cf95	-0.01115789
108	0xbdef7ab3	-0.11693325
109	0xbe3071e8	-0.17230952
110	0xbd2ac40f	-0.041690882
111	0xbe5136ea	-0.20431104
112	0xbe254057	-0.16137825
113	0xbdea050b	-0.11426743
114	0xbdd6d552	-0.10489906
115	0xbd3d5aeb	-0.046229284
116	0xbd96dbf6	-0.07366173
117	0xbda27fa7	-0.07934504
118	0xbc6b180b	-0.014348994
119	0xbdc982d2	-0.09839405
120	0xbe891b9b	-0.26778874
121	0xbe260dcf	-0.16216205
122	0xbd524df2	-0.051343866
123	0xbdedeb7b	-0.1161718
124	0xbd038dfb	-0.032117825
125	0xbe5c8947	-0.21536742
126	0xbd10660e	-0.035253577
127	0xbdf74604	-0.12073901
128	0xbd0db2a5	-0.034594197
129	0xbc8ea7f5	-0.017414073
130	0xbc3e8239	-0.011627727
131	0xbc35ba50	-0.011091784
132	0xbd8dc148	-0.06921631
133	0xbddfd472	-0.109291926
134	0xbe17838f	-0.1479628
135	0xbde9bd2b	-0.11413034
136	0x3de4e6e8	0.11176854
137	0xbe194da0	-0.14971018
138	0xbe65e434	-0.22450334
139	0xbd0210f2	-0.03175444
140	0xbe0ca51d	-0.1373486
141	0xbd884561	-0.06653858
142	0xbe65b282	-0.22431377
143	0xbce18543	-0.027529364
144	0xbded326d	-0.115818836
145	0xbd8ad817	-0.06779497
146	0xbcc58f71	-0.02411625
147	0xbd968796	-0.0735008
148	0x3c1fe53d	0.0097592445
149	0xbd22e957	-0.03977331
150	0xbdcb5b09	-0.09929473
151	0xbd00950a	-0.031392135
152	0x3dcf5bb3	0.10124912
153	0xbddd436a	-0.10803874
154	0xbe04f381	-0.12983514
155	0xbcd6202f	-0.026138393
156	0xbbf5cdd8	-0.007501345
157	0x3c51764a	0.01278455
158	0xbcb2431b	-0.021760514
159	0x3dd9c61d	0.1063349
160	0xbdd87362	-0.105688825
161	0xbda4ef6b	-0.08053478
162	0xbd532af5	-0.05155464
163	0xbe1113f6	-0.1416777
164	0xbd5a216f	-0.05325454
165	0xbbfcd704	-0.0077160615
166	0xbd76918c	-0.060197398
167	0x3d96c844	0.073624164
168	0xbd8d5805	-0.06901554
169	0xbda85887	-0.0822001
170	0xbd66eb4b	-0.056376737
171	0xbdc5aac9	-0.09651715
172	0xbdc52b71	-0.096274264
173	0xbd801e47	-0.06255775
174	0xbcade01d	-0.02122503
175	0xbd05a745	-0.032630224
176	0xbda521df	-0.08063101
177	0xbb3c8ac2	-0.002876923
178	0xbc6f263d	-0.014596519
179	0xbd1eafde	-0.03874194
180	0xbdd851ca	-0.10562475
181	0xbdc4e090	-0.096131444
182	0xbd7406c4	-0.059576765
183	0xbd58ad62	-0.052899726
184	0x3d032ea0	0.032026887
185	0xbddf137a	-0.10892387
186	0xbdfc4b7a	-0.123190835
187	0xbdca1d11	-0.09868825
188	0xbdcb62d9	-0.09930963
189	0xbd0146f5	-0.03156181
190	0x3d327796	0.043571077
191	0xbe61a1e3	-0.22034411
192	0xbe280899	-0.1640953
193	0x3dc29f6b	0.09503063
194	0xbd6bd773	-0.057578515
195	0xbd9f3648	-0.07774025
196	0xbda876ff	-0.08225822
197	0xbe4775f4	-0.1947859
198	0xbd53beb2	-0.051695533
199	0xbe05e51f	-0.13075684

weight f4 [1, 200]
0	0x3cb9380f	0.022609739
1	0xba152a5d	-0.00056902115
2	0xbe42eb2f	-0.19035028
3	0x3ba57bb6	0.005050148
4	0xbdd9efab	-0.10641416
5	0xbe8d9947	-0.27656004
6	0x3af6ee83	0.0018839393
7	0xbc2d0ec7	-0.010562605
8	0xba4ae129	-0.000773924
9	0xbbcaf258	-0.0061934404
10	0x3cb72340	0.022355676
11	0xbc76bd4c	-0.01505978
12	0x3d7d1bf4	0.061794236
13	0xbc1a87cd	-0.0094317915
14	0xbbec440a	-0.0072102593
15	0xbbd61b61	-0.0065340255
16	0xbcee862b	-0.02911671
17	0xbea89c4a	-0.3293174
18	0x3df0b5eb	0.11753448
19	0xbb51613a	-0.003194882
20	0xbd80cbbc	-0.06288859
21	0x3d1eeaf5	0.03879829
22	0x3ce4e553	0.027941382
23	0xbc5bd692	-0.013417857
24	0x3f1520ef	0.5825338
25	0xbd9fe44c	-0.07807216
26	0xbb440101	-0.0029907825
27	0x3e2843e8	0.16432154
28	0xbc412b39	-0.01179009
29	0xbe82fb51	-0.25582364
30	0x3c8884dd	0.016664917
31	0xbd22c39e	-0.039737336
32	0x3c70db0c	0.014700662
33	0xbec8d2b7	-0.39223263
34	0xbe336486	-0.17518815
35	0xbbbb5960	-0.0057174414
36	0x3d7dc256	0.06195291
37	0x3de1569a	0.11002846
38	0xbcc74749	-0.024325984
39	0xbe9fa30b	-0.3117908
40	0x3ef675aa	0.48136646
41	0xbe5f0e8e	-0.21782896
42	0xbebed444	-0.3727132
43	0xbb67b283	-0.0035354204
44	0xbe27f78f	-0.1640303
45	0xbc442b31	-0.011973188
46	0xbb0b5e8d	-0.0021266073
47	0xbd7fb3d3	-0.062427353
48	0x3d56abf6	0.05241009
49	0xbe793204	-0.24335486
50	0xbc8c588c	-0.017132066
51	0x3da3dd32	0.08001174
52	0xbbb6a71a	-0.0055741193
53	0xbea0f2ee	-0.3143534
54	0x3c7cfe14	0.015441436
55	0xbe7f0e34	-0.24907762
56	0x3abf9bb3	0.0014618546
57	0xbcbee3a0	-0.0233019
58	0xbc29ac5e	-0.010356037
59	0xbc6504ab	-0.013978164
60	0xbe9db162	-0.30799395
61	0xb97b71fc	-0.00023979688
62	0x3c1f6db5	0.009730746
63	0xbe29af93	-0.16570882
64	0x3b97f46d	0.004637292
65	0xbe2fa875	-0.17154105
66	0xbe1ffa85	-0.1562291
67	0xbc11a8b6	-0.0088903215
68	0xbe4c329f	-0.19941185
69	0xbd3c65c4	-0.04599549
70	0xbd7f3531	-0.062306587
71	0xbe1ebc18	-0.1550144
72	0x3e861229	0.2618573
73	0xbce40ceb	-0.027838191
74	0xbe18aee5	-0.14910467
75	0xbc129bae	-0.00894825
76	0xbe5e28d0	-0.21695256
77	0x3b0446ec	0.0020183874
78	0xbb70e6c3	-0.0036758638
79	0x3c30bb68	0.010786869
80	0xbd0646a4	-0.032782212
81	0x3c3b5e10	0.0114360005
82	0xbde278b0	-0.110581756
83	0xbcc23731	-0.023707958
84	0xbcb0117d	-0.021492714
85	0x3b31c760	0.0027126893
86	0x3d8b74b2	0.06809367
87	0x3e07837c	0.13233751
88	0x3c886b79	0.01665281
89	0x3b2ba5d7	0.0026191378
90	0xbe116db9	-0.14202012
91	0x3ac1bc88	0.0014780918
92	0x3c3e3e00	0.011611462
93	0x3b3be242	0.0028668796
94	0x3cb00ba0	0.021489918
95	0xbaaa231f	-0.0012980438
96	0x3b373537	0.0027955303
97	0xbeb6f92f	-0.35736987
98	0x3da8a629	0.082348175
99	0xbc82ef2d	-0.015983189
100	0x3e02fbe6	0.12791404
101	0xbecaa3b5	-0.39578024
102	0x3dc3d718	0.0956251
103	0x3c011b34	0.007880021
104	0xbe3c9f1d	-0.18420072
105	0x3c2ba69f	0.010476737
106	0xbeeece1e	-0.4664163
107	0x3d5f38a3	0.054497372
108	0xbd25b586	-0.040456317
109	0x3dac28c4	0.08406213
110	0xbcc38fb9	-0.023872243
111	0x3bf6aa69	0.0075276387
112	0x3ce8a193	0.028397357
113	0xbb9ccab6	-0.004784907
114	0x3ccc0879	0.024906384
115	0xbec485d6	-0.3838336
116	0x3ce63aba	0.028104175
117	0xbb42a3c9	-0.0029699674
118	0x3c04e3f4	0.008110989
119	0xbe637fde	-0.22216746
120	0xbe55086b	-0.20803992
121	0x3c3c68e9	0.011499622
122	0x3c6800a3	0.014160308
123	0xbb097965	-0.0020976898
124	0x3a023366	0.00049667654
125	0xbe30da75	-0.17270835
126	0x3c3c3cb8	0.011489086
127	0x3c0cbfad	0.008590621
128	0xbbcf8f98	-0.0063342564
129	0xbcc32fa1	-0.023826422
130	0xbbc1d63f	-0.0059154327
131	0xbc3b7bc0	-0.0114430785
132	0xbde043d1	-0.10950435
133	0xbc9b961e	-0.01899248
134	0xbe99489f	-0.29938218
135	0x3b90e49e	0.0044217845
136	0x3dee4689	0.11634547
137	0x3df85907	0.121263556
138	0xbde1d216	-0.11026399
139	0xbdd3dc9c	-0.10344812
140	0xbd22b336	-0.03972169
141	0xbe06df1f	-0.13171051
142	0x3e908700	0.28227997
143	0x3d6f8f02	0.058485992
144	0x3dd30e54	0.10305467
145	0x3cfc4c1e	0.030798014
146	0xbc50d882	-0.012746932
147	0xbd440998	-0.04786071
148	0xbc63b312	-0.013897674
149	0xbc2016e9	-0.009771087
150	0xbc2b9a1f	-0.010473757
151	0xbee1ddc2	-0.441145
152	0x3d16414a	0.03668336
153	0xbd6facb2	-0.058514304
154	0x3f14896e	0.580222
155	0x3df91653	0.12162461
156	0xba1401af	-0.0005646003
157	0xbe65fc9e	-0.22459647
158	0xbe7f76e3	-0.24947695
159	0x3d70c6ac	0.05878322
160	0xbb4401c9	-0.002990829
161	0xbd94c8f0	-0.07264888
162	0x3dd15811	0.102218755
163	0x3c4d4853	0.0125294505
164	0xbe98d0a7	-0.2984669
165	0x3d52fb61	0.051509265
166	0x3d12e83d	0.03586601
167	0xbdc4a436	-0.09601633
168	0xbc3972a8	-0.01131884
169	0xbcd09552	-0.025461826
170	0x3cb11158	0.021614715
171	0xbbfcd7cc	-0.0077161547
172	0xbca97676	-0.02068637
173	0xbbb15a00	-0.00541234
174	0xbee819df	-0.45332238
175	0xbd0dfe6d	-0.034666467
176	0x3d15ca85	0.03657009
177	0xbdcce986	-0.100054786
178	0xbd390ad0	-0.045176327
179	0x3b74c62b	0.0037349563
180	0x3c87e0cd	0.016586686
181	0xbbace429	-0.0052762222
182	0x3cd3cbfa	0.0258541
183	0x3e214a5f	0.15751027
184	0xbe43a7cb	-0.19106977
185	0xbbe138b3	-0.006873214
186	0xbe5a2802	-0.21304324
187	0x3d7a5d6b	0.061124247
188	0xbc112f9e	-0.0088614505
189	0x3d233807	0.039848354
190	0xbe2bded7	-0.16784225
191	0x3e831c27	0.25607416
192	0x3e2db1cd	0.16962357
193	0xbe288dad	-0.16460295
194	0x3b80b735	0.00392809
195	0xbf102578	-0.5630717
196	0x3b787b64	0.0037915343
197	0xbf17d642	-0.59311306
198	0x3d039b0c	0.032130286
199	0xbf1d46e6	-0.6143631

weight f4 [200, 15]
0	0x3da2135e	0.0791385
1	0x3e2da183	0.16956143
2	0x3ce92d00	0.02846384
3	0xbe6e951e	-0.23299071
4	0xbe3b6bf0	-0.18302894
5	0xbd1b3e12	-0.03790099
6	0xbe390c7e	-0.18071172
7	0x3e325c77	0.17418085
8	0xbca4997a	-0.020092715
9	0xbdfe7b3e	-0.1242585
10	0x3bf0595c	0.007334871
11	0xbe377679	-0.17916287
12	0xbe389025	-0.18023737
13	0xbe2604fd	-0.1621284
14	0xbe557bce	-0.20848009
15	0xbdab616c	-0.08368191
16	0x3eae8798	0.34087825
17	0xbe354d72	-0.17705324
18	0xbeb3bb91	-0.3510404
19	0xbe9e2316	-0.30886143
20	0xbd0a59ab	-0.03377692
21	0xbe4bf36f	-0.19917081
22	0x3eed2a09	0.46321133
23	0xbeb6771b	-0.35637745
24	0xbdef2794	-0.11677471
25	0xbe13f3b9	-0.14448442
26	0x3e6d5ea7	0.23180638
27	0xbd04f89f	-0.032463666
28	0xbe960b93	-0.29305705
29	0xbde256d4	-0.110517174
30	0x3f12b38b	0.5730521
31	0xbdf2a666	-0.11848144
32	0x3e1d0400	0.15333557
33	0x3e80dbdd	0.25167742
34	0x3e6c5944	0.23080927
35	0xbf3a4317	-0.7275862
36	0xbefd29c0	-0.49445915
37	0xbeb484d7	-0.352576
38	0xbfd3dd0d	-1.6551834
39	0xbf83755a	-1.0270188
40	0xbf909cb6	-1.1297824
41	0xbf42ee57	-0.7614493
42	0xbfbbade3	-1.4662441
43	0xbd855710	-0.065107465
44	0xbe34dfff	-0.17663573
45	0xbe26f127	-0.1630293
46	0xbe519fb9	-0.20471086
47	0x3c9aee25	0.018912384
48	0xbe8ce20d	-0.27516213
49	0xbe6b9633	-0.23006515
50	0xbda5063e	-0.08057831
51	0xbe228d2c	-0.15874165
52	0x3aa5a58d	0.0012637839
53	0xbe5e95fa	-0.21736899
54	0xbdc5490b	-0.096330725
55	0x3dd04043	0.10168507
56	0xbe2ff78a	-0.17184272
57	0xbe6e5aa6	-0.23276767
58	0xbe260086	-0.16211137
59	0xbe0dcdfc	-0.13848108
60	0x3e07a55d	0.13246675
61	0x3f12c193	0.5732662
62	0x3e352059	0.17688121
63	0x3dc0e83d	0.09419296
64	0x3cb2b877	0.021816475
65	0x3e58e711	0.21181895
66	0x3e69870d	0.22805424
67	0xbeedfcae	-0.46481842
68	0xbeb6bd2c	-0.35691202
69	0x3e241efe	0.16027448
70	0x3e31333b	0.17304699
71	0xbe323c3e	-0.17405793
72	0x3e17a791	0.14810015
73	0x3efbb796	0.49163502
74	0x3c1c16da	0.009526933
75	0x3f38bd96	0.72164285
76	0xbed562f9	-0.41677073
77	0xbbe39b44	-0.0069459993
78	0xbe911dfc	-0.2834319
79	0xbe063b76	-0.1310862
80	0xbe8be25f	-0.27321145
81	0x3cc9d8a2	0.024639431
82	0xbf336a8e	-0.70084465
83	0xbdf82710	-0.121168256
84	0xbeb290f9	-0.3487623
85	0xbf98ecbd	-1.1947247
86	0xbec6d84c	-0.38836896
87	0x3e21b29b	0.15790789
88	0x3eb8d2e4	0.36098397
89	0x3f0108a2	0.504038
90	0x3ef761a7	0.4831669
91	0x3ea1f5b8	0.3163278
92	0xbd948e8b	-0.072537504
93	0x3b390a05	0.0028234732
94	0x3dd28207	0.10278707
95	0x3e2bd823	0.16781668
96	0x3e23ee53	0.16008882
97	0xbf90230a	-1.1260693
98	0xbec822ea	-0.39089137
99	0xbe9ee3d3	-0.3103319
100	0xbedc1b21	-0.42989448
101	0xbf77a73e	-0.96739566
102	0xbfc1ddc8	-1.5145807
103	0xbe875fe0	-0.26440334
104	0xbe170807	-0.14749156
105	0x3effea08	0.4998324
106	0xbe7dc937	-0.24783789
107	0xbc572140	-0.013130486
108	0xbec74bbc	-0.38924968
109	0xbe7dca8e	-0.247843
110	0xbe90e2a9	-0.28297928
111	0x3d98cbed	0.07460771
112	0x3e06c865	0.13162382
113	0xbeea0dee	-0.45713753
114	0xbd418262	-0.047243483
115	0x3e349167	0.17633592
116	0x3d77ab65	0.06046619
117	0xbdf8b520	-0.12143922
118	0xbd9b4178	-0.075808465
119	0x3e921b8e	0.28536648
120	0x3e93332c	0.2874998
121	0xbd38ce26	-0.045118473
122	0x3dee3921	0.1163199
123	0x3d9d6546	0.07685332
124	0xbe8310a3	-0.2559863
125	0x3e615533	0.22005157
126	0xbda9e541	-0.0829568
127	0x3e06f7d5	0.13180478
128	0xbee9fd0a	-0.45700866
129	0xbe24475f	-0.16042851
130	0xbe78a5c4	-0.24281985
131	0xbe81e43c	-0.25369442
132	0xbd08d3b3	-0.033405017
133	0x3ed743da	0.42043954
134	0xbcd3181f	-0.025768338
135	0xbf3b3cc6	-0.7313961
136	0xbe772d51	-0.2413838
137	0xbe9d4143	-0.30713853
138	0xbcea5429	-0.028604584
139	0x3c03ff76	0.008056512
140	0xbdbc22a0	-0.09186292
141	0xbd3dd72e	-0.04634779
142	0xbe341509	-0.1758615
143	0x3e48a8fc	0.19595712
144	0x3e848fcb	0.25890955
145	0xbe5098f2	-0.20370844
146	0xbda252d9	-0.07925958
147	0x3ccd7650	0.02508083
148	0x3ef12806	0.47100848
149	0x3eda50b2	0.4263969
150	0x3c0e1cf9	0.0086739
151	0x3e994523	0.2993556
152	0xbe89879d	-0.26861277
153	0x3d87b6be	0.06626652
154	0xbe542796	-0.20718226
155	0xbe36eef6	-0.17864594
156	0x3e5a31f5	0.2130812
157	0xbe9b5a4a	-0.30342323
158	0x3e02ad5b	0.12761442
159	0x3def6b60	0.11690402
160	0xbe558651	-0.20852019
161	0xbd73582d	-0.059410263
162	0x3e1faaf0	0.15592551
163	0xbedba422	-0.4289866
164	0xbe6b1c8b	-0.22960107
165	0x3e92e53b	0.28690514
166	0xbdc0264e	-0.09382306
167	0x3e5c4105	0.21509178
168	0x3cb42db8	0.021994457
169	0x3e01d1f5	0.12677749
170	0xbe2f24d9	-0.171039
171	0x3d5a38b1	0.05327672
172	0xbe8fb52c	-0.2806791
173	0xbf791f58	-0.9731345
174	0xbdee7e10	-0.11645138
175	0xbeacab0d	-0.3372425
176	0xbf13d6e0	-0.5774975
177	0xbe68d593	-0.22737722
178	0xbe01cf1f	-0.12676667
179	0x3e7b6295	0.24549325
180	0xbdcd4f42	-0.10024883
181	0x3e5b2622	0.21401265
182	0x3d979482	0.074013725
183	0x3e102a48	0.14078629
184	0x3e54b0a2	0.20770505
185	0xbdc370cd	-0.095429994
186	0xbdf1350e	-0.117776975
187	0x3e8dd2d1	0.27699903
188	0x3eab754e	0.33487934
189	0xbea5f839	-0.3241594
190	0x3ce45370	0.027871817
191	0xbe6987dc	-0.22805732
192	0xbe2d1c29	-0.16905273
193	0x3f578431	0.84186083
194	0xbe2119c8	-0.15732491
195	0x3ee0e63e	0.4392566
196	0xbec65758	-0.38738513
197	0xbcffb0b7	-0.031212194
198	0x3eb11d9f	0.34592912
199	0x3e8b3d6a	0.27195293
200	0x3d0391b2	0.032121368
201	0xbe8d1058	-0.27551532
202	0xbd9f057e	-0.077647194
203	0x3ed44cd8	0.41464877
204	0xbdee9e3c	-0.116512746
205	0xbdb00b86	-0.08595948
206	0xba42ad58	-0.0007426343
207	0xbdbfb43e	-0.0936055
208	0x3ecbe6f2	0.39824635
209	0x3dfd3783	0.12364104
210	0x3f030d7f	0.5119247
211	0xbed9c97b	-0.4253653
212	0x3cf2ac63	0.029623216
213	0xbdc88524	-0.097910196
214	0xbe32baec	-0.17454118
215	0xbe7de465	-0.24794157
216	0xbf0456d1	-0.5169497
217	0xbf1e5e85	-0.61862975
218	0xbf15e505	-0.5855258
219	0xbcc5ee3b	-0.024161449
220	0xbf12d172	-0.5735084
221	0xbf1c1d1b	-0.6098191
222	0xbde78f9c	-0.11306688
223	0xbe429d52	-0.19005325
224	0x3f3ace8a	0.72971404
225	0xbef00d3d	-0.468851
226	0xbdd0a64d	-0.10187969
227	0xbe9ff6aa	-0.31242877
228	0xbea438b8	-0.32074523
229	0x3da1be6f	0.078976505
230	0x3e0e3d2d	0.13890524
231	0x3e2e08f4	0.16995603
232	0xbe56a33c	-0.20960706
233	0x3ed2c305	0.41164413
234	0x3e2aade6	0.166679
235	0xbe8942c5	-0.26808754
236	0xbe976bfd	-0.29574576
237	0xbe48bfda	-0.19604436
238	0xbede55fa	-0.4342497
239	0x3ecaa5da	0.3957966
240	0x3ed02945	0.40656486
241	0x3cb4497f	0.022007702
242	0xbf015392	-0.50518143
243	0x3d3737e9	0.044731054
244	0xbe1c6de8	-0.15276301
245	0x3bafae6e	0.00536137
246	0xbe2b9c75	-0.16758902
247	0xbe9baa0b	-0.3040317
248	0xbe556a42	-0.20841315
249	0xbf03d702	-0.5149995
250	0x3d7bb0d0	0.06144792
251	0x3e0eeb04	0.13956839
252	0x3ddf1ec0	0.10894537
253	0x3dfc5579	0.1232099
254	0xbf11d19e	-0.56960475
255	0x3e9c126d	0.30482808

bias f4 [200]
0	0xbdd07942	-0.10179378
1	0x3e7cb2c2	0.24677566
2	0x3da2e837	0.07954448
3	0xbd6da913	-0.05802257
4	0xbe859fae	-0.26098388
5	0x3c9a82eb	0.018861255
6	0x3e3d04b7	0.1845883
7	0x3debc326	0.11511831
8	0xbd5abaaf	-0.05340069
9	0xbda632b5	-0.0811514
10	0x3de05328	0.10953361
11	0x3e8d281d	0.27569667
12	0xbe236d1e	-0.15959594
13	0xbe378d65	-0.17925031
14	0x3e04816e	0.12939999
15	0x3d2f1dc6	0.042753004
16	0xbd01302a	-0.031540073
17	0xbe694072	-0.2277849
18	0x3e71c50f	0.23610328
19	0xbe65ae5e	-0.22429797
20	0xbbe5806b	-0.007003834
21	0xbec7547c	-0.38931644
22	0xbd348c92	-0.04407937
23	0x3cc1937d	0.023629898
24	0xbd49af89	-0.04923967
25	0x399aceca	0.0002952724
26	0xbe6ccd8b	-0.23125283
27	0xbe384a30	-0.1799705
28	0xbe5b4fe1	-0.2141719
29	0xbe250645	-0.16115673
30	0x3da4df61	0.08050419
31	0x3df9a579	0.121897645
32	0xbe3200c6	-0.17383108
33	0xbdca378d	-0.09873877
34	0xbc146284	-0.009056691
35	0xbdeb2deb	-0.114833675
36	0xbe0f2034	-0.13977128
37	0x3c623776	0.013807168
38	0xbdab0332	-0.08350219
39	0xbe117098	-0.14203107
40	0x3d17e35f	0.037082072
41	0x3d896094	0.06707874
42	0xbe4b2c35	-0.19841082
43	0xbe1d4c2d	-0.1536109
44	0xbe928b46	-0.28621882
45	0xbd3a6d51	-0.04551441
46	0xbc754963	-0.01497111
47	0xbe8f3df3	-0.2797695
48	0xbe1dfcc7	-0.15428458
49	0x3e790d8d	0.24321575
50	0x3d4bfc74	0.049801305
51	0xbdde572a	-0.10856469
52	0xbd959a00	-0.07304764
53	0x3e1a271e	0.15053985
54	0xbe986766	-0.29766387
55	0xbe150671	-0.14553238
56	0xbe6c322b	-0.23066013
57	0x3e834cd0	0.2564454
58	0x3e0e15c5	0.13875492
59	0xbe973559	-0.2953289
60	0xbac0e390	-0.0014716256
61	0xbe0a9496	-0.13533244
62	0xbe29a7af	-0.16567872
63	0xbde87de0	-0.11352134
64	0xbe24fc5f	-0.16111897
65	0xbb88fc67	-0.0041804793
66	0xbe7a090c	-0.24417514
67	0x3d9153e4	0.07096079
68	0x3db7eb3f	0.089804165
69	0xbe61d2f6	-0.22053131
70	0xbe69b943	-0.22824578
71	0xbcdb7e4a	-0.026793618
72	0xbe86b003	-0.2630616
73	0xbe5f37da	-0.2179865
74	0x3c1d9d18	0.009619974
75	0x3d5767ff	0.052589413
76	0xbea4ae3f	-0.3216419
77	0xbe149ab5	-0.14512141
78	0x3dd5cbf3	0.10439291
79	0xbd6110d6	-0.054947697
80	0x3e1e7d79	0.15477552
81	0x3e0519d8	0.1299814
82	0xbe33b3ff	-0.17549132
83	0xbd0619ba	-0.03273938
84	0x3dd948d5	0.10609595
85	0xbe1e6a34	-0.15470201
86	0x3e22be07	0.15892802
87	0xbe67f4c1	-0.2265196
88	0xbd74b439	-0.059742186
89	0xbdf3605c	-0.118836135
90	0x3e4396a9	0.19100441
91	0xbded0a7b	-0.115742646
92	0x3dc5e73b	0.09663244
93	0x3bb475cc	0.0055072065
94	0xbe1e760e	-0.15474722
95	0x3e351bcc	0.17686385
96	0xbd17078a	-0.036872424
97	0x3de835bf	0.11338376
98	0xbe33f489	-0.17573752
99	0x3d564c7a	0.052319027
100	0x3eba2aa9	0.36360672
101	0x3e8ab01e	0.27087492
102	0x3e34baf7	0.17649446
103	0x3cc429f7	0.023945792
104	0x3d5d6b4b	0.0540574
105	0xbe9fd026	-0.31213492
106	0xbe0641c9	-0.13111033
107	0x3b8434f4	0.004034633
108	0x3d3f92d5	0.04677089
109	0xbe213731	-0.1574371
110	0xbdde1c25	-0.10845212
111	0x3a821d2d	0.0009926908
112	0xbd854bb3	-0.06508579
113	0xbd85de0e	-0.06536494
114	0xbe92aec8	-0.28648973
115	0x3e1c7969	0.1528069
116	0x3e5f9849	0.21835436
117	0xbd4345c8	-0.04767397
118	0xbe676bd1	-0.22599722
119	0x3d7af791	0.061271254
120	0xbe35f5de	-0.17769572
121	0x3daf3644	0.08555272
122	0xbd1997d9	-0.03749833
123	0x3e5e1bf5	0.21690352
124	0xbe7b9a9c	-0.24570698
125	0xbcaf329a	-0.021386433
126	0xbc6f0ad7	-0.014589987
127	0x3daf26e0	0.08552337
128	0xbe34174b	-0.1758701
129	0x3e175d7a	0.14781752
130	0xbe709e7b	-0.23497956
131	0x3da188a1	0.07887388
132	0xbdfd0368	-0.12354165
133	0xbeabe6af	-0.33574435
134	0xbd54dd84	-0.051969066
135	0x3e290185	0.16504486
136	0x3e2ab504	0.16670614
137	0xbe50aeeb	-0.20379226
138	0xbd853f28	-0.06506187
139	0xbd15b454	-0.036548927
140	0x3e2a6d86	0.16643342
141	0x3e89092f	0.2676482
142	0xbe4e2385	-0.20130737
143	0x3de223b9	0.1104197
144	0x3d31aeb5	0.043379504
145	0xbda3683a	-0.07978864
146	0x3d97564d	0.073895074
147	0xbd5ac100	-0.053406715
148	0x3d89e214	0.06732574
149	0xbcf56fda	-0.029960562
150	0xbe077b27	-0.13230573
151	0xbe8b88d2	-0.27252823
152	0xbe7bbc52	-0.24583557
153	0x3da6f1b8	0.08151573
154	0x3dd67ea5	0.10473374
155	0xbdd29771	-0.102827914
156	0xbe6f0a33	-0.23343734
157	0x3e433398	0.1906265
158	0x3e52356c	0.20528191
159	0xbd4ca6f9	-0.049963925
160	0xbbe2334c	-0.0069030877
161	0x3d1bf19a	0.038072206
162	0x3d8ebd18	0.069696605
163	0xbe6c2659	-0.23061503
164	0xbdfc26a6	-0.12312059
165	0xbe74d626	-0.23909816
166	0xbeacac42	-0.33725172
167	0x3ddff2e7	0.10935002
168	0xbddd14de	-0.10794996
169	0x3bd976ec	0.006636491
170	0x3d33084d	0.043709088
171	0xbd469d63	-0.04848994
172	0xbe034428	-0.12818968
173	0x3e0488fc	0.1294288
174	0xbe78169c	-0.24227375
175	0x3e27bdd6	0.1638101
176	0x3dd30237	0.10303157
177	0x3e036f4e	0.12835428
178	0x3bb6df38	0.005580809
179	0xbe0a9e98	-0.13537061
180	0xbcd6e033	-0.026229953
181	0x3d86db41	0.06584788
182	0xbe0a4f53	-0.13506822
183	0xbceaace7	-0.0286469
184	0x3e44d508	0.1922189
185	0x3d05f9ec	0.032709047
186	0xbcbb042a	-0.022829134
187	0xbe75b487	-0.23994647
188	0xbd4dc501	-0.050236706
189	0x3e848543	0.2588292
190	0xbe00366e	-0.12520763
191	0x3db7cc39	0.08974499
192	0xbebfbff0	-0.37451124
193	0x3e4289ac	0.1899783
194	0x3e8d49ef	0.2759547
195	0xbe58527c	-0.21125215
196	0x3d8885d9	0.066661544
197	0x3e75087e	0.23929021
198	0xbded8e8c	-0.11599454
199	0x3d788d3b	0.060681563

weight f4 [200, 200]
0	0xbd2ed2bc	-0.04268144
1	0xba92b7ce	-0.0011193694
2	0x3ecb52fb	0.39711747
3	0x3c785773	0.015157568
4	0x3c97e9f1	0.01854417
5	0x3ea68b96	0.3252837
6	0x3ed7e606	0.4216768
7	0xbd71855c	-0.058965072
8	0xbe1d067f	-0.1533451
9	0xbda3134f	-0.07962667
10	0xbcad6279	-0.02116512
11	0xbd550cec	-0.052014276
12	0xbe06476d	-0.13113184
13	0x3cd83a79	0.02639507
14	0x3d862118	0.06549281
15	0xbe943f52	-0.2895456
16	0xbe8623fe	-0.26199335
17	0x3e4850e9	0.19562115
18	0x3e8196a5	0.25310245
19	0xbea3fcd3	-0.32028827
20	0x3d64c512	0.055852003
21	0xbe85289b	-0.26007542
22	0xbd54c5a8	-0.051946312
23	0x3ea6c246	0.32570094
24	0xbe89b26d	-0.2689394
25	0xbd5fa0e2	-0.05459679
26	0xbd093ecc	-0.033507153
27	0xbc4de884	-0.012567643
28	0x3c15bafd	0.00913882
29	0xbe76513b	-0.24054424
30	0xbdc1ace9	-0.09456808
31	0x3d98dd30	0.07464063
32	0xbe4dfc78	-0.2011584
33	0xbd8ac35c	-0.06775543
34	0xbddc023f	-0.10742616
35	0x3d332d9d	0.043744672
36	0xbcb0ab77	-0.021566136
37	0xbe100ceb	-0.14067428
38	0xbe30b75a	-0.17257443
39	0xbd61eb54	-0.055156067
40	0x3d2715c2	0.040792234
41	0xbddff605	-0.109355964
42	0xbe2a6bbe	-0.16642663
43	0xbd627c14	-0.05529411
44	0x3c5f24aa	0.013619581
45	0xbe362aac	-0.17789716
46	0xbdb0a146	-0.086245105
47	0xbec291d0	-0.3800187
48	0xbed145e7	-0.40873644
49	0x3d157c0d	0.036495257
50	0xbdd5fbf9	-0.104484506
51	0xbe39d795	-0.18148644
52	0xbdfb8094	-0.12280384
53	0xbea61b84	-0.32442868
54	0x3e16d796	0.14730677
55	0xbebbc0c8	-0.36670518
56	0xbeb57270	-0.3543887
57	0x3db948ea	0.090471104
58	0xbe4ba4a7	-0.19887029
59	0xbeac685e	-0.33673376
60	0x3e4eea76	0.20206627
61	0xbde526f3	-0.111890696
62	0x3d2c013e	0.041993372
63	0xbe815ff5	-0.25268522
64	0x3cfba2dd	0.030717308
65	0xbe2d8a1a	-0.16947213
66	0x3cc78118	0.024353549
67	0x3e1bd7bd	0.15219016
68	0x3e438018	0.19091833
69	0xbd532acc	-0.051554486
70	0x3d0e2af4	0.034708932
71	0x3d8904fc	0.06690404
72	0xbe7ca75c	-0.24673218
73	0x3cd86c2c	0.026418768
74	0xbc80730b	-0.015679857
75	0xbed0cfaf	-0.4078345
76	0x3d570e5a	0.05250392
77	0xbe31a370	-0.17347503
78	0xbdc80097	-0.097657375
79	0xbd6f271b	-0.058386903
80	0x3e57f4d1	0.21089484
81	0xbd9c3fa6	-0.076293275
82	0x3d5944ff	0.053044315
83	0xbe604b33	-0.21903686
84	0xbd0e56ce	-0.034750752
85	0xbd145836	-0.036216937
86	0xbe14404c	-0.14477652
87	0xbe3ace8e	-0.18242857
88	0xbdf57147	-0.119844966
89	0xbcf361ec	-0.029709779
90	0xbd6eb4da	-0.058277942
91	0x3d0b5e8c	0.034025714
92	0xbeb8fcbf	-0.3613033
93	0xbe436dad	-0.19084807
94	0x3bbfc62f	0.0058524827
95	0xbe8406ed	-0.25786534
96	0x3d813d94	0.06310573
97	0xbe96902e	-0.29406875
98	0x3e4fb78a	0.20284858
99	0xbde6bdfb	-0.11266705
100	0xbc5a0b36	-0.013308337
101	0xbe131a3e	-0.1436548
102	0xbe10647e	-0.14100835
103	0xbe292dd0	-0.16521382
104	0xbe815bc9	-0.2526534
105	0x3d211207	0.039323833
106	0x3dc8cf07	0.09805112
107	0xbca2ab66	-0.01985712
108	0xbda8e175	-0.082461275
109	0x3e024be4	0.12724262
110	0x3c4bdfd8	0.012443505
111	0x3f07eaf4	0.53092885
112	0xbe2deb17	-0.16984211
113	0xbe8a41b8	-0.27003264
114	0xbee87085	-0.45398346
115	0x3e3b6236	0.18299183
116	0xbea976cb	-0.33098444
117	0x3cdab511	0.026697667
118	0xbd2da9ff	-0.04239845
119	0xbd05d4b7	-0.032673564
120	0xbd9bbe3b	-0.07604643
121	0xbdd32a72	-0.1031083
122	0xbe87f602	-0.26554877
123	0x3d33f2b6	0.04393264
124	0x3cd9f6e1	0.026606979
125	0xbdc7d17f	-0.09756755
126	0xbe266d1f	-0.16252564
127	0xbdcdf3e1	-0.10056282
128	0x3e7ef00e	0.24896261
129	0x3d57635a	0.052584983
130	0xbf057865	-0.5213683
131	0xbdc29990	-0.09501946
132	0x3dd917a7	0.106002145
133	0x3b485021	0.0030565339
134	0xbe1b9c5e	-0.15196368
135	0x3d1a998b	0.037744086
136	0xbe00bc03	-0.12571721
137	0xbe2e6b45	-0.17033108
138	0x3d81aae6	0.063314244
139	0xbe7c1971	-0.2461908
140	0x3daa160a	0.08304985
141	0x3e197aac	0.14988202
142	0xbe09243d	-0.1339273
143	0xbe70706b	-0.23480384
144	0xbd9c5d56	-0.0763499
145	0x3ccb1bd3	0.024793541
146	0x3d83da54	0.06438127
147	0x3dbf05ff	0.093273155
148	0x3d72afcc	0.059249684
149	0xbe3b85ec	-0.18312806
150	0x3c1978a6	0.009367144
151	0xbdb4920a	-0.08816917
152	0xbd83dea6	-0.06438951
153	0x3dcc4eda	0.09975977
154	0x3c994e3f	0.018714068
155	0xbde0baeb	-0.10973152
156	0x3c6a8b6a	0.014315465
157	0x3e3415ea	0.17586485
158	0xbd00bc26	-0.031429432
159	0x3cc91420	0.02454573
160	0xbd5d08c1	-0.053963427
161	0xbde5488a	-0.11195476
162	0xbe1ef7be	-0.15524194
163	0x3bb79499	0.005602431
164	0xbe88efaf	-0.26745364
165	0xbd0f9c21	-0.035061006
166	0xbe8c0af2	-0.273521
167	0xbee56305	-0.44802108
168	0x3e5b8bf6	0.2144011
169	0x3de79342	0.11307384
170	0xbcc7bc6e	-0.024381842
171	0x3e6ecbc6	0.23319921
172	0xbdd0f4a2	-0.1020291
173	0x3d4a4431	0.04938144
174	0xbd4b6081	-0.04965258
175	0x3e43d9f1	0.19126107
176	0x3e093b27	0.13401471
177	0xbe97bc2e	-0.29635757
178	0x3e800d16	0.25009984
179	0xbe47fee1	-0.19530822
180	0xbdacac05	-0.084312476
181	0xbea90f57	-0.33019516
182	0xbf0bffbf	-0.5468711
183	0x3d041815	0.03224953
184	0x3decc5e6	0.11561184
185	0x3f00a424	0.5025046
186	0xbdc889e4	-0.097919255
187	0x3dc10afd	0.09425924
188	0xbdd15582	-0.102213874
189	0x3e9091ef	0.28236338
190	0xbd4129c5	-0.047158975
191	0xbe98d948	-0.29853272
192	0xbdb47d20	-0.08812928
193	0xbd19316f	-0.03740066
194	0xbe9e0d01	-0.30869296
195	0x3b9bb23d	0.0047514723
196	0xbe24ab63	-0.16081004
197	0xbd2b855c	-0.04187523
198	0xbdab6d13	-0.08370414
199	0xbea58d37	-0.323343
200	0xbc9181bc	-0.017762057
201	0xbe064065	-0.13110502
202	0xbcbcf779	-0.023067223
203	0x3d4d0562	0.05005396
204	0xbcf393ae	-0.029733505
205	0xbd7742e4	-0.060366526
206	0xbdaec459	-0.08533544
207	0xbe81cee5	-0.2535316
208	0xbee3e76a	-0.44512492
209	0xbe558254	-0.20850497
210	0xbe207fd5	-0.15673764
211	0xbef9f5e2	-0.48820406
212	0x3e7dcc20	0.24784899
213	0xbc39c099	-0.011337423
214	0x3d349b97	0.044093695
215	0x3ec04ab4	0.37556994
216	0xbe1cbbea	-0.15306059
217	0xbd377548	-0.044789582
218	0x3d52b641	0.051443342
219	0xbe210c4f	-0.15727352
220	0xbe7ac5ac	-0.24489468
221	0xbca0dae0	-0.019635618
222	0xbd782f1f	-0.060591813
223	0x3ec017ce	0.37518162
224	0xbcdb58c9	-0.026775734
225	0xbec5b972	-0.38618046
226	0xbbc23cd0	-0.0059276596
227	0x3cb99705	0.02265502
228	0xbd7c0dd7	-0.061536636
229	0x3e5ef413	0.21772794
230	0x3d1fadc5	0.03898408
231	0x3e176498	0.14784467
232	0x3e7fbecb	0.24975125
233	0x3d262e9f	0.040571805
234	0x3ca2ffc3	0.019897347
235	0x3bdfdd0a	0.00683177
236	0xbdfe0606	-0.12403493
237	0xbe8c556d	-0.27408925
238	0xbf892338	-1.0713873
239	0x3efebb94	0.49752486
240	0xbe145a8e	-0.14487669
241	0x3e876626	0.2644512
242	0xbf36d824	-0.71423554
243	0x3dc38e36	0.09548609
244	0xbd18fbb6	-0.037349425
245	0xbd5e20aa	-0.05423037
246	0xbe6ca80b	-0.23110978
247	0x3efd491e	0.49469846
248	0xbef6b8e3	-0.48187932
249	0x3da7b2b9	0.081883855
250	0xbd3bb4bb	-0.045826655
251	0xbe3de80a	-0.18545547
252	0xbda2a45f	-0.079415075
253	0xbe09582c	-0.13412541
254	0xbe777038	-0.24163902
255	0x3d69e9fc	0.05710791
