Vehicles/GenDisV_0_01_0/GenDisV_0_01_0_actor_target.pth (torch, 176449 bytes, 6 tensors)

weight f4 [200, 13]
000000 3d 34 3d bf 2f 09 8b be a5 8b fd 3d 38 b4 88 be
       -0.73907834 -0.27155444 0.12380151 -0.26699996
000010 cf 97 eb bd cb 72 57 bd 49 e6 a1 3e f9 bd ce 3e
       -0.115035646 -0.05259971 0.31621006 0.40379313
000020 ae d4 31 3e 06 e9 52 3d 5d 42 7e be 68 f1 ac 3c
       0.17366287 0.05149176 -0.24830003 0.021111205
000030 b8 05 d5 3d a0 c7 d9 bc 76 03 fb be e2 14 8a be
       0.104014814 -0.026584446 -0.49026078 -0.26969057
000040 f0 73 c6 be d7 70 be bd 4c 88 db bd 92 24 58 3e
       -0.38760328 -0.09298866 -0.10719356 0.211077
000050 b9 8c 8f 3e 67 be 9e 3e 40 7d 6a 3e 48 3f a5 3c
       0.2803705 0.3100464 0.22899342 0.020171776
000060 ec 46 86 be 71 03 85 be 4d 53 1c bd 4f 10 c8 be
       -0.26225984 -0.25979188 -0.03816538 -0.39074942
000070 a1 1f 0e be 62 98 bf 3e 5f af e7 3e 73 d7 90 3e
       -0.13879253 0.37420946 0.45250985 0.28289375
000080 d7 41 23 bd 24 27 03 be 3f 39 9d bc e6 2b 82 3d
       -0.03985771 -0.128079 -0.019192336 0.06356029
000090 25 40 80 bd 44 fb 8a bd 9f 9d d9 bd 99 a3 0a bf
       -0.062622346 -0.06786206 -0.10625767 -0.5415588
0000a0 7a 17 2d 3f 05 da 7e be 78 da 92 be 32 94 45 3e
       0.6761395 -0.24887855 -0.28682303 0.19294813
0000b0 33 1f 19 be 67 7c 9a 3e 73 99 37 3e 77 7f fb 3d
       -0.14953308 0.30173036 0.1792963 0.12280171
0000c0 28 73 18 3c 2c 21 6c 3e 58 83 36 3e 52 bb 13 be
       0.009304799 0.23059529 0.17823541 -0.14426926
0000d0 bf 9e 5a bf 1d 8b a3 3d 5c 1c 7a be a9 dd ed be
       -0.8539848 0.07985518 -0.2442488 -0.46458176
0000e0 43 27 f5 3c a7 9a 70 3e 04 c0 49 3e 83 15 05 be
       0.029925948 0.23496495 0.19702154 -0.12996487
0000f0 5f 02 f6 bc 9b 2e 5f be ef 89 3b be 81 43 86 3d
       -0.030030428 -0.21795122 -0.18314336 0.06555844
000100 6f 0e 81 be 53 cb ba bd 12 2e 10 3f 21 68 a6 be
       -0.25206324 -0.09120812 0.563203 -0.3250132
000110 3a f6 8e be 25 91 09 bf d5 d1 0d bd 95 1d a8 3b
       -0.2792223 -0.537371 -0.03462394 0.0051304796
000120 44 b7 b8 bc 74 fd 54 3e ff 7c dc 3c 0d 0a 24 3d
       -0.022548325 0.2079981 0.026915072 0.040048648
000130 ef bd ed 3d df 1c 91 3b 70 fc 28 3f 71 46 95 be
       0.116084926 0.0044284905 0.6601019 -0.29155305
000140 30 8e 75 be ab d8 8f 3c 93 8f 22 be 01 60 7f bd
       -0.23980021 0.01755937 -0.15875082 -0.062347416
000150 d5 40 ba bd 00 15 42 be 30 09 09 be e2 40 8c be
       -0.09094397 -0.18953323 -0.13382411 -0.27393252
000160 62 17 a6 3d 63 c4 4a 3e b1 09 87 3c eb 6a f9 3e
       0.08109929 0.19801478 0.016484113 0.48714384
000170 4c 5f 9c bd 2d b6 e2 bd f6 4a ba 3c 06 85 dd 3b
       -0.07635364 -0.110699035 0.022740822 0.0067602424
000180 93 49 b0 3d 89 f3 3f 3e 6d 63 a5 3d 35 8a 5f bf
       0.08607783 0.18745245 0.080756046 -0.8732026
000190 bb 2a df be b4 23 3f bf 45 95 6f 3e eb ac 78 be
       -0.43587288 -0.74663854 0.23396786 -0.24284713
0001a0 a5 d6 37 3e 95 2e ef 3b 12 6b f6 3d f1 76 0f bd
       0.17952974 0.007299254 0.12032141 -0.03502554
0001b0 e9 fa dc bd 14 14 29 3e 3e cf 7a be ef bd 77 be
       -0.10790045 0.16511565 -0.24493119 -0.24193548
0001c0 c1 ea 6f be 0f b5 6e 3e 27 c9 8a be cc d0 e6 bd
       -0.23429395 0.23311256 -0.27106592 -0.112702936
0001d0 37 06 83 be 4c 60 9c bf 1b 49 63 be c8 c4 03 3e
       -0.2559068 -1.2216887 -0.22195856 0.12868035
0001e0 a2 13 e0 bd 80 d0 6b be fd 68 80 be c2 46 2b bd
       -0.10941245 -0.23028755 -0.250801 -0.041815527
0001f0 eb 17 14 be 99 8a 96 3e 7b 4f d5 3d 4f e9 8e 3e
       -0.14462249 0.29402617 0.1041555 0.27912375
000200 40 83 74 3e 19 ea 74 bc 21 0e 3e 3e 20 58 8c 39
       0.23878193 -0.014948391 0.18560077 0.0002676854
000210 73 e0 fb 3e 45 12 d2 bd 0e 35 42 3d dd f7 32 bd
       0.4919468 -0.10257391 0.04741388 -0.043693412
000220 79 4f 90 3c 1a ad 54 bb e9 ff cf 3d c0 15 ff 3d
       0.01761602 -0.003245181 0.10156233 0.1245532
000230 17 73 49 be 0e af e7 bd 27 c4 7f bd fa 59 3b 3e
       -0.1967281 -0.11312686 -0.062442925 0.18296042
000240 42 ba e7 bd c6 d3 a4 3e 8d ac d5 3e c0 9c a5 3a
       -0.11314823 0.3219282 0.41733208 0.0012635216
000250 09 46 9d bd cd 25 e0 3e 83 99 5c be 3c a4 14 bf
       -0.07679374 0.4377884 -0.21542935 -0.580631
000260 c9 28 7a 3e cd 51 d6 be 75 ca 8a be 5d 1b 00 be
       0.24429621 -0.41859284 -0.27107587 -0.12510438
000270 08 2c e0 3e 8c 03 ba be 8c 36 8d 3c 4b ee ea 3d
       0.43783593 -0.3633083 0.017237924 0.11471232
000280 c8 85 b1 bb 37 1a bb be 09 8a f8 be 1a 6b b8 be
       -0.0054175593 -0.36543438 -0.48542812 -0.36019212
000290 17 c4 3d 3e 59 cb ba bd c9 8a e5 3d 7a 73 c4 be
       0.18531834 -0.09120817 0.11208112 -0.38369352
0002a0 69 c1 26 be 10 6e 10 bf 11 df 1e 3f 6a 6e fd 3d
       -0.16284718 -0.5641794 0.6205912 0.123745754
0002b0 e4 6a 49 be a1 76 b1 bc be 29 81 3e 2f b0 54 be
       -0.19669682 -0.021663012 0.2522716 -0.20770334
0002c0 5f e8 07 be 52 c6 91 be 43 7e 3a 3e e0 35 9d 3e
       -0.13272236 -0.2847162 0.18212228 0.30705166
0002d0 d9 fe b4 bd 1d d7 af bc 20 93 a6 3e 02 a8 0e 3e
       -0.08837671 -0.021464879 0.32534122 0.13931277
0002e0 ef 96 da bd aa b7 85 3e 62 5c 29 3d da f8 95 3d
       -0.106733195 0.26116687 0.04134787 0.07322855
0002f0 47 20 23 3e 7a 13 4b 3d 22 1c 06 bf 63 c7 1d bf
       0.15930282 0.04957912 -0.5238668 -0.61632365
000300 77 55 b3 be bd 15 09 bf 4e 2a 02 be bc 7a 9c 3e
       -0.35026142 -0.53548795 -0.1271145 0.3056239
000310 5c 28 43 be 59 76 9e bd ee a3 09 3e b0 11 60 3e
       -0.19058365 -0.07737417 0.1344144 0.21881747
000320 0c 46 cb be 5f b1 cd be 77 6b 83 be f3 34 b8 3e
       -0.3970188 -0.40174386 -0.25667927 0.35977897
000330 9d 29 83 3e 61 1d e6 3d 43 bd 32 be d0 37 03 bd
       0.25617686 0.11236072 -0.1745501 -0.03203565
000340 78 32 ae 3e 16 f8 6d 3d 1b cf ae 3e 30 77 1c 3d
       0.3402288 0.05809792 0.34142384 0.038199604
000350 54 00 c5 3d 5d 9d 7a be 4d 32 e3 bd 4c b7 3e be
       0.09619203 -0.24474092 -0.110935785 -0.1862461
000360 79 54 ca 3e 5b f3 c6 3d a5 03 1c bd e2 ec ac be
       0.39517573 0.09714385 -0.038089413 -0.33774477
000370 8a dd 45 be dd 13 15 3f 3d 44 a4 be 2b 66 67 be
       -0.19322792 0.58233434 -0.32083312 -0.22597568
000380 e3 59 9b 3e 70 ff 67 be e7 a8 2a be de 45 62 3e
       0.30342016 -0.22656035 -0.16665994 0.22096965
000390 52 20 2c 3e 91 67 d6 be 34 dc 00 3e 3a d2 07 3e
       0.16809204 -0.4187589 0.12584001 0.13263789
0003a0 bd 49 53 be e9 b1 04 bf 04 8a 0e 3d 80 5a ce 3e
       -0.20633598 -0.5183397 0.03479959 0.4030342
0003b0 fc 76 08 bf fd 4e d3 bc 27 c0 8f bc 20 68 03 3e
       -0.53306556 -0.0257945 -0.01754768 0.1283269
0003c0 b4 ed 7f 3e ca b4 9d be e3 47 f0 3d 8f 05 a0 3e
       0.2499302 -0.30801994 0.11732461 0.3125424
0003d0 8a 36 07 be 58 1a 56 bc 44 92 c1 3c a6 0f 8c be
       -0.13204399 -0.013067804 0.023629315 -0.2735569
0003e0 6f fb b8 bd 6a 0f 1c bd 82 d7 d4 bd a6 c8 47 be
       -0.09032332 -0.038100637 -0.10392667 -0.19510135
0003f0 89 73 02 be 1d f3 23 bc d7 8c ed bd 07 bb 01 3e
       -0.12739386 -0.010006693 -0.11599129 0.12669002

bias f4 [200]
000000 fe cd 82 bd e3 53 01 3d d5 98 90 be a6 5f 05 be
       -0.06386946 0.03157414 -0.28241602 -0.13024768
000010 17 4d 02 be 5d 60 11 3e 1d 36 06 be 20 29 c3 3d
       -0.1272472 0.14196916 -0.1310658 0.09529328
000020 49 a6 81 be 91 42 05 be 6a d2 82 bc 97 42 37 3d
       -0.25322178 -0.13013674 -0.015969474 0.04474124
000030 b1 47 d2 3d 0e ba 80 bd d3 08 64 3e 4f 1c a0 be
       0.1026758 -0.06285487 0.22268991 -0.31271598
000040 84 2c 09 3d 50 0e 03 bd 45 57 5f be d2 18 a0 bd
       0.03348972 -0.03199607 -0.21810634 -0.07817234
000050 94 a1 28 be e5 e6 b1 3d a4 db 2e 3e 78 2f bc be
       -0.16467887 0.08686618 0.17075974 -0.36754966
000060 76 6d 18 3e 2d 9e 83 be 45 4f 4b be e8 62 19 3e
       0.14885506 -0.25706616 -0.19854458 0.14979136
000070 2e 08 9d be c4 c8 3c be b9 88 af bd cd cf 1f bd
       -0.30670303 -0.18435961 -0.08571 -0.039016534
000080 5e 2f c2 bd 80 e4 87 3d 09 66 ae 3d c5 3e b7 be
       -0.09481691 0.0663538 0.085155554 -0.35790077
000090 6a 3b 29 bc 3d 86 36 be d2 9c 9e 3d da 14 8b bd
       -0.010329107 -0.17824645 0.07744755 -0.067910865
0000a0 13 b9 1c 3e ab b1 ed bd 2d 13 52 be b7 98 c8 3c
       0.15304975 -0.11606153 -0.20515127 0.024486883
0000b0 45 b8 1a 3d 51 79 5f bd 89 7e 82 be 81 0c 4c 3e
       0.03777339 -0.054559056 -0.25487164 0.19926645
0000c0 02 8b 06 be 13 b3 94 be 71 f6 a4 be 5b 72 8b bd
       -0.13138965 -0.29042873 -0.3221927 -0.06808921
0000d0 fa 35 03 bd 6f 93 47 bd 1c 71 33 3e d6 b9 1b be
       -0.032033898 -0.048724588 0.17523617 -0.1520761
0000e0 c2 35 35 3e 4f a1 e9 bb be 6a 10 be 01 4d 1f 3e
       0.17696288 -0.007129825 -0.14103219 0.15556718
0000f0 fb 6f 18 bd 72 8c f2 3d ae 63 58 3e ae 97 c0 3d
       -0.037216168 0.11843194 0.21131775 0.094039306
000100 5b cb 2c be de 74 19 be 91 10 a8 3d b1 b9 20 3e
       -0.16874449 -0.14985988 0.08206285 0.15695836
000110 53 a8 ea bd 2c 72 b7 3e ed f7 8c be 0f 65 cd 3e
       -0.114578865 0.35829294 -0.27532902 0.40116164
000120 7a 2d d6 bc 37 3e 3c bd fe c0 4f be 2f 90 6c 3d
       -0.026144732 -0.04595777 -0.20288464 0.05775469
000130 da 73 09 3e a0 3a 9a bd 24 6e bc 3e c8 94 eb 3b
       0.134231 -0.07530713 0.3680278 0.007189367
000140 8a d1 28 3e 32 2e 8a 3e 74 e0 23 be 25 76 9c bd
       0.16486183 0.2698837 -0.16003591 -0.07639722
000150 66 4b 04 3f fc 2a 58 3d f5 84 29 be 40 22 fc 3d
       0.5167755 0.052775368 -0.16554625 0.1231122
000160 c4 58 52 3e 14 f7 94 bd d3 6d 81 3e 08 fc 3c be
       0.20541674 -0.07273689 0.25279102 -0.18455517
000170 7b cd 9f be bc 28 01 3e db e5 6e bd 36 63 27 be
       -0.31211457 0.12613195 -0.058324676 -0.1634644
000180 a7 cb a6 be be 54 7f be 32 9c 13 3e 26 5f ee bd
       -0.3257725 -0.2493467 0.14415053 -0.11639242
000190 19 d7 95 be d0 dd 88 3b d6 4d d9 3d 4d 3e a2 be
       -0.2926567 0.0041768327 0.10610549 -0.31688157
0001a0 73 e3 e9 bd bb 1b 11 3e ef a2 8e 3b a1 dc 5b bd
       -0.114203356 0.14170735 0.0043529193 -0.053677205
0001b0 49 9f 24 3e 7c 7b b3 be ff 09 7d 3e 0f 4e 8d be
       0.16076387 -0.3505515 0.24710844 -0.27598616
0001c0 df 44 1e 3e 54 03 0f be 38 ce d0 bd b7 d1 e2 3d
       0.1545596 -0.13966113 -0.10195583 0.11075156
0001d0 6e 4c 70 3e 4e 44 cc bd 8c 6d 7c be 76 c5 bc 3d
       0.23466656 -0.099739656 -0.24651164 0.0921735
0001e0 56 aa 7a 3e 18 54 41 be 41 a3 4d 3e 73 0d 61 be
       0.2447904 -0.18879735 0.20081808 -0.21977787
0001f0 40 78 88 3e 1d 1b af be 50 52 1a be d8 60 19 be
       0.26654243 -0.34200373 -0.15070462 -0.14978349
000200 5e d2 04 3e 62 27 7d be e3 e5 d8 bd 7d 3b 73 3c
       0.12970874 -0.24722055 -0.105907224 0.014845726
000210 12 6a 1c 3d 42 8c 54 bd 2d d5 db 3c e1 74 5f bd
       0.038187094 -0.051891573 0.026835049 -0.054554824
000220 81 76 3c be 4e 31 1e be 51 98 84 3e 2f 05 13 be
       -0.1840458 -0.15448496 0.25897458 -0.14357446
000230 42 a6 90 3e 34 8f 68 3e a5 a5 c6 bd 22 16 5a be
       0.28251845 0.22710878 -0.09699563 -0.21297505
000240 b6 68 01 3e b2 80 55 be 40 50 25 be 51 2d e9 3d
       0.126376 -0.20849875 -0.16143894 0.113855965
000250 f3 3f c6 bd 3d 6d 82 be df 68 2e be 2a 04 26 3e
       -0.09680166 -0.25473967 -0.17032193 0.16212526
000260 16 4c c7 be d4 9b c8 bd de 08 84 3b 5a 96 25 3e
       -0.38925236 -0.09795347 0.0040293774 0.16170636
000270 7b e9 93 be d8 a6 3b 3e d0 25 fb bd a0 ee b5 3e
       -0.2888907 0.18325365 -0.122630715 0.3553362
000280 78 f5 c4 3d c6 ea a5 3d 74 7c 72 be 40 77 09 3d
       0.09617132 0.0810142 -0.23680288 0.03356099
000290 c2 15 1c 3d d7 e3 f1 3b fe 5b 05 be f5 dd 50 3e
       0.038106687 0.007381897 -0.13023373 0.2039717
0002a0 e7 a4 21 bc bf 05 9d be a0 ae 28 3e b6 50 cd bd
       -0.009865976 -0.30668446 0.16472864 -0.1002516
0002b0 bf 69 4f 3d 06 e0 7f 3d 7c 62 80 be 55 d8 98 bd
       0.050637957 0.062469505 -0.25075138 -0.07463137
0002c0 ce 9b 3b ba d8 81 38 3e 98 7b 79 3d ff 0d cd 3d
       -0.00071567006 0.18018281 0.060908884 0.10012435
0002d0 d8 55 30 be b5 64 8e 3e 57 9d 12 3e 67 aa 23 be
       -0.17220247 0.27811208 0.14317833 -0.15982972
0002e0 0b 94 69 be 69 97 ea bb f0 19 3a 3e 3c 9e 75 be
       -0.2281038 -0.007159163 0.18173957 -0.23986143
0002f0 30 fa 03 3a 84 7c 07 be 6b ad ca be 1d 2a b0 3d
       0.0005034534 -0.13231093 -0.39585432 0.086017825
000300 b1 37 a5 be 9a 2c 31 3e dc 2e 8d be e0 dd 94 3d
       -0.32269052 0.1730217 -0.27574813 0.07268882
000310 6b 9a db bd 1e 00 85 3e d9 a8 ca bd c7 1e 26 be
       -0.10722812 0.25976652 -0.098954864 -0.16222678

weight f4 [200, 200]
000000 bd e8 dc be 2d 43 64 3d 6f 0c af bd 67 d6 06 bd
       -0.43146315 0.055728126 -0.085472934 -0.032919314
000010 e1 1f 07 be 86 72 80 bc e6 b4 cc 3c a2 9e 85 3e
       -0.13195755 -0.015679609 0.024988603 0.2609759
000020 ff 17 26 bd 62 cc 8a be c6 cc c9 3d 95 30 ed 3c
       -0.04055023 -0.27109057 0.098535106 0.02895383
000030 da 09 0c bd 54 16 9f 3e fa 33 e9 bc 20 ea dd bc
       -0.034189083 0.31071723 -0.028467167 -0.027089179
000040 60 d1 ee 3d 80 c4 e6 3d 28 b9 e9 3b 3a 21 35 bd
       0.11661029 0.11267948 0.007132668 -0.04422114
000050 e2 84 a4 3d f4 7a 89 bd 34 38 1c be 7d 27 e3 3d
       0.08033158 -0.067129046 -0.15255815 0.11091516
000060 cf 8b c9 bd ac 17 76 3c c5 3d 85 be 58 31 30 3d
       -0.098411195 0.015020292 -0.2602369 0.043015808
000070 d2 9f ce bd 47 4a aa 3e de 31 a8 3c 7e 4e dd 3d
       -0.10089077 0.33259794 0.020531591 0.10805987
000080 97 40 9c 3e 7c 97 08 be ff c6 a7 bd 7f 94 0f 3e
       0.30518028 -0.13339037 -0.08192252 0.1402149
000090 1e 1e 33 be 42 83 9b be 31 27 1e be 5f 97 40 3d
       -0.17491958 -0.3037358 -0.15444638 0.04701936
0000a0 97 9a 41 3e 28 d6 b7 3d 73 5a da bd 13 36 ed bc
       0.18906628 0.08976394 -0.10661783 -0.028956449
0000b0 e4 15 35 be 74 8c 91 be 4b 4a 54 bd 15 7c 5d bd
       -0.17684132 -0.2842747 -0.051828664 -0.054073412
0000c0 6b 36 2a 3e 7a 91 97 3d 8d 38 6d bc 84 bb 28 be
       0.16622321 0.07400794 -0.014478815 -0.16477782
0000d0 56 7f 02 3e b4 13 5f bb 10 95 81 be cd e2 24 3b
       0.12743887 -0.0034038844 -0.25309038 0.0025159598
0000e0 1e 46 ba 3e b1 8d 00 bd c6 c2 28 be ea 38 61 3c
       0.3638162 -0.031385127 -0.1648055 0.0137464795
0000f0 72 89 9f be 03 a1 f1 bd 9c 9e ea bd 89 93 58 be
       -0.3115955 -0.11798289 -0.114560336 -0.2115003
000100 bf b6 88 3d eb ac 87 be 0c 7c 09 be 3d 7b f7 bd
       0.06675481 -0.26499113 -0.13426226 -0.12084053
000110 25 72 3f be ad 81 f7 bc a7 67 89 bd 9a e6 38 3e
       -0.18695886 -0.030213201 -0.06709223 0.18056718
000120 a7 bf 47 be 55 72 5e be dc 15 9f 3c 56 95 8a 3d
       -0.19506703 -0.21723302 0.019419603 0.06766765
000130 2f e9 43 3d df 5f b8 be 19 c1 ab bd 2f e6 c0 bd
       0.047829803 -0.36010644 -0.0838644 -0.09418904
000140 2f 1d 54 3d 10 b8 b7 3c d0 0c b5 be ef da 02 3d
       0.051785644 0.022426635 -0.35361338 0.031947073
000150 5e b6 12 bd b4 5a 34 bd 0d 6f 8d 3b c1 79 98 3d
       -0.03581845 -0.044031814 0.004316217 0.07445098
000160 4c 56 76 be c1 98 09 be 2f 24 5b be d3 5a 93 3b
       -0.24056357 -0.13437177 -0.21400522 0.004496911
000170 42 ca 5b be 38 2e c7 bb f7 ff 96 3d de 6f 0c be
       -0.21463874 -0.0060785078 0.0737304 -0.13714549
000180 d5 fa 28 bd e2 2c 7c be 00 b6 5f be 3d 86 1c 3d
       -0.041254837 -0.24626496 -0.21846771 0.038213957
000190 c6 6e 92 3c e4 0e 9b 3e cd 3b 06 be e1 a6 21 3c
       0.017875087 0.30284798 -0.1310875 0.009866447
0001a0 00 a2 61 bd 7a 2e df 3d f9 21 13 bd a5 f3 05 3d
       -0.055086136 0.108975366 -0.03592107 0.03270306
0001b0 d1 0f cb bd 6c 05 9c be 2f c4 90 bc fd ff 1c bc
       -0.09915126 -0.30472887 -0.017671673 -0.009582517
0001c0 a7 14 66 bb b2 00 09 be 72 8b 3c 3e 1b a0 70 be
       -0.0035107525 -0.13379171 0.18412569 -0.23498575
0001d0 5d 84 ed be d2 35 b9 3b 66 6b 03 bd 4d 81 eb 3d
       -0.46390048 0.005652168 -0.032084845 0.114992715
0001e0 b8 bf cd bc c7 bc 11 3d 9e 16 97 3c df 8c 28 bd
       -0.025115833 0.035580423 0.018443402 -0.04114997
0001f0 58 c3 b1 3d f4 07 bf 3e ad 97 58 3e f5 a2 51 3d
       0.08679837 0.37310755 0.2115161 0.0511808
000200 23 1c 8e bb 2b 18 7f bd 0a 10 6d 3e 2f 7f 23 be
       -0.0043368503 -0.062278908 0.2315065 -0.15966485
000210 f4 2d 4e 3e 2f 22 00 bc 64 67 16 bd 9e 77 b0 3d
       0.20134717 -0.00782065 -0.036719695 0.08616565
000220 ab 77 f4 bd 4a d3 d1 bc 18 6c b3 3d 29 33 ce bc
       -0.11936887 -0.025613446 0.087608516 -0.02517088
000230 4e b1 e2 3d b6 f3 6d 3e 01 30 37 be 56 b1 4a 3d
       0.110689744 0.232375 -0.17889406 0.049485527
000240 0a 8d 8d bd 44 7f b5 3c 6c 32 e6 bc df 08 b0 3d
       -0.06911667 0.022155412 -0.028100215 0.08595442
000250 34 2e 57 3c 4b 61 13 3d f0 71 5b 3d 53 41 8f be
       0.013133574 0.035981458 0.053575456 -0.27979526
000260 41 9f cc be 23 fc 6e 3d 72 80 48 3d cb e5 02 bf
       -0.3996525 0.058345925 0.04895062 -0.51131886
000270 9b 06 dc be 6c e7 f5 3d a9 d5 d4 3d 33 ed 75 bb
       -0.4297379 0.12007031 0.10392315 -0.0037525415
000280 3e 3f c4 bd 31 d1 33 3d 61 cd 62 be 56 ff 93 3d
       -0.09582375 0.043900672 -0.22148658 0.07226436
000290 9c ed 1e 3d ad c0 de 3c cd 58 5e be 41 8e df bd
       0.03880082 0.027191484 -0.21713562 -0.10915805
0002a0 f6 2c 16 3e f4 85 03 be bd dd f5 3a 7f e3 27 bd
       0.14665589 -0.12844068 0.00187581 -0.04098844
0002b0 b8 d5 ec bd 60 06 92 3d 0a 48 8d bd 0f 90 70 bc
       -0.11564201 0.07130122 -0.06898506 -0.014682784
0002c0 44 40 6f bd db 23 68 bd 9c d6 39 3e 0d 2e 85 bd
       -0.058410898 -0.05667482 0.18148273 -0.06502924
0002d0 ed 41 67 bd 9b 84 8c be 98 ec 12 3d 63 fe 28 3e
       -0.056459356 -0.2744492 0.035870165 0.16503291
0002e0 ab 46 b3 be e1 ae 48 be da c0 99 3c 07 40 d2 3a
       -0.35014853 -0.19597961 0.018768717 0.001604081
0002f0 7f 4b 6f be 75 38 e3 bd e7 75 f7 bb 83 c8 1d be
       -0.23368643 -0.11094753 -0.007551897 -0.1540852
000300 85 09 db 3d ca f8 a5 3e 55 93 1b bd 8b 84 48 3e
       0.10695175 0.32416373 -0.037982304 0.19581811
000310 71 f2 84 3a 29 fe d4 3c b2 84 c5 bc 74 1a f0 bd
       0.0010143054 0.0260001 -0.024111126 -0.117237955
000320 b1 bc 19 3e 59 b8 8c be 05 50 4e be 62 ad 54 3e
       0.15013386 -0.27484396 -0.20147713 0.20769265
000330 ee 4a 2d be c5 e9 3a 3c f6 ce 5a bd 80 b2 35 be
       -0.16923115 0.011408274 -0.05342003 -0.17743874
000340 f7 cf 67 bd c8 99 c2 3d e9 cf ef be 7f 15 8c be
       -0.056594815 0.09501988 -0.4683831 -0.2736015
000350 75 ec 49 bd 08 45 e3 3c 93 09 79 be 33 e7 87 3e
       -0.04929777 0.027742878 -0.24320059 0.26543579
000360 2a 64 28 be 81 9d c5 be f0 b2 ea 3a 56 dd ca 3c
       -0.1644446 -0.38596728 0.0017906111 0.024763744
000370 7b d4 e4 be 1e c1 41 3c ff 52 a6 be 33 32 1c 3b
       -0.4469336 0.011825828 -0.32485196 0.0023833632
000380 b1 10 ff be a2 f7 dc 3c 95 7d 9b 3d e8 64 80 bd
       -0.49817422 0.02697355 0.07592312 -0.06269246
000390 e7 a8 64 be 0a 89 ed be 86 e8 10 be 2c 74 0a 3e
       -0.22330056 -0.46393615 -0.141512 0.13520879
0003a0 0a d4 0e bd 3d c3 80 bd 4d 15 c1 3d ca a7 88 3d
       -0.034870185 -0.06287239 0.09427891 0.06672628
0003b0 2f bf b2 bd 6a d1 bb bc ee b8 9d be 97 9a ed 3d
       -0.087278716 -0.022927005 -0.30805153 0.11601751
0003c0 5b a1 db bc b1 38 48 be 67 ea f7 3d 98 0d 02 3d
       -0.026810339 -0.19552876 0.121052556 0.031751245
0003d0 ac 69 37 be 81 d7 9e bd 78 8f f3 be 3e e8 ab bc
       -0.17911404 -0.07755948 -0.47570395 -0.020984765
0003e0 45 99 39 bd 41 8c 42 3e 73 0e cb be ce 56 96 be
       -0.045312185 0.18998815 -0.3965946 -0.29363102
0003f0 33 e5 b6 bd 6b f0 9c bd dd d2 2f bf c5 c8 24 be
       -0.08930435 -0.076630436 -0.68681127 -0.16092212

bias f4 [200]
000000 58 c2 e7 bd 81 0e 53 bd eb 9f 28 3e dd 80 f8 bd
       -0.11316365 -0.051527504 0.16467254 -0.12133954
000010 b7 af ad bd 92 69 e9 3c 07 d0 78 3e 92 35 7d 3e
       -0.084807806 0.028492723 0.24298106 0.24727467
000020 fd 03 05 bd 1c d8 80 3e 1c 6c f0 bc 9b 84 2f be
       -0.032474507 0.25164878 -0.029348426 -0.17140429
000030 63 4c 6b bd 0b 07 4c 3e 69 96 f8 3d dd eb 1f be
       -0.057445895 0.19924562 0.121380635 -0.15617318
000040 05 c9 8f bd d0 e3 c5 3c de d2 14 bd b7 4d 16 3e
       -0.07020763 0.024156481 -0.03633391 0.14678083
000050 91 4c 33 3d 08 0c 74 bd 56 7b 97 bc d4 cd 5c 3d
       0.04377419 -0.059581786 -0.018491428 0.05390723
000060 a4 6d 18 be db 68 63 bd f5 b2 8e be 5a 7f 59 bd
       -0.14885575 -0.05551992 -0.27870908 -0.053099968
000070 5d 22 0e be 5f a5 26 bd e7 09 26 bd 42 ba ed 3c
       -0.13880296 -0.040685054 -0.040536787 0.029019479
000080 9b a6 e0 bd 48 aa 93 3d 24 6d 0d be 8b 9c 08 3c
       -0.109692775 0.07210213 -0.13811165 0.008338104
000090 11 35 c6 bd 3a e9 b3 bd ab 7e 69 bd 2e 50 90 bd
       -0.0967809 -0.08784719 -0.057005566 -0.07046543
0000a0 ab 8f e2 bd e9 de 41 bd 34 f8 f1 bd 86 c0 9f bd
       -0.11062559 -0.047331724 -0.11814919 -0.07800393
0000b0 f4 c1 fd bd 03 ac e6 bd 99 85 40 bd f9 ff a1 3c
       -0.12390509 -0.112632774 -0.04700241 0.019775378
0000c0 d7 ca 29 bc 72 4d 11 3e 04 c3 37 be 82 e2 df bd
       -0.010363302 0.141897 -0.17945486 -0.10931875
0000d0 86 d3 45 be de 2a 11 bd 91 b1 dd 3b 44 89 f1 bc
       -0.19318971 -0.035441272 0.0067655523 -0.029484399
0000e0 84 cb 2d bd 05 a8 08 bd 3b 62 4e bd 6e 5d ec 3d
       -0.042430416 -0.03336336 -0.05038665 0.11541258
0000f0 d2 33 17 be 90 d3 0e 3b 3d b1 17 3d c8 8f 3d bc
       -0.14765862 0.0021793582 0.037034262 -0.011569925
000100 48 f0 01 be d8 9e 06 b9 85 19 8d bd ed 0f c7 bd
       -0.12689316 -0.0001283841 -0.06889633 -0.097198345
000110 35 cf db bd 08 ff 38 bd 97 92 c9 3d 15 86 84 bd
       -0.10732881 -0.04516509 0.09842413 -0.064708866
000120 df 2e 27 bd 8b c7 6d bd 6d 33 01 bd 7d 3c 86 bd
       -0.040816184 -0.058051627 -0.031543184 -0.06554506
000130 24 f0 f0 bc 16 4a 9a bd 61 c7 1c be 3a 8d d2 bc
       -0.029411383 -0.07533662 -0.15310432 -0.025702108
000140 6e f6 9f bd 38 d5 e2 3d ba 9c f2 bc fc 6a d1 bd
       -0.078106746 0.110758245 -0.029615749 -0.10225484
000150 3e f3 26 bc b9 82 37 be 29 76 09 be fb 22 6b bc
       -0.010189829 -0.1792096 -0.13423981 -0.014351602
000160 7b 89 89 bc 88 ca 5d bc b3 5e 8e bd a0 85 eb 3d
       -0.016789189 -0.013537057 -0.06951656 0.11500096
000170 56 4c f0 bd f3 76 e0 bd b8 1b b5 bd f5 9a 8c bd
       -0.1173331 -0.10960188 -0.088431776 -0.06865493
000180 66 90 19 bd 91 c9 59 3c 2e 38 14 be 7a 6e 13 bd
       -0.037491225 0.013292686 -0.14474556 -0.03599403
000190 f5 ef 02 bd 1a ba 63 3c 21 79 79 be ee 63 72 3d
       -0.031967122 0.013899351 -0.24362613 0.05917733
0001a0 a1 d1 1b 3d 15 02 99 bd 70 8b 4e 3b 95 cd 08 be
       0.038041715 -0.074711 0.0031516217 -0.13359673
0001b0 76 45 94 bd 8c e2 36 bd 61 64 4e bd de 9b 99 bd
       -0.07239811 -0.044649646 -0.050388698 -0.075004324
0001c0 91 f7 c9 bb ef b0 b3 3d e6 39 1e bc d2 63 d2 bd
       -0.0061635454 0.08773982 -0.009657359 -0.102729455
0001d0 31 25 48 3e 2e 77 16 bd bd 32 a8 bd b0 fb a2 3d
       0.19545437 -0.036734752 -0.082128026 0.07958162
0001e0 fb b3 cf 3d c3 21 5d 3e 32 f3 af bd 1c 2f f6 bd
       0.101417504 0.2159491 -0.08591308 -0.12020704
0001f0 8a af d7 3d 50 c9 f7 3d 76 c1 eb bd 03 ba ec bb
       0.10531528 0.12098944 -0.11511509 -0.0072243228
000200 1f a7 ad bb 88 48 33 be 54 a7 21 bd 4f 05 49 bd
       -0.0052994634 -0.17508137 -0.039466217 -0.04907733
000210 bc 26 7a bd 07 be ae bd ed ba 34 3e f4 ca 04 3c
       -0.061072096 -0.085323386 0.17649432 0.008105028
000220 5c 7a 77 bc 39 1d 0f 3d f8 0f b8 bc 7b 15 e7 bc
       -0.015104856 0.03493998 -0.022468552 -0.028208485
000230 49 e9 45 bd 5a f0 dd bd 8b c9 50 be c1 da 71 3b
       -0.04831818 -0.10836859 -0.20389383 0.003690407
000240 a8 3a 3a bd 34 67 05 3c 9f 88 cc bc 82 8c 8b 3c
       -0.045466095 0.008142281 -0.02496749 0.017034773
000250 d2 5f 1e be 58 b2 2a bd 88 96 3f bd cc ba 2e 3d
       -0.1546624 -0.041673988 -0.046774417 0.042658612
000260 d1 93 ca bd 7f 32 a9 bd e8 78 e0 3d df 46 a3 bd
       -0.09891475 -0.082615845 0.10960561 -0.07972502
000270 4a 23 aa bd cb fc 35 be ef 49 f3 bd 2f 73 b8 3b
       -0.08307512 -0.17772214 -0.11879336 0.0056289653
000280 af 80 58 bd 74 95 76 bd 9d 1c 90 bd f3 dd 51 bd
       -0.052857097 -0.060201123 -0.070367076 -0.051237058
000290 cd ce 09 be 8e b2 2f bd 65 78 85 bd 21 d0 54 3c
       -0.13457794 -0.042894892 -0.06517104 0.012989075
0002a0 e6 8b a0 bd b7 0f 89 bd e8 64 54 bd 2b e8 e6 bd
       -0.078391835 -0.066924505 -0.051854044 -0.11274751
0002b0 e2 a8 b8 bd 39 d7 ce bd ae 8e 84 bc dc 1c 9e bd
       -0.09016587 -0.10099644 -0.016181316 -0.07720348
0002c0 32 f2 3f be 66 95 95 bd f5 42 0a bd 5d 06 6a bc
       -0.18744734 -0.07303886 -0.03375526 -0.014283744
0002d0 cf c5 cd bc 28 77 32 bd 11 30 4b bd 6c d0 5a bd
       -0.025118737 -0.043570668 -0.049606387 -0.053421423
0002e0 c9 6e f7 bd f3 2d e8 bc dd 9c 8d 3e b1 62 e5 bc
       -0.120816775 -0.028342223 0.2765874 -0.028001161
0002f0 4d 50 04 be 53 a3 d6 bd 6c 64 7d bd 10 1c aa bb
       -0.12921257 -0.104803704 -0.061863348 -0.0051913336
000300 dd a3 07 bd df c7 e0 bd 77 d4 aa bd 35 1a 96 3c
       -0.033115257 -0.109756224 -0.08341306 0.018323043
000310 1b 85 9f 3d 2e b2 96 bd d2 57 d4 bd 9b 5f 0b bd
       0.0778906 -0.07358204 -0.10368313 -0.034026723

weight f4 [2, 200]
000000 8e 2a ae bc e1 0b 3f be 1a 38 a5 bf 92 79 cc bc
       -0.021260526 -0.18656875 -1.2907746 -0.024960313
000010 2d bb 93 bc dd 25 83 3b 05 88 7d bf 62 6c 28 3d
       -0.018033588 0.0040023164 -0.99035674 0.041118987
000020 10 d3 34 bd f6 e4 0d bf 5a 78 6f 3d d1 f9 d7 bd
       -0.044146597 -0.5542749 0.058464386 -0.105456956
000030 a2 b9 5e 3b e8 45 d7 be d5 3a 37 be 80 f5 35 3e
       0.0033985157 -0.42045522 -0.17893536 0.17769432
000040 37 db ac bd b3 9b f6 3b dd 05 19 3d 5c c3 c6 3c
       -0.084402494 0.007525885 0.037359107 0.024263076
000050 25 b6 42 bd c3 64 ae bf fc fc 81 3c e2 01 29 bf
       -0.047536988 -1.36245 0.015867703 -0.660185
000060 5e bd 06 be 68 28 3c bc 8f cd 57 be c6 9b 22 bd
       -0.13158175 -0.011484243 -0.21074508 -0.03969934
000070 b7 33 31 3e a7 97 37 bd 16 61 12 bd 96 fc 28 3d
       0.17304884 -0.04482236 -0.03573712 0.04125651
000080 d0 d3 37 3d b2 e2 9d 3e 0d 95 17 be be 7a 21 bc
       0.044879735 0.30837017 -0.14802952 -0.009855924
000090 cd 28 95 bc 5e c7 3d 3e 63 06 66 bd 7d 14 95 bd
       -0.018207932 0.18533084 -0.056158435 -0.072792985
0000a0 78 cb 38 3d 03 f0 63 bd 2c 16 89 3e f2 fa 63 3c
       0.045115918 -0.055648815 0.26774728 0.0139148105
0000b0 48 ac 30 3e 8c 84 8d bc bb d4 76 bd b1 13 18 be
       0.1725322 -0.017275117 -0.06026147 -0.14851262
0000c0 14 ae 01 bd 05 83 40 3c a4 4b 59 bd 57 79 28 bd
       -0.031660154 0.0117499875 -0.053050652 -0.041131344
0000d0 34 22 60 bd 41 ae 1d 3d ec b3 0f bd 9c 39 07 3c
       -0.05472012 0.03849626 -0.035083696 0.008253481
0000e0 63 13 8c 3e 77 2a 3e bd 07 14 a5 bd a8 de af 3e
       0.2735854 -0.046427216 -0.080604605 0.3434956
0000f0 bf 64 35 3b b8 d0 17 3e b1 e3 d1 bc a6 d9 ac 3c
       0.0027678458 0.14825714 -0.025621267 0.021099877
000100 97 e1 0a be 8e ce 18 3e 36 b9 a1 b9 7b 40 0d 3e
       -0.13562618 0.14922544 -0.00030846306 0.13794129
000110 2e 64 e4 3e 48 3f c0 3c 3a 6c de bc 33 19 08 3e
       0.4460768 0.023467675 -0.027151216 0.13290863
000120 2b c1 f9 3c c7 e6 bb 3c a3 62 79 bd d0 c3 42 3d
       0.030487617 0.022937192 -0.060885083 0.047550023
000130 33 71 7b 3d 28 0c c8 3b 8f 0c 8b 3d ed 87 8e bd
       0.061387252 0.0061049648 0.06789505 -0.069595195
000140 0e 9f ac 3c 3c 5e 3f 3d 91 33 c3 bc 88 c1 2d bc
       0.021071937 0.04672073 -0.0238283 -0.0106052235
000150 ac df a2 bc 71 3d 2a 3f 39 71 cb be 29 b9 c0 bc
       -0.019882046 0.665 -0.3973482 -0.023525791
000160 a4 b9 d0 bd cd 32 e4 bc e4 26 84 3e 7a c0 95 bc
       -0.10191658 -0.027856255 0.2581092 -0.018280257
000170 80 e0 95 be 9c 2d 89 bc 5f bb 33 bc 75 75 8c 3b
       -0.29272842 -0.016745381 -0.010969966 0.004286463
000180 6f 04 5f be 61 a4 54 3d 75 cb 86 bd 1e d6 85 bd
       -0.21779035 0.051914576 -0.06581775 -0.0653498
000190 3c e0 0b 3d 44 29 01 bd d9 75 18 3e d7 a5 aa bc
       0.034149393 -0.031533495 0.14888705 -0.020831032
0001a0 92 5d 39 3d 21 3b f5 3c 7e fa 10 3c 68 c3 34 3e
       0.04525525 0.029935421 0.0088487845 0.17652667
0001b0 0a 03 62 bd 99 88 47 3d c9 a3 5b 3d a6 8e ac bd
       -0.05517868 0.048714254 0.053622995 -0.084256455
0001c0 25 01 83 bc 18 07 1b 3e cd 67 17 3d a2 00 e8 bc
       -0.015991757 0.15139425 0.036964227 -0.028320614
0001d0 9f 60 1d bd 5a ec 64 bd 0c 2b 71 bc 63 b4 63 3d
       -0.038422223 -0.055889465 -0.014719736 0.055591952
0001e0 50 5d c6 be 68 10 c5 bd 0e e2 40 3d 10 b8 45 bb
       -0.38743067 -0.0962227 0.047090583 -0.0030169524
0001f0 51 0c 02 3e 34 91 d0 be f2 33 49 3c 36 32 2b 3b
       0.12700011 -0.4073578 0.012280451 0.0026122457
000200 50 b2 c7 bc 06 16 98 3c 78 8b ed be 38 1d 8d 3d
       -0.024377018 0.01856519 -0.4639547 0.06890339
000210 85 4c 91 bc f5 c4 9e bc a6 9c 12 3d 70 2e b8 bc
       -0.017736683 -0.019381026 0.035793923 -0.02248308
000220 41 74 4f bd 7c 8c be 3d 20 23 5c bd 30 dc 4c 3d
       -0.050647978 0.09304139 -0.053744435 0.050014675
000230 b4 35 07 bd ab 1a b0 3e a3 19 3b 3d 1b 7a c1 bd
       -0.0330102 0.34395346 0.045678746 -0.09447118
000240 79 d5 c7 3d 04 5c 04 3d 35 63 79 be 89 05 d0 be
       0.097575136 0.032314315 -0.2435425 -0.40629223
000250 db 5d f8 bd 2d 16 e4 bc 47 fc ad ba df d8 cf 3d
       -0.121272765 -0.027842605 -0.0013274037 0.10148787
000260 02 57 d7 3c 9c e8 87 bd 09 25 95 bd d6 63 1d bc
       0.026286606 -0.066361636 -0.072824545 -0.009606322
000270 6f eb 9b be fc 09 cd be ba fa 8e be d7 e7 b9 ba
       -0.3045306 -0.4004668 -0.27925664 -0.0014183474
000280 5b d9 fe 3c 20 9f bf b9 67 ef b8 bd 59 37 31 bf
       0.031109503 -0.00036548916 -0.090300374 -0.6922508
000290 d6 55 a9 3d 96 11 19 3d b0 38 48 bc 88 ac 33 3d
       0.08268325 0.037370287 -0.012220547 0.04386571
0002a0 91 c0 88 3d 46 8b 3a 3b 9f bd 4c be 16 cd 19 3d
       0.06677354 0.002846436 -0.1999421 0.0375491
0002b0 4b b2 29 3e 51 d7 45 b8 df 23 10 3e f6 36 d7 3d
       0.1657192 -4.716899e-05 0.14076184 0.1050853
0002c0 0e f2 08 bf b1 46 4e 3c 72 4e d4 bc 18 ce 6a bd
       -0.53494346 0.012590096 -0.025916312 -0.057325453
0002d0 41 ef 66 be 0d 44 1e bd 9c a4 8a bd 92 5e 00 be
       -0.22552206 -0.038639117 -0.06769678 -0.12536076
0002e0 e9 bb 67 3e 45 95 08 bd be cc 17 bf 31 33 dd 3d
       0.22630276 -0.03334548 -0.59296787 0.108007796
0002f0 96 5a aa be cf 7f a0 bd fd a8 0f 3d a3 ad 80 bf
       -0.33272237 -0.078368776 0.03507327 -1.005299
000300 4b d4 ee 3c 1a b4 00 bc e6 02 a3 3c 76 44 29 3d
       0.029153964 -0.00785544 0.019898843 0.041325055
000310 2d 2b bf bd 2a f9 5b 3d 72 ac d5 bc 6e b9 38 bd
       -0.09334407 0.05370442 -0.026083205 -0.045098715
000320 88 b6 48 3e 5e 48 fc 3e 8c 94 08 3e 06 42 bf be
       0.1960088 0.49273962 0.13337916 -0.3735506
000330 d6 35 94 3d 21 bd 53 3d 99 d0 bf bd 42 21 d2 3e
       0.07236831 0.05169404 -0.09365959 0.41041
000340 31 ee c9 bb cf b2 ca 3c 6d cd 11 3b 7c 7c 5e bc
       -0.006162428 0.024743466 0.0022247687 -0.013579484
000350 43 de e7 3c 2d 00 bd 3e 8b a4 4a 3e d2 bc 65 3e
       0.028304225 0.36914197 0.1978933 0.2243531
000360 71 99 54 3c 55 7f 8e bc 75 c2 14 bd a1 49 ac 3e
       0.012976036 -0.017394701 -0.03631826 0.33649924
000370 e6 9b f3 3e 08 ec a2 3d 29 9b 5e 3b 8b 1b 83 be
       0.4757988 0.07955176 0.0033966994 -0.2560695
000380 96 5f 97 3e fe 1a 2f 3b f4 6c bc 3d 2e 23 24 bd
       0.29565114 0.002671897 0.09200469 -0.040072612
000390 81 43 54 be 64 0c e6 bc b7 70 ab 3b 91 5f 5a 3c
       -0.20728876 -0.02808208 0.0052319425 0.013328449
0003a0 0a f3 6c bc b3 d1 1c 3e f2 56 00 3e 52 45 89 3e
       -0.014462242 0.15314369 0.12533167 0.268107
0003b0 c4 cb 81 3a c5 b8 81 bd 69 40 51 bd bd b1 19 bc
       0.0009902646 -0.0633407 -0.051086817 -0.009380755
0003c0 c9 75 d2 bc 49 0d 40 bd f9 61 54 be f3 35 6f bc
       -0.02569093 -0.04688767 -0.20740499 -0.014600265
0003d0 69 28 2e be 3f 1d b8 3c 9e 3a a4 bc 3e 4f 4f 3f
       -0.17007603 0.022474883 -0.020047482 0.8098029
0003e0 76 8d a1 bc c2 5f e1 3e e0 01 2f 3c c4 61 82 bc
       -0.019720774 0.4401837 0.010681599 -0.015915759
0003f0 de 02 7f 3d 69 1b ec be 7e 13 2a bb 52 26 d6 bc
       0.062258594 -0.46114662 -0.002595156 -0.02614132

bias f4 [2]
000000 c1 fe 5a 3d 55 86 f3 3d
       0.05346561 0.11890856
