Vehicles/GenSteerV/GenSteerV_critic.pth (torch, 353427 bytes, 10 tensors)

weight f4 [200, 15]
00000000: fba1 60be 321c 35be 220b 0c3e 2450 e73c
00000010: cb0a 20be c44b 22be f10e c83d d672 133e
00000020: ce79 11be e1d1 1f3c 288f 983d 37ee 3c3e
00000030: 2002 dfbd 7d38 5fbe 07ce 713e 8414 5cbd
00000040: fe6f 37be 3614 843e d509 eebd 6b57 293e
00000050: aabf 843c a399 4cbe 23e1 08be 0127 39be
00000060: 7d7c 803e b005 d53d b32c aebd 3429 7b3d
00000070: 76b7 343e a2b2 27be 19b9 41be 2e15 7e3e
00000080: af50 593e 594f 11be 603a 88be ae50 093e
00000090: 24ca a4bc d0c6 93bc d3c5 af3d 3074 5fbe
000000a0: 9f7f b6bd c58d 5fbe a419 98bb d750 1dbe
000000b0: 3982 1c3e 1cac f3bd a7dd 91bd 508d 73be
000000c0: d33d 143e 0def 883b 92f9 273d cdce 3c3e
000000d0: cfb7 1abe 12b1 6ebc 655b 0a3e 39b7 b0bd
000000e0: 4d34 98bd 2666 da3d f96b 55be 3c3d 6c3e
000000f0: c681 b03c 1fef 713e 4439 f13d f488 053e
00000100: daf2 5b3c adff e53a 76ba 983d 3daf b53d
00000110: f48a 0fbe a8bb 0bbe c474 17be 0d92 babd
00000120: c998 2ebe db8f 7f3e 0197 abbd 7be3 19bd
00000130: d0b7 32bd 190e 4c3c 7668 00be 8281 ad3d
00000140: b904 9dbd 2687 b13d 3367 78bd 9878 92bc
00000150: fd02 ea3c a0df f83d 3de2 0d3d 2092 e0bd
00000160: d0ca 013e 7bed 85be fe25 a43e 64e1 fcbd
00000170: 542d a3bd 82ce 22be 66f3 5cbe 67dd 1f3e
00000180: 4190 67be 2ae9 6b3e af6c 84bc 254f 543d
00000190: 2453 d53d b630 abbd 8cef 503e b72f 043e
000001a0: bd62 9f3e 3961 42be 5d78 75be b833 ce3d
000001b0: d60b 403d 80b7 353e 6c28 83be c1ef 92bd
000001c0: 9b66 bfbd eddc 0abd 5adc a8bd b4c9 183d
000001d0: 60eb 17be ddab 21be f6bf 49be 55da 40bc
000001e0: 85d6 d0be c365 fa3c 460f 51be b2a6 38be
000001f0: d6c4 bb3d 1b95 15be 5450 483d a67b 29bd
00000200: ae63 743e a885 fe3d 3370 d5bd 8be6 593d
00000210: 1e63 03bd 9d49 ab3d ff2e d9bd de7f 8b3e
00000220: 058a 41be c6e7 8dbe bb9a 103e c394 76be
00000230: c734 963d 6b27 b53d 8e33 2c3e d894 063e
00000240: 6c24 533d 2a1a 50be d9dc 82bd 994b 943e
00000250: eaf3 2a3e 96b6 96bd c925 6e3c 3d14 823d
00000260: 1962 1bbc 63b4 e7bd a163 46bc 22a0 653e
00000270: 9d73 90bc 526b 693e 4fe5 3ebe e2bd 82be
00000280: 5d6b 5e3e 3a7a 84be 867b 64be dc6d 713e
00000290: a149 1fbe c123 933e d29e 53be f54f d1bc
000002a0: e77c 67be 7f39 a3bd 2b43 753e c904 1b3e
000002b0: 42de 643e 855b 65be 0e6a 483e ae96 39be
000002c0: 91d2 5a3d 96da 133e d351 183d f855 9ebd
000002d0: 200e 68bd 1615 83be 36d6 313d 5367 a53d
000002e0: 8bc5 3e3e 1940 2abe 01d8 47be 1792 1ebe
000002f0: 18df 57bd 2031 833d 987f b53d 5944 7d3d
00000300: 9184 54be 63ba 42bc fce2 b0bd bebd 083e
00000310: 0d0c 97bc 4643 983d 44d1 103e d835 f8bc
00000320: 0363 75bd a597 27bd 1bf2 24be c2cd 5d3e
00000330: eaea febd 5edd bb3c 0d72 f3bd 664d 6b3e
00000340: d088 56be 4539 df3d 72f0 61bd 0732 29be
00000350: 5357 40be b4b1 b2bd 5fd9 64be f9fe 953c
00000360: cd3f 6d3d 2f7f c1bd f03a dd3d 9f77 59be
00000370: bf65 693e b3d8 13be 9c97 c83d 39bd 08be
00000380: 4541 6a3e bdca e0bd 79db c13d fd79 363d
00000390: 0898 f23d e84b 00be 7382 7ebe b3c4 23be
000003a0: d54a 4c3d 8807 0dbe 0aba 593c 0866 cabd
000003b0: e8a3 4f3e bad5 35be 4ca4 cc3c f15a f83d
000003c0: 38e2 83be 8d70 623e de5a 1f3d d213 5fbe
000003d0: 3a69 14be 651a 4e3e f8ac 133c 400e d73d
000003e0: 4623 47be e90c 1bbe e878 8b3d 2aa8 c73d
000003f0: 832c d8bd e874 313d 868b 96be 8d9c 86bc
-0.2193679 -0.17686537 0.13676122 0.028236456 -0.15629117 -0.15849215 0.09768475 0.14399275
-0.14206621 0.009754629 0.0744918 0.18450247 -0.10889077 -0.21798892 0.2361375 -0.053730503
-0.17913815 0.2579667 -0.11622969 0.16537254 0.016204674 -0.19980483 -0.13367133 -0.18081285
0.25094977 0.104014754 -0.085046194 0.06131859 0.1764811 -0.16376737 -0.18918265 0.24812767
0.21222185 -0.14190425 -0.26607037 0.13409683 -0.02011592 -0.018039137 0.08582654 -0.21821666
-0.089110605 -0.21831425 -0.0046417285 -0.15362869 0.15284051 -0.11898062 -0.07122355 -0.23784375
0.14476709 0.0041788877 0.041009493 0.18438263 -0.1510918 -0.014568584 0.13511427 -0.08628697
-0.074318506 0.106640145 -0.2084197 0.23070234 0.021546256 0.23626374 0.11778501 0.13040525
0.0134246 0.0017547511 0.074574396 0.08871315 -0.1401785 -0.13645804 -0.14790636 -0.09109888
-0.1705047 0.2495722 -0.08378411 -0.037570458 -0.04363233 0.012454533 -0.12539849 0.08471967
-0.076669164 0.08668356 -0.060645293 -0.01787977 0.028565878 0.12152028 0.034639586 -0.10965371
0.12675023 -0.26157746 0.32060236 -0.12347677 -0.0796763 -0.15899089 -0.21577224 0.15611802
-0.22613622 0.23038164 -0.016165106 0.05183329 0.104162484 -0.083589 0.2040388 0.12908827
0.3113002 -0.189824 -0.23971696 0.10068458 0.046886288 0.17745781 -0.25616777 -0.07174636
-0.09345742 -0.033902097 -0.08245154 0.037301734 -0.14835882 -0.15788217 -0.19702134 -0.011770804
-0.40788665 0.030566102 -0.20415983 -0.18032339 0.09168403 -0.1460766 0.048904732 -0.041377686
0.2386615 0.12427837 -0.10421791 0.05319838 -0.032076947 0.0836365 -0.10604667 0.27245992
-0.18900307 -0.27715892 0.14121525 -0.24080186 0.07334285 0.08845409 0.16816542 0.13142717
0.051548406 -0.20322481 -0.063897796 0.28963926 0.16694608 -0.07359044 0.014535376 0.063515164
-0.0094838375 -0.11313703 -0.012108714 0.22424367 -0.017633254 0.22794846 -0.18642162 -0.25535494
0.21720643 -0.258745 -0.22312745 0.23577064 -0.15555431 0.28738216 -0.20666054 -0.025550822
-0.2260624 -0.07969951 0.23951404 0.15138544 0.2235041 -0.22398193 0.19571707 -0.18123886
0.053423468 0.14438853 0.03718741 -0.07731241 -0.056654096 -0.25602025 0.043417178 0.08076348
0.18630044 -0.16626014 -0.19515993 -0.15485416 -0.052702993 0.06405854 0.08862227 0.06183276
-0.20753695 -0.011885258 -0.08637044 0.13353631 -0.018438363 0.074347064 0.14142329 -0.030299112
-0.059908878 -0.040916104 -0.16107981 0.21660522 -0.1244715 0.022932705 -0.11886988 0.22978744
-0.20950627 0.10899595 -0.055160947 -0.1652299 -0.18783312 -0.087253004 -0.22348545 0.018310057
0.057922173 -0.094480865 0.10802257 -0.21237038 0.2279272 -0.14438133 0.09794542 -0.13353433
0.22876461 -0.10976169 0.09465689 0.04454993 0.11845404 -0.12528956 -0.2485445 -0.15993004
0.049876053 -0.13772404 0.013288984 -0.09882742 0.20277369 -0.17757311 0.024980687 0.12126721
-0.2575853 0.22113247 0.038905017 -0.21784905 -0.14493266 0.20127256 0.009013407 0.10500765
-0.1944705 -0.15141644 0.068101704 0.097488716 -0.10555365 0.04332438 -0.29403323 -0.016432071

bias f4 [200]
00000000: be6a 6bbd c11e 55be 224f debd 0496 473d
00000010: 2c57 1fbe 4e85 bfbd 476e 8d3d 5e33 17bd
00000020: 8999 5abe 43f1 95bd 372b 4cbe 5fcd 96bd
00000030: 455e 9abd b87b 32be 5c80 853e b1db 66bd
00000040: 1ee6 a33d ca9c 0ebe 15aa b53c c78d 5dbe
00000050: 5e79 4b3e f67b fb3d 77c7 7fbe 77ca 553e
00000060: 9a81 b23c 4321 2f3e 7150 06be 103f 1b3e
00000070: 5087 5f3e 4799 dcbd 8bf2 15bd 6659 2abe
00000080: e7a7 6dbe 28fa 98bd ba99 223e 56be ec3d
00000090: d63c 9aba 7ee5 6abe 6ed4 05be 3cf4 2a3e
000000a0: 2a85 0bbe 7d9a 163c 9bb1 f8bd 4f04 6b3d
000000b0: dbb3 b73c 238d 92bd b0f9 983d 146d 9abd
000000c0: f93b 4a3e 4753 2a3e 9416 5fbc 4621 583e
000000d0: c570 193e 9a10 26be 16e7 afbc cc3a 593e
000000e0: 0784 d23d 882c 3f3e ad4a cebd 769e f4bc
000000f0: 1788 1ebe bf8b e13d 61d8 91bc 564e 78be
00000100: 2a0a f1bc c374 59be ce10 683e f6eb 8b3d
00000110: 8608 4bbe 1919 64be 4482 c13d a585 6bbe
00000120: 9362 54bb 6be2 88be 6fbe 03be 5cb5 02bc
00000130: 0baf a13d 90fb c5bc c638 6c3e feda 3bbd
00000140: 8514 34be 2be8 61bd 3bb5 1d3d dc52 013e
00000150: 4641 5bbe 3fef a4bd 4635 5abe 93b6 9d3d
00000160: a827 6b3e 1739 173e 3650 953a eeac 82be
00000170: 098a 6e3d f082 6a3e fffa 0e3e 0c13 82be
00000180: 7c08 203e c7fa 0fbe aabe be39 bd33 46bd
00000190: d41d 09be 1504 653e 371a 693e 9ca7 4ebe
000001a0: 1d16 1b3e c57a 97bd 9878 17be 53a1 613e
000001b0: d398 fcbc 2415 9a3d b900 7c3e 8094 32be
000001c0: a20d 67be 07fc 4b3e 52f7 2dbd 1198 55be
000001d0: 65f7 eb3d 6661 b7bc e7dd c7bd e943 f7bd
000001e0: 8034 36be 0561 82be dba0 763e 0773 6a3d
000001f0: 84db 7ebe b68c 0b3e 1364 fbbd 2460 3dbd
00000200: 1f87 0e3d 76e8 5d3e 28a5 d1bc 84a4 85be
00000210: 9bb1 20be 5a6a 7ebe b734 29bd b89a 5bbe
00000220: 056a 643e 0c6b 443e c84f 89bd 9017 02be
00000230: 356d 0cbe 848c 2d3e ef25 49be 6998 823e
00000240: c856 74be 3fee bc3c 1673 d23d bf88 f9bd
00000250: 0090 133e 1f9e 363e fa24 1e3e a592 02be
00000260: e136 5f3e 2aae 0e3e 243c b93d ad15 2cbe
00000270: 2c8b 76bd 0d50 a33d 03dd 17be 4137 363c
00000280: 8120 193d da9b 2d3e 83c5 80be d959 763e
00000290: 974d 463d 2297 7b3e de93 51bc c25a 003e
000002a0: b189 403e 685c 7e3e a9fa 35be ec7b 013d
000002b0: a72e a3bd 0de7 90bd 2cee 243e 3886 433e
000002c0: c610 043e 2bc2 91bd 19a5 26be 778e 3a3e
000002d0: 4ac5 febc 66ce b3bd dd62 51be 1e3f fc3d
000002e0: 7df2 b03c f131 6dbe 4ba6 70be 7a2c eb3d
000002f0: d97f 1ebe 4382 44be 5979 a7bc a738 0abe
00000300: 4bc7 21be 3ab7 723e e3ed 413e d8f7 933d
00000310: 0c26 6a3d a19f 18bd dc77 6d3e ebab 95bd
-0.057474844 -0.20812513 -0.10854937 0.04872705 -0.15560597 -0.09351598 0.06905799 -0.036914222
-0.21347632 -0.07321408 -0.1993836 -0.0736339 -0.07537512 -0.17430007 0.26074493 -0.056361858
0.08002876 -0.13926998 0.022175828 -0.21636115 0.19870517 0.12279503 -0.24978434 0.20878015
0.021790314 0.17102532 -0.13116623 0.15160775 0.21828961 -0.10771423 -0.03660826 -0.16635665
-0.23208581 -0.074695885 0.15878955 0.11559741 -0.0011767398 -0.22939107 -0.13069317 0.1669473
-0.13625017 0.009192106 -0.121432506 0.057377156 0.022424629 -0.07155826 0.07469499 -0.07540336
0.1974944 0.1663333 -0.013616223 0.21106443 0.14984424 -0.1621727 -0.021472495 0.21213835
0.102790885 0.18669331 -0.10072837 -0.029860716 -0.15481602 0.110129826 -0.017803373 -0.24248633
-0.029423792 -0.21235947 0.2266266 0.06832115 -0.1982747 -0.22275199 0.09448674 -0.230002
-0.0032407388 -0.26735243 -0.12865613 -0.00797781 0.07894715 -0.024167806 0.23068532 -0.045863144
-0.17585953 -0.055153053 0.038502913 0.12629265 -0.21411619 -0.08053445 -0.21309385 0.07700839
0.22964346 0.14767872 0.0011391703 -0.2552256 0.05823711 0.22901511 0.13962935 -0.25405157
0.15628237 -0.14060508 0.0003638168 -0.048389185 -0.13390285 0.22364838 0.22763906 -0.20181125
0.15145154 -0.07396463 -0.14792097 0.22034197 -0.030834591 0.075235635 0.2460965 -0.17439461
-0.22563794 0.1992036 -0.04247219 -0.2085879 0.11521796 -0.02238531 -0.097591214 -0.120735
-0.17793465 -0.25464645 0.24084799 0.057238605 -0.24888426 0.13627896 -0.12274947 -0.046234265
0.03479683 0.21670708 -0.025591448 -0.26102078 -0.15692751 -0.24845257 -0.04131004 -0.2144574
0.22306068 0.1918146 -0.0670467 -0.12704301 -0.13713534 0.16948134 -0.19643377 0.25506905
-0.2386123 0.023062823 0.10275857 -0.12184285 0.144104 0.17833756 0.15443793 -0.12751253
0.21798278 0.13933626 0.09044674 -0.16805144 -0.06019132 0.07974253 -0.14830403 0.011121572
0.037384514 0.16953984 -0.2515069 0.24057712 0.04841384 0.24569371 -0.012791602 0.12534621
0.18802525 0.24839938 -0.177714 0.03161232 -0.079678826 -0.070753194 0.1610648 0.19094169
0.12897024 -0.07117113 -0.16273917 0.18218409 -0.031099934 -0.08779602 -0.2044787 0.12316726
0.021600002 -0.23163582 -0.23500936 0.114830926 -0.15478458 -0.19190316 -0.020443605 -0.13498174
-0.1579868 0.23702708 0.18938403 0.07225007 0.05716519 -0.03726161 0.23190254 -0.073081814

weight f4 [200, 200]
00000000: 63de 093c c2c2 9fbb 49b8 1e3d 7d02 5b3d
00000010: d43a 50bd 8a63 25bd 6b7a 14bc 4169 973d
00000020: d542 d4bd 7a5f 16bd 92e3 6bbd a71b 223d
00000030: 7147 c53d f478 cdbd fdf4 143d 7ec1 ce3a
00000040: b500 d2bd 3df1 973d db00 92bd 3908 8ebc
00000050: 0677 61bc fadc 683d 5363 9d3c e9b2 603d
00000060: 249f 5f3c f865 a03d ba60 5a3d 9cc6 5c3c
00000070: 7d06 1d3d 51aa 05bd 7d10 dabc 2921 55bd
00000080: 99dd 0cbd 9088 2fbd bdbb 213d c8cd 1d3d
00000090: a3bb 893d 030f e83c bb3d fc3b 915e b4bc
000000a0: 0992 f1bd 1d2e 32bd da50 883d b476 363d
000000b0: 4504 7c3d 5f8d 83bd 37c7 9dbd bbe4 0fbd
000000c0: 9cad 38bd f7b3 343d 4f51 473d 9f0f 16bd
000000d0: 6e91 703b 8c12 64bd 2fec 14bd 2cf8 683d
000000e0: 84ed 32bd 72fe 383c 978b 243c 0c90 abbd
000000f0: 9d1c 8abd ec81 e0bc 28c1 d5bd dc19 83bd
00000100: 8dcc 403d bbcd 523d 65ea f3bd ade2 213d
00000110: 6eaa 783d 54e3 41bd 1e8a b8bb 7356 7fbd
00000120: 7cdc 55bd 18cd fabc 8d3c 4cbd 2451 743d
00000130: e4b9 9dbd 47b6 5ebd 8319 17bd f447 6fba
00000140: 84e3 0e3d b3d2 713d a3da 1cbd e9cb 86bd
00000150: 402b abbc 6cf6 14bc 9c94 263d 41c8 8f3d
00000160: cbda dbbc 80f5 fabc 2d72 dcbd e3fe 8abd
00000170: 193e 8abd bb01 07bd 14f6 babc 8e89 d43c
00000180: a49a b2bc ba35 10bd ff1c b43d 08b3 2ebc
00000190: 81a5 0abd af9b a43d ca9d 513c ebd9 e43c
000001a0: 181f 86bc b0b5 90bc 5e57 80bc 285f 33bc
000001b0: 3969 c53c 6fbb 7cbd 7456 cdbd 9a9f 96bd
000001c0: a6d7 a3bd 1bf6 883c 7470 38bd 9e34 9f3a
000001d0: 8272 833d 5d91 1a3d 1f12 6c3c 202b 543c
000001e0: 076d 6d3c c5cb 24bd 886c fdbb 1007 1bbc
000001f0: 69c9 5fbc 8697 97bd 9adb 853c aa3c 243b
00000200: 4cb8 b83c 307c ddbc 7633 373d 068a 923c
00000210: 4b3c 2ebd 9946 993d 5e12 92bd e4f4 90bd
00000220: 322b 79bd 5c2b 503d 1f54 f9bc b309 693d
00000230: 3317 6f3c 50e8 10bd 94c9 65bd b045 9bbd
00000240: 5a64 09bd b3e1 38bd b985 3ebd af89 253d
00000250: 4ef5 7e3d c110 eebc 7bf8 713d 9892 293d
00000260: b17e 9d3b ece0 193d bd18 ad3d adfa 50bd
00000270: 3e11 9f3c 917a f6bb 09d7 1abd 1066 b8bd
00000280: 041f 863d 62db 46bd 2478 033d 7700 00be
00000290: c870 cb3d 21aa c3bc 467f 403d 9e48 903d
000002a0: 8960 963d 8aa4 52bd 2185 a5bd ca36 913d
000002b0: 21cb 39bd 11b9 e2bc 2681 003d a333 39bd
000002c0: cbd4 2ebc 6977 86bc 96cb 6fbd 8b88 f53c
000002d0: a6eb e73b 2566 6fbd 04f9 e83c a85b 3a3d
000002e0: 7f08 a53d 0dae 363d 26b5 81bd 9d1f 3fbc
000002f0: b6e9 753d 6620 6bbc bbc6 2dbd 792f 393d
00000300: 233c a9bc db40 683c 27fc 883d 6965 cb3d
00000310: aea9 5c3d 94f8 97bc 6c51 fabd a83c 49bd
00000320: fe7a e9bc 932e 68bd 3c8e 15bd 5c4d 57bd
00000330: 8bc8 43bd 54a5 44bd 76ae 9fbd bade 043d
00000340: abc1 25be 1bbc 36bd 2b52 28bd e669 b4bc
00000350: 4a1b aa3d bbf7 42bd ab82 81bc 9a50 6f3d
00000360: 7470 2e3c 3c33 26bd b6ba a43c 8646 d23d
00000370: 8a01 a13c 5695 48bd d6dc 5dbd c1b3 273d
00000380: 452a 033a 9753 a13c 7875 50bd fa78 e93d
00000390: cb45 74bc b435 b93d 2400 2ebd f6bb 74bd
000003a0: bf4b 773b eb98 653d 1174 7e3c ff5b 093d
000003b0: d6c4 efbc 9865 dabd f220 a33c 917d 913d
000003c0: 6ced e0bd 4a74 babc 089a 723d 4a11 233b
000003d0: 2c94 11bc df6e c2bc 27b4 803c 5e93 c13c
000003e0: 43b3 5a3d 8e0b 4cbb d29c 8cbd df9b 9bbd
000003f0: eab6 323d fee7 403d 1719 18bc ebb1 9bbc
0.0084148375 -0.004875512 0.038749967 0.05346917 -0.050837353 -0.04037813 -0.00906239 0.073931225
-0.1036431 -0.036712147 -0.057590075 0.039577153 0.09632767 -0.100328356 0.03636645 0.0015774218
-0.10254041 0.074190594 -0.071290694 -0.017337905 -0.013761288 0.056851365 0.0192124 0.054858122
0.013648782 0.07831949 0.053314902 0.013475087 0.038336266 -0.03263313 -0.02661919 -0.052033577
-0.03439102 -0.042854846 0.03948568 0.038526326 0.06725242 0.02832747 0.0076977885 -0.022017749
-0.11795432 -0.04350101 0.06656046 0.044546798 0.06152751 -0.06423449 -0.07704013 -0.035130244
-0.04508744 0.04411694 0.048661526 -0.03663599 0.0036707777 -0.05568175 -0.036358055 0.0568773
-0.043683544 0.011291133 0.010043046 -0.08377084 -0.06743739 -0.027405702 -0.10437232 -0.06401417
0.047070075 0.05146573 -0.119099416 0.039522815 0.06070941 -0.047335938 -0.005631699 -0.062338304
-0.052212223 -0.030615374 -0.049862433 0.059647694 -0.077014714 -0.054373052 -0.036889564 -0.00091278483
0.034884945 0.05903883 -0.038294446 -0.065818615 -0.020894647 -0.009091955 0.04066907 0.07020617
-0.026837727 -0.030634642 -0.10763965 -0.06786897 -0.067501254 -0.032960635 -0.022822417 0.025944497
-0.021802254 -0.035207488 0.08794593 -0.010662802 -0.033849243 0.08037507 0.0127939675 0.027935943
-0.016372249 -0.01766476 -0.01566666 -0.01094798 0.024098026 -0.061702188 -0.10026255 -0.0735466
-0.08000116 0.016718915 -0.04502912 0.0012146418 0.06418325 0.037736285 0.014408617 0.012949735
0.014491326 -0.040233392 -0.007733885 -0.009462133 -0.01365886 -0.07401948 0.016340066 0.0025060573
0.022548817 -0.027036756 0.04472681 0.01788808 -0.04253797 0.074841686 -0.071324095 -0.07077959
-0.06083221 0.0508226 -0.03043562 0.056894016 0.0145929335 -0.0353778 -0.056100443 -0.07581651
-0.03354297 -0.04513712 -0.046514247 0.04041451 0.06224566 -0.029060723 0.05907486 0.04139957
0.0048063626 0.037568018 0.08451984 -0.051020313 0.019417401 -0.0075219353 -0.03780273 -0.09003842
0.065488845 -0.048549064 0.032096997 -0.12500177 0.09933621 -0.023884835 0.046996377 0.07045101
0.07342631 -0.051426448 -0.08082033 0.07090528 -0.045359734 -0.027676137 0.031373166 -0.04521526
-0.010670851 -0.016414361 -0.058543764 0.029972335 0.007077652 -0.058447022 0.028439052 0.045497566
0.08058261 0.04459958 -0.063333794 -0.011665252 0.060037337 -0.014350986 -0.042425852 0.04521129
-0.020658558 0.014175619 0.06688719 0.09931452 0.053872757 -0.018551148 -0.12222561 -0.049130112
-0.02850103 -0.05668504 -0.0365126 -0.05256401 -0.047798675 -0.04800923 -0.07796948 0.03243897
-0.1618716 -0.044612985 -0.041093986 -0.022023153 0.08305986 -0.047599535 -0.015809378 0.058426477
0.010646928 -0.040576205 0.020108562 0.102673575 0.019654054 -0.048970543 -0.054165684 0.04094291
0.0005003552 0.019693179 -0.050893277 0.114000276 -0.014909218 0.09043446 -0.042480603 -0.059749566
0.0037734357 0.056054037 0.015530602 0.033535 -0.029268663 -0.10663909 0.01991317 0.07104028
-0.10982785 -0.02276053 0.059228927 0.0024882131 -0.008885425 -0.023734508 0.015710903 0.02362984
0.053393614 -0.0031134817 -0.068658486 -0.075980894 0.04363147 0.047096245 -0.009283326 -0.019005736

bias f4 [200]
00000000: 7157 873d b567 333d 4a8b 8b3c a952 71bd
00000010: 30b4 853c 3679 283d cb73 07bd c3a5 e8bc
00000020: 3b24 88bc c136 06bd 9c54 013d 197d b13c
00000030: a16e 7dbd cb2f 553d 52fa 34bd d32e 68bd
00000040: 5095 813d ce75 4c3d f4e4 eabc 4370 eb3c
00000050: a54a cbbc 8ac4 5d3d e158 3d3c d456 893d
00000060: d65f 863c f432 bdbc 1a64 b53c ba09 b8bc
00000070: 10b7 9abc cbde c0bc 72c2 273d 9137 87bd
00000080: fb08 b4ba b354 8d3d 1935 923d 21cf 83bd
00000090: 0b6c b43c 32cd 6ebd 2600 073c d656 553c
000000a0: e300 0e3d 8a9c 023c aa48 9bbc 4b4c 5ebd
000000b0: f3f2 f83c 3cfc 3a3c 62ea 23bd e792 263d
000000c0: f6d0 003d a342 7ebd 7861 943d 77d0 893b
000000d0: 7272 57bc 32db 723d 4722 89bc 0d8d 15bd
000000e0: 303a 4abc 3f7f 91bd 9c6e 1ebc 1bd8 743d
000000f0: a417 103d 638d ffbc 8f58 013d 1d74 9fbc
00000100: 0b65 81bd 1d4a a33c 86e6 5abc 427d 2fbd
00000110: bc36 04bd 9dff df3c ce10 bc3c ee00 77bd
00000120: d60d 6f3b f5e7 453d 3cb2 2fbb c44f 45bd
00000130: 18bc 5fbd 9c11 1a3d fa5f 31bd f1f6 333c
00000140: 6166 08bd 1a57 4bbd 89ff 043d f847 f13c
00000150: 65e8 563c 80ea 303c 199a 453d 2996 2fbd
00000160: 517b 79bd b2ec 243d 2106 13bd 1d6c 54bd
00000170: 3dca 6a3d a243 63bd e3b8 7b3d d083 af3c
00000180: 94e9 8b3b 68fe 073d faee 7a3d 046b 903b
00000190: c68d 90bd 991d e7bc cf3c 2ebc d48e 983b
000001a0: 7907 10bd 725d 3e3c 8ef1 31bc 9216 383d
000001b0: e690 733c b74e 7d3d d146 0dbc dd96 9bbc
000001c0: eecd 14bb f3a4 903d 233c 693d fffb dbbc
000001d0: c3bc 1a3d 0337 48bd 1f12 5ebc 9442 a0bc
000001e0: 92ef aabc 4bc5 023d 0ac0 59bd 1b74 563c
000001f0: 9db8 4cbc 96a2 2dbd 4e75 923c 6b03 b73c
00000200: 7cf5 2a3d 1242 17bb 5a35 72bd 825b 25bd
00000210: 7557 993b f941 343b 7396 13bd b7a5 2ebd
00000220: 89bc 34bd 7c07 e53c f42c 6a3d 7a14 08bd
00000230: 3440 e8bb 8615 31b9 dee2 343d 7cd0 bd3b
00000240: ce91 583d 6745 17bc b587 1e3d 99d4 ef3c
00000250: 4262 f43c 0f70 a1bb dcc5 9d3b bab8 15bd
00000260: e7dd 703d a7dd 3e3d 2f46 29bd 3554 0d3c
00000270: 7f6a 8abd 89d6 c23b d718 f33b 2583 943d
00000280: e96a 093d 7578 30bc 2aca df3b d53c 93bd
00000290: e00b 4fbb 9aae 23bd 36ef 71bd 9553 713d
000002a0: 8684 dd3c 51cc 69bd aaa2 083d 6854 2fbc
000002b0: 13b8 f7ba f6d2 64bd 8084 093d 8c6a fa3a
000002c0: 6dda 5f3c dfb1 fbbc 4ae5 88bd 384d d03c
000002d0: 9134 5f3d 5364 87bd d60f 25bd 70b2 8c3d
000002e0: 6ca6 773d 053b 7d3c 8ad3 b3bc 3222 edbc
000002f0: 6cf0 9a3c ec8b 2fbd bed3 d8bc 5ab8 243c
00000300: 53bf adbb ae2e 563c 5f38 d6ba fcc7 bbbc
00000310: a3ed 86bd e593 10bd 8b7f 003d 8b8b 7d3d
0.06608475 0.043800075 0.017034192 -0.05891672 0.016321272 0.04113122 -0.033069413 -0.028399354
-0.016618839 -0.03276706 0.03157483 0.021666097 -0.061873082 0.052047532 -0.044184037 -0.05668528
0.06327307 0.049917035 -0.028673626 0.028740054 -0.024815867 0.054142512 0.011556835 0.06706014
0.01640312 -0.023095585 0.022142459 -0.022465575 -0.01888612 -0.023543736 0.040956922 -0.06602395
-0.0013735587 0.06900921 0.07139034 -0.06435991 0.022024175 -0.05830116 0.0082397815 0.013021192
0.034668814 0.007971892 -0.018955547 -0.054271977 0.030389285 0.011412676 -0.040018447 0.04066744
0.03144928 -0.06207527 0.07245153 0.004205759 -0.0131498445 0.059291072 -0.016739978 -0.03651147
-0.012342975 -0.071043484 -0.009669926 0.059776407 0.035178795 -0.031195348 0.031578597 -0.019464547
-0.063181005 0.0199328 -0.013360625 -0.042844065 -0.03227876 0.027343566 0.022957232 -0.06030362
0.0036476753 0.048316915 -0.0026809117 -0.048171774 -0.05462274 0.03761445 -0.04330442 0.010984168
-0.03330076 -0.049643613 0.03247026 0.029453263 0.013116931 0.010798097 0.048242662 -0.042867813
-0.06090862 0.040264793 -0.035894517 -0.051860917 0.057321776 -0.05548442 0.06145562 0.021425158
0.004269788 0.033201605 0.061263062 0.0044072885 -0.07058291 -0.028212355 -0.010634615 0.0046556983
-0.035163376 0.011618959 -0.010860814 0.0449434 0.014866089 0.061842646 -0.008622841 -0.018992836
-0.0022705751 0.070627116 0.056942116 -0.02685356 0.037777673 -0.04888059 -0.013554125 -0.019562997
-0.02086619 0.031926434 -0.05316166 0.013089205 -0.012495187 -0.042391382 0.0178782 0.022340497
0.04173802 -0.0023080152 -0.05913291 -0.04037047 0.004679615 0.0027505143 -0.03603215 -0.042638507
-0.044125114 0.02795767 0.057171777 -0.033222653 -0.0070877317 -0.00016888054 0.04416167 0.0057926755
0.052873425 -0.009232855 0.03870364 0.02927618 0.02983201 -0.0049266885 0.0048148464 -0.036553122
0.058805373 0.046598103 -0.041326698 0.008626034 -0.06758594 0.0059459847 0.0074187326 0.07251576
0.033549223 -0.010770907 0.0068295198 -0.07189337 -0.0031592771 -0.039961435 -0.05906602 0.0589176
0.027040731 -0.057079617 0.033358254 -0.010701276 -0.0018899463 -0.05586525 0.033573627 0.001910524
0.013662917 -0.030724464 -0.066843584 0.025427446 0.05449349 -0.06610932 -0.040298305 0.06869972
0.060461447 0.015455966 -0.021951456 -0.02894697 0.01891347 -0.04285805 -0.026468154 0.010053718
-0.0053023486 0.013072653 -0.0016343704 -0.022922508 -0.06588294 -0.035297293 0.031371634 0.061900657

weight f4 [1, 200]
00000000: 84a9 973d aa23 803d 86bb 8a3d 3948 1fbd
00000010: f54c 6a3d ca27 bf3c 2d9a 61bd fe1f 8cbd
00000020: f50b 623d 1f19 05bd 8dd7 05bd 99e9 b5bd
00000030: 533a b03a 80eb b6bd c492 833d ee0e 56bd
00000040: 4e0a 6cbd 34ef 8c3d b6df 1abd 8024 7e3c
00000050: 187d 10bc 4c72 263d 5678 5ebd 6ce7 5abd
00000060: 8564 1337 6a7a 833d 43be 30bc dcf4 ca3c
00000070: abf3 413d 5f7f 7a3d b2fd ee3d 5bae 8f3c
00000080: 1e26 b2bd c83c a63d 0c27 183d baaf 95bd
00000090: ff1f 553d 8820 7f3d d74a 883d 25be 3dbd
000000a0: 1ab5 163c 703e 843d 6cbe 993c 6a15 3abd
000000b0: b29f e2bc a0a7 d5bd eee3 463d 0f47 50bc
000000c0: 4581 253d 3df7 d1bd 87c3 443d 4167 813d
000000d0: cb1b 9fbc 8db7 03bd dff6 293d 1029 6dbd
000000e0: 1a1a e2bc adb9 d3bc f2d2 23be 2835 8c3d
000000f0: 87d2 de3d 08c2 983d a419 ebbc 5bbb 3bbd
00000100: ee4a 7a3d c00c 8abd 5b4f c13c 9311 17bd
00000110: cdc6 c23d 0b66 513d d752 adbb a725 85bd
00000120: 5a5d 4cbd 0f24 4ebd 9dea b5bb 6b81 87bb
00000130: ca4e 983b 6327 9d3d f29a 28be 545f 4a3d
00000140: c24b a63d 6cde 633d 2d69 41bd 0a9c c7bd
00000150: 60a2 613d 1c70 863d 4a66 febc e855 573c
00000160: 3938 22be 3913 d2bd fc8a 163c c9b7 40bd
00000170: d01f 06bd 2a93 783d c0b3 b43d dc23 34bc
00000180: 5d75 72bd ee1e 0c3d 32b7 9fbd 6670 6dbd
00000190: e652 033d 665e ecba a16d 7f3d a269 a43d
000001a0: c15a 763d 4e80 223d a21a ad3c 413c 3f3d
000001b0: 3da4 4c3d 3fa7 eabc 5c2f 35bd c74e 793d
000001c0: f924 8c3c fcf6 b53d a992 ac3d 63ef 2fbd
000001d0: 8b55 80bd 7452 54bd 0c26 813d 5f45 c13b
000001e0: 06cf 9d38 6620 dcbc e057 98bc 61f0 7d3d
000001f0: d798 d1bd 7312 303a 777b 5cbc 3a22 623d
00000200: e28c 9a3d 4ca6 b53b 5e1f 42bd fe8e 163d
00000210: 3571 b03d 927d 813d fb4d 4e3d 3b44 10bd
00000220: 31f3 893d 3aaf 033d 2bf3 69bd fbe0 363d
00000230: 91fe 96bd 0d91 7e3d b54a 9a3d a5e4 42bd
00000240: da3e 6d3d 0320 0c3e 7f7d f3bc 9426 3bbd
00000250: 6225 a43d d7dd 9f3d f45d 813c a113 0a3d
00000260: d6cf 02bc fc18 49bd b435 4f3d 10af 52bc
00000270: 9cfb 6dbc a48c 1cbd f49d 5ebd b938 c4bd
00000280: d015 d8bc 93b6 3a3d 3985 b1bd 08ea 723d
00000290: 43c2 bd3d a432 8cbd 8f54 843c bae2 2a3d
000002a0: 9e79 3b3d 6464 44bc 3312 4a3d 27e2 703d
000002b0: bba3 19bd 6125 8b3d 0431 a33d 3036 46bd
000002c0: dfbd 3dbd e9c4 deba b3b2 bf3b 4b8b 99bd
000002d0: 21ca e2bd e3ab 903c 4ab8 f0bc 9992 913d
000002e0: c427 b73c c613 3cbc b32a 9d3d c0c5 0f3d
000002f0: 1edc 20bd a245 873d ceef 8d3d be62 4a3d
00000300: 79ac 02be d3fd 943d 7f76 efbc 8c17 0dbc
00000310: 82d6 353d 4cac 44bd d0ee 58bc ff04 6a3b
0.074053794 0.062568024 0.067740485 -0.038887236 0.0572023 0.023334403 -0.055078674 -0.068420395
0.055187184 -0.03249466 -0.03267627 -0.08882446 0.0013445116 -0.08931637 0.06424478 -0.05226033
-0.057627015 0.06881562 -0.037811004 0.015511632 -0.008818887 0.040636346 -0.05431398 -0.053443357
8.785287e-06 0.06419833 -0.010787549 0.024774961 0.04735152 0.061156627 0.11669482 0.017539194
-0.086986765 0.08117062 0.037146613 -0.07308908 0.052032467 0.062286884 0.066548996 -0.046323914
0.009198451 0.064572215 0.018767558 -0.04543058 -0.02766404 -0.104323626 0.048557214 -0.012712254
0.040406484 -0.10252235 0.048038032 0.06318522 -0.019422432 -0.03215747 0.0414952 -0.05790049
-0.027600337 -0.025845373 -0.15998438 0.06846076 0.10879999 0.074588835 -0.02869875 -0.045832973
0.061106615 -0.06740713 0.02359741 -0.036881994 0.095105745 0.051122706 -0.0052894163 -0.06501322
-0.049893714 -0.050327357 -0.0055516497 -0.004135301 0.0046480643 0.07673528 -0.16465357 0.04940732
0.081199184 0.05563204 -0.047219444 -0.09746559 0.055086493 0.06564352 -0.031054635 0.01314304
-0.1584176 -0.10257573 0.00918841 -0.04705027 -0.032745183 0.06068722 0.08823347 -0.010994878
-0.059193958 0.034209184 -0.077986136 -0.05796852 0.03206148 -0.0018033504 0.06236041 0.0802796
0.060145143 0.039673142 0.021130864 0.046688322 0.049961317 -0.028644202 -0.04423462 0.060866144
0.017107474 0.08884999 0.08426411 -0.042952906 -0.06266316 -0.051836446 0.06306085 0.0058981623
7.5249045e-05 -0.026870918 -0.01859659 0.06199682 -0.1023423 0.00067166163 -0.013457171 0.055208422
0.075464025 0.005543506 -0.047393195 0.03675746 0.086153425 0.06322779 0.050367337 -0.03522132
0.06735838 0.03214953 -0.05711667 0.04464815 -0.073727734 0.06215005 0.075337805 -0.047581334
0.057921268 0.13684087 -0.029722927 -0.045691088 0.08014943 0.078059845 0.01579187 0.033710126
-0.007984122 -0.049096093 0.050588325 -0.012859121 -0.01452532 -0.038220063 -0.054349855 -0.095811315
-0.026377589 0.045584273 -0.08667988 0.05930522 0.09265568 -0.068455964 0.016153602 0.04172013
0.04577028 -0.011986826 0.049333762 0.058809426 -0.03750966 0.06794239 0.07968333 -0.04839152
-0.046323653 -0.001699594 0.00585016 -0.07497271 -0.11073709 0.017660087 -0.02938475 0.071080394
0.022357829 -0.011479324 0.0767416 0.0351007 -0.03927242 0.06605078 0.06930505 0.049410574
-0.12761106 0.07274976 -0.029231308 -0.008611571 0.044394024 -0.048015878 -0.013240531 0.0035708544

weight f4 [200, 15]
00000000: 2576 c5be 07fa babb 4347 e03d 3a89 64be
00000010: 2977 853d 78f3 dabd c7f1 3bbd a20b fbbd
00000020: 5675 2e3d 440a ccbd 787c 203c f2e0 563e
00000030: 78bd f9bd 3b32 c0bc 30f6 5cbe 2e93 e0bd
00000040: b0d0 e53b d360 c63d 9cf8 22be 8626 18bd
00000050: 1047 493e e5e9 583e 7c12 b03d 80aa 793d
00000060: 341e 003d c2fd 32be 89ce 87be 20b8 40be
00000070: 4c67 623e 6e34 113e cfaa debd 2733 af3e
00000080: e5f3 d5bd 40e4 f83c f77c 9ebc ace0 bebc
00000090: a004 acbd bf15 753e 50df 5fbd 6e89 673e
000000a0: 3c0c f83d b058 e73d a3bf ecbd 307a bb3c
000000b0: 3076 6bbe 5300 ecbd 5f3a 94bd d5d1 093e
000000c0: 101e 323e 2e67 103e 2a60 1c3c 68cb 413e
000000d0: 8674 89bd 899d 86bd f455 903d 4ce9 623e
000000e0: cfb6 ba3d 2924 cb3d 7254 03be 6746 ef3d
000000f0: 03e9 ac3e b24f 93be 494a 3a3e 190e 3cbe
00000100: 1da6 3dbe 2707 7dbc 48df 4b3d 7c6e 053e
00000110: 2996 1fbe a680 0b3e a79a 1d3e d7ae 933e
00000120: 7081 b53c 2412 603e 08c5 8dbd 10c6 5dbe
00000130: 0b1d ae3d 4b7b 6fbe c80f b33c 0890 debd
00000140: 3597 0bbe 19b5 0f3e c486 9abd f23d fb3d
00000150: 947f 0abd ef98 33be b325 4cbd 4adb 5f3e
00000160: 3460 563e 7cca f5bd 3ba1 9abe a7a2 d73d
00000170: c220 08bc 45c6 5fbe 6aef 07bd dd0f 4f3d
00000180: 8280 f93d 7cbe fb3c 8c27 8a3c 6519 82be
00000190: 6293 6abd 2c3c 013e b596 87be 2ac0 ca3b
000001a0: f634 a5be 8c11 483d 1a71 4fbd 4470 703e
000001b0: 4f56 c2bd 5156 53be a377 003d d907 a3bd
000001c0: c8bb 193e 4bab 943d dc8d 283e dc45 f53d
000001d0: ad23 d13d eddd 0bbd 32d0 3b3e b366 6bbe
000001e0: 438a 2ebe e71f 3cbe f1cf bfbd b488 353e
000001f0: e6ed 2dbe 77dc 83be 745e 633d eb1a c8bd
00000200: 7d89 debd dd3f b33d 3e9c 5f3d c120 673e
00000210: 9e62 58be ce23 1b3e 6ff2 073e d08b 7abe
00000220: 95cf 113d 68d3 e73d bae4 383e 4b27 283e
00000230: 6eae c73d 8727 8bbe 4913 43be 4c90 83bd
00000240: bc78 06be 78c9 26be bcfe ddbd 4306 4f3e
00000250: cae0 2ebc e091 6dbe e0ab a13e bafa 45be
00000260: 3f78 70bc fe25 c53d 1e59 8cbe 1a7e 1abe
00000270: 58e5 123e e55c 733e 6639 313d 5385 113e
00000280: 4ee0 e2bd c098 313d 3af3 333e feac 563e
00000290: a85c 3d3d 174d a43e e495 52be d50a fa3d
000002a0: 1a4d 18be 590a 06be 9b7f f6bd 0253 11be
000002b0: 16a7 ae3d 0411 113a 8e7e ec3d 2922 f83c
000002c0: 777c 483e c839 1b3e 27f3 42be d9aa 05be
000002d0: d073 d0bd 98fc 273e 9a12 3fbc c90a ef3d
000002e0: b486 ff3d 0ae4 6a3e ab6a be3d 6eaf d43c
000002f0: 82b9 f23d da64 4fbe 82c3 543e cb17 78be
00000300: c8f5 153d 0828 0d3d 7a71 47be 7201 903c
00000310: 7d34 143e c3a2 833c 42a0 55be 15d3 883d
00000320: 39ce febd 4e48 f83d 97ac 0ebe 01fe 783e
00000330: 0c26 6bbe 025f 66be 6b77 183e 7baf 3d3e
00000340: d752 2bbe c477 56be 43ed ce3d fd3c a3be
00000350: a3d6 09bd b8e7 f13d 4635 dfbd ade5 e23d
00000360: 2634 51be 0c3a 44bd eb69 333e 2cff f5bd
00000370: acbc 1abd b7b3 5dbe 4442 fdbc 7584 89bd
00000380: 3f60 77be b7b5 e03d f7eb 04bd 6f33 8fbc
00000390: 3b2e 2c3b bdb9 133e 03b4 de3d f913 033d
000003a0: 1a69 003e 7415 cfbd 2a38 4c3e 2e53 f8bd
000003b0: 739c 503e e81f 3abd db0e febc 1ba0 0b3e
000003c0: 1c78 3d3b 960b 533e 021c f53d 98c1 dd3c
000003d0: 6db8 5d3e 1011 093c 13f6 84bd ed33 2f3d
000003e0: d460 243c 3aad 63be 3459 813e caef 263e
000003f0: 1c70 5ebd f3df a23c 1618 803e 35f3 57bd
-0.385667 -0.005706075 0.10951092 -0.22317973 0.065168686 -0.10690969 -0.045884874 -0.12258078
0.04259237 -0.099628955 0.009795301 0.20984247 -0.121943414 -0.023461452 -0.21578288 -0.10965572
0.007013403 0.096864365 -0.1591515 -0.037146114 0.19656014 0.21182974 0.085972756 0.060953617
0.031278804 -0.17479613 -0.2652476 -0.18820238 0.22109717 0.14180157 -0.10872423 0.34218714
-0.1044691 0.030382276 -0.019346697 -0.023300491 -0.0839932 0.23934077 -0.054656327 0.22611019
0.121117085 0.11296213 -0.11559989 0.022885412 -0.22994304 -0.11523499 -0.07237696 0.13458951
0.1739428 0.1410186 0.009544412 0.1892525 -0.06711678 -0.06573016 0.07047644 0.22159308
0.09116899 0.099190064 -0.12825182 0.1168335 0.33771524 -0.2877174 0.181924 -0.18364753
-0.18520398 -0.0154436 0.049773484 0.13030428 -0.15584625 0.13623294 0.15391026 0.2884433
0.022156447 0.2188192 -0.06922346 -0.21657586 0.08501633 -0.23386876 0.021858111 -0.108673155
-0.136319 0.14033927 -0.07545236 0.122676745 -0.033813074 -0.17538808 -0.04984064 0.21860996
0.20935136 -0.120015115 -0.30201134 0.1052907 -0.008308591 -0.21852978 -0.033187307 0.050552238
0.12182714 0.030730478 0.01686456 -0.2541 -0.05726946 0.1262061 -0.26482168 0.0061874585
-0.32266968 0.04884486 -0.05064497 0.23480326 -0.09489118 -0.20638396 0.031364094 -0.07960481
0.15013039 0.07259234 0.16460365 0.11976215 0.10211883 -0.03414719 0.18341139 -0.22988395
-0.1704493 -0.18371545 -0.093658336 0.1772793 -0.16985282 -0.2575414 0.05551 -0.09770759
-0.108660676 0.08752415 0.054592364 0.22571088 -0.2113137 0.15150377 0.13276075 -0.24467397
0.035598356 0.113196194 0.18056002 0.16421239 0.09750067 -0.27178594 -0.19050325 -0.06424007
-0.13131994 -0.16287792 -0.10839602 0.20217232 -0.010673711 -0.23200178 0.31576443 -0.19333926
-0.014677106 0.09626387 -0.2741174 -0.15087166 0.143453 0.23765905 0.04326763 0.14211015
-0.11077939 0.043358564 0.17573252 0.20964429 0.046230942 0.32090065 -0.20564991 0.12209097
-0.14873162 -0.13089885 -0.120360576 -0.14191821 0.08527963 0.00055338466 0.11547576 0.030289726
0.1957873 0.1515876 -0.19038068 -0.13053454 -0.101783395 0.1640495 -0.01166215 0.11671979
0.124768645 0.22938552 0.09297689 0.025962558 0.11851789 -0.20253316 0.20777705 -0.24227826
0.03661135 0.034462005 -0.19476882 0.017578814 0.14473148 0.016068822 -0.20861915 0.06680886
-0.124416776 0.12123166 -0.13933025 0.24315645 -0.22963732 -0.2249718 0.14889304 0.18523972
-0.1673082 -0.20944124 0.10103848 -0.31882468 -0.03365196 0.11811775 -0.10898833 0.110789634
-0.2043005 -0.04790692 0.17520873 -0.12011561 -0.037777588 -0.21650587 -0.030915387 -0.06714717
-0.24157809 0.10972159 -0.032451596 -0.01748058 0.0026272673 0.14426322 0.10874178 0.03200147
0.12540093 -0.10111514 0.199433 -0.1212524 0.2037218 -0.045440584 -0.031012943 0.13635294
0.0028910702 0.20609888 0.11968233 0.027069852 0.21652384 0.008365884 -0.064922474 0.04277413
0.010032851 -0.2223405 0.2526337 0.1630241 -0.054306135 0.019882178 0.25018376 -0.052722175

bias f4 [200]
00000000: 0352 583e 922d 673b 417b f1bd 72d6 aebd
00000010: 2ab3 0ebe d8bd c0bd 86ef 253e 696f 393e
00000020: 9da7 31be 4623 833b c1ef 8f3d 1986 413d
00000030: 4704 4e3e 01f9 7dbe 673f 9c3d 56c6 13be
00000040: 294a 5abe 57f9 fbbc 65b6 793d a15a 4f3d
00000050: 8d53 283d 9140 47bd e038 90bd 57ae 54bd
00000060: cb4f e5bd dd01 4b3e 0669 373e 65b5 23bd
00000070: ed9b a9bd 03c4 3d3d 180f 1cbe d20d 193e
00000080: 3f73 623e 4061 233e 8b68 193e 1998 b33d
00000090: 99e9 533c 0dad 80be 54c5 51be c6e8 e93d
000000a0: 88e8 80bc cd49 ecbd bb97 8b3d 759c 4d3e
000000b0: a1fd a13c b628 fdbd ce56 843d 97e0 17be
000000c0: 6522 80bd 8466 0cbc a4fb 60be d525 113e
000000d0: 75f9 8a3d ee06 0abe fca7 54be f12a 433e
000000e0: 39b1 5bbe f64a c23d 09e6 103e 3c29 a2bd
000000f0: b0bf ef3d c1d2 31bd 926b 143d 50b0 86be
00000100: 825e 97bd 516e 523e 5fa3 e4bd a50d 263e
00000110: a7f1 b73d 20cf 333d eb4a 743e 5f62 dcbd
00000120: 2b0a 87be dcdf c13c 8624 44be bd81 163c
00000130: 0433 8a3d 3901 3fbe 075b 4c3e 1cef 03be
00000140: e582 e3bd 675f bc3d 0d57 b13d 7ef9 853e
00000150: 8a6d 4dbd 3e97 7b3e 2852 c03d 9322 43be
00000160: 3d7e 1d3e 785d f2bd 253d 833e 002a d53d
00000170: 0d7a bb3d 8cc4 6cbe 940b 1bbe d043 c1bc
00000180: 83a1 6abe 1f60 063e bd8e 89be 6f7b 4b3e
00000190: ebe4 2f3e d0f4 043e e22c 7b3e f0f3 e0bd
000001a0: e19a 0cbe 0599 1a3e 6bee 453d 4642 0a3e
000001b0: c41f d53c 0d04 68bd 3caa 413d 2c9e 223e
000001c0: 5dac 3a3b 5f05 273e 2cc1 7c3e 23d3 bd3d
000001d0: 9fbd 423d 1c02 7b3d 4043 d53d 7c63 f0bc
000001e0: ea71 f3bd 2a16 3e3e 4a89 61be a8c6 a83a
000001f0: 36d6 923d f4a0 2dbe 5b2e 803e 1ac0 8e3d
00000200: eeff 243e 58e2 453c dac5 b4bd 843b 28be
00000210: bf90 27be 67e4 1e3e 96dd 6ebe a555 383e
00000220: 71e7 73be a430 a1bd 2bd6 87bd 6e33 54bd
00000230: 3cff 70bb 9cba 87be d720 173e fdd2 8b3d
00000240: 5769 b83d 30a5 17be 9784 b2bd 7a7b 48be
00000250: 8653 bfbd 66d1 913d d4e0 87be 7e6c 213e
00000260: 8f99 783c 1f0c 2c3d 879a 08be ae83 793e
00000270: b592 9f3d 9a8e 413e cc9a 0c3e 7e27 8ebe
00000280: dd14 20bd b05e a7bd 0cad 22be 005b 173d
00000290: fba6 ea3d 0a3b ddbd 29c3 4ebd 3c62 533e
000002a0: c82b 6dbe ef1e 3e3e 7ad2 c0bd 3c3d 2f3e
000002b0: 0f7f 363e 57d8 edbb 0286 573d e89f 453e
000002c0: 3608 1e3e 26c7 d63d 2e6f 1cbd e984 253e
000002d0: 271a 08bd 5447 b13c 345e f03d 4b2f b2bd
000002e0: 9290 30be 772b 0b3e 985d 5c3e 6fc1 18be
000002f0: ee07 32be 8398 093e e526 e0bd 724b 05be
00000300: 9ef6 4d3e 2567 5cbd 0c6f da3d 3796 4d3e
00000310: ab54 763e 073b 4fbe e064 dfbd b5ab 07be
0.21125035 0.0035274965 -0.11791087 -0.08536996 -0.13935533 -0.0941121 0.16204652 0.18108906
-0.17349096 0.0040020077 0.07028151 0.047247026 0.20118819 -0.24802019 0.076292805 -0.14431128
-0.21317352 -0.030758543 0.06096496 0.05062354 0.041095305 -0.04864556 -0.07042098 -0.051924076
-0.1119686 0.1982493 0.17911157 -0.039967913 -0.082816936 0.04632951 -0.15240133 0.14946678
0.22114275 0.15955067 0.14981286 0.08769245 0.012934112 -0.25132027 -0.20485431 0.11421351
-0.01573588 -0.11537514 0.0681605 0.20079215 0.01977426 -0.123612806 0.06461869 -0.14831768
-0.0625656 -0.0085693635 -0.21970993 0.14174588 0.067858614 -0.13479206 -0.20767206 0.1905935
-0.21454324 0.09486954 0.14150251 -0.07918021 0.11706483 -0.04341388 0.0362354 -0.2630639
-0.07391073 0.20549895 -0.11163973 0.16216142 0.089816384 0.0438987 0.23856704 -0.1076095
-0.26374945 0.023666315 -0.19154558 0.009186205 0.06748012 -0.1865281 0.19956599 -0.12884182
-0.111089505 0.09197884 0.08659182 0.2616691 -0.050153293 0.24569413 0.0939067 -0.19056158
0.15380187 -0.11834234 0.25632587 0.104084015 0.09154139 -0.23121852 -0.15141135 -0.023591906
-0.22913174 0.13122605 -0.26866713 0.19871305 0.17177169 0.12984014 0.2452884 -0.109840274
-0.13730957 0.15097435 0.048323076 0.13501844 0.026016124 -0.056644488 0.04728149 0.1588065
0.0028484084 0.16310643 0.24683064 0.09268787 0.047544118 0.06128131 0.104132175 -0.029344313
-0.11886962 0.18563142 -0.22025028 0.0012876587 0.07169764 -0.1695593 0.25035366 0.06970234
0.16113254 0.01207789 -0.088268 -0.16428953 -0.1636381 0.15516816 -0.23326716 0.18001421
-0.23818757 -0.078706056 -0.06632646 -0.05180686 -0.0036773225 -0.2650956 0.14758621 0.06827352
0.09004467 -0.14809108 -0.08716696 -0.19578353 -0.09342103 0.07120018 -0.26538718 0.15764043
0.01517333 0.042003747 -0.13340198 0.24366638 0.07791654 0.18902054 0.13730925 -0.27764505
-0.039082397 -0.08172357 -0.15886325 0.03695202 0.1145763 -0.108022764 -0.050479088 0.20642942
-0.23161232 0.18566488 -0.09415145 0.17113203 0.17821907 -0.0072584557 0.052618034 0.1929928
0.1543282 0.10487203 -0.038191967 0.16163982 -0.033228066 0.021640457 0.11736718 -0.08700427
-0.17242649 0.135908 0.21520078 -0.14917539 -0.17385837 0.13437085 -0.109449185 -0.13017061
0.20113608 -0.053809304 0.10665712 0.20076834 0.24055736 -0.20237361 -0.10907912 -0.13249095

weight f4 [200, 200]
00000000: f171 6bba a0c3 14bd 0e98 c23c e8d1 0b3d
00000010: b6fc 903d 7461 aabd d2db 2ebe a000 83bd
00000020: 0752 e13c b7e1 033c f94e d5bb 0302 2b3c
00000030: 29c3 1c3d 3358 903d 2a5a cc3d cf18 5f3c
00000040: e526 6c3d 571d aebc 9988 e23c 9841 d6bc
00000050: db11 d5bd 1392 1ebd 63bf abbd e99c 513d
00000060: 3061 813d 59cc 98bd 4c2c 02bc 4a18 6e3d
00000070: a3c2 56bd af4e 23bc 98f2 0cbd f3eb 2ebd
00000080: 2a5d aebc e172 743d 7580 8a3d b64d 9d3d
00000090: f7ab 07bd bae7 593c 20fc 29bd db9d 1c3d
000000a0: 8f37 85bb 3a24 a2bc 41d5 3fbd 0216 45bd
000000b0: f529 3b3d 124e 31bd 4cdf 17bd ce30 e9bc
000000c0: 1a5f 803d 2309 593d 771c ac3d 15be f73c
000000d0: 0d7a 033d 6e38 43bd 3b7b 15bd d1d9 aabd
000000e0: 7d00 bbbc c863 a7bd 3337 773d d978 39bd
000000f0: f786 acbc abac 21bd c328 6fbd b37f bd3c
00000100: e892 f8bd 0e45 2c3d 60a3 1bbd 838e 7b3c
00000110: 4e7e 56bd 156b 473d 61f7 773c e2c6 623d
00000120: 81b0 7abd d751 c5bb 684c 0c3d 8d94 603c
00000130: 94da 613d ae54 693b 9057 f63c c2db 85bd
00000140: 0090 33bd 792c a43d 4e67 a73d 8737 78bd
00000150: abc2 193d 7d4d 6e3d 6803 0c39 48a8 313d
00000160: e58d 8b3d 5b82 803c 123a 783d ca25 8d3c
00000170: 884b 38bd 80ce c0bd ce67 c73d 41b0 c9bb
00000180: 15c5 81bb 38aa ff3c 861c 74bd 0686 90bd
00000190: b902 c8bb 5036 a53d 45b2 75bc 8d2a 6cbd
000001a0: 7768 ef3c f39c 893d 9ac5 37bd d804 57bd
000001b0: ca41 54bc b689 3ebc 30ad 043d c1d8 03be
000001c0: c680 0d3d aef5 9e3d f85c eabc c6de 983a
000001d0: 0e1d 4abc ffdd 843d 95cc 613d 04da 4d3d
000001e0: 00f3 7d3d 7c05 3cbc b8a1 a53d 53b8 723a
000001f0: 08bc 7b3d 15eb c9bd 6148 2f3d e7cb 88bd
00000200: ed44 90bd a2ac 27bd 0146 ed3c f358 2b3d
00000210: 4327 21bd 6bca 8b3c e38d f4bc 46f4 33bd
00000220: 45e9 11bd 3aa5 123d 75d8 22bd f63f 8e3d
00000230: a1ce f7bc b0dc aabc 8813 f63b 5bd1 12bd
00000240: 7b51 35bd de24 a4bc 75b6 193d 0a89 8d3c
00000250: 3732 c0bc 2295 39bd 8587 98bc cbd8 c4bc
00000260: 58e2 85bd 63ec b2bd 9f5b d1bc 3382 caba
00000270: bb4c 883c cb87 efbd 2bae 16bd a3da 37bc
00000280: 98d8 343d c54c 573d ef01 523d 5190 e53c
00000290: 17c4 88bc 33cc ff3a e367 473c 7698 0fbc
000002a0: b07f 893d dfbf 6dbd 8ae4 2a3d 66d9 20bd
000002b0: 336f b2bd 26a0 1bbd a1f0 75bd e444 a2bc
000002c0: 9b21 17bd 0deb 91bd e390 07bc b5fc 773d
000002d0: 7f4a 8ebc e7e7 83bc 84a8 a83d 47ac 81bd
000002e0: 77ad 133c ea10 2abe e3af 60bd 3c09 bd3b
000002f0: e332 5abd 1b51 c53b 3142 8f3c 12d7 d1bd
00000300: 32eb 693d ac8e 0d3d 9270 823d 6e45 56bd
00000310: a68d 10bd dddd 69bd 8eba 49b9 aeda afbc
00000320: 207b f83c 262c c3bc 81f1 36bd 0974 41bd
00000330: 2a33 3e3d 6081 8a3d 2cce 1d3d e6d2 8fbd
00000340: bc56 85bc 0352 97bd 8825 35bd e90e 54bd
00000350: 7d72 763d 6248 8a3d 02f2 f73c 1502 8a3c
00000360: 6d8e 95bd 3ab6 333c b58a 2abd 5a7a aa3b
00000370: 5cf8 69bd 188a fb3c 6e2c 453d 6ad8 1e3d
00000380: 8dc7 d2bc 2e0c 803c 76b7 77bd c62f 15bd
00000390: 50ad 153d 409e a33c b321 6bbc 1095 893d
000003a0: d6f1 74bd 22b4 04bd f715 a8bc 7513 7a3d
000003b0: 48c5 6e3c 07e0 83bd 2966 62bd d343 31bd
000003c0: 320f 98bc 150a 74bd d519 47bd a5b7 4b3d
000003d0: 26a7 61bd e39c f5bc c375 1f3c f8e1 1dbd
000003e0: 0a19 5bbd 5b12 c1bc 85f5 493d b283 2f3d
000003f0: 7765 373d 9210 36bd 1ec9 223d c73b 24bd
-0.0008981517 -0.036319375 0.023754146 0.03413573 0.07079451 -0.08319369 -0.17076042 -0.063966036
0.027504934 0.00804942 -0.0065096584 0.010437491 0.038272057 0.07048073 0.09978135 0.013616755
0.05765428 -0.021254225 0.027653025 -0.026154324 -0.10403796 -0.038713526 -0.083861135 0.05117503
0.06317365 -0.07460851 -0.0079451315 0.058128633 -0.052431714 -0.00996749 -0.034411043 -0.042705487
-0.021284658 0.05967987 0.067627825 0.07680838 -0.033122983 0.013299877 -0.04150021 0.03823648
-0.004065461 -0.019792665 -0.046834234 -0.04811669 0.04569431 -0.043287344 -0.037078187 -0.028465655
0.06268139 0.05298723 0.08403867 0.030242005 0.03209882 -0.047661237 -0.036494475 -0.083423264
-0.022827381 -0.08173329 0.060355376 -0.045281265 -0.02106045 -0.03947131 -0.058388483 0.02313218
-0.12137395 0.042058043 -0.037997603 0.015353802 -0.052366547 0.048686106 0.015134663 0.05536545
-0.061203483 -0.006021719 0.034252554 0.013707292 0.055140093 0.0035603452 0.03007105 -0.06536056
-0.0438385 0.08016295 0.08174001 -0.06059983 0.037539165 0.058179367 0.0001335271 0.043373376
0.068141736 0.015687158 0.060602255 0.017229933 -0.044993907 -0.09414387 0.09736596 -0.0061550443
-0.0039602616 0.031209096 -0.059597515 -0.07056813 -0.00610384 0.08067 -0.014996116 -0.057657767
0.029224617 0.06719389 -0.044866182 -0.052494854 -0.012955138 -0.0116295125 0.032391727 -0.12875654
0.034546636 0.077617034 -0.028608784 0.0011663071 -0.012336029 0.06487655 0.055126745 0.050256744
0.06199932 -0.011475917 0.08087486 0.0009259034 0.061458617 -0.098592915 0.042793635 -0.06679516
-0.070443965 -0.04093612 0.028964045 0.041832875 -0.039344084 0.017064294 -0.029852813 -0.04393413
-0.035622854 0.035802104 -0.03975721 0.06945793 -0.030249896 -0.020857185 0.0075096525 -0.03584419
-0.04426716 -0.02003711 0.03752752 0.01727726 -0.023461444 -0.04530824 -0.018619308 -0.024029156
-0.06537312 -0.087364934 -0.025556384 -0.0015450179 0.01663815 -0.11695822 -0.036787193 -0.011221561
0.044151872 0.052563448 0.051271375 0.028022917 -0.016695065 0.0019515812 0.012170765 -0.008764377
0.067138076 -0.05804431 0.041721858 -0.039269827 -0.08712616 -0.037994526 -0.060043935 -0.01980824
-0.036897283 -0.071249105 -0.00827429 0.060543735 -0.017369507 -0.01610179 0.08235267 -0.063316874
0.009013525 -0.16608015 -0.05485524 0.005768923 -0.053271186 0.0060216314 0.017487617 -0.102460995
0.057109065 0.03455989 0.06369127 -0.052312307 -0.035291336 -0.05709635 -0.00019238351 -0.02146658
0.030332148 -0.023824763 -0.04466391 -0.0472298 0.046435513 0.067629576 0.0385267 -0.070226476
-0.01627671 -0.07388689 -0.044225246 -0.051772032 0.06016778 0.06752087 0.030266766 0.016846696
-0.07302556 0.010968739 -0.041636188 0.0052025737 -0.05712162 0.030705497 0.048138075 0.038780607
-0.025729919 0.015630808 -0.060477696 -0.036422513 0.036542237 0.01997292 -0.014351296 0.067178845
-0.059800945 -0.03239835 -0.020518286 0.061053712 0.014573403 -0.06439214 -0.05527321 -0.043277573
-0.018561933 -0.059579927 -0.04860862 0.049735684 -0.055091046 -0.029982036 0.009732666 -0.03854558
-0.053490676 -0.023568323 0.04930641 0.042850204 0.0447745 -0.044449396 0.03974258 -0.04009607

bias f4 [200]
00000000: 02e1 44bd 81aa fa3b ac99 43bd aeaa aa3c
00000010: ecb6 363b a1ae abbc bcb4 9ebd c702 fb3c
00000020: 5b07 5f3d c52b 93bd 8723 213d 5555 803d
00000030: e6e1 d2bc 2c21 bfbc e008 79bc e303 cbbc
00000040: 91e7 973c b8de 63bc e4b9 d83c 16be 203d
00000050: c1b0 3ebb 4b63 e33c 0ee6 12bc 2791 843d
00000060: 23c5 26bd ba3a 87bd 35d6 59bd 58e4 023c
00000070: 0a96 67bd 34a3 31bc 23b3 05bd a8d1 1c3c
00000080: b614 993d 6fea 1fbd ba8d 4a3d 5293 15bd
00000090: f8ed e93c 250b 63bd a49b 91bc da98 893d
000000a0: 6341 fa3a f222 3c3d ed3f b93c bc20 c5bb
000000b0: 8765 0c3b 6806 96bd e7f7 2dbd ff3a 123d
000000c0: 5789 22bd eef9 5a3c 03ab 75bd 6406 4d3d
000000d0: fbc7 1fbd 54f1 15bd 191d de3a 5845 313d
000000e0: 8b87 673d 5c6d c73a be6f 8e3c f4b5 8bbd
000000f0: 77c5 8a3c b954 94bd 3a90 b03d dd6a 303d
00000100: 4d55 7e3c dfe9 77bd e16a 42bd 8aee 713d
00000110: e038 553d 0ff0 ecbc b6e3 473d 920e 92bd
00000120: 69d3 1b3d 17e2 3dbd bd2b 6dbd 7691 8dbd
00000130: 6415 563d 7b8d ffbb 2029 e4bc 548f 2cbd
00000140: 675e 563d 1fda 90bc fcea 5a3c 176f 1a3c
00000150: d03d 4fbd c9bc 9bbd f728 51bc 85a9 8abc
00000160: 8e41 af3c f35e c4bc 11f7 63bd b325 bc3c
00000170: 0b2a 953d 7da9 27bd 7918 a0bc bb92 c73b
00000180: ab93 003a cda1 72bd edc0 c3bc 3cbb 2abd
00000190: a58c fe3c f5d9 c3bc c96f aebc fb5d 31bd
000001a0: 4991 b43d 4671 4e3d 6bd7 783d f5af 61bd
000001b0: 81a3 2f3b 680d 89bd aef0 283d f5f8 ee3b
000001c0: 4645 09bd d71b 5abd ebca 643d 269d 12bb
000001d0: bcfe 7d3d 1caa a2bb 0f2d 1abd 0f9b 593d
000001e0: c748 2a3d 09d7 b43c c286 e13c 7cbf 2dbd
000001f0: d6a8 973c 9684 aabc f44c 5eba d765 7fbd
00000200: 16d5 45bd 4056 9cbc 23b3 af3c 6903 633b
00000210: 661b 253c 3b6c c53c 70bd a83c 489f 69bb
00000220: 43d9 123d cbbb d4bc 46e7 a3bd 57c6 c3bc
00000230: b042 3bbd 1b7a 96bd cf38 a93c 3700 4fbd
00000240: e08c 4fbd 7c1e a73c 82a7 5e3d 545a 20bd
00000250: 75f2 a63d 805b 4ebd 320e 83bd 7dff 4ebd
00000260: 8779 9a3d aa04 f7bc 5759 7b3c f6a9 873d
00000270: 0865 bf3c d81e 0d3d a642 25bd 5aaf 3abd
00000280: 6965 0a3c 77e7 833d 0b6a ac3d 0275 77bd
00000290: b4b0 e93c 65da a1bd 0673 08bd cec5 e0bb
000002a0: 999d 253c 7f9f 2ebd 5eff 083c a074 803d
000002b0: 67e0 523d e5da e53c baa7 0ebd 4a4f 403d
000002c0: 6133 5ebd 8072 5fbd 7252 fe3c 98c7 e8bc
000002d0: 97e5 a23c c114 8cbd b2ae 40bd bd1d a23b
000002e0: 9375 033d 4621 e5b8 84ea 40bd 3562 80bd
000002f0: 2732 733c 049d 8d3d 22c5 0a3c fae2 793c
00000300: 7e31 a0bc ecdd 4c3d 28e7 34bc e2fd 11bd
00000310: bd29 01bd fa6a 56bc 2273 e1bc 2fa8 a3bc
-0.048066147 0.00764972 -0.047753975 0.02083334 0.0027880026 -0.020957293 -0.07749316 0.030640973
0.054450374 -0.07186083 0.039340522 0.06266276 -0.025742482 -0.023331247 -0.01519987 -0.024782127
0.018543037 -0.013908081 0.026455827 0.03924378 -0.0029097053 0.027757308 -0.008965982 0.06472998
-0.040715348 -0.06602998 -0.0531828 0.007989012 -0.056539573 -0.010842133 -0.03264154 0.00957147
0.074746534 -0.039041933 0.049451567 -0.03651745 0.028555855 -0.05543055 -0.01777441 0.06718607
0.0019092973 0.045931764 0.02261349 -0.006015865 0.002142282 -0.07325441 -0.042472746 0.035700794
-0.03968176 0.013365252 -0.059977543 0.050054923 -0.039009076 -0.0366071 0.0016945928 0.043279022
0.05652575 0.0015215087 0.017387267 -0.06821814 0.016939862 -0.07242722 0.08621259 0.043070663
0.015523267 -0.06052577 -0.04746521 0.05906538 0.052056193 -0.028923063 0.048801146 -0.07131685
0.038043413 -0.046358194 -0.05790304 -0.0691251 0.052266493 -0.007798848 -0.027851641 -0.042128876
0.052336123 -0.017682133 0.013361689 0.0094259 -0.05059606 -0.07604367 -0.012766114 -0.016926536
0.021393564 -0.023971057 -0.055655543 0.022967195 0.0728341 -0.04093312 -0.01954292 0.0060904897
0.0004904817 -0.059236336 -0.023895705 -0.041682467 0.031072924 -0.023907641 -0.021293538 -0.043302517
0.088167734 0.050400995 0.060752314 -0.055099446 0.0026800337 -0.0669201 0.041245155 0.0072928616
-0.03351333 -0.053249206 0.05585758 -0.00223715 0.06201051 -0.0049641263 -0.037640627 0.05312639
0.041573312 0.022075193 0.027530078 -0.04241894 0.018513124 -0.020815175 -0.0008480095 -0.06235298
-0.048298918 -0.019084096 0.021447724 0.0034639484 0.010077333 0.02409946 0.020598143 -0.0035647918
0.03585173 -0.025968453 -0.08003096 -0.023898287 -0.045717895 -0.073475085 0.020656971 -0.050537314
-0.05067146 0.020400278 0.054358967 -0.039148644 0.08151714 -0.05038023 -0.06399192 -0.05053662
0.07542711 -0.030153591 0.0153411245 0.06624214 0.023363605 0.034453243 -0.040346764 -0.045577385
0.00844703 0.06440633 0.084186636 -0.06041432 0.028526641 -0.079029836 -0.03331282 -0.0068595177
0.010108375 -0.042632576 0.0083616655 0.062722445 0.051483538 0.028058479 -0.034827925 0.046950616
-0.054248217 -0.054552555 0.031045172 -0.028415486 0.019884868 -0.06839896 -0.047041602 0.0049473927
0.03209455 -0.000109257686 -0.04709865 -0.062687315 0.0148435 0.06914714 0.008469852 0.015251869
-0.01955485 0.05001633 -0.01104144 -0.035642512 -0.031533945 -0.013087029 -0.02752072 -0.019977657
