Vehicles/Mod_02_03/Mod_02_03_actor_target.pth (torch, 176451 bytes, 5 tensors)

weight f4 [200, 14]
000000 2e d9 c2 be 87 18 86 3e c1 4c f9 be 01 2a 0f bf
       -0.3805632 0.26190588 -0.4869137 -0.5592347
000010 bc e2 bb 3e 7d ea 95 3e 3d 68 09 bf c2 0a 7b be
       0.36696422 0.29280463 -0.5367468 -0.24515823
000020 a5 e6 62 3e 49 68 61 bd 1a aa 19 be 90 12 47 3e
       0.22158296 -0.055031095 -0.15006295 0.19440675
000030 46 5d ad bd 86 0b b1 be ac d6 c1 3e dd 70 ed bd
       -0.08465056 -0.34579104 0.37859094 -0.115937926
000040 0f 63 71 be 4e ac 68 3e 2d d3 24 3d ae a6 92 be
       -0.23572944 0.22721979 0.040240455 -0.28642792
000050 7b 67 6a bf d1 fd 49 bf a7 be 24 bf f2 8f e0 3d
       -0.9156415 -0.7890292 -0.6435341 0.109649554
000060 15 7e 89 be 38 40 4a 3e 3b 3c 6c be ec ee b2 be
       -0.26854005 0.1975106 -0.23069851 -0.34947908
000070 87 a3 44 be c9 ec 2a be 6d 34 97 be 6f 7b 4e 3e
       -0.19203006 -0.16691889 -0.29532185 0.20164274
000080 d4 9a 36 3e 64 b4 c5 3e 31 4e ea be d9 21 2c bf
       0.178325 0.3861419 -0.4576278 -0.6723915
000090 18 66 9a bf ae b5 99 3e bc 31 13 3e 19 4c f8 3c
       -1.2062407 0.30021423 0.14374441 0.030309724
0000a0 69 85 08 3e 11 9a 42 3e c9 52 1c be 94 41 e2 3d
       0.13332142 0.19004084 -0.15265955 0.11047664
0000b0 88 be c1 be 22 75 15 3f 6d 07 12 3c e5 e1 a3 3e
       -0.37840676 0.58381855 0.008912903 0.3200828
0000c0 cb f4 af bd 0b 9a a3 be c9 49 b7 be 62 da 49 3e
       -0.085916124 -0.31953463 -0.3579848 0.19712213
0000d0 e8 1d 3d bf c7 b6 23 3d 08 77 55 bd 19 cc 1d 3e
       -0.7387376 0.039969232 -0.05211547 0.15409888
0000e0 fd 41 75 be b2 91 bb 3d 11 6e 02 3e 15 cc 3e 3f
       -0.23950954 0.091586486 0.127373 0.74530154
0000f0 1a 86 a0 3e 7a 12 7d be a0 94 c3 bd 2b dd 93 3b
       0.3135231 -0.2471408 -0.09549832 0.0045124493
000100 d4 7e a3 be 42 1a 26 bf d4 e4 8e bd 33 9f ac be
       -0.319327 -0.64883816 -0.06977239 -0.3371521
000110 f5 00 3c 3e 3c 0e b0 bd 54 f7 d4 be ce e7 05 3e
       0.1835974 -0.08596465 -0.41594946 0.13076708
000120 9d 35 d2 3e 86 ae 8e be 40 8f 81 be 5d 85 fe be
       0.4105653 -0.27867526 -0.25304604 -0.49711123
000130 aa a4 2e bf 49 f7 03 bf e6 1a 92 3e 0d a3 98 be
       -0.6822001 -0.515492 0.28536147 -0.29811898
000140 99 5e 15 be ec 0b bd bd 6e 68 d2 3e f1 44 b2 3d
       -0.14586867 -0.092307895 0.410953 0.08704556
000150 31 3a db be ee 0f e4 bd 4d 21 ba be 63 c5 ca 3e
       -0.42817834 -0.11135851 -0.3635353 0.3960372
000160 7d 4d 00 bf 25 da b9 bd 1d 37 5a 3d 6e c3 16 3e
       -0.5011824 -0.09074811 0.053275216 0.14722988
000170 7a cb b4 3e 02 57 95 3e 47 da bc be 76 b8 c3 3d
       0.3531149 0.29167944 -0.36885282 0.095566675
000180 7f 17 79 3e 28 58 37 3e 82 f1 6a 3e 1f b7 9d 3e
       0.2432537 0.17904723 0.2294369 0.30803773
000190 d9 da f3 be cb 9b f1 bd 21 6b e5 3d de 7b 19 3e
       -0.47627905 -0.11797293 0.11202074 0.14988658
0001a0 68 db 64 be ab b2 35 be 65 67 4b be 0b 9e 05 bf
       -0.22349322 -0.17743938 -0.1986366 -0.5219428
0001b0 a0 c1 de 3e ad 84 dc 3c a0 06 71 be 80 49 4c 3e
       0.435071 0.026918733 -0.23537683 0.19949913
0001c0 ce 1a 66 3e 88 39 ca 3e 36 50 e2 be 4d ed 04 3f
       0.22471163 0.39497018 -0.4420182 0.5192459
0001d0 c4 9b b2 be bd d9 04 3c 75 4f 57 be d1 40 0f be
       -0.34884465 0.0081085535 -0.21026404 -0.13989569
0001e0 fb 1a 9e 3e 59 a8 35 bf 36 e3 5e bf 81 5f ea be
       0.3087996 -0.70960003 -0.87065446 -0.4577599
0001f0 f7 19 6c 3d dc af dd be 23 86 55 3e 3e dc 00 bd
       0.05764195 -0.43298233 0.2085195 -0.03146004
000200 7e c0 8a be c0 25 0d bf 99 84 8e 3e 4e 6f 76 3e
       -0.27099985 -0.55135727 0.2783554 0.24065897
000210 88 ed db 3d f8 e4 2d bf f4 b0 91 be b1 f3 82 3c
       0.10738665 -0.67927504 -0.28455317 0.015985342
000220 8a 89 cd 3d 4d f5 a2 bd c6 fa d4 3c 1c 60 05 bf
       0.10035999 -0.07956944 0.025998484 -0.52099776
000230 b7 e2 e4 be d5 e8 c4 3e eb bf da 3d 48 24 18 3f
       -0.4470422 0.38458887 0.10681137 0.5943036
000240 cc e7 13 bd f4 f9 b7 be 74 6a 25 be f9 f0 84 bd
       -0.03610973 -0.35932887 -0.1615389 -0.064912744
000250 33 a8 b7 3e 16 a3 29 bf 53 e5 27 be 4f 3b 76 3d
       0.35870513 -0.66264474 -0.16396074 0.060115155
000260 55 5c ef 3d 23 78 91 3d 4c 9c 50 be 9f 7f ea 3e
       0.11687533 0.071029924 -0.20372123 0.45800492
000270 cf 29 55 bf 90 97 a8 be 0b f5 88 3e 50 59 d6 bd
       -0.8326692 -0.32928133 0.26749453 -0.10466254
000280 c0 e0 16 bd 99 98 f8 3e 19 9d 04 3d 36 0f 7c be
       -0.036835432 0.48553923 0.032376382 -0.24615178
000290 4a 52 36 3e 66 30 74 3e 7a a3 3e bd dc eb dd be
       0.17804828 0.23846588 -0.046542622 -0.4334401
0002a0 2c d7 da 3e 93 13 17 3f e8 8d ee be 3b c1 45 3d
       0.42742288 0.5901424 -0.4659264 0.048279982
0002b0 d3 f0 e8 be a9 36 2d be fc 40 d9 3e 42 37 24 be
       -0.45496234 -0.16915382 0.42432392 -0.16036704
0002c0 57 72 a0 3e 45 3a 28 be 15 f6 09 3e ee d8 71 be
       0.31337234 -0.16428478 0.13472779 -0.23617908
0002d0 56 ac 5b 3e 5c 7c 2b bc 9e 84 cf be 7d 5a 6a be
       0.2145246 -0.010466661 -0.40530866 -0.22886081
0002e0 0a 21 84 3c ed 0d 75 bf d3 93 49 be b6 a4 a3 be
       0.016129036 -0.95724374 -0.19685297 -0.31961602
0002f0 97 57 64 3e 05 4d dd 3e 2a 8d 8e be 23 66 cd be
       0.22299038 0.43222824 -0.27842075 -0.40116987
000300 ba ef cb bd f0 d1 76 be 8c 84 97 3e bb a0 96 3e
       -0.099578336 -0.24103522 0.29593313 0.29419503
000310 18 02 a9 be 22 61 bd be 3d 1f a1 be 19 3c 14 3e
       -0.3300941 -0.3698817 -0.31469145 0.1447605
000320 7b b1 21 bd e0 1d 92 3e 3a de 1f bf 8f 01 16 3e
       -0.0394759 0.28538418 -0.62448466 0.14649032
000330 bf 81 ee 3e 35 b9 3f 3e af df f0 3d 2d 2a 61 be
       0.46583363 0.18722995 0.11761414 -0.21988745
000340 da a8 a4 be fe 3a 94 3e 57 7f c1 bd a5 ec 2d be
       -0.32160074 0.28951257 -0.09448116 -0.16984804
000350 d2 ec 36 bd 35 e3 21 bf 9c 59 ba 3c 02 45 89 3e
       -0.044659443 -0.63237315 0.022747807 0.2681046
000360 2f 70 cc 3c aa 01 d4 3e 40 78 d3 3d e0 71 ea be
       0.024955837 0.4140752 0.1032567 -0.45790005
000370 74 56 bd be 17 13 eb be 5b 1e 2c 3e 26 7c da 3e
       -0.3698002 -0.45913002 0.16808455 0.42672843
000380 10 67 ef be f6 b0 45 3e 5a 6d ae bd b8 ec 44 3f
       -0.46758318 0.19305786 -0.08516951 0.76923704
000390 ba 40 d7 be 1a bf d7 3d 83 af 88 3e 15 1b a1 be
       -0.4204157 0.105344966 0.26696405 -0.31465974
0003a0 a6 68 a4 be 78 f1 cd 3e e8 17 38 3e e4 2d 52 be
       -0.3211109 0.4022329 0.1797787 -0.20525318
0003b0 0e 95 35 3e 1b 86 ad 3e 0f 77 22 be 30 a8 c4 bd
       0.17732641 0.33891377 -0.1586573 -0.09602392
0003c0 35 86 84 be 63 60 70 bd 55 57 84 be 0d 6a 87 be
       -0.25883642 -0.05868567 -0.2584788 -0.26448098
0003d0 80 53 c9 3c 72 e6 32 be 31 64 18 3d e3 2b 66 3d
       0.024575949 -0.1747072 0.037204925 0.056194197
0003e0 b8 73 59 be 27 d0 38 3e d4 7f 77 bd 19 74 de 3c
       -0.2123555 0.18048154 -0.06042464 0.027154969
0003f0 ce 35 b7 be 6b f3 be be 3c dc 0b be 33 84 e8 bc
       -0.35783237 -0.37295088 -0.13658231 -0.02838335

bias f4 [200]
000000 c4 8f 53 3e 95 56 9d bc 8f de 35 be 79 dd 65 3e
       0.20660311 -0.019206325 -0.1776068 0.22447766
000010 fa 0c b7 3d bd 57 59 3d 6d 64 b0 be f0 72 25 3b
       0.08938022 0.05306219 -0.3445162 0.002524551
000020 6e a8 ad 3d 35 89 92 3e 65 9b 20 bd e2 4f 6c bd
       0.08479391 0.28620306 -0.039210696 -0.05769337
000030 f2 c5 bc 3c 2d e3 ef 3d f4 c1 98 bd e4 48 94 bc
       0.023043606 0.11713252 -0.074588686 -0.018101163
000040 4b 8d 2a bc 8f 46 28 be 26 ea a6 bd 7f e2 38 3e
       -0.010409663 -0.16433166 -0.08150129 0.18055151
000050 e2 d6 1e be 3b 05 97 be e1 2a 7a 3e 1f 91 5e be
       -0.15511659 -0.29496178 0.2443042 -0.21735047
000060 9c 1e 19 3e bf b1 24 be c7 08 39 3e c7 b8 60 bd
       0.14953083 -0.1608343 0.18069755 -0.054863717
000070 76 c2 6b be 4e 8f b0 3e 08 67 ba bc 4b 0d 66 bd
       -0.230234 0.34484333 -0.022754207 -0.05616502
000080 91 fa d0 3d 75 08 6c bd da d4 3e 3e e5 d9 b0 be
       0.10204042 -0.057625253 0.18635884 -0.3454124
000090 71 dd 48 3e ef 87 42 be 5d 5b d3 3d 91 bc 47 bb
       0.19615723 -0.18997167 0.103201605 -0.0030477385
0000a0 54 ef f4 3a 6f e3 96 3d 9f 0d 55 be 15 e2 96 bd
       0.0018687048 0.07367598 -0.20805977 -0.073673405
0000b0 87 75 0e be f2 65 98 bd d6 6f 9b bd 3d 11 1a be
       -0.1391202 -0.074413195 -0.075896904 -0.15045638
0000c0 a6 d0 b0 3c a3 40 0e 3d 54 17 91 3d 5a 83 63 be
       0.021583866 0.03472961 0.070845276 -0.22218075
0000d0 a9 e2 2d 3e 4a c7 d3 bd 56 b2 a7 3b 8b cc 36 bd
       0.16980995 -0.10340746 0.005117695 -0.04462866
0000e0 c0 65 d2 3d 23 da 4e 3e 97 7e 3f 3e 6f 3e e0 bc
       0.102733135 0.202004 0.18700634 -0.02737352
0000f0 00 e9 45 be 2a e7 35 be fa 0b 7a 3c 22 71 2e 3e
       -0.19327164 -0.17763963 0.0152616445 0.17035344
000100 03 dd 41 3e 73 4c c3 3c dc 51 cd bd 1b b1 86 be
       0.18931966 0.023840165 -0.10025379 -0.26306996
000110 bf 4a 26 be 9c 87 0b be af 15 00 be ac ad 05 3e
       -0.16239451 -0.1362595 -0.12508272 0.13054532
000120 bc 5e ad be 85 1d 84 be 9b d2 ff bd d1 53 2f be
       -0.3386134 -0.25803772 -0.12491342 -0.17121817
000130 84 ac ba be ee ce ab bd ad 7f 86 be 3a d3 ba 3d
       -0.36459744 -0.08389078 -0.26269284 0.091223195
000140 ee c0 11 be 07 a4 f5 bd df 13 c4 bd 7a a5 1f 3e
       -0.14233753 -0.11994176 -0.095741026 0.15590468
000150 2d e7 5b 3a 1d 4c 55 be e2 63 6f 3e 1a 59 56 be
       0.0008388635 -0.20829816 0.23377946 -0.20932427
000160 f6 12 92 be bd 39 0c 3e f2 65 81 3e b4 3b 88 3e
       -0.2853009 0.136939 0.2527309 0.2660805
000170 d2 0d 01 be 7f d2 e8 bd 2f 3a 10 3d 6c 40 ee 3d
       -0.12602928 -0.11368274 0.03521174 0.11633381
000180 9c da ae be 88 93 c3 3d 41 4f 30 3d f7 66 3c 3e
       -0.3415116 0.09549624 0.043044332 0.18398653
000190 ff 88 87 bd 73 a3 64 3e de bf 7b bc cf 44 97 be
       -0.06617927 0.22327976 -0.015365569 -0.29544684
0001a0 8b 9c 02 3e 7d e6 57 3d ef 73 a7 be 5b 0b eb bb
       0.12755029 0.052710045 -0.32705638 -0.0071729845
0001b0 67 d7 b0 bc 14 35 6f 3e af 38 76 be 27 6a 4f 3d
       -0.021587087 0.23360091 -0.2404506 0.050638344
0001c0 28 c8 d4 3d d0 3e b9 be 05 fb 22 be 47 e3 ad bc
       0.10389739 -0.36180735 -0.15916069 -0.021226538
0001d0 55 e0 29 3e ef 02 8b 3d f3 0f 8d 3e 50 ca 69 be
       0.16589482 0.06787669 0.2755123 -0.22831082
0001e0 ba 09 f4 37 83 3f 44 be 9f a7 e0 3d db 5c 21 3d
       2.9091596e-05 -0.19164853 0.10969471 0.039395195
0001f0 a6 96 ae 3d 34 da 2a 3e 90 54 0d be 76 53 95 be
       0.08524828 0.166848 -0.1380179 -0.29165238
000200 7e 43 07 3e 50 ec a8 bd c7 7e 23 be bb 85 22 be
       0.1320934 -0.08248198 -0.1596633 -0.15871327
000210 a4 c4 5e 3d 12 4e c6 bd eb 47 55 be d3 90 61 be
       0.05438675 -0.096828595 -0.20828216 -0.22027902
000220 67 2a 9a 3d 12 c5 e3 3d 75 62 7c be 3e 43 82 be
       0.07527619 0.111215726 -0.24646933 -0.25441927
000230 82 a4 9c be b9 ef 78 be be 2f 9e be 04 ff c8 3d
       -0.3059426 -0.24310197 -0.308958 0.09814265
000240 f8 cc b7 bc e1 fd a5 3d c9 fe 82 3e e4 35 d3 3d
       -0.022436604 0.08105064 0.2558501 0.10313013
000250 dd a7 c3 bd 5b 96 a6 be 55 e0 b9 bd a0 dc 22 be
       -0.09553502 -0.32536587 -0.09075991 -0.15904474
000260 36 13 6e 3e 8b 9b 9c be aa cc 4c 3a 3e ce cf bd
       0.23249516 -0.3058742 0.000781248 -0.101467595
000270 15 b6 d8 3d e2 a8 8c be 3d 96 24 bd b9 0c b2 be
       0.105816044 -0.27472597 -0.04018234 -0.34775332
000280 c7 c5 0e be 8e 96 80 bd 2a c1 0f be 84 e6 a3 3d
       -0.13942634 -0.06278716 -0.1403853 0.08002952
000290 e2 6a 04 3e 8f 26 7b be 08 f7 7a be fc e4 78 bd
       0.12931398 -0.24526428 -0.24508297 -0.06076525
0002a0 62 1a 75 3d 48 ce 94 3e e6 72 4f be 45 95 fd bd
       0.059839614 0.2906363 -0.20258674 -0.123819865
0002b0 19 e5 43 3c da 71 e0 bd 00 ed db 3d 47 b5 24 be
       0.011956477 -0.109592155 0.107385635 -0.16084777
0002c0 67 e8 3b 3e a1 af 1d 3e a2 53 01 be 4d cb 9c bc
       0.18350373 0.15399028 -0.1262956 -0.01913991
0002d0 57 e3 6e 3e 48 3d 80 3e b4 48 45 bd 82 ab 11 3e
       0.23328911 0.25046754 -0.04816504 0.14225581
0002e0 22 90 71 be 3c 10 0e be df 02 ab 3c 15 1f 1f 3d
       -0.23590139 -0.1387338 0.020875392 0.038848
0002f0 d1 da 69 3e 68 2b 8d 3d 7f 13 3e be d7 02 6c be
       0.22837378 0.06893045 -0.18562125 -0.23047958
000300 cb 9e ae bd 59 53 96 3e 50 3f bd bd bf 97 28 be
       -0.08526381 0.29360464 -0.092405915 -0.16464137
000310 9b 43 64 be bd 6c b2 bd 86 75 9f be 26 f5 1d be
       -0.22291414 -0.087121464 -0.3114435 -0.15425548

weight f4 [200, 200]
000000 f3 f6 6c bd 11 30 cb bd fa f1 ee bc ef 56 2b 3d
       -0.057852697 -0.09921277 -0.029168118 0.041830953
000010 e3 11 e2 bd 0f 0d 23 bd 23 1f 65 bd 36 25 90 3c
       -0.11038568 -0.039807376 -0.055937897 0.017595869
000020 dd 8b 8b bc bd 63 0d bc 19 95 cc 3c 58 12 b5 bd
       -0.017034465 -0.0086297365 0.024973439 -0.088413894
000030 e0 9d ba bd 7a f3 5b bd 4c 1a 0d 3d ba 89 dd bd
       -0.091121435 -0.053698994 0.034448907 -0.10817285
000040 c4 2c 8f bd c0 95 80 bd dd c4 8e bd 3f c0 21 3c
       -0.0699096 -0.062785625 -0.069711424 0.009872495
000050 ab cb f1 bc dc ba ff 3b 03 32 f2 3c 13 d7 76 bb
       -0.029516062 0.007804258 0.029564863 -0.0037664815
000060 08 75 b6 bd fb 1c ec bd 54 52 70 ba 01 1f 58 3d
       -0.08909041 -0.11528965 -0.0009167541 0.052763943
000070 d7 cc b1 bc 49 21 45 3a 71 a1 c2 3c 12 0d ee bc
       -0.02170412 0.00075199135 0.023758622 -0.029058967
000080 8c c5 7e bd 23 63 e2 bd a7 b0 37 3b 77 c2 2d 3d
       -0.062200114 -0.11054065 0.0028028877 0.042421784
000090 8d e3 92 bc 3a 93 d1 bd 65 9d 1c 3d 4a a6 65 bd
       -0.01793077 -0.10233159 0.03823604 -0.05606679
0000a0 b7 c3 b2 3b a4 b8 0c 3d 00 b4 3b 3d ea b5 a9 bb
       0.00545546 0.034355775 0.04582596 -0.0051791565
0000b0 5c 92 0c 3d 0f 2e 2a bc ca 26 be 3b 69 cf ce bb
       0.034319267 -0.010386958 0.005802964 -0.0063113463
0000c0 9d 44 81 bd 00 54 b2 bd dd ca 0d be 59 a0 c7 bd
       -0.06311915 -0.08707428 -0.13846917 -0.09747381
0000d0 a5 ca 09 3d 48 87 cc 3a 98 04 b0 bd 4d c1 9f 3c
       0.033640523 0.0015604282 -0.08594626 0.019501353
0000e0 3a 6e d3 bd c7 12 24 bb 11 d2 c9 bd 7c ee f9 bd
       -0.103237584 -0.0025035606 -0.0985452 -0.122036904
0000f0 f1 9d 4d bc a4 a9 82 bd a8 b2 bf bc d7 fb a5 ba
       -0.012549863 -0.06380013 -0.02340062 -0.0012663555
000100 67 86 a4 bd ee 10 26 3d 21 12 4a bd e6 96 9b bd
       -0.08033448 0.04054349 -0.049333695 -0.07597141
000110 4f 16 4e 3d c7 52 aa bd d1 54 c8 bd d5 18 84 bd
       0.050314244 -0.0831657 -0.097818024 -0.06450049
000120 09 40 c3 bc ea a9 49 3d 0f 73 2b bd 15 9f 10 bd
       -0.023834245 0.04923431 -0.041857775 -0.035307962
000130 07 bd 2a bd c5 a2 8c 3d 1a b4 0b bd 74 f9 76 bd
       -0.041684177 0.06866983 -0.034107305 -0.06029649
000140 06 6d 2f 3d b7 24 a7 3a 6f 38 84 bd 54 6e fc bc
       0.042828582 0.0012752031 -0.06456076 -0.030814327
000150 d4 8d fd bd 8e 6e 99 bc fa 36 57 bd fd 95 8e bd
       -0.12380567 -0.018729474 -0.052542664 -0.06962202
000160 2c 59 32 bd 6b 84 67 bd c8 5b b5 bb 57 86 2a bd
       -0.043542072 -0.056522768 -0.005534623 -0.041632023
000170 7b 29 ec bd b9 46 cb bd f5 b8 87 3d e9 04 dd 3c
       -0.11531349 -0.09925599 0.06627075 0.02697988
000180 a8 15 3c bd 59 ee 53 3c 4f a6 3a 3d 9c 9a 7b bd
       -0.04591909 0.0129352445 0.04556876 -0.061426744
000190 1b c7 65 bd 70 5f b4 bd ba 6c 66 3c 08 77 be bb
       -0.056098085 -0.08807266 0.014064008 -0.0058125295
0001a0 2d 9f 87 bd 2e 28 1f bd 81 09 cd bd b8 01 4a 3d
       -0.06622157 -0.038856678 -0.10011578 0.049318045
0001b0 aa e9 d3 bd c4 d1 00 bc 70 81 29 bd 45 26 8e bd
       -0.10347302 -0.007862512 -0.041383207 -0.06940893
0001c0 98 27 bf bc bb 29 6d bd 90 f7 49 bd f7 ce 2d bd
       -0.02333431 -0.057901125 -0.04930836 -0.042433705
0001d0 71 df c0 bb 2e 46 9a bd d4 3c 7e bd 39 6f d7 3b
       -0.0058860113 -0.07532917 -0.06206973 0.006574538
0001e0 25 e8 02 bc 03 5c eb bd b8 71 c8 3c 23 99 72 bd
       -0.007989918 -0.11492159 0.024468288 -0.059228074
0001f0 ef a5 a2 3c 0b b7 f6 3c 6d fe 8d bd 4f 4e ae bc
       0.019854514 0.030116579 -0.069332935 -0.021277575
000200 40 cd bc bd a0 86 c1 3c 85 70 0b bd ad 87 80 bd
       -0.09218836 0.023623765 -0.034042854 -0.06275878
000210 1f 3d ae bd 08 af 3d 3d 3d 87 05 be 9c c0 fd bb
       -0.08507752 0.0463095 -0.1303987 -0.007743908
000220 c6 e3 16 bd 2f ed 2c bc 65 71 82 bd e2 4f 60 bd
       -0.036838315 -0.010554596 -0.063692845 -0.054763682
000230 60 c7 b1 bc 9a be 6b bd 45 10 81 3c 12 33 d7 3c
       -0.021701515 -0.05755482 0.015754828 0.02626947
000240 a4 4f f8 bc 66 05 14 bc 96 0c 9e bd c3 cc ec bd
       -0.030311413 -0.00903449 -0.07717244 -0.11562493
000250 42 a1 d4 bd 9a d1 5d bd 59 1e 4c 3d 96 40 a6 3b
       -0.1038232 -0.05415497 0.04983363 0.005073617
000260 97 db 21 bc be 8a 13 bd b8 f0 b7 bc a8 5b a7 bc
       -0.009879014 -0.036020987 -0.02245365 -0.020429447
000270 49 0c 55 3b 5a 70 60 bc 7d e0 8c bd 80 1d b9 bd
       0.0032508543 -0.013698662 -0.06878755 -0.0903883
000280 62 ab d7 bc b6 8b 9a 3d 82 4b 5b bd fa 54 d2 bb
       -0.026326839 0.07546179 -0.053538807 -0.0064188214
000290 55 89 1d 3d 39 af 44 3d ad a1 09 3d 2e 66 9d bd
       0.03846105 0.048018668 0.03360145 -0.07685505
0002a0 1d 92 8b bd bf e0 26 bd e6 22 a6 3b 0e fe 98 bc
       -0.06814978 -0.04074168 0.005070078 -0.01867583
0002b0 35 e6 8d bd 77 6f 3f 3c f9 95 dc bc c3 46 39 bd
       -0.06928674 0.01168429 -0.026926981 -0.0452335
0002c0 45 05 07 be 16 8e 17 3d 8a af d8 bd af 43 a9 bd
       -0.13185604 0.037000738 -0.105803564 -0.08264863
0002d0 4e dd ab 3b b3 9e 69 3b 5a e6 e5 3c c4 24 88 3b
       0.0052448874 0.003564757 0.028063942 0.0041547734
0002e0 3e cd 23 3d 90 0d 3e bd 6a df dc bd d7 ac 2e bd
       0.039990656 -0.046399653 -0.107848 -0.0426453
0002f0 b0 f5 35 3d 36 aa 97 bd 34 4c 7d bc ad e3 1f bc
       0.04442376 -0.07405512 -0.015460063 -0.009758872
000300 66 8e 92 bd e3 14 6e bd 6a e9 d2 bb 6f c5 3c bd
       -0.071560666 -0.058125388 -0.0064365165 -0.046086725
000310 28 b7 84 bd a6 10 a8 3c 4c b2 00 bd 3c 82 3d bd
       -0.06480247 0.020515751 -0.031420037 -0.04626678
000320 44 37 aa be fe 7c 27 be 53 c7 5e be df 56 31 bf
       -0.3324529 -0.16356274 -0.21755724 -0.6927318
000330 75 a8 f5 3d cd b3 05 3e b5 28 85 3c fa 3d c8 be
       0.11995021 0.1305687 0.016254762 -0.39109784
000340 39 da da 3b 2d ac 50 bc 73 2b cb be 7a b5 69 be
       0.006678846 -0.012736362 -0.39681587 -0.22823134
000350 79 c1 a1 be 7a 67 47 3d 9e 2f 6f 3b 10 f6 9b be
       -0.3159292 0.048682667 0.0036496888 -0.30461168
000360 c8 2d 07 3d 55 06 1e 3d 1f f4 b3 be ef e4 1c 3e
       0.033002645 0.038580257 -0.35147187 0.15321706
000370 11 c0 33 3f 02 a9 5a bd 0b 04 14 bf ac 36 41 bd
       0.70214945 -0.053383835 -0.5781867 -0.04717128
000380 80 83 41 be dd 55 a7 3e 7a be a0 3d dc c6 d6 3c
       -0.1889782 0.32682696 0.078488305 0.02621787
000390 e2 6e 16 bf bb 3b 4a be 3f c9 13 3f 31 48 df be
       -0.58762944 -0.19749348 0.5772895 -0.43609765
0003a0 ef a1 d0 bd 7d 82 e9 bd 3e d7 4c be f2 8a d6 be
       -0.101871364 -0.11401842 -0.20003983 -0.41902882
0003b0 68 f3 a6 be 44 92 49 bf 01 26 12 3e 86 18 9c 3c
       -0.3260758 -0.7873881 0.1427231 0.019054662
0003c0 60 66 05 3e 7d 90 b4 be 2a 7d 80 bd 21 e8 a8 3c
       0.13027334 -0.35266486 -0.06273873 0.0206185
0003d0 f9 2b dc be a9 de f0 3e 3e 61 24 3d f1 89 f5 bd
       -0.43002298 0.47044876 0.0401318 -0.11989201
0003e0 df 08 95 be 33 da 6f be bb 88 87 be 63 0b ca be
       -0.2910833 -0.2342308 -0.26471505 -0.39461812
0003f0 ac 24 78 bc 11 f6 5c bc 03 c7 ea 3d 13 41 d8 bd
       -0.015145462 -0.013486401 0.1146374 -0.10559287

bias f4 [200]
000000 fe 52 95 bd 9d 09 0f be 6b 79 ed bd ee 3e 16 bd
       -0.0729122 -0.13968511 -0.11595424 -0.03668111
000010 df fb a2 bd 00 14 af be 89 f3 84 bd 6b 7c 80 bd
       -0.07958197 -0.34194946 -0.06491763 -0.06273731
000020 88 10 65 be 84 f9 70 bd b4 e0 7b 3d 4b 91 1f bd
       -0.22369587 -0.058831707 0.06149359 -0.03895692
000030 22 01 51 bd e8 4d bc bd 05 a7 04 be 45 df 84 bd
       -0.05102647 -0.09194547 -0.12954338 -0.06487898
000040 89 5f 44 bd 2f 49 26 bc 5e ee 1e bd c8 3c b6 bd
       -0.047942672 -0.010149284 -0.038801543 -0.08898312
000050 e6 74 10 be 56 68 85 be bc 10 cb bd 41 a2 63 3d
       -0.14107093 -0.26056165 -0.09915301 0.05557466
000060 08 5d bf bd 55 e1 e9 bd 76 96 86 3d 07 19 d8 be
       -0.09343916 -0.11419932 0.06571667 -0.42206594
000070 db db ed bd de bf 93 bd 84 dd fd bb 53 c6 65 bd
       -0.116142 -0.0721433 -0.007747354 -0.05609734
000080 b1 fd 8e 3d 62 35 34 3e 52 05 ea 3d 4b a7 16 be
       0.069819815 0.17598489 0.11426796 -0.14712255
000090 e9 3a d5 3b 1b 3d e3 bb 28 6b 44 bd ac 09 70 bd
       0.006507267 -0.0069347746 -0.047953755 -0.058602974
0000a0 01 db c1 bd cb f4 34 be ed 5a 89 bc 38 10 b9 bd
       -0.094656 -0.17671506 -0.01676699 -0.090362966
0000b0 35 17 0a be 1f b4 2f bd 0d 1d e8 3b 4d 43 82 bd
       -0.13485415 -0.042896386 0.0070835412 -0.06360493
0000c0 ba e1 71 3d 86 2a 9f bd 1f 8b a1 bd d9 79 97 3d
       0.05905316 -0.077717826 -0.07887863 0.073962875
0000d0 98 03 c5 bd 8e b5 21 bc e1 93 06 be 39 b0 c8 bd
       -0.09619826 -0.009869946 -0.13142349 -0.09799237
0000e0 dd 9e 2f 3e e5 08 09 bd 54 74 91 3c ff 7e af bd
       0.17150445 -0.033455748 0.017755665 -0.085691445
0000f0 67 23 11 3d f9 31 c3 bc 9d 51 03 bd e2 ea 32 bc
       0.035434153 -0.02382754 -0.032060254 -0.010920258
000100 04 58 e0 bd a3 72 65 3d f0 73 3b bd 6c 20 3e be
       -0.10954288 0.05601753 -0.045764863 -0.18567055
000110 e6 90 1c bd 5e 6c a3 3b c7 59 ad bd 76 d1 9e bd
       -0.038224123 0.0049872836 -0.08464389 -0.07754795
000120 9c 23 16 3e ce 3b 96 bd 38 df bc bc 2a 17 db bd
       0.14662021 -0.073356256 -0.023055658 -0.106977776
000130 3a 26 df bd a1 f3 34 be 99 60 c2 bd 9e 9a 14 bc
       -0.10895963 -0.17671062 -0.09491081 -0.009070067
000140 21 eb c3 bd fb 41 9a be c3 db 32 be 26 18 14 be
       -0.09566332 -0.30128464 -0.17466645 -0.14462337
000150 08 3d b7 bc 20 5f 39 bd 6c 0c fb bc 14 4d 74 bc
       -0.02236797 -0.045256734 -0.030645572 -0.014910955
000160 ec 44 ff bd 2e b6 98 bd 46 9f 97 bd cb 66 61 bd
       -0.12464318 -0.07456623 -0.07403426 -0.05502967
000170 43 32 96 be d2 01 da bd 5a 7f df 3d 17 8c a8 bd
       -0.29335222 -0.106448784 0.10912962 -0.08229845
000180 e8 3e 80 3d 09 73 69 be 3e bd 1f bb f7 1e 29 bd
       0.062619984 -0.22797789 -0.0024374272 -0.041289296
000190 b7 f3 2a bd d6 fe d7 3d 41 33 c5 bd d3 46 31 be
       -0.04173633 0.10546653 -0.096289165 -0.17312174
0001a0 61 25 4c bd 79 57 c3 bd 0c c7 da 3d b3 1c ee bd
       -0.049840335 -0.095381685 0.106824964 -0.11626568
0001b0 dc 81 fc bd 6d 93 8a bd 34 d6 60 bc ca d3 d3 bd
       -0.12329456 -0.067664005 -0.013722945 -0.1034313
0001c0 f0 fa 31 bd 27 f9 ad bd 2d dc 01 bd ab fc ed bc
       -0.043452203 -0.08494788 -0.031704117 -0.029051146
0001d0 b0 8a 37 be 4b e3 06 be ef 76 b9 bd 47 ae 21 bd
       -0.17923999 -0.13172643 -0.09055888 -0.039472844
0001e0 f5 2e 85 bd 69 af 4b bd c9 5f 45 bd 6a b1 d3 bd
       -0.06503097 -0.04972783 -0.04818705 -0.103365734
0001f0 19 e0 d4 be c5 1e 09 be 4e 10 97 bc 5e 51 1b bd
       -0.41577223 -0.13390644 -0.018440392 -0.037919395
000200 05 e0 87 bd 28 ea bc bd 85 8d 6c bd e4 82 7d bd
       -0.06634525 -0.09224349 -0.05775215 -0.061892405
000210 ee 25 16 bd b8 08 60 bd 36 45 13 bd 45 24 86 bd
       -0.036657266 -0.054695815 -0.035954677 -0.065498866
000220 90 bd f4 bd 09 12 68 bd d7 22 dd 3d de 41 28 bd
       -0.11950219 -0.056657825 0.10797661 -0.04107844
000230 d0 01 0f bb a4 d9 7a bd 2a 49 5b bc 0d 23 1e be
       -0.0021821149 -0.061242715 -0.013384143 -0.15443058
000240 89 eb 44 bd 87 f3 23 bd 50 3e 09 be a7 20 a4 3d
       -0.048076186 -0.040027168 -0.13402677 0.080140404
000250 7f ae cc bd 15 8a 07 be 77 58 ae bd bb 0b 19 3e
       -0.0999422 -0.13236268 -0.08512967 0.14945881
000260 d0 81 b4 bd 96 f0 91 bd 69 6b ce bd 24 64 ff bd
       -0.08813822 -0.07125966 -0.100790806 -0.12470272
000270 90 d9 26 3e 83 74 69 bd 65 be 8a bd 0e 16 95 bc
       0.16293931 -0.05699588 -0.06774596 -0.018198993
000280 13 98 c9 3c 53 a3 6f bc f2 35 00 be 22 57 92 3d
       0.024608647 -0.014626342 -0.12520579 0.071455255
000290 bc 7a 5b be e2 32 15 bd 8d 06 c6 bd fb 74 29 be
       -0.21433538 -0.03642548 -0.09669218 -0.16548531
0002a0 3b 0f de 3d 40 46 1b 3e 81 9d c5 bd 36 e0 a7 3b
       0.10842749 0.15163517 -0.09649182 0.0051231636
0002b0 cb 07 26 be 6b c0 08 be 63 0e 6d bd 9f 42 8b bc
       -0.1621391 -0.13354652 -0.05787505 -0.01699954
0002c0 9c 7e 9c bc 80 8c b3 bc cf c2 6d be 11 ce ee 3d
       -0.01910334 -0.021917582 -0.23218845 0.11660398
0002d0 89 ff 92 3d 55 9b 81 bc 5a ce d0 bc d4 ce 53 3b
       0.07177646 -0.015821138 -0.025489021 0.0032319324
0002e0 9d 77 05 be be d5 13 bd e7 ba ae bd 3f 95 ef 3c
       -0.1303391 -0.036092512 -0.085317425 0.02924597
0002f0 60 c7 07 be 0f d8 2f bd aa 4f dc bc 5b 4a 7b be
       -0.1325965 -0.04293066 -0.026893456 -0.24540083
000300 a3 50 2b 3d f2 f4 a5 bd 96 d3 9a bd fb 7e e4 bd
       0.041824948 -0.0810336 -0.07559888 -0.11157032
000310 f3 c3 0b bd 4f 45 a3 bd 10 44 d0 bd cf 84 87 be
       -0.03412242 -0.07972204 -0.10169232 -0.26468512

weight f4 [1, 200]
000000 fe 8b 98 3c a4 54 3a 3f 2c 5a 06 bd 50 2f 48 bd
       0.018621441 0.727854 -0.03280084 -0.048873246
000010 72 d8 d6 b9 30 b9 53 bf ee ef f0 3d ae f0 a1 3c
       -0.00040978525 -0.8270445 0.11764513 0.019768085
000020 21 4a fa 3d ba da dc 3b a1 27 5b be 08 db 08 be
       0.1222117 0.0067399414 -0.21401836 -0.13364804
000030 da b0 d7 bb 12 d4 ea bc bf 7f 32 bb 01 79 49 bc
       -0.0065823616 -0.028665576 -0.0027236787 -0.012296916
000040 e2 70 e7 bc 75 2e 03 3d 3a 03 50 bc 14 01 09 bb
       -0.028252069 0.032026727 -0.012696082 -0.0020905184
000050 ab 43 77 3c c5 c6 a9 be 91 01 3f be 57 b5 39 bf
       0.015091817 -0.33159462 -0.18652941 -0.7254233
000060 1b 27 cb bf a4 60 61 3e 9c ed e3 3e a0 bf 4f 3e
       -1.5871309 0.22009522 0.4451722 0.20287943
000070 00 27 c6 3c 5a a7 63 bc 69 30 c3 3b df 72 3d bd
       0.024188519 -0.01389488 0.0059566987 -0.046252128
000080 51 99 8d 3e b4 41 15 be 9a 23 12 3f 95 d3 39 be
       0.27656034 -0.14575845 0.57085574 -0.18147118
000090 2d ab 39 3f f4 88 0f ba d4 eb ed be 79 1b cd 3c
       0.7252682 -0.00054754247 -0.46468985 0.025037514
0000a0 74 8a fc 3c fc 2c aa be 9f 70 b4 bc 26 3e 96 ba
       0.030827738 -0.33237445 -0.022026358 -0.0011462613
0000b0 5c 5c fc bc d4 3a f6 bc e7 6f 89 3e 3e d2 9e bc
       -0.03080576 -0.030057348 0.26843187 -0.01938736
0000c0 36 7e 84 be 8c ca 79 bc 85 a0 83 bb 70 78 aa be
       -0.2587754 -0.015246045 -0.004016938 -0.33295012
0000d0 29 76 c7 bc 1e f2 32 be ac 6c fb bf be 5a 9b bc
       -0.024348335 -0.17475173 -1.9642539 -0.018964168
0000e0 22 35 4b 3e 6d 01 1a 3d 6c 23 d2 be 48 20 41 3d
       0.19844487 0.037599016 -0.4104265 0.047149926
0000f0 9b d3 29 3e b7 80 20 bc 2d a3 17 3c 83 5f 2d 3e
       0.16584627 -0.009796313 0.009255213 0.16930966
000100 d1 a9 1d be 0c ff 5b bf f6 62 26 3d 01 fe 0b be
       -0.15396811 -0.85936046 0.04062172 -0.13671114
000110 09 68 cd bb 7d 08 17 3d 24 27 05 bd 88 3a c6 3c
       -0.0062685055 0.03687333 -0.03250803 0.024197832
000120 97 02 a8 3e b4 68 8b bc af b7 b7 3b 7f 90 aa 3a
       0.32814476 -0.0170177 0.0056066136 0.0013013034
000130 aa e1 cc bc 21 fa b5 bf bd f4 12 3d 83 17 6c bb
       -0.025009949 -1.4216958 0.035877932 -0.0036024756
000140 21 ac 41 3c 9b f2 11 bf 09 b3 33 3e c0 11 bc bc
       0.011820824 -0.5701081 0.17548765 -0.022957683
000150 cd b1 13 3c 05 98 13 bc a6 61 27 bc c1 88 d6 3b
       0.009014559 -0.009008412 -0.010216152 0.006547064
000160 10 69 3f be 13 e1 ec bc 95 90 88 3c 57 d8 ad 3c
       -0.18692422 -0.028915918 0.016670505 0.021221323
000170 70 d1 32 3e a5 eb 90 bb ea 1a 1a 3e cf 90 25 b9
       0.17462707 -0.0044226223 0.1504933 -0.00015789572
000180 95 6d a9 be ba ee 74 bf 91 b6 dc be 35 1b 01 bd
       -0.33091417 -0.9567677 -0.43108037 -0.031520087
000190 af 01 34 3d 21 bc ca be 2b f0 6d bc 63 80 01 3e
       0.043946918 -0.39596656 -0.014522593 0.12646632
0001a0 f0 12 c7 3a a0 25 b4 3b 11 63 17 be 17 3d 31 bb
       0.0015188139 0.0054976493 -0.14783885 -0.002704447
0001b0 e7 08 bb bc 2d ad 0d 3c cd e7 48 3e c7 a6 b5 bc
       -0.022831393 0.008647245 0.19619675 -0.022174252
0001c0 b8 7f ce 3c bc 94 f0 3a 46 82 a0 3b d9 25 d1 3c
       0.025207385 0.0018354873 0.0048983423 0.025530742
0001d0 68 1c 9a be 98 14 e1 3e cd 8a 1f 3f 0f 4c 25 bc
       -0.30099797 0.43961024 0.6232117 -0.010088935
0001e0 42 75 6c bc 70 ca b7 3c 6a 2b e1 ba e4 62 fa 3c
       -0.014432253 0.022435397 -0.0017179076 0.030564733
0001f0 a8 26 37 40 60 7d ce bb a0 70 b4 3c bb 3c ee bc
       2.8617344 -0.006301567 0.02202636 -0.029081693
000200 56 67 2b 3d de bc 20 3b 12 11 67 3f 85 67 19 3b
       0.041846596 0.0024526636 0.9026042 0.002340765
000210 55 ca 0e 3d e2 ea db bd 68 63 47 bd 5a cd 65 3c
       0.034860928 -0.1073816 -0.048678786 0.01402601
000220 3c 29 6d be 88 08 ff 3d fe 6a cd be 7f 5d 3f 3d
       -0.23160261 0.12452799 -0.4012069 0.046720024
000230 19 94 2f 3e 8d 2b 07 bc 1d cc 12 3d 4d d4 f8 be
       0.17146339 -0.008250129 0.03583919 -0.48599473
000240 d6 a6 61 3e 7e 3e a7 bc 91 a8 a3 3e 54 2a c2 3d
       0.22036299 -0.02041554 0.31964543 0.0948073
000250 e4 6c 21 3e 79 36 d5 3c 06 60 2d bc 40 e7 12 3f
       0.15764195 0.026026951 -0.010581976 0.5738411
000260 34 84 7c bc e4 e0 7e bc 1b e6 64 bc 53 9e f4 39
       -0.015412379 -0.015556548 -0.013970877 0.00046657267
000270 4d a0 bc 3d 9b 62 63 bc 79 01 49 3b cc 5f f7 bc
       0.092102624 -0.01387849 0.0030671044 -0.030197047
000280 1f 47 b6 3e 9b 2d f0 3c eb 91 c3 3d f1 62 6c 3e
       0.35601136 0.029318621 0.09549316 0.23084618
000290 01 f4 bf bd bb 36 fc bb 50 a4 41 3e b9 3f 27 c0
       -0.09372712 -0.007696954 0.18910336 -2.6132643
0002a0 80 12 78 3e bd 13 89 3e d6 b1 29 bc 5d ad 14 b9
       0.24225807 0.26772872 -0.010357341 -0.00014178963
0002b0 ec bd ce 3d 33 6e ab 3e 20 43 46 3b 41 41 0c be
       0.100948185 0.33482513 0.0030252412 -0.13696767
0002c0 1c 4d 22 be cf 73 ae 3b 09 a6 14 3e 10 e4 0a 3f
       -0.15849727 0.005323864 0.14516462 0.54254246
0002d0 99 4b f1 3d 5c 3e 01 bb 5c b1 f2 bc 15 60 e4 bb
       0.11781997 -0.0019721007 -0.029625587 -0.0069694617
0002e0 9f 48 2a bc 60 e3 bd bb 80 09 b4 b9 2f 9f ff bd
       -0.010393291 -0.0057949275 -0.00034339353 -0.12481534
0002f0 1b 2f 01 bd 76 d4 91 3c 95 33 8b 3c 30 40 09 bb
       -0.031539064 0.017801505 0.01699237 -0.00209428
000300 3d 44 61 3f 80 64 92 be 91 5c 4e bc 7c 38 0f 3d
       0.8799475 -0.285923 -0.012595312 0.034965977
000310 e6 f5 1a bf ce 17 9c bb a5 8c 09 3e 08 0c 00 c0
       -0.6053146 -0.00476358 0.13432558 -2.0007343
