Vehicles/GenDisV_0_2_0/GenDisV_0_2_0_actor.pth (torch, 176454 bytes, 6 tensors)

weight f4 [200, 13]
000000 a6 6a 03 be 1a 85 04 bf e6 41 6a 3e 33 9a eb 3d
       -0.12833652 -0.51765597 0.22876701 0.115040205
000010 aa 2d 5f 3e 5c 1f 2b 3e b9 21 15 be 30 03 04 be
       0.21794763 0.16711181 -0.14563645 -0.12891841
000020 b7 cb fc be 0e 0c a6 bc 1b e5 e5 be 0c af 18 3d
       -0.49374172 -0.02026942 -0.44901356 0.037276313
000030 dd c9 23 be 37 60 87 3e 66 5c dd be 67 4e 29 be
       -0.15994973 0.26440594 -0.43234557 -0.16533814
000040 5a 68 d0 3e bd 12 29 3e d5 cb 90 bd 50 dd 24 be
       0.40704614 0.16511054 -0.07070128 -0.16100049
000050 08 c6 1d bf 39 47 06 3e 88 bf 8e 3d b4 0e bf be
       -0.61630297 0.13113107 0.069701254 -0.37315905
000060 41 91 7c be 0f 34 b7 be 89 52 a5 be 0e 07 a5 be
       -0.24664785 -0.35781905 -0.32289532 -0.32231945
000070 79 5d 98 3e c4 75 03 3e a0 90 84 bd 9a 71 a3 3c
       0.29758814 0.12837893 -0.064728975 0.01995163
000080 b7 60 5b 3e 9c e2 9d be 6c 6f e0 3d 18 7a 25 be
       0.21423613 -0.30836952 0.10958752 -0.16159856
000090 74 89 e7 be 22 fb 89 ba 5e 60 41 3e 63 b4 cd be
       -0.45222056 -0.0010527114 0.18884417 -0.40176687
0000a0 50 bb 2f bd b2 44 7c 3c 76 d7 43 3c a9 8e 6b be
       -0.042903244 0.015397238 0.011953225 -0.2300364
0000b0 9c ac 90 bd 8f 59 84 bd cd 54 cd be 05 7c 86 be
       -0.070641726 -0.064623944 -0.4010376 -0.26266494
0000c0 04 bb c8 be d5 c7 a4 3d a4 21 1d bd b5 5b b8 3d
       -0.39205182 0.080459274 -0.03836216 0.09001867
0000d0 47 70 58 bf ae ae d7 3e c6 ab 82 be b6 7d 6e be
       -0.8454632 0.42125458 -0.25521678 -0.23290142
0000e0 5e 80 e6 3d 74 92 31 be 82 b8 ec 3d 5a 5b 0a bf
       0.11254953 -0.17341024 0.115586296 -0.5404564
0000f0 b7 dc b0 3e b5 4c 19 3e 4a e9 89 3e 6b 5d 26 be
       0.34543392 0.14970668 0.26935798 -0.16246574
000100 19 29 43 3e 55 91 5f bd d9 ca 91 3d 2b 30 0a bd
       0.19058646 -0.05458196 0.07118768 -0.033737343
000110 32 31 7e bd e0 4f 04 3e f9 af 5b 3e c5 24 bf 3e
       -0.062058635 0.12921095 0.21453847 0.3733274
000120 19 fc a4 3e 6c 90 09 bf 75 fe 9e be b9 ba c1 3d
       0.32223585 -0.53735995 -0.3105351 0.09459443
000130 88 90 34 3e 59 71 22 be da 75 68 bd b0 31 0c be
       0.1763326 -0.15863551 -0.056753017 -0.1369083
000140 53 5a 92 3e 0e b7 a3 3e 51 96 3b 3e aa d6 38 bc
       0.28584537 0.31975597 0.1831906 -0.011281649
000150 34 8c 26 be 84 ce 84 3e 6d 11 23 be a4 f5 93 be
       -0.16264421 0.2593881 -0.15924616 -0.28898346
000160 2d d8 bc be bb 63 03 be 06 0f 96 3e 9e cb 47 bf
       -0.3688368 -0.12831013 0.29308337 -0.7804507
000170 d0 bf 87 be 83 b3 07 3f 7c f2 99 3d 60 7b f0 bd
       -0.2651353 0.5300829 0.07516953 -0.11742282
000180 24 32 8b 3e 7c b5 5e 3d c9 90 89 be 9a 4f 03 be
       0.27186692 0.054372296 -0.26868275 -0.12823334
000190 35 db 9a be 6f 17 5e be 44 33 65 3e e1 d5 8d 3d
       -0.30245367 -0.21688627 0.22382838 0.0692556
0001a0 c4 60 40 3e 88 44 37 3b 08 93 cf be 62 60 85 be
       0.18786913 0.0027964432 -0.40541863 -0.26050097
0001b0 e6 ba b2 bc f5 01 51 3c 13 d0 19 be 80 51 6d 3d
       -0.021817636 0.012756814 -0.1502078 0.057939053
0001c0 6a de 70 be cb 75 24 be 51 be 9c 3c 90 79 31 be
       -0.23522344 -0.1606056 0.019133719 -0.17331529
0001d0 d7 d5 dc be d8 ca 80 be 91 20 b9 bc 1f 98 98 3e
       -0.43131897 -0.25154757 -0.022598537 0.2980356
0001e0 54 6d cf bc 59 1c 91 3e de 80 6b bd 7a c6 79 3e
       -0.025320686 0.2834194 -0.057495944 0.24392119
0001f0 83 d5 68 3d 9a 37 4b bf 72 c7 ad be e7 4b 9f be
       0.056844246 -0.79381716 -0.33941227 -0.31112596
000200 80 da 59 3e 6d 09 82 3e bb 7c 78 3e b9 c0 8f 3d
       0.21274757 0.25397816 0.24266331 0.07019181
000210 7f b8 80 3d e3 66 18 3e ee 08 2a 3e f1 eb 46 3d
       0.0628519 0.14882998 0.16604969 0.048564855
000220 da 2b 1e bf 52 ad c9 be 95 da fa 3e bf f3 b3 3e
       -0.6178566 -0.39390045 0.4899489 0.351469
000230 f3 72 e1 bd 45 44 79 bd 9e 12 0e bd 72 95 08 be
       -0.11008253 -0.060856123 -0.034685723 -0.13338259
000240 6b 24 17 be b2 a6 39 3f 14 d7 0a be 4f cc 88 3e
       -0.14759986 0.7251998 -0.13558608 0.26718375
000250 de 5b 42 3e fc 92 42 3e 17 09 89 3d 63 82 bc 3e
       0.18980357 0.19001383 0.06691187 0.36818227
000260 6d cd 7c 3e 00 49 85 bc 2c 4f 29 be 2b 12 8f be
       0.24687739 -0.01627016 -0.16534108 -0.2794355
000270 9a ef a7 3d f3 a3 28 bf ce 90 85 3d f4 19 a8 be
       0.08199997 -0.65875167 0.0652176 -0.328323
000280 06 14 5f 3d 9d 55 b3 3e c8 de a4 3e 68 f6 ea bd
       0.054462455 0.35026255 0.3220122 -0.114727795
000290 66 44 c8 be df d3 9c be af ec 38 be 08 57 6b 3e
       -0.39114684 -0.30630395 -0.18059038 0.22982419
0002a0 fd e0 1d 3e a6 3b 87 be b5 66 9c be c6 aa d8 be
       0.15417857 -0.26412696 -0.3054711 -0.4231779
0002b0 09 66 86 3c d8 18 b2 3d 00 29 34 3e bc ba 44 3e
       0.016406076 0.08696145 0.17593765 0.19211859
0002c0 3e ed 84 bd 6e 4d 76 3d f5 8d 2c be 0b 4b 70 be
       -0.06490563 0.060132436 -0.16851027 -0.23466127
0002d0 28 55 67 be 1f fc c0 be 03 8d fe 3d 74 77 89 be
       -0.22591078 -0.37692353 0.124292396 -0.26848948
0002e0 46 79 fa be 47 27 0c be ab c6 4b 3e 3f 38 3b 3e
       -0.4892065 -0.13686858 0.19900005 0.18283175
0002f0 9e ef cc 3d 02 55 de be a0 2b 86 3d 00 7b 06 be
       0.10006641 -0.4342423 0.065512896 -0.13132858
000300 f6 08 b4 be 2b fb a7 be 1e e0 bc bd 9c a2 3a be
       -0.35163087 -0.32808813 -0.092224345 -0.18226093
000310 a3 fe 0b 3d 89 b8 58 bd 77 40 85 be fb e6 6e be
       0.034178387 -0.05291036 -0.26025745 -0.233303
000320 d1 78 d1 bc 9c f6 55 3e e6 62 8a 3d b6 31 88 ba
       -0.025570305 0.20894855 0.06757145 -0.0010390792
000330 e8 98 a1 bd a0 d2 9b be 7b b3 8a bd 45 49 1f bc
       -0.07890493 -0.30434132 -0.067725144 -0.009722059
000340 52 79 05 be 25 bc 11 bf e8 53 b7 be 82 af 18 3e
       -0.13034561 -0.5692771 -0.35806203 0.14910701
000350 2c c5 96 be f5 90 23 3e 18 9b 95 3e f6 7e 8c be
       -0.29447305 0.15973265 0.2921989 -0.27440614
000360 2a 3e 93 3e 76 cb d2 3d 30 10 ff bb 0c 71 18 bf
       0.28758365 0.10292713 -0.007783912 -0.59547496
000370 be cc 01 be 5c 7e a9 be 15 22 50 bd 11 c3 45 bd
       -0.12675759 -0.33104217 -0.050813753 -0.048281733
000380 ba 53 4d 3d 25 84 78 be db 0c cd bc 0a 4e 37 be
       0.050128676 -0.24269159 -0.025030544 -0.17900863
000390 c4 43 e9 3c ef 81 7f bc 87 4f 39 3d 28 cf da bd
       0.028474696 -0.015594943 0.04524186 -0.10684043
0003a0 05 8b de 3d 1e 40 a2 bc ab e7 3c be 1e 8b c1 3e
       0.108663596 -0.019805964 -0.1844775 0.3780145
0003b0 c0 ae a2 3e d6 76 66 be 7b 3c f1 be a8 20 30 be
       0.3177395 -0.2250627 -0.47116455 -0.17199957
0003c0 c1 74 b6 be 10 bd 05 bf ca a3 9a 3d df c1 30 be
       -0.3563595 -0.5224161 0.075507715 -0.17261456
0003d0 75 f6 76 3d 92 7c 8c bd d3 53 f1 3c 18 95 1d 3d
       0.060293633 -0.068596974 0.029458916 0.038472265
0003e0 5d f2 ce 3e 52 a1 5f be 06 20 a6 3e e5 2c 9a 3e
       0.40419284 -0.21838883 0.32446307 0.30112377
0003f0 8c 69 45 bc de 0b ae be a6 0b 78 3e 06 dc 08 bd
       -0.01204909 -0.3399343 0.24223194 -0.033412956

bias f4 [200]
000000 c4 bf 73 be 78 cd c6 3e ae 67 3e be 04 1b 5a be
       -0.23803622 0.38828635 -0.18594238 -0.21299368
000010 2c 48 8b be 95 f2 3d 3d 05 c5 52 3e d1 bc 89 be
       -0.272035 0.046373922 0.2058297 -0.26901868
000020 90 e9 6f be 2e cc 79 bd 43 c3 aa bc 63 36 55 be
       -0.23428941 -0.060985737 -0.020845061 -0.20821528
000030 1d ee c0 be d0 b3 82 bd 27 11 bb be ea 1d 6b be
       -0.37681666 -0.06381953 -0.36536524 -0.2296063
000040 29 fb 1d 3d 83 80 24 be fe 66 cc 3d 2e 63 43 3d
       0.038569603 -0.16064648 0.09980582 0.047702007
000050 34 e5 94 bd 72 61 c4 3c 8e 7a aa be c7 19 22 bc
       -0.072702795 0.023972247 -0.33296627 -0.009893841
000060 a2 04 95 3d b4 90 66 be 97 c7 29 3e 73 72 cc 3d
       0.07276274 -0.22516137 0.16580044 0.09982767
000070 a9 ee 64 bd bb fc 24 be c2 1b 82 3e f2 a9 c9 bd
       -0.055891667 -0.16112034 0.25411803 -0.098468676
000080 99 8d 88 bd 2f 7b 46 3e c6 81 1f 3e 01 b0 66 be
       -0.066676326 0.19382928 0.15576848 -0.22528078
000090 dd 73 75 be 37 60 98 be 27 19 73 3e c4 1f af bd
       -0.2396998 -0.29760906 0.23740064 -0.08550981
0000a0 5a e1 94 3d bf 22 5f 3e 47 47 9f bc 41 2a bc bd
       0.07269545 0.21790598 -0.019443167 -0.09187747
0000b0 4b 35 02 3d 9b fa 0a be 67 77 b1 3d 74 3c b3 3d
       0.031789105 -0.13572161 0.08665352 0.08751765
0000c0 f2 b6 a8 be 35 f9 a3 bd ff 59 8a be 36 7c 91 3d
       -0.32952076 -0.08006517 -0.27021787 0.071037695
0000d0 2a a3 94 be 61 71 4d be 7d 34 93 3e 8a e4 52 be
       -0.29030734 -0.20062782 0.28750983 -0.20594993
0000e0 b0 5d 95 bd 1c d3 19 3d 0c af 6f 3d 68 f2 9f be
       -0.0729326 0.037554845 0.058516547 -0.3123963
0000f0 d4 5a 0f bd d4 16 15 3e ec b0 ad 3d 13 4b e1 3b
       -0.03499873 0.1455949 0.08481011 0.0068754046
000100 6a 3b 83 bd 7c 33 21 be 37 cd 58 be 31 59 86 3d
       -0.06407817 -0.15742296 -0.21172033 0.06559981
000110 79 34 7e bd a6 0a 4a 3c bf e6 09 be 90 23 20 be
       -0.06206176 0.01233164 -0.13466929 -0.15638566
000120 e7 aa 05 3d 8f 49 83 3e b3 c0 0d be c9 1e 94 3e
       0.03263369 0.25642058 -0.1384304 0.28929737
000130 ac 3a f3 3b 42 81 fe bd 91 c0 3e bd 63 7f a2 be
       0.0074227657 -0.12426998 -0.046570364 -0.31737813
000140 1a 86 69 be 62 d2 84 be e1 7e 98 3e c9 30 8d be
       -0.22805062 -0.2594176 0.297843 -0.27576283
000150 c3 d1 a7 be 1a 59 1e be 00 92 cc 3d 9c f7 92 3e
       -0.32777223 -0.15463677 0.09988785 0.28704536
000160 c6 84 32 be cf f8 0a be cc f6 24 be 9b e9 1a bd
       -0.17433462 -0.13571475 -0.1610977 -0.03782044
000170 7a 13 08 bd d4 76 a0 be a8 d4 b7 be c6 e4 50 be
       -0.0332217 -0.3134066 -0.3590443 -0.2039977
000180 0c 48 d5 be 57 83 d2 3c fe ce 72 bd 64 8e 35 be
       -0.4165653 0.025697393 -0.059279434 -0.17730099
000190 d2 13 86 be 38 4e 03 be 76 0e 39 3d 79 47 1a 3e
       -0.26186997 -0.12822807 0.045179807 0.15066327
0001a0 0a 81 94 3e 8e d6 1b be cd 3f 4e be e2 60 84 be
       0.290047 -0.15218565 -0.20141526 -0.25855166
0001b0 e8 f5 dd 3d 96 be 4b 3e 4f 99 93 3d f3 67 57 be
       0.108379185 0.19896922 0.07206976 -0.21035747
0001c0 13 b5 b0 bd 1e 78 8d 3e 46 49 df bd ea e0 5b be
       -0.08628287 0.27630705 -0.10902648 -0.21472517
0001d0 04 58 6b 3d 00 17 30 be f8 80 ab be ee f8 0d 3e
       0.057456985 -0.17196274 -0.33496833 0.1386449
0001e0 7f de b2 be ab 95 81 bd 63 a9 5f 3e 88 de db 3d
       -0.34935376 -0.06327375 0.2184196 0.10735804
0001f0 0c 91 af 3e f9 57 99 be c4 b5 1c 3e aa ac dd bd
       0.3429035 -0.2994993 0.15303713 -0.10823949
000200 22 c8 d2 3d b3 c9 a0 3c 73 a1 4f 3e c0 5e 39 3e
       0.102920786 0.019627428 0.20276432 0.1810255
000210 c6 16 5b 3e 81 67 01 be 95 74 ac 3e 03 74 50 be
       0.21395406 -0.1263714 0.33682695 -0.20356755
000220 a3 ac 9e be e4 f5 99 be 03 e8 b2 be d4 ff 39 bd
       -0.30991086 -0.30070412 -0.34942636 -0.045409992
000230 dd 9c 1e bd 7c 1e e5 b9 22 0c 40 be 91 7a fd 3c
       -0.038723815 -0.00043700996 -0.18754628 0.030942233
000240 57 8d 8b bd 98 a4 0b 3e 32 b8 40 3e 65 a6 67 bd
       -0.06814068 0.13637006 0.18820265 -0.05655517
000250 68 47 7e bd 37 67 a9 be 69 b0 c6 bd d7 15 fa 3a
       -0.062079817 -0.3308656 -0.09701616 0.0019079995
000260 a6 10 ec 3d 0c 08 98 bd 29 22 dc 3d 22 cb 7c 3e
       0.11526613 -0.0742341 0.10748703 0.24686864
000270 51 2e 47 be d8 e0 3a bd 75 bf 94 be 10 07 96 3d
       -0.19451262 -0.045624584 -0.2905232 0.07325566
000280 94 f3 c7 be 99 b1 81 be 98 2a 6a 3d 7c af 45 be
       -0.39053023 -0.2533081 0.057169527 -0.19305223
000290 68 b1 9a be b0 a5 b2 3d c4 fa 59 be 6f ec 4b 3d
       -0.30213475 0.08723009 -0.21287066 0.049786028
0002a0 45 93 f0 bd 57 a1 cb 3e 06 26 b0 3d 0d 9a b9 3d
       -0.117468394 0.3977153 0.086010024 0.09062586
0002b0 e0 a9 9d 3c 39 9d 2a 3e 83 ef 0d be 70 77 56 bd
       0.019246042 0.16661538 -0.13860898 -0.05236
0002c0 af 2a 61 bd ca 95 6e 3e eb 41 a2 bb f5 67 64 3d
       -0.054972347 0.23299327 -0.0049517057 0.055763204
0002d0 8f 53 5e 3e 83 bf 40 3e 3c 95 a4 be 7a 1c 13 be
       0.21711563 0.18823056 -0.32145107 -0.14366332
0002e0 f0 73 b1 be e6 cd a0 bd 87 e2 24 be 5a 9e 98 be
       -0.34658766 -0.07851772 -0.16102038 -0.29808313
0002f0 ce 9e 8c bc 97 3f a1 be cc de 3f bd 89 c2 b5 3c
       -0.017165568 -0.31493828 -0.046843335 0.022187488
000300 15 35 93 be 48 6a 19 be 7f 5e f5 bc b1 dc 99 3d
       -0.28751436 -0.1498195 -0.029952286 0.07512797
000310 f3 11 ec 3c 89 35 f3 bd 93 57 98 be ee 3c 17 be
       0.028817153 -0.118754454 -0.29754314 -0.14769337

weight f4 [200, 200]
000000 9b 12 75 be 74 a2 ab be 2d e6 c4 3d 43 4c cf bd
       -0.23932879 -0.3352238 0.09614215 -0.10121968
000010 9f ff 27 3f 60 37 b8 3d 80 9f 56 3e b1 14 ee bd
       0.6562442 0.08994937 0.20959282 -0.1162504
000020 63 f2 56 bd 5e 92 99 3e 43 cd 4c be 70 7c 5b be
       -0.05247725 0.29994482 -0.20000176 -0.21434188
000030 33 2f 32 3e 70 6a b8 bd bd cf 0e bd ea 8c 08 bd
       0.17400818 -0.09004676 -0.034866083 -0.03333751
000040 d9 5a b0 be 81 05 20 bc c3 74 24 be 7a 1a 02 be
       -0.3444431 -0.009766937 -0.16060166 -0.12705413
000050 5c 70 89 be 78 81 ce 3c 3b e0 02 3e 53 80 27 3e
       -0.26843536 0.02520822 0.1278085 0.16357546
000060 46 88 67 be 4f 0e 3c 3d 0f 38 b0 be e6 58 14 3e
       -0.22610578 0.045912083 -0.3441777 0.14487037
000070 7d fe a4 be ba 53 1c 3e f3 ab 3e be 3e 56 56 be
       -0.3222541 0.15266314 -0.18620281 -0.20931336
000080 22 bb 76 be 93 1a 33 be 9e 33 df 3d 25 0d 7a 3e
       -0.24094823 -0.17490606 0.10898517 0.24419077
000090 52 af eb 3d e7 78 44 bc 72 67 46 be 55 28 e2 3a
       0.11508049 -0.011991716 -0.19375399 0.0017254452
0000a0 e6 56 1f be b5 38 17 bf 3c 8c bc 3e dd d5 85 be
       -0.15560493 -0.59070903 0.3682574 -0.26139727
0000b0 9b 6a 2c 3e 64 1c 1c 3e 6e 99 2e 3e 19 0f 73 bd
       0.16837542 0.15245205 0.17050716 -0.05934057
0000c0 23 f5 56 be b5 46 c6 3e ac a5 68 3d e8 b6 27 3e
       -0.2099195 0.3872582 0.056798622 0.16378367
0000d0 29 72 d2 bc 20 de d1 bd fb 9f d6 3d b7 ad e8 bb
       -0.025689201 -0.10247445 0.104797326 -0.0071007865
0000e0 5f 5a e0 bd e0 36 97 3e db 4c 6b bb 28 da 24 bf
       -0.10954737 0.29534054 -0.0035903964 -0.6439538
0000f0 09 46 ea be f3 2f c6 be d2 61 47 bd 91 f6 c6 bd
       -0.45756558 -0.38708457 -0.048677273 -0.097149976
000100 81 2c a9 be d7 16 fd be 14 6d 60 bd d9 e4 eb bd
       -0.33041766 -0.49431488 -0.054791525 -0.115182586
000110 95 15 ea be 33 9a bb bd da 75 35 3d bb 73 5e 3d
       -0.4571959 -0.091602705 0.044301845 0.054309588
000120 6a 6a 40 be f3 aa a4 be f8 87 95 bc 01 3a bd be
       -0.18790594 -0.32161674 -0.018253312 -0.36958316
000130 93 6e ee be b5 f5 65 3e 3b 0b 3e bb 55 d2 81 3c
       -0.46568736 0.22457011 -0.0028998393 0.015847364
000140 df f3 86 bf ef 40 20 3e 6e 6d 60 3e 6c 62 ae 3d
       -1.0543174 0.1564977 0.21916744 0.08514866
000150 67 23 b3 3d 12 b2 b2 3d d1 a3 ab bd 4f 3a ff 3d
       0.08746987 0.087253705 -0.08380855 0.12462293
000160 33 0a be be 9c 52 fd bd bd 09 88 3c ed 8f 16 be
       -0.37117156 -0.12369272 0.016606206 -0.14703341
000170 e9 e4 6f be bd 64 fb 3d 41 d8 c1 3d c3 d8 12 3e
       -0.23427166 0.12275074 0.09465075 0.143405
000180 c8 34 cf be ad d1 93 bd a3 b9 ad 3c 7d ec 83 3e
       -0.40469956 -0.07217727 0.021206683 0.25766364
000190 98 b2 a4 3d 90 5f 56 be e6 22 cd 3d b8 a0 50 3e
       0.080418766 -0.20934892 0.10016422 0.2037381
0001a0 d7 7c 69 bd 57 a1 f4 be f0 0a d3 bd 0d 95 c2 be
       -0.057003822 -0.47779343 -0.103048205 -0.38004342
0001b0 e1 30 06 be b0 05 57 3e 64 49 61 bd d7 72 71 3d
       -0.13104583 0.20998263 -0.05500163 0.05894741
0001c0 32 d7 f2 bd 60 a6 09 bd 98 35 aa 3e a8 0b 30 3d
       -0.118574515 -0.033605933 0.33244014 0.042979866
0001d0 23 29 c4 3d 27 4c 1a 3e 99 3a f4 be 07 f7 4c bd
       0.09578159 0.15068112 -0.47700956 -0.05004027
0001e0 9e c6 9b bd 09 64 3d be c1 0b c5 bd 3b a6 6f be
       -0.076062426 -0.18495192 -0.096213825 -0.23403256
0001f0 aa b4 88 be 02 68 0e 3e a8 51 3f bd c3 b1 e2 bd
       -0.26700336 0.13906863 -0.046708733 -0.110690616
000200 2f 55 91 be f8 6a 6e 3d 3f 21 25 3f a0 f3 0a 3e
       -0.28385302 0.058207482 0.64503855 0.13569498
000210 de 32 d9 bc c3 7e db be 20 bc 70 3e 6a 27 34 3e
       -0.026513513 -0.4287015 0.23509264 0.1759316
000220 62 44 94 be f6 20 86 3d fc 4b 67 3b 45 1d 4a be
       -0.28958422 0.065492555 0.0035293093 -0.19737728
000230 8f 3b 48 bd e8 68 44 be 75 5c 9f 3d 76 a8 fc bd
       -0.048884925 -0.19180644 0.07781307 -0.12336819
000240 bb 74 75 be 0e f1 6d be c2 45 e4 bc c4 94 07 be
       -0.2397031 -0.23236486 -0.027865294 -0.13240343
000250 74 06 25 bd 05 3a b1 3c 86 15 37 3d e0 d3 ba 3d
       -0.040289357 0.021634111 0.04469826 0.09122443
000260 a1 d8 4e bf 82 a8 9d 3e 9b 79 c0 3e 82 55 17 3d
       -0.807993 0.30792624 0.37592778 0.03694678
000270 e0 bb dc ba 8d 30 d4 be 60 7d 2b be ce fc a1 bc
       -0.0016840659 -0.4144329 -0.16747046 -0.019773867
000280 d5 0c 62 be 36 64 b0 be 14 5d b0 bf c7 2a 72 3b
       -0.22075208 -0.34451455 -1.3778405 0.0036951767
000290 18 94 47 be 27 a0 07 3e b4 28 78 3c 63 7b b4 3c
       -0.19490087 0.13244687 0.015146423 0.022031492
0002a0 c3 64 83 3c 5b a0 0c be fe bc e6 bd 92 fb 01 bf
       0.016039258 -0.13733046 -0.11266516 -0.5077449
0002b0 06 dd f9 bd a1 56 20 3a f0 9b 3d 3f 9b 36 31 bf
       -0.1220036 0.00061164243 0.74066067 -0.69223946
0002c0 85 49 a7 be a4 0d ae bb 2a 08 e2 3d 8e 3a b9 be
       -0.32673278 -0.0053116847 0.110367134 -0.36177486
0002d0 bb 20 02 3e e2 e2 06 be 7d 12 3b 3e b2 37 12 be
       0.12707798 -0.13172486 0.18268771 -0.14279059
0002e0 b3 ac b0 3e 5d 36 b5 3c 91 76 26 3e 43 95 10 3d
       0.3450676 0.022120649 0.16256167 0.035298597
0002f0 df 7b a0 3e 6e 03 ab 3e 96 46 21 bf e9 c2 b5 bd
       0.31344506 0.33401054 -0.6299833 -0.08875067
000300 c0 47 15 be 73 e9 20 3e b9 ad cf be 1e 18 c9 3d
       -0.14578152 0.15714054 -0.40562227 0.09819053
000310 e7 77 9c be c5 1d b7 bc 8a 94 84 bd dd c4 c2 bb
       -0.30560228 -0.022353062 -0.06473644 -0.005943878
000320 72 62 8d be f0 42 0d 3e f8 e7 00 be ee 5a e4 bc
       -0.2761417 0.13795066 -0.12588489 -0.02787539
000330 c9 be 31 3f dc 9a 3d 3e 79 b3 eb bd 3f df 69 be
       0.6943174 0.18516105 -0.11508841 -0.22839068
000340 12 72 88 3d f4 cb 38 3e 53 d1 e1 bd 45 aa 44 be
       0.06662382 0.18046552 -0.110262536 -0.19205578
000350 cc 17 46 bf 15 dc 8e 3d be 9b 08 be a0 f9 63 3c
       -0.7738006 0.06975571 -0.13340661 0.013914496
000360 72 71 11 bf 51 dc 42 bc 86 dc a0 bb 4d 27 43 be
       -0.5681373 -0.011893348 -0.004909101 -0.19057961
000370 6c aa 19 bf 2a a3 ff 3d 6b 49 c3 3c 89 92 ca be
       -0.6002567 0.12482293 0.02383872 -0.39564922
000380 bf fc 6f 3e ab 0b 63 bd 0b 6c 6d be cf b9 01 bd
       0.23436259 -0.05543105 -0.23185746 -0.03167134
000390 a8 a2 0e 3d 08 35 42 3e c0 ff 89 bd 3c 0f d6 be
       0.03482309 0.18965542 -0.067382336 -0.41808498
0003a0 81 d3 7c bd f2 37 48 3e 5e c1 65 3e 9c 4a 2d 3e
       -0.061725143 0.19552591 0.22437045 0.16922992
0003b0 5a 0f 57 3e 00 a2 cf bd fa 70 e8 3c aa 5d 4c be
       0.2100195 -0.10138321 0.028374184 -0.19957605
0003c0 68 70 12 3e 1a 0c c9 be 61 ea 2f be ff 82 c4 bd
       0.14300692 -0.39267045 -0.17179252 -0.09595298
0003d0 a7 ae 26 bc 16 1d 91 bd f8 05 23 bf 23 6b 5c be
       -0.010173476 -0.07085626 -0.6368098 -0.21525244
0003e0 68 d8 94 3e 5e a3 3c 3d 52 5b b4 be ce e6 ae 3d
       0.29071355 0.046054237 -0.35225922 0.08540116
0003f0 53 0e 29 bc 91 2d 2b bd 48 0b 3a 3e 02 96 74 be
       -0.010318357 -0.041791502 0.18168366 -0.23885348

bias f4 [200]
000000 9d d3 d4 3d 0c a7 51 3d 56 38 81 bd 33 e0 62 bd
       0.103919245 0.0511847 -0.06309573 -0.055389594
000010 46 82 d5 bc 5e 82 33 bd 61 ee f8 3c d7 46 07 be
       -0.026063096 -0.0438255 0.030387105 -0.13210617
000020 ca 05 d8 bc 3b 38 25 bd 90 b9 21 bd c2 ef ec bd
       -0.026369948 -0.04033683 -0.039483607 -0.11569168
000030 c5 65 47 3b 5d a4 d5 bc 88 33 fe 3a 97 3d 17 3c
       0.003042565 -0.026079351 0.001939402 0.009230993
000040 ff ad 89 bd 0c 67 5a be 75 ac bf 3b 8d c2 1f be
       -0.0672264 -0.21328372 0.005849416 -0.15601559
000050 af d0 87 bd f6 73 9a bd 56 aa 24 bd 2a 3c 52 be
       -0.066316 -0.07541649 -0.040201508 -0.20530763
000060 e9 75 8f 3d 64 cd 6b be 70 3f 74 3c 02 2e 14 3e
       0.070049115 -0.23027569 0.014907703 0.14470676
000070 1d 16 aa bc 47 64 b8 bd d7 91 d7 bc ea ff 28 ba
       -0.020762498 -0.090035014 -0.026314659 -0.00064468256
000080 a9 90 7d bd 79 a1 fc bd 04 3d 2c be 88 ea 27 be
       -0.061905537 -0.12335486 -0.1682015 -0.1639806
000090 57 3f 6a bd 02 43 d6 3b bf 5b 41 bd e4 a2 d1 bd
       -0.05718931 0.0065387497 -0.047206637 -0.10236147
0000a0 56 92 64 3d d8 ad 7d bd 79 64 86 be 03 21 7c be
       0.05580362 -0.06193337 -0.2624853 -0.24621968
0000b0 7c bd 43 bd fc 54 75 bc e1 05 9e 3c a1 51 25 be
       -0.04778813 -0.014973875 0.019289913 -0.1614442
0000c0 d9 0b e6 3c bf 6a 7e bd b4 db 3f bd 4b 40 6c bd
       0.028081821 -0.06211352 -0.046840385 -0.057678502
0000d0 2d bb fd bd 1e cb 9d bd e1 e3 5e be 53 85 59 be
       -0.123892166 -0.07704757 -0.21766616 -0.21242265
0000e0 52 c3 ef bc fa b8 52 bd d3 28 0f bb f7 cc e2 bd
       -0.02926794 -0.05144594 -0.0021844401 -0.1107425
0000f0 e8 bc a3 bc f5 07 9a bc d3 33 80 bd 66 1a e2 3d
       -0.019987538 -0.018802622 -0.06259885 0.11040191
000100 01 5f 81 3d dc 55 65 bd 31 06 9f bc 6c 94 22 bd
       0.06316949 -0.055990085 -0.019412132 -0.039692327
000110 0c 73 fa bd fb e4 dd 3d dd 61 b5 bd 92 8a b1 bd
       -0.12228975 0.1083469 -0.088565566 -0.08669008
000120 e5 ee 53 3d da 27 eb bc 01 b0 4d be 40 3b f9 3d
       0.0517415 -0.028705526 -0.20086671 0.12169504
000130 d7 4d 7f 3d 0b 07 ab bd 88 00 7e bd ec ad 62 bd
       0.062330093 -0.08350953 -0.062012225 -0.055341646
000140 ed 69 1f be b9 99 15 bd 14 55 f5 3c 30 6c 33 be
       -0.15567751 -0.036523554 0.029947795 -0.17521739
000150 86 16 43 be b6 f0 a1 bd 9e 42 a6 3d 71 28 6b be
       -0.19051561 -0.0790724 0.08118175 -0.22964646
000160 b0 a3 54 bd 91 91 20 be 3a 04 16 bd 76 71 27 bb
       -0.051913917 -0.15680529 -0.036625125 -0.0025549806
000170 f8 1c c5 3d 2f c8 51 be 98 ce 1d bd 99 ab 14 be
       0.09624666 -0.2048652 -0.0385271 -0.14518584
000180 93 fe 42 3e a8 65 c5 bd 12 35 5b be 11 a7 a4 bb
       0.19042425 -0.0963853 -0.21406963 -0.0050247987
000190 d6 d0 92 bd 9d f0 c2 bd 51 34 92 3d b4 35 94 bc
       -0.071687385 -0.095185496 0.07138885 -0.018092014
0001a0 bb 4a 11 3d 1f 75 9a bd ae 87 de bd ad bb 92 bd
       0.03547166 -0.0754187 -0.108657226 -0.071647026
0001b0 d7 df 87 bd 89 9b 98 bd c3 dd a6 bd 42 f5 6a bd
       -0.06634491 -0.07451541 -0.081477664 -0.057362802
0001c0 42 f1 8c bd 0b d5 92 bd 36 75 8a 3d 0d 10 e7 3b
       -0.06881954 -0.07169541 0.067606375 0.007051474
0001d0 b5 5a 1b be c7 4a ea bc d2 a8 be bb 9a 49 98 bd
       -0.1517132 -0.02860011 -0.005818465 -0.074359134
0001e0 54 11 81 3b 95 9f 60 bd a0 c0 70 bd 1c 0d 6d 3d
       0.0039388333 -0.05483969 -0.05877745 0.05787383
0001f0 00 58 87 3d f5 88 09 3d 8e d1 8c 3d cd 26 28 bd
       0.066085815 0.033577878 0.06875907 -0.04105263
000200 5a 32 6d be 65 79 27 3e 0b a3 7e 3c 69 37 97 bd
       -0.23163739 0.16354902 0.015541802 -0.073836155
000210 30 19 8b 3d 3a bb 11 3c 41 f6 03 bd cd f3 81 bc
       0.067919135 0.008894736 -0.032217268 -0.015863324
000220 fd 14 d3 bd a0 75 63 be e0 63 21 bd e5 a3 a6 bd
       -0.103067376 -0.22212839 -0.03940189 -0.08136729
000230 ff 05 35 bd 58 b5 67 be 00 27 3c bd f8 1e 9b bc
       -0.04419517 -0.22627771 -0.04593563 -0.018935665
000240 e7 42 c5 3d ae 92 22 bd 46 4c cc bd 4f 96 84 bd
       0.09631901 -0.039690666 -0.099754855 -0.064739816
000250 c6 e1 0b bd 2a 9f 71 3c c0 50 46 be b4 d2 4f bd
       -0.03415086 0.01474742 -0.19366741 -0.05073805
000260 65 4b 82 3c f1 ea 84 bd 3d d1 d7 3c fb ad 93 bd
       0.015905092 -0.06490124 0.02634489 -0.072109185
000270 3c b8 b7 bd 49 d1 31 3d e7 c2 92 bb e3 e2 e2 bc
       -0.08970687 0.04341248 -0.0044788006 -0.027696079
000280 a1 21 bf bd e8 28 10 3b cc f4 9f 3b 03 aa fb bc
       -0.09332586 0.0021997038 0.004881477 -0.030720716
000290 61 c4 76 bd 6b d9 2a be 66 8b 62 3c fd 79 41 be
       -0.060245875 -0.16684501 0.0138271805 -0.18894191
0002a0 90 80 99 bd f4 27 a9 bd c9 da 5c be 15 b9 d7 bd
       -0.074952245 -0.082595736 -0.21567835 -0.105333485
0002b0 58 85 51 bd 17 f3 3c be 04 c6 47 be d5 07 dd bd
       -0.051152557 -0.18452106 -0.1950913 -0.107925095
0002c0 95 59 ec bd 0b dc 41 bd e6 41 aa be e5 ac 98 be
       -0.11540524 -0.04732899 -0.33253402 -0.29819408
0002d0 4e a1 1d bd a5 c1 0c 3e ae 99 88 bd e9 dd 04 be
       -0.03848391 0.13745745 -0.06669937 -0.12975277
0002e0 be 72 af 3d ca 12 28 bd e6 b7 51 bc 41 3b fc 3b
       0.08566807 -0.041033544 -0.012800192 0.0076974933
0002f0 05 75 46 bd 95 86 4b bd a7 16 8b be 7f 76 46 bb
       -0.048451442 -0.049688894 -0.2716572 -0.0030283032
000300 25 f9 df bd 66 c0 f7 bc e7 ec b5 bd 45 00 ac bd
       -0.109361924 -0.03024311 -0.08883076 -0.08398489
000310 40 fb f0 bd bf 58 cb bc b3 57 2c be 8b 95 16 bd
       -0.11766672 -0.02482259 -0.1683033 -0.03676371

weight f4 [2, 200]
000000 08 de b3 be 70 51 42 bf 10 3d 30 3d 4d 17 f7 3e
       -0.35130334 -0.75905514 0.043026984 0.48259965
000010 9a 8c 97 bc da b4 d1 ba e3 86 36 3d 28 41 d1 be
       -0.018499661 -0.0015999333 0.04456223 -0.40870023
000020 fe 6c 67 bc 0d 78 3a 3d be f8 e5 bd 8f 67 15 bb
       -0.014125107 0.045524646 -0.112290844 -0.0022797321
000030 c4 eb 18 3e 32 c4 67 3c 85 a5 22 bc b8 e0 b9 bc
       0.14933687 0.014145898 -0.009927158 -0.022690162
000040 08 6a 05 bd 70 71 69 bf ab e8 48 3e 7e e2 61 bd
       -0.032571822 -0.91188717 0.19620006 -0.05514764
000050 42 d5 9c be c0 0c 47 bd 28 12 be bc d1 ed 8f bf
       -0.30631453 -0.048596144 -0.023202017 -1.1244451
000060 0c f1 26 be e0 2b 04 40 dc e2 bc 3d 1d 19 eb 3b
       -0.1630289 2.065178 0.092229575 0.0071746246
000070 a4 56 22 3d e3 b0 4e bd 0c a1 02 bd 80 5d 10 3c
       0.03963341 -0.05046166 -0.031891868 0.008811355
000080 c7 83 c1 3c 66 e5 d4 3f a1 fc dd bc 98 f1 66 bf
       0.023622407 1.6632507 -0.027098002 -0.9021239
000090 fb ce ca 3b 8b fc e4 3c 19 4f 35 bd 19 86 0b 3f
       0.006189225 0.027952453 -0.044264887 0.5450149
0000a0 e7 80 10 bd 4c 30 09 bd a8 55 05 bd 2c 80 9e 3f
       -0.03527918 -0.033493325 -0.03255239 1.2382865
0000b0 88 62 86 bd 9a 57 7e bc 5e a0 b0 bc 6d 0e be be
       -0.06561762 -0.0155238155 -0.021560844 -0.3712038
0000c0 56 7e 2b 3d 63 37 9f 3d 13 44 81 3c 65 ab a2 be
       0.04186853 0.07774236 0.01577953 -0.3177139
0000d0 02 31 be be c7 72 3f bd a4 f7 fd bd 9f bf 29 bf
       -0.37146765 -0.04674032 -0.12400749 -0.66308016
0000e0 a6 c5 a2 3c 0f 47 79 be 71 50 47 bb 10 79 87 3f
       0.019869637 -0.24343513 -0.0030412937 1.058382
0000f0 35 23 b6 3c f0 f9 0e 3d 4f f4 8b bc 15 5f 4a 3e
       0.022233585 0.034906328 -0.017084269 0.19762833
000100 ea 81 56 3e a9 60 3e 3d 1f 68 9f bf de 7f 78 ba
       0.20947996 0.0464789 -1.245365 -0.0009479503
000110 fb 84 43 3e 4c 41 0f be 30 bc 3a 3d cb 46 dd bd
       0.19093697 -0.13989753 0.045589626 -0.10804518
000120 1a 73 7b 3f d7 ca ba 3c c1 1e 36 bf 7e 18 d6 bd
       0.98222506 0.0228018 -0.71140677 -0.1045389
000130 29 bb 2a 3d 46 f9 57 bd cd d9 9f bc 13 05 8a ba
       0.041682396 -0.05272796 -0.019513035 -0.0010530077
000140 69 e1 4f 3e 33 88 dc bc e6 10 e6 3d c4 c2 98 3f
       0.20300831 -0.026920414 0.11233692 1.1934438
000150 86 62 6e 3f 05 fd 8c be 37 a0 d6 be 3d c8 7a 3e
       0.93119085 -0.2753679 -0.4191911 0.24490447
000160 e2 b7 d7 3c 66 66 33 3e c3 14 c0 bc 4d 21 bb 3c
       0.0263328 0.1751953 -0.0234474 0.022843027
000170 d1 2e 09 be 8a 32 d6 3e 06 f8 5f be 90 fe 7e 3e
       -0.13396765 0.41835433 -0.21871957 0.24901795
000180 20 7c 0c be 0b d6 e0 3c 21 9c be 3d 87 e0 a5 bb
       -0.13719225 0.027445814 0.09307123 -0.005062166
000190 08 0d 94 3c 7d 33 51 3e 47 22 0c bf de 64 10 bd
       0.01807262 0.20429797 -0.54739803 -0.035252444
0001a0 cc 77 71 be 7f 6b 38 3d 54 30 98 3e 9b e9 a4 3c
       -0.23580855 0.04502439 0.2972437 0.020130923
0001b0 a8 f8 89 bb a6 d9 7e 3c 3f a7 df be 03 c5 8f bd
       -0.0042105503 0.015554821 -0.43682286 -0.07019999
0001c0 89 51 8c 3e b7 8f 4e bd 50 35 08 3d 65 8c d6 3e
       0.27405956 -0.050430026 0.033253968 0.41903988
0001d0 98 43 91 3d ce fe 02 bd 87 45 d3 bb 62 f0 45 3d
       0.070929706 -0.031981282 -0.0064474973 0.04832495
0001e0 63 d1 22 3f 4b d1 03 bf 66 62 3f bf f0 4d 65 bd
       0.6360075 -0.5149123 -0.7475952 -0.05598253
0001f0 af 6a 0b 3e 9c f1 33 3e 6a 7e be 3e 5b 3d 27 bf
       0.13614915 0.17572635 0.3720582 -0.65327996
000200 e9 46 8a 3f ce b9 da bc 4f d3 62 3f 27 e5 55 3d
       1.080289 -0.026699927 0.8860368 0.05222049
000210 8d ec 0d bf ad c0 d6 bc 02 ba a2 3d f9 47 0d ba
       -0.5543907 -0.026214922 0.079456344 -0.0005389448
000220 79 bf 57 3c a7 e5 21 bd 39 aa 2e bf fd e3 ae bc
       0.013168209 -0.039525654 -0.6822849 -0.021348948
000230 83 f5 fe 3c 2c d9 a6 3f 2f df 18 bd 02 11 14 3d
       0.031122928 1.3035026 -0.03732222 0.036149032
000240 fd dd 8b 3e fa 99 7c bd 6e 0f 39 3d 6b a8 19 bd
       0.273178 -0.06167028 0.04518073 -0.03751413
000250 ab 3a bd 3c 4c 29 bf 3e 1e 9d 10 3d 28 1c 87 3d
       0.023099264 0.37336195 0.03530609 0.06597167
000260 66 68 94 3c a2 1d c9 3b 03 63 95 3e 1d 39 98 3f
       0.018116187 0.0061375657 0.29177102 1.189243
000270 cb 3a ff bc 9c 0d bb bd 68 ea fa 3d e3 22 c5 3b
       -0.031155964 -0.09133455 0.12251741 0.0060161217
000280 76 99 66 bb 8d 1a fe bb 88 3c 1d bd a4 88 82 3d
       -0.0035186685 -0.00775463 -0.038387805 0.063737184
000290 8a 44 c9 ba 94 9e bc bf f6 30 0b be 5e b6 04 bf
       -0.0015355509 -1.4735894 -0.13592896 -0.5184077
0002a0 b4 ea 3e bd 8b 9b db 3c fe 2f 03 3e d5 ce d2 3c
       -0.04661055 0.026807567 0.12811276 0.02573339
0002b0 7f f7 88 3d 99 68 56 3f 74 c0 b1 3e d1 5f 4e bc
       0.06687831 0.83753353 0.34717143 -0.012596087
0002c0 67 32 06 be a0 4b 2a 3d eb 20 8f bf fd e6 b6 3f
       -0.13105164 0.041576028 -1.1181921 1.4289242
0002d0 a4 4c f1 3d 28 51 24 be 4d 4c c4 bc 88 db 2f be
       0.11782196 -0.16046584 -0.023962164 -0.17173588
0002e0 1e c1 4a bd eb 74 02 bd 1e 3b 5f 3c f6 55 56 3d
       -0.049500577 -0.031849783 0.0136249345 0.052328072
0002f0 04 3e 5a bd c1 2f 7f 3d 54 c8 3b 3d 96 2c 64 bb
       -0.0532818 0.0623014 0.045845345 -0.0034816614
000300 5f 3a 14 3c ca 82 74 be bb 2a e6 3b d2 ed 7f 3d
       0.00904712 -0.23878017 0.007024137 0.062482662
000310 67 fb ff be c2 19 37 3d 67 78 05 3f 69 4b db 3c
       -0.49996492 0.0447023 0.52136844 0.026769357
000320 41 90 80 bd 2c de c5 be 1b c5 1b bc ed 1d 24 3e
       -0.06277514 -0.38646066 -0.009507443 0.16027041
000330 a1 46 6e ba 06 2e 68 bd d2 64 45 3e cd 92 04 bf
       -0.0009089504 -0.056684516 0.19276741 -0.517865
000340 4d f8 22 3d 26 99 9c 3d e1 de 6c bf 5f 10 3c bc
       0.03978758 0.07646398 -0.92527586 -0.011478513
000350 5d 64 b0 3e 3f 2c ae bb bf 99 4e bc cb 40 b6 3e
       0.3445157 -0.005315333 -0.012609898 0.35596308
000360 a2 b3 52 3c 04 6c 1a be b0 ba fd 3e 45 35 10 3f
       0.012860211 -0.15080267 0.49556494 0.5633128
000370 b3 ff ab bd 06 ba d9 3e 72 4d ea 3c 0a 51 9e 3e
       -0.0839838 0.42524737 0.028601382 0.30921203
000380 2c 8c 0f bc ed a0 7f be a0 2f 80 3f 07 b7 ea 3e
       -0.008761447 -0.24963732 1.0014534 0.45842764
000390 f2 e0 d5 bc b0 65 68 bc 75 80 62 bd c5 91 35 bd
       -0.026108239 -0.0141844 -0.055298287 -0.04432847
0003a0 e7 a4 0f bc ab f7 47 bd 04 1b 1e 40 2e 22 5b bd
       -0.008767343 -0.04882018 2.470399 -0.053499393
0003b0 f4 00 8c bc c9 36 57 3d d6 2d e5 bb 9a 56 c2 3e
       -0.017090298 0.05254248 -0.0069939895 0.37956697
0003c0 56 fa 4e 3d 0e d4 65 3c 36 b3 9f 3f 9e ec ae 3c
       0.050531708 0.014027609 1.2476566 0.021353062
0003d0 ce b7 c8 bc 27 fe 9a 3b 60 e0 cf 3b f8 06 3d be
       -0.024501707 0.0047300044 0.0063438863 -0.1845969
0003e0 28 a9 8b 3c a8 c4 58 bc f3 b4 ea 3c 15 76 bf 3e
       0.017048433 -0.01323048 0.028650736 0.37394777
0003f0 26 39 10 be 74 db 4c bd c7 2d ba 3f 26 59 03 be
       -0.140843 -0.050013974 1.454522 -0.12826976

bias f4 [2]
000000 50 4b 75 3d 22 62 41 3e
       0.059886277 0.18885091
