Vehicles/GenDisV_0_2_0/GenDisV_0_2_0_critic_target.pth (torch, 353432 bytes, 10 tensors)

weight f4 [200, 15]
000000 3e ac a8 3e d7 7f be 3e 51 64 96 be 61 fd c0 bd
       0.3294391 0.3720691 -0.2937341 -0.09423328
000010 64 5e 1c be 7b 91 60 3e a9 1e a8 3e 76 57 4c be
       -0.15270382 0.21930496 0.32835892 -0.19955239
000020 b8 3c 95 bf 19 1b 98 bd 90 6e af bd c4 00 99 3d
       -1.1659155 -0.074270435 -0.0856601 0.07470849
000030 8e ac 12 3e 9c 07 f2 3e f9 73 cb 3e 1e 66 a3 3d
       0.14323637 0.4727143 0.39736918 0.07978462
000040 47 4c a9 3d 8d dd 13 be 07 9c 23 be e3 20 c0 bd
       0.08266502 -0.14439984 -0.15977488 -0.09381273
000050 7a dc 1a be fa 6e e7 bd d5 ab 50 3d 1e 93 af bd
       -0.15123168 -0.11300464 0.05094512 -0.08572982
000060 12 26 3d be a2 e5 40 be ea 32 d4 3d a9 8f 83 be
       -0.18471554 -0.18837598 0.103612736 -0.25695542
000070 c0 0d 45 3e 24 78 84 3c 02 7b 1b 3f e4 fb 03 3f
       0.19243526 0.016170569 0.6073457 0.5155623
000080 25 3e 86 bf aa 9d c3 3c 5a 9a 0b be dc ce 84 be
       -1.0487715 0.023878891 -0.13633099 -0.2593907
000090 99 5c ec 3c e9 36 12 3d 00 ec 8f bd 0c 44 cd 3c
       0.028852748 0.035696898 -0.07027435 0.025056861
0000a0 de 97 b7 be 4e b6 25 3d 27 11 3b 3e 3e 0e 85 be
       -0.35858053 0.040457062 0.18268262 -0.25987428
0000b0 c0 b4 74 bf e7 06 cc be 98 3b 7f bf 12 43 42 3f
       -0.955883 -0.39849016 -0.9970031 0.7588359
0000c0 15 a4 59 be b2 b2 be 3d ae ac 6e 3d d4 af 98 3e
       -0.21253999 0.09311427 0.05827015 0.29821646
0000d0 f1 a4 4c 3e 22 7b 98 3e 00 90 35 bf 1c d4 d7 3d
       0.19984795 0.29781443 -0.7092285 0.105385035
0000e0 40 23 97 3e 84 0c 99 3e 83 09 ed be 8a 5b bd 3d
       0.2951908 0.2989236 -0.4629632 0.09245975
0000f0 4d 10 83 bd ac 83 2b 3f f8 c5 6c 3f fa 11 12 3e
       -0.063995935 0.6699779 0.92489576 0.1426467
000100 61 15 dc bb a1 ad 01 be a6 c6 99 3e 91 9c 1d 3d
       -0.0067164158 -0.1266389 0.3003437 0.03847939
000110 d0 da 0d 3e 45 0e 0f bf 59 e2 82 be 77 fb 25 3e
       0.13853002 -0.5588115 -0.25563315 0.16209207
000120 a0 14 f1 bd fe 3f a9 be d3 d8 0d bd f1 64 23 3e
       -0.11771512 -0.33056635 -0.034630608 0.15956475
000130 03 b2 40 be 63 ad 87 be 7f 20 13 3f b5 07 e6 be
       -0.18817906 -0.2649947 0.5747146 -0.44927755
000140 44 85 02 3e b8 77 0f be 24 76 d5 be 41 61 b0 be
       0.1274615 -0.14010513 -0.41691697 -0.344492
000150 58 1f bf 3d 9f d4 a7 be 17 85 6f 3e fb 83 a1 3d
       0.0933215 -0.32779405 0.23390613 0.078865014
000160 08 ad 05 be 4b 55 81 3e c1 e9 16 be 6c 2a 0f 3f
       -0.13054287 0.25260386 -0.14737608 0.55924106
000170 5d 60 44 be 63 ac 95 3d 07 c3 ce bd 27 33 66 3d
       -0.19177385 0.07308271 -0.10095792 0.056201126
000180 69 f8 7d 3e 55 92 70 be 17 72 19 bf 32 c4 ba 3e
       0.24801792 -0.23493321 -0.5993971 0.3647781
000190 3d 17 09 3e ce 31 22 3d 33 71 ea bc 64 9e 9f 3e
       0.13387771 0.03959828 -0.02861843 0.3117553
0001a0 14 33 ad 3e 4a 4a 87 be 9d cb ae 3e e9 cd 75 bf
       0.33828032 -0.26423866 0.3413972 -0.9601732
0001b0 6f de 36 3e ab 71 c3 be aa 05 e3 bd bf 4c 78 be
       0.17858289 -0.3817266 -0.11085065 -0.24248026
0001c0 57 b1 22 be 02 00 f3 3d c5 61 3f 3e 7d 40 34 3f
       -0.15887962 0.11865236 0.1868964 0.704109
0001d0 1e be 95 3e 07 18 31 bd ea c6 75 3e 8f 23 d8 3d
       0.2924661 -0.043235805 0.24001661 0.10553657
0001e0 02 f8 d1 3e 6d 1a 2a bf 80 c7 64 3f 55 e0 dd be
       0.41009527 -0.6644657 0.8936691 -0.43335214
0001f0 1b eb 44 be f4 6d ec bd 89 28 21 3e 00 05 63 3e
       -0.1923031 -0.115444094 0.15738119 0.22169876
000200 b1 3e 12 3d 46 86 e4 be f1 4e c2 be 07 29 2d bf
       0.03570432 -0.44633693 -0.37950853 -0.6764073
000210 83 f5 7c be 92 f3 2a be d7 7d 0a 3f b3 d4 ba 3d
       -0.2470303 -0.16694477 0.54098266 0.091226004
000220 c9 95 48 be a4 0e 9d 3f f0 cd 23 bf 0e c7 8a be
       -0.19588389 1.2270093 -0.6398611 -0.27104992
000230 ab 35 40 bf ae 3d 38 3f 24 8c 78 3e 86 71 fb 3b
       -0.7508189 0.71969116 0.2427221 0.007673445
000240 f8 0f 5f 3d af df cc bc 7d f0 67 3d f7 39 e5 bc
       0.05445859 -0.025009004 0.056625832 -0.027981741
000250 1a 6f aa bb e1 6e ad bc 41 fb 99 3e 3b a9 b4 3e
       -0.0052012326 -0.021171035 0.30074504 0.35285363
000260 59 e4 91 3e 5d e4 83 3e ab 29 02 3f ec 92 a4 be
       0.28494528 0.25760165 0.5084483 -0.32143342
000270 15 68 37 3e 32 c4 1d be b7 11 05 be 74 98 88 be
       0.17910798 -0.15406874 -0.12995039 -0.26678813
000280 59 14 e4 3d 1c 46 7d 3d e5 6f 1e bd 6b 23 67 bf
       0.111366935 0.06183444 -0.03868093 -0.9028842
000290 02 ea c9 3c a4 76 b9 3e ac f5 b9 3e 9f e1 0b 3d
       0.024647716 0.36223328 0.36320245 0.034150716
0002a0 e2 1d c1 be 17 5e 77 be 63 24 90 be 48 86 e9 3c
       -0.3771811 -0.24156986 -0.2815276 0.028506413
0002b0 c7 2d 07 bf 2c 17 1a bf a6 f4 a8 be 89 98 ae be
       -0.52804226 -0.6019161 -0.32999152 -0.3410075
0002c0 eb 9c 67 be ac 14 2e 3e 60 45 1f bf 9b 27 a2 3e
       -0.22618453 0.17000073 -0.6221523 0.31670842
0002d0 ec 28 6e bf a7 20 c0 3e c5 26 49 3e 85 19 ac 3e
       -0.9303119 0.37524912 0.19643696 0.3361322
0002e0 03 ce 42 3e ee 1f b8 3e f4 cd 6e 3e 42 7e 10 3e
       0.190239 0.3596186 0.23320752 0.14110664
0002f0 db 57 be 3d 52 b7 6d 3e ff ed a1 be e4 b2 c5 bd
       0.09294101 0.23214462 -0.3162689 -0.09653261
000300 33 96 d3 3e f5 30 27 be 88 b2 20 be 56 4c d1 3e
       0.4132553 -0.1632727 -0.15693104 0.40878552
000310 15 ed 05 be 90 18 a8 3e 15 ad 53 3d 19 18 ce bc
       -0.13078721 0.3283124 0.051678736 -0.025157975
000320 89 31 8c be a7 81 14 be f6 4a 9e be 0d 4f e2 be
       -0.27381542 -0.14502583 -0.30916566 -0.44200936
000330 03 11 4c 3e d3 a0 c7 3d 50 af 32 3e 77 e5 89 3e
       0.19928364 0.09747472 0.17449689 0.2693288
000340 fc 3e b5 be 22 ed 02 3e 47 7e a2 3e 83 f2 36 bd
       -0.35399616 0.12785771 0.31736967 -0.04466487
000350 7f 07 7a 3e 45 36 67 3e a7 f5 ca bd 95 28 31 bf
       0.24416922 0.22579296 -0.09910136 -0.6920255
000360 03 e8 24 bf 9a aa f1 bd 36 47 0c be 0e a5 0d 3e
       -0.6441652 -0.11800118 -0.1369904 0.13832495
000370 c9 40 e1 3e 4a d0 d0 bd fc 02 ab bd 64 00 8f 3f
       0.4399474 -0.10195978 -0.083501786 1.1171994
000380 37 46 de 3e da 23 a9 3e 31 3b c6 3e a2 01 7f bd
       0.43412945 0.33035165 0.38717034 -0.062257417
000390 f6 c4 78 be 5b ca 22 bd bb 1d 81 3e bb 4a a6 3e
       -0.24293885 -0.039743762 0.25217995 0.3247889
0003a0 18 a4 5a 3e 0c 4f 93 be e9 1a e7 3d 8f 58 03 be
       0.2135166 -0.28771245 0.112844296 -0.12826751
0003b0 77 0e b6 bd 77 5e 83 be 4b 96 35 bd 74 b9 c3 3e
       -0.08889478 -0.25658008 -0.044332784 0.38227427
0003c0 9b 34 82 bb 64 79 16 be 6b 75 82 bf 6c 1f 18 3f
       -0.003973556 -0.14694744 -1.0192083 0.59422946
0003d0 c0 f9 f6 3e ef a2 2f be 6d a9 94 be dd ba 33 be
       0.4823742 -0.17151998 -0.29035512 -0.17551751
0003e0 19 c9 a5 be f2 87 9a bd 1a 9b 45 be 44 6e f5 3b
       -0.32379988 -0.07545461 -0.19297448 0.0074899513
0003f0 d6 93 ba 3e 59 e8 dc bd 53 1b 7a bd 5c 6e ab 3e
       0.36440915 -0.10786504 -0.061061215 0.33482635

bias f4 [200]
000000 90 c8 ec 3c 65 dd 89 be 25 d9 aa 3d bd 24 b3 be
       0.02890423 -0.26926723 0.08342198 -0.34988967
000010 9a 5f b0 ba ec 3a e0 3e bb 78 8d bd 0c 47 61 be
       -0.0013456226 0.43794954 -0.06907793 -0.21999758
000020 45 aa 1a bc 49 4a c7 be 90 c5 23 be 76 e8 70 bd
       -0.0094400095 -0.38923863 -0.15993333 -0.058815442
000030 d9 01 8d be 03 c0 8a 3e cc 6d 13 3c d5 e2 49 bc
       -0.27540472 0.27099618 0.008998346 -0.012322147
000040 aa 00 34 3e c2 96 ba 3e dd b9 b9 be aa d5 2e be
       0.17578378 0.36443144 -0.36274615 -0.17073694
000050 b0 7e c5 3e 24 3e 16 bd 94 ae a3 bd 7e bf bb 3e
       0.38573217 -0.036680356 -0.079922825 0.36669534
000060 73 aa 79 3e bb f4 0e 3b a2 2f f5 be f6 72 65 be
       0.24381427 0.0021813351 -0.47887903 -0.22407135
000070 96 99 89 be 5c 31 9d bd 3c 14 7b be 5e 46 95 3e
       -0.2687499 -0.0767543 -0.24519438 0.29155248
000080 04 e1 07 be 66 ae 40 be ad 53 85 be 5e 30 68 3e
       -0.1326943 -0.18816528 -0.26040402 0.226747
000090 55 a1 f7 3c 7b 21 bf 3e a7 a7 10 3e 0a b8 a4 3e
       0.030228296 0.3733023 0.14126454 0.3217166
0000a0 38 83 c3 3e 2d 83 94 3e 97 be 70 be 06 44 36 be
       0.3818605 0.2900633 -0.23510204 -0.17799386
0000b0 51 e5 b6 be 43 22 31 3e e0 25 ed 3e 47 2d b2 3e
       -0.3572183 0.17298226 0.4631796 0.3480017
0000c0 1e ad 37 bd c4 55 07 bd 40 02 77 3d 06 a7 0f 3e
       -0.04484283 -0.033040777 0.06030488 0.14028558
0000d0 88 22 5d 3e aa e1 c2 3d d0 71 d2 be 84 13 61 be
       0.21595204 0.09515698 -0.41102457 -0.21980101
0000e0 ec ac 75 be 85 ad 8d be a0 b7 5f 3e b0 ab 6a 3e
       -0.23991746 -0.27671447 0.21847391 0.22917056
0000f0 11 a7 cc bd ba bb 6a 3d ae 89 90 3e f2 c7 79 3e
       -0.09992803 0.057307936 0.2823004 0.2439268
000100 fb e2 11 be a8 89 7d be 80 22 3a 3e 62 18 20 bd
       -0.14246742 -0.24759543 0.18177223 -0.039085753
000110 cd 84 aa 3b 9c 48 d4 3d 41 ee 3b 3e eb aa 6e 3d
       0.0052038194 0.10365412 0.18352605 0.05826847
000120 e8 ab 26 bd 81 a6 7d 3d e3 ba 96 bd 4a 78 f7 be
       -0.040691286 0.06192637 -0.073598646 -0.4833396
000130 7a 2f 8e bc 7e d6 e4 3d 7a 94 e0 be c9 90 1d be
       -0.017356623 0.11173724 -0.4386328 -0.15387262
000140 61 6d 1b 3e 3c de 33 3e c6 0e fb bd 3e 7a 37 3d
       0.15178443 0.17565244 -0.12258677 0.044794314
000150 ff be 35 bc 18 fe 4e 3e cb d8 8d 3d 6f 36 76 be
       -0.0110929 0.20214117 0.069261156 -0.24044202
000160 c7 cc e7 bd c6 53 6f be 6a e3 22 3e 38 07 84 be
       -0.11318355 -0.23371801 0.15907064 -0.25786757
000170 50 85 42 be 50 68 9b be f3 f0 54 bb dc e1 62 3d
       -0.18996167 -0.30353022 -0.003249225 0.055391178
000180 a4 7a 3f be f9 c4 d5 3e 46 d7 aa bd 6a de d2 3d
       -0.18699127 0.4175184 -0.083418414 0.10296328
000190 2c 95 1f 3e 28 a0 0f be b5 67 f4 be 9f 83 58 3e
       0.15584248 -0.14025939 -0.47735372 0.2114396
0001a0 08 a7 2c 3e b1 4a 81 bd eb 75 f4 3e 12 ca f6 bd
       0.16860592 -0.063130744 0.47746214 -0.120502606
0001b0 43 5e b3 3d 8c 31 9d be c1 04 c1 be 33 ea 4e 3e
       0.08758213 -0.30701864 -0.3769894 0.20206527
0001c0 fe 41 65 be 02 aa 29 3e ba d5 8e 3c cc 53 db be
       -0.22388455 0.16568759 0.017435897 -0.4283737
0001d0 43 20 de 3e a7 b4 84 be 09 fa e5 3d 79 b0 9c 3e
       0.4338399 -0.25919077 0.11229331 0.30603388
0001e0 c4 88 70 3e 50 1c 9e 3d d5 4b c7 3d 6c 9e 81 3e
       0.23489672 0.07720244 0.09731261 0.2531618
0001f0 71 a6 96 bd dc b8 38 3d 36 88 19 bf a4 ac 04 be
       -0.07355965 0.04509817 -0.59973466 -0.12956482
000200 00 4f 39 bd 43 b9 7f be e2 98 08 be 17 ce 83 be
       -0.045241356 -0.24973015 -0.1333957 -0.25743172
000210 bb b3 a7 bd c6 89 d6 3e e9 e2 c3 3e b7 cc 46 3c
       -0.08188578 0.41901988 0.38259056 0.012133769
000220 f3 66 6b be e8 55 da 3e a2 c6 ad 3e 7c 14 b7 be
       -0.22988491 0.42643666 0.33940607 -0.35757816
000230 65 69 ec 3d 33 3e e8 3e b9 fe 20 3e c7 59 13 bf
       0.1154354 0.45359954 0.15722169 -0.57558864
000240 b7 2f d0 3e 4c 5a cd bd 38 11 89 be d9 4f 4a be
       0.40661404 -0.100269884 -0.2677095 -0.19757022
000250 9c bc f4 3e bc 4e 27 3e 2e 01 09 bd 52 47 90 bd
       0.47800148 0.16338629 -0.03344839 -0.07044853
000260 3f 3a 51 be 15 ea ef 3d da bb 00 3e d3 19 11 be
       -0.20432375 0.117145695 0.1257166 -0.14170007
000270 5b 3a d6 3e 2d 8f 2b 3e 6b 06 8d 3e 6b 48 5e 3e
       0.41841397 0.16753836 0.2754396 0.21707313
000280 ca 21 d4 bd 23 76 64 bd 02 a8 25 be 00 b1 83 3e
       -0.10358007 -0.055776726 -0.16177371 0.25720978
000290 57 33 a3 bd 20 8a 49 3e 8f c7 42 3e 83 03 5e 3e
       -0.07968777 0.19681597 0.19021438 0.21681027
0002a0 26 89 20 3e 9c c9 9f 3e a1 b8 61 3e b9 cb 6f 3e
       0.15677318 0.31208503 0.22043087 0.23417558
0002b0 76 a2 c4 3e 8c c8 04 3d 43 35 d8 3e b4 ab 9a 3e
       0.38405198 0.03241782 0.42228135 0.30209124
0002c0 24 d5 15 bd 39 9c 37 3e d7 b4 42 3e bd f2 8a be
       -0.03658022 0.17930688 0.19014297 -0.2713832
0002d0 37 56 81 be 26 8d 06 be 2d f8 8d be b5 cc cb 3e
       -0.2526109 -0.13139781 -0.27728406 0.39804617
0002e0 72 fa 0f be e4 c5 a3 bd 9a b4 6d 3d 76 1e a1 be
       -0.14060381 -0.07996729 0.058033563 -0.31468552
0002f0 8b 3d d0 be f4 e4 75 3d ee 9f 4f be e2 97 88 bd
       -0.40671954 0.0600328 -0.20275852 -0.06669594
000300 96 89 d3 3e 22 4c b6 3e 84 c2 bf 3c 42 0c ac 3e
       0.41315907 0.3560496 0.023408182 0.33603102
000310 0e ab 89 be 31 e1 ea 3e 0b 24 c4 bd 74 bb a0 be
       -0.26888317 0.45874932 -0.09577187 -0.31393015

weight f4 [200, 200]
000000 6c 7a 9c be 0b ce 2b bb 7f 26 e9 3e 4b fe a2 3e
       -0.3056215 -0.002621534 0.45537183 0.31834635
000010 f2 28 f0 3e c5 65 a7 bd a1 cf 7a 3e fe 9e c6 bc
       0.4690624 -0.08173708 0.24493267 -0.024245735
000020 86 a8 34 c0 bd 88 b1 3e 7b 29 ca 3e 36 41 82 bf
       -2.8227859 0.34674636 0.39484772 -1.0176151
000030 a0 95 74 be 74 5e 8d bd 57 89 a9 bf 72 c4 f3 3d
       -0.23885202 -0.06902781 -1.3245038 0.11902703
000040 60 f7 b8 bc 25 a5 e1 be db f4 22 3f ba 00 83 be
       -0.022578895 -0.44071308 0.6365487 -0.25586492
000050 6e 60 b5 3e 30 e6 ce be 8c df b7 bf f7 af ca 3d
       0.35425133 -0.40409994 -1.4365096 0.09896844
000060 97 64 71 3e 91 00 dc be 6a fc 2a be b4 e0 a1 be
       0.23573528 -0.42969182 -0.16697851 -0.31616747
000070 6d 40 1e bf ba aa 6f 3f f4 c8 34 3c 2e 61 2f bf
       -0.61817056 0.93619883 0.011034239 -0.6850766
000080 81 8b 7a bd f7 05 50 bf e4 5f 7b bd dc 18 55 3e
       -0.061168198 -0.812591 -0.061370745 0.20810264
000090 0b e1 fc 3d c0 fa 08 bd ab 5a c2 3e af a9 a5 3d
       0.12347611 -0.03344226 0.379598 0.08089005
0000a0 0e 16 60 bf d7 e1 f6 3f a3 6e 5c bf 5c 2c 4b bf
       -0.8753365 1.9287671 -0.8610632 -0.7936456
0000b0 17 88 1a be e3 8f 4f 3c c8 07 e4 3d e3 73 1e be
       -0.15090977 0.012668583 0.11134297 -0.15473895
0000c0 fd 8e bf 3a e9 d9 21 be 7d 8e 89 3b 9f 47 56 bd
       0.0014614757 -0.15805782 0.004197894 -0.052314397
0000d0 5c 84 b6 3e b5 e6 f6 be 8c 80 81 3e 5e 2a 90 3e
       0.35647857 -0.4822289 0.25293386 0.28157324
0000e0 07 a9 7a 3c 48 44 d6 3e d7 74 70 3e dd 23 a6 be
       0.015299088 0.4184897 0.23482071 -0.32449237
0000f0 a8 82 42 3d e4 e3 8c be e9 4d 1a bf e4 c5 98 be
       0.047487885 -0.27517617 -0.6027513 -0.2983848
000100 5b 84 4b be de 81 69 3f 04 57 b7 3e d4 ee 0a 3f
       -0.19874708 0.91213787 0.35808575 0.5427067
000110 85 f9 ca bf 0f 7e 59 3e 49 51 1a be 6f f1 fb be
       -1.5857397 0.21239494 -0.1507007 -0.49207637
000120 c1 c5 0e be 8c 43 33 bf 17 b5 7b 3d 18 73 b1 be
       -0.13942625 -0.70024943 0.061451998 -0.34658122
000130 76 84 0c 3f 82 06 26 3f 4b 5c 1f bf 9c de 1c bf
       0.5488962 0.6485368 -0.622502 -0.61277175
000140 78 20 db 3d cc db b0 3f e5 e5 14 bf 0e 58 48 3e
       0.10699552 1.3817077 -0.5816329 0.1956484
000150 b9 c0 d7 bf c6 40 8a be d5 55 23 bf bd ac 62 bf
       -1.6855689 -0.27002543 -0.63802844 -0.8854483
000160 1a d6 4b 3e 1e d7 1b 3f bd 48 3e 3f 31 c3 a7 be
       0.19905892 0.6087512 0.7432974 -0.32766107
000170 5a eb b5 3e 5b 00 57 3b 3f 97 84 be 49 15 cb 3e
       0.35531121 0.0032806608 -0.25896642 0.39664677
000180 2a 45 b8 be 80 4a 17 be 1d 53 83 3e 23 54 c1 3e
       -0.35990268 -0.14774513 0.25649348 0.37759504
000190 4a 56 e3 be 41 97 0b c0 4a 51 d8 bb 58 9a 47 be
       -0.4440177 -2.1811068 -0.0066014873 -0.19492471
0001a0 50 35 6c bf 7b e1 51 be 85 dd af 3e 43 48 39 bf
       -0.9226885 -0.2049617 0.34348693 -0.7237589
0001b0 78 67 b7 3f 23 85 d5 3f 30 a4 64 bf 6e e1 96 be
       1.4328451 1.6681255 -0.8931303 -0.29468864
0001c0 4c 4e 19 bf 06 89 34 3e be 65 1d 3f 42 f5 94 bd
       -0.59885097 0.17630395 0.6148337 -0.07273342
0001d0 5f c1 25 be 5a 1e 8b 3e 6a ef 24 3e 7a 77 8d bd
       -0.16187046 0.27171594 0.16106954 -0.06907554
0001e0 7d 44 ce bd 5a b4 02 bf 17 02 a7 bf 35 07 20 bd
       -0.10071657 -0.51056445 -1.3047513 -0.039069373
0001f0 35 20 9e be 50 ab 6b 3e 1b da 1a 3f 4e 5d 03 3f
       -0.30883947 0.2301457 0.6048905 0.51314247
000200 5a 8d 11 bf aa a0 93 3e 94 c8 85 3d a4 96 8e 3c
       -0.5685631 0.28833514 0.06532398 0.017405815
000210 22 e3 fb 3d f1 01 16 bf 9c 11 fe bd 16 3d 1f bf
       0.122991815 -0.5859671 -0.124057025 -0.62202585
000220 c3 f3 48 3d f2 04 f1 3f 29 53 a1 3e f0 67 9b 3e
       0.049060594 1.8829634 0.3150876 0.30352736
000230 b3 4e 2b 3f 04 1e 5a 3f ea 58 ed be b3 ba 09 bf
       0.6691696 0.8520205 -0.463569 -0.53800505
000240 c5 06 32 bf c7 61 8a 3e 29 12 07 bf 63 36 55 3d
       -0.6954158 0.27027723 -0.52762085 0.05205382
000250 8b 7e e3 bd 50 db 7f bf b8 94 0a 3f 65 81 84 3f
       -0.111081205 -0.9994402 0.54133177 1.0351988
000260 69 04 39 3d e2 bf 9b 3f 55 6c ac 3e 6f 35 e8 bd
       0.04517022 1.2167933 0.336764 -0.11338317
000270 b3 fc b4 be 24 3c db 3e 77 6e af bf 2f b5 28 bf
       -0.35349044 0.4281932 -1.3705586 -0.65901464
000280 8c 8d 15 3e b9 fc 1d 3e 49 dd e0 bf 50 f8 1d 3e
       0.14604777 0.15428437 -1.7567531 0.15426755
000290 30 e1 24 b9 f2 c8 85 3f 2d d8 d6 3f e6 4b 0a 3f
       -0.00015724148 1.0451949 1.6784722 0.5402206
0002a0 30 26 b7 be f2 c0 42 3e e3 51 cf 3e 22 29 74 3d
       -0.35771322 0.19018915 0.40492162 0.05960954
0002b0 57 97 37 bf 8b 91 5c 3f 4e bc 8a 3e df 29 fe bd
       -0.717153 0.8615958 0.2709679 -0.1241033
0002c0 9f a6 7d 3f 2a 52 1b 3e 80 cb ac bf 00 5b b5 3c
       0.9908237 0.15168062 -1.3499603 0.022138119
0002d0 78 a6 1c bd a1 b9 0c bf d4 3d e4 bc 41 2a e7 bd
       -0.038244694 -0.5497075 -0.027861513 -0.11287356
0002e0 49 69 0c 3e 3e 9c b9 3e 7e f1 23 3f a5 10 b1 3d
       0.13712038 0.36252016 0.6404036 0.08645753
0002f0 6e 4a ee bf 93 1f 9e be bc 42 50 3e 64 51 f3 3d
       -1.8616464 -0.30883464 0.20337957 0.118807584
000300 b5 84 33 bf 30 ae 8f 3e 46 1f 7c 3e 9b a2 9d 3d
       -0.7012437 0.28062582 0.24621305 0.0769703
000310 1a 7c 6b bf 3f 6b 46 be e5 d7 01 3f d2 7f 4d bf
       -0.9198624 -0.19376849 0.50720054 -0.80273163
000320 35 15 57 bf 85 2e 6c bd 8e a5 19 3e 2b f5 df bf
       -0.84016734 -0.057661552 0.1500456 -1.7496694
000330 51 35 64 3e b1 6b aa 3e 07 62 23 3e 80 2a 5d be
       0.22285964 0.33285287 0.15955363 -0.21598244
000340 c7 04 3b 3b c9 6f d1 3d 75 82 35 3d cd 7d fc 3e
       0.0028536783 0.102263995 0.044313867 0.49314728
000350 fa 3f 26 bf d2 03 e2 3d 9a 41 ef be 73 c2 8f be
       -0.6494137 0.11035885 -0.46729738 -0.2807804
000360 53 82 3a bd 39 e7 7b bd 0d 89 24 bf 18 a6 93 be
       -0.045534443 -0.061499808 -0.6427162 -0.28837657
000370 8d 2a 5d 3e 0b 9c 70 3f 67 03 af bf 62 4e 4e 3f
       0.21598263 0.939881 -1.3672913 0.8058835
000380 58 bf 06 3e 2f 27 9e bf 0c bf 7d be d6 d6 15 3d
       0.1315893 -1.2355708 -0.2477991 0.036581837
000390 4d 08 9e bf 5a 2b 24 bd 1e 84 1e bd 06 3a 3f be
       -1.2346283 -0.040080406 -0.038700216 -0.18674478
0003a0 e2 00 87 bf 8f 68 54 be de 84 21 3c e2 f1 50 bf
       -1.0547144 -0.20743011 0.009858338 -0.81619084
0003b0 d7 81 c7 3c 4d 2c 15 3e b0 67 ca bf f9 3c b3 bf
       0.024353905 0.1456768 -1.5812893 -1.4002982
0003c0 1c bc 16 3f 73 59 67 bd ce 73 00 c0 31 00 aa be
       0.5888078 -0.05648179 -2.0070682 -0.3320327
0003d0 37 4c 2f bf 00 d1 fa bd 6a e3 ef be 86 0f 25 be
       -0.6847567 -0.12246895 -0.4685319 -0.16119203
0003e0 ac d0 a8 ba fa 0d a3 3f 07 67 7d bf a4 16 c0 3e
       -0.0012879572 1.273864 -0.9898533 0.37517273
0003f0 51 44 19 be 47 b5 11 c0 49 37 c1 bd 78 59 ac be
       -0.14967467 -2.2766893 -0.09434373 -0.3366201

bias f4 [200]
000000 74 bf 14 be 2d 73 3c 3d 7a df bf 3e cf 20 ad 3e
       -0.14526159 0.046008278 0.37475187 0.33814093
000010 59 4d a4 3e e2 e4 3b 3e 79 83 e9 3e 54 56 50 3e
       0.32090262 0.1834903 0.45608118 0.20345432
000020 ed 3b 8a bc ad ee 00 bb 46 d0 df 3e 70 e2 ce 3e
       -0.016874278 -0.0019673512 0.43713588 0.40407133
000030 5b 07 84 3e 88 96 f4 3d 0b 6f 69 bb b4 4a ab 3e
       0.25786862 0.11942774 -0.0035619165 0.3345543
000040 ca 23 40 3e 23 13 e7 bc e9 2d b8 be b7 81 a4 bd
       0.18763652 -0.028207367 -0.35972527 -0.08032554
000050 cc 9a b1 3e d1 4a a4 3e 6c b0 5a be a9 a1 01 3f
       0.34688413 0.3208833 -0.21356362 0.506373
000060 5b 75 0b be 72 6c 68 3d e7 11 16 be e0 54 11 3f
       -0.13618986 0.056744047 -0.14655267 0.56770134
000070 21 b9 21 be 80 ca 2c 3e 5f f2 51 3e 91 28 5e bd
       -0.15793277 0.16874123 0.20502613 -0.054237906
000080 bf 84 2a 3e 55 ef 8c bd 1b 7e ec bd 8a 21 5f bd
       0.16652201 -0.068815865 -0.1154749 -0.054475345
000090 d1 2e 4a 3e 7a 22 50 bd 84 69 d8 3e 16 bc 08 3e
       0.19744422 -0.05081413 0.42268002 0.13352999
0000a0 3b 26 86 3e 80 37 81 be 9e c6 9b 3c 0e 5d 9e bd
       0.26201043 -0.25237656 0.019015606 -0.077325925
0000b0 d6 f6 85 be 8b c2 28 3e c7 0b 3a 3d 7e 4d 18 bd
       -0.26164883 0.16480462 0.045421388 -0.037183277
0000c0 b7 99 9a bd b7 53 a7 bc 5a be e8 3e 18 6a 36 bd
       -0.0754885 -0.02042566 0.45457727 -0.044534773
0000d0 6c 37 0f 3f 69 b3 45 3d d0 b5 4b 3d a1 03 c2 bd
       0.5594394 0.048266802 0.049733937 -0.094733484
0000e0 24 fc 59 3e f1 e5 3c 3e 62 c9 84 be c0 75 3c bb
       0.2128759 0.1844709 -0.25934893 -0.0028756708
0000f0 b1 f9 7f 3c 6b 74 26 3e c2 a9 06 3f 64 57 ec 3c
       0.015623496 0.16255347 0.5260278 0.028850265
000100 d4 74 7d bd 25 26 01 bb 23 69 e1 bd 8a ac 48 3e
       -0.061878994 -0.0019706574 -0.11006381 0.19597068
000110 87 80 b2 3c 65 f9 d1 3e 9b 57 80 3e 4a 5b 0c be
       0.021789802 0.41010585 0.25066838 -0.13706699
000120 06 72 7a 3e d4 ae 76 3e 2b 41 a1 bd 08 43 b6 3e
       0.24457559 0.24090129 -0.07873758 0.35598016
000130 b3 1a 0c 3f cc 14 77 bd 48 de d3 3e 83 67 c5 3d
       0.5472824 -0.060322568 0.41380525 0.09638884
000140 c7 4c fa 3d 7a 30 48 bc 97 f4 a1 bd f5 80 08 bd
       0.12221675 -0.012218589 -0.0790798 -0.033326108
000150 65 90 81 bd e8 4d 98 3e 41 a5 0b 3d 77 7f 54 3d
       -0.06326369 0.29746938 0.034093145 0.051879372
000160 e5 ab 8b bd eb e1 d6 bd c7 6d 88 be 0f 52 44 be
       -0.06819896 -0.10492309 -0.26646253 -0.19171928
000170 db fb 38 be b5 92 f5 3e 90 47 13 3f 88 9c 07 be
       -0.18064825 0.4796349 0.5753107 -0.13243306
000180 4a ac e4 3c cc 8e c3 be 8d 3d d5 be 0f 61 4c be
       0.027914185 -0.38194883 -0.41648522 -0.199589
000190 04 72 41 3d b9 4c 88 bd bc a3 00 3d ae 7c ac 3b
       0.047227874 -0.06655259 0.03140615 0.0052638864
0001a0 e5 71 04 bd 08 09 e3 3e 03 86 3c 3e 21 6b 50 3c
       -0.03233518 0.44342828 0.18410496 0.012720854
0001b0 b7 26 f0 3e e4 75 fb bc 2e 9a af bd 96 17 98 bc
       0.46904537 -0.030695863 -0.08574329 -0.018565934
0001c0 9d 66 c6 bc 97 57 58 3e 2f 7a a2 bd f2 50 ad 3e
       -0.024218852 0.21127163 -0.07933461 0.3385082
0001d0 70 0a cf bc a2 36 d3 be c5 0a 84 bd 5a 16 68 3d
       -0.025273532 -0.4125262 -0.064473666 0.05666194
0001e0 e5 96 b1 3d 20 dc b9 bb 98 67 0f 3e da 3f 55 bd
       0.08671359 -0.005671993 0.14004362 -0.052062847
0001f0 b0 4b 9d be 36 37 ba 3e bb 4b f9 3d a5 cb f5 3d
       -0.30721807 0.36370248 0.121726476 0.12001733
000200 6c b7 d7 3b 6d 26 0e 3d 60 04 b2 3d f7 d8 a3 bc
       0.006583145 0.034704614 0.08692241 -0.020000918
000210 09 28 c7 bd e4 3d c5 bd 09 d2 cc bd 26 b4 13 bd
       -0.09724433 -0.09630945 -0.100009985 -0.036060475
000220 3f 2c 1f bd bc c2 45 be 7f f9 3e 3c 6c fd 89 3c
       -0.038860556 -0.19312567 0.011656164 0.016844474
000230 9b 8a fd 3b 09 8e 6e 3e 8b ce 7b 3e 90 99 f9 bd
       0.0077374703 0.2329637 0.24590509 -0.12187493
000240 fb 4b 60 bd bc 70 ff 3c bc 0a e2 bb 80 46 5f 3d
       -0.05475996 0.031181686 -0.0068982523 0.054510593
000250 aa bd e7 3e 8f 06 bd 3d d5 a1 94 bd ef 38 db 3e
       0.4526189 0.092297666 -0.072574295 0.42816874
000260 c9 0f ca bd 7d 8e 09 bc 24 a5 70 bc 01 f7 4d bd
       -0.09866292 -0.008395788 -0.01468781 -0.05028439
000270 9b 0d 13 3f 8a 4c e1 3e 94 f5 73 bc 0f 8a a3 bd
       0.57442635 0.44003707 -0.014890093 -0.07985317
000280 83 03 e6 3e 73 ca f2 bd 7a 23 e1 bc f0 7d ca 3c
       0.44924554 -0.118550204 -0.027482737 0.024718255
000290 1e cd 06 3f 6d 40 83 bc 99 68 83 bd ee 10 8e 3c
       0.52656734 -0.016021932 -0.06416435 0.017342057
0002a0 e9 d6 5e 3e 79 3b 01 3d 39 94 d0 3c 81 a5 ee 3d
       0.21761669 0.03155086 0.025461303 0.11652661
0002b0 ff 37 80 3e a5 0e 35 3e c5 70 8c bd 79 be f1 3e
       0.25042722 0.17681368 -0.068574466 0.47215632
0002c0 58 11 67 3d 35 cc 89 bd c5 ac 1b 3d fa 14 87 bd
       0.056413025 -0.067284025 0.038006563 -0.06595798
0002d0 36 a2 90 bc ce d4 81 bd 02 63 63 bd 15 85 83 be
       -0.017655473 -0.063394174 -0.055514343 -0.2568747
0002e0 9b be df 3e 7a dc a7 bd c5 96 8d 3e ba 6f 07 3e
       0.43700108 -0.081963494 0.2765409 0.13226214
0002f0 48 b3 62 3e 3b 94 c4 bd 15 80 42 bd ee ac 8e 3d
       0.22138703 -0.09598585 -0.04748543 0.069665775
000300 c0 3b ce 3a 00 11 af bd d1 c5 72 3e 96 33 db 3e
       0.001573436 -0.08548164 0.23708273 0.42812794
000310 9f b6 65 bc 45 b2 ca 3e b3 24 0c 3f 4f 4d aa bd
       -0.014020591 0.39589134 0.547435 -0.08315527

weight f4 [1, 200]
000000 c9 6d 3e c0 ed c1 61 c0 f4 4a 98 3f 78 ef 7a 3f
       -2.9754508 -3.5274613 1.1897874 0.9802165
000010 e0 38 27 c0 ae da cf 3f 83 11 2d 3f 03 4a db 3f
       -2.6128464 1.6238611 0.67604846 1.7131962
000020 ef cb a4 3c f3 a9 e4 bc e0 d9 38 3f 0a c8 f0 3e
       0.020116774 -0.02791307 0.7220745 0.47027618
000030 84 86 95 3f 58 19 8a 3f ae 7c ac bc 9c ba 60 3f
       1.1681676 1.0788984 -0.021055546 0.87784743
000040 51 83 96 3f f8 01 cb 3c 27 62 2b c0 6b 11 76 3d
       1.1758825 0.024781212 -2.6778657 0.060075205
000050 ce 1b a5 3f b1 3d 48 3f a1 0b e0 bf cf 74 cf 3e
       1.289911 0.78219134 -1.7503549 0.40518805
000060 32 ea bf bf ad d6 9d bc e8 94 24 c0 eb 86 b5 3e
       -1.4993346 -0.019267404 -2.5715885 0.35454497
000070 02 94 e7 bf c4 b0 03 40 34 0b 77 3f e5 f3 3a c0
       -1.8092043 2.057664 0.9650147 -2.9211361
000080 72 74 a7 3f f5 9d 18 bc ff a2 81 bf 46 e4 18 bb
       1.3082411 -0.009315004 -1.0127867 -0.002332942
000090 c2 f8 7c 3f 99 79 c2 3b 37 6c 70 3f d0 2a 14 c0
       0.98817074 0.0059349057 0.9391512 -2.315113
0000a0 db 79 c4 3f 63 38 a1 bf 74 bd 9e bf 8f 02 ab 3c
       1.5349687 -1.2595333 -1.2401567 0.020875243
0000b0 5b bd 09 40 f8 57 c5 3f f1 ad 5b bc 22 27 d3 bb
       2.1521823 1.5417471 -0.01340817 -0.006443874
0000c0 42 85 b3 bf 44 65 d7 3f be 15 cf 3e 00 d5 42 bc
       -1.4025042 1.6827779 0.40446275 -0.0118916035
0000d0 03 66 d0 3e 77 b9 f5 bf 6e 8d f4 3f b2 ac d6 bd
       0.4070283 -1.9197224 1.9105661 -0.10482158
0000e0 f4 e4 81 3f 12 76 b4 3f 1d 5c af bf 11 e1 53 3d
       1.0147996 1.4098532 -1.3699986 0.051728312
0000f0 b7 13 38 c0 03 70 a3 3f 7d 38 ee 3e 97 1f 03 c0
       -2.8762033 1.2768558 0.46527472 -2.048803
000100 73 db fb bb c1 05 57 bd f7 8a b0 3c 45 cc d9 3f
       -0.0076860725 -0.05249572 0.021550639 1.7015463
000110 c5 4d 16 bd 9a 25 45 3f 35 3b bc 3f 54 2c b4 bf
       -0.03669526 0.770105 1.4705569 -1.4076028
000120 75 59 6b 3f ef 48 94 3f 49 47 87 bf 7d 0c 87 3f
       0.91933376 1.1584758 -1.056863 1.0550686
000130 73 0f d3 3e 4e 34 2a 3d 28 b4 48 c0 67 7b 0e 40
       0.41222724 0.041553788 -3.1359959 2.226282
000140 29 cd 0d c0 ae 09 ed bf 5c 6e 79 3b 60 9e bc 3b
       -2.215647 -1.8518579 0.0038060164 0.0057561845
000150 27 0c af bb b1 f2 ae 3f 67 45 0a c0 50 54 b1 bf
       -0.005342025 1.3667814 -2.160486 -1.3853855
000160 55 6d 11 3c 25 d7 e7 bf 2b 06 1a c0 bb 01 7b bf
       0.008876164 -1.8112532 -2.4066265 -0.98049515
000170 11 21 c0 bf e7 e9 da 3e d1 af bc 3e 36 06 2c c0
       -1.5010091 0.42756578 0.36852887 -2.687879
000180 07 c3 29 3d 89 d6 17 c0 5c dd 19 40 05 14 c3 bf
       0.04144576 -2.3724692 2.4041357 -1.5240484
000190 e5 35 b5 bf 9f 24 d8 bc f7 40 72 c0 10 14 bf bc
       -1.4157072 -0.02638465 -3.7852151 -0.023324996
0001a0 97 8e 32 bd ca fe c5 3e 60 89 8b 3f cd d0 12 bc
       -0.043593016 0.3867095 1.0901299 -0.008960915
0001b0 e1 09 a8 3e ed 6b 1b bd d0 03 88 bf 28 5c 43 bc
       0.32820037 -0.037944723 -1.0626163 -0.011923827
0001c0 1b d8 63 c0 15 e5 db bf dc 0f 0f 3d 03 61 8f 3f
       -3.560065 -1.7179285 0.034927234 1.1201481
0001d0 04 9a 07 c0 5a 4c 04 c0 8f 9f 2e bc 39 9b c7 3f
       -2.1187754 -2.0671601 -0.010658159 1.5594245
0001e0 71 67 b2 3f 9c af 84 bb d0 db b7 3f 66 41 a3 3c
       1.3937818 -0.0040492546 1.4363956 0.019928645
0001f0 ac 58 f8 bf 28 77 35 c0 69 d1 2d 40 2f 55 ea 3f
       -1.940206 -2.8353977 2.7159064 1.8307246
000200 e2 c3 e8 bf 78 b1 b7 3f 19 dd d2 bf 47 c4 2e 3c
       -1.8184779 1.4351034 -1.6473724 0.010666913
000210 dd 92 8e bc f4 e2 4c 3b 64 f3 fd bc ca 17 6a bc
       -0.017404014 0.0031263204 -0.030999847 -0.014287898
000220 8f ca 3a c0 04 f4 80 bf 66 60 a2 3b 10 36 31 bc
       -2.9186132 -1.0074468 0.0049553392 -0.010816112
000230 a8 24 35 3d d2 92 c2 3f e3 ca 7d 3f a6 75 a1 3f
       0.04422441 1.5201056 0.99137706 1.2614028
000240 a7 5f 38 3d 30 02 bb bf 9c 14 c3 3c b0 bb 99 bf
       0.045013096 -1.4610043 0.023813538 -1.2010403
000250 c6 f3 ac 3e 7c 41 94 3f d4 f7 ea bf dd 57 c5 3e
       0.33779734 1.1582484 -1.8356881 0.38543597
000260 c6 67 9a bb 01 e0 d5 39 51 e0 d0 3c 1a 2a 62 bc
       -0.004712078 0.00040793422 0.025497587 -0.013803983
000270 07 32 ea 3e 6f a5 aa 3e c4 4d fd 3c 25 24 12 bc
       0.45741293 0.3332934 0.03092087 -0.00891975
000280 8b 49 77 3f 3c e3 e6 bf 54 51 a2 bf f0 36 c1 bc
       0.9659659 -1.8038096 -1.2681069 -0.023585767
000290 3e 09 ee 3e e9 40 53 bc e1 91 57 c0 be 80 76 c0
       0.46491426 -0.012893894 -3.3682787 -3.8516078
0002a0 8e 7f 93 3f d4 63 aa bf e5 10 0f c0 0d 15 1c 40
       1.1523302 -1.3311715 -2.2354062 2.4387848
0002b0 a6 58 94 3f 63 cb 89 3f 7a 5c d7 bc df ed d8 3e
       1.1589553 1.0765194 -0.026289213 0.4236898
0002c0 53 cc 10 40 37 e4 b7 bd 7f d7 33 bc e0 0a 87 bf
       2.262471 -0.089790754 -0.010976671 -1.0550194
0002d0 91 78 5a 3c 3d 59 e3 bf 30 86 ef bf 36 01 f0 bf
       0.013334409 -1.7761608 -1.8712826 -1.875037
0002e0 3b da 07 3f 2a d9 c5 bf 7c 3b 82 3f aa 45 f2 3f
       0.5306737 -1.5456898 1.0174403 1.892751
0002f0 dc 1f 74 3f 6b 72 a4 bf 83 48 1c c0 7b ff c6 bf
       0.95361114 -1.2847418 -2.4419258 -1.5546716
000300 6a 6f de 38 ac 55 06 c0 f8 bf a7 3f 6e 7b d2 3e
       0.000106065374 -2.098979 1.3105459 0.41109794
000310 47 32 5d 3c 7f 0a 19 3f 07 2f c8 3e 51 33 d8 bc
       0.013500757 0.5978164 0.3909838 -0.026391657

weight f4 [200, 15]
000000 43 a6 01 bf 8c b5 99 be 99 4e 0f bf ce f8 de 3e
       -0.5064432 -0.30021322 -0.55979306 0.43549198
000010 57 da 35 3e 72 bb 1c bf 07 e3 23 3d b6 02 43 3c
       0.17759071 -0.6122352 0.040011432 0.011902502
000020 e6 5b ad 3e fc e8 8b be 96 f5 d2 3e 9d 42 4d 3e
       0.33859175 -0.2732619 0.41202992 0.20044942
000030 54 45 47 be e8 e5 9d be 7e 07 a9 bd 82 6d 1f 3f
       -0.1946004 -0.30839467 -0.08253382 0.6227647
000040 e7 69 3f be 7f 91 62 bf ee f3 38 3e fa e1 3f 3e
       -0.18692742 -0.8850326 0.18061802 0.18738547
000050 8a 3a 07 3d 98 3e ee 3d 0e d7 62 bc 39 47 47 bf
       0.03301481 0.116330326 -0.013845218 -0.7784305
000060 53 cd 3b bf 47 df 32 bf 13 2d 43 be 5c 03 63 3e
       -0.73360175 -0.69871944 -0.19060163 0.2216925
000070 51 d6 82 bf 83 be 22 3e 0a f7 04 be a9 f2 a6 3e
       -1.0221654 0.15892987 -0.12984863 0.3260701
000080 ae 55 55 bd a4 4e 7a 3c c5 00 ef bd d2 0d a7 3e
       -0.052083664 0.015277538 -0.11670069 0.32627732
000090 65 63 71 3d 64 c1 69 3e e8 85 f6 bd 51 14 db ba
       0.05893268 0.22827679 -0.12037259 -0.0016714429
0000a0 31 41 cf 3a 1a 76 fe bd 9c 80 8c be 49 de 02 bf
       0.0015812275 -0.1242487 -0.2744187 -0.5112043
0000b0 88 3d cb 3e 0b bd 9c be 65 94 9c 3e 07 92 94 be
       0.39695382 -0.30612978 0.30581966 -0.2901766
0000c0 db 64 cf bd d8 ec 5f be af 6c 34 be 2f 98 43 bd
       -0.101266585 -0.21867692 -0.17619585 -0.047752555
0000d0 03 a2 41 be bc 52 5c 3e 17 e5 78 3d cf f3 d9 be
       -0.18909459 0.21515936 0.060765352 -0.42568824
0000e0 27 b3 cb 3e d4 cc 30 3e 78 ed 50 3e 93 d6 9c 3e
       0.3978512 0.17265636 0.20403087 0.30632457
0000f0 2d f5 15 3f d4 49 66 be 26 50 32 bf bb d0 c8 be
       0.58577234 -0.224891 -0.69653547 -0.3922175
000100 00 93 44 bd 01 f4 89 3c f4 c7 2c be 7e 7d 0c be
       -0.047991753 0.016839983 -0.16873151 -0.13719746
000110 71 3a 4a bd 5e 1e 24 be b4 76 d8 3d 9c 58 65 3e
       -0.04937214 -0.16027209 0.10569516 0.22397083
000120 6d bf c1 3d 3e af 42 bf ac 5a f1 3d ce d5 5d 3e
       0.0946034 -0.7604865 0.117848724 0.21663591
000130 10 77 21 bf a9 3d c3 3f 83 cb 54 bf a0 0d 8d bf
       -0.630723 1.5253192 -0.83123034 -1.1019783
000140 4a 59 00 3e 89 e3 ca 3e 55 6e 30 3e cc 7c e2 be
       0.12534061 0.3962672 0.17229588 -0.44235837
000150 47 3b 9e be 86 06 bd be 8b 33 85 be 8d 8a 2e 3e
       -0.309046 -0.3691904 -0.26015887 0.1704504
000160 b9 d6 0d 3e 1e cf 77 3e cb 2c 60 bf e6 6d 07 3f
       0.13851441 0.24200103 -0.8756835 0.52902067
000170 ff df 9e 3e d2 81 82 3e cd c5 ce 3e 04 a6 9f 3e
       0.3103027 0.2548967 0.40385285 0.31181347
000180 38 57 b1 be b8 eb ac 3e ca 59 a7 bd f1 51 ba bd
       -0.34636855 0.3377359 -0.08171423 -0.0909766
000190 5e 20 db bd cb 6a 1c 3e 5e cd 61 bc e4 b0 d3 3d
       -0.10699533 0.15275113 -0.0137818735 0.103364736
0001a0 1f 78 fa 3d 28 1a 17 bd 25 2e 1b bf 13 d6 a2 3d
       0.122299425 -0.03689018 -0.60617286 0.07950988
0001b0 e7 57 39 3e f3 a6 92 be d2 15 97 be 14 20 f1 3e
       0.18099938 -0.28642997 -0.29508835 0.47094786
0001c0 23 27 10 be 76 aa 0e 3f 4b ce e2 3d 04 94 95 3c
       -0.1407743 0.5572885 0.110745035 0.018259056
0001d0 00 af bd bd f3 17 ce be 02 b7 a9 3d d2 7d 16 3e
       -0.09261894 -0.40252647 0.08286859 0.14696434
0001e0 aa 2d 0d 3f 7b 48 27 bf 53 f1 35 3f 42 21 2d bf
       0.551478 -0.6534497 0.71071357 -0.6762887
0001f0 4f be 93 3c 2f 04 8e bd 02 c8 12 3e 75 65 b3 3e
       0.018035082 -0.06934392 0.1433411 0.35038343
000200 76 57 61 be 7c b0 25 be 64 70 94 3e 77 e4 23 3e
       -0.2200602 -0.16180605 0.28991997 0.16005121
000210 ae c1 bd 39 fe a0 ff be 8b 8d 69 bd 37 6d f8 bc
       0.00036193192 -0.49927515 -0.05701975 -0.030325515
000220 e9 13 60 bf 74 12 ef 3e be 4b 1b 3f 93 2e f8 3d
       -0.8753038 0.46693766 0.6066245 0.12118258
000230 54 83 10 be a4 b0 75 be f8 c7 1b be 90 0d e9 3e
       -0.14112598 -0.23993164 -0.15213001 0.4551816
000240 fe f6 95 3c 4f 3c aa bd a5 c0 4b be f1 e8 3c 3d
       0.018306252 -0.08312284 -0.19897707 0.046120588
000250 f4 d8 71 be 34 21 cc be 4d cd 7e 3e 35 98 a9 be
       -0.23617917 -0.39869082 0.24883004 -0.33123937
000260 9d 18 ea 3e 33 7f 4d be 59 4b d1 3e 4e e9 bd 3e
       0.45721903 -0.20068054 0.40877798 0.3709206
000270 03 83 5c 3e 80 96 f1 be 3d f6 56 3e 3a 52 a5 3b
       0.21534352 -0.47185135 0.2099237 0.0050452026
000280 0b 5f 33 be 31 f0 d3 3e 1a a1 e7 3d aa 0f 2e be
       -0.17516725 0.4139419 0.113100246 -0.16998163
000290 b7 39 fd 3d bc 4e ac 3e a9 29 2a bf 9c d6 17 3e
       0.12364524 0.3365382 -0.6646982 0.1482796
0002a0 b1 7e 1a 3d 5c 8c 72 be 19 aa d8 3e d7 f5 d9 be
       0.03771848 -0.23686355 0.42317274 -0.42570373
0002b0 8d c4 2f be bb 99 3f bd b8 fa f0 3d 44 ac 60 3e
       -0.17164822 -0.04677747 0.11766571 0.21940714
0002c0 f8 bf 23 be d7 e4 bd 3e fc 56 51 be 34 8e 3e bc
       -0.15991199 0.37088653 -0.20443338 -0.011630584
0002d0 79 f3 f7 bc df 76 37 c0 bf 04 0f be e2 03 f5 be
       -0.030267464 -2.8666303 -0.13966654 -0.47854525
0002e0 4f 81 a2 3d c9 66 89 bd f5 1e f9 bc 34 28 ef 3d
       0.0793482 -0.06709058 -0.03041027 0.1167759
0002f0 32 c8 7b 3e e8 f5 ae 3c 0c 0c ba 3d 74 34 13 be
       0.24588087 0.021357492 0.09084329 -0.14375478
000300 88 e4 57 ba 4f 68 63 bd d0 4c 59 3e 88 6f 5f 3e
       -0.0008235653 -0.0555194 0.21220708 0.2181989
000310 af b8 95 bc 91 83 95 bf 02 54 0f 3f f1 ea 01 3e
       -0.01827654 -1.1680776 0.5598756 0.1268728
000320 ad be d0 3e b7 b7 76 3c ab 8e 87 be 94 b8 36 bf
       0.40770474 0.0150584495 -0.26476035 -0.71375394
000330 e4 d5 80 bf b5 3d c7 be e0 bd be 3e 40 51 6a 3e
       -1.0065274 -0.38914266 0.37254238 0.22882557
000340 33 73 a0 be 29 3b 91 be 87 5e a2 3e c5 7f 47 bc
       -0.3133789 -0.28365448 0.31712744 -0.012176459
000350 26 59 22 3c 8a 3d cb bd 26 0b d2 3e 10 40 fc 3e
       0.00990895 -0.09923847 0.4102413 0.49267626
000360 60 a5 8d 3e 48 e5 83 bf a1 c6 2c bf 42 39 94 be
       0.27665234 -1.0304346 -0.67490584 -0.28949934
000370 0f 35 9a be d3 df 29 3e 1f 76 9f 3e ed 59 d6 3d
       -0.30118605 0.16589288 0.31144807 0.10466371
000380 bd 09 80 bc 90 e7 09 3f f9 90 57 3e 76 6e 24 bf
       -0.015629644 0.5386896 0.21051396 -0.6423105
000390 6a 45 2d 3e c0 f1 83 3e 53 e7 c2 be 8c 5c d9 3e
       0.1692101 0.25770378 -0.3806711 0.4245342
0003a0 17 e1 a2 be 10 25 ea bd 3b 05 a9 3e fe f1 f2 bd
       -0.31812355 -0.1143285 0.33011803 -0.118625626
0003b0 b7 23 4d 3b 02 f5 eb bd 8c 56 37 3e c4 c0 b9 be
       0.0031301805 -0.11521341 0.17904109 -0.3627988
0003c0 3f 4b 3c 3e 92 12 c7 be f2 1e d2 be cc e7 96 3e
       0.18388079 -0.38881356 -0.41039234 0.29473722
0003d0 e8 15 bc 3d 5e df 77 3e 4e a0 92 3e 9c 05 b7 3c
       0.09183866 0.24206302 0.28637928 0.022341542
0003e0 d2 d8 f8 3d cf e3 0b 3e 82 8c 60 be 87 11 c0 3d
       0.1215073 0.13661121 -0.219286 0.09378343
0003f0 dd 97 05 be 85 be 24 bf 4e 16 82 be 4d aa b1 be
       -0.13046212 -0.6435321 -0.25407642 -0.34700242

bias f4 [200]
000000 dd 8d 66 3e 33 f0 3f 3e a3 e8 13 3e b1 cb d3 3e
       0.22515054 0.18743972 0.14444213 0.41366342
000010 72 96 4d be cf ea 3e 3d b6 f2 85 be 94 7a 28 be
       -0.20076922 0.04661065 -0.26161736 -0.1645301
000020 54 27 cb be e0 b4 f0 3d 17 14 8f be fc 94 e6 bd
       -0.39678442 0.11753249 -0.27945015 -0.11258885
000030 91 98 a3 3e e9 1e 3c be 1f 88 10 3e 39 09 87 bc
       0.31952336 -0.18371166 0.14114426 -0.01648389
000040 43 b5 e5 be 45 83 ce be 96 93 98 be 9c dc c1 3e
       -0.44864854 -0.40334526 -0.298001 0.37863624
000050 af 9c 13 3e c5 26 a9 bd 70 bd 41 be 94 ef 29 3e
       0.14415239 -0.08259348 -0.18919921 0.16595298
000060 f5 ef 4a 3d 4c bf 30 3d 9b b7 eb be 02 d3 8a 3e
       0.049545247 0.043151185 -0.46038517 0.2711411
000070 cb c1 15 3e 65 fb 0d 3d f2 b1 73 3e 81 85 2c be
       0.14624707 0.034663577 0.2379835 -0.16847803
000080 a3 42 8d bd 6f 90 3a be 03 9d 58 be 58 f7 8d 3e
       -0.068974756 -0.1821916 -0.21153645 0.2772777
000090 52 0d 08 be 4c 33 91 be 93 63 02 bd 52 1e 33 3e
       -0.13286331 -0.2835945 -0.031833243 0.17492035
0000a0 ce 9a 52 3d 1d b3 08 bd 6e ef a4 be 3d b0 38 be
       0.051417165 -0.03337394 -0.3221392 -0.1803598
0000b0 70 2a 4d bd 84 75 fc bd 4b c2 cb 3e 97 24 de 3e
       -0.0500893 -0.12327102 0.3979667 0.4338729
0000c0 6d 95 fd 3a 50 e2 b9 be 83 fe fb bd fa cd 1f bf
       0.00193469 -0.36305475 -0.12304404 -0.6242367
0000d0 da c6 65 3c 96 33 96 3d d2 5d e2 3e 18 8e 82 3c
       0.014024461 0.07334058 0.44212204 0.015936896
0000e0 61 40 da be d2 c7 9d 3e e3 94 1b be 5a 92 4d 3e
       -0.42627242 0.30816513 -0.15193515 0.2007536
0000f0 e0 15 e7 bc 23 e6 53 3e 7a 2a 6a bc 4a ec 9a be
       -0.028208673 0.20693259 -0.014292354 -0.302584
000100 b5 14 2b be 70 ba 24 3e 98 88 1a 3e 8a cd 4e be
       -0.16707118 0.16086745 0.15091169 -0.20195594
000110 41 ee 50 be f5 b8 92 3d 95 0f ae be 1b 25 cf 3e
       -0.20403387 0.07164184 -0.33996263 0.40457997
000120 48 7a bd bb 6a ce 7b 3e 79 86 da bc b8 b3 c2 3e
       -0.0057823993 0.2459046 -0.02667545 0.3802774
000130 da 8c fc 3e a9 82 70 be c1 35 b4 3e ca 8e 38 bd
       0.4932621 -0.23487343 0.3519726 -0.04505805
000140 00 5c 0c 3f e2 58 7a be 0b 19 b1 3e c3 e3 b1 bc
       0.5482788 -0.24447969 0.3458942 -0.02171505
000150 80 db c0 bd 0b 73 80 be e8 36 8d 3e 08 a9 e5 bd
       -0.09416866 -0.2508777 0.27580953 -0.11213881
000160 e4 52 7f be 3f 5b 75 3d df 9a f3 be ec 15 94 be
       -0.24933964 0.059901472 -0.47579095 -0.28922975
000170 3b 0b 81 be 86 68 a1 3e 38 9c b7 bc 97 18 68 3e
       -0.2520388 0.31525058 -0.022413358 0.2266563
000180 be d0 57 3d b0 63 68 be 42 96 db 3e f2 d8 c9 bd
       0.052689306 -0.22694278 0.42888075 -0.09855832
000190 f1 56 c8 be 85 fb 08 3f d8 65 fa bd df 0e 57 3e
       -0.3912883 0.5350879 -0.122264564 0.21001767
0001a0 30 9b b6 be 61 a8 23 3c 5b 60 20 be b8 d3 bf 3d
       -0.35665274 0.009988875 -0.15661757 0.09366554
0001b0 8d a6 89 3d 65 a3 52 3d a6 12 b8 3d d2 5a 13 3e
       0.0672122 0.051425356 0.08987932 0.14390114
0001c0 9f 6d 81 3d e7 97 50 bd 79 46 94 be d5 76 aa 3e
       0.06319737 -0.050926115 -0.28960016 0.33293787
0001d0 17 15 80 3d f7 20 c7 3e bf 95 73 3e cc f4 a2 be
       0.062540226 0.38892338 0.23787592 -0.3182739
0001e0 86 75 da 3e 47 4d 38 3e 59 a8 f0 3d 6e d8 8d bc
       0.42667788 0.17998229 0.1175086 -0.017315116
0001f0 45 a9 21 be 67 3d e1 3e 4e 1e db 3e 51 2a b3 3e
       -0.15787227 0.4399216 0.42796558 0.34993222
000200 fb 53 14 3e d4 bb ad 3c 40 6b 39 3e b9 a8 dc 3c
       0.14485161 0.021207727 0.18107319 0.026935922
000210 34 3f 58 bd 69 58 8a be c9 ed 59 be 69 2e f9 bc
       -0.05279465 -0.27020577 -0.21282114 -0.030417638
000220 ae a5 af bd 26 22 24 be d7 2d 8f 3e 92 2d 6b 3e
       -0.08576523 -0.16028652 0.2796466 0.22966602
000230 72 42 98 3e b2 ec fd bd 6c 98 00 3d 23 dd 1e bb
       0.29738194 -0.12398662 0.03139536 -0.0024240694
000240 29 5a f9 3e da 01 4b 3e 2e 8f 4c 3e 82 97 01 be
       0.487016 0.19824925 0.19976494 -0.12655452
000250 c7 38 9b 3c 4b 5f 9f be 86 2d 23 3e 36 8b 0d 3e
       0.018947972 -0.3112739 0.15935335 0.13822636
000260 91 a8 21 be 5b 32 b3 be c4 2d 7e 3e cd c7 7a be
       -0.15786959 -0.34999356 0.24822146 -0.2449028
000270 e7 ee 9a 3d 83 8e 58 3e a8 d7 1b 3e da 5d 73 3e
       0.07565098 0.21148114 0.15218985 0.2376627
000280 9b 5e 8c 3e 79 75 5c 3e 76 91 98 be 73 89 ee bd
       0.27415928 0.21529187 -0.29798478 -0.1164731
000290 37 ca 05 3f 60 f7 b2 be 9f 6f 9d 3d b6 76 b9 3d
       0.5226168 -0.34954357 0.07687306 0.090558454
0002a0 bd 42 62 3e 96 cb 00 be cc d1 1d 3e f0 35 19 be
       0.22095771 -0.12577662 0.15412062 -0.14961982
0002b0 d4 54 86 3e c6 68 11 be 0d 48 80 be 83 d9 e6 bc
       0.26236594 -0.14200124 -0.2505497 -0.02817989
0002c0 c1 fa 2a 3e b5 07 8b be c3 15 d6 3d af 37 ca be
       0.16697218 -0.27154317 0.104533695 -0.39495608
0002d0 0e 5c 1f 3e c2 89 c2 3d bd 05 6f bd e8 7b 1b bd
       0.1556246 0.094989315 -0.05835508 -0.037959963
0002e0 d5 94 53 be b4 e6 ba 3e a7 d3 34 3e 90 2f 9b 3e
       -0.20662244 0.36504138 0.17658864 0.30309725
0002f0 28 4a 04 be 42 c2 ce 3d 01 29 c8 3d 98 ff 28 be
       -0.12918913 0.100956455 0.09773446 -0.16503751
000300 e5 26 8a 3e 01 5c 26 3e 4b dc 8f 3e cd 3a 06 3e
       0.269828 0.16246034 0.28097758 0.13108368
000310 8c d1 97 be 75 33 98 be 29 11 7b 3e 46 60 3c 3e
       -0.2965206 -0.2972676 0.24518265 0.183961

weight f4 [200, 200]
000000 17 f2 3a 3e 1f 6f be 3e 27 8d 65 3e 00 59 0d 3d
       0.18256412 0.37194154 0.22417127 0.034508705
000010 f9 e1 ab 3e ea 5e 64 bf ae fd 97 3e 1d 3a 2b c0
       0.3357084 -0.8920733 0.2968573 -2.675422
000020 00 66 f0 3b 31 de ad bf 52 dd 37 be 84 0c 1e bf
       0.007336378 -1.3583432 -0.17955521 -0.6173785
000030 aa 7b 29 3e 30 10 8e be 23 4d e5 be b5 83 bb be
       0.1655108 -0.27746725 -0.44785413 -0.36623922
000040 81 4a 97 be 95 92 3e 3f 0d 70 89 3c ed dd 79 be
       -0.2954903 0.74442416 0.016777063 -0.24401064
000050 19 86 13 bd 64 ab a2 be 71 16 83 3d e8 c9 9a 3e
       -0.036016557 -0.31771386 0.06400765 0.30232167
000060 53 12 4b be 1b 4f 01 bf 4c 17 63 bf ba f7 47 bf
       -0.19831209 -0.5051133 -0.88707423 -0.78112376
000070 cf be 01 3f b6 df ca 3d cc 33 82 be 34 00 57 3e
       0.50681776 0.09905951 -0.25430143 0.20996171
000080 38 35 0f bd 42 73 2a c0 a0 d8 54 bc 96 c3 e5 be
       -0.034962863 -2.6632848 -0.012991101 -0.44875783
000090 9a d9 a4 be 91 2c 83 bf d4 37 08 c0 10 bb 0c be
       -0.32197267 -1.0247976 -2.1284075 -0.13743234
0000a0 47 82 aa bd 0f 48 74 be 96 76 16 c0 7c 23 de 3d
       -0.0832563 -0.23855613 -2.350988 0.10846612
0000b0 f6 44 e8 be af ae b4 3d 06 af 1a 3e b8 b9 08 be
       -0.45365113 0.08822381 0.15105829 -0.13352096
0000c0 62 5d 5d be 58 e2 6c bf ee 35 dc be df fd 0f c0
       -0.21617654 -0.92532873 -0.43009895 -2.24987
0000d0 c3 2d 05 3d d5 d8 57 3c b8 64 77 3d b7 c2 b0 be
       0.032514345 0.013174255 0.060398787 -0.34523556
0000e0 6b ca b7 be 26 af 98 3e c1 2e 16 bf 48 48 a3 3e
       -0.3589662 0.29821128 -0.5866509 0.31891084
0000f0 d6 00 e3 3c 58 12 d9 bc 88 b1 10 bf b6 da 34 bf
       0.02771036 -0.026498005 -0.5652089 -0.70646226
000100 06 5f fb 3d ef 62 0b 3f 80 2b 3b bf 19 5f 54 3e
       0.12273984 0.54447836 -0.7311325 0.20739402
000110 fd 3d 91 be 5b 15 11 be 25 3b 9c be 44 d6 d9 bd
       -0.28367606 -0.14168303 -0.30513874 -0.10636571
000120 bf 8a bc 3e 59 86 fa 3d bf d7 64 bf e1 a8 ee 3d
       0.36824605 0.12232656 -0.893917 0.11653305
000130 d1 05 ee bd d3 0e 13 be ad b3 69 be 84 77 28 3f
       -0.11622203 -0.14361124 -0.22822447 0.65807366
000140 26 a1 ac bf d7 0c 8f 3f 3a c1 18 c0 a4 ce a4 bf
       -1.3486679 1.1175793 -2.3867936 -1.2875562
000150 44 44 ea bf c1 8c 48 3e 9f cc 04 be e5 5a d7 bb
       -1.8302083 0.19584943 -0.12968682 -0.006572115
000160 5f 07 25 3f c3 d7 a0 3e 74 8e 31 be ba b2 78 bf
       0.6446437 0.31414613 -0.17339498 -0.97147715
000170 3a 3a 61 be 12 02 4d bd c7 d3 64 bf cb d3 16 bf
       -0.21994868 -0.050050803 -0.89385647 -0.5891692
000180 51 77 b6 bf 30 b9 ff bf 74 57 40 bf 63 6b d6 3d
       -1.4255162 -1.997839 -0.7513344 0.10469701
000190 1a 78 55 be 6c 44 94 bd 50 8e c7 3e de e8 e9 3e
       -0.20846596 -0.07239613 0.38975763 0.45685476
0001a0 65 ee f6 3e 30 ef 82 3e c8 bd 1a 3d 47 55 82 be
       0.48228756 0.2557311 0.037778646 -0.25455686
0001b0 bf 36 9d 3e 6c b3 73 3e 16 31 2c 3f 7f 47 1f 3e
       0.3070583 0.23798913 0.672624 0.15554617
0001c0 79 fc b6 3e 09 05 a9 3f 05 8d bf be 50 ed 12 3d
       0.35739496 1.3204662 -0.37412277 0.03587085
0001d0 d4 7c 09 3f 0a 3d 29 be 60 e0 12 3e c2 55 48 c0
       0.537061 -0.16527191 0.14343405 -3.1302342
0001e0 da ea b8 3d 7a 4f d0 3e 92 15 02 bf 04 4a 7d bf
       0.090291694 0.40685636 -0.50814164 -0.98941064
0001f0 3f 7d a1 bf 75 9d ed 3c e7 3f 36 3e be 45 9c 3c
       -1.2616347 0.029005745 0.17797814 0.019076224
000200 f8 8e 50 bf dc 22 22 3e e9 6d b9 3e b2 4c 0a bd
       -0.81468153 0.1583361 0.36216667 -0.03376455
000210 82 b3 e8 3e 2b fc 97 bf 6b 22 22 be 3a d4 f1 3e
       0.45449454 -1.187383 -0.15833442 0.4723223
000220 ce 29 67 bf 45 da d1 bf 58 4f 7b 3e 46 a6 50 3e
       -0.90298164 -1.6394736 0.24541986 0.20375928
000230 0c 6e 88 3e 72 9e 53 bf 03 f0 cc 3e 22 90 9d 3f
       0.2664646 -0.82663643 0.40026864 1.2309611
000240 e1 80 1b c0 36 9a 2b 3d 2f e3 cf 3e 4c c0 08 3e
       -2.4297411 0.041895114 0.40603015 0.13354605
000250 4a f2 a5 be fc e4 d8 be 22 0e 08 bf b4 23 f2 bf
       -0.32411414 -0.423622 -0.53146565 -1.8917146
000260 91 c5 6a bf 70 bb 57 be b4 b9 26 bc 03 56 e0 bd
       -0.9170771 -0.21067595 -0.010176111 -0.109539054
000270 61 c1 7e 3e 0d 4b 9c bd 14 4b 82 be d2 0b ce be
       0.24878456 -0.07631502 -0.25447905 -0.40243393
000280 e0 b6 57 be bf 54 4d 3e 59 56 4b bc 86 0c 0c bd
       -0.21065855 0.2005186 -0.012410724 -0.03419163
000290 0f 47 ae 3e 3c 97 25 bd e8 c7 88 bf 2c af ab be
       0.34038588 -0.04042743 -1.0686007 -0.33532083
0002a0 8a c7 28 bf 3a 44 20 bf 00 ce a0 bf 08 b4 24 3f
       -0.6592947 -0.62604105 -1.2562866 0.64337206
0002b0 41 69 aa bf 7f 49 54 be 37 a3 f3 3e c8 a3 8c 3e
       -1.3313371 -0.20731162 0.4758546 0.27468705
0002c0 0d 77 8f 3d fc cf 6c 3e 8d c7 e6 be ca 3c ca 3e
       0.07005129 0.23126215 -0.4507412 0.39499503
0002d0 76 96 8b bf d5 72 cf 3e 00 38 4a 3f f5 06 bc bf
       -1.0905292 0.40517297 0.789917 -1.4689623
0002e0 66 33 3b be 9f ab a4 be e8 49 81 3f 4a 88 4e bd
       -0.18281326 -0.32162187 1.0100679 -0.050422944
0002f0 65 b4 41 bf 4a d3 1f be b7 83 86 bc 76 ce 4a 3f
       -0.75665885 -0.15607944 -0.016420228 0.79221284
000300 d7 e2 b0 3d 60 6e 91 bd 91 79 d8 3e fe f5 5f bb
       0.08637016 -0.071011305 0.42280248 -0.0034173722
000310 5c 88 06 3f 6b 44 c3 bd c5 6f ff 3e 41 1a 2e 3f
       0.5255182 -0.09534534 0.4988996 0.6800881
000320 77 ba 54 3e 89 a0 6d 3f b5 52 d1 bc f0 9a e4 bd
       0.20774256 0.9282308 -0.025552133 -0.111623645
000330 f6 66 5e 3f 04 34 d1 bd 64 d2 d5 3e 5e 5c 2b bf
       0.86875856 -0.10214999 0.41762078 -0.66937816
000340 bb da 28 bf 1d 44 1d 3e 60 61 2a 3d 0e ca 9d bf
       -0.65958756 0.15358014 0.04159677 -1.2327287
000350 4e 8e bf be c8 e4 9b bd b5 28 57 3f 26 b0 27 bf
       -0.37413257 -0.07611996 0.8404649 -0.65503156
000360 91 a0 4a 3e 12 dd f5 3d 60 32 e1 bc 32 b8 b5 be
       0.19787814 0.120050564 -0.027489841 -0.35492092
000370 f3 ee 53 be 41 7b 2d bf d0 84 b5 3f 3f d0 2f 3d
       -0.2069662 -0.67766196 1.4181156 0.04292321
000380 42 8c 3e 3e a0 d2 7c 3d b2 f0 3d 3f 9a 96 0a 3e
       0.18608192 0.061724305 0.74195397 0.13534012
000390 27 a1 ff bb 2e c4 b3 bf 35 bc 36 3f a5 ed f0 be
       -0.0078011933 -1.4044244 0.7138093 -0.47056308
0003a0 35 79 5d bd ca 76 fa 3e c6 84 9c 3b c1 9c e6 3e
       -0.05407067 0.48918754 0.00477657 0.4504147
0003b0 11 ae a0 bc 98 8e ee 3b 5c a9 28 3e 98 69 c3 be
       -0.019614251 0.007280182 0.16470855 -0.381665
0003c0 a5 40 36 bd f9 bf a0 3e 43 22 8b be 6e 2a d3 3e
       -0.044495244 0.31396464 -0.27174577 0.4124331
0003d0 2f 28 ea bc c0 fb c6 be 83 94 e4 bf 84 4e f3 bc
       -0.028583614 -0.38863945 -1.7857822 -0.029700525
0003e0 f3 e2 78 3f 7f 8d cc 3e 12 2a e6 3e 52 ce 46 3f
       0.972213 0.39951703 0.44953972 0.7765857
0003f0 b3 bc 26 3e bf 58 0f 3e 0e 9c e4 bd a4 16 96 be
       0.1628292 0.13998698 -0.111625776 -0.29314148
