Vehicles/Str_01_01_02/Str_01_01_02_critic_target.pth (torch, 353427 bytes, 10 tensors)

weight f4 [200, 15]
00000000: 4b66 7fbe a3d7 8abd 7ef6 0bbf c4a1 4a3d
00000010: 29db 633e d441 90bd f287 b6be 645c 68bd
00000020: 2210 4dbb 3037 0d3e f818 bdbe 0d49 d2be
00000030: ba51 303d 0c77 733e 4d95 c83d 8fcf c2be
00000040: 6395 2f3e 065b c83d 48e0 673d df49 dfbe
00000050: bc54 aabe 4d97 cabe 134c 60be 3440 693e
00000060: ce8e 4e3e cd41 92be e499 79be abed 2dbf
00000070: 5d77 74be c6fe 73be 5daa 6fbe e31f 0abf
00000080: 7777 bd3e 3a23 873d eba7 e0be a337 c6be
00000090: 5c23 90bd b64e f03e ed54 8c3d 0c8c e4bd
000000a0: 2f4b 8b3d 9bb4 0abe 10a3 93bd 10d7 35be
000000b0: 726f abbe c65b 3b3e 7c28 3dbd cbf4 743e
000000c0: e959 9cbd b86d 043e fcd9 48be d99b 0bbe
000000d0: 6797 d6bd 1655 473e fdc7 353e b6ee babd
000000e0: 84b8 113e c6e1 103e 28c2 653e d3e7 293e
000000f0: 14fd 96be 6151 85be 5cb3 f6bd fdb4 25bd
00000100: b8c8 103e 6f5b 043d b178 00bc 83f7 a83d
00000110: e109 dabd 4b7b b03e 0dab af3d 23ec c1bd
00000120: 34de cdbc 424e 8d3e 0e04 f4be 10e5 1e3e
00000130: ea63 88bd c332 85be 13d6 043e 0b05 9a3d
00000140: b799 a23c e8b6 65be 5409 fdbd 1cf7 b93e
00000150: f3f9 0ebf c7e6 29bf a497 d13d b838 04be
00000160: 13fb fbbd b235 ee3c cdc7 b43d b934 593d
00000170: f421 b73e cb75 ec3d 2c77 ed3c d3e8 04be
00000180: c3c8 2f3e 5377 45bd 6791 34bf 257b 0ebf
00000190: 6ea3 243e 6905 a83e fd24 86be e3df 3d3e
000001a0: d596 c23e a76e e6ba 7fe5 843d 8ceb 1f3e
000001b0: 2c49 0b3e b507 88bd 4d63 8bbe fe4e 403e
000001c0: 268d 57be cbf4 d13d e64a fbbd 8c11 babd
000001d0: 2632 b13e 9c2c 313e 2355 373e 3f0e 173e
000001e0: 3e5b 28be e683 b5bd 7831 11bf b1a9 b43d
000001f0: cfbc f03d 152c 673e 2678 03be 7f09 04be
00000200: 9acd d33e 5c05 a73e 0966 8b3c ab70 9dbe
00000210: b2ea b3be 68eb a73d be41 acbc 4aa7 b13e
00000220: 0a85 e0be e23a e6be deee 0ebf a314 41be
00000230: 0350 7f3d 4152 733e edd1 fa3b e3dc d5be
00000240: 4885 c3bc b2bf 703e 2cb1 b93d 3ff9 b53e
00000250: 4a60 75bd 4986 2e3f 56ce 9ebb 750f 1d3e
00000260: 0745 a53c 43d9 6cbe d9b2 c6be 5544 9c3c
00000270: fd9f 84be 9259 5bbd 50e5 b2be 1891 bcbd
00000280: 3143 593b 3dd9 08be 2e0a 243e 13f1 61bc
00000290: 0604 9b3d 4c28 1b3d 409a 5e3e 7e87 1ebd
000002a0: cd74 d33e e9f3 37bf de87 3fbf eba6 873e
000002b0: 92c4 a13c a518 93be de38 99bf 3b4f e4bc
000002c0: c480 493d 83fb 983d b4fd ffbe 4e7e 433d
000002d0: aa7c 7f3e 6deb 8c3d 38a5 693e 4834 c73e
000002e0: ddf2 5e3d fd55 29bf 63aa eebe 9c8d f23d
000002f0: 4e2f a53e 672d 1c3e 1bbe 963d 07a6 73bd
00000300: ad8f 21be 3ed7 6f3e c4fc 543e 74f6 833d
00000310: fbad 713d 203f cfbd 24b4 fabd fefc 9abd
00000320: 2ebc 97bc 6cb6 803d 35fd 9e3d b7aa b23c
00000330: 265a a23c 9fe4 a9bd 8f84 26be f1da c7bc
00000340: f4b1 043e 8cd4 883e bd43 0abf f455 8b3e
00000350: e3f8 7abe 0870 bbbe 0672 91be e1ce cfbd
00000360: f0b3 c13d 9b06 6abd 1af7 5dbe 23f5 ebbd
00000370: 9f0e 3c3d 6599 8cbe fdd2 88be 4131 563e
00000380: fb58 fbba b943 123f 9eff 7a3e e30d 41be
00000390: 1d78 0abf d695 27be 9703 db3d 2e9a 063e
000003a0: f1a8 04bf d34f 63be 5f26 f7bd aa7c 79bf
000003b0: aa5d 9abd 81e7 58be c8d6 1b3e dc30 e5bc
000003c0: 7099 b6bd 9044 d93d a4ad 4d3e 449c 9c3e
000003d0: 729f d63e 49b2 08be c481 2dbe 7490 a8bd
000003e0: 647e 6fbe 8dde 65be d2ac 7d3e 8a7c b33e
000003f0: b797 b03c 903a 88bd 30b0 66bd 919f b53e
-0.24941365 -0.06779411 -0.5467299 0.049470678 0.22251572 -0.07043806 -0.35650593 -0.056728736
-0.0031290133 0.13790584 -0.36933112 -0.41071358 0.04304669 0.23775882 0.09794102 -0.3804898
0.1714683 0.09782986 0.056610376 -0.43611047 -0.33267772 -0.39568558 -0.2190402 0.22778398
0.20171663 -0.28565827 -0.24375111 -0.6794078 -0.23873658 -0.23827657 -0.23404832 -0.53954905
0.37005207 0.06598516 -0.4387811 -0.38714322 -0.07037994 0.46935052 0.06852136 -0.11159524
0.068014495 -0.13545458 -0.07208836 -0.17757821 -0.33483464 0.18296728 -0.046181187 0.23921506
-0.076343365 0.1293248 -0.19614404 -0.1363367 -0.104780965 0.19466051 0.1775207 -0.09127562
0.14230543 0.14148626 0.22437346 0.1659234 -0.29489958 -0.2603865 -0.12045929 -0.040455807
0.14139068 0.03231376 -0.007841275 0.08250334 -0.106464155 0.34469065 0.08577547 -0.09468868
-0.025130369 0.27598768 -0.47659343 0.15517068 -0.06659682 -0.2601529 0.12972288 0.07520493
0.019848688 -0.22433054 -0.12355295 0.36321342 -0.5585014 -0.66367763 0.10234001 -0.12912261
-0.12303748 0.029078338 0.088271715 0.053028796 0.35768092 0.11545905 0.02898749 -0.1297944
0.17166428 -0.0482095 -0.70534366 -0.55656654 0.16077968 0.32816628 -0.26200095 0.18542437
0.380057 -0.0017580584 0.064890854 0.15617198 0.13602132 -0.06642095 -0.27224198 0.18780133
-0.21049938 0.10251769 -0.12270145 -0.09085378 0.34608573 0.17302173 0.17903571 0.14751528
-0.16441056 -0.08863048 -0.5671611 0.088214286 0.117547624 0.2257541 -0.12838802 -0.12894247
0.413678 0.32621276 0.017016428 -0.3075002 -0.35139996 0.08199197 -0.021027442 0.34697944
-0.438515 -0.449668 -0.5583323 -0.18855529 0.062332164 0.23761846 0.0076544196 -0.41770086
-0.023867264 0.23510626 0.09066996 0.35541722 -0.05990628 0.6817365 -0.0048463745 0.15337928
0.020174516 -0.23129754 -0.38808325 0.019075552 -0.2590331 -0.053552218 -0.34940577 -0.09207362
0.0033151621 -0.1336412 0.16019508 -0.013790387 0.07569127 0.037880227 0.21738529 -0.038703434
0.4130005 -0.7185655 -0.7481669 0.26494536 0.019747052 -0.2872974 -1.197048 -0.027869811
0.049195066 0.07469847 -0.49998248 0.047727875 0.249499 0.068808414 0.22816932 0.38907075
0.05443083 -0.6614683 -0.4661437 0.11843416 0.32262653 0.15251695 0.073604785 -0.059484508
-0.15777464 0.23421952 0.20799547 0.064434916 0.05900381 -0.10119462 -0.1224139 -0.07567786
-0.018522348 0.06284794 0.07763139 0.021809919 0.019818377 -0.08295559 -0.16261505 -0.024396392
0.12958509 0.2672466 -0.5400961 0.27214015 -0.24509005 -0.3660891 -0.28407305 -0.10146881
0.094581485 -0.057135206 -0.21676293 -0.115213655 0.04591238 -0.2746078 -0.2672347 0.20917226
-0.0019176299 0.57134587 0.24511573 -0.18852954 -0.5408953 -0.16365752 0.10694044 0.13144752
-0.51820284 -0.2219842 -0.120678656 -0.9745585 -0.07537396 -0.21182062 0.15218651 -0.0279774
-0.08915985 0.106087804 0.2008577 0.3058797 0.41918522 -0.1334926 -0.16944033 -0.08230677
-0.23388058 -0.22448178 0.24772957 0.35055953 0.021556718 -0.06651795 -0.05632037 0.35473302

bias f4 [200]
00000000: df45 303e d31f 6cbb e71e 5c3d 7c22 5abe
00000010: 4603 a7be b6c3 fd3d ada0 ba3e 6132 303e
00000020: eb03 69be 4a61 01be 30b0 32be 0ad7 223d
00000030: 2973 493e 5c10 78be 7654 1ebe d3b2 2a3e
00000040: 1e13 2cbe bfac f3bd 9d19 48be f989 d63d
00000050: 086f ba3d 1a5c ab3d 4e66 033e 8482 503e
00000060: 1d08 8cbb 0174 673e 83a3 533e 362d ad3e
00000070: 866b 713e 1514 8abe 89b5 c0bd d76e b13e
00000080: c2b9 0bbd 86cb 53be 8258 d4be 8b90 98be
00000090: 7ba2 41be 826a 90be ce64 66be 2ee0 c1bd
000000a0: c47c db3c e74c afbd 58e6 a33e a31e 9f3d
000000b0: 3dd6 95be 9db2 623e 05da a03e be84 913e
000000c0: 5448 38be 28c3 81be e5c8 8d3e 1e5e 9c3e
000000d0: 9bde 35be 9003 90bc 6863 e1be 43ae 0a3e
000000e0: 018e adbe 9453 853d 5d2e 45be 64d7 83be
000000f0: 2119 653c 0017 1a3d 6e85 2abe e717 30be
00000100: abb0 0a3e 407d aabe 014e 8abd 3340 b1bd
00000110: 1d84 85be d4c3 26be aa8d 5cbd d423 fc3d
00000120: 86bc 68be e0f3 683e feb0 6abe 53d2 63be
00000130: 9201 59be bb86 1abe 09b0 7f3e db2b 913e
00000140: b6e2 b4bd b066 9abd f7a2 2cbe ad8a 843e
00000150: 53fa bebe 96a8 1dbe f529 e1bd 21f2 46be
00000160: b240 c63d eaa2 8cbc 6010 50be 0752 bd3d
00000170: b670 df3d 2de4 9ebc b688 02bd fc26 4bbc
00000180: 0979 4abd 9171 a2be 3121 993d 1062 c3be
00000190: 3576 8fbe bf35 ad3e 3c38 103e 8790 24be
000001a0: 33ce fe3c a600 9a3e 4506 33be 5c35 a2be
000001b0: 2b50 27be 6cd2 d03e 7eba 96bc 3597 07bb
000001c0: ce16 0e3d ca6d d1bd 4c1e a23c 236f 60be
000001d0: cc55 4abe 178d 903e d03c ea3d 466b 6bbe
000001e0: 7534 b3bd 30c5 59bd 3c80 573d e06e 463e
000001f0: 340c 3a3e 8c5f 073d 64c0 63be 6652 893c
00000200: 924a 893d 36fa a8bc d3f1 373e 9fd0 db3e
00000210: b020 3ebe 90b3 b3be 4036 b8be 3d4a 413e
00000220: 3877 e03e 7b01 5bbd 4c02 44bd 5c0f fdbb
00000230: c5c4 e63d b4a8 633e 8c0e 013d 6e7b 11be
00000240: 3654 203d d7f1 2fbe 51f4 dfbe e346 4f3e
00000250: 9051 873e 059b 213e d1fd 7ebe 4ccd 0c3e
00000260: 0f25 313e 0a49 f5bd 606f 98be 697d bb3e
00000270: 9556 47bd b2f3 4fbe 0746 b1bd ed21 86bd
00000280: f5b0 eb3d 90a5 28bd 3eaa cebd ce50 afbd
00000290: 8717 783d b0ad babd e665 4bbe 8ba4 6bbe
000002a0: aeeb d2bd 3d2a aabb 8e47 08be 4216 113e
000002b0: ca90 87be b81b febd 874c afbd e33a a9bd
000002c0: 2367 dc3c 975e 36be e969 9b3c cd51 c13d
000002d0: d471 71be 3dda 903e c2c8 143e 22d9 64be
000002e0: 5d03 61bd 24e5 77be d22b 8bbe 5278 983e
000002f0: cd9c 003e d723 f6bd cda2 803e 921a 9b3e
00000300: fa3c a5be 2314 a2be 6cde 8a3d 3cd2 f23d
00000310: 3c7a b33c 2090 a5be b4c1 713e eb93 2bbe
0.17214154 -0.003602971 0.05374041 -0.21302217 -0.32619685 0.123908445 0.3645071 0.17206718
-0.22755401 -0.12634769 -0.17450023 0.03975586 0.19672836 -0.2422499 -0.15461907 0.16669779
-0.16804168 -0.11898183 -0.1954102 0.10475535 0.09103209 0.08367176 0.12831995 0.20362288
-0.004273428 0.22602846 0.20667844 0.33823556 0.23576173 -0.26968446 -0.09409625 0.34654877
-0.0341127 -0.20683107 -0.41473776 -0.29797778 -0.18909638 -0.2820626 -0.22499391 -0.09466587
0.026792891 -0.0855959 0.32011676 0.07769515 -0.29265013 0.22138448 0.31416336 0.28421587
-0.17996341 -0.25344205 0.27692333 0.30540556 -0.17760698 -0.017579824 -0.44021153 0.13543038
-0.33897403 0.06510082 -0.19255967 -0.25750268 0.013983042 0.03761959 -0.16652462 -0.17196618
0.13543956 -0.33298683 -0.06753159 -0.08654823 -0.26077357 -0.1628564 -0.05384604 0.12311521
-0.22728166 0.22749281 -0.2291908 -0.22248201 -0.21192005 -0.15090458 0.24969496 0.28353772
-0.08832304 -0.07539117 -0.16859041 0.2588705 -0.37300357 -0.15396342 -0.10994331 -0.19428302
0.096803084 -0.017167527 -0.20318747 0.09244161 0.1091017 -0.019395912 -0.03186866 -0.012399431
-0.049431834 -0.3172727 0.07477034 -0.38160753 -0.28019872 0.33830068 0.14083952 -0.16070758
0.031104183 0.3007862 -0.1748286 -0.31681335 -0.16339175 0.4078554 -0.018399473 -0.0020689492
0.034689717 -0.10226019 0.019789837 -0.21917395 -0.19759291 0.28232643 0.1143738 -0.2299014
-0.0875024 -0.05316657 0.05261253 0.19378233 0.18168718 0.033050105 -0.2224136 0.016762923
0.06703676 -0.020627122 0.17963342 0.42932603 -0.18567157 -0.35097933 -0.3597889 0.18875976
0.43840957 -0.05346821 -0.047853753 -0.0077227782 0.112679996 0.22232324 0.031508014 -0.14207241
0.03914281 -0.17182098 -0.43741086 0.20241885 0.26429415 0.15781792 -0.24901511 0.1375019
0.17299293 -0.11976822 -0.29772472 0.36619118 -0.048666555 -0.20307806 -0.08655935 -0.065494396
0.11508361 -0.041173518 -0.10091065 -0.08560334 0.060569312 -0.091151595 -0.1986309 -0.23011987
-0.102988586 -0.0051930235 -0.13308546 0.14168647 -0.26477653 -0.12407631 -0.08559518 -0.08263185
0.026904648 -0.1780952 0.0189714 0.094394304 -0.23578578 0.28291503 0.14529708 -0.22348455
-0.054934848 -0.24208504 -0.2718187 0.29779297 0.12559815 -0.12018555 0.25124207 0.3029371
-0.32273084 -0.31655988 0.06780705 0.11856505 0.021908872 -0.3233652 0.23609048 -0.16755645

weight f4 [200, 200]
00000000: 365d 213e cb64 5b3e a845 c1be cf0f 3e3e
00000010: 6a2a f13c 5fd2 9c3d ac84 993e 63d9 023e
00000020: d6b4 063d 04e3 583e b998 ce3c 10a1 fd3c
00000030: cee3 e53e a6a8 173d 709e b63b 23e5 bcbb
00000040: 76bd 1fbe 3b9e 873c b79a 953d 827d a93d
00000050: 73a4 20bd 6da1 1fbe 93e1 e23e 7f63 a03e
00000060: 30f7 a53d 3eb1 b23c 2974 7d3e dd25 443d
00000070: bb5e 7b3d 179e 8f3b b344 553d 53e4 0c3a
00000080: bbc5 1c3d 2d5f f63c 9348 d53e ba71 ccbd
00000090: c16d 063f 6eb4 11be 2ad1 55bc dfd2 9d3d
000000a0: 8cc2 433d e62f f73d 27fc 3a3e b8cb 18be
000000b0: 669b 643d d5f8 333e 554f f63d a828 84be
000000c0: 6e39 cc3c 13ae 0ebe 0628 693c f0ed 0e3e
000000d0: 5f7e c7bd 0daa 393e 82ef 6cbe 5402 ca3d
000000e0: eaae 573d 6acb aabb 9abf b43e 2dee 8d3e
000000f0: 62ff 2bbe ae63 17be f035 043e 44b6 f83c
00000100: ceae 013e 7121 3d3c 5d6f 213e 6f86 94be
00000110: 7a91 63bd a2e7 89be 7ade 9fbe 8758 38bd
00000120: 6a4b efbd 5c9b 823e 05c9 06be ac02 06bd
00000130: 7104 58bd dc8d 373d bfbf fa3c 5029 113d
00000140: 8ff4 b93d 4d44 dd3d 4714 aa3c 5cf6 8a3e
00000150: b44d 03bf 4385 fa3c 27fc 0abd 794c c93b
00000160: 3ad4 0abf 956e 31bf 50aa 7c3e be42 b03d
00000170: dbfc aebd 0be0 8a3e 691f 123e 4a4b adbe
00000180: 0e5c 9f3e 562c adbd 10df 4bbb 1825 69bf
00000190: fea0 213d 2a8f 663e e533 6a3d 27b6 833e
000001a0: 5809 ac3d db1a f6be 94c0 17bf b861 63be
000001b0: 8361 6e3c 3198 07bd 87b7 a73c ce97 81bd
000001c0: 54ad a6be 5e5e 203e f702 223e a61c 263d
000001d0: 185f cdbe aa19 afba b4cd 82be c183 e73b
000001e0: f34c 803e 2ee6 6fbe a8ee 76be 84d6 b8bb
000001f0: c67a 97be 969a 883d d69b aa3e dfcf f73e
00000200: 121c 433e 6b89 2a3d 52b7 ad3e 81e6 183e
00000210: aa9a 79be b162 c1bb 641a 04be 1a54 013e
00000220: 5b1d c83e 5187 203e fb22 debc 2efd 383e
00000230: c913 373d ba56 9dbc 7881 e93d fe07 373e
00000240: 5832 f03d 2e55 243e 964f d8bd 2c17 7b3e
00000250: 5c0d 85be 260b d93d edc5 423e 70d0 953c
00000260: 797e fc3d ba9f c1be dc9c e8bd d7df e63d
00000270: 61ed db3e 74cc ed3d 14c2 92be 0a28 603e
00000280: 1ab6 953e 7f6f 5d3e 2f94 01be 0715 1bbe
00000290: 33d8 aa3e 8d69 ac3d 5638 45bd 9847 71bd
000002a0: 5387 13bf 6ddf adbe 81d1 833e 5dc8 0c3d
000002b0: ec7c 36bf a9a5 133e 30e9 383e b9e7 b9bc
000002c0: 984f 633e 6845 b13e 747f 353d 446a 07bc
000002d0: 666f 13bd 89ad 69bd c90c 913e b7ff e7be
000002e0: 64c5 1abe 08e0 c2be 1dac 5ebc 79c1 7f3e
000002f0: 1004 083d a665 583e 34c8 df3d 7734 193e
00000300: 1af0 14be 6a82 3dbe 8890 c0bc b3ab 2a3e
00000310: 101e 933d 5f94 853d a550 60be d175 083e
00000320: 25e2 83bd b6da 8b3d 01f4 da3c dec0 17bd
00000330: ea1d 5dbd b3ed 7bbd 014a c93c 83f2 6dbc
00000340: 6ed1 a13c 9825 173c 826e 943b 93e3 f63c
00000350: 981b 413c a78a 27bd d0f4 d53c 893d 883d
00000360: 3411 8b3c 18f2 b0bd 96d8 8d3d 6e46 893c
00000370: b8bc c83c 3709 363d 22ef 47bd 7d16 84bd
00000380: 2dbf 8abd c98b c6bc 1b81 f93b 1065 3ebd
00000390: 6fa5 20bc d55b 123d 1ff0 a5bc 3337 59bd
000003a0: 6136 c5bc 6064 4e3c 2180 81bd ae51 16bd
000003b0: 5a16 ba3c 2313 85bd 5d5b 913c fafd 53bd
000003c0: efd7 21ba 574c 23bd a6e8 76bd 2ea2 ac3c
000003d0: 41d5 c3bc 332e 993c 2d06 9d3c 909c 3bbd
000003e0: 16c8 173c 55a9 a5bc 492f cbbc 42f0 2bbd
000003f0: b0c2 b1bd f67d 2e3c 4965 643d 1f47 1fbd
0.15758213 0.21425168 -0.37748456 0.18560718 0.02943917 0.076573126 0.29984033 0.12778239
0.032887302 0.2118035 0.025219308 0.03096059 0.44900364 0.03702607 0.0055730864 -0.00576462
-0.15599617 0.016554942 0.073049 0.08275892 -0.03921933 -0.15588923 0.44312724 0.3132591
0.08103788 0.021813031 0.24751343 0.04788767 0.06136964 0.0043828594 0.05206747 0.0005374599
0.038274508 0.03007468 0.41656932 -0.09982629 0.5251122 -0.14228985 -0.013050357 0.07706236
0.047792956 0.12069683 0.18260251 -0.14921463 0.055812262 0.1757539 0.1202685 -0.25812268
0.024929728 -0.13933592 0.014230734 0.13957953 -0.097409 0.18131275 -0.2313824 0.09863725
0.052657045 -0.005212237 0.3530243 0.27720776 -0.1679664 -0.14784119 0.129112 0.030360349
0.12664339 0.011543618 0.15765138 -0.29008815 -0.05555866 -0.26934534 -0.31224424 -0.0450063
-0.11684306 0.25509155 -0.1316262 -0.03271739 -0.05273861 0.044813022 0.03060901 0.03543979
0.09079849 0.10804043 0.020761622 0.27141082 -0.5129044 0.030581122 -0.033931877 0.0061431495
-0.5423008 -0.6930936 0.24674344 0.0860648 -0.08544322 0.27124056 0.14269795 -0.33846503
0.3112492 -0.08455722 -0.0031108297 -0.91072226 0.039460175 0.2251555 0.057178397 0.2572491
0.0840022 -0.48067364 -0.59278226 -0.22205245 0.014549616 -0.033104125 0.020473255 -0.063277826
-0.32554114 0.15660998 0.15821443 0.040554665 -0.40111613 -0.0013359089 -0.25547564 0.007065267
0.25058708 -0.2342765 -0.24114478 -0.0056408066 -0.29585856 0.0667011 0.33322018 0.4840078
0.19053677 0.04163496 0.33928925 0.1493168 -0.24375406 -0.0059016575 -0.12900692 0.12629738
0.39084896 0.15676619 -0.02711629 0.1806533 0.044696603 -0.019206394 0.11401647 0.17874143
0.11728352 0.16048118 -0.10562055 0.24520558 -0.25986755 0.105978295 0.19020815 0.018287867
0.1232881 -0.37817174 -0.113580436 0.11273163 0.42954543 0.11611262 -0.28663695 0.21890274
0.29240495 0.21624564 -0.12654184 -0.1514474 0.33368072 0.0841857 -0.04814943 -0.058906168
-0.57628363 -0.33959523 0.25745776 0.03437077 -0.71284366 0.14418663 0.18057704 -0.022693502
0.22198331 0.34623265 0.044311002 -0.008265082 -0.03599491 -0.05705026 0.28330067 -0.45312282
-0.15114361 -0.38061547 -0.01359084 0.24976148 0.033207 0.21132526 0.109268576 0.1496142
-0.14544716 -0.1850678 -0.023506418 0.1666706 0.07183468 0.0652244 -0.21905763 0.13326193
-0.06439618 0.06828825 0.026727678 -0.037049167 -0.053983606 -0.061505985 0.02457142 -0.014523151
0.019753184 0.009225272 0.004529775 0.030137813 0.011786364 -0.040903714 0.026117712 0.06652362
0.016975977 -0.08639926 0.06926076 0.016757216 0.02450405 0.04444238 -0.04881204 -0.06449602
-0.06774745 -0.024236577 0.0076142675 -0.0464831 -0.009805067 0.03573211 -0.0202561 -0.053031158
-0.024073781 0.012597173 -0.06323267 -0.03669899 0.022715736 -0.06497791 0.01774376 -0.051755883
-0.0006173839 -0.039867725 -0.060280465 0.021073427 -0.023905398 0.018698787 0.019167984 -0.045803607
0.009264013 -0.020222345 -0.02480282 -0.041977175 -0.08679712 0.010650149 0.055760656 -0.038886186

bias f4 [200]
00000000: 8e2f 33bd 140f 76bd 35f2 8bbd c9b4 a3bc
00000010: 4082 bcbd b401 0ebc 3983 43bd 8712 a3bd
00000020: 7310 efbb 0e02 10bc 98ab 803d 9d51 03bd
00000030: 01e9 c7bd f115 d33c 19b4 cbbd bc95 74bd
00000040: 25e9 f43d 9e22 a83c 858b 203e c2d5 8fbd
00000050: 5a30 623c e2f4 51bd 5c88 7dbd 38bf 39bd
00000060: d7af 21bd 177b 95bd 0725 22bd a621 213d
00000070: 766d 9ebd e528 8cbd 6703 a5bb 1bc6 e1bc
00000080: 2a15 53bd cd75 36bd e26b 0bbe 4ab4 d2bd
00000090: c674 1cbb d27c d2bd 968f 9dbd 5631 01be
000000a0: ca16 2dbd 40e7 c03c e77b a03e 084b 383d
000000b0: 8e97 493e ecd2 8c3e fbdb e1bb b41a 313d
000000c0: 294d 523d c95f ac3e c33b 67bd dfe3 a53e
000000d0: 4adb 58bd 3de8 3d3e b3a2 60bd 1e95 013d
000000e0: 0f48 e13b 4cbd 8f3c 675d afbd 720a 32bd
000000f0: 2ca7 15bd f9b7 4ebc a09e 883e c3c4 7e3b
00000100: d055 33bd e5b7 953e da88 a5bd 96aa 0c3e
00000110: 3dd4 8dbd 724d 50bd 86a1 113e 0477 f3bc
00000120: dc21 73bd 5a3a d8bc 868b 13bd de44 9bbd
00000130: aab0 b73e 4220 a03d 0c8c c13d abef ebbd
00000140: ec97 483d d554 453e 1fef a1bb 5aab dabd
00000150: 503a 8cbd cccc 5cbd 5251 d3bd 95fb 0bbd
00000160: 5e14 dabc 434b 4a3e 5852 3bbd adaa 9c3c
00000170: 9e2a af3b da86 5ebd eb3d 80bd 4fe2 98bd
00000180: 9273 5fbd 3663 2b3e 6f87 9ebd 0cb4 61bd
00000190: 59de c5bd db37 85bd 3969 3dbd 7d3b 813e
000001a0: e458 0abe 5e07 9fbd 73bf a8bd 7436 443c
000001b0: f370 e1bc 6077 a13e e56c aabd 2d22 963e
000001c0: 2189 503e 66c3 29be d015 23bc f41f 03be
000001d0: 32e4 f93d 402b bebd 8f79 2cbd 3b89 2c3d
000001e0: 1776 843e f931 5c3c 851c 193b 15a9 4f3d
000001f0: 6e31 92bd 290f 0a3e 9419 febd f54e 88bd
00000200: 2e3a a73e ed64 af3e b242 ecbd dc3e e8bc
00000210: dc59 72bd cd77 8cbc 4de2 3e3e 1913 703e
00000220: d20b 7d3d 9d8b 6539 c532 8ebd be48 b73e
00000230: c3dc 063e 84bc 5bbd 67be 23bd ec3c f5bc
00000240: deee 423d c4f1 033c ac20 b0bd 38ce b4bd
00000250: ee46 1dbc 00c5 08be 3a2f 51bd 0451 71bd
00000260: e59e 89bd 4601 10bd 99f7 2ebd ff05 883e
00000270: 86f6 16bd 631e 493d b50b 123c e7ad 893e
00000280: 05ae ef3d bfe2 aebd 3bcd 01bd e780 a7bc
00000290: f3ec 133d dcab 0bbd 2cc7 4ebd 84e4 16be
000002a0: ea5c 9cbd ebbd ecbc e089 35bd 9303 61bd
000002b0: 5baa 6fbd 5fd7 a6bd 711e 7f3e 848b 85bb
000002c0: 2882 8e3e c444 f2bd 3974 003e 4825 bcbd
000002d0: 5998 073e 4524 86bd 2a1c 56bd d223 a63e
000002e0: 5677 5bbd bdc4 81bd 2010 423b 4652 2a3b
000002f0: 7b26 e0ba ddef 8bbc a8a8 8a3e 1abd a43e
00000300: 9a32 52bd 1741 a8bd dd66 0dbd 8622 9b3e
00000310: aff8 a8bd 4e15 bb3b 9043 4e3c 8a09 693e
-0.043746524 -0.060072973 -0.06833307 -0.019983666 -0.09204531 -0.008667398 -0.047732566 -0.07962518
-0.007295662 -0.008789552 0.06282729 -0.032060254 -0.09761239 0.025767298 -0.0994646 -0.05971311
0.11958531 0.02052432 0.15678222 -0.07023193 0.013805473 -0.05125893 -0.06189762 -0.045348376
-0.039474335 -0.07298868 -0.039586093 0.03933873 -0.07735722 -0.068437375 -0.005035806 -0.027560284
-0.051533855 -0.044545937 -0.13615373 -0.10288294 -0.0023873313 -0.10277714 -0.076934025 -0.12616476
-0.04225806 0.023547769 0.3134453 0.04499343 0.1968672 0.2750467 -0.006892679 0.043238357
0.051343117 0.33666828 -0.056453478 0.32400414 -0.052943505 0.18545623 -0.054842662 0.03163635
0.006875045 0.017546318 -0.08562737 -0.043466993 -0.03653638 -0.012617105 0.2668352 0.0038874603
-0.04378301 0.29241863 -0.08082743 0.13736948 -0.06925247 -0.050855108 0.14221773 -0.029719837
-0.059358463 -0.026395012 -0.03602173 -0.07581495 0.3587697 0.07818653 0.0945054 -0.115203224
0.04897301 0.19270642 -0.0049418355 -0.10677214 -0.0684706 -0.053906247 -0.10318245 -0.034175474
-0.02662104 0.19755273 -0.045732826 0.019124353 0.0053456565 -0.054327823 -0.0626181 -0.0746504
-0.054553576 0.16737065 -0.07740676 -0.055103347 -0.0966155 -0.06504794 -0.046242926 0.25240698
-0.13510472 -0.07765077 -0.08239641 0.011975873 -0.027519679 0.31536388 -0.08321551 0.2932295
0.2036481 -0.16578445 -0.009953931 -0.12805158 0.12201728 -0.09285593 -0.042108115 0.04212306
0.25871345 0.013439649 0.0023362946 0.05069836 -0.07138334 0.13482346 -0.124072224 -0.06655685
0.32661575 0.34256688 -0.115361586 -0.028350286 -0.059167728 -0.01714697 0.18641014 0.23444785
0.06177885 0.00021891152 -0.06943277 0.35797685 0.13170151 -0.05364658 -0.039976504 -0.029936276
0.047591083 0.008053247 -0.08599982 -0.088283956 -0.0095994305 -0.133564 -0.05107043 -0.058915153
-0.0671976 -0.035157464 -0.042716596 0.26567075 -0.036856197 0.049101245 0.008913924 0.2689049
0.117031135 -0.08539342 -0.031689864 -0.020447208 0.036114644 -0.034099445 -0.050482914 -0.1473561
-0.076349095 -0.028899154 -0.04432094 -0.05493505 -0.058512073 -0.081465475 0.24913956 -0.0040754694
0.27833676 -0.11829522 0.12544335 -0.09186798 0.1324171 -0.065498866 -0.052272953 0.32449204
-0.053580604 -0.06336353 0.0029611662 0.002598898 -0.0017101312 -0.01708215 0.270818 0.32175523
-0.05131779 -0.0821554 -0.034521926 0.30299777 -0.08250558 0.005709327 0.01258935 0.22757545

weight f4 [1, 200]
00000000: cc5f 2dbe 7162 d9bc 8b1f f0bc b74e ef3d
00000010: 6b26 abbb 94e1 3bbf 4f31 b7bc 582d 3dbc
00000020: 78e0 c13b 9c3d 7e3c 3ace 25be 47b4 a0bc
00000030: f2b5 623d b127 cfbc d352 f2bc e1c3 d53b
00000040: 3b93 41be c182 57bc 4f5d be3b fc96 133c
00000050: a2c6 60bc 6577 1a3d 3405 8dbb 7535 9f3c
00000060: 0e78 263c 64e5 58bf a650 ae3c aa6b 68bc
00000070: c3d5 f73b e820 373c fff0 353c 597f d9bc
00000080: ddbb 9c3c 99c7 89bd 8395 24be 40d9 ba3b
00000090: b25a d3bc c229 6abc ba2c e03c 0151 93bf
000000a0: 635c 1f3b 63c0 e0bc b3a0 173e ba04 a63b
000000b0: d6d5 8b3e 20a9 303e 0c56 823b 4a0b 173e
000000c0: 718e dabd 566c a83d f9ef 4d3c 935d 2a3d
000000d0: 84d4 f2bc a33a 303c 150c 9cbc 5463 a13d
000000e0: 4295 00bf 8cd6 f73c d5c6 003c e47e 89be
000000f0: 92b6 3fbf 9eb3 ad3c 795a 253e 4572 92bb
00000100: 8f5d a03c b935 273d a122 8cbf 6cbb b13e
00000110: 3af4 deb8 2f84 b13b c8d1 a1bc 1e49 ac3c
00000120: 1708 a53c 49e3 c6bc 4839 c13c 0a89 6dbd
00000130: b322 163e 5644 6b3e 2fe6 a53e e9f1 c2bc
00000140: 54f5 d9bd 74af 163e 4dae 1ebe f4c4 05be
00000150: 6e49 21bf 7bf7 953e 013d 53bb a439 043d
00000160: 01ba 2fbe a149 8d3e d9ea c5bc aaea d7bc
00000170: e227 efbc 6102 56bc 66e0 153b da0a 2ebf
00000180: 0eb4 9cba 9a6c 7c3e adc8 313b f4a0 2bbf
00000190: 3dba 893c 8dde 8abf 9e6e c2be 1daa de3b
000001a0: 84eb 89bf fe26 ad3c dd96 40bf 721e 9abe
000001b0: 6ab4 5f3c f565 9c3d ad87 0abf 01d4 723d
000001c0: bb18 3e3e 8741 e43d 19b3 ecbd c615 28bf
000001d0: 298f 633e 2d51 143d fc62 8abc 49f9 903e
000001e0: c260 f33c 7474 08bc 50e0 b7bc bf82 e4bd
000001f0: ed5d 95bc 4693 1e3e b31b 86bf 1834 bf3c
00000200: 5701 973d a866 b93d 8cde c0be f6c2 2f3d
00000210: 57c9 bc3c 619e 553b db95 e83d 5ecb 1f3e
00000220: f9c4 09be cfe1 bd39 ace4 8a3c 0e39 8b3d
00000230: 05cb 243e bb22 aabb a5c9 053c b6a4 1abc
00000240: cfcf 14bf a7e9 a13c 0842 59be b4a4 39bf
00000250: 3f51 a73c 1a24 89bf 5133 58bd c1b2 cfbc
00000260: bc5a 82bc 3fa7 babd 4bb2 303b a901 243d
00000270: 77ec bf3c d43d 0abe 0db8 3ebd ca78 373d
00000280: 0bf8 28be 4c31 05bd 3464 dcbe 7a54 69bc
00000290: 9949 12be 904d bc3e 1f23 36bf c214 86be
000002a0: 7dc0 fbbe e19d 53bd 9362 ff3c 14cc fc3b
000002b0: 4ac1 edbb b202 6abc 0405 1c3e 5dae 0bbf
000002c0: ce60 0c3e 308b cd3c 15c1 5ebe 1ffc a33c
000002d0: 4647 933e 0e8d 963b be18 263e 13e5 a83d
000002e0: 3cd2 cc3c a03f b8bb 6090 4fbd a431 eabe
000002f0: 2451 973c a40f 723c 290c 293d 0eed 343e
00000300: 2d1c 88bc 30b0 4b3c da5e d43a 84c0 bb3d
00000310: 5f75 44bc fbe6 5ebe c125 41bc 5796 9e3c
-0.16931075 -0.026536198 -0.029311916 0.116849355 -0.0052230856 -0.7339108 -0.02236238 -0.011546455
0.0059166513 0.0155176185 -0.1619195 -0.019617213 0.055349298 -0.025287481 -0.02958051 0.0065235947
-0.1890382 -0.013153733 0.005809463 0.009008165 -0.013719233 0.03771152 -0.004303599 0.01943467
0.010160459 -0.8472502 0.02127869 -0.014185825 0.007563324 0.011177279 0.011104821 -0.026549982
0.019132549 -0.06727523 -0.16072659 0.0057021677 -0.025800083 -0.014292182 0.027365077 -1.1509095
0.0024316541 -0.027435487 0.14807396 0.0050664814 0.2731158 0.17252016 0.0039775427 0.147504
-0.106717 0.082237884 0.012569421 0.041593146 -0.029642351 0.010756168 -0.01904873 0.078802735
-0.5022775 0.030253671 0.007859905 -0.26854622 -0.74887955 0.021203812 0.16147794 -0.0044691884
0.019575862 0.04082272 -1.0948068 0.34713304 -0.00010631276 0.005417369 -0.019753352 0.021030959
0.02014546 -0.0242783 0.023586884 -0.05799202 0.14661674 0.22975287 0.3240218 -0.023796992
-0.10642496 0.14715368 -0.15496178 -0.13063413 -0.6300267 0.29290375 -0.0032232406 0.032281533
-0.17160799 0.27595237 -0.024159836 -0.026357014 -0.029193822 -0.013062091 0.0022869348 -0.6798531
-0.0011955516 0.24650803 0.0027127669 -0.6704247 0.016812438 -1.0849167 -0.3797502 0.0067951814
-1.0774999 0.021136757 -0.752302 -0.30101353 0.013653854 0.07636634 -0.54113275 0.059284214
0.18564121 0.11145311 -0.11557598 -0.65658224 0.2222258 0.036210228 -0.016892903 0.2831519
0.029709224 -0.008328546 -0.022445828 -0.1115775 -0.018233264 0.15485868 -1.0477203 0.02334027
0.073733024 0.09052783 -0.3766979 0.04291054 0.023045225 0.0032595622 0.11356708 0.15604922
-0.13454045 0.0003621713 0.016954742 0.06797992 0.16093071 -0.0051921285 0.008165752 -0.009438684
-0.5812959 0.019764734 -0.21216595 -0.7251694 0.020424483 -1.0714142 -0.052783314 -0.025353791
-0.015912406 -0.09113931 0.002696174 0.040040646 0.023428185 -0.13500148 -0.046562243 0.044792928
-0.16500871 -0.032517716 -0.430452 -0.014241332 -0.14285888 0.36777925 -0.7114734 -0.26187712
-0.49170294 -0.051664237 0.031174934 0.0077147577 -0.007255708 -0.014282869 0.15236288 -0.5456293
0.13708803 0.025090784 -0.21753342 0.020017682 0.28765315 0.0045944517 0.16220376 0.082468174
0.025002591 -0.005622819 -0.050674796 -0.45740998 0.018471308 0.014774237 0.041271362 0.17668554
-0.016614998 0.012432143 0.0016202584 0.09167579 -0.011990874 -0.217678 -0.011788786 0.019358797

weight f4 [200, 15]
00000000: cbe4 e5be 1caa 07be bc1e 0c3e d005 b8be
00000010: 0cdf 803d ce37 9fbe 57a1 323e e502 0abe
00000020: 5dae 183d 5eec afbd 7156 5b3d 4a40 5dbe
00000030: 8782 a1bd 76ca 9b3b 25a9 803d ca77 cbbd
00000040: c055 6dbe 6810 62bd 265a 58bd c566 d13d
00000050: 49e3 ddbd 2197 ea3d 8be3 973d 4b4e 693e
00000060: ce18 773d f5ea 263e 2530 683e b542 983c
00000070: ef43 60be 51fc a2be 22b3 693e bad4 5d3e
00000080: 72a2 2ebf aa74 c03d ce17 d9bd f638 3abe
00000090: a6e5 d93d 4070 8bbe e98a 57be 7c0e 48be
000000a0: 060c cf3d e091 cbbd 3345 97be 6315 3abd
000000b0: c620 423e d8e6 693f 3607 7fbe 6761 e33e
000000c0: 0b7b ebbc 2ec9 4dbe 752a 5fbf ea15 653d
000000d0: d178 0bbe 0bf5 82be 0049 4d3e ae88 e93d
000000e0: 042f b8be 250c b93e 8d7b c3be 3132 913e
000000f0: d782 353c 4d09 14be 292e 53be 87bc a8be
00000100: e2a3 d2bd 8549 05be 1c47 f2bd 10b3 4a3e
00000110: e91c 40be 1d26 84be fab8 52be 50de 483e
00000120: c587 04bc e3e0 febd 5a6d 5c3d 4c7b d53e
00000130: 97bb 92be f490 27be cafe 633e 6d7f 22be
00000140: d861 88bb 69b2 90be 28a2 50be fdc1 42be
00000150: 6654 3a3e a389 8d3d 9bb9 ac3d 323b 88bc
00000160: 29ef 603e 059d f23e 6ebf 403e c439 bdbc
00000170: 43cb 483e 54a8 193e 68ce 9f3e d635 43be
00000180: f714 49be 7a77 3e3e fb09 83bd e852 16be
00000190: 1a1a 05be 8023 de3b 851a 79bb 7d8c 8d3d
000001a0: 3bb3 7a3e 77ce 023e 0e13 5dbe b428 86be
000001b0: be5f 283e d6fb a43d 5eb8 69be da41 24bf
000001c0: bfe1 21bf 183f 75be 6051 d23b 1f7c 82bd
000001d0: 0ada 613e ec3c 6a3e 0a8b 303e 6546 883e
000001e0: e617 743d e2bd 09bf 0108 9bbd 6211 673e
000001f0: f884 81be 34b4 99bd 1977 bf3c c532 f03d
00000200: 5a6f 2bbe 7d63 5cbe 1e04 7d3e 07ed 843e
00000210: 11e7 bfbe 446e d83e 6983 67bd 4ace 9c3f
00000220: f69c 95be 514d fdbd aabd 21be acab b0bd
00000230: 3d27 c7bd e32e 95bf 681c 8abf 59f6 eebe
00000240: b830 883d 8c24 a13d 06c9 f3be 9631 05bf
00000250: 6db7 8fbe a37e f5bd 22e9 b23e 470f 3dbd
00000260: 0f4d ebbd 3f17 98bc 6b02 673c 72ea 073d
00000270: ffc4 053e 0164 aa3e 6c8b b3be 5375 63be
00000280: 406d 04bd c739 94be 232a 6a3e 2ae0 433f
00000290: cfea 3b3e a8d2 f13e 95e8 8abe d652 f7be
000002a0: 05af 33be 8f5c 2dbe 2eef 863e 5e38 0f3e
000002b0: 12bb 41be 3618 07be f135 c1be 15a1 8c3d
000002c0: 5246 6ebd 51c6 9b3e 34d2 04be c882 ca3e
000002d0: ebc3 a2bf f04f 603d 8f63 9abe 8f2a c4be
000002e0: e546 b2be d22c e0be 2834 8bbe 9e0b 94bd
000002f0: d3ef b4be 4e1c f3be d048 a2bf 6eb4 813e
00000300: a4a8 1b3e 6d10 23bf 9320 bc3d f175 1fbe
00000310: 0815 893a 2e01 b03e 658f ec3d 48fe 3c3e
00000320: a1b9 21bf fb42 f4be 1bba 9fbe 3774 9fbd
00000330: a3aa 653d 11fe 5a3e 575a a0be 76ea 5d3e
00000340: a400 b0be ba1d e63d f7ea 7bbf 3041 4e3d
00000350: ad92 963e 632c fcbd 828f f7bc 7474 473e
00000360: c20d e7bc 5d66 fe3d 2e8a d8bf 1292 69bf
00000370: 5ab1 333d 6bf1 98be 8ce1 273e 762a cabe
00000380: a978 b03e 3196 0ebf 355e f23e cfc6 3b3e
00000390: c679 2dbe e748 e4bd f863 5dbd c146 92bd
000003a0: 3e27 a43e a511 9dbe d9cf 1f3e 7599 9abe
000003b0: a460 9d3d b366 ea3c bc7b 033e caf1 9a3e
000003c0: 47d9 b73e 4164 5abe db4b 6cbe 8b4d 00be
000003d0: 955c 993e 609d b8bd 8603 99be 7bd7 68be
000003e0: 12b8 5ebe 616d c0be 15d3 183e 2ecd a93d
000003f0: 9d05 983c 7492 83be ee8a 9a3e f8c6 bfbe
-0.44901118 -0.13248485 0.13683599 -0.35941935 0.06292543 -0.31097263 0.17444359 -0.13477667
0.03727566 -0.08590005 0.053549234 -0.21606556 -0.07886224 0.00475436 0.06282262 -0.09934957
-0.23177242 -0.055191427 -0.052820347 0.1022468 -0.10834367 0.11454607 0.07416447 0.22783773
0.06032639 0.16300566 0.22674616 0.018586496 -0.21900915 -0.31833127 0.2282224 0.2166318
-0.6821662 0.09397252 -0.106002435 -0.18185791 0.10639505 -0.27234077 -0.21049084 -0.19536775
0.10109715 -0.09939933 -0.29544982 -0.045430552 0.18957815 0.91367865 -0.24905095 0.4441025
-0.028745195 -0.20096275 -0.8717416 0.055929102 -0.13620307 -0.25577578 0.20047379 0.11403023
-0.3597337 0.36142078 -0.381802 0.28358606 0.011078558 -0.14456673 -0.20623077 -0.32956335
-0.102851644 -0.13016327 -0.11829969 0.1979487 -0.18761028 -0.25810328 -0.20578375 0.19616055
-0.008089011 -0.124452375 0.053815223 0.4169563 -0.28658745 -0.16363889 0.22265163 -0.15868922
-0.0041620545 -0.28261116 -0.20374358 -0.19019313 0.18196258 0.06911018 0.08433839 -0.016629789
0.21966232 0.4738542 0.18823025 -0.023098834 0.19608788 0.15005618 0.31212163 -0.19063506
-0.19636904 0.18600264 -0.06398388 -0.14680064 -0.12998238 0.0067791343 -0.0038010192 0.06911562
0.24482433 0.12774073 -0.215893 -0.2620293 0.16442773 0.080558464 -0.22824237 -0.6416298
-0.63235086 -0.2394985 0.006418392 -0.063713305 0.22055832 0.22874802 0.17240539 0.26616207
0.059593104 -0.53805363 -0.07569886 0.22565225 -0.2529676 -0.07505074 0.02337222 0.117284335
-0.16741696 -0.21522327 0.24708602 0.25962088 -0.37480977 0.42271626 -0.056521807 1.2250454
-0.29221314 -0.123682626 -0.15795007 -0.08626494 -0.09724281 -1.1654934 -1.0789919 -0.46672323
0.06649917 0.07868299 -0.47614306 -0.5202879 -0.2806963 -0.11987045 0.3494349 -0.046157148
-0.11489307 -0.018565772 0.014099698 0.03318257 0.1306343 0.33279422 -0.35067308 -0.22212724
-0.03233075 -0.2895033 0.22867636 0.7651392 0.18351291 0.4723103 -0.2713057 -0.48305386
-0.17547233 -0.1692984 0.26354355 0.13986346 -0.18919018 -0.1319283 -0.37736467 0.068666615
-0.05817253 0.3042474 -0.12970811 0.39552903 -1.271604 0.054763734 -0.30154082 -0.3831372
-0.34819713 -0.43784195 -0.2718823 -0.07228778 -0.3533922 -0.47482532 -1.2678471 0.2533297
0.1520105 -0.6369694 0.091859005 -0.15572335 0.0010458538 0.343759 0.11550788 0.18456376
-0.6317387 -0.47707352 -0.31196675 -0.07785838 0.056070935 0.21385981 -0.31318924 0.21671471
-0.3437549 0.11236139 -0.984054 0.050355136 0.2940878 -0.123131536 -0.030219797 0.19478017
-0.028204802 0.12421868 -1.6917169 -0.9123851 0.043870308 -0.29871687 0.16394633 -0.3948552
0.34467056 -0.55697924 0.473375 0.18337558 -0.16940984 -0.111467175 -0.054050416 -0.071424015
0.3206119 -0.30677524 0.15606631 -0.30195203 0.07684448 0.028613424 0.1284017 0.30262595
0.35907957 -0.21327306 -0.23075812 -0.1252958 0.29953447 -0.09014392 -0.298855 -0.2273845
-0.21749905 -0.3758345 0.14924271 0.08291088 0.018557364 -0.25697672 0.3018412 -0.3745649

bias f4 [200]
00000000: fbd1 6bbd cef5 b9bc be4f b33e fbdd 723b
00000010: 5c35 76be 95b1 953e 139e 8d3d 3245 943e
00000020: ff0d bfbd d50a 883e dc10 56be 1590 143e
00000030: 0acf 22bd 339e 723e 8dbc 973e 7bbc 813e
00000040: 4e29 97be 0a92 dfbd 11b4 36bd 7e7f ffbc
00000050: 4910 7dbe 905e bdbd 8100 74bd 4640 363d
00000060: 0511 5dbe fdd2 8fbd f75b 5ebc 4c8c a23e
00000070: 199b f0bd d1ab b8bd d3b1 343e 7291 b23d
00000080: 8df9 a6be 55ef 213e 257f 643d e3bc 2e3d
00000090: 9d1d 983e 87e8 413e 55cd 81be 0946 bebe
000000a0: 3104 79be 06dd 2d3e 151b c2bd c4b4 9e3d
000000b0: 009b 3bbe ffd8 933e d9f8 cbbe 4696 55be
000000c0: 56cc 96be 65fa 80be 4545 873b 85d5 13be
000000d0: a0c3 1bbe afeb 27bd 6005 a9bd 1539 88be
000000e0: 8075 c5ba 2f50 a6b9 d972 723a 1362 81bb
000000f0: 6813 02be 2b76 80be 0115 d9bd 8633 e03d
00000100: a368 c5bd b135 c6bd 44bc 9f3e ddc2 86be
00000110: ae37 853e 13f0 bbbd 6ce6 713e 14b8 6cbd
00000120: 95f5 123e 7cce 583d 4677 37be d626 f33d
00000130: 1225 68be 6b9e 6cbe 5ec1 19be 043f 39be
00000140: 108c a13e e6b5 3f3e c302 e4bc 5f8f 8b3e
00000150: b085 883d cf5d ddbc c29e 80be f794 a4be
00000160: f68e 603e 8085 d73c d8c0 89bd 0da2 86be
00000170: 9b3b 67be de83 b13d 132b 213e 00e1 25bc
00000180: 4748 ed3e 3073 6bbe 4da6 7fbe 6890 84bc
00000190: 2157 bdbd 258c 89be c02f 6abe 504a 303d
000001a0: ab22 d3bd f2ea adbd 2af0 df3e 4dab 88bd
000001b0: 3b41 67be 70dc 7f3c 6ae0 aabe 5ed4 1abe
000001c0: 399e 37be 5861 94be dece 1dbe e652 59bd
000001d0: 221f 91be a0ed b73d 9a61 5bbe 2cd1 c33e
000001e0: d3eb 28be 7146 1d3e 0cb3 b2be 95c9 163d
000001f0: 9490 93be b29a 59be aea0 63bd adb6 64bd
00000200: 51cf 073e 3fd9 44be 0e98 e63c 3f95 013e
00000210: d53e e8be 865d 1e3c 5d73 0ebe 4cbf 1a3e
00000220: 29ea a0be 6aff 123e 1310 febd 3091 493e
00000230: 7bef dbbd d74c 7dbe 06bd 023e 2824 f63c
00000240: c33f 483e e078 2e3e 210c 0e3e 1554 eebd
00000250: 9805 8b3e 82ad 84bd f026 b3be 5838 a23e
00000260: 8188 1dbe b3b2 553d 35a5 87bd ceb9 413d
00000270: 5772 9f3e 7a8d 40be f169 6abb d8df 963e
00000280: 87b4 243e e55a 8cbe 9ebd 743c 2119 cf3d
00000290: df7c 333c c93f 42be 7723 a2be 9958 69be
000002a0: f4bb fabd b3b9 ad3d 7306 8ebe 6498 91be
000002b0: ecc5 9c3e 9d85 5f3d 0103 f1be b10c 3d3e
000002c0: ffae 24bd 6e60 1fbe 158b 553e 8763 b23e
000002d0: 277f 35be 4014 6b3e 8aa3 5abe 0ada 8c3e
000002e0: b909 ca3e 2035 713d a697 8cbe 7869 90bd
000002f0: e1dd 40bd f3a1 573d 9a51 07bd 9081 7a3d
00000300: 2d4b f0bd 10ea c3be 0b97 19be e7a9 c63d
00000310: fa22 1fbe 068b c23e dcae 0abd 27e8 c4bd
-0.0575733 -0.022700217 0.35021776 0.003705858 -0.24043792 0.29237047 0.06914916 0.28959042
-0.093288414 0.26570764 -0.20904869 0.14508088 -0.03974823 0.2369316 0.2963604 0.25339112
-0.295237 -0.109165266 -0.04460532 -0.031188723 -0.24713244 -0.09246552 -0.059570793 0.04449489
-0.21588524 -0.07022665 -0.013571731 0.31747663 -0.117483325 -0.090171464 0.1764596 0.08719148
-0.32612267 0.15813954 0.055785317 0.042660605 0.29710093 0.18936358 -0.25351968 -0.37162808
-0.24318005 0.16978845 -0.09477822 0.07749322 -0.18320847 0.28876492 -0.39838293 -0.20858106
-0.2945277 -0.25191036 0.0041281306 -0.1443692 -0.15211344 -0.04099625 -0.08252978 -0.2660605
-0.0015064925 -0.0003172173 0.0009248681 -0.003948459 -0.12702715 -0.25090155 -0.10599709 0.10947327
-0.096390985 -0.096782096 0.31198323 -0.26320544 0.26019043 -0.0917665 0.23623055 -0.057792738
0.14351495 0.052931294 -0.17916593 0.11872642 -0.22670391 -0.23107307 -0.1501517 -0.18090445
0.31552172 0.18721732 -0.027833348 0.2725782 0.06666124 -0.02702227 -0.25121123 -0.321449
0.21929535 0.026308775 -0.06726235 -0.2629551 -0.22581331 0.0866773 0.15739088 -0.010124445
0.46344206 -0.2299316 -0.24965782 -0.01618214 -0.09245134 -0.26864734 -0.22869778 0.04303962
-0.10309347 -0.08492078 0.43737918 -0.06673298 -0.22583477 0.015616521 -0.3337434 -0.15120074
-0.17931451 -0.28980517 -0.15410945 -0.053057574 -0.28344065 0.0898087 -0.21423951 0.38245523
-0.1649621 0.15358903 -0.34902227 0.036813337 -0.28821242 -0.21250418 -0.055573158 -0.055838276
0.13262679 -0.19223498 0.028148677 0.12654589 -0.45360437 0.009665852 -0.13911195 0.15112036
-0.3142865 0.14355245 -0.1240541 0.19684291 -0.10739037 -0.24736343 0.12767419 0.030046538
0.19555573 0.17038298 0.13871814 -0.11637131 0.27152705 -0.064784065 -0.34990644 0.31683612
-0.15384103 0.052172374 -0.066233076 0.047296338 0.31141922 -0.18803969 -0.0035768712 0.29467654
0.1608449 -0.27413097 0.014937786 0.10112215 0.010955065 -0.18969645 -0.31667683 -0.22787704
-0.122428805 0.08482685 -0.27739295 -0.28436577 0.30619752 0.054570783 -0.47072604 0.18461873
-0.04020595 -0.15564129 0.20853837 0.34841558 -0.17724286 0.22956944 -0.21351448 0.275101
0.39460543 0.058888555 -0.2745945 -0.070513666 -0.0470866 0.05264468 -0.033036806 0.061158717
-0.11733089 -0.38264513 -0.14999025 0.09700375 -0.15540686 0.3799669 -0.033858165 -0.09614592

weight f4 [200, 200]
00000000: 6b40 6abd e76c a2bd aefa 97bd b8d9 bfbd
00000010: 02eb e83c cea8 a13c 03e5 69bd e223 dfbd
00000020: c8ce 3fbd e582 163e e2e8 53be 0bbe e0bd
00000030: 41e8 dd3b adb7 85bd 81c9 46bd 200f 3ebe
00000040: cad7 cf3c d3b1 f73d 2cf8 8d3a 57eb 2ebb
00000050: 8996 d83d d171 583b 374c afba 7732 acbc
00000060: 45a9 0dbd a23a d6bd 1da3 1dbd 0600 243b
00000070: 88a3 41bd bf7d 2abe 92c7 d1bc 2cb2 efbd
00000080: 34da 8f3d 0112 563b 2f4b 2ebe 9c9f 763c
00000090: 0dad 80bd ccfa f2bd 64b8 8b3d 386f bebc
000000a0: d867 333d 0f8a 303d 938c 783c aa61 d9bc
000000b0: 5e2e 833d d7d8 2fbd 3578 173e 7d23 86bd
000000c0: b27a a7bc 4f27 81bd 1285 dabd 45ea 173b
000000d0: c588 08be 850a 03bd 52df c6bc 6817 7a3d
000000e0: 7ee3 18bd 9e14 a23c b6e9 1bbd 1b3d fc3d
000000f0: bdfc 00be 6155 533d 247c 7bbc 66b5 98bc
00000100: a0ab 3fbd f8b6 31be 0d07 0bbe e39a 80bc
00000110: 43ea 7e3b 8a3b 633d 0132 d93d 286b cd3e
00000120: 3d8e 88bc 1f8a b63d 66d5 1bbc 61d1 40bd
00000130: cb18 6ebd 9f3b 28bd 44da 093d ac10 73bd
00000140: 5e1f 1bbd f7bf 23bd b1d1 d8bc a36b ebbc
00000150: 504b bbbd 0d8b 8ebd afa2 f23c f82e b7ba
00000160: 7157 5f3e 3b85 e4bc 4aa8 543d 08f7 61bd
00000170: 0e2f 95bd 117f db3e d5c3 8dbd 6d42 8bbd
00000180: 460b 1fbe 85b2 00be 0ae7 17bd 4507 8fbc
00000190: df13 383c 5e4f 13bd 069f 143d 1f22 bf3d
000001a0: 0ca4 f5bd 18ce b6bc 5608 263c a332 e8bc
000001b0: ea72 8a3d 1bc9 6dbd a951 4bbd dd21 8cbd
000001c0: f07f fe3c bb5e 00bd 1d39 05be 8f14 28be
000001d0: fd7b 0abe 1539 88bd 7e01 94bd 2727 b73c
000001e0: e78e adbb 9462 7fbd fbde 6dbd 8dd7 943b
000001f0: ec73 893c 1117 4bbd 6afe 5bbd e5a4 88bd
00000200: 6f00 2fbe 7d79 193b f605 293e 3c38 75bd
00000210: f7f0 b83c a0e8 73bd bf0f b4bc ec17 f7bc
00000220: 8b7c 6dbd e8d4 b2bd 6b31 e0bc 9f10 abbd
00000230: e234 d8bd f699 a13d 3898 33bd eec7 2d3c
00000240: 05f4 8cbd c2b6 5fbd 9cb1 73bd 3fc5 353d
00000250: f25c dcbd 7f15 323b 9003 483d 5b2a 7c3d
00000260: d1a6 cbbb 66ee 1bbe 964a 9cbd abe8 68bd
00000270: 5cb5 023e 652d 05be 0b5c e8bc 8ee3 92bd
00000280: 4272 603d 3c51 8ebd 8105 d63d d8cd 35bd
00000290: 24e0 7bbd 5f79 49bd 590c cfbd 5eb9 183d
000002a0: f27e 753d f56c 9cbc 6676 af3d 35c7 0ebc
000002b0: d929 48bd e580 8ebd 81cf 453d 4f61 afbd
000002c0: b9a1 d93c edc2 7e3d a090 b7bd c505 09bd
000002d0: b11e 44bd 879c a5bd 4a3e 6ebc dd3e 83be
000002e0: a3ff 63bd 36a3 94bd 3ffa a8be 962e a93b
000002f0: 3686 acbc 0185 47bd 8652 10bd 6302 efbd
00000300: 81db c3bc 8ecb 96bd 9b8f 68bd a941 d63b
00000310: 8360 64bd a925 cabd 061d 9bbd 9521 e03c
00000320: 5a9a babc f5c6 8dbd ee20 1b3d 15e1 05bd
00000330: f24c 67bd 5419 29bc a485 083c 9005 f4bc
00000340: 77a0 a2bd 0a96 e43b c337 27bd 4680 903d
00000350: 0ce3 e93b af10 25bc 4c78 243d 9fc0 afbd
00000360: b710 2b3d fe27 50bd 8f67 87bc ac4b 7ebc
00000370: 8e67 2f3c cd91 1f3d fd62 89bd 9b20 8ebc
00000380: 3aad d53c 4fc8 a2bd ed14 1d3d e54d 8abd
00000390: 491d 6b3c 0d4d 903c af8c 213d 5e0d 9ebc
000003a0: 7611 a53c 10af babd 2474 dc3c e0f8 48bc
000003b0: b119 87bc 46ba 1fbd dce2 1ebd d059 d73c
000003c0: f20c 74bd 2827 a1ba 66bd 1fbd 4268 08bd
000003d0: 903c 39bd 3de1 0fbd 3fb1 eb3c b718 29bd
000003e0: 9a6b 3b3d c268 86bd b429 893b 7ddd 14bc
000003f0: 59b9 c7bc 8e9f 15bd a871 3cb9 9507 253c
-0.05719034 -0.07930928 -0.0742086 -0.093676984 0.028432373 0.019733813 -0.05710317 -0.10895516
-0.04682806 0.1469837 -0.20694306 -0.10973748 0.0067720716 -0.06529174 -0.048532013 -0.18560457
0.02537145 0.12094464 0.0010831407 -0.0026690566 0.10575587 0.0033026824 -0.0013374154 -0.021020157
-0.034585256 -0.10460402 -0.038485635 0.0025024428 -0.047275096 -0.16649531 -0.025607858 -0.117039055
0.07024041 0.003266454 -0.17020868 0.015052702 -0.06283007 -0.11864242 0.06822279 -0.023246393
0.043800205 0.043100413 0.015170234 -0.026535828 0.06405328 -0.042931404 0.14791949 -0.065497376
-0.020444248 -0.06306326 -0.106699124 0.0023180407 -0.13333423 -0.031992454 -0.02427641 0.06105748
-0.03732633 0.019785222 -0.03806468 0.123163424 -0.12596412 0.051595096 -0.015349422 -0.018641185
-0.046794534 -0.17354953 -0.13576908 -0.015698856 0.0038896955 0.055476703 0.106052406 0.40120816
-0.016669387 0.08913063 -0.009511327 -0.04707468 -0.058129113 -0.041072484 0.03365542 -0.05934207
-0.03787171 -0.039977994 -0.026467176 -0.028737849 -0.09145224 -0.069601156 0.02961859 -0.001397579
0.218107 -0.02789556 0.051918305 -0.055167228 -0.072843656 0.4287038 -0.069221176 -0.06799779
-0.15531644 -0.125681 -0.03708557 -0.017459521 0.011235206 -0.035964362 0.03628447 0.0933268
-0.1199418 -0.02231507 0.010133823 -0.028344458 0.06760199 -0.058053117 -0.049638424 -0.068423964
0.031066865 -0.031340342 -0.13010068 -0.16414092 -0.1352386 -0.066515125 -0.07226847 0.022357536
-0.0052965763 -0.06234987 -0.05807398 0.004542297 0.016778909 -0.049582545 -0.053709425 -0.06672076
-0.17090009 0.002341836 0.1650618 -0.059868082 0.022575838 -0.05954802 -0.021980165 -0.030162774
-0.0579801 -0.08732015 -0.027367314 -0.083527796 -0.105569616 0.07890694 -0.04384634 0.010606749
-0.068824805 -0.05461765 -0.059495553 0.04437756 -0.107599154 0.0027173457 0.048831522 0.06156383
-0.0062149544 -0.1522766 -0.07631414 -0.056862514 0.12764496 -0.13005598 -0.028364202 -0.07172309
0.054796465 -0.06949088 0.104502685 -0.04438576 -0.061493054 -0.049188014 -0.10109777 0.037286155
0.059935518 -0.019094924 0.085675046 -0.008714487 -0.048868034 -0.069581784 0.048293594 -0.08563482
0.026566373 0.062197614 -0.08963132 -0.033452768 -0.047880832 -0.08086496 -0.014541218 -0.25633898
-0.055663716 -0.072576925 -0.33003423 0.005163024 -0.02106009 -0.048710827 -0.03523495 -0.11670377
-0.023908379 -0.07363044 -0.056777578 0.006538589 -0.055756103 -0.09870464 -0.07573895 0.027359763
-0.022778679 -0.06922714 0.0378732 -0.032685358 -0.056469865 -0.01032098 0.008332644 -0.029787809
-0.079407625 0.006975894 -0.040824663 0.07055716 0.007137662 -0.010074778 0.040153787 -0.085816614
0.041763987 -0.05081939 -0.016528873 -0.015520971 0.010705842 0.038957406 -0.06708334 -0.017349532
0.026083577 -0.07948362 0.038350035 -0.067531385 0.014350244 0.017614866 0.039440807 -0.019293483
0.020149928 -0.09115422 0.026910849 -0.012266368 -0.016491743 -0.038996004 -0.03879057 0.026287943
-0.059582658 -0.0012294995 -0.038998984 -0.033302553 -0.045223773 -0.035126913 0.028771041 -0.041283336
0.045756914 -0.0656295 0.0041858796 -0.00908601 -0.024380373 -0.036529116 -0.00017971417 0.0100726085

bias f4 [200]
00000000: 0c6b f2bd 5825 b6bd 9529 273d 7c5a fcbd
00000010: 4383 89be 8f1b 11be e6ae b23e 2299 d9bb
00000020: fd95 8ebd 7877 6ebd fbd0 15be 135e edbc
00000030: c304 b1bd d93a c1bd 01f6 49bd b7f1 a2bd
00000040: b827 a93d 8bc1 dd3d 7f7e adbd 17d9 7a3e
00000050: 6f0f a0bd 1df0 83bd f23a a1bd 0fa5 abbc
00000060: dd14 0abd 4440 f9bb fd71 73bd bac0 d8bc
00000070: 7a51 633e 99b1 eb3c ee58 1abe 3386 173e
00000080: 1f60 24bd 7a3c d4bd 78a0 bbbd a22f 813e
00000090: 25e4 33bd 3aa0 53bc f515 05be 6dd8 8bbd
000000a0: 407f 30bc 543e 7c3e 6a5e 01be 5a8d 5fbd
000000b0: 6740 a3bd 8c32 f3bc 0b23 fe3b b592 04be
000000c0: 2b1f fb3b d7d8 4b3e 60f5 babd c758 a9bd
000000d0: 5090 15be 1bca e33c 74d6 01be 8719 a6bd
000000e0: 87a7 db3c 0e0b aabd 234a e2bd 3031 a33e
000000f0: 256e 8ebc 8873 30bd 7c92 023e 5ded 81bd
00000100: 6905 c23c ef03 1bbe 5007 bebd 6faf 6c3d
00000110: b9de ef3d e8eb 7e3d 6851 1bbd 774a c83e
00000120: 819c 41bd c0c8 c339 28aa b6bd 8344 963d
00000130: d2e0 d2bd 4613 263c 59b5 bb3e 3a51 cb3d
00000140: 6598 4bbd 02b4 963e 0d70 06bd bd35 9b3d
00000150: b8eb c73d bf47 173d 2a83 733e 9aea ddbd
00000160: 0bb2 62bd 6879 993e a817 d8bd ba3b ea3b
00000170: 5a20 02bc 7139 cbbd 5833 a63e 1f88 2ebd
00000180: 248c 763e 5e0a 92bd 76f0 9dba 29db 853e
00000190: d11b 423e 3f7c a4bb bbc9 49be 40ca b0bd
000001a0: 5553 8dbd 0a14 5bbd 3708 8d3d 8565 a5bc
000001b0: ee38 973e 6169 a4bd 3b0a 5e3e e0a9 b8bd
000001c0: 4b63 123e 535b 62bd a98d f63c f6db 96bd
000001d0: 4f40 8d3d ceb4 9fbd 196b 56bd 220b 26be
000001e0: 9769 253e 945a af3e 5370 573e d837 4e3c
000001f0: 3d94 87bd c46a 9b3e 49cf c1bd 6616 78bd
00000200: 506b bebd 5b3f 76bd 9167 61be b4d8 813e
00000210: 8984 8a3d 3f9e 9f3e 7982 c0bd aaf7 d9bd
00000220: 7e98 98bd 0f99 adbc b6e6 733b 9e6e 93bc
00000230: edf4 623d de76 9bbd ac5f 933d 5e5b 183c
00000240: 800a b8bd c3e6 1dbd 884e 4f3e 77cd a7bd
00000250: f44d 593d 0990 8b3e 5962 49bd 7faa 2ebd
00000260: 682e bbbd 0ece d03d 16ba 18bd b897 4a3b
00000270: 8787 5cbd e70e 21bd efef 16bd 56f1 94bd
00000280: 1a94 fe3d 5cfd 50be b8a4 b3bd 61d8 c3bd
00000290: 014b c0bd 37a7 2b3e c97d c0bd adfa a1bb
000002a0: f832 66bd 4f76 04bd 47dc aabd f85f b3bd
000002b0: ad0a 893d 5dfb 9c3e e9e7 4cbd 1f46 a0bd
000002c0: 3f7c 96bd c31a e0bc af31 2cbe 6fb7 efbd
000002d0: 35da 8fbd 1c99 943b f397 31bd e5a6 9abd
000002e0: e59e 89bd 2091 c63d a4c6 c33e fcfe 70bd
000002f0: f65a d9bc 19d1 c2bd f221 d1bd 9d56 803e
00000300: 4b93 dcbc 84d2 7e3e 7e0e 96bd 4451 7e3e
00000310: 968d 95bd e62b e0bd a0c2 d33c 3c9e 7dbd
-0.11836824 -0.088938415 0.04081114 -0.12321946 -0.26857957 -0.14170669 0.34899062 -0.0066405693
-0.06962202 -0.058219403 -0.14630501 -0.028975522 -0.08643486 -0.094350524 -0.049306873 -0.0795626
0.08259529 0.10827931 -0.08471393 0.24496876 -0.07815444 -0.06442282 -0.07872571 -0.02095273
-0.033711303 -0.007606538 -0.05943488 -0.026459087 0.2219905 0.028771209 -0.15072986 0.14797287
-0.04013073 -0.103630975 -0.09161466 0.25231653 -0.043918747 -0.012916619 -0.12996657 -0.06828389
-0.010772526 0.24633151 -0.12633672 -0.054578163 -0.07971268 -0.029687189 0.0077556423 -0.1294659
0.0076636276 0.19906937 -0.09128833 -0.08268886 -0.14605832 0.027806332 -0.12679464 -0.08110338
0.026813282 -0.0830289 -0.11049297 0.31873465 -0.017386505 -0.04307893 0.12751192 -0.063441016
0.02368422 -0.1513822 -0.092787385 0.057784494 0.11712403 0.062236696 -0.037919432 0.39119312
-0.047268394 0.0003734287 -0.089191735 0.07337286 -0.10296787 0.010136431 0.36661795 0.09927602
-0.04970588 0.2943421 -0.032821704 0.07578609 0.09761757 0.036933657 0.23780504 -0.10835762
-0.055345576 0.29975438 -0.10551387 0.0071482332 -0.0079422835 -0.099230655 0.32461047 -0.042610284
0.24076897 -0.07130884 -0.0012049812 0.26143768 0.18955924 -0.005019694 -0.1970586 -0.08632326
-0.0690066 -0.053485908 0.068863325 -0.02019001 0.2953562 -0.08027912 0.2168359 -0.09016776
0.1429569 -0.055262875 0.030096846 -0.07366173 0.068970315 -0.07798158 -0.05234823 -0.16215184
0.1615356 0.34248793 0.21038942 0.012586556 -0.06620071 0.30354893 -0.09463365 -0.060568236
-0.09297812 -0.060119014 -0.22012164 0.25360644 0.0676356 0.3117542 -0.09399886 -0.10642941
-0.074509606 -0.021191148 0.0037216372 -0.017997082 0.05540936 -0.075910315 0.07195982 0.009299127
-0.08986378 -0.03855015 0.20244801 -0.08193486 0.053052858 0.27258328 -0.049166057 -0.042643066
-0.09139711 0.10195552 -0.03728684 0.0030913185 -0.053840186 -0.039320853 -0.036849912 -0.07272594
0.12430592 -0.20409149 -0.08771652 -0.095627554 -0.09389306 0.16763006 -0.093989916 -0.004943213
-0.05620095 -0.03233939 -0.08342796 -0.08758539 0.06691489 0.30660525 -0.050025854 -0.078258745
-0.07347917 -0.027356511 -0.16815828 -0.11704909 -0.070240416 0.0045348536 -0.0433578 -0.07551364
-0.0671976 0.09695649 0.38237488 -0.058836922 -0.026532631 -0.095125385 -0.10211553 0.2506608
-0.026925704 0.24884993 -0.07326983 0.24835688 -0.07302396 -0.10945873 0.02584964 -0.061918482
