Vehicles/Str_01_01_02/Str_01_01_02_critic.pth (torch, 353427 bytes, 10 tensors)

weight f4 [200, 15]
000000 db 0f 70 be 41 30 88 bd e6 28 0f bf fc e1 4e 3d
       -0.23443548 -0.06649829 -0.5592178 0.050508484
000010 31 2a 60 3e 8b 81 96 bd 26 35 b4 be c9 3a 53 bd
       0.21891095 -0.07348927 -0.351968 -0.051569734
000020 06 77 ac 3b 7b bf 0d 3e 17 c6 ba be 00 ae cf be
       0.005263212 0.13842575 -0.36479256 -0.4056244
000030 71 06 25 3d 36 ab 7f 3e a3 35 bc 3d e5 4f cb be
       0.040289346 0.24967656 0.09189918 -0.39709392
000040 60 05 2f 3e c5 aa d3 3d 79 c2 51 3d 34 4b e1 be
       0.17091894 0.10335306 0.051210854 -0.44002688
000050 27 95 af be 1a 19 cd be a2 78 68 be 19 3d 6b 3e
       -0.34293482 -0.40058213 -0.22702268 0.22972526
000060 0a 54 53 3e 93 60 8d be 2d 9b 6d be ab 40 2d bf
       0.20637527 -0.27612743 -0.23203726 -0.676768
000070 7f 40 82 be ce 7a 79 be 0c f8 5c be cf 8b 07 bf
       -0.25439832 -0.24363253 -0.21578997 -0.52947706
000080 a1 15 c2 3e 3c 07 90 3d f9 bb db be ca 0d c1 be
       0.37907127 0.0703263 -0.4291685 -0.37705833
000090 64 e3 84 bd 32 af f5 3e e1 50 a5 3d 45 52 d4 bd
       -0.06488684 0.47985226 0.08072067 -0.10367254
0000a0 2e 7d 9d 3d bd ef 01 be 50 fa 5d bd 7d 9c 2b be
       0.07689892 -0.12689109 -0.054193795 -0.16758914
0000b0 56 94 af be 9b cd 3f 3e 1e f0 ef bc ff 34 77 3e
       -0.3429286 0.18730776 -0.029289301 0.2414131
0000c0 fb 6d a1 bd ae b2 08 3e c2 97 3d be d3 89 06 be
       -0.07882305 0.13349411 -0.18514922 -0.13138513
0000d0 cd c2 d4 bd 02 06 49 3e fa 72 38 3e e9 65 bd bd
       -0.10388718 0.19631198 0.1801261 -0.092479534
0000e0 2f 99 13 3e 2a af 10 3e 75 c6 66 3e f2 4f 2f 3e
       0.14413904 0.1412932 0.22536643 0.1712034
0000f0 20 78 9b be c0 79 88 be 13 55 f8 bd 9f 41 1b bd
       -0.30365086 -0.26655388 -0.121256016 -0.037904378
000100 85 70 0e 3e 72 bb e5 3c 73 a7 47 bc 75 71 9e 3d
       0.1391011 0.028043482 -0.012185919 0.07736484
000110 aa 64 e6 bd 76 b0 ab 3e 9d 2a a3 3d 6d bf d0 bd
       -0.11249669 0.33533067 0.07967112 -0.101927616
000120 72 86 ef bc 97 5e 8d 3e 22 20 f5 be 9a e2 24 3e
       -0.029238913 0.2761123 -0.47876078 0.16102067
000130 d8 f9 89 bd d9 33 8b be 19 e4 03 3e b6 84 8e 3d
       -0.06737107 -0.27187994 0.12879981 0.06958906
000140 b7 23 8b 3c 3c 9c 67 be 93 b5 00 be 93 69 b9 3e
       0.016984804 -0.22618192 -0.12569265 0.3621336
000150 a3 d3 0c bf d0 fd 29 bf 6b bc e5 3d 2f 79 07 be
       -0.5501043 -0.6640291 0.112175785 -0.13229822
000160 e3 02 05 be 40 77 0f 3d ef ff b5 3d f8 b5 3c 3d
       -0.12989382 0.035025835 0.08886706 0.046071976
000170 28 d7 b9 3e 42 8b ea 3d 4c c3 d5 3c 61 cf 05 be
       0.36296964 0.114523426 0.026094101 -0.1306739
000180 a2 87 2e 3e 3f 78 3d bd 8c 1a 36 bf db 35 0e bf
       0.17043927 -0.046257254 -0.7113426 -0.55550927
000190 ee 1a 25 3e d9 f5 a5 3e 34 9b 89 be af 43 33 3e
       0.16123554 0.3241413 -0.26876223 0.17506288
0001a0 fa 69 c6 3e 57 56 0f bc 30 99 81 3d 92 a8 23 3e
       0.3875273 -0.008748612 0.06328046 0.15982273
0001b0 9e b4 02 3e e0 19 91 bd 4d d4 8c be ea 88 3e 3e
       0.12764212 -0.070850134 -0.27505723 0.18606916
0001c0 c7 74 5e be 3f 09 ca 3d 52 c6 f8 bd 56 99 b6 bd
       -0.21724235 0.09865045 -0.121472016 -0.08915965
0001d0 4f 54 b0 3e 7a 7e 29 3e 5f 10 2d 3e bd 85 16 3e
       0.34439322 0.16552153 0.16900776 0.14699455
0001e0 70 00 28 be 5d 29 b5 bd a1 ca 13 bf 94 0b bd 3d
       -0.16406417 -0.0884578 -0.5773106 0.09230724
0001f0 48 19 ec 3d 16 b2 66 3e 5b 9f 02 be f4 50 01 be
       0.115282595 0.22528872 -0.12756102 -0.12628537
000200 3b b3 d5 3e 5c 54 a9 3e c5 80 d0 3c 23 64 9a be
       0.41738304 0.33072174 0.025452027 -0.30154523
000210 2a 8c b0 be cc 0d a8 3d 6d 2f d7 bc 38 6d b4 3e
       -0.34481937 0.082057565 -0.026267732 0.35239577
000220 d0 6c e7 be 55 f1 e8 be 5f a0 0e bf 68 cd 3d be
       -0.45200205 -0.45496622 -0.55713457 -0.18535388
000230 a0 0a 95 3d 25 bd 7a 3e 5c 64 58 3c 11 df d2 be
       0.07277417 0.24486215 0.013207521 -0.4118581
000240 a8 6f 91 bc 9c 4c 75 3e fd 74 c6 3d 4f 00 b9 3e
       -0.017753437 0.23955005 0.096902825 0.36133048
000250 f7 c0 82 bd 32 91 2a 3f 63 ce 9e bb e0 0e 1d 3e
       -0.063844614 0.666278 -0.0048463806 0.15337706
000260 b4 45 a5 3c 79 d9 6c be 26 b3 c6 be b3 43 9c 3c
       0.020174839 -0.23129834 -0.38808554 0.01907525
000270 76 a0 84 be 49 5a 5b bd ca e5 b2 be 57 91 bc bd
       -0.25903672 -0.0535529 -0.3494094 -0.09207409
000280 d7 42 59 3b b3 d9 08 be 02 0a 24 3e 65 f1 61 bc
       0.0033151412 -0.13364296 0.16019443 -0.013790463
000290 64 04 9b 3d b2 3e 49 3d d6 89 58 3e 3b 16 1a bd
       0.07569197 0.049132057 0.2114633 -0.037618857
0002a0 4a 97 d1 3e 45 c6 3a bf da 03 40 bf c7 f9 88 3e
       0.40935737 -0.72958785 -0.75005877 0.26753065
0002b0 ee 6f ab 3c f1 52 92 be 7f 8e 9a bf 5e 34 28 bd
       0.020927396 -0.28578904 -1.2074736 -0.041065566
0002c0 26 8e 3d 3d 80 8f 91 3d 79 88 02 bf 73 a4 58 3d
       0.04627814 0.071074486 -0.5098949 0.052891206
0002d0 4b 3e 81 3e 28 b7 90 3d 71 4f 6a 3e be 9b c4 3e
       0.25242838 0.07066184 0.22881867 0.38400072
0002e0 4b 64 3f 3d a2 3c 2b bf a7 9f f1 be 17 49 e6 3d
       0.046726506 -0.66889393 -0.47192118 0.112444095
0002f0 b2 81 a3 3e c6 91 18 3e 52 d4 8f 3d 59 35 88 bd
       0.31934887 0.14899358 0.07022919 -0.066508
000300 08 93 25 be 88 fd 74 3e 5c 6e 51 3e f4 f5 83 3d
       -0.16169369 0.2392484 0.20452255 0.06443396
000310 90 ad 71 3d df 3e cf bd 59 b4 fa bd f6 fc 9a bd
       0.059003413 -0.101194136 -0.1224143 -0.0756778
000320 d9 bc 97 bc 41 b6 80 3d 67 fc 9e 3d 99 aa b2 3c
       -0.018522667 0.06284762 0.07762986 0.021809863
000330 10 5a a2 3c 53 e5 a9 bd 38 85 26 be 6d db c7 bc
       0.019818336 -0.08295693 -0.16261756 -0.024396623
000340 25 b1 04 3e ce d3 88 3e f0 43 0a bf da 55 8b 3e
       0.129582 0.26724094 -0.54009914 0.27213937
000350 c7 f8 7a be aa 70 bb be 58 72 91 be fb ce cf bd
       -0.24508964 -0.36609393 -0.2840755 -0.101469
000360 26 b3 c1 3d 07 07 6a bd b8 f7 5d be 95 f5 eb bd
       0.09457998 -0.057135608 -0.21676528 -0.115214504
000370 7a 0e 3c 3d a7 99 8c be 42 d3 88 be f1 30 56 3e
       0.045912243 -0.27460977 -0.26723677 0.20917107
000380 7d 58 fb ba 4e 80 11 3f d4 bb 7f 3e 27 e4 49 be
       -0.0019176152 0.568364 0.24973994 -0.1971594
000390 95 20 0b bf 0b 6e 2a be cf b7 db 3d 57 96 07 3e
       -0.5434659 -0.1664354 0.10728418 0.13240944
0003a0 e6 07 06 bf 81 7d 65 be 22 87 04 be c9 87 7d bf
       -0.523558 -0.22411157 -0.12942174 -0.99035317
0003b0 2a 56 9f bd 70 5a 5a be 35 10 1d 3e 32 b0 ec bc
       -0.07780106 -0.21323562 0.15338214 -0.02889261
0003c0 a6 d0 c4 bd d3 28 d3 3d 47 36 54 3e 34 bf 9a 3e
       -0.09610109 0.10310521 0.2072383 0.30224
0003d0 f5 40 d2 3e a3 42 12 be b8 77 39 be eb 80 c1 bd
       0.41065183 -0.14283232 -0.18112075 -0.09448417
0003e0 3a 81 78 be 8b 77 6e be 90 e1 76 3e 84 6a af 3e
       -0.24268046 -0.2328779 0.24109483 0.34260952
0003f0 56 1f 21 3c a2 31 8f bd e3 ea 3b bd c0 90 b1 3e
       0.009834131 -0.069918886 -0.045878302 0.34680748

bias f4 [200]
000000 69 51 34 3e 4a b3 70 ba 1d f8 7a 3d f9 1a 5b be
       0.1760918 -0.00091819896 0.061271776 -0.21397008
000010 c0 19 a9 be 29 84 f8 3d ce c0 b9 3e dc 0a 30 3e
       -0.33027458 0.121345825 0.3627991 0.17191643
000020 bc 2d 66 be ca 27 f3 bd a3 b0 32 be 13 b0 11 3d
       -0.22478384 -0.118728235 -0.17450194 0.035568308
000030 a1 3c 47 3e 77 10 78 be b3 54 1e be f8 e6 2b 3e
       0.19456722 -0.24225031 -0.15461998 0.16787326
000040 4b 78 36 be 70 16 da bd d4 eb 40 be 84 45 c8 3d
       -0.17819326 -0.10648811 -0.18839961 0.09778884
000050 56 53 b3 3d 1f 4a b3 3d 7e 15 02 3e 51 95 54 3e
       0.087561294 0.08754372 0.12703511 0.20760085
000060 8e 6b 0d bb 75 72 75 3e eb 32 55 3e fc b0 b4 3e
       -0.0021579 0.23969443 0.20820205 0.35291278
000070 86 5a 70 3e be 14 8a be d8 25 cc bd be ea b2 3e
       0.23472032 -0.2696895 -0.099681556 0.3494472
000080 b2 cc 20 bd be b3 55 be da 0c d5 be 7a 5c 99 be
       -0.039257713 -0.20869347 -0.41611367 -0.29953367
000090 42 a7 3f be 65 8c 90 be 67 4e 67 be 52 35 bc bd
       -0.18716148 -0.28232113 -0.22588502 -0.091898575
0000a0 83 3d 9a 3c 71 53 bb bd f1 58 a3 3e 53 bd ad 3d
       0.01882816 -0.091467746 0.31903794 0.08483376
0000b0 c4 08 94 be d4 76 67 3e 3a 8e a2 3e 26 c0 8f 3e
       -0.28912938 0.22603923 0.31749135 0.28076285
0000c0 8b ad 39 be 3c e4 7f be 5b 77 8f 3e 1c d6 9c 3e
       -0.18132608 -0.24989408 0.28020748 0.30632102
0000d0 e0 c8 3b be db 9e 89 bc b0 da e3 be e6 00 10 3e
       -0.18338346 -0.016799381 -0.44502783 0.14062843
0000e0 46 99 ad be 53 62 80 3d 3d 19 45 be fc 75 84 be
       -0.33906 0.06268754 -0.19247909 -0.25871265
0000f0 56 0e 9b 3c c3 11 ea 3c b8 90 30 be e7 17 30 be
       0.018927734 0.028572923 -0.17242706 -0.17196618
000100 5f ef 05 3e 4d 62 aa be bb 13 94 bd 93 b2 aa bd
       0.13079594 -0.33278123 -0.07230326 -0.083348416
000110 83 84 85 be f7 21 28 be 2d 9d 40 bd 56 08 f7 3d
       -0.2607766 -0.16419207 -0.047024895 0.12062137
000120 b1 83 66 be fe c2 6f 3e 0e 9e 68 be e1 d2 63 be
       -0.22511174 0.23414227 -0.22716543 -0.22248413
000130 c0 01 59 be 52 e0 1e be ae dd 85 3e 6b 5c 91 3e
       -0.21192074 -0.15515259 0.2614569 0.28390822
000140 f2 16 b5 bd 7e e5 8d bd a4 a3 2c be f0 2f 83 3e
       -0.08842267 -0.06928538 -0.16859299 0.2562251
000150 84 a5 be be be a8 1d be 66 cb e7 bd a0 f2 46 be
       -0.37235653 -0.15396401 -0.11318092 -0.19428492
000160 59 58 cc 3d b9 80 bb bc e5 0b 45 be 25 3f c1 3d
       0.099777885 -0.022888528 -0.19242819 0.09435872
000170 84 5f e8 3d 64 20 a7 bc 08 42 0c bd e1 6f 9c bc
       0.11346343 -0.020401187 -0.03424266 -0.019096317
000180 6a 1d 55 bd 45 47 a1 be 6a 7e a6 3d be 46 c4 be
       -0.052030005 -0.31499687 0.0812958 -0.38335222
000190 a1 76 8f be ff be ae 3e d0 61 0d 3e 91 02 2b be
       -0.28020194 0.34130093 0.13806844 -0.16700198
0001a0 eb 14 ee 3c 3c ac 98 3e 0a 65 37 be 9b 03 a5 be
       0.029062709 0.29818904 -0.17909637 -0.32229313
0001b0 2b 50 27 be 16 c4 d0 3e 1b e6 ac bc 61 86 a3 38
       -0.16339175 0.40774602 -0.021105817 7.797476e-05
0001c0 fe 12 c1 3c 36 bb d2 bd 29 9c a5 3c 48 6f 60 be
       0.023568626 -0.10289614 0.020216065 -0.2191745
0001d0 51 1c 4a be 15 23 8f 3e 01 f2 e7 3d 4a 32 6b be
       -0.19737364 0.27956453 0.113254555 -0.22968403
0001e0 bc a2 b7 bd 97 2e 6c bd 4b 7b 3b 3d 50 ce 39 3e
       -0.08966586 -0.05766162 0.04577188 0.18145108
0001f0 1b fe 38 3e 3f 7f 16 3d c9 6d 6c be cd 89 28 3c
       0.18065684 0.036742445 -0.23088755 0.0102867605
000200 61 b2 94 3d 94 ca de bc 1a 5e 3c 3e 67 4a db 3e
       0.072605856 -0.027196206 0.18395272 0.42830202
000210 fd e8 39 be 48 b4 b3 be c0 36 b8 be 3c 22 3e 3e
       -0.18155284 -0.3509848 -0.3597927 0.18567747
000220 03 99 e0 3e 43 37 88 bd e6 5e 3a bd 99 a6 44 bc
       0.4386674 -0.06651165 -0.04550066 -0.012002611
000230 98 e3 e2 3d 93 7b 6d 3e 4e 42 02 3d f1 82 18 be
       0.11078566 0.23191671 0.031801514 -0.148937
000240 d7 fd ec 3c 30 f2 2f be d4 c8 df be 13 6c 49 3e
       0.028929634 -0.17182231 -0.43707907 0.19670133
000250 88 a0 85 3e 95 fc 17 3e 7f 70 82 be 6f dd 0b 3e
       0.26099038 0.14842446 -0.25476453 0.13658689
000260 37 bf 3a 3e 67 40 fc bd 93 78 97 be f2 2a b8 3e
       0.18237005 -0.12316971 -0.29584178 0.35970265
000270 b9 3f 7a bd ae c5 4b be 77 da b0 bd 19 22 86 bd
       -0.061095927 -0.19899628 -0.08635419 -0.06549472
000280 8b 9f de 3d 0f e2 40 bd 3c 25 d1 bd db 79 ad bd
       0.10870274 -0.047090586 -0.1021218 -0.08470508
000290 b1 1b 80 3d 1e 4b c7 bd df a5 4e be 15 ab 74 be
       0.06255282 -0.09731124 -0.20180462 -0.23893388
0002a0 5f 18 e0 bd 7c 4c f9 bb 3b 67 0f be 35 31 0a 3e
       -0.109421484 -0.0076079946 -0.14004223 0.13495333
0002b0 86 65 8a be 90 cf 09 be 68 dd b0 bd 69 77 a4 bd
       -0.2703058 -0.13458085 -0.0863598 -0.08030588
0002c0 85 e9 f6 3c 35 52 3f be 9f 57 81 3c c3 e5 ba 3d
       0.030140648 -0.18683703 0.015788851 0.09125855
0002d0 ea 71 71 be 35 b5 92 3e 2e 77 1a 3e ed c7 68 be
       -0.23578611 0.28653875 0.15084526 -0.22732516
0002e0 51 34 5d bd b1 b5 75 be 47 28 90 be 5b fc 9b 3e
       -0.05400497 -0.23995091 -0.2815573 0.3046597
0002f0 89 14 04 3e d9 25 04 be 69 26 84 3e dd 37 9b 3e
       0.12898459 -0.12905063 0.25810555 0.30316058
000300 cd d2 a5 be 14 0b a2 be 23 de 8a 3d 06 ef e7 3d
       -0.3238739 -0.31649077 0.067806505 0.11324887
000310 c7 79 dc 3c 2c c7 a4 be d8 35 6e 3e 78 5f 2d be
       0.026913537 -0.32183206 0.23262727 -0.1693095

weight f4 [200, 200]
000000 f2 2f 20 3e 9a 53 67 3e 37 83 b9 be db 0c 3c 3e
       0.1564329 0.22590485 -0.3623292 0.18364279
000010 ca 0e 13 3d 46 15 99 3d 56 6a 9d 3e 36 55 01 3e
       0.035902776 0.07474761 0.3074519 0.12630162
000020 60 24 0d 3d ba de 5e 3e 69 99 ce 3c fd 46 d9 3c
       0.034458518 0.21764651 0.025219636 0.026523108
000030 cb d9 e4 3e da a8 17 3d 1a 9f b6 3b 24 94 c6 3a
       0.44697413 0.037026264 0.0055731656 0.001515035
000040 d2 4a 1d be a5 f5 60 3c ab 19 8c 3d 8e 79 c3 3d
       -0.15360573 0.013730441 0.06840833 0.09544669
000050 4d 4c 14 bd 24 c3 21 be dc 79 e5 3e b6 e4 a2 3e
       -0.03620558 -0.15797096 0.44819534 0.31815118
000060 a8 2a 9b 3d c5 e8 41 3c 04 bd 7b 3e 57 79 11 3d
       0.075764954 0.011835282 0.24583822 0.03551611
000070 81 08 78 3d 17 9e 8f 3b 72 26 4d 3d 9d 81 a7 bb
       0.060554985 0.0043828594 0.050085492 -0.0051118867
000080 01 ba 14 3d 64 ba d9 3c 6c 6d dc 3e cf d0 cb bd
       0.0363102 0.026578136 0.43052232 -0.099519365
000090 12 8e 09 3f 94 9a 11 be 9a c6 4f bc 3b 4e a6 3d
       0.5373241 -0.14219123 -0.012681628 0.0812039
0000a0 11 f4 50 3d de 1d f6 3d 6a 31 37 3e b4 06 0d be
       0.05101401 0.120174155 0.17889944 -0.13772088
0000b0 88 ce 26 3d a7 9a 37 3e 8e 0e ee 3d 71 9e 85 be
       0.040724307 0.17930089 0.1162387 -0.26097444
0000c0 55 b2 c4 3c 2c 83 12 be 71 27 cb 3b 50 7e 0b 3e
       0.024010817 -0.1430785 0.00619977 0.13622403
0000d0 0a ca ce bd e9 08 39 3e 27 01 6f be 9e fa ae 3d
       -0.1009713 0.18069805 -0.23340283 0.08543895
0000e0 9e c6 57 3d 70 a6 00 bc 9c 85 b3 3e 94 03 8c 3e
       0.05267965 -0.007852182 0.35062873 0.2734648
0000f0 0e 46 39 be ce fb 12 be 54 85 05 3e 44 b6 f8 3c
       -0.1809313 -0.14353868 0.13039142 0.030360349
000100 78 20 10 3e 11 60 2a 3b 9d 29 1a 3e 6c ee 93 be
       0.14074886 0.0025997201 0.15054937 -0.2889284
000110 05 91 63 bd eb 30 87 be ae 95 99 be 01 7e 1c bd
       -0.055558223 -0.2640451 -0.2999701 -0.038206104
000120 0e 91 df bd 84 f3 85 3e 96 4b 0b be 62 02 06 bd
       -0.10916339 0.2616235 -0.13603052 -0.032717116
000130 33 04 58 bd 05 18 07 3d e6 34 12 3d ab f9 40 3d
       -0.05273838 0.03298189 0.03569498 0.047113102
000140 e1 b9 c7 3d cd 6a ee 3d 90 14 aa 3c 0b 45 8c 3e
       0.097522505 0.116414644 0.020761758 0.27396426
000150 b5 4a 03 bf 96 84 fa 3c f6 53 1c bd 94 4c c9 3b
       -0.5128587 0.0305808 -0.03816601 0.006143162
000160 e5 f4 08 bf 33 5c 2d bf b8 b2 80 3e 71 ea aa 3d
       -0.5349868 -0.6771881 0.25136352 0.083454974
000170 58 03 b6 bd 67 c5 88 3e a7 35 22 3e 9e 7a b4 be
       -0.088873565 0.26713106 0.15840779 -0.352498
000180 ab 95 a1 3e 4c 8c a2 bd 89 aa ca bb d1 a5 65 bf
       0.315595 -0.07936916 -0.00618488 -0.8970614
000190 b5 a0 21 3d c8 6f 69 3e c5 f5 77 3d f7 90 7c 3e
       0.039459903 0.22796547 0.06053712 0.24664675
0001a0 92 9a a7 3d 76 04 ea be bf e7 17 bf 72 45 6e be
       0.08183779 -0.45706528 -0.5933799 -0.23268679
0001b0 83 61 6e 3c b2 40 00 bd e5 2a 0f 3d e5 e0 8b bd
       0.014549616 -0.0313117 0.034953017 -0.068300046
0001c0 0c 1d a9 be ec d7 21 3e 62 be 1c 3e 8f 1c 26 3d
       -0.33029974 0.15805024 0.15307 0.04055458
0001d0 31 e0 ca be 80 5d f5 bb aa b3 83 be ee f3 67 3c
       -0.3962417 -0.0074879527 -0.2572301 0.014157278
0001e0 4a 43 7f 3e 4a e0 70 be e1 b2 6e be 4b a6 19 bc
       0.24928012 -0.2352306 -0.23310424 -0.009378026
0001f0 88 c0 92 be 9a 20 87 3d ef f1 ac 3e 18 53 f9 3e
       -0.28662515 0.06598015 0.3377833 0.48696208
000200 c8 7d 48 3e 94 db 40 3d 3c df ad 3e 02 0e 1e 3e
       0.19579232 0.047084406 0.33959377 0.15435031
000210 34 89 83 be 5c 63 c1 bb b8 19 04 be 21 9a f4 3d
       -0.25690615 -0.005901737 -0.12900436 0.1194346
000220 2c 4d cb 3e e3 a2 06 3e ba d9 c2 bc ba fa 40 3e
       0.39707315 0.13148074 -0.02378546 0.18845645
000230 e8 3f 2d 3d da 19 13 bd b0 54 ea 3d 73 d5 38 3e
       0.042297274 -0.035913326 0.11441934 0.18050174
000240 39 6e ed 3d e6 54 24 3e de a7 c2 bd 91 fc 74 3e
       0.11593289 0.16048011 -0.095046744 0.23924471
000250 1c f5 8d be 89 6b e6 3d 23 da 4a 3e be 9f 0c 3d
       -0.27726066 0.112509795 0.19809775 0.03433203
000260 c3 62 10 3e 30 fa ce be 53 d5 f0 bd a7 cc cf 3d
       0.14100175 -0.40425253 -0.11759438 0.10146456
000270 e7 b7 da 3e f5 60 de 3d d7 e5 93 be 6e 27 60 3e
       0.4271843 0.10858337 -0.2888629 0.21890041
000280 49 bd 94 3e 45 fe 5e 3e 49 e8 dc bd 89 07 22 be
       0.29050663 0.21776684 -0.107864924 -0.15823187
000290 81 1d b1 3e b8 8d a8 3d 98 a4 18 bd d5 90 58 bd
       0.34592822 0.08230156 -0.037266344 -0.052872498
0002a0 f2 cb 0e bf 6c 38 ac be 63 76 88 3e 9c 6c 00 3d
       -0.55779946 -0.33636796 0.26652822 0.031353578
0002b0 20 c2 34 bf d4 5c 1f 3e 0f 8d 2d 3e 24 3f ea bc
       -0.7060871 0.15562755 0.16948341 -0.02859456
0002c0 db 7a 60 3e 2a 12 b3 3e ba 21 3a 3d f1 f6 80 bc
       0.21921866 0.34974796 0.04544232 -0.01574275
0002d0 8f 6f 13 bd c7 cf 69 bd 81 73 89 3e af cf e9 be
       -0.035995062 -0.057082918 0.26845935 -0.45666263
0002e0 f4 66 15 be ce 86 c4 be d6 10 3e bc 89 88 82 3e
       -0.14590055 -0.38384098 -0.011600694 0.25494793
0002f0 ea a3 dd 3c e3 eb 57 3e d9 b7 e6 3d ed 35 2c 3e
       0.0270557 0.21086077 0.11265535 0.16817446
000300 2b b2 17 be be f0 3f be 38 90 c0 bc f6 88 27 3e
       -0.1481406 -0.1874418 -0.023506269 0.1636084
000310 de 0f a0 3d 68 ad 73 3d 61 14 5d be 96 06 08 3e
       0.078155264 0.059491545 -0.21589805 0.13283762
000320 23 e2 83 bd b6 da 8b 3d 79 f3 da 3c 6b c1 17 bd
       -0.064396165 0.06828825 0.026727425 -0.037049692
000330 a2 1e 5d bd b3 ed 7b bd 01 4a c9 3c bb f2 6d bc
       -0.05398429 -0.061505985 0.02457142 -0.0145232035
000340 cc d0 a1 3c 98 25 17 3c 82 6e 94 3b 4f e3 f6 3c
       0.019752882 0.009225272 0.004529775 0.030137686
000350 62 1b 41 3c a7 8a 27 bd d0 f4 d5 3c 89 3d 88 3d
       0.011786314 -0.040903714 0.026117712 0.06652362
000360 ec 10 8b 3c 10 f2 b0 bd 96 d8 8d 3d 6e 46 89 3c
       0.016975842 -0.0863992 0.06926076 0.016757216
000370 12 bc c8 3c 76 08 36 3d 22 ef 47 bd d4 16 84 bd
       0.024503741 0.044441663 -0.04881204 -0.064496666
000380 5c bf 8a bd 29 8c c6 bc 82 80 f9 3b 76 65 3e bd
       -0.0677478 -0.024236755 0.0076141963 -0.04648348
000390 bf a5 20 bc d5 5b 12 3d 5a f0 a5 bc 33 37 59 bd
       -0.009805142 0.03573211 -0.02025621 -0.053031158
0003a0 94 36 c5 bc b3 63 4e 3c 21 80 81 bd 62 52 16 bd
       -0.024073876 0.012597012 -0.06323267 -0.03669966
0003b0 5a 16 ba 3c 23 13 85 bd d7 5a 91 3c 28 fe 53 bd
       0.022715736 -0.06497791 0.017743511 -0.051756054
0003c0 ef d7 21 ba b8 4c 23 bd a6 e8 76 bd f7 a1 ac 3c
       -0.0006173839 -0.039868087 -0.060280465 0.021073325
0003d0 42 d5 c3 bc 33 2e 99 3c 2d 06 9d 3c 0b 9d 3b bd
       -0.0239054 0.018698787 0.019167984 -0.045804065
0003e0 16 c8 17 3c 55 a9 a5 bc 6d 2f cb bc 42 f0 2b bd
       0.009264013 -0.020222345 -0.024802888 -0.041977175
0003f0 e7 c2 b1 bd eb 7d 2e 3c 49 65 64 3d 1f 47 1f bd
       -0.08679753 0.010650138 0.055760656 -0.038886186

bias f4 [200]
000000 d2 96 38 bd bd 0f 76 bd d4 f2 8b bd 4a 88 94 bc
       -0.04506571 -0.060073603 -0.06833425 -0.018131394
000010 b7 82 bc bd 4d 40 3d bc 91 83 43 bd 80 12 a3 bd
       -0.092046194 -0.011550975 -0.047732893 -0.07962513
000020 18 11 ef bb 6b 02 10 bc e7 d4 5d 3d 4a 52 03 bd
       -0.007295739 -0.008789639 0.054158118 -0.0320609
000030 f5 e8 c7 bd e1 15 d3 3c ab b4 cb bd f9 95 74 bd
       -0.0976123 0.025767269 -0.09946569 -0.059713338
000040 c0 d5 fb 3d 47 22 a8 3c fd c0 1f 3e 2f d7 8f bd
       0.12296629 0.020524157 0.15600963 -0.07023465
000050 13 30 62 3c 3f f5 51 bd c2 88 7d bd 31 bf 39 bd
       0.013805407 -0.051259276 -0.061898 -0.04534835
000060 70 b0 21 bd 35 46 a2 bd 51 25 22 bd 75 21 21 3d
       -0.039474905 -0.07923547 -0.03958637 0.039338548
000070 9f 6d 9e bd ee 28 8c bd e9 03 a5 bb 1f c6 e1 bc
       -0.07735752 -0.06843744 -0.0050358665 -0.027560292
000080 91 15 53 bd f4 96 3b bd 6f c9 11 be 71 b4 d2 bd
       -0.05153424 -0.045798257 -0.14236997 -0.10288323
000090 17 75 1c bb 37 7d d2 bd 97 8f 9d bd 6e 0b 05 be
       -0.0023873502 -0.10277789 -0.07693403 -0.12992641
0000a0 79 71 2d bd d3 e6 c0 3c 60 21 a2 3e 68 a0 34 3d
       -0.042344544 0.023547566 0.31666088 0.044098288
0000b0 95 1d 4d 3e 25 e1 8c 3e 65 dc e1 bb 6f e8 15 3d
       0.20030816 0.27515522 -0.006892728 0.03659862
0000c0 7a 4c 52 3d f9 0d ad 3e 49 3c 67 bd db 9e a6 3e
       0.051342465 0.33799723 -0.056453977 0.32543072
0000d0 b4 db 58 bd ed 74 3c 3e 1d a3 60 bd 73 da f4 3c
       -0.0529439 0.18403979 -0.054843057 0.029889321
0000e0 97 0f f5 3b 1b bd 8f 3c 9c 5d af bd 2b c3 3c bd
       0.007478665 0.017546227 -0.085627764 -0.046084564
0000f0 24 93 05 bd 9f b8 4e bc 4e 4b 8b 3e 56 c4 7e 3b
       -0.032611027 -0.012617259 0.2720589 0.003887435
000100 18 56 33 bd 25 e7 95 3e 7b 0f a3 bd 41 fc 10 3e
       -0.043783277 0.29277912 -0.07961937 0.14158727
000110 8d d4 8d bd 1b 4e 50 bd 87 f0 0d 3e 77 77 f3 bc
       -0.069253065 -0.050855737 0.13861285 -0.029720051
000120 29 22 73 bd 09 3b d8 bc ba 8b 13 bd d5 44 9b bd
       -0.05935875 -0.026395338 -0.036021926 -0.07581488
000130 dd ed b8 3e 45 64 9d 3d bb 10 cf 3d f0 ef eb bd
       0.36118975 0.076851405 0.10110613 -0.11520374
000140 49 6b 47 3d 07 85 46 3e 94 ef a1 bb 83 ab da bd
       0.0486863 0.19386683 -0.00494189 -0.106772445
000150 2d de 85 bd e7 5a 5c bd e7 51 d3 bd e8 fb 0b bd
       -0.06536517 -0.05379763 -0.10318356 -0.034175783
000160 a6 f2 a1 bc 7d 23 56 3e bd 52 3b bd 6d aa 9c 3c
       -0.019769024 0.20911975 -0.045733202 0.019124234
000170 69 2a af 3b 41 87 5e bd 15 3e 80 bd 39 4e a0 bd
       0.005345632 -0.054328207 -0.06261841 -0.0782742
000180 86 73 5f bd 3f a3 2a 3e 21 d7 a9 bd c3 3b 65 bd
       -0.05455353 0.16663836 -0.08292986 -0.055965196
000190 fa de c5 bd 28 fc 78 bd 3f 3f 5c bd 7a b0 7f 3e
       -0.0966167 -0.06078735 -0.053771254 0.24969664
0001a0 27 63 0c be 90 07 9f bd 3b 0d a9 bd 08 de 0b 3c
       -0.13709699 -0.07765114 -0.08254477 0.008536823
0001b0 2e 71 e1 bc 88 03 a3 3e 68 31 b4 bd 32 52 97 3e
       -0.027519789 0.31838632 -0.08798486 0.29554898
0001c0 d5 4c 53 3e b3 d1 27 be 48 59 39 bc d6 91 07 be
       0.20634778 -0.16388588 -0.01131279 -0.13239226
0001d0 a1 cd 06 3e 9d 2b be bd ff 79 2c bd fd 65 48 3d
       0.13164379 -0.09285662 -0.042108532 0.04892539
0001e0 17 60 84 3e e1 31 5c 3c dc 1b 19 3b 9c 1e 8a 3d
       0.2585456 0.013439626 0.0023362553 0.067441195
0001f0 ab 31 92 bd 43 79 0d 3e 09 96 05 be 5a 4f 88 bd
       -0.0713838 0.13815789 -0.13045515 -0.0665576
000200 7c 48 a9 3e 3f 34 b2 3e 67 20 ea bd 1f 46 e8 bc
       0.33063114 0.34805486 -0.114319615 -0.028353749
000210 01 5a 72 bd 1e 78 8c bc 6e 23 42 3e 32 66 6a 3e
       -0.059167866 -0.01714712 0.18958828 0.22890547
000220 93 0d 7c 3d 72 8a 65 39 71 33 8e bd 48 75 b8 3e
       0.061536383 0.00021890717 -0.069434054 0.36026978
000230 79 8c 10 3e fc dc 6e bd 6c be 23 bd 85 3d f5 bc
       0.14116086 -0.058316216 -0.039976522 -0.029936561
000240 02 56 33 3d b8 f1 03 3c 7d 14 b3 bd 0d b0 bc bd
       0.043783195 0.008053236 -0.08744142 -0.092132665
000250 99 47 1d bc 82 a7 07 be 5f 2f 51 bd 6d 51 71 bd
       -0.00959959 -0.13247493 -0.051070567 -0.058915544
000260 de 9e 89 bd 8c 01 10 bd 7c f8 2e bd e0 35 89 3e
       -0.06719755 -0.035157725 -0.042717442 0.26798916
000270 37 f7 16 bd 9c e3 47 3d 47 e4 dd 3b 40 e2 8a 3e
       -0.036856856 0.04880105 0.0067715975 0.2712574
000280 e3 f8 e9 3d ff e2 ae bd 09 db ec bc 52 81 a7 bc
       0.114244245 -0.0853939 -0.028913038 -0.020447407
000290 ca 94 01 3d 31 37 e9 bc bd dd 53 bd 14 ca 20 be
       0.031636037 -0.0284687 -0.051725138 -0.15702087
0002a0 3b ba 9c bd 6d be ec bc da 89 35 bd ff 03 61 bd
       -0.07652708 -0.028899396 -0.04432092 -0.05493545
0002b0 a5 aa 6f bd a8 d7 a6 bd 32 1f 82 3e 97 4c ab bc
       -0.05851235 -0.08146602 0.25414425 -0.020910544
0002c0 f1 ec 8f 3e 4b 45 f2 bd 33 6f 02 3e 6a 25 bc bd
       0.2811046 -0.11829623 0.12737732 -0.09186824
0002d0 40 ff 14 3e 55 24 86 bd c2 1c 56 bd 12 f6 a7 3e
       0.14550495 -0.065498985 -0.05227352 0.32804924
0002e0 97 1d 9d bd 5f c5 81 bd e4 0f 42 3b 6e 84 bc 3a
       -0.076716594 -0.06336474 0.0029611522 0.0014382729
0002f0 8e 26 e0 ba 63 f0 8b bc 00 a4 8b 3e e9 a5 a4 3e
       -0.0017101334 -0.017082399 0.2727356 0.3215783
000300 22 33 52 bd 5f 41 a8 bd 27 67 0d bd 49 c2 9c 3e
       -0.051318295 -0.082155935 -0.034522202 0.30616978
000310 40 f9 a8 bd 56 94 fa 3b 7e 43 4e 3c 39 69 68 3e
       -0.08250666 0.0076470776 0.012589334 0.2269639

weight f4 [1, 200]
000000 c3 21 28 be 3e 62 d9 bc 01 1f f0 bc d9 9a f3 3d
       -0.16419129 -0.026536103 -0.029311659 0.11894769
000010 d4 2d ab bb 81 5b 3b bf e4 30 b7 bc 03 2e 3d bc
       -0.005223969 -0.731865 -0.02236218 -0.011546615
000020 45 e0 c1 3b f4 3d 7e 3c fd 42 23 be 53 b4 a0 bc
       0.0059166276 0.0155177 -0.15943523 -0.019617235
000030 94 b5 62 3d f5 27 cf bc 26 52 f2 bc 3a c3 d5 3b
       0.055348948 -0.025287608 -0.029580187 0.006523517
000040 e3 5d 48 be 96 82 57 bc e6 9b e6 3b 8d 89 13 3c
       -0.19567065 -0.013153693 0.0070376275 0.009004963
000050 f1 c5 60 bc 20 77 1a 3d 80 04 8d bb fd 34 9f 3c
       -0.013719068 0.037711263 -0.004303515 0.019434446
000060 4e 77 26 3c c3 58 57 bf 17 50 ae 3c 00 6b 68 bc
       0.01016028 -0.84119815 0.021278424 -0.014185667
000070 6f d5 f7 3b de 20 37 3c c8 f0 35 3c 4b 7f d9 bc
       0.007563285 0.01117727 0.01110477 -0.026549956
000080 5d bb 9c 3c de b3 8b bd 1b 40 15 be e1 d9 ba 3b
       0.01913231 -0.06821416 -0.14575236 0.0057022427
000090 ef 5a d3 bc 55 29 6a bc 32 2c e0 3c a6 1c 94 bf
       -0.025800196 -0.014292081 0.027364824 -1.1571243
0000a0 76 63 24 3b af c0 e0 bc e8 e3 17 3e 59 8e af 3b
       0.0025083697 -0.027435629 0.14833033 0.0053575453
0000b0 54 96 87 3e 70 d3 31 3e f0 55 82 3b eb fa 16 3e
       0.2648188 0.17365813 0.0039775297 0.14744155
0000c0 b0 8d da bd 6e 61 a8 3d ad f0 4d 3c 99 3f 27 3d
       -0.10671556 0.08221708 0.012569589 0.040832136
0000d0 17 d5 f2 bc a9 80 0f 3c e3 0b 9c bc e4 51 a4 3d
       -0.029642625 0.008758702 -0.019048637 0.08023432
0000e0 b7 f2 ff be 25 d7 f7 3c 56 c7 00 3c 4f de 85 be
       -0.49989864 0.030253956 0.007860025 -0.2614617
0000f0 a3 c4 40 bf e0 b2 ad 3c 99 bf 23 3e fd 71 92 bb
       -0.75300044 0.021203458 0.15991057 -0.004469155
000100 c0 5d a0 3c 71 0f 19 3d b3 1e 8e bf 4e 58 b4 3e
       0.019575953 0.03736824 -1.1103119 0.3522362
000110 45 f4 de b8 22 84 b1 3b 04 22 ca bc 58 48 ac 3c
       -0.00010631284 0.005417363 -0.024674423 0.02103059
000120 b3 08 a5 3c 4b e3 c6 bc a9 38 c1 3c be 88 6d bd
       0.02014575 -0.024278304 0.023586588 -0.057991736
000130 d4 67 17 3e b2 17 6a 3e 34 cc a8 3e ec f1 c2 bc
       0.14785701 0.22860602 0.32968295 -0.023796998
000140 c1 f3 ea bd a4 83 17 3e f3 ad 1e be c9 c4 05 be
       -0.114722736 0.1479631 -0.15496044 -0.13063349
000150 a9 c3 22 bf f2 49 93 3e df 3c 53 bb d5 38 04 3d
       -0.63579804 0.28767353 -0.0032232327 0.03228076
000160 75 8d 2b be c7 32 8e 3e cd ea c5 bc 08 eb d7 bc
       -0.1675318 0.27773115 -0.024159813 -0.026357189
000170 35 27 ef bc 36 02 56 bc 92 e0 15 3b 5f 78 32 bf
       -0.0291935 -0.013062051 0.002286945 -0.6971492
000180 0f b4 9c ba 44 c4 80 3e 04 2b e8 3a ce cd 2e bf
       -0.0011955517 0.2514974 0.0017713015 -0.68282783
000190 f5 ba 89 3c d9 9c 8a bf 63 47 bf be cf 35 f6 3b
       0.01681278 -1.0829116 -0.3735915 0.0075137387
0001a0 34 df 89 bf 8b 26 ad 3c 36 f0 41 bf 0b 86 99 be
       -1.0771241 0.021136543 -0.7575716 -0.2998508
0001b0 bd b4 5f 3c 1b 0c 9b 3d 84 35 0b bf af c9 71 3d
       0.013653931 0.07570668 -0.54378533 0.05903023
0001c0 9d 89 3f 3e cb cc ee 3d fa 21 f1 bd 55 65 27 bf
       0.18704839 0.11660155 -0.11774059 -0.65388995
0001d0 0f 18 64 3e c6 50 14 3d 90 62 8a bc 0c bb 8e 3e
       0.22274803 0.036209844 -0.016892701 0.2787708
0001e0 34 35 ee 3c 39 74 08 bc dc e0 b7 bc 16 b4 fb bd
       0.029078104 -0.008328491 -0.022446088 -0.12290208
0001f0 66 5d 95 bc 03 0f 20 3e 82 d1 87 bf aa 34 bf 3c
       -0.018233012 0.15630727 -1.0610812 0.023340542
000200 3f b9 99 3d 07 fd b8 3d 0f 7e bf be d9 c2 2f 3d
       0.07506036 0.09032636 -0.37400863 0.04291043
000210 0a c9 bc 3c 01 9e 55 3b af 9c e0 3d 1d 1d 18 3e
       0.023045082 0.0032595398 0.10967385 0.14854856
000220 29 34 0c be 05 e1 bd 39 82 e4 8a 3c 2c e6 8c 3d
       -0.13691773 0.00036216542 0.016954664 0.06879839
000230 3f 2e 2f 3e 67 b2 b1 3c 01 ca 05 3c 4f a5 1a bc
       0.17107485 0.021691514 0.008165837 -0.009438827
000240 26 f2 11 bf c5 e9 a1 3c 29 95 53 be b3 2e 39 bf
       -0.57010114 0.01976479 -0.20662369 -0.7233688
000250 e5 51 a7 3c dd 43 8b bf e5 32 58 bd 41 b3 cf bc
       0.020424793 -1.0880085 -0.05278291 -0.02535403
000260 1d 5a 82 bc b8 a6 ba bd 91 a7 30 3b 52 54 21 3d
       -0.01591211 -0.0911383 0.0026955346 0.039387055
000270 35 ec bf 3c 64 80 02 be b7 ef 1d bd b9 cf 33 3d
       0.023428062 -0.1274429 -0.038558688 0.04389927
000280 1d 66 2d be 8c 30 05 bd 56 6c da be 0c 54 69 bc
       -0.16933484 -0.032517 -0.4266078 -0.01424123
000290 4e 62 14 be 29 90 be 3e fa 64 37 bf e2 90 8b be
       -0.14490625 0.3721936 -0.71638453 -0.27258974
0002a0 5c af 00 bf a4 9d 53 bd 64 62 ff 3c 39 cc fc 3b
       -0.5026758 -0.05166401 0.031174846 0.007714775
0002b0 21 c1 ed bb 35 02 6a bc 1b 08 1f 3e 54 b5 08 bf
       -0.007255689 -0.014282753 0.15530436 -0.53401685
0002c0 66 0b 09 3e 10 8b cd 3c 47 bb 60 be 6b fc a3 3c
       0.13383254 0.025090724 -0.2194644 0.020017823
0002d0 b1 72 93 3e 2d 8d 96 3b ab 18 26 3e 88 1c a8 3d
       0.2879844 0.004594466 0.16220348 0.08208567
0002e0 89 8f b7 3b 11 40 b8 bb 46 90 4f bd bb c1 ec be
       0.0056018275 -0.0056228717 -0.0506747 -0.46241555
0002f0 54 50 97 3c f6 0f 72 3c c0 0c 28 3d 47 67 30 3e
       0.01847092 0.014774313 0.041027784 0.17226897
000300 8d 1c 88 bc e5 af 4b 3c 75 5f d4 3a dc 6a b9 3d
       -0.016615177 0.012432073 0.0016202765 0.09053585
000310 35 76 44 bc 34 c3 59 be 21 26 41 bc a5 22 93 3c
       -0.011991073 -0.2126587 -0.011788876 0.017960856

weight f4 [200, 15]
000000 1b e5 e5 be 78 a9 07 be a1 1e 0c 3e 41 06 b8 be
       -0.44901356 -0.13248241 0.13683559 -0.3594227
000010 ce de 80 3d 6f 38 9f be 1d a1 32 3e 41 03 0a be
       0.062924966 -0.31097743 0.17444272 -0.13477804
000020 46 ae 18 3d b3 eb af bd 3e 56 5b 3d 59 40 5d be
       0.037275575 -0.08589878 0.053549044 -0.21606578
000030 f3 82 a1 bd 32 cb 9b 3b 9f a9 80 3d 5c 38 c2 bd
       -0.07886305 0.0047544474 0.06282353 -0.09483406
000040 be 05 6d be 51 b6 64 bd 63 82 5a bd 81 57 d0 3d
       -0.23146722 -0.055837933 -0.053347003 0.1017294
000050 ae c0 dc bd ce be f0 3d 96 a5 a0 3d a0 0b 69 3e
       -0.10778938 0.11755143 0.07844083 0.22758341
000060 6e 22 73 3d 5f 35 28 3e 9c d0 65 3e b7 9c 93 3c
       0.059359007 0.1642661 0.2244286 0.018019063
000070 25 6c 61 be e9 7f a3 be 96 ce 7c 3e 41 79 4d 3e
       -0.2201391 -0.31933525 0.24688181 0.20065786
000080 57 0c 2f bf c9 d9 a0 3d d5 e5 d4 bd 8b c0 36 be
       -0.68378204 0.07854039 -0.103953995 -0.17846887
000090 09 54 fb 3d 1d 10 89 be 47 95 5a be 41 03 50 be
       0.12271888 -0.26770106 -0.21346007 -0.20313741
0000a0 c6 d3 bd 3d 66 74 e1 bd 04 62 9d be 5a aa 2a bd
       0.09268908 -0.11008529 -0.30738842 -0.041666366
0000b0 bf 45 4e 3e ea b9 69 3f e6 c0 89 be 6b 76 ec 3e
       0.20143794 0.9129931 -0.26904982 0.46184096
0000c0 d5 f5 3a bc ed 25 3f be b9 7b 5d bf 36 a5 58 3d
       -0.01141115 -0.18666811 -0.8651691 0.052891932
0000d0 8f 10 00 be f9 e5 76 be 56 14 5b 3e 54 ac 00 3e
       -0.12506317 -0.24111165 0.21394476 0.12565738
0000e0 15 12 b3 be 11 9f c0 3e ce 77 c2 be c3 5d 8d 3e
       -0.34974733 0.37621358 -0.3798203 0.27610597
0000f0 6d 82 35 3c fd 08 14 be 5e 2d 53 be fd bc a8 be
       0.011078459 -0.14456554 -0.20622775 -0.32956687
000100 51 a4 d2 bd 0c 4a 05 be 94 47 f2 bd e8 b2 4a 3e
       -0.10285247 -0.13016528 -0.11830059 0.1979481
000110 80 1d 40 be 6b 26 84 be ad b9 52 be 0b de 48 3e
       -0.18761253 -0.2581056 -0.20578642 0.19615953
000120 dd 87 04 bc 57 e0 fe bd c5 6d 5c 3d 7c 53 d9 3e
       -0.008089033 -0.12445133 0.053815622 0.42446506
000130 51 4a 8d be 00 f1 31 be 4a 4c 64 3e a0 17 25 be
       -0.2759576 -0.1737709 0.22294727 -0.16122293
000140 00 9a bc ba 0e b8 8d be c4 b7 4b be 5b af 3f be
       -0.0014389157 -0.27679485 -0.1989432 -0.18719237
000150 91 70 3e 3e d2 71 9f 3d a3 0e be 3d 2b 22 2f bc
       0.18597628 0.077853814 0.092801355 -0.010689299
000160 c4 32 68 3e 02 22 f4 3e 9b d7 3d 3e f3 6e c6 bc
       0.22675616 0.47682196 0.18539278 -0.024222827
000170 53 3a 39 3e 37 a6 16 3e f2 68 9f 3e e9 2f 47 be
       0.18088655 0.14711843 0.31134754 -0.1945187
000180 9d 1d 4c be 02 02 37 3e 74 7d 9a bd e6 55 24 be
       -0.19933172 0.1787186 -0.075434595 -0.16048393
000190 86 1a 0e be 89 87 a2 bb ad 51 86 bc a0 a6 63 3d
       -0.13877305 -0.0049600047 -0.016396368 0.055578828
0001a0 47 89 7c 3e 85 df 00 3e 16 c2 70 be 3e 65 84 be
       0.24661742 0.12585266 -0.23511538 -0.25858492
0001b0 03 89 1f 3e b5 dd a2 3d cf 31 6b be 72 47 25 bf
       0.1557961 0.079524435 -0.22968219 -0.6456214
0001c0 bc df 20 bf 87 8b 74 be 6e 9c 29 3c 47 1c 6e bd
       -0.6284139 -0.2388135 0.010352237 -0.058132436
0001d0 5b 7b 66 3e 24 24 6e 3e f6 b4 3d 3e a9 92 87 3e
       0.22507994 0.23255974 0.18526062 0.2647908
0001e0 a2 a0 8d 3d f6 1e 08 bf 04 ca a7 bd 91 b3 77 3e
       0.06915404 -0.5317224 -0.08192828 0.24189593
0001f0 ce 41 6c be ce 27 60 bd 77 82 34 3d ba af 0b 3e
       -0.23071977 -0.05472546 0.044069733 0.13641253
000200 b4 f8 27 be 9c 00 5d be b0 00 7d 3e 5d 00 85 3e
       -0.16403466 -0.21582264 0.24707294 0.2597684
000210 04 a9 bf be 65 05 df 3e 1e 64 61 bd b2 62 9c 3f
       -0.37433636 0.43558803 -0.05502712 1.221762
000220 08 4b 91 be cf d2 ff bd fc ee 19 be ff 09 9e bd
       -0.28377557 -0.124913804 -0.15032572 -0.0771675
000230 2a ae bc bd 08 d3 94 bf 8e 25 8a bf 22 85 f0 be
       -0.09212907 -1.1626902 -1.0792711 -0.46976572
000240 d2 9c 82 3d ef d9 9d 3d 84 54 f2 be 10 f1 04 bf
       0.06377567 0.07707583 -0.47330105 -0.5193033
000250 b2 11 92 be 25 c2 fd bd ad 4d b4 3e 55 57 71 bd
       -0.28529125 -0.12390546 0.35215512 -0.058921177
000260 61 41 d9 bd e7 1c 9a bc d0 09 70 3c 7c 35 11 3d
       -0.10608173 -0.01881261 0.014650777 0.035451397
000270 d1 a4 05 3e 3a 16 a9 3e e0 76 b3 be 35 d0 68 be
       0.13051154 0.3302477 -0.35051632 -0.22735675
000280 43 69 2c bd 48 82 98 be 7b 2a 66 3e 94 92 42 3f
       -0.042092573 -0.29786897 0.22477143 0.7600491
000290 c1 81 49 3e 70 1d f3 3e 49 d2 84 be 62 36 f9 be
       0.19678403 0.47483397 -0.25941685 -0.48674303
0002a0 39 0f 3d be 55 93 2f be ec ff 86 3e 48 0d 0c 3e
       -0.18462838 -0.17146046 0.26367128 0.13676941
0002b0 0b c8 44 be f2 d1 0a be d4 93 c5 be 01 d2 80 3d
       -0.19216935 -0.1355665 -0.38589346 0.06290055
0002c0 63 ae 83 bd 71 e1 9a 3e e2 e6 eb bd b7 a6 ca 3e
       -0.06429746 0.30250123 -0.11518647 0.39580318
0002d0 b4 ce a4 bf dc 3f 90 3d 2e eb a7 be 83 d6 c5 be
       -1.2875581 0.0704343 -0.32796615 -0.38640222
0002e0 bd 65 ba be 2a f6 de be ac 10 8a be 65 7d 8f bd
       -0.36405745 -0.43547183 -0.26965845 -0.07006339
0002f0 73 cc b3 be c1 d8 f7 be 16 fc a1 bf 8e 49 7f 3e
       -0.3511692 -0.48407558 -1.2655056 0.24930403
000300 41 62 1d 3e b9 86 20 bf 20 e9 b0 3d 95 51 18 be
       0.15369512 -0.6270557 0.08638215 -0.14874871
000310 c6 0a 46 bc 57 10 b1 3e 2e 68 f3 3d ea 53 45 3e
       -0.0120875295 0.3458278 0.11885105 0.19270292
000320 38 77 21 bf e7 79 f3 be f8 66 a4 be 51 a7 9e bd
       -0.6307254 -0.47553942 -0.3210981 -0.07746757
000330 dd c0 63 3d ca 21 58 3e 08 54 a0 be 77 4b 5a 3e
       0.05560385 0.2110664 -0.3131411 0.2131785
000340 25 96 ae be 96 2d e0 3d bc 96 78 bf 59 61 0b 3d
       -0.34098926 0.10946195 -0.97105 0.034028385
000350 df 79 9c 3e a0 75 e9 bd aa ae 87 bc 94 9b 54 3e
       0.3056173 -0.11399388 -0.016562779 0.20762473
000360 a0 d4 55 bc c8 a0 0a 3e 92 b3 dc bf 3a 44 6a bf
       -0.013051182 0.13537896 -1.72423 -0.91510355
000370 f2 42 39 3d 76 ea 9f be d6 78 24 3e fa bd c2 be
       0.04522986 -0.31233567 0.1606172 -0.38035566
000380 f7 6d ac 3e cc 71 0f bf 81 b1 f1 3e 9b f4 2d 3e
       0.33677647 -0.56033015 0.47205737 0.16987841
000390 3c 23 2a be dc 50 e0 bd 86 2d 53 bd ff fd 89 bd
       -0.16615003 -0.10952923 -0.051557086 -0.06737899
0003a0 c6 70 a6 3e 35 d8 a0 be b6 22 13 3e 8e c7 9d be
       0.32507914 -0.31414953 0.1436871 -0.3081631
0003b0 e9 13 99 3d b8 cd ca 3c e3 7a f7 3d 5b 09 99 3e
       0.07474501 0.024756297 0.12083986 0.2988995
0003c0 25 d9 b7 3e f5 63 5a be 16 4c 6c be 0c 4e 00 be
       0.35907856 -0.21327193 -0.230759 -0.12529773
0003d0 66 5c 99 3e 9d 9d b8 bd 41 04 99 be 24 d8 68 be
       0.29953307 -0.09014437 -0.29886058 -0.22738701
0003e0 0b b8 5e be aa 6d c0 be ec d2 18 3e c7 cc a9 3d
       -0.21749894 -0.37583667 0.1492421 0.08291011
0003f0 22 05 98 3c 2a 92 83 be 65 8b 9a 3e 2b c7 bf be
       0.018557135 -0.25697452 0.30184475 -0.3745664

bias f4 [200]
000000 04 d2 6b bd fd f0 b2 bc 2c be b0 3e e5 0b 73 3c
       -0.057573333 -0.021843428 0.3452009 0.014834379
000010 5a 35 76 be 18 1c 99 3e 79 3b 80 3d 3b 7c 95 3e
       -0.2404379 0.29904246 0.062613435 0.29196343
000020 15 7b b1 bd 20 9e 8a 3e 8e 8b 5a be 9b 9a 11 3e
       -0.08666054 0.27073765 -0.21342298 0.14219134
000030 ee 73 12 bd 34 2a 77 3e c6 6a 9c 3e bd 53 83 3e
       -0.03575509 0.24137193 0.30550212 0.25649825
000040 0c 2a 97 be 64 92 df bd c8 8b 37 bd e9 ac ed bc
       -0.29524267 -0.10916594 -0.04481104 -0.029013114
000050 36 2f 7e be 85 5e bd bd bf ad 85 bd 69 3e 3d 3d
       -0.24822697 -0.09246544 -0.0652728 0.046202097
000060 c8 62 62 be fa df 90 bd 97 5a 6a bc 09 9a a6 3e
       -0.22107995 -0.0707397 -0.014303825 0.32539394
000070 97 d6 f7 bd d0 89 ba bd 51 36 38 3e 4b f7 ab 3d
       -0.12101477 -0.09108317 0.1798947 0.08396777
000080 5a 5a a2 be bb 01 24 3e 08 75 74 3d 49 a1 3d 3d
       -0.31709558 0.16016285 0.059681922 0.04629639
000090 ea 7a 96 3e aa 13 44 3e d4 cd 81 be c5 92 c0 be
       0.2939065 0.19148126 -0.25352347 -0.37611976
0000a0 31 04 79 be 3f dc 2d 3e 7e 55 b5 bd fc 24 9c 3d
       -0.24318005 0.16978548 -0.08854197 0.07624242
0000b0 83 9b 3b be 2d 64 92 3e 59 f9 cb be 97 bb 56 be
       -0.18321042 0.28592053 -0.39838675 -0.20969997
0000c0 e7 cc 96 be fd fa 80 be c8 c5 03 3a e7 a0 13 be
       -0.29453203 -0.2519149 0.0005026725 -0.14416848
0000d0 ed d7 21 be 69 19 27 bd bf ab b4 bd 90 39 88 be
       -0.15805025 -0.040795717 -0.088218205 -0.26606417
0000e0 c2 d1 25 bb d0 89 28 3b e7 96 9e bb 35 b4 dd ba
       -0.0025302027 0.0025716908 -0.0048397663 -0.0016914668
0000f0 bc 08 f5 bd 64 76 80 be e3 c0 e0 bd 18 5a ed 3d
       -0.119645566 -0.25090325 -0.1097429 0.1158945
000100 49 3c d2 bd ab 6e bf bd 04 a3 a0 3e 21 c3 86 be
       -0.10265405 -0.0934728 0.3137437 -0.26320747
000110 54 ae 85 3e 96 0c c2 bd 52 e2 6b 3e 00 ae 70 bd
       0.26109564 -0.09475057 0.23035553 -0.05875969
000120 89 b6 10 3e d5 46 4b 3d 82 57 2e be 2a e3 f2 3d
       0.14132132 0.049628098 -0.17025569 0.11859734
000130 15 c4 67 be c4 dd 70 be 77 c1 19 be d1 f2 3a be
       -0.22633393 -0.23522097 -0.15015207 -0.1825669
000140 7b 65 a2 3e 94 7a 3f 3e 3c 03 e4 bc 5e 5f 89 3e
       0.31718048 0.18699104 -0.027833574 0.26830572
000150 19 a8 6c 3d 3f 14 e2 bc c2 9e 80 be 1c 3b a5 be
       0.057777498 -0.027597545 -0.25121123 -0.3227166
000160 cb cb 60 3e 72 42 08 3d 84 ad 87 bd 25 a2 86 be
       0.21952741 0.033266492 -0.06624892 -0.2629558
000170 da 95 6a be 0c 2b ae 3d 29 fe 1c 3e 96 8f 34 bc
       -0.22908726 0.08504304 0.1533133 -0.011020562
000180 47 f5 ee 3e 77 c8 73 be 7b 59 81 be 42 f1 ad bc
       0.46671507 -0.2380694 -0.2526358 -0.021233205
000190 31 ee bc bd 3a 8c 89 be c0 2f 6a be fd 94 34 3d
       -0.09225119 -0.26864797 -0.22869778 0.0440874
0001a0 d4 d2 cf bd 53 bb c8 bd 94 63 e0 3e e1 54 74 bd
       -0.10147634 -0.09801354 0.43825972 -0.05965126
0001b0 a9 41 67 be e3 cd 62 3c 17 d2 ab be 6a d4 1a be
       -0.22583641 0.0138430325 -0.33558723 -0.15120092
0001c0 39 9e 37 be 7e 22 94 be 54 cf 1d be b3 bf 61 bd
       -0.17931451 -0.28932565 -0.1541112 -0.05511446
0001d0 cf f3 92 be a9 5c b4 3d 5e 17 60 be 2c 4e c3 3e
       -0.28701636 0.08806736 -0.21883914 0.38145578
0001e0 9e 3e 2c be 9f 4d 20 3e 0d 16 b3 be 6f b9 07 3d
       -0.16820762 0.1565461 -0.3497776 0.033135828
0001f0 24 b4 92 be 4f 9b 59 be 63 46 6e bd 46 52 4d bd
       -0.2865306 -0.21250652 -0.058172595 -0.05012729
000200 55 89 0c 3e 80 46 48 be 21 7f f3 3c 58 13 00 3e
       0.13724263 -0.19558144 0.029723706 0.12507379
000210 7e 1c ec be e5 63 b3 3b 9f 9b 0b be a1 9a 20 3e
       -0.46115488 0.005474555 -0.13633583 0.15683986
000220 c5 8d a2 be ba 4a 18 3e 72 a6 f6 bd d2 f9 45 3e
       -0.31748787 0.14872256 -0.12043466 0.1933358
000230 f0 c9 e3 bd 1b 9b 78 be 6d 4b f3 3d c7 32 f0 3c
       -0.11122501 -0.24277918 0.11879621 0.029321088
000240 b9 9f 48 3e 48 65 2f 3e d9 8f 1c 3e 9c ea fb bd
       0.1959218 0.1712848 0.15289249 -0.123006076
000250 b5 bb 8b 3e c9 31 90 bd 9e 27 b3 be a9 6c a3 3e
       0.27291647 -0.07040746 -0.34991163 0.3191884
000260 9a 7f 22 be c3 e3 4d 3d 4b c8 96 bd 4b 80 60 3d
       -0.15868989 0.05026604 -0.073624216 0.05480985
000270 98 90 a0 3e 65 9e 49 be 3c 30 8e bb d8 67 95 3e
       0.31360316 -0.19689329 -0.004339246 0.2918079
000280 0c 15 2c 3e 41 5b 8c be 0a db 20 3c 32 d5 d9 3d
       0.16804904 -0.2741337 0.009817848 0.10636367
000290 a2 7c 33 3c 08 40 42 be 22 24 a2 be 99 58 69 be
       0.010955008 -0.18969738 -0.31668192 -0.22787704
0002a0 9c bc fa bd 4e 68 a9 3d 91 40 8e be ee 5e 90 be
       -0.12243006 0.08271848 -0.27783635 -0.28197426
0002b0 00 df 9d 3e 08 64 64 3d 6f 2a f5 be 4c da 3e 3e
       0.30834198 0.05575946 -0.47883937 0.18637961
0002c0 9f 60 13 bd f5 60 1f be 06 f9 51 3e 8f 00 b5 3e
       -0.035980817 -0.1556433 0.20505151 0.3535199
0002d0 71 0e 38 be 28 64 72 3e 81 a3 5a be f4 ef 89 3e
       -0.17974259 0.23671019 -0.21351434 0.26940882
0002e0 ec 1f ca 3e 70 f9 83 3d 6a 3c 8b be 14 4c 8b bd
       0.3947748 0.06444061 -0.2719453 -0.0680162
0002f0 1c de 40 bd 3d a7 6a 3d 1c 27 0f bd 10 b3 90 3d
       -0.04708682 0.057288397 -0.034949407 0.070654035
000300 68 fc f1 bd c1 d7 bf be 64 95 1b be 01 9f ca 3d
       -0.11815721 -0.37469295 -0.15193707 0.09893609
000310 17 98 25 be 84 8d c5 3e b8 52 09 bd 27 e8 c4 bd
       -0.16171299 0.3858453 -0.033526152 -0.09614592

weight f4 [200, 200]
000000 cf 40 6a bd 42 6d a2 bd 1e fb 97 bd f3 d9 bf bd
       -0.057190713 -0.079309955 -0.07420944 -0.093677424
000010 3f ea e8 3c b1 a8 a1 3c 49 e5 69 bd d9 23 df bd
       0.02843201 0.019733759 -0.05710343 -0.10895509
000020 72 cf 3f bd 66 82 16 3e 70 e9 53 be c3 be e0 bd
       -0.046828695 0.1469818 -0.20694518 -0.10973885
000030 13 e8 dd 3b d3 b7 85 bd 03 ca 46 bd 91 0f 3e be
       0.00677205 -0.06529202 -0.048532497 -0.18560626
000040 ca d7 cf 3c 18 b1 f7 3d bc f7 8d 3a fd eb 2e bb
       0.02537145 0.12094325 0.0010831277 -0.0026690953
000050 d9 95 d8 3d 08 71 58 3b 61 4c af ba c8 32 ac bc
       0.10575456 0.0033026356 -0.0013374203 -0.021020308
000060 dc a9 0d bd f4 3a d6 bd cc a2 1d bd 60 ff 23 3b
       -0.03458582 -0.10460463 -0.038485333 0.0025024042
000070 75 a3 41 bd ce 7d 2a be aa c7 d1 bc e4 b2 ef bd
       -0.047275025 -0.16649553 -0.025607903 -0.117040426
000080 c0 d9 8f 3d a7 11 56 3b 7f 4b 2e be d7 9f 76 3c
       0.070239544 0.003266433 -0.17020987 0.015052757
000090 6e ad 80 bd 79 fb f2 bd 3e b8 8b 3d 7a 6f be bc
       -0.06283079 -0.11864371 0.06822251 -0.023246516
0000a0 d8 67 33 3d 0f 8a 30 3d 17 8c 78 3c 11 62 d9 bc
       0.043800205 0.043100413 0.015170119 -0.02653602
0000b0 5e 2e 83 3d 72 d9 2f bd 8d 77 17 3e 12 24 86 bd
       0.06405328 -0.04293198 0.14791699 -0.065498486
0000c0 b2 7a a7 bc 4f 27 81 bd 94 85 da bd ba e9 17 3b
       -0.020444248 -0.06306326 -0.10670009 0.0023180083
0000d0 7d 89 08 be f1 0a 03 bd 52 df c6 bc 68 17 7a 3d
       -0.13333698 -0.031992856 -0.02427641 0.06105748
0000e0 e8 e3 18 bd e2 13 a2 3c 68 ea 1b bd b5 3c fc 3d
       -0.037326723 0.019784871 -0.038065344 0.123162664
0000f0 23 fd 00 be 61 55 53 3d b2 7c 7b bc ea b5 98 bc
       -0.12596564 0.051595096 -0.015349554 -0.01864143
000100 b7 ab 3f bd 60 b7 31 be 05 07 0b be 5c 9b 80 bc
       -0.04679462 -0.17355108 -0.13576896 -0.015699081
000110 2b ea 7e 3b be 3a 63 3d 7c 31 d9 3d 68 6a cd 3e
       0.00388969 0.055475943 0.106051415 0.40120244
000120 e1 8e 88 bc 5c 89 b6 3d f7 d5 1b bc 88 d1 40 bd
       -0.016669692 0.08912918 -0.009511462 -0.047074825
000130 56 19 6e bd e2 3b 28 bd db d9 09 3d 53 11 73 bd
       -0.05812963 -0.041072734 0.03365503 -0.059342694
000140 a4 1f 1b bd a1 c0 23 bd b1 d1 d8 bc 9b 6b eb bc
       -0.03787197 -0.039978627 -0.026467176 -0.028737834
000150 bd 4b bb bd 46 8b 8e bd af a2 f2 3c a0 2f b7 ba
       -0.09145305 -0.06960158 0.02961859 -0.0013975985
000160 9f 56 5f 3e 58 85 e4 bc 96 a8 54 3d 08 f7 61 bd
       0.21810387 -0.027895615 0.05191859 -0.055167228
000170 16 2f 95 bd 58 7e db 3e 5c c4 8d bd af 42 8b bd
       -0.072843716 0.4286983 -0.06922218 -0.06799828
000180 75 0b 1f be ae b2 00 be 0a e7 17 bd 9f 07 8f bc
       -0.15531714 -0.12568161 -0.03708557 -0.017459689
000190 5e 13 38 3c 7c 4f 13 bd 06 9f 14 3d a6 21 bf 3d
       0.011235086 -0.035964474 0.03628447 0.0933259
0001a0 a7 a4 f5 bd 2a ce b6 bc b8 07 26 3c 07 33 e8 bc
       -0.119942956 -0.022315104 0.010133676 -0.028344644
0001b0 ea 72 8a 3d 33 c9 6d bd dc 51 4b bd d8 21 8c bd
       0.06760199 -0.058053207 -0.049638614 -0.06842393
0001c0 f0 7f fe 3c 0a 5f 00 bd 49 39 05 be 92 14 28 be
       0.031066865 -0.031340636 -0.13010134 -0.16414097
0001d0 0c 7c 0a be 5b 39 88 bd ea 01 94 bd 0b 27 b7 3c
       -0.13523883 -0.06651565 -0.072269276 0.022357484
0001e0 5c 8f ad bb 1d 63 7f bd 71 df 6d bd ee d6 94 3b
       -0.005296631 -0.06235038 -0.05807442 0.004542223
0001f0 31 73 89 3c 0c 17 4b bd d2 fe 5b bd 03 a5 88 bd
       0.01677856 -0.049582526 -0.053709812 -0.066720985
000200 ee 00 2f be 66 79 19 3b 7a 05 29 3e 6d 38 75 bd
       -0.17090198 0.0023418306 0.16505995 -0.059868265
000210 95 f0 b8 3c a0 e8 73 bd a4 0f b4 bc 07 18 f7 bc
       0.022575656 -0.05954802 -0.021980114 -0.030162824
000220 10 7d 6d bd 07 d5 b2 bd 61 31 e0 bc d4 10 ab bd
       -0.057980597 -0.08732038 -0.027367296 -0.08352819
000230 05 35 d8 bd c0 99 a1 3d 92 98 33 bd 4d c7 2d 3c
       -0.10556988 0.078906536 -0.043846674 0.010606599
000240 a2 f4 8c bd f2 b6 5f bd c4 b1 73 bd 80 c4 35 3d
       -0.068825975 -0.05461783 -0.059495702 0.04437685
000250 85 5d dc bd 1d 15 32 3b 7a 03 48 3d 2f 2a 7c 3d
       -0.10760025 0.002717323 0.04883144 0.061563667
000260 8a a7 cb bb b6 ee 1b be a3 4a 9c bd ca e8 68 bd
       -0.0062150406 -0.1522778 -0.07631423 -0.05686263
000270 cb b4 02 3e 62 2d 05 be 3e 5c e8 bc f9 e3 92 bd
       0.1276428 -0.13005593 -0.028364297 -0.071723886
000280 09 72 60 3d af 50 8e bd 56 05 d6 3d 77 ce 35 bd
       0.054796252 -0.06948983 0.104502365 -0.044386353
000290 1d e0 7b bd 5f 79 49 bd 89 0c cf bd 5e b9 18 3d
       -0.061493028 -0.049188014 -0.10109813 0.037286155
0002a0 f2 7e 75 3d 87 6c 9c bc 43 76 af 3d 4f c7 0e bc
       0.059935518 -0.019094719 0.085674785 -0.008714511
0002b0 e0 29 48 bd ec 80 8e bd 39 d0 45 3d bf 61 af bd
       -0.04886806 -0.06958184 0.04829428 -0.085635655
0002c0 81 a1 d9 3c ed c2 7e 3d 2b 91 b7 bd 2a 06 09 bd
       0.026566269 0.062197614 -0.089632355 -0.033453144
0002d0 f5 1e 44 bd f8 9c a5 bd c5 3d 6e bc 81 3f 83 be
       -0.047881085 -0.0808658 -0.014541094 -0.25634387
0002e0 b8 ff 63 bd 74 a3 94 bd e2 fa a8 be 0c 2e a9 3b
       -0.055663794 -0.07257739 -0.33003908 0.00516296
0002f0 36 86 ac bc a1 85 47 bd 96 52 10 bd 0e 03 ef bd
       -0.02106009 -0.048711423 -0.03523501 -0.116705045
000300 e0 db c3 bc 4c cc 96 bd 18 90 68 bd 6c 41 d6 3b
       -0.023908556 -0.07363185 -0.056778044 0.0065385606
000310 ab 60 64 bd 24 26 ca bd 08 1d 9b bd 95 21 e0 3c
       -0.055756252 -0.09870556 -0.07573897 0.027359763
000320 5a 9a ba bc 89 c7 8d bd 7a 21 1b 3d 0d e1 05 bd
       -0.022778679 -0.06922824 0.037873723 -0.03268533
000330 37 4c 67 bd 54 19 29 bc 25 85 08 3c 90 05 f4 bc
       -0.05646917 -0.01032098 0.008332525 -0.029787809
000340 b2 a0 a2 bd 0a 96 e4 3b c3 37 27 bd 46 80 90 3d
       -0.079408064 0.006975894 -0.040824663 0.07055716
000350 0c e3 e9 3b 06 11 25 bc 4c 78 24 3d 9d c0 af bd
       0.007137662 -0.0100748595 0.040153787 -0.0858166
000360 b7 10 2b 3d fe 27 50 bd 8f 67 87 bc fc 4b 7e bc
       0.041763987 -0.05081939 -0.016528873 -0.015521046
000370 78 67 2f 3c cd 91 1f 3d fd 62 89 bd 9b 20 8e bc
       0.010705821 0.038957406 -0.06708334 -0.017349532
000380 9b ad d5 3c bb c8 a2 bd 31 14 1d 3d 64 4e 8a bd
       0.026083758 -0.079484425 0.038349334 -0.06753233
000390 49 1d 6b 3c 70 4c 90 3c da 8c 21 3d 79 0d 9e bc
       0.014350244 0.017614573 0.039440967 -0.019293534
0003a0 b9 10 a5 3c 4d af ba bd 24 74 dc 3c 84 f8 48 bc
       0.020149576 -0.09115467 0.026910849 -0.012266282
0003b0 b1 19 87 bc 65 ba 1f bd dc e2 1e bd d0 59 d7 3c
       -0.016491743 -0.03899612 -0.03879057 0.026287943
0003c0 f2 0c 74 bd 28 27 a1 ba 07 be 1f bd 42 68 08 bd
       -0.059582658 -0.0012294995 -0.038999584 -0.033302553
0003d0 90 3c 39 bd b8 e1 0f bd 3f b1 eb 3c f2 18 29 bd
       -0.045223773 -0.03512737 0.028771041 -0.041283555
0003e0 9a 6b 3b 3d c2 68 86 bd 24 29 89 3b 7d dd 14 bc
       0.045756914 -0.0656295 0.0041858125 -0.00908601
0003f0 9e b9 c7 bc f5 9f 15 bd a8 71 3c b9 95 07 25 3c
       -0.024380501 -0.0365295 -0.00017971417 0.0100726085
