Vehicles/Str_01_01_02/Str_01_01_02_actor.pth (torch, 176449 bytes, 6 tensors)

weight f4 [200, 13]
000000 e1 8f 52 bc 34 d4 0d 3d 97 68 2d 3f 3f 42 21 3e
       -0.012851686 0.0346262 0.67737716 0.15747927
000010 cf 33 2f 3e 1b 3b c6 3e e3 d7 a0 bc 97 ff 20 be
       0.17109607 0.3871697 -0.019634193 -0.157225
000020 33 70 a5 3e 0b 76 32 be 61 a8 1a 3d 3a 1a 3f 3e
       0.32312164 -0.17427842 0.037758235 0.18662348
000030 e2 0a 6b be 78 80 20 bd fb 44 da bb 14 04 6a 3f
       -0.2295337 -0.039185017 -0.006661055 0.9141247
000040 c0 3a e1 be f9 3f 04 3e b3 98 13 3d 25 50 9b 3e
       -0.43990135 0.12915029 0.036034297 0.30334583
000050 4b 5a 78 3e fa 57 09 3e 4d 90 ba bd 51 8e 36 3d
       0.24253194 0.13412467 -0.091095544 0.044569317
000060 ba 5e 06 3c 28 13 64 be 0c b4 29 3e 94 f0 85 bc
       0.0082012955 -0.22272933 0.16572589 -0.016350068
000070 88 c6 a1 bc a9 35 5c be 37 be b8 bc c3 0b c4 bc
       -0.019747987 -0.21504845 -0.022551639 -0.02393139
000080 9c 66 b7 3b 56 a0 0a be f8 ff 3c 3e 6f ab 3e 3d
       0.005596949 -0.13537726 0.1845702 0.04655021
000090 12 3a b5 bd 8c c6 16 3e 2e 27 40 be d6 10 44 bd
       -0.08848967 0.14724177 -0.18764946 -0.04786762
0000a0 0f 0f ff 3e 82 cf a9 3d 06 85 72 bd b8 09 4a 3e
       0.49816176 0.08291532 -0.059208892 0.1973027
0000b0 35 2b 8d 3e 62 a0 bd bd 1c b7 03 bf 41 ad 5d 3e
       0.27572027 -0.09259106 -0.5145128 0.21648122
0000c0 fc 62 a5 3e 90 2b 4b bc fb 99 56 3e 88 08 de be
       0.32302082 -0.012400523 0.20957176 -0.43365884
0000d0 01 1a da bd 52 2f c1 3e 8d 0e 94 3a 29 49 08 bd
       -0.10649491 0.37731415 0.001129584 -0.033272896
0000e0 38 d6 c9 3e 1e 68 f7 bc d9 77 83 be e9 1d 60 be
       0.39421248 -0.030201014 -0.25677374 -0.2188641
0000f0 3e 00 a1 3d a9 be 02 3d 64 df 35 3b 47 47 9d be
       0.07861374 0.03192011 0.002775156 -0.30718443
000100 f1 53 23 be e3 cf 9c bd 8c d7 2e 3e a3 df 45 be
       -0.1594999 -0.07656839 0.17074412 -0.19323592
000110 41 a9 96 3d 12 dd 9f be ac c4 99 be b5 2e 62 be
       0.07356501 -0.3122335 -0.3003286 -0.2208813
000120 dd 69 09 3e 7a 8b dd bb f4 f8 a9 3e ff 68 3f 3e
       0.1341929 -0.0067610117 0.3319775 0.18692397
000130 e1 29 82 be ca a4 8b be 10 3f 1f bd 8d 57 dd be
       -0.25422576 -0.27274162 -0.0388785 -0.43230858
000140 dc 4b fc be e1 50 96 be fa 83 71 be d8 41 35 be
       -0.49276626 -0.2935858 -0.23585501 -0.17700899
000150 f5 55 2b 3e 8e be 46 3c 5c c2 73 3c e7 44 19 3e
       0.16732009 0.012130393 0.014877882 0.1496769
000160 b0 1f 22 be d3 d4 47 3e 52 94 aa be 3b ed 22 bf
       -0.158324 0.1951478 -0.33316284 -0.63643235
000170 98 56 3c 3b 3f c4 d6 3e fa a5 94 3d 82 86 f2 bd
       0.0028738137 0.419466 0.0725822 -0.118420616
000180 89 81 83 3d e2 ec 06 bd cd 49 90 3e c6 83 f2 be
       0.06421191 -0.032940753 0.28181306 -0.4736616
000190 f4 3c 84 be f0 8f 60 3e 45 0b 9b be 8b 09 7d bc
       -0.25827754 0.21929908 -0.30282035 -0.01544417
0001a0 18 57 76 be d9 96 ee 3c bb 8e da 3d 3e 9b 0f 3e
       -0.24056661 0.029124664 0.10671755 0.14024064
0001b0 7e 5d 7d be 2c 31 78 3d e6 4e f6 bd 81 0c 17 3e
       -0.24742696 0.06059377 -0.120267674 0.14750864
0001c0 33 d7 5d be c6 1f 10 be 38 24 76 be 80 93 93 be
       -0.21664123 -0.1407462 -0.24037254 -0.2882347
0001d0 9c 09 12 3e 79 76 fc 3e 92 7f ca 3e 89 92 05 3f
       0.14261478 0.49309137 0.39550453 0.5217672
0001e0 9d f9 89 be 87 8f b4 be 8b 9c 1f be 9b b1 e2 bc
       -0.26948252 -0.35265753 -0.1558706 -0.02767258
0001f0 aa 9f 8f 3e e9 7d d7 3d 04 01 1d bf 79 bf 92 be
       0.28051502 0.10522062 -0.61329675 -0.28661707
000200 f3 7b cf bc a6 b1 95 3d 02 3f 1f be 56 79 33 3e
       -0.025327658 0.073092744 -0.1555138 0.17526755
000210 03 da 84 3d 14 fd 8b be bc 26 ac be 66 92 e3 bc
       0.06486895 -0.2734152 -0.33623302 -0.02777977
000220 6c ca 63 3e 67 0d cc 3e af 88 10 3e 37 16 99 be
       0.22245187 0.39853975 0.1411464 -0.2989976
000230 97 80 f3 be 55 a6 59 3e a5 ad a5 bd 42 04 e2 3e
       -0.47559044 0.21254857 -0.08089761 0.44143873
000240 8b a8 f2 3e 78 93 3a bf c8 f8 b0 bd ec b8 1a 3e
       0.47394213 -0.7288127 -0.08641201 0.15109605
000250 1a 20 bf 3d 84 7f e0 3d 16 47 4d bb 5a ad 25 bf
       0.09332295 0.10961822 -0.0031322888 -0.6471764
000260 f3 f8 99 be 4d ee c8 bc 6f 8d 70 bc 79 5c 03 be
       -0.30072746 -0.024527693 -0.014682158 -0.12828244
000270 69 20 87 3d ec ce d4 3d af 99 a1 be 74 8e 3d bd
       0.065979786 0.1039103 -0.31562564 -0.046278432
000280 95 17 33 be f0 45 65 bd 0f 2b 40 3e 11 61 cb 3e
       -0.17489465 -0.0559749 0.18766426 0.39722493
000290 24 e4 ec 3e 15 8c a3 be 9b 2c e0 be 8f 36 91 be
       0.46267807 -0.31942812 -0.4378403 -0.28361937
0002a0 d9 19 e7 3d b2 0a 40 be 48 b9 98 3c 78 32 fa bc
       0.11284227 -0.1875408 0.018643036 -0.030541644
0002b0 e2 58 1b be db 79 56 3e be 5b 3c 3d 42 7d f0 3d
       -0.15170625 0.20944922 0.04598593 0.11742641
0002c0 de a8 6c be 35 da 50 3e 91 fc a2 3d de 6f c5 bd
       -0.23111293 0.2039574 0.079583295 -0.096404776
0002d0 9c f9 63 be 0f a0 4c be a1 67 17 bf cc a6 cb 3e
       -0.22263187 -0.19982933 -0.591425 0.39775693
0002e0 fd db 53 bd 60 01 87 3e a7 26 31 3d f0 41 c5 3d
       -0.05172347 0.26368237 0.043249752 0.09631717
0002f0 b2 9a 04 3e ce da 3e bc 04 cc 9d be 76 27 8f be
       0.12949637 -0.011648847 -0.30819714 -0.27959794
000300 0a b3 14 bf 50 a3 0a bf b1 c6 73 bd 34 73 55 bb
       -0.5808569 -0.54155445 -0.05951566 -0.0032569887
000310 fc af e0 ba 87 c3 df 3e 60 27 23 3e 0a f7 ad 3e
       -0.0017142291 0.43703863 0.15932989 0.33977538
000320 6e 44 ba 3b 39 73 99 3e 6b a7 a3 be 06 75 19 bf
       0.005684427 0.2997072 -0.31963667 -0.5994419
000330 c9 74 89 be b9 30 79 be 99 42 a7 3e 51 41 ec 3d
       -0.26846913 -0.24334992 0.32667997 0.115358956
000340 84 76 8d 3e 46 1f 39 3d 00 1b e7 bd de 03 01 3e
       0.27629483 0.04519584 -0.11284447 0.12599131
000350 1d 60 9e be 46 2c f4 3d a4 d0 02 3e 8f c7 36 3e
       -0.30932704 0.11922507 0.12774903 0.17849563
000360 ce 5a 4f bf 0e 7f f0 be ff 69 98 3e bd cf 21 be
       -0.8099793 -0.46971935 0.2976837 -0.15801902
000370 0f 6f f2 3d ab 84 82 be 6f 61 70 be 9b 87 ec 39
       0.11837589 -0.25491843 -0.23474668 0.00045114462
000380 9e a3 1f 3e 34 b9 58 3d 59 27 fc be d8 62 d7 be
       0.15589759 0.052911 -0.4924877 -0.420676
000390 69 72 a9 be da 4e bd bd 52 e8 e0 bd 5b 84 1b 3e
       -0.330951 -0.09243555 -0.109818116 0.15187208
0003a0 74 fa d2 3d bc e6 ad 3e 99 26 ff be d3 54 c0 3e
       0.103016764 0.339651 -0.49834135 0.37564716
0003b0 df 44 3d be 14 7a 20 be 99 a6 13 3e 25 7b 48 3e
       -0.18483303 -0.15671569 0.1441902 0.19578226
0003c0 41 7c fd ba cc 19 5e 3d cb 8c 81 3e 98 60 1a bf
       -0.0019339399 0.05422382 0.2530273 -0.6030364
0003d0 d9 86 0f bf 0c 43 74 be fb 1a 0b bf 02 14 96 be
       -0.56065136 -0.23853701 -0.54338044 -0.2931214
0003e0 4b cc c6 be 1c c6 b4 3e 32 ca 82 be e4 61 23 be
       -0.38827738 0.35307395 -0.25544888 -0.15955311
0003f0 ce 10 43 be 63 a8 72 3d 63 15 50 be 1a c2 5a be
       -0.19049379 0.059242617 -0.20320658 -0.21363106

bias f4 [200]
000000 fb 2b b7 be d2 b1 92 be 52 cc 95 be e7 2f a4 3d
       -0.35775742 -0.2865129 -0.29257447 0.08016949
000010 32 61 ba be 2a 64 d1 3d 44 6b 5a 3e 79 4c 8b 3d
       -0.3640228 0.10224183 0.21329981 0.068016954
000020 e6 4b 8f be 58 50 53 3e 11 3a 21 3d 6e 72 dd bd
       -0.27987593 0.20636117 0.039362017 -0.10812841
000030 3b fb da 3d 8c 2f 86 be 89 9f ed bd 23 24 28 bc
       0.1069245 -0.2620815 -0.116026945 -0.010262522
000040 6e d2 00 3e 46 5f 50 3d ae b0 35 be 98 51 06 3e
       0.12580273 0.05087211 -0.17743179 0.13117063
000050 96 aa 6e be 34 e4 39 3d 37 18 9f bd 4b 0b 2c 3e
       -0.23307261 0.045383647 -0.077682905 0.16801183
000060 2b aa 3d be b4 ed b1 be 44 a2 e3 bd e1 0b 97 bd
       -0.18521945 -0.34751666 -0.11114934 -0.073753126
000070 8f a1 76 3d 40 01 ad 3e f5 8a 86 3e 40 15 51 bd
       0.060212668 0.33790016 0.2627789 -0.051045656
000080 d0 47 0d 3d 75 5e 5f 3e a7 a5 47 3e 07 40 c8 3d
       0.034492314 0.21813376 0.19496785 0.09777837
000090 ca c4 82 be 84 47 87 3e 35 f6 41 be 7c 26 db 3c
       -0.25540763 0.2642175 -0.18941577 0.02675175
0000a0 49 1b 19 be ca 98 30 be 82 d5 a7 3e 49 f4 ab be
       -0.14951815 -0.17245784 0.3278008 -0.33584812
0000b0 21 84 c9 3c d1 09 8d 3e 51 e8 30 3e 57 08 66 be
       0.024599137 0.27546552 0.17276122 -0.22464119
0000c0 74 2c ba be ec 4d 0d 3d 0c e8 71 be a8 5b 08 be
       -0.3636204 0.03449814 -0.23623675 -0.13316214
0000d0 3f 2f ea bd cc b9 09 3e 7a 42 85 3d 59 e6 6a be
       -0.11434793 0.13449782 0.0650682 -0.22939433
0000e0 3d 65 50 3c e8 c9 17 bd ab 31 44 be d4 0f 83 be
       0.01271945 -0.037057787 -0.19159572 -0.25598013
0000f0 2d 0e 1f be bb 1e fa bc ad 93 89 be 51 8d 2e bd
       -0.15532751 -0.030532232 -0.2687048 -0.04261524
000100 ba 77 5a 3d 10 76 6f 3e 21 ed 52 3e 95 be 9d be
       0.053336836 0.23384881 0.2059827 -0.30809465
000110 e3 68 d8 bc 5e 05 4c bb 2a e7 15 be 61 20 d3 3c
       -0.026417201 -0.0031131129 -0.14638963 0.025772275
000120 3e 74 9f be 7a 5d 86 3d 58 ac a3 bc 7d 11 00 3e
       -0.31143373 0.06560798 -0.01997964 0.12506671
000130 80 7b b7 3e 73 54 15 3e 6a 51 a7 bd dc 9d 9c bb
       0.3583641 0.14582996 -0.081698254 -0.0047795605
000140 3e be fc 3d 98 4d f6 37 68 56 37 3e 12 13 8f be
       0.12340973 2.9361618e-05 0.17904055 -0.27944237
000150 e7 63 01 3e 15 cd 11 3e a8 fe 72 be 67 5a 7a be
       0.12635766 0.14238389 -0.23729956 -0.24448548
000160 71 f0 65 3d f8 88 22 be b4 7f 37 3e ec 78 2c be
       0.056137506 -0.15872562 0.17919809 -0.16843003
000170 a9 b6 4f bb 59 31 6e be 30 81 91 bd 3a 46 94 3e
       -0.0031694567 -0.23261012 -0.07104719 0.2895983
000180 f4 4e 9a 3e 73 69 f2 bc e5 72 09 3e 41 5b 1d be
       0.3013836 -0.029591298 0.13422735 -0.15366842
000190 a3 73 85 be c8 8d fb 3d 38 21 03 3a a1 d6 a4 be
       -0.26064786 0.12282902 0.00050022034 -0.32195
0001a0 60 08 9b bd 6b 52 2c be eb 57 16 3d 13 69 c0 3e
       -0.07569957 -0.16828315 0.03670494 0.37580165
0001b0 7d 8b 9a 3d e9 55 89 be 23 7d 30 3e 17 42 93 3d
       0.075461365 -0.26823357 0.17235236 0.0719034
0001c0 00 12 48 be 96 25 29 3e 02 b1 a4 3e da 32 86 be
       -0.19538116 0.16518244 0.32166296 -0.26210672
0001d0 fb bc 2f be 19 8e 07 be 61 65 62 bc 6d 1b 56 be
       -0.17161934 -0.132378 -0.013818116 -0.209089
0001e0 f8 42 89 3e 15 4e 59 be 6a 39 4d be a4 49 1f be
       0.26808906 -0.21221192 -0.20041433 -0.15555435
0001f0 f5 f1 8c bd 3c 72 24 be eb 6e be 3e 96 cc 5d 3e
       -0.06882087 -0.16059202 0.37194 0.21660075
000200 b4 da 88 be 97 53 78 be 06 67 bd 3c db a1 47 3e
       -0.26729357 -0.24250637 0.023120414 0.19495337
000210 75 1e f5 bd 4d c1 60 bd a7 df 30 3e ab ae 46 3c
       -0.119687 -0.054871846 0.17272817 0.012126605
000220 44 6b 07 be ff d6 b2 bc 1c 2a 0f 3d 7b 28 9f 3d
       -0.13224512 -0.021831034 0.034952268 0.07771393
000230 26 06 a8 3b 36 4f 00 3e 0a 3d da 3d 84 ed 7e be
       0.005127686 0.12530217 0.106561735 -0.24895293
000240 48 25 81 be 36 be 53 be 01 96 16 be 53 6c 1b be
       -0.25223756 -0.20678028 -0.1470566 -0.15178041
000250 20 4c 34 be fe 4c 7e bc e4 94 a7 3d 44 5c bd bc
       -0.17607164 -0.015521286 0.081826955 -0.023115285
000260 78 47 b3 3c 34 ce 28 bd 35 17 cb 3d 5b 52 d2 3d
       0.021884665 -0.041212276 0.09916536 0.10269614
000270 eb 1e 26 3e 1c e4 42 be 9d 86 2c 3e a3 a3 9d be
       0.16222732 -0.1903233 0.16848226 -0.30788907
000280 1c ff 60 3e 88 98 49 bd db 6a d7 bd f9 b7 5f bd
       0.21972317 -0.04921773 -0.10518428 -0.05461881
000290 ad 69 f5 3b 2a 9e de 3c 58 3f af be 5d 9b 99 3c
       0.007489404 0.027175028 -0.34228015 0.01875084
0002a0 02 e2 72 be 1e d7 9b be ca 67 9d be 0c 27 dd bd
       -0.23719028 -0.3043756 -0.30743247 -0.10798463
0002b0 91 38 99 3e e6 27 83 bd 63 c6 a9 be f4 aa b2 3d
       0.2992597 -0.064040944 -0.3315917 0.08724013
0002c0 50 b7 94 be 14 ab 08 bd 38 7a a2 be 9e b9 55 be
       -0.29046106 -0.033366278 -0.3173387 -0.20871589
0002d0 3c 50 25 ba 4b a5 22 3e e6 09 29 3e 75 89 28 3e
       -0.00063062063 0.15883367 0.16507682 0.16458686
0002e0 5d 47 8a 3e f2 99 24 3e f5 b5 22 be 1d d6 a3 3e
       0.2700757 0.1607435 -0.15889724 0.31999293
0002f0 64 b3 03 be 08 af be be 7e f1 9c be 34 2a 24 bd
       -0.12861401 -0.37242913 -0.30652994 -0.04007931
000300 70 29 ef bd ab dc 8f be 4e 1e 33 b9 08 27 8b bb
       -0.116778255 -0.28098044 -0.0001708206 -0.0042465962
000310 53 a9 bd 3d a2 2e 0d 3e 48 65 70 bd 3a 22 30 be
       0.09260812 0.1378732 -0.05869034 -0.17200556

weight f4 [200, 200]
000000 72 38 3e be ba 7b ee bd 8c 45 00 bd d2 01 c6 bd
       -0.1857622 -0.11644693 -0.031316325 -0.09668316
000010 ca ac 22 bd 98 73 c4 3c bf ee d3 3d 75 7c 36 3e
       -0.039715566 0.0239809 0.103482716 0.17820914
000020 b1 f1 88 bd 6a 48 7c be 3e de d6 be 96 48 96 3d
       -0.06686724 -0.24636999 -0.41966432 0.073380634
000030 ce aa 1e bf 80 2a 94 3c e4 68 60 3d e8 1e b2 bd
       -0.6197938 0.018086672 0.05478753 -0.08697301
000040 fe a3 c1 bd ae ce 32 bd a7 60 9c bd 2d 2a f6 bc
       -0.09455107 -0.043654136 -0.076356225 -0.030049408
000050 ae 60 89 be 79 6a 17 3d 48 72 84 bd 9d da 7a 3d
       -0.26831573 0.036966775 -0.0646711 0.061243642
000060 49 21 25 be 42 d6 f3 be b6 87 ae bc d9 85 ee 3d
       -0.16125979 -0.47624403 -0.021304946 0.11646623
000070 a8 4a 87 be 98 c1 65 3d a1 76 c1 3d 77 e7 33 be
       -0.26424146 0.05609283 0.09446455 -0.17568766
000080 8a 7d e7 bd 50 f3 e2 3c aa 14 6b be 28 6d ab bd
       -0.113032416 0.027703911 -0.22957101 -0.08370429
000090 1f 4c 9d bd e7 9f 92 3c 2c 2c eb bd 0d 1c 6d 3e
       -0.076805346 0.017898513 -0.114830345 0.23155232
0000a0 2a 98 8f bd c1 17 92 be 82 75 0c be b0 29 e6 3d
       -0.07011445 -0.28533748 -0.137167 0.1123842
0000b0 7a c1 f3 bd cb 29 21 3e 56 1e c7 bd e1 ac 6b bd
       -0.11902137 0.15738599 -0.09722583 -0.057537917
0000c0 47 9c 96 be a8 55 c5 be aa a0 0e be e0 5a 9b bc
       -0.29416105 -0.38541913 -0.13928476 -0.018964231
0000d0 3c fd ce bd 69 00 85 be 93 b8 96 be 66 a1 22 3e
       -0.101068944 -0.25976875 -0.29437694 0.15881881
0000e0 b2 9e 4a bd 70 0f 39 bd b8 f0 a9 3d 1e 0f a0 3e
       -0.04946775 -0.045180738 0.082978666 0.31261533
0000f0 4b 62 9f 3c 53 66 5f 3e 45 6b 80 bd a9 99 81 be
       0.01945605 0.21816377 -0.0627046 -0.25312546
000100 bf 3b ce be 5b 1a af bd 61 c1 7d 3e 4d f0 7b 3d
       -0.40279958 -0.08549949 0.247808 0.061508466
000110 7b bd 56 ba 8c 90 e2 bd 40 c0 1d 3e 57 64 4c be
       -0.0008191687 -0.110627264 0.15405369 -0.19960152
000120 b1 66 92 3e 04 f3 01 bf 58 bc 88 be 94 d3 54 3c
       0.28593972 -0.5076144 -0.26706195 0.012989897
000130 70 24 dc bd b0 c2 04 3e 49 bc 30 bd 4c b9 7b 3d
       -0.107491374 0.12964892 -0.043148313 0.06145601
000140 bd c5 b0 be 2f 61 e3 bd 67 d8 3c bd a2 e3 50 bd
       -0.34525862 -0.11102521 -0.046104815 -0.050998338
000150 63 8b d0 bd 62 0a 60 3e 61 6c a4 be df 66 65 be
       -0.10182836 0.2187896 -0.32113937 -0.22402523
000160 9c 08 bb bd 37 4b 9e 3d 31 81 98 3d 2d a4 db 3d
       -0.091325015 0.0772919 0.07446516 0.107246734
000170 1d 2b b6 3e 85 2e 03 bc b2 05 b0 bc a3 10 09 be
       0.35579768 -0.008006697 -0.02148709 -0.13385253
000180 1f 02 c4 3e 5d cb 47 be f3 71 fd 3d 1d 22 12 3d
       0.38282868 -0.1951117 0.1237525 0.035677064
000190 d5 59 e0 bc 56 ea fa bd 9e 56 52 3e f0 11 41 3d
       -0.027386585 -0.12251727 0.20540854 0.047136247
0001a0 bd 10 00 be 1f 8b 04 be 8f 55 4f be 26 49 2b be
       -0.12506385 -0.12943695 -0.20247482 -0.16727123
0001b0 58 44 23 bc 3a 3a 55 bd 8b 29 ff bb 77 81 a4 3d
       -0.009965025 -0.052057482 -0.0077869347 0.08032506
0001c0 7f de d9 bc 39 c0 07 3e 7a cd a4 3e d6 01 35 3d
       -0.026595352 0.13256921 0.32188016 0.044191204
0001d0 bb 91 ad be c6 de a4 be aa 0f 8a be aa c8 0e 3e
       -0.33900246 -0.32201213 -0.26965076 0.13943735
0001e0 0f 9f be bc 27 a8 38 bd d1 f1 5a be dd 3a 32 bd
       -0.023269204 -0.045082238 -0.21381308 -0.043513168
0001f0 7c 7d 0a be 01 51 34 3d 5c 51 bd be 8b 28 a5 bd
       -0.13524431 0.044022564 -0.36976135 -0.080643736
000200 ae 43 a9 39 e3 d9 1c bd ef af 31 3e 17 8e 24 3e
       0.00032284617 -0.03829373 0.1735227 0.16069828
000210 e0 56 8a be d6 a2 53 be 68 77 b1 be 4c 57 5d 3e
       -0.27019405 -0.20667586 -0.34661412 0.21615332
000220 f1 3b 25 3e 1a 07 80 3e 16 6f 6a be a0 05 e3 bd
       0.16136147 0.25005418 -0.22893938 -0.11085057
000230 b1 0d 28 be 81 9c bc bb ad a8 81 be 08 49 1a 3b
       -0.16411473 -0.0057559614 -0.25324002 0.0023542065
000240 40 b4 ce be ca 41 db bd c2 be 48 3e 14 79 b2 bd
       -0.40371895 -0.10705908 0.19604018 -0.087145
000250 ec cf 82 3e 9f b8 63 be d4 39 07 3d 8a af 9c 3e
       0.25549257 -0.22238396 0.033014134 0.30602676
000260 b9 88 1a 3f 89 5d 0b bc 77 7a 31 bf 58 ee 67 be
       0.6036487 -0.008506187 -0.6932749 -0.22649515
000270 b1 cf a1 bd d0 ad c7 3c b4 8c 6e bd 64 c9 82 bd
       -0.07900942 0.024374872 -0.058239654 -0.063860685
000280 c3 5a 10 be 75 21 be bd 24 98 31 3d 11 7f 43 3e
       -0.14097123 -0.09283725 0.043357983 0.1909144
000290 49 ce 95 bc 2c 72 03 3e 98 47 e4 3d 19 e5 0e be
       -0.018286841 0.12836522 0.11146468 -0.13954581
0002a0 5a 59 0a be 81 f4 7b be ea 7c 35 bc 92 b3 45 3c
       -0.13510647 -0.2460499 -0.011077145 0.012066739
0002b0 4d ad 65 bd d3 dc 7e be 42 08 44 3e 53 21 1f 3e
       -0.056073476 -0.24888925 0.19143775 0.15540056
0002c0 cc 29 a8 ba 4e 31 3d 3e 3d 61 86 bd 61 d2 8d bd
       -0.0012829839 0.1847584 -0.065615155 -0.06924892
0002d0 e1 5e d3 bd 82 82 2e be 50 ed fc bd e0 89 98 bd
       -0.10320831 -0.17041972 -0.12349951 -0.074481726
0002e0 85 2f a8 3e e3 c3 51 3e c6 f3 eb be 88 d2 49 be
       0.32848755 0.20484881 -0.46084422 -0.19709218
0002f0 6d 94 26 bd 8b ba 8a 3d 09 e9 d6 bd 64 72 74 be
       -0.040668894 0.067738615 -0.10493667 -0.23871762
000300 09 6b 4f 3b 8c c6 34 be 25 4a dd bc 07 04 61 be
       0.0031649491 -0.17653865 -0.027012894 -0.21974193
000310 9e 67 39 bc 9a 3e 92 be a7 29 b5 3b 4c 7e d3 3a
       -0.011316208 -0.28563386 0.005528647 0.0016135662
000320 43 e7 26 3e 0e f1 f2 bd 80 10 18 bd 10 42 9a 3d
       0.16299157 -0.11862384 -0.03712511 0.07532132
000330 1a 25 f1 3d 65 e1 77 be 6a e9 e9 bd 90 5c 27 bd
       0.11774655 -0.24207075 -0.11421473 -0.04085976
000340 ad d9 15 bd ed 58 75 be ad 25 fb 3c e3 bb 50 be
       -0.036584545 -0.23959704 0.030657614 -0.20384173
000350 14 90 39 3d 86 2f 66 bd 27 a4 0e be 67 83 86 be
       0.04530342 -0.056197666 -0.13929807 -0.26272127
000360 17 ed a9 bd 12 83 ed bd 4a e7 81 3d 7b d4 18 3d
       -0.082971744 -0.11597265 0.06342943 0.037312012
000370 5e f6 e4 bd f5 ad 58 3d 6c 3c 3d bf c4 18 c9 bc
       -0.11179803 0.052900273 -0.7392032 -0.024547942
000380 a7 a3 4f bc 77 fe aa 3e 00 f3 c4 3b 70 69 7b be
       -0.012673295 0.33397266 0.006010413 -0.2455194
000390 ea 5b e7 bd 82 ef 18 be 71 7a c9 3d e9 99 bd bd
       -0.11296828 -0.14935115 0.09837807 -0.09257872
0003a0 4b 9b d1 bc 67 1c 5c be 29 e9 54 3d 76 cb 52 be
       -0.025586745 -0.2149521 0.05198017 -0.20585427
0003b0 dd 1c 85 3d 91 4e 82 bd 37 16 de 3c 33 37 86 3b
       0.06499646 -0.063626416 0.027110202 0.0040959357
0003c0 b7 91 78 bd 11 ec ef bd 9e fe 0e bf 7d 3d cc bd
       -0.06068584 -0.11714948 -0.55857265 -0.099726655
0003d0 0b c0 01 be 43 67 ba 3d 3e 2d 37 be 21 e1 37 bd
       -0.12670915 0.09101727 -0.17888352 -0.044892434
0003e0 50 81 c9 bc 34 74 79 bd c7 b3 59 bc 17 e8 a8 bd
       -0.024597794 -0.060901836 -0.013287491 -0.082473926
0003f0 1e b4 54 bc 4e 84 a3 3d ac 77 06 be 59 eb 8f bc
       -0.012982396 0.079842195 -0.13131589 -0.017568277

bias f4 [200]
000000 ba d0 f0 bd c6 1c 4f 3e bf 66 30 bd f6 49 60 be
       -0.117585614 0.2022582 -0.043066736 -0.21903214
000010 cc 82 be bd ff 55 11 3d 81 9b be bc 87 d5 57 be
       -0.09302291 0.035482403 -0.02326751 -0.21077548
000020 d8 c7 df bc 77 cb b5 3c de 0b 0b bc 74 e9 32 be
       -0.027316973 0.022191746 -0.008486716 -0.17471868
000030 6c e7 16 be 8e d3 a0 bd 56 30 a2 bd 44 8c 63 bd
       -0.14736718 -0.07852851 -0.079193756 -0.05555369
000040 d1 16 d3 bd 45 ed cf bd ad e2 25 be c2 65 b6 bd
       -0.10307086 -0.101526774 -0.16199751 -0.089061275
000050 c4 8e ac bc 81 3e 0d be 3a aa 84 bd 17 99 ad bd
       -0.02106417 -0.13793375 -0.06477781 -0.08476465
000060 d2 07 52 3d 2f ba 24 3d 4a f4 9e bd 77 a5 6b bd
       0.05127699 0.04021662 -0.07761438 -0.057530846
000070 b2 3f b6 bc 68 2f 26 3c 1f 8c 44 bd 88 8f a0 3b
       -0.02224717 0.0101431385 -0.047985192 0.0048999228
000080 28 75 42 be 21 df 87 bd 50 9e b8 bd d2 6c 5f be
       -0.18990004 -0.06634355 -0.09014571 -0.21818855
000090 4b b3 27 be 6f 98 75 bd 74 f6 ea bc 7a 13 83 bd
       -0.16376989 -0.059959825 -0.028681971 -0.06400199
0000a0 fd 70 55 bb 74 dc 95 bd 9d 15 d3 bb 6c 96 a5 3d
       -0.0032568567 -0.07317439 -0.0064417855 0.08085331
0000b0 4b 66 7e bd 97 92 e2 3c 9a 80 58 be cd 64 43 bd
       -0.062109273 0.02765779 -0.21142808 -0.047703553
0000c0 ff e9 d2 bd 53 c9 ea 3d 9d fd ec bd d3 e5 14 be
       -0.102985375 0.11464181 -0.115718104 -0.14540796
0000d0 aa 38 15 3e 84 b3 82 bd 82 ec fa bd c8 aa a0 bd
       0.14572397 -0.06381896 -0.122521415 -0.07845074
0000e0 ac e9 bf bd f4 6f d6 bc b0 c1 be be 41 81 46 bd
       -0.09370741 -0.02617643 -0.37257147 -0.04846311
0000f0 0f a9 99 bd bf 44 32 be ee b0 36 3c 68 e3 5d be
       -0.075029485 -0.17409037 0.011150582 -0.2166878
000100 03 5c 31 bd 53 2c 6d 3e 1e 10 97 bd a5 b3 e8 3d
       -0.04330064 0.2316144 -0.07376121 0.113623895
000110 e6 5c 84 bd c3 8a c1 bd f9 9c a6 bc fd 9e bf 3d
       -0.064630315 -0.09450295 -0.020338522 0.093564965
000120 00 2e 31 bd 82 58 1c be bd b1 83 3c 59 8d 90 bd
       -0.04325676 -0.15268138 0.016075963 -0.0705821
000130 53 c9 74 bc e2 af f3 bd ce 81 cc bd ec 5a 73 ba
       -0.014940578 -0.11898781 -0.09985696 -0.0009283263
000140 8a 4d 06 bd 54 c2 f0 bc c9 84 7c bd 28 49 74 3d
       -0.03278879 -0.029389538 -0.06165007 0.05964008
000150 e3 74 db 3d df f1 e9 3d 01 50 4b be 41 62 dd bd
       0.10715654 0.114230864 -0.19854738 -0.10809756
000160 4c 86 9c bd 8e d6 dd bd 00 f7 07 3d e0 2c c5 bd
       -0.076428026 -0.10831939 0.033194542 -0.096277
000170 f1 5b dc bc da e6 bb bd de b7 8f bd e5 be 3b be
       -0.02689931 -0.09174891 -0.07017492 -0.18334539
000180 12 e9 c8 bd 97 0e db 3c 8f 7d 85 bd 53 a7 18 be
       -0.0981008 0.026740355 -0.06518089 -0.14907579
000190 00 49 bc bd e2 fa 81 bd 8c 91 0e be 71 0a e8 bd
       -0.09193611 -0.0634668 -0.13922709 -0.113301165
0001a0 04 4d 91 ba a4 b7 5d 3c 02 49 50 bd e5 37 48 3d
       -0.0011085575 0.013532553 -0.050850876 0.04888143
0001b0 b8 7e 4c be db 6b d1 3c 00 4a 10 bd fd 39 02 bd
       -0.19970214 0.025564125 -0.035226822 -0.031793583
0001c0 98 84 66 be 13 f9 8c bd d2 73 52 bd 31 be bb 3d
       -0.22511518 -0.06883445 -0.051379986 0.091671355
0001d0 b8 ca 6e bd 4f c9 ab bc 41 a5 1f 3d 41 4c cc bd
       -0.058298796 -0.020970015 0.038975958 -0.09975482
0001e0 56 26 30 bd 82 92 7f bd be d5 bd bd e1 34 c7 bd
       -0.04300531 -0.06239558 -0.09269284 -0.09726883
0001f0 7d a0 9b bd e7 b0 39 bd 46 47 24 be cd 6d 8d bd
       -0.0759897 -0.045334723 -0.16042814 -0.069057085
000200 1e 7c 81 3d 5a f0 23 bd 11 3c 42 bd b4 a8 28 3e
       0.063225016 -0.04002414 -0.047420565 0.16470605
000210 7f 51 bc bd 52 b2 3a bd 53 43 e4 3d 87 7d cd bd
       -0.09195232 -0.045580216 0.111456536 -0.10033708
000220 9e 1a b7 3d b2 3d 35 bd 88 62 09 bc 40 80 71 bd
       0.08940624 -0.04424829 -0.008385308 -0.0589602
000230 44 db 5e bd d3 9a c3 bd 73 ef 7c be db 4e 09 bd
       -0.054408327 -0.09551015 -0.24700718 -0.033522468
000240 e9 ab 42 bd aa 57 be bd 52 f0 f4 bd 1f cd 22 bd
       -0.047527228 -0.09294064 -0.119599 -0.0397464
000250 6e 49 af 3c 1d da 0f be d6 f5 5a be 31 38 15 bd
       0.021397319 -0.14048047 -0.21382841 -0.03643054
000260 95 61 45 be 1a 9d 49 bd 50 9e a2 bd f7 0d c8 bb
       -0.19275506 -0.04922209 -0.07940352 -0.0061051804
000270 a5 ab d6 3d 0c 1f a6 bd a4 51 e7 bd 67 b3 46 bd
       0.10481957 -0.081113905 -0.112948686 -0.048510935
000280 74 5d 63 bd 99 7c 0f bc 83 2d 04 be 3e 56 8b bd
       -0.055509046 -0.008757734 -0.12907986 -0.06803559
000290 be 57 13 bd 8e 7f b4 bd ca 80 93 be a3 95 e2 bd
       -0.03597235 -0.088133916 -0.28809196 -0.11063697
0002a0 2c 27 9c bd 0a 1c fc 3d b4 04 a2 be ff 70 e3 3b
       -0.07624659 0.123100355 -0.31644213 0.0069409604
0002b0 c2 7b 01 be 15 b0 be bd 63 45 d1 bc e8 f7 51 be
       -0.12644866 -0.09310929 -0.025545781 -0.20504725
0002c0 07 97 8c be b2 7f 71 bd cf 2d 4a bd a8 f9 aa bd
       -0.27458975 -0.05895967 -0.049360093 -0.083483994
0002d0 31 7e e0 bc 96 fc 08 bc bc 69 90 be 39 ca 98 be
       -0.027403923 -0.008361002 -0.2820567 -0.29841784
0002e0 59 a1 cf bd 59 cf c9 bd 9e c8 21 3e 11 48 91 3d
       -0.101381965 -0.098540016 0.15799186 0.07093824
0002f0 c5 6a b4 bb 39 5d 48 3e 8f 91 6b be 67 86 e7 bc
       -0.005505892 0.19566812 -0.23004745 -0.02826233
000300 68 a5 13 be 03 ef 9f bd f0 bc 40 be 9d 8d 08 3c
       -0.14418566 -0.0780926 -0.18822074 0.0083345445
000310 89 a3 83 bd bf 17 d3 bd 82 ac 38 3d ad 54 a0 bd
       -0.06427676 -0.103072636 0.04508639 -0.078286506

weight f4 [2, 200]
000000 5d 18 51 be 6b 2c a4 3e ba 34 a9 bb 5f 01 ff 3c
       -0.2041945 0.32065138 -0.005163756 0.031128583
000010 dd 3b f0 be 56 5d 2a be e5 34 1e 3d 20 53 d9 bd
       -0.46920672 -0.16637167 0.038624663 -0.10611558
000020 cd c6 09 3d 29 60 5a 3e 63 f0 0e bd 86 0a ce be
       0.033636857 0.21325745 -0.03489722 -0.40242404
000030 33 e2 3a bd 6f 1a a8 3c 45 3e 1c 3d d3 8a 97 be
       -0.045625877 0.020520417 0.038145322 -0.29598102
000040 c5 20 b8 bc 75 b5 c2 3c 9d 3c 74 bd ff 1b a0 3e
       -0.022476563 0.023768166 -0.059628118 0.3127136
000050 5c 90 6a be 40 6a 91 be 92 56 57 bb 01 07 4e bc
       -0.22906631 -0.28401375 -0.0032857996 -0.012574912
000060 35 d9 55 3d ee 5c 9d 3e 01 42 1f 3c 83 43 58 bd
       0.052209098 0.30734962 0.009720326 -0.05279876
000070 a5 8e 3a 3f 6b 47 3b be ea 19 14 bd 09 8a 95 3e
       0.7287391 -0.18288963 -0.036157526 0.29206875
000080 02 b0 e2 3e bb 71 87 3d 4a 9b 2c be bf ce 8e 3e
       0.44274908 0.06613489 -0.16856113 0.2789211
000090 69 17 67 be c0 e6 b1 3c af 89 95 bc 15 2c ff bc
       -0.22567524 0.021716475 -0.01825413 -0.03114895
0000a0 dc 17 9b bc 07 a1 24 3e 1b bc 4d be cf bf 4e 3e
       -0.018932275 0.16077052 -0.20091288 0.20190357
0000b0 aa 8b 09 bd 6b 0a 58 3d 7d 07 3a be 49 15 1e 3e
       -0.03358046 0.05274431 -0.18166919 0.15437807
0000c0 73 ec 3e 3e a2 27 9b be da a5 18 3b 54 56 52 3d
       0.18644886 -0.30303675 0.0023292215 0.05135186
0000d0 57 a2 9a 3e 52 29 92 3b f7 98 9a 3e 0b fe fa bd
       0.3020198 0.004460492 0.30194828 -0.12255486
0000e0 7b 08 bb bb 45 39 8a be e9 fa 1b bc f7 f9 87 3c
       -0.005707798 -0.26996818 -0.009520271 0.016598685
0000f0 76 85 67 3b 60 4a f5 3c 6c a2 96 3e 50 bf 9f 3e
       0.0035327352 0.029942691 0.29420793 0.31200647
000100 42 b3 3e 3a 2d 8f a1 3e 4a 9d 4f 3e 43 14 54 3e
       0.00072746363 0.31554547 0.20274845 0.20710854
000110 e1 c6 ff bd 87 4a f0 bc 1e ac fc bc c8 32 5c 3e
       -0.12489105 -0.029332412 -0.03084379 0.21503747
000120 da 83 7a bc 6c 54 ac be 10 be 01 bf 75 2a b0 3c
       -0.015290225 -0.3365816 -0.5068064 0.02150462
000130 dd 3e 74 3e 66 40 14 3f e3 01 d3 3d 2f 0f 90 be
       0.23852105 0.57910764 0.10303094 -0.28136584
000140 8e 86 39 be 54 7d 0f 3d 6c 54 85 3b 9d 4b 39 3d
       -0.18117735 0.03503163 0.0040689018 0.045238126
000150 d5 a5 5a 3e b5 10 21 3e 23 fe 17 bd 0e cf bb bd
       0.21352322 0.1572903 -0.037107598 -0.09170352
000160 1c 48 0a bd e6 6b 00 bf fc bd 36 be 50 f5 4c 3b
       -0.033760175 -0.5016464 -0.17845911 0.0031274147
000170 87 bf fd 3b 3a cc d9 3c 0b ef 3e 3d 73 07 96 be
       0.007743779 0.02658664 0.046614688 -0.29302558
000180 03 b6 0a bd e9 82 27 3e 26 9e be 3c 6f 66 9d bd
       -0.033864986 0.16358532 0.02326877 -0.07685553
000190 2b 7d e0 bc d0 cb c6 be f3 10 a3 be 30 00 c5 3c
       -0.027403435 -0.38827372 -0.3184887 0.024047941
0001a0 56 28 09 3f cd 05 7c 3d d2 7a 54 bc 4e 97 2a 3e
       0.5357717 0.06152897 -0.012968736 0.1665928
0001b0 58 83 4f 3c 81 60 99 be 96 7d 14 3d a5 b0 99 bb
       0.012665592 -0.2995644 0.03625258 -0.004690247
0001c0 1e 19 42 bf 9c 4b 2f 3c f4 3f 81 3d cd d9 60 be
       -0.75819576 0.010699179 0.06311026 -0.21958084
0001d0 2d 25 46 bd 83 88 01 3d 0d 3a a3 3e a6 d6 05 bd
       -0.048375297 0.03162433 0.31880227 -0.032675408
0001e0 72 64 67 3d de ba d7 3b c3 c4 16 3d be 3d 00 bc
       0.056492276 0.0065835556 0.03680874 -0.0078272205
0001f0 6a 7f 35 3b 54 17 15 bc 99 a3 0e 3f 25 10 73 3e
       0.0027694353 -0.0090998 0.5571838 0.23736627
000200 9a 74 11 bb a3 e0 73 3a ab d4 3b 3b 2a a6 89 3d
       -0.0022194744 0.0009303188 0.0028660696 0.067211464
000210 04 de 5b 3c fe 27 4d be 7a 83 3d be fa d6 d9 be
       0.013419632 -0.20034787 -0.18507186 -0.42546827
000220 94 33 9a 3d 1d 2c 37 b9 76 a2 60 3b a3 f0 a3 3d
       0.07529369 -0.00017468673 0.0034276522 0.08004882
000230 da 59 83 bb ee d4 3c bc ad d1 33 3e 58 9b 01 bd
       -0.004008514 -0.011525376 0.17560454 -0.031642288
000240 03 41 30 bd 3a 51 3b 3f d1 06 d6 bd 1a 98 41 bd
       -0.04303075 0.73170817 -0.10450519 -0.047264196
000250 5e d1 ea 3d e4 7a 98 be d2 eb ac bf 20 ef 83 3d
       0.11465715 -0.29781258 -1.3509467 0.06442094
000260 d0 38 a5 be 3e 85 ba 3d 06 f8 b7 3b ff 56 91 bc
       -0.32269907 0.09107445 0.0056142835 -0.017741678
000270 6c c1 92 be b1 23 ba 3c f5 aa 21 bd be ec ba 3c
       -0.28663194 0.022722097 -0.039469678 0.022817966
000280 cc 61 25 3d 65 92 b5 3c d2 ff 9a bd b1 6e 80 be
       0.04037647 0.022164533 -0.07568325 -0.2508445
000290 f3 ad 51 be 37 55 c0 bb 3e 96 63 bf ac 4d f6 3f
       -0.20476513 -0.0058695334 -0.88901126 1.9242454
0002a0 5c fe ef ba 19 7f 47 3e d7 7c 54 bf 62 52 e6 3b
       -0.0018310058 0.19482078 -0.8300299 0.0070288638
0002b0 7e ad b6 3e 68 55 c9 bd 0c 80 2e bc 48 cf bf bd
       0.3567924 -0.09830743 -0.010650646 -0.09365708
0002c0 7d 81 34 be de 36 cd 3b c8 f9 f1 be cf 7c 02 3d
       -0.17627521 0.006262644 -0.4726088 0.031857308
0002d0 17 4a 3e bd 2d 63 03 3d 90 ab 89 3e f6 bb a4 be
       -0.046457376 0.032077003 0.26888704 -0.32174653
0002e0 b2 f0 1e bc 10 43 bc 3c 19 50 92 be 5f 6a c9 3c
       -0.009700941 0.022981197 -0.28576735 0.024586855
0002f0 e3 5e a6 be 86 4e f9 b8 27 f6 da 3c 3d d7 01 3e
       -0.32494268 -0.000118878714 0.026728703 0.12679763
000300 57 f2 fe be 51 9f 9f bc b3 ce b2 be fa f0 cf be
       -0.49794266 -0.019485148 -0.34923324 -0.40613538
000310 6d 00 0c be 8a f0 bc bc ca d6 78 be d0 2a 0d be
       -0.13672037 -0.023063917 -0.24300686 -0.13785863
000320 21 3d c5 be 12 e5 a6 be 81 64 a9 bd 7a 9d 4e 3c
       -0.385232 -0.32596642 -0.08271123 0.0126107875
000330 16 1a 56 bf cd b9 b0 3c f3 10 8d bc ca bb 0c bd
       -0.83633554 0.021572972 -0.017219996 -0.034358777
000340 2e 76 8a bc e8 ad 57 be 0c 20 33 bc 31 4e 35 be
       -0.016902056 -0.21062434 -0.010932934 -0.17705609
000350 0b 16 c8 bc 13 5b 44 bc 94 a5 53 be d4 cf 03 bf
       -0.024424573 -0.011984604 -0.20668632 -0.51488996
000360 f8 ac b2 be 0d 16 72 bd 24 d9 11 3e ad 51 66 be
       -0.3489759 -0.05910306 0.14242989 -0.22492094
000370 ed ba 3e 3d 03 9a 49 be f8 fd 8b ba 3b 81 f5 bb
       0.046564985 -0.19687657 -0.0010680547 -0.007492212
000380 fd 2c b9 3d bd d7 37 be 9d 79 67 bb f7 22 93 3e
       0.09041784 -0.17953391 -0.003532029 0.28737614
000390 b6 d4 c0 3c 74 f6 7d 3e 8c aa 21 3d 12 ef 76 be
       0.023538928 0.24801046 0.039469287 -0.24114636
0003a0 3f da 0a 3d ca 16 d4 3c d6 e6 a5 be f6 f0 aa bc
       0.033899542 0.025889773 -0.32402676 -0.020866852
0003b0 44 2a 6d 3d d0 94 53 bd 19 d1 43 bd a9 3f 1f bf
       0.057901636 -0.05165559 -0.047806833 -0.6220651
0003c0 f2 c3 d3 3d 7c 32 6e be 16 3d ad bd aa 24 07 bf
       0.10340108 -0.23261446 -0.08458917 -0.5279032
0003d0 46 1a 86 3d 7a 52 24 3c e0 29 cc 3d e0 5c 47 be
       0.0654798 0.01002943 0.099689245 -0.19469023
0003e0 0a 99 9a be 68 1e 0b be 44 a3 a7 3c 2e 36 c7 bc
       -0.30194885 -0.13585818 0.020463593 -0.024317827
0003f0 87 be a9 3d 7c fb 92 3c 92 37 9d be 04 9e 40 3e
       0.08288293 0.017942183 -0.3070646 0.18810278

bias f4 [2]
000000 dc d9 d8 3d e5 ee 4d 3c
       0.105884284 0.012569164
